model_lstmBlocktest_ur10.pth (torch, 367511 bytes, 6 tensors)

lstm.weight_ih_l0 f8 [256, 112]
-0.37141801941555724 0.3386919638355733 -0.025706353330484027 0.0050629928376998146 -0.2596406096968615 -0.09774011747504469 0.01937486897689803 -0.009927068167791958
-0.26400133677481474 0.3324223611542505 -0.033499105468419756 0.04366845965467566 -0.3982785941126492 0.20336707185689282 -0.030154988808965822 0.035109080570368933
-0.28583848649914917 0.06167179246435746 -0.03000198095304584 0.06169430632466184 -0.3483024233003812 0.003059702775055329 -0.016413343187335876 0.04282150888402748
-0.6281226982063967 0.273704244478841 -0.027215560624902036 -0.057982834003307795 -0.3518699641846965 0.340500848976534 0.024410854929261348 -0.07135807843273713
-0.3942690661912532 0.35068249540802915 0.00833960675552777 -0.024971928016026178 -0.7047891511844345 0.2388366813515847 0.027102900788996055 -0.03895403349409551
-0.8723832626083986 0.1979787318377311 0.027930580888306425 -0.00028833374738549447 -0.7819582424411922 0.2180751488818898 0.012909480038681932 -0.03408164316570275
-0.1509915497816698 0.265361286729636 0.01847395818920884 0.05332688910254365 0.20548619310554436 0.11251680772356748 0.019470035662970422 -0.004050776380957018
-0.3147352897984067 0.1366383560377142 -0.006912733469857 0.04811320258717825 -0.3732832233395662 0.017142156491405325 -0.018496654908031058 -0.005235498907875186
-0.3945734830824643 0.09559953283908569 -0.013671817095578416 0.05261872538070106 0.694786567246965 0.6232644092800695 -0.01992117354898853 0.07027752589824705
0.2178875082511153 0.7536799896295859 -0.006050762369530223 -0.028947511324155586 0.7237590814057949 1.04856586464367 -0.024392686845960625 -0.045798215343907815
1.2573569527219255 0.6685007064683663 -0.013762486154204138 0.04426007975865071 0.26992572434906786 0.3530122702452693 -0.032720960898603546 0.024127713611791543
0.07463454201426616 0.40281143499086053 -0.025172056963936863 0.00030544438105449046 -0.05034431517793268 0.8855129707648222 -0.03080186761120168 -0.014368102380810824
0.448313497701028 0.9473959825423898 0.029353458015539766 -0.020706305863613224 0.7494607207291464 0.8772952110204206 0.010082968420960636 0.0015564060955234633
-0.19409863462437568 0.5549646392711357 0.026005910917532484 0.02038020443858115 -0.3221522176973503 0.626378284816261 -0.015541442823794042 -0.057255392307152375
-0.07801366569109239 -0.20601866227842186 -0.019268659147134676 -0.0890653684691287 0.10640075462021097 -0.23030166512363323 -0.0057753210380120336 -0.03132584121945717
0.10008689070230319 -0.1623169978570727 -0.025765575801812615 0.04896720839184689 -0.1357540685024699 -0.29177117979619105 -0.030314147009550665 0.03302544179319756
-0.10762627245775148 -0.32434851992001473 0.021798572642772546 0.05799285520360287 -0.09927586693698831 -0.28172180104674843 0.013968724139668957 -0.05065312906421255
0.01657066445331206 -0.3049417506165196 -0.025437669369796505 -0.04916721464689347 -0.26681237869853025 -0.20466112533632413 -0.001649165184724943 -0.07500115197412394
-0.024133871795595 -0.20030645507935924 0.005410161069848258 0.01886764597222479 0.07914562642155153 -0.30784791345643997 -0.016280440273753735 0.023132826935249828
0.17036278517141154 -0.3297714339700406 0.018336285236907376 0.08027644649650945 0.005723596880328034 -0.3186273107828234 0.007060989277267977 0.08745621479588198
0.08168419195913705 -0.19577199691810857 -0.006842384658260193 0.06907583725660621 -0.06549316954135681 -0.1732385109879631 -0.013235624142721045 0.050443209328435976
0.007004465165818657 -0.10736724314438442 0.024028209833931294 -0.07720027915637788 0.011156669535412734 -0.27312103376798336 0.002684512418248848 0.05512223481517672
-0.02767692737345713 -0.16694602765798008 -0.030744812700116295 -0.07789570255478039 0.09145762805775848 -0.3673308467154191 -0.013645051666239316 0.009187778380675343
0.10734884295630148 -0.26452328569852657 0.03137721234829524 -0.08007276434594539 0.034016743914861446 -0.2652648134406314 0.011077358036189928 -0.08906110870300418
-0.37412966049164026 -0.2893234787640541 0.020152205605692336 -0.09456223192727785 -0.015044846265915767 -0.41743841505902496 0.028927338266306103 0.0033672717331621796
-0.3089055077242229 -0.25236505183846736 0.029400222865430876 -0.06893766721396652 -0.20402858599656254 -0.3052390456218756 0.0013906496961558921 -0.04461832147042018
-0.06180717321512573 -0.3375675706769276 -0.027049885088138416 -0.08922102653992939 -0.38161956546546655 -0.24303770979196015 0.02153077794584146 -0.07693153593382838
-0.06263753488846746 -0.27562229798379245 -0.022437759662255995 -0.042523718936278036 -0.04906505977816298 -0.2118233332256047 0.018261352692736765 -0.11140277491092229
-0.25024487712503707 -0.584873710390199 0.017222756871880317 -0.05030656423270409 0.36275684341267234 -0.2887069983491928 0.01460087342947609 0.042029570940641484
-0.08743497664505862 -0.3381012370316026 0.015945683858779106 0.12072415302584225 1.009838214837157 -0.5773578860097016 0.016644973384649323 -0.12169174510249696
0.6175443953695372 -0.5726542926398841 0.013963698620292711 -0.08845953620316553 -0.007113557913060788 -0.5141687343833582 0.016672986888278965 0.1055164944993118
0.07853485617250147 -0.5897916786212972 0.01595406452111074 0.03670996306477957 -0.0885262277543995 -0.7546243440329634 0.013829089941347265 0.1785304965987892
00000000: fd3b a215 50c5 d7bf 16e0 050f 21ad d53f
00000010: 8b57 6a2b c452 9abf 605c 86ca eebc 743f
00000020: 2723 d7a5 f39d d0bf fc00 1010 7f05 b9bf
00000030: 8af1 7a72 01d7 933f b0b2 0189 a454 84bf
00000040: 4214 e3dc 65e5 d0bf 7c76 6770 6846 d53f
00000050: 853e dd74 cb26 a1bf 1bc4 2a5c b65b a63f
00000060: b048 1a80 657d d9bf 9bb4 5aa5 ee07 ca3f
00000070: fda6 fb0a f3e0 9ebf 484a af41 d1f9 a13f
00000080: 4bed dc81 2d4b d2bf dab2 70f7 7193 af3f
00000090: 7ec0 08dc d6b8 9ebf 8a14 0768 6596 af3f
000000a0: f654 4c3f 964a d6bf 4ec7 566b a910 693f
000000b0: 7b9d d4d0 a8ce 90bf 91cd 7168 b3ec a53f
000000c0: fd7e d5c5 9419 e4bf 5e08 b4ce 5e84 d13f
000000d0: fd16 4e5b 65de 9bbf ca15 8c0f edaf adbf
000000e0: b48c 2799 0985 d6bf 2053 a712 c4ca d53f
000000f0: 29b4 5abe 28ff 983f d98b 2ce5 8544 b2bf
00000100: c56a 4752 b43b d9bf 6fa8 43fe 9471 d63f
00000110: ab41 3612 5b14 813f 966c 96b8 3d92 99bf
00000120: 3735 5dfa a18d e6bf d6bf be4b 3392 ce3f
00000130: 8ad7 0fe2 dcc0 9b3f 4b11 cf77 c8f1 a3bf
00000140: 2363 cf4d 90ea ebbf 49f7 45f9 5d57 c93f
00000150: 94ec e48d d599 9c3f 6d3a ee03 70e5 32bf
00000160: 02ec c34a cd05 e9bf 634f 42f0 e2e9 cb3f
00000170: 6795 9814 4970 8a3f 24ce 942d 2673 a1bf
00000180: ae6e 24ec b053 c3bf 8035 08e8 adfb d03f
00000190: c454 0059 d6ea 923f 6bbc 6279 a94d ab3f
000001a0: 3b7c 951f 5f4d ca3f 844c 6cc9 e6cd bc3f
000001b0: f798 b2f9 f3ef 933f 3c1f 4601 8c97 70bf
000001c0: 0633 257c 9f24 d4bf f7d4 479b 5d7d c13f
000001d0: 8b2f ddc2 8650 7cbf 254a 3c2f 4ba2 a83f
000001e0: c0e3 1851 dfe3 d7bf f0d2 0da6 b68d 913f
000001f0: 555c a97f c9f0 92bf 54ad 6689 d171 75bf
00000200: c44f 6d23 b140 d9bf 3d87 0e03 3679 b83f
00000210: 4452 6b3a f8ff 8bbf 78aa 5571 d7f0 aa3f
00000220: 83d3 000a b13b e63f 0bcc d333 c8f1 e33f
00000230: ee39 9053 3766 94bf 9d73 603b b5fd b13f
00000240: c69e 12e5 bce3 cb3f 657a 637f 251e e83f
00000250: bb53 e327 afc8 78bf 9458 c099 6aa4 9dbf
00000260: bd44 1ace 0829 e73f 5e8b 0500 edc6 f03f
00000270: 5e54 0f81 65fa 98bf 1f08 3c1a dd72 a7bf
00000280: 166c f552 221e f43f 104e f497 5b64 e53f
00000290: af3a 8d9f 812f 8cbf f9db 29d6 41a9 a63f
000002a0: 356a 9b8b 7646 d13f bf91 f2c6 c097 d63f
000002b0: 7009 e841 cdc0 a0bf 9c41 8f73 efb4 983f
000002c0: 0b6c 1ad5 3f1b b33f 9965 ef9c a9c7 d93f
000002d0: bd8d bb25 b4c6 99bf a4b6 9ba0 8104 343f
000002e0: 0e1d 75e6 bac6 a9bf 84cc 334c 1f56 ec3f
000002f0: cfee 2e58 868a 9fbf 6238 a60e 066d 8dbf
00000300: 66cd be18 2bb1 dc3f 0734 2c61 1151 ee3f
00000310: 1915 ce38 d50e 9e3f 0251 05aa 0834 95bf
00000320: 7e62 a50c 95fb e73f dea4 0868 cd12 ec3f
00000330: 66c1 ea1c 61a6 843f 8d72 e451 0a80 593f
00000340: 2379 f45b 39d8 c8bf 1164 0334 45c2 e13f
00000350: 67ef 9223 4ba1 9a3f 26b0 325e 8cde 943f
00000360: f703 d655 249e d4bf b7bb 0679 4a0b e43f
00000370: 5c6b 4925 31d4 8fbf 602e f52a 9450 adbf
00000380: 22c9 c81e b4f8 b3bf a6fd 6ccc d15e cabf
00000390: 35b5 7fd3 29bb 93bf fff5 c7ec fccc b6bf
000003a0: 1b10 5d71 143d bb3f fbcd f563 867a cdbf
000003b0: fbef b6ef dca7 77bf d450 1dcf f009 a0bf
000003c0: c320 5362 4b9f b93f 92c5 b0aa cdc6 c4bf
000003d0: 64bf b985 4a62 9abf e321 3ddd 3a12 a93f
000003e0: c22e 42aa 6360 c1bf 60f5 c806 61ac d2bf
000003f0: b472 0cf8 ab0a 9fbf d11e e0f0 b5e8 a03f
00000400: 517c 6538 658d bbbf 79ff 634b 20c2 d4bf
00000410: c897 6672 5d52 963f 2095 0051 3db1 ad3f
00000420: f8c2 c6a9 246a b9bf 6539 84e0 ba07 d2bf
00000430: 2f17 c66a a29b 8c3f 29ae 8af9 34ef a9bf
00000440: 6e90 9977 e6f7 903f e24e 8567 2a84 d3bf
00000450: 5b73 1e18 550c 9abf 543c e3f5 712c a9bf
00000460: e266 2b3a 7413 d1bf 3e81 0af4 5532 cabf
00000470: 989e 2ea2 1905 5bbf e824 e486 4633 b3bf
00000480: 3e0c 5ab8 8cb6 98bf 5a2c df54 a4a3 c9bf
00000490: fb06 c70d f728 763f 80e3 9c49 0a52 933f
000004a0: 7f1c 1a45 e342 b43f dffb 1bbc c7b3 d3bf
000004b0: 3c38 29da d1ab 90bf 538c 9abc 21b0 973f
000004c0: c722 629f 72ce c53f 349b 03a5 f91a d5bf
000004d0: ccc9 b045 bfc6 923f 3873 5748 ff8c b43f
000004e0: 44f8 a956 a071 773f 8b2d dbcd 6364 d4bf
000004f0: 2153 5fe0 fbeb 7c3f 0259 61ce 8763 b63f
00000500: db8e 1055 41e9 b43f 9d31 1e8a 0e0f c9bf
00000510: 3492 57a5 c206 7cbf 4c00 f63d f4ae b13f
00000520: 74a0 4a0d 29c4 b0bf d2ee 8cf5 ad2c c6bf
00000530: 385b ae66 471b 8bbf 86e8 bd3c b1d3 a93f
00000540: 86b6 02cd b6b0 7c3f f280 f76d 6b7c bbbf
00000550: 4432 acdd d99a 983f 9bfd 37c2 65c3 b3bf
00000560: 4786 4bd6 4ed9 863f 5a86 f8a4 d07a d1bf
00000570: f6c1 58a1 d4fd 653f 5b92 a047 fb38 ac3f
00000580: 74e9 b027 5757 9cbf 3d7b 7ec8 7c5e c5bf
00000590: dc4a 4674 917b 9fbf ffc2 f806 f9f0 b3bf
000005a0: 6851 7a61 c469 b73f 091a 5d3d 5982 d7bf
000005b0: 4613 45d5 eff1 8bbf 16da 57bd 0ad1 823f
000005c0: d4c0 c2b9 367b bb3f bec2 4613 f3ed d0bf
000005d0: 6c4b c089 ac10 a03f d388 2a10 a67f b4bf
000005e0: f3ef 4285 a46a a13f 8f73 a044 19fa d0bf
000005f0: 44a1 eed3 b9af 863f 4e93 3975 b5cc b6bf
00000600: 859c 1188 bdf1 d7bf 876b d09f 4684 d2bf
00000610: 682a 13a0 c7a2 943f 2f7e 90fd 3a35 b8bf
00000620: 53d0 7b15 d5cf 8ebf 0d72 319d 4fb7 dabf
00000630: 1da7 41cf 209f 9d3f cbc8 0f3f ae95 6b3f
00000640: 41b5 4e9b 1bc5 d3bf 062c 13bf bf26 d0bf
00000650: 02fd ce8e 171b 9e3f 2e82 2522 e6a5 b1bf
00000660: 42f5 26d4 9b1d cabf 1320 9a59 0989 d3bf
00000670: 478a c5bd cec8 563f 2a26 096f 36d8 a6bf
00000680: fefd 3b97 30a5 afbf 3bd8 0f03 b59a d5bf
00000690: baa6 410f f7b2 9bbf 72c3 1a6f 30d7 b6bf
000006a0: b706 4c78 746c d8bf 9427 a013 dc1b cfbf
000006b0: 2010 8a0c 2a0c 963f 57e9 ddfe c8b1 b3bf
000006c0: 4818 d973 0309 b0bf 5ee1 f8b4 cba3 d1bf
000006d0: 3693 c78f ecf9 96bf af6e 453c abc5 a5bf
000006e0: bd3a 3f36 0e1f a9bf 4ee9 5de8 061d cbbf
000006f0: a054 62a2 1ab3 923f 4e12 ed6a e484 bcbf
00000700: b296 cf16 0304 d0bf 8750 4d12 49b7 e2bf
00000710: 36f7 0ba6 d7a2 913f 02a3 4e30 c8c1 a9bf
00000720: 42e3 b67a 6837 d73f 9c4f 02eb 2c7a d2bf
00000730: 2628 fb0e 10e7 8d3f da57 4f61 e684 a53f
00000740: a090 377d 2362 b6bf 956c f25e 73a3 d5bf
00000750: 5445 beba 1054 903f 9e52 1531 c7e7 be3f
00000760: 33a0 af1d 4c28 f03f cbfa cf3e b779 e2bf
00000770: a1c6 5141 610b 913f 6b8c 68b1 3027 bfbf
00000780: 9416 be76 ecc2 e33f 92ac 5918 2f53 e2bf
00000790: 152c 3ee7 ff98 8c3f 730d 03bf 48a5 b6bf
000007a0: 024b 8429 1b23 7dbf e7ab 59fd 1174 e0bf
000007b0: 94ad a535 b912 913f da27 1005 2103 bb3f
000007c0: 9261 db3e dc1a b43f 8b34 64cc 92df e2bf
000007d0: cbff 6c25 4356 903f bee7 99f5 a5cb a23f
000007e0: d41b 0ba5 a7a9 b6bf 8e62 ccf3 e125 e8bf
000007f0: 4f92 4008 6d52 8c3f 057f 1d5a 16da c63f

lstm.weight_hh_l0 f8 [256, 64]
-0.2550538017416352 -0.17004409385515032 0.13525185505053777 -0.16867813652488733 0.022419417446510957 0.10688115518857103 0.061740621878421345 -0.20462986155914373
-0.08558805024205111 0.26609235534018294 0.10948734617418956 -0.1470498074467211 0.02133861917003209 0.02194004787555438 0.23729658028410805 0.009870119074602267
0.17010478488823266 0.135102868154665 -0.07826343813858617 -0.09595761337994536 -0.08304542112788289 0.14984537495659164 0.06836605609579972 -0.07721365933377008
-0.09049298649098027 0.04301087542683432 0.033400475346700265 -0.15481080674204822 -0.2013101065937822 0.05518288560268179 -0.18267595057665892 0.0037819670133593295
0.11465315308393204 -0.05887248220740761 -0.05155456568397544 0.015084556945072564 -0.14885814140387318 -0.21145679001674259 -0.10901205026826237 -0.009376579214741606
0.08826565829982638 -0.011717544434765116 0.2331443562012971 0.2767918194803712 -0.0027623993943034675 0.08927122555438728 -0.14800182295982495 0.10609465276944446
0.18263855080953062 -0.050488765442077914 0.020432968610609975 0.05102610995261902 -0.04400387981537257 0.0014427085872413038 -0.12300952633624179 0.11982550093923465
-0.1225773348727144 -0.09328399034011492 0.1731524419213876 0.010966931421080111 0.0134852837608497 0.12604264331056078 -0.07069563515470394 0.1643178679647213
0.16848542622169552 0.08844136831203359 -0.05655661317096951 -0.16669065846514494 -0.09686973012649239 -0.10557800084949488 0.0165960398878559 0.05614412121339332
0.04159699646120045 -0.06951171324491104 0.1670432176008307 -0.07709158046918177 -0.1592683455272639 0.13133058269605394 -0.06142295892303286 -0.018395979450889745
-0.12410193244102699 -0.12166641170429321 0.0829472624516686 0.08810203349447432 0.008110545089277731 -0.059505853456401504 -0.08444257151390204 -0.08776657564910187
0.12998837626384455 -0.15588395695955434 -0.13067191471693904 0.0041871989162525144 0.03968076112109472 0.07176148571613274 -0.03877054282243052 0.003086489110571267
-0.02510601229955129 0.30815954203987816 0.09058394206036016 0.020193989056430106 0.016123205537116277 0.06467637916300917 0.11584597135729104 -0.017076896662700878
-0.05596779967634511 0.035951037361295 -0.07581468449559792 -0.1044719180540828 0.25607917309903927 0.10061222867490024 0.13783386099401293 0.018980776570340342
-0.1837577682565469 -0.10483232176313909 0.20707786271647055 0.010822834208945854 -0.06321252321459557 0.08385503704064842 -0.005365880389696324 -0.04680329957311594
0.15631446767949103 0.2717240467955426 -0.19553181508612663 0.10041465066238021 0.007034597499953881 -0.03934022596234384 0.10063569507466082 -0.0784358265697822
0.04363021494212426 0.06250802102909062 0.1711609243277176 -0.16359167606178096 0.19438379974482672 -0.042055429055259955 -0.05646681377539819 0.131616020848609
0.09481689524492999 -0.15943582993187405 -0.18983922355892238 0.1408240155554444 -0.1172337216913349 0.1769599779614772 -0.16037595676984756 -0.18562064309558132
-0.14159806868102973 -0.19716018667720575 0.029829373950530716 0.013047890729548933 0.17054131871967929 -0.18355502422287762 -0.11741989497492657 0.12558207238033867
-0.12010061723720099 0.0759955001365666 -0.03282619524249025 0.25366184323707824 0.08994060012402304 0.12111869072252178 0.2855779880725842 -0.18526082190982684
0.16250822152450975 0.06717579934443897 0.03427892124172173 0.13478856473073503 0.17112648063074526 -0.055070790202032684 -0.028580747874043543 -0.16979349978389668
-0.17510742472087001 -0.0521280390034848 0.024780316905834692 -0.11046478786681131 -0.0949493045112294 -0.05736517709926244 0.06743920894839145 -0.15989699202267077
0.0737485567958637 -0.09543076972432186 0.10404691995517532 0.021040092871212616 -0.015336713784563163 0.016872524070254115 0.20916898266055461 0.08698131339059927
-0.11343077677424025 0.2478899277806311 -0.11986396565759432 0.13366520333942358 0.14153482812259655 0.09173212123184687 -0.11574345046740844 -0.2058910702821975
0.2433363195205985 0.18772195405206954 -0.1363990920570153 0.13448520571037523 -0.517866153052588 -0.20580326195060802 0.276818232208751 0.5373112434047127
0.06509395262644602 1.773923441772884 -0.07513133859919749 -0.14970014141172927 0.09342470195393571 0.2338014434279099 -0.05728791746695283 0.15730484288676239
-0.10560062148949897 -0.28055692043705044 0.15554935428653302 0.15684493097586188 -0.24884666246803158 0.15479558208870087 -0.10860171159599072 0.045358559145825594
0.3063207938420888 -0.06260649620786646 -0.06689820731593733 0.5024028331645797 -0.21585106521663525 -0.11868902660118294 0.04065649002008251 -0.11104158133398546
-0.11975096115934052 0.11659110438269486 0.09969628041236889 -0.12716851001072113 0.006478742729765788 -0.1961275578161572 0.5198011970924868 -0.7865026809765638
-0.6532155664487834 -0.12284265877747867 0.3996614376664154 -0.13394134754655918 -0.3799860300388895 0.6416589479223219 0.06459715386931182 -0.0483219561586005
0.17929096215103352 0.038736322672325504 -1.4406258081078775 0.05353756078991604 -0.16382652548159107 -0.2218056844499778 -0.33629200737833587 -0.5062486152887354
0.21513498554063748 -0.16506002315840534 -0.12657107311751323 -0.17812184799131986 -0.17676014267976753 0.026439131338092097 0.09811174470086811 0.327439068533033
00000000: c3d9 4c2e cd52 d0bf 852f fe3e 01c4 c5bf
00000010: 922b 15cb ee4f c13f c259 f6c3 3e97 c5bf
00000020: 969c e9a2 1df5 963f 0af7 173a 905c bb3f
00000030: 22e4 9a7f 779c af3f 5f3c 97b1 4f31 cabf
00000040: cbcf b734 19e9 b5bf 66b5 f93a a807 d13f
00000050: 8adb 24db 5c07 bc3f 23f2 ee30 87d2 c2bf
00000060: 5c89 e87d cad9 953f 6389 64b0 7377 963f
00000070: d0ed e2fd bb5f ce3f 9978 10f5 c836 843f
00000080: 3879 fe5b fec5 c53f 94f8 2800 0d4b c13f
00000090: 691a 479b 1209 b4bf 41e2 449b ad90 b8bf
000000a0: 75a9 d3f7 7642 b5bf 139d 721c 222e c33f
000000b0: a184 1617 7080 b13f 769d a43d 46c4 b3bf
000000c0: 6102 7f61 8c2a b7bf 3c42 a97e 8505 a63f
000000d0: 98e2 91fa dd19 a13f f221 032c d7d0 c3bf
000000e0: 4358 1692 87c4 c9bf 4dc3 ec61 ee40 ac3f
000000f0: 0209 bff0 ec61 c7bf 2bb9 6114 5cfb 6e3f
00000100: 0cf7 e0b6 e859 bd3f 2229 6eb3 8824 aebf
00000110: f2f1 242b 5c65 aabf eaa6 07f6 a6e4 8e3f
00000120: 5f57 8998 c80d c3bf 59cc d11e 0411 cbbf
00000130: 03a8 c5b6 36e8 bbbf 1ef8 9a28 0734 83bf
00000140: 5af6 c103 9498 b63f b40c 1831 5eff 87bf
00000150: 7ed6 909c acd7 cd3f 65fc 1d09 f5b6 d13f
00000160: 2923 d3e1 2ba1 66bf e1dc 3aa2 7ada b63f
00000170: ae2f ae46 b9f1 c2bf 84dc ece7 0429 bb3f
00000180: 4c9e 5b35 b360 c73f 4f3d c7d8 a9d9 a9bf
00000190: 0864 c54f 61ec 943f 9f29 fa22 1820 aa3f
000001a0: 0085 6831 ad87 a6bf 9a80 ca8c 28a3 573f
000001b0: 7cea b564 8d7d bfbf c3c5 c24f e2ac be3f
000001c0: 9157 826c 3a61 bfbf e84c c0a7 75e1 b7bf
000001d0: e52f a3f5 db29 c63f 16ff 539e d475 863f
000001e0: 0e4e d725 2c9e 8b3f cfca 7553 2a22 c03f
000001f0: 539b f5f0 1b19 b2bf 4a49 872e 5e08 c53f
00000200: 59c6 bc31 ee90 c53f 3480 83f0 17a4 b63f
00000210: 7238 e207 fdf4 acbf 4b08 5497 1e56 c5bf
00000220: fa99 dd62 74cc b8bf 315d d3ec 2807 bbbf
00000230: 6eed 3e62 8dfe 903f 44c8 f218 ecbe ac3f
00000240: 464b d396 334c a53f 2269 1307 85cb b1bf
00000250: 6f9d 4e12 ac61 c53f 9a7e e918 46bc b3bf
00000260: a9ef a9b7 e762 c4bf 5574 d2c6 70cf c03f
00000270: 8290 987f d472 afbf 9753 7a48 65d6 92bf
00000280: 7a61 34ed 24c5 bfbf 04a7 4aab 8725 bfbf
00000290: 17cc 8523 083c b53f 98e2 91d8 da8d b63f
000002a0: 6619 4aef 429c 803f a518 081d 8d77 aebf
000002b0: 7bd7 0a43 079e b5bf fa44 18cc de77 b6bf
000002c0: d1e8 7488 75a3 c03f bb61 8e68 01f4 c3bf
000002d0: 9f83 1b78 dbb9 c0bf f8b0 83a6 9826 713f
000002e0: 7b4a 9766 0951 a43f 895e 43f2 f55e b23f
000002f0: 3ee6 f08a bbd9 a3bf b477 4239 d648 693f
00000300: 92c6 09f7 63b5 99bf 48be c0cc e2b8 d33f
00000310: 4a27 b15c 8230 b73f a0e7 4aaa bbad 943f
00000320: b253 f401 9a82 903f 902d 5495 a18e b03f
00000330: d158 5ae2 14a8 bd3f 09e0 bb22 9b7c 91bf
00000340: cd5b 7aba cfa7 acbf deb4 72a3 2c68 a23f
00000350: 2814 7756 9768 b3bf 8586 64ef abbe babf
00000360: 086a 69e6 9963 d03f be82 bc17 b9c1 b93f
00000370: cb16 a03a 8aa4 c13f da3a 7d5a b26f 933f
00000380: d51e 86e2 5f85 c7bf 9253 8981 4ad6 babf
00000390: 7ce1 0b04 8781 ca3f 9ad2 d137 482a 863f
000003a0: 1782 e727 b22e b0bf b6c7 b111 8677 b53f
000003b0: 049f 9b8c 88fa 75bf 55d9 0522 9af6 a7bf
000003c0: aa9b 49cb 1c02 c43f 2383 a141 ed63 d13f
000003d0: e5ab 8fbf 2f07 c9bf 215a a248 c6b4 b93f
000003e0: b9c5 3e63 4fd0 7c3f 5bdd d9ef 6624 a4bf
000003f0: d5e8 27cb 42c3 b93f 7fb2 f3cd 5e14 b4bf
00000400: af76 9614 b356 a63f 7ac0 0e92 8600 b03f
00000410: 559b 2be6 99e8 c53f 7da5 4a71 92f0 c4bf
00000420: f65b 637f 91e1 c83f e2bb d208 4a88 a5bf
00000430: 4f06 f3dc 37e9 acbf b753 9634 cbd8 c03f
00000440: 616b 2f88 eb45 b83f 2e1b afad 6468 c4bf
00000450: 5980 57d4 a64c c8bf e3a8 a676 8506 c23f
00000460: 0514 a778 0703 bebf 7fd0 05e3 9fa6 c63f
00000470: 0213 b208 3387 c4bf df6c c7cf 6ac2 c7bf
00000480: 5bb5 14b1 e21f c2bf 8a09 ed84 8b3c c9bf
00000490: 548c 4f66 978b 9e3f c3b7 b83f dab8 8a3f
000004a0: 2545 4245 4cd4 c53f 30e1 0625 bb7e c7bf
000004b0: 212b d1f0 3a0f bebf df31 ebc6 1213 c03f
000004c0: 8f60 43ff e9be bebf bdce baeb 7074 b33f
000004d0: c886 0956 98ce a0bf ab90 3ce2 fe3b d03f
000004e0: cf83 1de0 5806 b73f f76a 966f a201 bf3f
000004f0: a9ab cee5 e846 d23f c098 aa69 a0b6 c7bf
00000500: c1b2 63c4 11cd c43f a95b 44e5 6e32 b13f
00000510: 12c8 59bb 018d a13f 3257 b26e c040 c13f
00000520: c6f1 e4f6 78e7 c53f 25e5 c315 3d32 acbf
00000530: 262e a885 4544 9dbf 8c96 521c cbbb c5bf
00000540: eb40 3b8b eb69 c6bf 1afc 72bd 86b0 aabf
00000550: fbc1 c7ea 0260 993f 455e 3f9b 6b47 bcbf
00000560: 4857 a7fd 984e b8bf 1b23 24ef f75e adbf
00000570: 8cc5 e62c b243 b13f 9aaa bb2f 8177 c4bf
00000580: 3ac0 9077 2fe1 b23f 7981 ffa2 266e b8bf
00000590: 76fe 74a6 d1a2 ba3f 718a 25bb 888b 953f
000005a0: 4eff 0fe1 da68 8fbf 0ab3 54ec 0747 913f
000005b0: 9cad ee99 0cc6 ca3f 3331 6048 6844 b63f
000005c0: e5f0 9aa4 cc09 bdbf abad 696e dbba cf3f
000005d0: 3bde 77a4 67af bebf ad5e 7afe f01b c13f
000005e0: 4809 0431 d01d c23f 2cf9 ae9c c17b b73f
000005f0: c2d4 7bde 5ca1 bdbf ca42 b37a a35a cabf
00000600: 9b8e 22ff a425 cf3f 8e8a b2e2 4507 c83f
00000610: 8163 cb83 8675 c1bf d333 29ac cf36 c13f
00000620: 471e e209 5c92 e0bf 3776 bee3 c257 cabf
00000630: ca7a 91d1 63b7 d13f 6448 4659 a731 e13f
00000640: 70ad b24d ffa9 b03f 545b 008c fd61 fc3f
00000650: 8631 30b2 ce3b b3bf 34f4 c8cd 5f29 c3bf
00000660: 08dc 8767 aeea b73f 59e6 a3a8 34ed cd3f
00000670: 10f9 f387 d754 adbf 6cbc d9a9 9022 c43f
00000680: 8613 bc6f a408 bbbf 0964 7c03 a5f4 d1bf
00000690: bb8b c98e 0ae9 c33f 96d7 8aa4 7e13 c43f
000006a0: d56c 821a 35da cfbf c270 5175 57d0 c33f
000006b0: de2a 985f 52cd bbbf 5800 40b0 3c39 a73f
000006c0: e7bc e887 c29a d33f fcdc bab5 fa06 b0bf
000006d0: 193e 95ac 3d20 b1bf f581 3b1b af13 e03f
000006e0: 59c3 f4f8 01a1 cbbf 666a a56f 6762 bebf
000006f0: 7c47 036e edd0 a43f f959 5398 386d bcbf
00000700: 0b0c d8bd ffa7 bebf b304 5424 ead8 bd3f
00000710: 906a e707 b285 b93f 47de c9c7 0e47 c0bf
00000720: 83f2 4b42 7489 7a3f 5816 5533 b51a c9bf
00000730: 5be2 bd1e 36a2 e03f 5a57 a0ab 072b e9bf
00000740: 2957 e454 24e7 e4bf dfc1 00d2 9d72 bfbf
00000750: 64f9 0f91 0d94 d93f d0b6 a575 fd24 c1bf
00000760: c30c fdec b051 d8bf 7363 9058 7888 e43f
00000770: 358b 4867 7089 b03f d586 c2ca a7bd a8bf
00000780: a21a 7499 01f3 c63f 8e02 174e 3fd5 a33f
00000790: ed8c b9a5 cd0c f7bf e58d 6671 4669 ab3f
000007a0: 4593 9480 44f8 c4bf 4fc8 63f0 2064 ccbf
000007b0: 3627 66e9 ce85 d5bf d5ee c94b 3033 e0bf
000007c0: 20ad 8f0f 8b89 cb3f 3ed2 abd4 af20 c5bf
000007d0: 6365 d41d 7b33 c0bf e2b3 e95b b2cc c6bf
000007e0: e6df 058c 13a0 c6bf cb1d ba11 dc12 9b3f
000007f0: aefe d7ee d91d b93f 970d b2fe c2f4 d43f

lstm.bias_ih_l0 f8 [256]
0.2876422464063196 -0.11534291464406865 -0.4778687150340448 2.022969080904504 0.8005414092557044 0.7392357056661323 0.14876806731443168 0.13930993407070927
0.2813585573580977 1.0672393870769188 0.05151976828008387 -0.16595980664722274 0.2886030286974737 -0.31373677138964606 -0.14226093867881712 0.19536186947702897
-0.40372274004200465 0.2265581351466978 -0.3514654499636315 -0.2871266367014082 -0.1548929861070622 0.42835689537268185 -0.3820185293289373 0.2566254027543646
0.08494995029989016 0.283073852856579 0.08230079409910497 -0.08729817067515867 -0.3814047465509559 -0.15327303242533433 1.003242409025307 0.17911018897558295
-0.13199840525594805 0.10148530053013534 -0.42977503143573714 -0.43769287469911 -0.2591604463741589 -0.0701066181008029 2.2940525373265537 0.21954977395147895
0.07271418642236775 0.2494524822774914 0.35429641390627026 -0.26270626133516184 -1.587898723354196 0.0009741961505798181 0.5133032612563518 0.15292391203302524
0.10637538603765419 0.6459350093083159 -1.0943775933501525 -0.12648537410125787 0.07329889032189342 -0.15468922378591116 1.017551496312559 -0.14301881682521958
-0.012588038761809047 0.3813732867149175 0.6009146444150391 -0.605685476856277 -0.3256278173247432 0.10417233713652438 -0.4635500979006444 -0.447859177125763
0.22107614808129641 0.05885267602650775 0.2500603712676177 1.914924882576026 0.14401615678017382 -0.2546807322335224 0.16275149353944246 0.5788504087313582
0.5802385679633868 1.0722914705456454 0.27382438066465137 -0.22490477513891724 0.5021511296261529 0.34310891679752187 0.4003908976632589 0.799502701409564
0.42820141951356905 -0.0856228842996615 0.0179439768912005 0.07046907524526727 0.20383368500781318 0.08213424304499099 0.6609530082297614 0.30875046410818263
-0.012734737174074568 0.20464946859246014 1.1986663298192541 0.1165367040614916 0.13052302559017243 -0.011990018139908772 0.14627625121989166 0.6632101057032956
0.16697207553342558 -0.11928409644425302 0.08290172160779659 0.30611588758177977 -0.5665820720318491 1.6831183325416337 1.2437697411402466 -0.04139162144537755
0.11630096556487747 -0.19096375539444155 0.41997545146045867 0.08612242671860948 0.4629133411217412 0.060089554607233316 -0.20001683233659334 1.1670078407732718
0.24322456727520203 0.8205378929871835 3.227621767898796 0.35426091123104164 0.5209969521804236 0.15114825267558873 -0.48753548507472333 -0.07309630335678372
0.40254321603385296 -0.05447740239327343 0.29150354725774585 -0.10771917550194443 0.020914720176838823 -0.43671905205513745 0.06284086105070849 -0.10559367642899904
0.18582655626600536 -0.4782615765529983 0.6758304864541632 0.3214071018505703 0.2807735292284958 -0.5556928511427592 -0.3695984116168286 0.12780266314533026
0.3186644217471421 -0.14120544831015472 0.15258668502676592 0.19139264917728122 -0.3825670677341363 0.23943190574153347 -0.21985714054519315 0.7408745316457002
-0.21823990626205006 1.0726393542796626 0.05130027686777125 0.20121845227212756 -0.2348525583923787 -0.06919599615811628 0.13930028814119635 0.3774362078267606
0.008048494452709463 0.3170497795570264 -0.1772276777175495 0.11921302355317108 -0.22934630283749005 0.0768596200718921 -0.07299061031043365 0.024596158958021697
-0.06992087852608059 -0.23888834526984992 0.273944160785292 0.21013794620871912 0.010201646775793879 -0.6687249510000165 -0.05672122948386715 0.030425410200246403
-0.0027974059104201904 0.24156187833445594 -0.2241415302910574 -0.3992015795600898 -0.14554476731366534 -0.694327752990364 0.20098751769151882 -0.054485245961905876
-0.09704804396297428 0.7358352690260173 1.1956334823255728 -0.3111081561388697 0.17060785672675466 0.6829915634325963 -0.5347143457149228 0.025174786789841145
0.18862781585270644 -0.8897122459053385 -0.38611753053116216 1.1546931786644177 -0.1542589178017428 0.3179140949383715 -0.02508736368602462 -0.14901814583924788
0.3163298723381843 0.23834863738817197 0.77030540091818 0.21262684091857373 0.44132685652744275 0.3334961226874708 -0.18890122338803625 1.365117939130965
0.3178283395221421 1.0957468990668746 0.5609590253297281 -0.2032439875764396 0.3569495615782404 0.39044118309375964 0.10142034142700815 0.1779977434097167
0.5508378807812284 0.05426436483630619 0.16930845848922613 -0.5322310654966587 0.27941598824298036 -0.1097084788646975 1.3000471964059142 0.2736527784687545
-0.8559444470764805 0.13547485049924732 0.23397920453378165 -0.13078078682863967 0.8626439031194036 0.7471613269841038 -0.478081933399053 -0.168392880728099
-0.5953793628564159 -0.3435805562188479 0.05381590899527068 0.7667539911258808 0.18758656930090922 -0.650818783855374 0.6220199888760706 0.11822505760496993
-0.18865995446538786 -1.1044579804773311 0.2891630702393282 -0.33956705241357127 -0.2055373399409713 0.2526961703988508 -0.3495159461107688 0.7937746037272057
1.484157864764415 1.432934424410402 4.307413238638913 0.1113664275234114 -1.563158683357056 -0.09629001638708139 -0.0569641352653845 1.4532563687273603
0.03700408763387309 -0.07148179425558912 0.8173421997547862 1.2512171356547719 0.24714458379089968 -0.060165655825269566 0.11129033324805795 -0.17500761689002395
00000000: e5d6 5006 bb68 d23f 68ba 38fe 1c87 bdbf
00000010: b893 b6a9 6695 debf a36e da69 0a2f 0040
00000020: a41a 7b04 099e e93f 7ee3 7ba3 d1a7 e73f
00000030: 7bfd e6ff d40a c33f f5b9 6b6d e8d4 c13f
00000040: 9560 9352 c701 d23f a8f9 879b 6913 f13f
00000050: 018e b88f cc60 aa3f ff09 00c3 2b3e c5bf
00000060: 8c0f 72d6 7878 d23f 42f4 2a65 4314 d4bf
00000070: 0ed8 8f3f 9b35 c2bf 7906 2524 9e01 c93f
00000080: 5f71 48e7 97d6 d9bf 3585 8c62 dbff cc3f
00000090: 5a22 51f1 687e d6bf 775a 9c66 4860 d2bf
000000a0: a6d4 da8a 88d3 c3bf a212 290a 336a db3f
000000b0: 6cc3 7bd8 fd72 d8bf dfc7 09f4 8c6c d03f
000000c0: f8b8 55aa 47bf b53f 4fca 17cb e11d d23f
000000d0: 112a 1733 aa11 b53f 29e9 0c44 2c59 b6bf
000000e0: fe6e 3e74 ef68 d8bf 4d12 d062 739e c3bf
000000f0: 4b95 8be9 470d f03f b4e7 032a 15ed c63f
00000100: db66 d9e0 52e5 c0bf c539 cdce f0fa b93f
00000110: e4d8 2922 6f81 dbbf 0498 a1f9 2803 dcbf
00000120: 6600 66b2 1596 d0bf 5ae2 f9df 81f2 b1bf
00000130: a8fc 7837 385a 0240 2a9f 7bfd 341a cc3f
00000140: 43aa a39c 659d b23f 1cd8 a416 0fee cf3f
00000150: 1752 b4dd caac d63f 8ce4 38ec 2dd0 d0bf
00000160: aba9 e27d 0868 f9bf 5308 a64d 26ec 4f3f
00000170: 6dd6 00f6 fa6c e03f 18a7 7ac0 0293 c33f
00000180: c18f 21d4 6a3b bb3f f342 8ae5 7fab e43f
00000190: 1fa0 4e14 9282 f1bf 16f7 9738 ac30 c0bf
000001a0: e1ff c350 b7c3 b23f 6620 9a42 dbcc c3bf
000001b0: 6b88 ea13 e447 f03f 210c 7dca 704e c2bf
000001c0: 4b08 6cf6 c1c7 89bf ef8c 8080 6b68 d83f
000001d0: e866 2e59 b13a e33f e550 5882 c661 e3bf
000001e0: f6f7 840e 16d7 d4bf ce35 26cd 09ab ba3f
000001f0: 8c9d a207 ceaa ddbf edfd bd89 b9a9 dcbf
00000200: 39a8 f724 394c cc3f 1ac2 a11d f021 ae3f
00000210: acae 2737 fd00 d03f ea5e 0f46 88a3 fe3f
00000220: ceb4 bb15 1f6f c23f e250 f769 b04c d0bf
00000230: 8643 107b 0ad5 c43f 98e0 d84a f185 e23f
00000240: d6fa 2879 5091 e23f 6a5f dc19 1b28 f13f
00000250: 2356 f3b1 5686 d13f 07cb f7fe adc9 ccbf
00000260: e099 ec3e 9f11 e03f 3820 271a 7ff5 d53f
00000270: 1d1b c524 01a0 d93f 73c4 73b0 8695 e93f
00000280: ec56 3aed a667 db3f 6a32 db9f 61eb b5bf
00000290: d7ac a1e7 e75f 923f 12cb 8ee5 420a b23f
000002a0: b442 77e1 3817 ca3f 338c c2ef bf06 b53f
000002b0: c444 51ec 8626 e53f bc0b 7e4e 91c2 d33f
000002c0: b787 7c7d ab14 8abf 6ccb 5f2b f431 ca3f
000002d0: a13d d6be bc2d f33f f54c ba74 59d5 bd3f
000002e0: 1273 247f fab4 c03f 5199 50fe 388e 88bf
000002f0: 89e0 9521 2eb9 c23f 5bea 4b66 0439 e53f
00000300: 6e72 e149 575f c53f c335 290d 6789 bebf
00000310: d56b 1617 0c39 b53f d0c8 7c17 6797 d33f
00000320: fe0d bcb9 7021 e2bf a807 197d 0dee fa3f
00000330: 593a 9f19 7be6 f33f df63 df58 4831 a5bf
00000340: b128 986b e6c5 bd3f ecfa 1116 8071 c8bf
00000350: f64f 49b7 e0e0 da3f c865 358e 1e0c b63f
00000360: 84ff 3f47 5fa0 dd3f 6111 bddf 0ec4 ae3f
00000370: e680 c4cc 269a c9bf 9abf e469 10ac f23f
00000380: 70ef 038d fb21 cf3f 4747 f0ae d841 ea3f
00000390: 40dd 875c 2bd2 0940 4e43 fff4 35ac d63f
000003a0: 70c7 ddcc 01ac e03f d86a 0b71 d358 c33f
000003b0: 8844 0209 c833 dfbf be39 6078 70b6 b2bf
000003c0: 55e4 059f 44c3 d93f 59df 4c4b 76e4 abbf
000003d0: e8f5 887e fea7 d23f e0d4 eedf 7b93 bbbf
000003e0: 6176 a81c ab6a 953f e57b 8777 34f3 dbbf
000003f0: beb5 10b3 5616 b03f 0d4d edea 2f08 bbbf
00000400: a205 f222 2ac9 c73f 34a0 8e71 d69b debf
00000410: 9dbb 9e41 67a0 e53f 2e9f c917 ef91 d43f
00000420: e39b 6789 31f8 d13f c6ee c85f 3cc8 e1bf
00000430: 920f a318 80a7 d7bf d383 4671 d65b c03f
00000440: df5f 7375 ff64 d43f 452b 4127 0513 c2bf
00000450: 925c ffe2 f587 c33f fea2 74e8 8d7f c83f
00000460: 7e76 1c95 fa7b d8bf 0fb1 6366 b4a5 ce3f
00000470: d582 375e 4724 ccbf 7471 7b81 3eb5 e73f
00000480: 25ef 0906 49ef cbbf 128a 30e2 8729 f13f
00000490: 3c7c d8a6 0744 aa3f ad25 eeb7 86c1 c93f
000004a0: 63ae d60c a60f cebf 6c64 832c d4b6 b1bf
000004b0: 75e5 f182 97d4 c13f f04c 3c32 ea27 d83f
000004c0: ecc1 a6a3 ba7b 803f 28b1 9928 8b4a d43f
000004d0: 7217 df83 65af c6bf b70b 6ba5 be84 be3f
000004e0: c9a0 123b 385b cdbf b37d 9772 12ad b33f
000004f0: e1c9 323c 83af b2bf 00e3 5349 bc2f 993f
00000500: 24bd 93ae 55e6 b1bf 142f 2aaf e493 cebf
00000510: 1131 e016 4d88 d13f 26ba 4edb cce5 ca3f
00000520: 5e97 23da 99e4 843f 870e 52de 3166 e5bf
00000530: 9086 3ea3 900a adbf 0c1a 1cb7 d627 9f3f
00000540: c9b8 c3dc 95ea 66bf a712 b4e7 7feb ce3f
00000550: 1743 236f abb0 ccbf 5737 2ec8 848c d9bf
00000560: e6a9 dbff 35a1 c2bf 9a8f f9d5 ee37 e6bf
00000570: 69d4 b17f f5b9 c93f a4b3 0a7b 7de5 abbf
00000580: e834 f6fe 23d8 b8bf 30b9 f667 f68b e73f
00000590: 7274 0993 5021 f33f dfa8 082f 32e9 d3bf
000005a0: 1a81 8a6e 7ad6 c53f 9261 8c1f 11db e53f
000005b0: 3286 7142 611c e1bf 11d9 c857 6bc7 993f
000005c0: 3a05 1ace f424 c83f d373 e0d0 8578 ecbf
000005d0: b8ca 824d 26b6 d8bf 8572 f48d 9f79 f23f
000005e0: 4794 8997 c1be c3bf daa7 2c5c b458 d43f
000005f0: 261e 4c7a 80b0 99bf b8ef 71cf 0613 c3bf
00000600: ce2e 1ca6 bf3e d43f 266e 5049 3582 ce3f
00000610: 2806 1c83 57a6 e83f f39f ff37 5b37 cb3f
00000620: 3e70 e8ff b23e dc3f 7b45 121f 0058 d53f
00000630: f720 5050 ea2d c8bf b101 7ce8 85d7 f53f
00000640: 5b55 ffac 4c57 d43f 61f8 82e6 2d88 f13f
00000650: b0fd 8557 60f3 e13f 99ed df23 e603 cabf
00000660: 8634 53f9 42d8 d63f 3e8d 1904 fdfc d83f
00000670: e601 94f9 aef6 b93f aa6f 5a4b a1c8 c63f
00000680: 6c4e 6bc3 76a0 e13f a7cb 9ef0 89c8 ab3f
00000690: ffdd 124a e6ab c53f f425 8771 0908 e1bf
000006a0: 75eb de98 f3e1 d13f 3a5a d1d8 da15 bcbf
000006b0: 451e fd49 fecc f43f bfe6 7ef1 8683 d13f
000006c0: 765c ec9b e563 ebbf 9f91 296a 3d57 c13f
000006d0: 0156 b5d3 07f3 cd3f 4fe4 2fc1 6cbd c0bf
000006e0: 71bb ff62 c79a eb3f 2e72 07df bee8 e73f
000006f0: f678 30f7 e498 debf f89e cddd e58d c5bf
00000700: dccf 8505 590d e3bf 9d17 204d 39fd d5bf
00000710: 3245 4742 c28d ab3f fbd1 7eaa 3f89 e83f
00000720: a47a 2832 d602 c83f 9b00 09ea 81d3 e4bf
00000730: cfca b576 96e7 e33f e026 fb53 ff43 be3f
00000740: 3c31 3f67 0226 c8bf 2f4d 9f21 dcab f1bf
00000750: 2ce3 78d2 a581 d23f 0596 3a72 77bb d5bf
00000760: 8a9f 932c 0c4f cabf 1f00 ec8e 2c2c d03f
00000770: e37a 7e21 785e d6bf 2deb 6cff 9966 e93f
00000780: ca3a 3451 1cbf f73f f37b a2a5 4ced f63f
00000790: 0d3f 3989 ca3a 1140 2fdd 159c 8282 bc3f
000007a0: b1a1 f7ad b202 f9bf 6b56 5067 76a6 b8bf
000007b0: 85fd 0434 672a adbf 2434 06c0 8940 f73f
000007c0: 015f 6924 33f2 a23f da4f 9680 a14c b2bf
000007d0: d9cc 32d4 aa27 ea3f 0a50 5d42 fc04 f43f
000007e0: 21fa 6108 6fa2 cf3f 314e 3968 08ce aebf
000007f0: 424e a9f5 857d bc3f 73f9 8b4b a666 c6bf

lstm.bias_hh_l0 f8 [256]
0.2865610789607906 -0.10913259821585186 -0.48841119302661623 2.0691318168127113 0.8010771748859666 0.7392110873778057 0.1487726418420711 0.13844406970541243
0.26370970619489675 1.1196541097809343 0.05094167076068979 -0.28337259596807063 0.28842944644635404 -0.30384796498491606 -0.14226396679243075 0.19538346530230252
-0.4048045522514514 0.229990365286747 -0.35144459280752643 -0.2873628422476616 -0.15060150143192885 0.43098809647140796 -0.37675284689713495 0.25676744610844837
0.08526915649856923 0.2829827561234723 0.07999327559796324 -0.0902407065634123 -0.39946928771907325 -0.14865083532273995 1.007047231465852 0.17960246018428938
-0.13078272781176586 0.10117751490824158 -0.42922296224438933 -0.43794976198626 -0.2592403733389516 -0.08724345704630244 2.2401641785439876 0.2183332201592921
0.07261772853656695 0.24915776727823136 0.35433586798269173 -0.23990809139991237 -1.5475625437537743 0.005203047465643716 0.5070659710336634 0.15291940994368888
0.10622153054921601 0.6331840247744631 -1.0464329547161175 -0.12607941630738695 0.06561529561927755 -0.1538795584030823 1.0176009320270423 -0.14297947455401555
-0.024047095065637767 0.38147790571805074 0.596656550371384 -0.6065936590747923 -0.32497902451320476 0.10369482394917787 -0.46251610730144166 -0.45124958666629206
0.2211746943212223 0.058867358627905014 0.25006113063153657 1.9513961222013247 0.1440158616439855 -0.25467995328436177 0.16121793602335377 0.5738781290909722
0.5748518446685285 1.0728709585846579 0.2714957302374956 -0.23503665260678222 0.5021742418252916 0.34027247267910005 0.4003874251681623 0.8006117155308105
0.42809704422854267 -0.08562292714683238 0.01794309279799976 0.07047449054371739 0.20384946934709608 0.08213234150809687 0.6753634500937838 0.3087485518762396
-0.012734643159257418 0.20462132779771233 1.1973093388066782 0.11621465361570556 0.13059082488657672 -0.011371650350604445 0.14628329001695983 0.6740821657135062
0.16435025015385668 -0.11913908695604841 0.08278856502076916 0.3030144942512155 -0.5665972078398944 1.6902700830253485 1.1991626986309136 -0.04147998097457552
0.11542520602659619 -0.19097340921244188 0.4188022799887141 0.13080367213707694 0.385373207021093 0.053711901667232734 -0.20452660357812358 1.1744801114534242
0.2495041307720922 0.8180633381772366 3.356550978189751 0.35425654210546875 0.4938253250430649 0.15115947215151743 -0.48288893239976777 -0.07423054525014773
0.40250243047901085 -0.019239967972434338 0.291508054109601 -0.10762839202983615 0.02022779373022801 -0.4299548937230251 0.06293945980623993 -0.10558870947184618
0.19260915427558142 -0.4963641573611401 0.6895649668665607 0.32346701322105537 0.28093260953211374 -0.5552781366886174 -0.36854713665308714 0.150129110412252
0.3255608251011642 -0.10034340298039868 0.14323996475076053 0.17610789960266207 -0.36929790071069896 0.2886744434387576 -0.221294950604117 0.7298411628911529
-0.21687320697795276 1.07386191246513 0.05118618923056699 0.20891698705641784 -0.23792573586081278 -0.02973921064872797 0.12609459045006116 0.37558538334227093
-0.01796542597894226 0.31612715389048235 -0.16875188577221023 0.10493249346439153 -0.22830150965676343 0.053692592751367764 -0.07312177525006013 0.03377732325861216
-0.04640973848185667 -0.24288588898078034 0.2692104052988835 0.223462281240189 0.010920936973250129 -0.6965676716648198 0.048082662616489996 0.03023984218970413
0.021692307596443798 0.24745243952740065 -0.20197120232218493 -0.3976148084706679 -0.15181867943400884 -0.7039564152127075 0.20879739689414667 -0.05277106143008421
-0.13492814685411564 0.6859662818027942 1.2511110560918532 -0.3088847400643365 0.12021719384125018 0.6834707401633513 -0.5266032106904099 0.07295231833361969
0.1538845784897484 -0.9700017372008876 -0.3684813068510839 1.2013042414346864 -0.15509921869949872 0.27011856620252345 -0.021398780193029165 -0.15718835724208013
0.31682249311358057 0.23700302330461354 0.7706995931189005 0.21200082997567715 0.4402128450920792 0.33365128517278025 -0.18923297904832317 1.3594931986630479
0.33321138255551547 1.097703105153389 0.5608033342097368 -0.20155480940451906 0.3571313073388799 0.3711224463341298 0.1004214675947002 0.16954569744378595
0.5534373333410203 0.05916145873486896 0.165998802740192 -0.5306050515610555 0.2791192568694208 -0.10972371241573506 1.2954641048794489 0.26868376493519924
-0.8399803103075663 0.13556258823682704 0.233910409039968 -0.19180638009441697 0.8822628888621876 0.7497585324525469 -0.4792525038623815 -0.17080390882845245
-0.6022171034766218 -0.34371930560499653 0.05328320908197413 0.7663784454051952 0.18158532479183687 -0.6578695685720024 0.6203460098317785 0.11259401703601975
-0.1889623850174334 -1.1064962188995164 0.2894959427311109 -0.3393255314540805 -0.20668971190811597 0.2527606781993139 -0.35531256617432344 0.7704979763242598
1.4794847664734 1.482864132849536 4.38561345424025 0.11116873755135562 -1.5997054336072125 -0.09722016427517925 -0.057193799926329655 1.4438015032051728
0.03683185443948261 -0.0720843991944375 0.8095976292904059 1.2509432572855794 0.24059704111022331 -0.060229077484777224 0.1275330569756616 -0.17400882820386043
00000000: 3f5b 9c47 0457 d23f 48bc 432c 1df0 bbbf
00000010: a12d 4305 2142 dfbf da96 62fb 948d 0040
00000020: 32a2 7699 6ca2 e93f d21a a402 9ea7 e73f
00000030: dd27 a05f fb0a c33f b3dd da07 89b8 c13f
00000040: a0ab efac 9ee0 d03f 2c75 856d 1aea f13f
00000050: 216e d7d3 0615 aa3f b4fd 10d0 c622 d2bf
00000060: ba30 ecc7 a075 d23f 5e3f 24bc 3e72 d3bf
00000070: 7ee8 62a6 b435 c2bf 6f86 d34c 5302 c93f
00000080: 3448 4c5a 51e8 d9bf 309d a604 5370 cd3f
00000090: 1fb8 1d76 117e d6bf 1e84 621e 2764 d2bf
000000a0: 0077 b0f5 e846 c3bf e1d6 d318 4f95 db3f
000000b0: 1a47 06f9 b71c d8bf 88a5 edb9 e06e d03f
000000c0: 0ed4 840e 33d4 b53f e776 b8b4 631c d23f
000000d0: cad9 9776 707a b43f 9f31 75d3 031a b7bf
000000e0: 1fa1 a0a1 e790 d9bf e5fb 1d96 fd06 c3bf
000000f0: 55c5 ca8e dd1c f03f b0e6 62a2 36fd c63f
00000100: 6ea6 6a09 7dbd c0bf 5917 9f05 c5e6 b93f
00000110: 910a 6296 6378 dbbf f867 4170 5e07 dcbf
00000120: cbca 52ef 6497 d0bf 19c9 cd52 9655 b6bf
00000130: 1623 6432 dbeb 0140 a375 1bcc 57f2 cb3f
00000140: eca2 2c51 1397 b23f 9c8f 00d7 66e4 cf3f
00000150: 8f44 3259 70ad d63f 22e0 4def 4eb5 cebf
00000160: 13fe 1ef1 d0c2 f8bf 0b88 456b ca4f 753f
00000170: 5221 506a e239 e03f 8bdd 50fc dc92 c33f
00000180: d006 d78f 5531 bb3f ee30 d824 0b43 e43f
00000190: e265 5f7b 30be f0bf 6c97 decc 5e23 c0bf
000001a0: f55a cdfc 29cc b03f cf9c 6e4b 53b2 c3bf
000001b0: d9f6 36ea 1748 f03f aeb8 9ac3 264d c2bf
000001c0: 499d 7b3b cd9f 98bf 8a28 4d4e 226a d83f
000001d0: b541 597a cf17 e33f 99fd f51a 3769 e3bf
000001e0: 81e4 8ad2 74cc d4bf 6a4e a075 be8b ba3f
000001f0: 24e8 ae28 dd99 ddbf ed2c 44f2 45e1 dcbf
00000200: 41fe 67cf 734f cc3f ccae 37c8 dc23 ae3f
00000210: 040c 8466 0001 d03f a555 e623 eb38 ff3f
00000220: f0de ee9b 1c6f c23f ac66 9325 ad4c d0bf
00000230: c4dc 5f11 caa2 c43f 88bb 8aaa 355d e23f
00000240: f6b0 1cb2 2f65 e23f 3c30 ffbc 7a2a f13f
00000250: 68ea 97a0 2f60 d13f 495a 2758 ae15 cebf
00000260: 2910 31b7 cf11 e03f c1b0 7831 06c7 d53f
00000270: 00ec 3494 f29f d93f 27fa df75 9c9e e93f
00000280: 6e74 1e25 f165 db3f d728 e257 62eb b5bf
00000290: 7da8 0693 ac5f 923f 3368 16c0 9d0a b23f
000002a0: ba8c 134a bd17 ca3f 369f b808 a006 b53f
000002b0: 0321 62cf 939c e53f 54bb 3f49 89c2 d33f
000002c0: f973 29df 9e14 8abf 4b46 7a1b 0831 ca3f
000002d0: cbeb 55d6 2d28 f33f ad6d 9858 3ec0 bd3f
000002e0: 45d3 053d 33b7 c03f e0f0 db12 054a 87bf
000002f0: f47c 492d 69b9 c23f b7cd 11c3 1492 e53f
00000300: a607 c0d2 6d09 c53f 8cca 2632 e67f bebf
00000310: a139 3fa3 a131 b53f 0678 c1e7 9664 d33f
00000320: 20ac b577 9021 e2bf 6904 80a4 580b fb3f
00000330: fd3e d339 c52f f33f 32f2 7233 dd3c a5bf
00000340: d5ae 049d 818c bd3f 548d 7c11 d171 c8bf
00000350: 3cac 0214 a8cd da3f 0242 03bb 2cbe c03f
00000360: 3e41 3a62 f4a9 d83f c22a 225a 2080 ab3f
00000370: f4d6 c380 ed2d cabf 14eb 47a8 abca f23f
00000380: 8f07 f158 c0ef cf3f e6e3 702a 932d ea3f
00000390: 4e74 3566 37da 0a40 962b afa1 23ac d63f
000003a0: 35c7 3f89 d59a df3f b689 af8e 3159 c33f
000003b0: 8b78 10fb a6e7 debf a1b0 36e4 c500 b3bf
000003c0: 81f1 dd8d 99c2 d93f e4ea de64 a4b3 93bf
000003d0: 26f7 ba65 11a8 d23f 7ca3 e3c7 888d bbbf
000003e0: 888f 2a42 98b6 943f 44ea d287 6184 dbbf
000003f0: a7e6 7ee9 cc1c b03f 2028 0296 dc07 bbbf
00000400: 370d 43b1 6aa7 c83f d373 b12b 6ec4 dfbf
00000410: 2e18 a58c ea10 e63f 81a1 c7fc aeb3 d43f
00000420: e280 94c4 ccfa d13f a15d a8a7 d6c4 e1bf
00000430: aa67 bdba 4696 d7bf 11f8 b241 6e37 c33f
00000440: 09c5 2a12 fdd5 d43f b08f 2bf2 1ab0 b9bf
00000450: c1d7 0aea af55 c23f ed2a ae22 b48a c63f
00000460: 892b 82a9 93a2 d7bf 78ab 705f a479 d23f
00000470: cdab ce97 6453 ccbf 2b8c bcda db5a e73f
00000480: 44aa ac51 80c2 cbbf f052 27d4 892e f13f
00000490: 261a 8181 1335 aa3f d13a 7eb5 cabd ca3f
000004a0: fc0f 33bb 5974 cebf fe9f 94a4 f473 9ebf
000004b0: 56bf 1717 de23 c03f 21e2 9346 9709 d83f
000004c0: 262f 2754 8765 92bf 5f94 d562 6d3b d43f
000004d0: 14d6 436b a999 c5bf aba0 b71b dbdc ba3f
000004e0: 8c36 cdde fb38 cdbf f523 cf73 987d ab3f
000004f0: 7f10 53d1 1bb8 b2bf 50fc 7be5 424b a13f
00000500: 7cb0 fd69 04c3 a7bf 108a ea82 e216 cfbf
00000510: 601a a047 be3a d13f 2178 e87a 699a cc3f
00000520: fa60 2259 b75d 863f 610a 2849 484a e6bf
00000530: b485 e26e 4a9e a83f 88c3 f674 31f7 9e3f
00000540: 9e55 ce1e 8236 963f 0ef5 8a83 85ac cf3f
00000550: 1992 5a3e 31da c9bf 4c5b b261 8572 d9bf
00000560: 18a5 8b63 cb6e c3bf 37bc a49a cf86 e6bf
00000570: c43c 9383 dfb9 ca3f 1aeb 08fe ce04 abbf
00000580: 162f 0655 5345 c1bf 190e 508f 6ff3 e53f
00000590: aa41 d906 8d04 f43f 8ad3 3380 c4c4 d3bf
000005a0: 500e f7d3 8dc6 be3f c4c8 9807 fede e53f
000005b0: fa48 fcf9 eed9 e0bf f707 69cd 00ad b23f
000005c0: 8671 fc67 7db2 c33f 76e9 4a15 410a efbf
000005d0: 3b37 879e 3295 d7bf 0a21 d8cb 8a38 f33f
000005e0: 2c89 f98b 4ada c3bf c576 f861 9f49 d13f
000005f0: 53d5 69d4 8fe9 95bf 6456 d582 bf1e c4bf
00000600: 44d7 a3d9 d146 d43f 94be 1275 1d56 ce3f
00000610: d28e 6f31 92a9 e83f bc35 bcdb d722 cb3f
00000620: 27c6 3c7f 722c dc3f 3178 85eb 8a5a d53f
00000630: 6929 2b48 c938 c8bf 8a46 b6f0 7bc0 f53f
00000640: cdc6 aed5 5553 d53f 8f9f 9521 3190 f13f
00000650: fd64 7dd5 19f2 e13f db38 5f49 8ccc c9bf
00000660: 567c 5945 3ddb d63f 3743 745c 78c0 d73f
00000670: 23b4 22a7 38b5 b93f ca6a d964 acb3 c53f
00000680: 68b9 e235 c2b5 e13f 5a5b e624 694a ae3f
00000690: 29de 78e2 723f c53f 1182 f171 b7fa e0bf
000006a0: f507 fc03 17dd d13f bed9 6b6c da16 bcbf
000006b0: 1b96 b991 38ba f43f a538 d763 1d32 d13f
000006c0: fac1 4163 1ee1 eabf 92e6 8469 1d5a c13f
000006d0: 81a4 82ba c6f0 cd3f a0b7 d588 1c8d c8bf
000006e0: 0b67 c461 7f3b ec3f 08fb 189b 05fe e73f
000006f0: da5c a7b1 12ac debf d53c 3909 e7dc c5bf
00000700: 1bc4 90cd 5c45 e3bf 50f2 2442 7fff d5bf
00000710: 5db3 ddd0 ef47 ab3f 02fd eb16 2c86 e83f
00000720: 980d b51b 303e c73f b69c 417b 440d e5bf
00000730: 87cf 0de0 dfd9 e33f dd1c e524 f6d2 bc3f
00000740: 0a7a e95f eb2f c8bf 2523 1561 35b4 f1bf
00000750: 36b5 96fd 1987 d23f 12c2 126f 82b7 d5bf
00000760: 9252 88f8 ce74 cabf 602c a51f 3b2d d03f
00000770: 47e6 e4ea 70bd d6bf d34c 3e5f eba7 e83f
00000780: 6aef ee37 f8ab f73f a400 b0bd cfb9 f73f
00000790: 1870 db40 de8a 1140 dae4 1eec 8d75 bc3f
000007a0: 4039 89b9 6498 f9bf 3bda 12b2 6be3 b8bf
000007b0: 1e63 6f78 8148 adbf e2e8 e29a cf19 f73f
000007c0: 4787 89f4 9fdb a23f ed87 1789 1f74 b2bf
000007d0: ea15 9749 39e8 e93f aa17 b313 dd03 f43f
000007e0: 6d98 8a43 e2cb ce3f ee77 217c 58d6 aebf
000007f0: 8f47 6fd2 0053 c03f 14e9 2cd9 eb45 c6bf
