model_lstmBlocktest_ur5.pth (torch, 733091 bytes, 10 tensors)

lstm.weight_ih_l0 f8 [256, 112]
0	0xbfd15e1dde9ff3a0	-0.27136942616180626
1	0x3fc7a90355c71220	0.18484536827431075
2	0xbf7d3bce8cf53d6b	-0.007137114370677859
3	0xbf9cc29be81f8c48	-0.028086124460866807
4	0xbfd342ea48826f7e	-0.3009591777897568
5	0x3fbeebd42177099e	0.12078595940605516
6	0xbf826d937b0d5369	-0.008998062317610427
7	0xbf3e09460dd99aa8	-0.00045831642441955056
8	0xbfd1172fdf59f012	-0.26704022227909363
9	0x3fcc1efaebe788b4	0.2196954395176981
10	0xbf80e9094758868b	-0.008256981363106838
11	0xbface9e4a52370ed	-0.0564719630799305
12	0xbfd060f7d2ac9cbd	-0.2559184605947385
13	0x3fc862f56d612f96	0.19051997986605035
14	0xbf865f095b87104e	-0.010923455339146095
15	0xbf8371177fcc64e5	-0.00949304922828493
16	0xbfd1e34843ad8b98	-0.2794972096364119
17	0x3fb4e29f5f940f00	0.08158298572021394
18	0xbf770eaf34ed4813	-0.005629238511419404
19	0xbfb13c88257437a3	-0.06732989229587232
20	0xbfd4070af5281aef	-0.3129298585994737
21	0x3fa147c4cb39812f	0.033750676925367144
22	0x3f88edf8e0835e34	0.012172645904157432
23	0xbf84a8885243c45b	-0.010087075243491997
24	0xbfd1efc375530a1d	-0.280259003233512
25	0x3f6f426a0447f90b	0.003815848411476646
26	0x3f9535318fe749fa	0.020710729988261158
27	0x3f938331b567c35c	0.019055153557875
28	0xbfd489fe0aa601c3	-0.32092238464249706
29	0xbfbccdd19b116c57	-0.11251554523316663
30	0x3f81a80ddd800d93	0.008621319124364734
31	0xbfb13be9b8479cce	-0.0673204493428898
32	0xbfd2afbabe1c43b4	-0.2919756752535776
33	0x3fbda423ebfa4413	0.11578583251163392
34	0xbf8b789233bfc02e	-0.013413564876799535
35	0x3f90e1b3d2415c0d	0.016485986431089162
36	0xbfd53f460155710b	-0.3319869053864443
37	0xbfa65589e64ca179	-0.043621358263695016
38	0xbf8d609c3521da41	-0.014344425555674724
39	0xbf6e2593a9904565	-0.00368002739242772
40	0xbfd8140a44242ad7	-0.3762231507723021
41	0x3fa7aad89abbbca8	0.04622532738528068
42	0x3f82609ac88f848f	0.008973321195244103
43	0xbf61d3afea91983c	-0.002176135622494106
44	0xbfd4a64f45a6c19f	-0.3226507358731627
45	0xbfd0848ddb8e5843	-0.2580904621221444
46	0x3f7a287d6d9c2145	0.006386270478977278
47	0x3f70db30fda0fd32	0.004115287180013015
48	0xbfd557f7a9d00733	-0.3334941061331051
49	0xbfb5566bd028793e	-0.08334993202195037
50	0x3f82e1aad3869a1c	0.00921948869729499
51	0xbf912e986de34ba4	-0.01677930994703626
52	0xbfd3bec0a7c72a62	-0.30851761231011754
53	0x3fb34e08cf0ab291	0.07540946058970578
54	0xbf604399b3d353da	-0.0019853593827101447
55	0xbf97e1428b542836	-0.02332023597140439
56	0xbfd5ff999ac8a05b	-0.3437255870399036
57	0xbfc04254adc5fb88	-0.12702425465610312
58	0xbf73801378f6b4dd	-0.004760814728269139
59	0x3f83fad68843b9f9	0.009755779298271415
60	0xbfd669c44f0d4b31	-0.35020549507059956
61	0x3fb0ddb38d6a4c18	0.06588289454002483
62	0xbf098787f8cf5361	-4.8693501504415737e-05
63	0x3f9c25a76d59925a	0.02748738865774878
64	0xbfd8539094fb7c14	-0.3801003889947776
65	0x3fa0d2054b36808a	0.032852330619108264
66	0xbf80bfdaf13285cf	-0.008178434835204222
67	0xbf9d4628cf040e51	-0.028587949404949523
68	0xbfd91caa3aef74ef	-0.39237457042129525
69	0xbfbb50fef7628cb6	-0.10670465030357232
70	0xbf81a83a0b23b146	-0.008621648278187021
71	0xbf7a1c596745a1bb	-0.006374692184501314
72	0xbfd690e884d54978	-0.35259449932086495
73	0x3fc0703f546e1335	0.12842551825101514
74	0xbf6642b3620ae349	-0.0027173522542764156
75	0x3f9f7764ceb7830e	0.03072888862323269
76	0xbfd653fdcb5dea02	-0.3488764272694028
77	0x3fafd012eac40977	0.06213435283463558
78	0xbf807fce102004b7	-0.008056268565271514
79	0xbf7bb03623bcf75d	-0.006759845240422138
80	0xbfd82f15c0708a65	-0.3778738383572658
81	0x3f815f202dcc5eda	0.008482219121602897
82	0x3f72001dddc48d45	0.004394642510564599
83	0xbf9bd6848d45e492	-0.02718550789129332
84	0xbfd7d833a104cb35	-0.37257090305790835
85	0xbfb7b088806a62f7	-0.09253743300576987
86	0xbf86ec90ee6d076f	-0.011193401600056522
87	0x3f85c73e8ae2b7fc	0.01063393460603023
88	0xbfda14a18731da28	-0.4075092144261441
89	0xbfb70e12d64e778d	-0.09005849582760402
90	0x3f8e88c6823bea84	0.01490931591933032
91	0xbf7fc0aa85b22ae6	-0.007752100088633118
92	0xbfd6c2e335bd8af8	-0.35564499137960537
93	0x3fb271573d8ce572	0.07204194309897163
94	0xbf7298200ae22c07	-0.004539609113758842
95	0xbf9998851250c4b9	-0.024995879404916297
96	0xbfd551f23140ec2d	-0.33312659082338564
97	0xbfc07490f55da570	-0.12855731945755222
98	0xbf7d961d4f5fc6ec	-0.00722323846092519
99	0x3faf0658ba2da440	0.060595295645562874
100	0xbfd4f6017870cbf6	-0.32751499902514014
101	0xbfa3c66d3ff578c9	-0.03862325101612069
102	0x3f7f0ed3cb31d7cd	0.007582499808554699
103	0x3f8db123975268a5	0.014498022132375896
104	0xbfd69c5fb83b9a1e	-0.35329430572019926
105	0xbfcd177e0114d993	-0.22727942517094543
106	0xbf95fff84c4a1a81	-0.02148426023134187
107	0x3f835a84be959ec2	0.009449994150329547
108	0xbfdaa05a7c163c5c	-0.4160371982370117
109	0xbfe3309a3da7d4d9	-0.5996829227648518
110	0x3f957bc5ba8e8efb	0.020979966651466047
111	0x3f9c38360ff614b7	0.027558178638646704
112	0x3fe2e4fb00232778	0.5904517176324893
113	0x3fdcdea75bf1cd23	0.4510897062202323
114	0xbfa1400556b6f745	-0.03369156535653287
115	0x3f81b81b940b4a4d	0.008651938872764076
116	0x3fe127e1c9f83aea	0.5361184067458826
117	0x3fe308ac12ff3b77	0.5948086138758829
118	0xbfa0c98777766a51	-0.03278754552157593
119	0xbf846e2466730914	-0.009975704552179589
120	0x3fe17f5c955fddbe	0.5467970769377002
121	0x3fd556603e6b79c7	0.33339696975408767
122	0xbfa45b9b04b32d1b	-0.03976139480945503
123	0x3fb01e7bc1419fa0	0.06296514003918086
124	0x3fe20163f4fdcf1d	0.5626697335232823
125	0xbfd8fb2c47093cfc	-0.3903303807937417
126	0xbfa3712ab10bc371	-0.03797276889043289
127	0x3fbeddf897750f64	0.12057450959860955
128	0x3fe30c18f60431e5	0.5952267460830255
129	0x3fdd96ed67710601	0.4623368749781492
130	0xbfa46c6ded6c93dd	-0.039889750702321904
131	0x3fb66028db37a657	0.08740477897631514
132	0x3fe39f9a1c3d7399	0.6132326652110464
133	0x3fc6650e2dd0e219	0.17495896565539296
134	0xbf998ac0192a6711	-0.024943353210438227
135	0xbfbbd134d7ce8f94	-0.1086609866020452
136	0x3fe0540f1ad31441	0.5102611087719496
137	0x3fe860e1d511eaa1	0.7618264352343723
138	0xbf7916aef1509196	-0.00612514817206424
139	0xbf4ed2f73241bfad	-0.0009406764043102721
140	0x3fe0feca2b7ed3fe	0.5311022614974943
141	0x3fe4925cd6a2bbe4	0.6428665344336619
142	0x3fa2d504cd19db4c	0.03678145412134501
143	0xbfaf429074dc2530	-0.061054720177774136
144	0x3fe16fce64dfa403	0.5448982210338048
145	0x3face68343707980	0.05644617269739438
146	0x3f9ffff93c43684d	0.031249899199657972
147	0xbf9edf2b5d4b841d	-0.03014819867064854
148	0x3fdf7b967267d4b2	0.49191819355412314
149	0x3fc03172cd2cb040	0.12650904672898555
150	0x3f9019e6e48b8118	0.015723808001781497
151	0xbfbcfd92c3233c59	-0.11324422134497193
152	0x3fdca32f7df1d825	0.4474600534371141
153	0x3fe441224b9c4012	0.6329509236111355
154	0xbf75632e07d1f0fb	-0.0052215383594751376
155	0xbfaa07342e093b81	-0.05083621084178614
156	0x3fd9d4dd7039b3c7	0.4036172481490294
157	0x3fe24f3fd230d8f8	0.5721739869393607
158	0xbf7d50f7f122eccd	-0.007157295726013047
159	0x3fa1129bef31b2f2	0.033345101307395
160	0x3fcbc004aacdac2a	0.21679743137369317
161	0xbfd6008ef302a4ff	-0.34378408175923875
162	0xbf783c7abf474072	-0.0059170527278667884
163	0x3fc2ec350c95e0a0	0.14783347239040712
164	0x3fc41eae72b7ac93	0.15718632317961986
165	0xbfd3828320f6df06	-0.30484083384679683
166	0x3f65147bb7d4d91b	0.0025732437485671673
167	0x3fcadae263eea0be	0.20980481986521754
168	0xbfc1d1d848bfba87	-0.139216456911033
169	0x3fc61a8fcc096a6f	0.17268559897168553
170	0x3fa842105a774444	0.047379027407835866
171	0xbf96dbd62d55d9c7	-0.022322985188532287
172	0xbfb60fea23216186	-0.08618033750224727
173	0x3fb73ffc8ed24964	0.09082010733462692
174	0x3f98faecf722c17d	0.0243947053756428
175	0xbfbcfa5b7cbae1e4	-0.11319515032926791
176	0xbfb579930d460c23	-0.0838863284498506
177	0x3fc7f657461b8727	0.18720522807330406
178	0x3f9f1296204efd77	0.030344339105565745
179	0xbfba08145d5f57f0	-0.10168578414535978
180	0xbf90c147443300c5	-0.01636229852442807
181	0x3fd13f42aa901aac	0.26948610931905637
182	0x3f81a42b58f01f00	0.008613909389182606
183	0xbfb1d2b93cbcd9a9	-0.06962163670400535
184	0xbf859faf5485e604	-0.010558480994165904
185	0xbfd2758102cbb418	-0.28842187188166823
186	0x3fa7eeddd8e8fabd	0.04674428246334148
187	0xbfb39ac7909d6922	-0.07658049851071216
188	0xbfb55c36d986d9cd	-0.08343832789146362
189	0xbfd0a728f296863f	-0.2602026337645817
190	0x3fa70e084b37d07b	0.04502893369854718
191	0xbfbe066a9c301721	-0.11728540719203952
192	0xbfc877131265d827	-0.19113386534053342
193	0x3fb6f41d1da1c22c	0.08966237996515564
194	0x3fa19ee7e2aaecd4	0.03441548005999953
195	0xbfb722ff4eecae5e	-0.09037776638859316
196	0x3f99877268d806a4	0.02493075146595082
197	0x3fc4d73ff7d13406	0.1628189048809931
198	0x3f87db44c29a4ecc	0.011648690403752403
199	0xbfbc47cac8c776a1	-0.11047046090922176
200	0xbfa84e94208660be	-0.04747450730354917
201	0x3fd0f5da65a9a1d5	0.26500568321219237
202	0x3fa79fe55dc50218	0.04614178437850941
203	0xbfba446bb7d92b70	-0.10260651815876343
204	0xbfb46412579f9223	-0.0796519721912508
205	0xbfcc48547ef8184c	-0.22095733832992648
206	0x3f901884d66c56ec	0.015718532168725582
207	0xbfbda8f316753357	-0.11585921572004786
208	0xbfc9d02eac258761	-0.20166572003932529
209	0x3fd1e9109fa59bc8	0.2798501547862853
210	0xbf8bb2d9d62ae6b9	-0.013524724815727184
211	0xbfbc2a63eb15da89	-0.1100218247355348
212	0xbfc8ace357aaef55	-0.19277612476968878
213	0x3fcf4ba078cd2fcd	0.24449544809829007
214	0x3f9b76ad7c1ccf76	0.026819906902530964
215	0xbfa648704edda790	-0.04352141344754934
216	0xbfca101a1da1971d	-0.20361639448963667
217	0xbfc4ec22ae426b31	-0.16345628269922366
218	0x3f70ec0b0aab17dc	0.004131358272109833
219	0xbfc7e408b41972e5	-0.18664654535213923
220	0xbfc5119dacbf4263	-0.16460009512822457
221	0x3fe89af52c803a23	0.7689157361181213
222	0xbfa05dfa591ce90b	-0.03196699464611371
223	0x3fa3723b3d97ca9f	0.03798089148394478
224	0xbfe1b2da5c18c866	-0.5530826376691607
225	0xbfc7db61b1ef7eeb	-0.18638249576814955
226	0xbfa69aad4c2fe431	-0.044148841428928505
227	0xbfba4a9d3fd74967	-0.10270102318398742
228	0xbfd7b73226351fbb	-0.3705563901062267
229	0xbfd398a3fc024285	-0.3061914406799036
230	0x3fa302d5ec0a6040	0.03713100916246548
231	0x3f9d34831051c8f7	0.02852062975984723
232	0xbfd4ed27323ad913	-0.3269746771360513
233	0x3fc92452b2194aa9	0.19642099090795753
234	0xbfa83c9b565d084d	-0.04733739308586902
235	0x3f901421dc5eb643	0.015701798510852304
236	0xbfdef8fb2e743789	-0.48394660507698767
237	0xbfd6c6731654499b	-0.35586239986982954
238	0x3f9d45b9b393de1b	0.02858629377894149
239	0x3fd505675c4b6d98	0.32845481885098016
240	0xbfdd869253a59098	-0.4613385979521438
241	0xbfd39726183bf998	-0.30610039106968534
242	0x3f9867c799fe298c	0.023833388112998885
243	0x3fc5645040d98e8b	0.16712382475371998
244	0xbfe3d183881c5c1e	-0.6193254145063098
245	0xbfd74909468c3d72	-0.36383277787623236
246	0x3f958e1700b35e14	0.021049842279209655
247	0x3fcca17b4bb5b471	0.2236780280758555
248	0xbfe6e39fddde5da5	-0.7152861913081564
249	0xbfc1616fd5433a6f	-0.13578603661740682
250	0x3f90be8221d96b8f	0.01635173160171238
251	0xbfb6b61703bc7700	-0.08871597138610454
252	0xbfe0f62663746590	-0.5300476019357792
253	0xbfd1dc94a48f4ee9	-0.2790881735829616
254	0xbf97270b80d51233	-0.02260988210515986
255	0x3fbf450ae27f5044	0.12214725522727671

lstm.weight_hh_l0 f8 [256, 64]
0	0xbf8ab48f0c77d063	-0.013039701049798852
1	0xbfc0cc2734763186	-0.13123025952917206
2	0x3fa948f8c2f8b7ef	0.04938485507987866
3	0xbf9591749d880b1d	-0.021062681307749565
4	0xbf644135d859a89b	-0.002472500959631208
5	0xbfd2221085b4f945	-0.28332913453404657
6	0x3fbf66a4bd645f5a	0.12265996574239804
7	0x3fd0de8f04fea0fb	0.2635839031959361
8	0xbfb8c8584c88e5e3	-0.09680702084087715
9	0xbfa30327ead0bfac	-0.037133452810280104
10	0x3fa3dad0c4405385	0.03877880473752441
11	0x3f8b88bedf86ffe3	0.01344441527987778
12	0x3f98f1ebe36bbfae	0.024360357051534436
13	0x3fc9875a3da6d674	0.19944313059174912
14	0xbf67c52400bbae08	-0.002901621168225569
15	0x3fc2f52dec14204b	0.14810728099132783
16	0xbf9d23743e1dc9a8	-0.02845555905464328
17	0x3fced0d92e25ae65	0.2407485461547935
18	0x3fbc5112b7da1a6a	0.11061207760403993
19	0xbfc22dc6eef779db	-0.14202200573249865
20	0xbf8896e9e56a4622	-0.012006594957060083
21	0x3fcee3f6ea87c68d	0.24133192493132008
22	0x3f8fae0f0a6992e5	0.015468709473858986
23	0xbf97590d067466ae	-0.022800639647448655
24	0x3fa460d8d6769b06	0.03980138414345018
25	0x3fb9a4962942be04	0.10016764170972442
26	0x3f98bebe5d02c682	0.024165129115039104
27	0xbfc35eceedef55bb	-0.15133082025447017
28	0x3fa8028f4d6e2e99	0.046894529535248704
29	0xbfa4ee97f783e426	-0.04088282486367971
30	0xbfb1287dee905819	-0.06702410768807034
31	0x3f7de5a285ee313b	0.0072990749894297725
32	0xbf9989cf2676b151	-0.02493976280463645
33	0xbfa63ad1132c1c2f	-0.04341748580014159
34	0xbfb40fd6cdede88f	-0.07836668517657784
35	0x3f966758c3c2ed6f	0.021878611515359688
36	0xbfc6d203347a6701	-0.1782840734711542
37	0xbfb7491664387093	-0.09095897623814357
38	0x3fb53cdcb6b74da4	0.0829599329074911
39	0xbfc0e3f43037d152	-0.1319565997542989
40	0xbfc29cde54125e46	-0.14541224579874007
41	0x3fcf56d559546f35	0.24483744489486417
42	0xbfb167b209c95295	-0.06798851717878514
43	0xbfbd3293d56568ca	-0.11405300102106533
44	0xbf7c4e4679a206e7	-0.006910586636992489
45	0xbf9297c48773baa7	-0.018157072799051346
46	0x3fc3a99736c023e9	0.1536129968010578
47	0xbf912d88994df4ef	-0.016775259358372926
48	0x3fd220e235b9c131	0.2832570576347449
49	0x3fb7fc5a856acde0	0.09369436032539324
50	0x3fb0c99cf30346cb	0.06557637150697386
51	0xbfc3bfe36878cf50	-0.15429346657912868
52	0xbf6aa44f1955c123	-0.00325217675224833
53	0x3fa3625a249910f9	0.03785974213363547
54	0xbf667d03628877d1	-0.0027451578246333393
55	0x3f98287f931e9715	0.02359198890157817
56	0xbf99c06696d67218	-0.02514801307335021
57	0x3faae3e34b506002	0.052519896453475226
58	0x3fc09cfc99da295a	0.12979085457147727
59	0xbfa26e82aa20f0eb	-0.03599937750593248
60	0xbfc0548671e48879	-0.12757950364272455
61	0xbf89f2d33de426e9	-0.012670183492918112
62	0x3fc1184f19a71acc	0.13355435135436833
63	0x3fa97b986f41512d	0.04977108343215018
64	0x3f779bc0cbf431d3	0.005763772117699922
65	0x3f91906d2a5794df	0.01715250559745562
66	0x3fc17f4107b9e451	0.13669598462346014
67	0x3fa7178653da19f1	0.045101354347071416
68	0xbfa3af782d35714a	-0.03844810058464761
69	0x3fd613208b561da5	0.3449174271304066
70	0xbfa5c55c23e13bf7	-0.042521361713276855
71	0xbfcb02056075f74c	-0.21099917612076025
72	0xbfcd4ed7d8688318	-0.22896860186394785
73	0x3f7c338ea7368558	0.006885106314628096
74	0x3f992799670b92e5	0.024565121569042687
75	0x3fa1e5fccf9c45f7	0.03495779070193444
76	0x3fa794184622b93d	0.04605174881122529
77	0xbfd3e9703eec07f1	-0.31112295288778485
78	0xbf7a89d661390075	-0.006479108258247481
79	0xbfab1dd6be17a927	-0.05296202726806803
80	0xbfb031bbfb92dfbe	-0.06325888530670817
81	0x3fc271559fef0c4d	0.14408369359270737
82	0x3f97d9c932b699ed	0.023291724891942357
83	0xbfc6fe8d0161ebd8	-0.1796432739973557
84	0xbf7f25b3b0434d81	-0.0076043147166332545
85	0x3fb98e95597a44ce	0.09983189997207662
86	0x3fbd3baa1ccf9f47	0.11419165805238861
87	0x3fb13701d7902147	0.06724559319275612
88	0xbfa4eaa24b0d68ed	-0.040852615033786545
89	0xbfcc0d82308c3073	-0.21916224833001116
90	0x3fd7a56367e50a3c	0.3694695009800488
91	0x3fc1a0296cce9206	0.13770025074804
92	0xbf9d7b9e3730a080	-0.028791877859618342
93	0x3fd32aa3ef75345b	0.2994775618033764
94	0x3fac2e462f8726d8	0.05504054384398466
95	0xbfabe71b44004a56	-0.05449757771579715
96	0xbf99c659777978e5	-0.025170705716271242
97	0x3fbcd00e092a6424	0.1125496647240572
98	0x3faf00876c0c50cd	0.060550910891977595
99	0xbf7a2be16ffe64e9	-0.006389504065645848
100	0x3fb544a51f15ea61	0.08307868966031996
101	0xbfb4d5ae5c0aee4b	-0.08138551470886417
102	0x3fe0e83b6e42a1a5	0.5283486512681078
103	0x3fa6d66735067f9f	0.044604516241860674
104	0x3fc6ad4a78abaa46	0.1771634186946633
105	0x3fb0e68393b7adce	0.0660173640860002
106	0x3fa531a63bed8cda	0.04139441949407692
107	0xbfabffc007482322	-0.05468559349907866
108	0xbf301c6ab9c35023	-0.00024583440405234936
109	0xbfb39950bb6bab8c	-0.07655815673540028
110	0x3f8a41b095b931ac	0.012820605820842733
111	0x3f7155bdefd2b664	0.004232160511646297
112	0xbfc4a1577d2789e2	-0.16117375956589713
113	0x3fc08dae841dbd17	0.12932378245339102
114	0xbfa615b556dd82ce	-0.04313437161795762
115	0x3fd0edec317f5b36	0.2645216449140436
116	0x3fc84120db793cc1	0.18948755947574195
117	0xbfa8942efb456ee8	-0.04800555054927519
118	0x3fa202dd5e5efd16	0.035178106088546254
119	0x3f50119448fc3c2b	0.0009807537171047191
120	0x3f7612320ebef996	0.005388446366792718
121	0xbfd0bde27fcb9873	-0.26158964614877006
122	0xbfa99f20cd3f3a34	-0.0500421762986786
123	0x3fce808959b94b42	0.2382976234535708
124	0xbfc60c74650cb55f	-0.1722550862699945
125	0x3fa393ac156a6c91	0.038236024488662264
126	0xbfa0c51d2b3d978c	-0.03275386002387312
127	0xbfa4f1bac4906740	-0.04090675019706547
128	0x3fcde384e63d86ab	0.233505833074607
129	0xbfbbbf561f6f20f0	-0.10838831202920907
130	0xbfc67d297aeda2a5	-0.17569464208942978
131	0x3f9a656a12237b95	0.02577749000272041
132	0x3fc5d187f7f8c6b4	0.17045688255307356
133	0x3f9cd8d83b3e17bc	0.028170946708563113
134	0x3fc75a8ae7ff02be	0.18245064094482716
135	0xbfc4fd10b434b6ce	-0.16397293852917588
136	0x3fdac6e74f410e95	0.4183901094404317
137	0x3fcdef12616ac77e	0.23385839230246214
138	0x3fcb1e8bef7b6eee	0.21186970895256912
139	0x3f881bb5523a854d	0.011771599361341112
140	0xbfd00e6a5964ea0e	-0.2508798478117179
141	0xbfe50ad31214b902	-0.6575713494437709
142	0xbfcb716134c571c7	-0.21439757420274771
143	0x3f964e5fcef0a839	0.021783349042529408
144	0xbfc983df4f0776d1	-0.1993369232067637
145	0xbfc0997f2da8eccf	-0.12968435029492872
146	0x3fcf4736f8cbdfc2	0.24436080120335474
147	0xbfc4d07fbb79e3de	-0.1626128831301505
148	0xbfa76a3684664d89	-0.04573221555906588
149	0x3fd334cd06b3101a	0.3000977101730783
150	0x3fc48521da0d35ed	0.16031287333537084
151	0x3fcff751a2a4525b	0.2497350734853566
152	0xbfd60f584e5cff85	-0.34468658116019696
153	0xbfe7d9cfa3723244	-0.7453382675462952
154	0x3fd367ed30900fbd	0.30321817152457325
155	0xbfcc4738720f8688	-0.22092347688071734
156	0xbfb3870223bc6d3d	-0.07627881405317267
157	0x3fb1d273964cb2c5	0.06961748523162743
158	0xbfc2b33c29ab0925	-0.146094818444973
159	0x3fb88b96541ac856	0.09587993195853647
160	0xbfc2dbb8bf63c231	-0.14733037324141798
161	0x3fae74c9490c5346	0.05948475853634831
162	0x3fbd16cbdfc7cb82	0.11362909520521039
163	0x3fccd5992deaa88b	0.2252685045435253
164	0x3fd35222646f48e6	0.3018880825812985
165	0xbfc800f92eaefbc9	-0.18752970485181056
166	0x3fc04585105ac0c9	0.12712157534179472
167	0xbfcd3f7c818e7cd7	-0.2284999497032689
168	0x3fb10b7dfa92d398	0.0665816056014833
169	0x3fdb9a87d0f91345	0.4313067951919048
170	0x3fe3d8f52096fbf2	0.6202340733069589
171	0xbfb14776521c9d09	-0.06749667648965753
172	0xbfcc1b6e5298d969	-0.21958712609348233
173	0xbfc18576fd900f1f	-0.1368855226611396
174	0x3f8c47a43cf7ce2a	0.013808520422549615
175	0xbfc7a14d47235775	-0.18461004231965786
176	0x3fca1793388c1199	0.2038444543942546
177	0x3fc9162aca3d21c8	0.19598898768368955
178	0x3fea17fd4f12b40c	0.8154284042735767
179	0x3fc922c67632b71b	0.19637375613586347
180	0x3fbc8bcc305f0014	0.11150814228949485
181	0x3fcf7339f474848d	0.2457039302471781
182	0xbfa5b41ab2b794eb	-0.04238971168141766
183	0x3f9d5fc9e5b22720	0.028685717243695952
184	0xbf8432617e568b3e	-0.009861718814880068
185	0x3fbe2fa1158d7e44	0.1179142644518772
186	0x3fc622c15302617e	0.17293564370335085
187	0x3fd1a07eb6c9f812	0.2754208359764344
188	0x3fc69620f96d0c1d	0.17645656756403208
189	0xbff027f015c70246	-1.0097504473379941
190	0xbfc389b9fc30d92f	-0.15264057935719097
191	0x3fcebea5e9620915	0.24019311805393131
192	0xbfb671c0a406b6b2	-0.08767322544619097
193	0x3fb32309d7b9124f	0.07475339428590043
194	0xbfd6a1d33bee7975	-0.3536270222920373
195	0x3fc00a84ad620b74	0.12532099214521575
196	0x3fa71f6dfae4be03	0.04516166389145939
197	0xbfcfbda71fd2080a	-0.24797524503452478
198	0xbfa99833be2d4482	-0.049989335026688245
199	0xbf9407759efb80b8	-0.019559705570714597
200	0xbfd0af7b22f509fd	-0.2607105103853938
201	0x3fb4f7db2993b4b9	0.08190698399603748
202	0xbfa5b3c496532ca3	-0.04238714537640333
203	0x3fb53f713bf6155b	0.08299930299661666
204	0xbf6968d22c4c760b	-0.003101740354749754
205	0x3fb62739789c924b	0.08653601832026785
206	0x3fba704afd78717e	0.10327595413440879
207	0x3fae17183222a2e7	0.05876994716647293
208	0x3fa509dc9eb75078	0.0410908645386891
209	0xbfad351f3cd385a4	-0.05704591386325866
210	0xbfbca739783f1188	-0.11192664323522739
211	0xbfa6ab724924c233	-0.04427678244463031
212	0x3fad110b0742c192	0.05677065337784194
213	0xbfd0e6a2965b3082	-0.26407684977744605
214	0x3fb69ef25fdc7eaf	0.0883628353153607
215	0xbfc72465181b2599	-0.18079818417599539
216	0xbfb325e0b6dbe530	-0.07479671921091291
217	0xbfae8e56fae0e55a	-0.059679716229264115
218	0xbfd7f23ea2a9efea	-0.3741604412568892
219	0x3faebcc5d4d10530	0.060033972004485014
220	0x3fb5625ea1813662	0.08353225176798554
221	0x3faa4184369e4359	0.05128110090948352
222	0xbfc70ceaea9866d6	-0.1800817151532132
223	0xbf778f95c24df7b6	-0.005752167698004065
224	0x3fa3a01e43763505	0.03833098004825256
225	0x3fa9a2351fe7860c	0.05006567015130878
226	0xbfc031766a36eefc	-0.12650947748431196
227	0xbf90cb356ca39b5c	-0.016400179630092424
228	0xbfa19d33e445f3f5	-0.03440248643435232
229	0x3fcaf7c46b1ea3b6	0.2106862566991176
230	0xbfd5d5422be927e9	-0.34114126480255763
231	0xbfcee6765a2e9838	-0.24140815165918794
232	0xbfc9fe7b35cf6596	-0.2030786526436656
233	0xbfd2d77e76ec893f	-0.294402710091294
234	0x3fcd95ee737b11e5	0.23113804472644897
235	0x3fc019fca9d7c881	0.12579305928335674
236	0xbfa3f80695fb1f27	-0.0390016611177642
237	0x3fd50f3a79f16c35	0.32905446918966
238	0xbfd55fd2f45b2da3	-0.33397363531977414
239	0xbf8012c848b5128f	-0.007848324507571362
240	0x3fcbc295384fd584	0.21687569856264244
241	0xbfc7eaa5a53646eb	-0.18684835974686761
242	0x3fd5e879cbdf887c	0.34231419476976277
243	0xbfa94fbc8c79d322	-0.04943646635812217
244	0x3fb9b92a3738121b	0.1004816422283245
245	0x3fc0656b96a1c0e5	0.12809510092802792
246	0xbfaa1086576e1c76	-0.050907324001905715
247	0x3f99fb97543ab505	0.025373806491804114
248	0xbf9313074f640baf	-0.01862727567732819
249	0x3fb30161aa6bd2d8	0.07423983011888013
250	0xbfb5a0d29812fa13	-0.08448520863292001
251	0x3fc8d744a0ededa8	0.19406946046715956
252	0x3fd5dfe8179d04af	0.34179117494575
253	0x3fa828c3c9cf7cbf	0.04718601072794958
254	0x3f9a1fcb70f3f815	0.025511912125686893
255	0xbfd12eacb631d7c8	-0.26847379486514145

lstm.bias_ih_l0 f8 [256]
0	0x3fd0344dcfa3ff5e	0.2531923797359833
1	0x3f77f1d896f0c446	0.00584587674443166
2	0xbfdd22031fa319f0	-0.45520094003259626
3	0xbf961eeb2b678277	-0.021602320217314088
4	0x3fd3105cc436fe73	0.29787367974856876
5	0x3fc3f4063fbe912b	0.15588453400153787
6	0xbfc9e469ac3ec3c6	-0.20228310499581265
7	0x3fd85508b44309c7	0.38019006351182977
8	0xbfa578e9113f58be	-0.041938098292733525
9	0xbfe6e95510a22c99	-0.7159829449532423
10	0xbfda7371c5af24a2	-0.41329616837590255
11	0x3fdb498670adcc01	0.42636261943624737
12	0xbfe8a5195bf3997b	-0.7701536937645835
13	0xbfc6ba5be112759b	-0.1775622223839662
14	0xbfd5309ee3c0e924	-0.33109256974752754
15	0x3feee50a57444e6e	0.9654590324812042
16	0x3ff0a2e72980c7f5	1.0397712346280035
17	0x3fdda15def043c07	0.46297405568560673
18	0xbfb57f04bddd37c0	-0.08396939883570465
19	0x3fe86ef20724a905	0.7635431422725395
20	0xbfb7309284bebf9a	-0.09058490506026687
21	0xbf9bddb3461eda78	-0.027212906985108337
22	0xbfe8aea9ad471c7f	-0.77132114260975
23	0x3fb1848c403e8e26	0.06842876976457343
24	0xbfe8ee2101da6eba	-0.7790684734531717
25	0xbfd510b29ef6f5b7	-0.32914414905448147
26	0x3fec98cecea1519f	0.8936533008332396
27	0xbff404687ce53eeb	-1.2510762099008683
28	0xbfccb4e7a71c0a88	-0.22427077922482774
29	0xbfb631e4e7d441c4	-0.0866988244999965
30	0xbfff81beb61fb29a	-1.9691760172092132
31	0x3fc7db446680c7b2	0.18637900357276532
32	0x3fbbdd7e2c71dcf6	0.10884846291616043
33	0xbfee5a41e254910f	-0.9485177441133902
34	0x3fae84b1ab5b41f0	0.05960612503770679
35	0x3f92689d2f75e6c3	0.017977195760500175
36	0x3fe176f2cb87fe08	0.5457700705737247
37	0x3fb03056c827269f	0.06323759447618692
38	0x3fe1bd5eda8ccaf0	0.5543665188364155
39	0x3fde8410d8b9bcc0	0.4768106571636501
40	0x3fb90d9effc8290a	0.09786409134554588
41	0x3fd2f0d0774f4e15	0.29594813968034944
42	0xbfe7970df4ac3077	-0.7371892718088152
43	0xbfdd628533ebc43f	-0.45913820333868566
44	0xbf9f04d36b569edc	-0.03029184668198935
45	0x3f951cfd99dfcf2e	0.020618402973880005
46	0xbfd37e1e5045d031	-0.30457265700465813
47	0xbfc0ab3174e3cea5	-0.1302244015456512
48	0x3fee00b25ae9e2c1	0.9375850463539664
49	0xbfe11c2e0e1c3b8f	-0.534689929541729
50	0xbfe355e06ab80f15	-0.6042329868655282
51	0x3fc8eb066396f4a6	0.1946723924901665
52	0x3fc691ae80124543	0.17632085088238555
53	0x3fb87a9c771be072	0.0956208983224103
54	0x3fb6ea59ba422b74	0.08951340482069076
55	0x3feaa6b2651e493b	0.8328487372366803
56	0xbfe605b7b0aa33e2	-0.6881979418263848
57	0x3fe1c798924c0d3f	0.5556147439350879
58	0xbfe58a0bbf399a15	-0.6731013045180726
59	0xbfddcfd5512094d1	-0.4658101360567573
60	0xbfed2b68e75f28e8	-0.9115490454653612
61	0xbfc7d3adcf895edd	-0.18614742883322935
62	0x3fdc898b78bef2b1	0.4458950690421189
63	0xbfdeea15fdc2bc63	-0.48303746968571754
64	0xbfaef0fb5f7b9e40	-0.06043229618608992
65	0xbfb44f19511502d7	-0.0793319533304485
66	0xbfbd5784e9e7dc97	-0.11461668692196479
67	0xbfd30af31653923b	-0.2975433080703486
68	0xbfd2c6de76f3dc85	-0.293388000645287
69	0x3fadd8357c1f55c5	0.05829016819158598
70	0xbfa8a9c39dbae783	-0.04817019749084663
71	0x3fdd35bc26c72e85	0.4564047220889978
72	0x3fed91682c615e30	0.9239998690417845
73	0x3fdbc6e862431698	0.43401536556152953
74	0xbfb65daff2207398	-0.08736705457017846
75	0x3fc56e31bb2a3143	0.1674253620043463
76	0xbfbdb678babc3bfe	-0.1160655456444459
77	0x3fcc259b782b2b2d	0.21989768378838317
78	0xbfe30e184c1cb5ee	-0.5954705702367258
79	0xbfd33c5418cd90ed	-0.3005571596352315
80	0x3ff29a160f246575	1.1626186934939515
81	0x3fb3b330ce0b0643	0.076952982238276
82	0xbfbe8be798ce7ecf	-0.11932227593069487
83	0xbfd5c4e652720ca8	-0.3401428036815539
84	0xbfc3710009b9d130	-0.151885990857076
85	0xbfd19c83e09b1484	-0.2751779263892973
86	0x3fd6d48b26a86d8b	0.3567226293104901
87	0x3fd65b534fb9ce74	0.3493240622112588
88	0x3fd7685fcb03a747	0.3657454950867884
89	0x3fcc175ea08fade5	0.21946318473724982
90	0xbf7955ee2c396c96	-0.006185465204534021
91	0x3fb90b8244ac729d	0.09783186127283235
92	0x3fd0ef376a3caf27	0.2646006143065613
93	0xbfa1bf6fe2c71c7d	-0.034663673813661845
94	0xbfc84a59e72abc3b	-0.1897690180535124
95	0x3fd326130a6800d2	0.29919887558209013
96	0xbfc13e2d1fe646d0	-0.1347099691161504
97	0x3fdcb3d311253711	0.44847561525681195
98	0xbfd68f1f4567a56d	-0.35248548295802246
99	0xbfed39d88b3c3265	-0.9133112639843374
100	0xbfd0dae6bd12d7e4	-0.26336067642421157
101	0xbfc5bdf994de4b76	-0.1698600747009455
102	0xbf886361cd0ca9a9	-0.011908306188691169
103	0x3ffc7cb6a7cedd2b	1.7804476313593323
104	0x3fce78e46f0452d9	0.2380643407892851
105	0x3fa0747a55a8ff60	0.032138655621109846
106	0x3fb0a145c8ba967d	0.06496082449538139
107	0x3fb83922f003601f	0.09462183341690932
108	0xbfd943781d08361c	-0.3947429927364696
109	0xbfe099b2da69d46d	-0.5187620416533157
110	0xbfe62874bc14ec3e	-0.6924384759398732
111	0x3fc464200ea8c806	0.15930557933603512
112	0x3ff5e0769f22eba3	1.367300626398653
113	0xbfbcd48f21c54045	-0.11261839460826291
114	0x3fe7453398dd01b1	0.7271974549876657
115	0xbfa011c450fca94f	-0.03138555039034207
116	0xbfbcf27bc6f4880f	-0.1130750046472999
117	0xbfe13093b66e5178	-0.5371798098663438
118	0x3fca372a810dccb3	0.20480853368244353
119	0x3fe5a7691cacf219	0.676685863501521
120	0x3fcf441a3395fd07	0.24426581877558126
121	0x3fe4b1477c662344	0.6466405324618809
122	0xbfcca549277eb7d7	-0.22379412106005134
123	0xbfd004546194c8f3	-0.2502642586652108
124	0x3fc371eb1f6b84f7	0.15191401514224598
125	0xbfe8a5c856726bbe	-0.7702371300141448
126	0xbfe295deeb3d7622	-0.5807947725804221
127	0xbfaef664e0191c96	-0.06047358737537782
128	0xbfd45390992d3b2d	-0.3176003929010445
129	0x3fce52c690d2279c	0.23690111228307564
130	0x3fc221548cc89c39	0.1416421592159354
131	0xbfd280e63196456a	-0.28911738245468277
132	0xbfa9a7a76f73f4c9	-0.05010722384938899
133	0xbfb69ad3c6774290	-0.0882999763046064
134	0x3fb0412ba13e95ae	0.06349442183144191
135	0x3fdabd7d4e53c7a7	0.417815519801588
136	0x3fd3070b32287431	0.2973049154114192
137	0x3fc5dc62727a4fbb	0.17078810300574596
138	0x3fd155814330862d	0.27084380685309634
139	0x3fb5db704a4d757c	0.08537961782481845
140	0xbfa644275a36e6bc	-0.04348872162104331
141	0x3fccb8c05c95a4c5	0.22438816567163236
142	0x3ff059e086bb07c1	1.021942640582424
143	0x3ff00115a77433af	1.0002647916000844
144	0xbfc9b5bdf99f2527	-0.20085882843549394
145	0xbfcdb68ce2beceb5	-0.23213349410581477
146	0xbfba99901ad802f3	-0.10390568404546822
147	0xbfe375dfb470b1a0	-0.6081388973448618
148	0xbfd56f162372b1cd	-0.33490518056603663
149	0x3fe0ff6a5731ff3d	0.5311786368401737
150	0xbfdc047229b4cf42	-0.43777135918502463
151	0xbff16f361b8a101f	-1.0896512103800047
152	0xbfde283376b1e78a	-0.4712036761408106
153	0xbfd438a810a9dec4	-0.31595803859043436
154	0xbfd2d95be98ad166	-0.29451654250012493
155	0x3fe120f597e9f7a4	0.5352733580655138
156	0x3fd4cdd05695ffd2	0.3250618787351388
157	0xbfd7d0168ed3e91d	-0.3720756907274721
158	0x3fdcdfbd80ec3027	0.45115602102373703
159	0x3fe94af88bb261ec	0.7904017189458137
160	0x3fe92e5466261403	0.7869054789631494
161	0x3fd633c84f313490	0.3469105504380616
162	0xbfa98ec99f6612f9	-0.04991750784669153
163	0x3fd06362edfc6775	0.256066067131193
164	0xbfd30b024de30e96	-0.2975469360937749
165	0xbfd263711ce9ccfa	-0.2873194486957825
166	0x3fc77a529db38699	0.18342049312837075
167	0x3fddb5a2313a3da5	0.4642110329377494
168	0x3fd6631d8feed6b7	0.34979952865556235
169	0x3f6affdfc0c39e00	0.003295838372753712
170	0xbfe1dda8e5b6dd20	-0.5583080755813263
171	0xbfbec015fd123eb4	-0.1201184981202868
172	0xbfb59de59b448d50	-0.08444056549756351
173	0x3fbbe9ab66e19dbd	0.10903426419974145
174	0xbfe7c92ef533bc9d	-0.7433085240462735
175	0xbfabcc89114dfebf	-0.05429485641707065
176	0xbf84126397a09009	-0.009800699295801978
177	0x3fe2998c0ffba00e	0.5812435447851401
178	0xbfe837edc6127a7f	-0.7568272465321825
179	0xbfcce6970fb0026f	-0.2257870508765509
180	0xbfb58f8056dacb3e	-0.08422090645289601
181	0xbfd69d978d63bf7e	-0.3533686524160585
182	0x3fd3915e2ba0ad59	0.3057475496340963
183	0xbfe20b95578fa26b	-0.5639139852692784
184	0xbfd53ff3c27ed3bd	-0.33202833169644547
185	0xbfc939ab3e0f32f1	-0.1970724156402848
186	0x3fc386750b972ef5	0.15254080835290265
187	0xbfde9d6e39558fb9	-0.47835879897160855
188	0x3fe1a583405f4193	0.5514541871325939
189	0x3ff06e9275ffc93d	1.0269951447813377
190	0x3fea7f7cb7ad3291	0.8280623996193573
191	0xbfdc3a5df5fca6e4	-0.44106244108352954
192	0xbfd009b8f3703261	-0.2505934121443599
193	0x3fe2d8567a64626b	0.5889084234687066
194	0xbfd8aacd619eb087	-0.3854249432868148
195	0x3ff6498cb2c3b748	1.3929564459790118
196	0xbfc5472b8be5942e	-0.16623443919084607
197	0xbfeadf609db98166	-0.8397677498397058
198	0x3fe2787655b24105	0.5772048639064741
199	0xbfe705147c2f13ee	-0.719370119616199
200	0x3fee9e1c4ddc3091	0.9568006058411972
201	0x3fcfb59948a4e9ea	0.24772945448951528
202	0x3fc141a5ef880700	0.13481592365138084
203	0xbfcc075ebeec96fe	-0.21897491762609173
204	0xbfdc697ba10cf0d0	-0.4439381668814919
205	0x3fd1f7d3a5bcd01d	0.2807511442690627
206	0xbfe32459deeac558	-0.5981873849724861
207	0xbfc0e1dad1b6ba07	-0.131892540358834
208	0x3ffe7c5065681f09	1.905350109214796
209	0x3fa253b8edb53e26	0.03579500104626403
210	0x3fd02ad456355868	0.25261410158908015
211	0xbfd8f914a0f48297	-0.3902026721789666
212	0x3fd82f33069aa435	0.3778808178418019
213	0x3fd5b4474ac00ad9	0.3391283254606328
214	0x3fc16a140a15bf67	0.13604975216321266
215	0x3fb5b5e7e0762139	0.0848069117547582
216	0x3fe8725fdbcb065e	0.7639617245515173
217	0x3fd7d00482145928	0.37207138732027767
218	0x3fd202f3d6a31c33	0.28143020592364393
219	0xbfd0516303ce788d	-0.25496745464068554
220	0x3ff65d491974c1bd	1.39777479118139
221	0xbfc98299566a2db3	-0.19929806441755957
222	0x3fe26798592187f9	0.5751458874549363
223	0x3fbf9968c58553d9	0.12343458959851662
224	0xbfd953f9e3de763c	-0.39575049641448223
225	0x3fc23df3fa0f7dcc	0.14251565656648635
226	0xbf9b233f38b9f0f5	-0.02650164397935924
227	0x3fea1422b6a5169a	0.8149579589159714
228	0x3fe461e7b6b62c71	0.6369513100229495
229	0x3fd65625b8358715	0.349008016483013
230	0xbfc4c8f7353b13a6	-0.16238298510702726
231	0x3fe8579d1bb722fb	0.7606950322452514
232	0xbfad8c0cd7b52c4c	-0.0577091229739258
233	0xbfcf442912d4d620	-0.24426759166242196
234	0xbfe03ccf2692eb0d	-0.5074229958912341
235	0xbfd461f50aee7a9c	-0.31847883288893697
236	0x3fc0e4226ca82c88	0.1319621115256704
237	0xbfdd2727b5503bab	-0.4555148382796072
238	0x3fc6a7110ff62a89	0.1769734695374903
239	0xbfe07335967a9b9d	-0.5140636385957468
240	0x3fea49ceb0b33076	0.8215096903964099
241	0x3ff415dac4d2aee5	1.2553355873487189
242	0x3ff54abb0f4c8d0f	1.3307448003404863
243	0x3fe9e4b6feb12ef3	0.8091692900138397
244	0x3f90e77858a337f4	0.016507988367088403
245	0x3fd5309fd0887439	0.3310927902655894
246	0x3fd42f3eac5837aa	0.3153835948040703
247	0x3f9fe56446c47abc	0.031148497409158024
248	0xbfcfca52e8e15fca	-0.24836193438636506
249	0xbfa8f883843c3fcc	-0.048771009342203436
250	0x3fe7dc29658e8cd1	0.7456252082378346
251	0xbfd28fb95e5d77e4	-0.2900222226652416
252	0x3fceb47a444113dc	0.23988273937916815
253	0x3fbb762b21230a66	0.10727185782438084
254	0xbf54c3dcd3c2f6b8	-0.0012674004092753498
255	0x3fcb0f172140c4bb	0.21139802097017033

lstm.bias_hh_l0 f8 [256]
0	0x3fd03505b4153b13	0.253236223089446
1	0x3f8f2194ff289b67	0.01520077136690441
2	0xbfe38d836c33def4	-0.6110245812733113
3	0x3f7cb0808d2b0f59	0.007004263071113425
4	0x3fd30ff5ff1d1804	0.2978491774887291
5	0x3fc3ef7e5fdbc13d	0.1557462661799124
6	0xbfc8722091fed724	-0.19098288658795426
7	0x3fd61e853a1fb6fa	0.34561281849060743
8	0xbfc178f9c126617a	-0.1365043824305408
9	0xbfe3a5c9cb03c325	-0.6139878239756383
10	0xbfdacca7364cdf45	-0.41874103834878823
11	0x3fdaf18e0b5231c8	0.42099333863805244
12	0xbfe8e4814e6cf9b0	-0.7778936893226298
13	0xbfc529dac85f7eed	-0.1653398016342104
14	0xbfd53fd3a6ca3929	-0.33202067649917183
15	0x3fee6389bf0df201	0.949650643494863
16	0x3fefa70e0db340a3	0.9891424434263353
17	0x3fe0e92695a1ea3d	0.5284607813367256
18	0xbfb51d9329e6bd40	-0.082482526521507
19	0x3fe80e6d9b3cfad1	0.7517612487789284
20	0xbfaf4aa8de32c0d2	-0.061116482852754964
21	0xbfa34c80364935cd	-0.03769303000136013
22	0xbfe7b1c94ab90388	-0.7404524287631924
23	0x3fc024dbc293d6ad	0.12612483025411816
24	0xbfe7fc2c56bbffcc	-0.749532861140318
25	0xbfd2d5903ab4b858	-0.2942848752308058
26	0x3febbe333bdb0ff7	0.8669677895600206
27	0xbff50b4c2feb44e3	-1.3152582046353067
28	0xbfd12a724c5f5d2d	-0.26821572740796534
29	0xbfb587e10b45602d	-0.08410460019274586
30	0xbffeb45c035e7ea2	-1.9190330630880585
31	0x3fc845037851deb1	0.1896061265467686
32	0x3fbbd972b0ac0779	0.10878674329071981
33	0xbfeb51805be29723	-0.8536989016181206
34	0x3fb5718b488ce4a1	0.08376379510163413
35	0xbf7c3c01054ba930	-0.006893161761335073
36	0x3fe17729a0dc82da	0.5457962171386399
37	0x3fad25ef1b6de804	0.0569300385459002
38	0x3fe0d7a4ec9c5d49	0.5263237592034012
39	0x3fe1667562057718	0.543757144401499
40	0x3fb80c3abcdbaecb	0.09393660651010831
41	0x3fd222aa754f0694	0.2833658357231823
42	0xbfe8825fb35daaa9	-0.7659147742500255
43	0xbfdafe90d83aae4c	-0.4217874633420464
44	0xbf9878349feed554	-0.023896047841579574
45	0x3f7ee0a2caa261dc	0.00753844824262059
46	0xbfd3c3d0ca33182d	-0.3088266348462437
47	0xbfc0aaf10730dfb9	-0.13021672106856189
48	0x3fedfd87d88a0ca8	0.9371985654146515
49	0xbfe58ad204c49e1d	-0.6731958478093848
50	0xbfe157c3c878c9ea	-0.5419634738412331
51	0x3fc481e9c77c128a	0.16021463623487292
52	0x3fc209abdf0049d5	0.14092014683462986
53	0x3fb787006ae67da6	0.0919037114131159
54	0x3fb6723173eeaf4a	0.0876799495733255
55	0x3fe91d477396dd5d	0.7848241098026097
56	0xbfe836c613f80401	-0.7566862478271333
57	0x3fe2d1f077448941	0.5881273583839076
58	0xbfe632a2498388a4	-0.6936809001747588
59	0xbfde8ab9a8639723	-0.477217115824134
60	0xbfebdff094cef10e	-0.8710863977826493
61	0xbfcc1c7876d580ef	-0.21961885263863887
62	0x3fd3672c6ad44e7d	0.30317221100379027
63	0xbfdeeafc264c7a3f	-0.48309234371291504
64	0xbfac29b9318817f1	-0.05500582437166191
65	0xbfb3d68c6965888b	-0.0774925000492052
66	0xbfc0885cd7fb7c15	-0.12916145845426344
67	0xbfd37ad1173b3ca1	-0.3043711401814538
68	0xbfd31d7ac1b2fafe	-0.29867428699428433
69	0x3fa52b00a95b54d3	0.041343708680565826
70	0xbfaafa01c26c6f66	-0.05268865106901792
71	0x3fda7fc58cb13c8c	0.4140485643337761
72	0x3fed278edf782f9f	0.9110788693083015
73	0x3fdba4409c3925a4	0.43190016990828384
74	0xbfb677f84c808141	-0.08776809566234524
75	0x3fbf22ffe083fa55	0.12162780028664007
76	0xbfbf31441f21f67a	-0.12184549102854617
77	0x3fce18f4316dc77f	0.23513653195874082
78	0xbfe36c63d2812f7c	-0.6069811927240916
79	0xbfd199973203a712	-0.2749994266911112
80	0x3ff379789b76481e	1.2171560356841904
81	0x3fc0bc3c1151b85a	0.13074446530976297
82	0xbfbe54202712a9f6	-0.11847115472725264
83	0xbfd57d571aed8a4c	-0.33577516202618507
84	0xbfc2ff4c60aade6a	-0.148416087342173
85	0xbfcc80bd5d4979a0	-0.22267882399587524
86	0x3fd475607df5e52f	0.3196641187747273
87	0x3fd5bd82ba415135	0.3396918124101547
88	0x3fd760df7554b424	0.36528765161603105
89	0x3fc6e20bfc3f1c6d	0.17877340141987777
90	0xbfa5cc74bb64109d	-0.0425755003689414
91	0x3fa5b5b850978a65	0.04240203841961402
92	0x3fd18d120bdc6f55	0.2742352596121596
93	0xbfa868d2acd2ae3b	-0.04767473563819321
94	0xbfc86d3593a1563e	-0.1908328028536505
95	0x3fd411e1eb871913	0.31359146118883635
96	0xbfc548e12629d7aa	-0.1662866054863888
97	0x3fdcb325c63ac29c	0.44843429907181487
98	0xbfd76e044cf5643f	-0.36608989253506147
99	0xbff000d97a6b02eb	-1.0002074033692974
100	0xbfd3969f6f0c57d5	-0.30606828541328684
101	0xbfc5827306d9c0b7	-0.16804349741460609
102	0x3f707d9f3671fa1d	0.004026052402990502
103	0x3ffdb69973f671c5	1.8570799379150327
104	0x3fcf89267534d4e2	0.24637299273459862
105	0x3fa644aade0ac8af	0.04349264107203631
106	0x3fa7e8a76ebc37dd	0.04669688441036588
107	0x3fbeb47eacef8f0a	0.11994163248123982
108	0xbfd94047c8f9bedc	-0.39454836489220013
109	0xbfe025cfde050815	-0.5046157203980807
110	0xbfe5b1bdeb471307	-0.6779470057741442
111	0x3fc61deaa4a07dce	0.1727879813997632
112	0x3ff51715a754bccb	1.318135884892217
113	0xbfc13bd2c28265f8	-0.13463816163566356
114	0x3fea6c210de78add	0.8256993552753006
115	0xbf9728ae1c0a186f	-0.022616119824782673
116	0xbfc1ead530ed5781	-0.13997902764338835
117	0xbfe0ae8d5ecb2662	-0.521307644981061
118	0x3fc3245b3048eb49	0.14954700334222995
119	0x3fe95a90d03d217e	0.7923053805507576
120	0x3fc6912df2932ab0	0.17630552620388107
121	0x3fdff6f609cae7f6	0.49944830852803024
122	0xbfcc7cee5ffc58fa	-0.22256259619525293
123	0xbfcf9cd33b25a98c	-0.24697342289011848
124	0x3fcdb72adcce3f92	0.23215232640768285
125	0xbfe3db42d44ab091	-0.6205152651141522
126	0xbfe26e6d0c1dbdcb	-0.5759797321933829
127	0xbfaee9d9fe2df84b	-0.06037789562013581
128	0xbfd60f9853008bf0	-0.34470184426953576
129	0x3fca98b2447e5710	0.20778492302331886
130	0x3fc1cd82cd72ba92	0.13908419639252095
131	0xbfd2bbba507c7fed	-0.29270799503319617
132	0xbfb0d398af06979a	-0.06572870514955156
133	0xbfb6a081448fc857	-0.08838661121242929
134	0x3fb04d6112743c32	0.06368071270502254
135	0x3fd9e07c1adeaf87	0.4043264639283212
136	0x3fdb54a4ecfb9e40	0.4270412744794818
137	0x3fc96d2ea6ffb182	0.1986444774078216
138	0x3fce84928e0d1ead	0.23842079101654204
139	0x3f7847caee0d2449	0.005927841849207979
140	0xbfbef278bb3a031b	-0.12088732310259014
141	0x3fc8db96f3bd5790	0.1942013445029116
142	0x3fecb7eb66522e4e	0.8974511145074275
143	0x3fee1397b4fa96bf	0.9398916754477894
144	0xbfc8f8b12a9478d9	-0.19508947924709366
145	0xbfcce4c23d19608a	-0.22573116286617206
146	0xbfb58e09ba11cf47	-0.0841985778113755
147	0xbfe0759bcf6bf334	-0.5143565226750071
148	0xbfd61314734f55f8	-0.3449145437310501
149	0x3fdb38dfc2fc21a5	0.4253463176869679
150	0xbfdc58886068b3ea	-0.4429036084646315
151	0xbfef310761bf3675	-0.9747349652404426
152	0xbfe0c6c3129c684a	-0.5242629397864758
153	0xbfd58b9577fa5046	-0.33664452282505797
154	0xbfc0bba89e2570a4	-0.1307268879126059
155	0x3fdc0e43884b4b4d	0.43837059316608845
156	0x3fd38d232c7ce8d9	0.3054893431141302
157	0xbfd73c17a5870393	-0.3630427471617221
158	0x3fdc5e0b21154ebe	0.44323995810303163
159	0x3feaeab1e53392d1	0.8411492802229877
160	0x3feaa99010e64f77	0.8331985788413324
161	0x3fd6e28aa08e28ff	0.35757699660520353
162	0xbfc4be6e914a9ac4	-0.16206152052219214
163	0x3fcd29e89024485b	0.2278414443795239
164	0xbfd33879d41d1d41	-0.3003220149443742
165	0xbfd4a1fb6efe6d21	-0.32238660659068513
166	0x3fc70a86354f12e9	0.18000867464993256
167	0x3fe11286254d317c	0.5335112312837249
168	0x3fdae77cffe88be3	0.4203789233308141
169	0x3f896187a6542867	0.01239305473656689
170	0xbfe4c69244df5cd6	-0.6492396683851449
171	0xbfbe0e5093154b2e	-0.11740592566392813
172	0xbfb532acd6f1f5e4	-0.08280449149784591
173	0x3fbb7d056d65fc1c	0.10737642212733117
174	0xbfe88a6e4478c43c	-0.7668982827509647
175	0xbfa69b34c3e1132e	-0.04415287867644789
176	0x3f687cc10cac8a27	0.0029891748903463525
177	0x3fdec6ec7d777554	0.4808913445720766
178	0xbfe66b261d3953f6	-0.7005796976833369
179	0xbfc3ae4aedc53581	-0.15375649080162293
180	0xbfaea3ca56febdd1	-0.05984337150527675
181	0xbfd4a5091643fb11	-0.322572967284871
182	0x3fd55492b861c427	0.333286933956574
183	0xbfd7eb8ce1d68d04	-0.3737518506479349
184	0xbfd104bcf03f04a4	-0.2659141870645476
185	0xbfc949e76983b648	-0.1975678696830292
186	0x3fcd3434a51437e1	0.22815568981644588
187	0xbfda51a7807b1515	-0.4112337832160205
188	0x3fe4c8817717eca5	0.6494757963222538
189	0x3fedc8835708f041	0.9307266902828887
190	0x3fe844fb0acc9084	0.7584204874915632
191	0xbfd9b70541517a41	-0.4017956865190265
192	0xbfccb7feac78ae45	-0.2243650762696793
193	0x3fe27887b71e5c8b	0.5772131516013287
194	0xbfd636a28455d15e	-0.3470846454940978
195	0x3ff6a1de9f2432b7	1.4145189491711514
196	0xbfc791e4b5126c18	-0.18413981286434544
197	0xbfe9070073b95574	-0.782104707740173
198	0x3fdfd39a09380b39	0.4972901430157211
199	0xbfe86bcb91f4d745	-0.7631585932456139
200	0x3fef84cffe7cd6f5	0.9849624605619441
201	0x3fd072b6cc351eaa	0.25700159017695035
202	0x3fc17a448c250bc4	0.13654381602290588
203	0xbfcc090425c7ff73	-0.2190251526335448
204	0xbfdc68d51a91bb66	-0.4438984641519056
205	0x3fccfe1a521d887c	0.22650460252322435
206	0xbfe246f2d261b765	-0.5711607083337468
207	0xbfcb86d94cc22026	-0.21505275962795273
208	0x400049c3a582ca25	2.036017697385676
209	0x3fc1353b79eb4bc8	0.13443702176172523
210	0x3fce71bff1e0584e	0.2378463679348805
211	0xbfd893f6c4932d52	-0.38403100201386053
212	0x3fd9a3e4e74a6b89	0.4006283053110385
213	0x3fd5d26b6735e5c4	0.3409679897227671
214	0x3fc089583ae09c00	0.1291914260375222
215	0xbf4da584f2682e15	-0.0009047412066264827
216	0x3fea17c92921de4c	0.8154035380711746
217	0x3fd7e8d145d85580	0.3735850507813083
218	0x3fd1f6c8b2fcc9ac	0.2806874988483752
219	0xbfce365036c63a0e	-0.23603251146819598
220	0x3ff8243df3a90879	1.5088481443385986
221	0xbfc99ce5b3709948	-0.2001006246729935
222	0x3fe088a992a24dac	0.5166824211068408
223	0x3fbf05215b4ba200	0.1211720321549663
224	0xbfda05fb2949ec1d	-0.4066150572977579
225	0x3fc24e51f3ef6269	0.14301514063733414
226	0xbf901e47ceab81a7	-0.015740510930187714
227	0x3fe9fcb18f433dfc	0.8120963857745092
228	0x3fe2dc830d87cd18	0.5894179596201949
229	0x3fd5930d5200770d	0.33710034378042125
230	0xbfc51118cbdc42dd	-0.1645842547809683
231	0x3fe806ca031d7722	0.7508287487832812
232	0xbfa9541b997106d8	-0.049469816666272315
233	0xbfd15c1b7176c247	-0.271246777348129
234	0xbfe0302d7afa60c6	-0.5058810617365672
235	0xbfd410b8b915b19f	-0.3135206038921527
236	0x3fc0d7381f25dff0	0.13156796952148353
237	0xbfde5d1062dab29c	-0.4744301762937455
238	0x3fc508c161a58924	0.16432969348813586
239	0xbfe0979da7de4806	-0.5185077933003874
240	0x3fe9f184c79fb8c0	0.8107322596458957
241	0x3ff61e6ee6350323	1.3824299805130031
242	0x3ff63fa146aa9ddf	1.3905346641930618
243	0x3fe6d21f9f2b15e6	0.7131498440509716
244	0xbfa3e5d79057008f	-0.03886293065033996
245	0x3fd1acff284c3da3	0.2761838811429362
246	0x3fd47b24ab15105a	0.32001606662038784
247	0xbfaa4c1f6daa4bd6	-0.05136202062308086
248	0xbfcfae39c20cbbdf	-0.2475044438847069
249	0xbfb0e35e047369d7	-0.06596934899008687
250	0x3fe2c960c2f2edb6	0.5870822723003843
251	0xbfd2d9eb452199a6	-0.2945507216558333
252	0x3fccb0adcedc1769	0.22414181328366148
253	0x3fb83b483bf2e9f0	0.09465457404704813
254	0x3fb9793f8042582a	0.09950634843184561
255	0x3fceb7890dcee39e	0.23997605489946933
