model_lstmBlocktest_source_robot.pth (torch, 367511 bytes, 6 tensors)

lstm.weight_ih_l0 f8 [256, 112]
000000 99 90 f5 9c 77 79 c8 bf 5c 3a 0c 85 d4 37 da 3f
       -0.1912068859484222 0.40965760224290704
000010 8d 39 cb 72 42 4e a4 3f b6 40 c2 10 e4 c7 c3 3f
       0.03965957309047772 0.15453768556881692
000020 9c 7d bd e1 c1 c6 c2 bf 9f 08 24 8e f9 48 e7 3f
       -0.14669059298010445 0.7276580597101833
000030 bd 48 3e f4 3b 5c a5 3f 81 68 ca 0b e5 cb d2 3f
       0.041719316067557945 0.2936947455542694
000040 df b2 97 aa 9a b6 a1 bf f2 e4 22 f7 8e bc ce 3f
       -0.034596284221924505 0.24012934748842657
000050 3a 69 2d 4f bd 57 a5 3f 68 c5 ef d8 6d 49 c8 3f
       0.041685024180611 0.18974087803466522
000060 b2 cd 1a 9a b7 73 df 3f 5f 7a fe e9 98 03 c1 3f
       0.49143781708991263 0.13292228150835947
000070 21 07 30 43 cc 14 a7 3f 3d c8 2c fd 52 2f b1 bf
       0.04508055038605919 -0.06712835961369108
000080 38 35 5d a4 38 85 af 3f 49 ef 84 df fe ab c5 3f
       0.06156327253720878 0.1693113891031948
000090 0a 7d 8e e9 dc 16 a7 3f 99 0e 12 6d 87 06 b0 bf
       0.045096305380179016 -0.0625996247563826
0000a0 cd 34 80 27 ae 43 dc bf 12 83 8f 7f 2a b6 9f bf
       -0.4416308770895057 -0.030968345676117677
0000b0 f9 8d 78 b9 41 ab a7 3f fe 73 be 16 5d 28 c9 bf
       0.046228460207455364 -0.1965443001799087
0000c0 85 f3 bb b3 b6 8c f0 bf 0c ca 32 72 25 71 90 3f
       -1.0343539257876 0.01605661878120128
0000d0 92 4f 9d 75 9b a6 a7 3f fc ec 5c 4d 9b 32 c7 bf
       0.046192987544286926 -0.1812318923710804
0000e0 33 6d 95 07 2f 1a e4 bf 74 fd 88 e7 90 06 cf bf
       -0.6281962535971729 -0.24238787942338613
0000f0 80 c8 50 d2 14 cd a3 3f 36 a9 d8 75 9f bd c6 bf
       0.038674021409307535 -0.17766183141913822
000100 e6 a8 1a 16 37 58 eb bf 3b 16 73 45 62 92 d5 bf
       -0.8545184547158697 -0.3370595625131931
000110 a6 c6 56 20 ff bf a3 3f 9b 1a 4c b0 9e a2 c6 bf
       0.03857419271242905 -0.17683776481881783
000120 e9 da cf 91 28 29 f1 bf dc 34 f2 a5 44 d0 d8 bf
       -1.0725484557894396 -0.38771167951274577
000130 93 7a 54 43 a8 4d a4 3f 0a e1 90 7a 6d 80 c5 bf
       0.03965497800731046 -0.16798180088677156
000140 ee 16 8f 98 60 16 f4 bf 99 a4 32 b3 58 dd d5 bf
       -1.2554632148107276 -0.3416349172571898
000150 50 c9 7e 13 8c 49 a4 3f 17 44 69 a0 dd 86 cf bf
       0.03962362039546241 -0.2463032754190244
000160 a2 0a 6d 6d d6 00 f3 bf 7d a0 35 7a 13 b3 dd bf
       -1.1877044939471166 -0.4640549367382006
000170 b4 f6 15 9b ac b1 a4 3f a2 41 fe e6 6e 73 c3 3f
       0.040418046885844744 0.15196024207081132
000180 f4 94 ba 20 aa 22 f0 3f 16 0c 2d e4 73 83 e4 bf
       1.0084630278082019 -0.641046472221549
000190 7d 92 ff 19 e2 b5 a4 3f bd e6 4e 93 cd f6 ca 3f
       0.040450158761619705 0.2106568307188378
0001a0 13 11 e0 c9 9b 29 eb 3f 8b c6 db 3d 68 19 a5 3f
       0.8488291685939963 0.041209466506086555
0001b0 50 05 71 67 ca 75 a3 3f d4 10 66 6c 23 e7 bd bf
       0.0380080462714526 -0.1168081416745424
0001c0 36 0c ff 2c 57 8d dc bf ae 4d af 65 78 69 da 3f
       -0.44612674135368324 0.4126873963370724
0001d0 e1 4f cb 67 cd e2 96 3f ae 92 d4 1a 07 ef c5 bf
       0.022349557361692866 -0.1713570481307633
0001e0 36 67 34 99 43 5a e3 3f 62 dc b1 59 1d 2b e2 3f
       0.6047685615805907 0.5677630187846143
0001f0 4b 22 71 ce c5 49 92 3f cd f6 bb b9 42 24 a1 3f
       0.017859545445647645 0.03347977177871329
000200 9d f8 ef bf 84 8e df 3f f7 d6 2e aa b1 2e f2 3f
       0.4930736421955631 1.136399903084962
000210 f3 e7 29 9d a3 01 92 3f f7 91 b5 6e 07 80 c0 3f
       0.01758437773467132 0.12890713601804268
000220 a2 7c a2 e8 e8 86 fe 3f 27 be 30 a1 c6 9a fc 3f
       1.9079369628232503 1.7877870842456873
000230 35 ed 2d ff 63 7f 90 3f 20 30 6f 64 bc 2e b0 bf
       0.016110956621088596 -0.06321313335428203
000240 21 d5 63 02 4e bc f6 3f 42 23 fc dd 3e ed ff 3f
       1.4209728330000149 1.99542128289086
000250 06 d1 be 73 47 cf 90 3f 50 c7 13 4b b1 f6 9e 3f
       0.01641570705369679 0.030237932402946754
000260 6d 1b 2a a8 29 c5 f7 3f d4 0c de 36 70 d3 02 40
       1.4856354302334822 2.353241375590736
000270 4e ac 15 da 35 7b 88 3f a9 6d 80 2d fe 8b d2 bf
       0.011953755109706556 -0.2897944874145773
000280 e5 1d c0 0b 4b 48 00 40 e9 74 68 4f 98 c3 fe 3f
       2.0352993886951816 1.922752676189072
000290 8f 66 63 86 01 49 88 3f 19 af 4e 88 b9 02 ca bf
       0.011857997811989733 -0.20320815234787729
0002a0 d9 e1 a5 78 97 73 f8 3f 91 65 c1 c7 33 0b e9 3f
       1.5282206261455171 0.7826174642060996
0002b0 3c f3 04 65 25 bf a9 3f c5 95 49 98 ed 2f 77 bf
       0.05028645380159566 -0.005660942177745769
0002c0 59 12 d7 c6 21 ed f4 3f 2c 45 ee 1a 07 74 ea 3f
       1.3078935401146252 0.8266635442725252
0002d0 21 10 e8 c2 6a c3 a9 3f 87 6d b1 81 7a d7 ba 3f
       0.050319038669869316 0.10485044161162281
0002e0 be 27 d5 71 ae dd f0 3f d8 9d 09 64 fa 2e f8 3f
       1.0541214415156754 1.511469259998071
0002f0 0a 55 ef 5d ed 89 a9 3f 9d a1 a2 56 70 f6 bc bf
       0.04988042613664774 -0.1131353580009375
000300 ba 5d 24 4f 90 b7 f8 3f 22 d0 4a ab b3 98 fa 3f
       1.5448153583036928 1.6622807208159505
000310 19 2b 05 2a d7 8f a9 3f 9f 80 7e e2 82 5a bf bf
       0.049925540809075915 -0.12247484235422455
000320 db e5 1b 1e cb c3 f6 3f c2 8e d6 7c 0b d7 f8 3f
       1.422801129925907 1.5525011898507022
000330 1f 0c a8 3d 48 bc a8 3f 1f e8 a7 1f b1 61 b6 3f
       0.04831147911684063 0.08742815993164797
000340 8c 59 89 29 19 46 d8 3f d6 d7 09 72 14 87 f7 3f
       0.37927846008587873 1.4704784826876582
000350 9b bd 8a 82 bb ac a8 3f 74 bf 23 cf c5 34 68 3f
       0.04819284409074528 0.0029548514804602025
000360 55 53 be 10 92 6c d8 bf ae 9a 51 eb 1a 7b f6 3f
       -0.3816266215811102 1.4050549690379444
000370 07 ca 2e 34 41 62 a7 3f 05 1b 61 1e e9 68 89 3f
       0.045671498889891686 0.01240713237724612
000380 2d f3 d2 59 76 a1 b7 3f cf a6 37 2f dd ee 81 3f
       0.0923074693009311 0.00875637817712818
000390 6e 51 1a 97 61 6e a5 bf 8f 75 8a 2e 2d 6f a1 3f
       -0.04185776681439078 0.03405133431554496
0003a0 ad df 96 8c 58 f3 d7 bf 3b bf 28 3d 34 b9 9d 3f
       -0.37422765473774683 0.029026809914454815
0003b0 e6 87 76 ed 27 56 a6 bf d7 19 87 42 2b 6c 80 3f
       -0.043626067864593485 0.008018815963521426
0003c0 fe c9 e8 ef ef b0 d8 bf 4d a4 a7 d9 49 01 a9 bf
       -0.38579939297338217 -0.04883795530242505
0003d0 0d 94 af 0d 86 15 a7 bf 6a 9e d5 9a a9 1c a1 3f
       -0.04508608738959916 0.03342180266446067
0003e0 7d a5 d0 a3 49 26 e7 bf 1a 5e 97 5f 92 db a7 bf
       -0.7234237861168108 -0.046597074669701935
0003f0 5c 92 61 ba a4 36 a7 bf 4f 18 68 45 b0 b7 9d 3f
       -0.04533877158317942 0.029021028743976548
000400 61 4f 06 f3 b3 00 e6 bf 39 2e 8d 75 6d 5c 9e 3f
       -0.6875858065200015 0.0296494582174047
000410 0b e6 0a 8b 54 21 a7 bf 88 44 9f 4c 15 c3 66 3f
       -0.04517616460129766 0.002778569793897182
000420 c5 5b 6c c1 5d a7 e5 bf ae 9b d9 35 90 a1 bb 3f
       -0.6766804483221384 0.1079340106458477
000430 df 03 73 10 07 56 a7 bf 89 69 51 7d 4e ab 94 3f
       -0.045578213460892185 0.02018473281746361
000440 0a 73 8c 54 c4 91 e0 bf 35 01 01 92 38 bc b8 3f
       -0.517793812879604 0.09662202419804518
000450 42 17 49 da 85 5b a7 bf de 10 85 c8 0c 1a 9b 3f
       -0.04562013902299934 0.02646656011462844
000460 46 8f 16 59 c6 84 eb bf 33 51 e6 da 94 c4 b8 3f
       -0.8599578609468856 0.09674959511022933
000470 02 53 d7 dd f8 3c a5 bf 6d 03 b6 9d 2c ac 9d bf
       -0.041480805473531404 -0.028977105260767844
000480 d1 c8 f9 d0 f5 9f e1 bf ba 53 65 2d be da 8b 3f
       -0.5507763940388718 0.013600812683458464
000490 61 ed 5b 6e e5 64 a5 bf 42 09 3b 6c 77 c2 35 3f
       -0.04178540203244086 0.00033202567668068697
0004a0 bc 4e 90 c7 58 68 d9 bf 2f d5 7c 93 f3 af bb 3f
       -0.3969938229431411 0.10815355635425726
0004b0 4f dd f5 38 43 53 a5 bf 99 37 50 98 96 22 a5 3f
       -0.04165086813275797 0.04127951249402812
0004c0 5f 3e e1 1f fa 3a c1 bf a5 db 2e 51 8d 9d bb 3f
       -0.1346123366988534 0.10787280303962506
0004d0 b8 3c 48 ae b0 47 a5 bf 48 27 08 cc 16 06 a7 3f
       -0.04156257750957465 0.04496833077071344
0004e0 ee f4 2a 0f a6 53 a1 bf 11 65 e8 a4 35 24 a1 bf
       -0.033841313697374406 -0.03347938192400524
0004f0 80 7d 9d 75 ce 3a a5 bf f1 71 9a bd 0b 71 8c bf
       -0.041464282853435286 -0.013887492870076708
000500 a9 ba df 45 c8 21 d9 bf 24 5b bc a9 07 04 a4 bf
       -0.39268690894724984 -0.0390932459542255
000510 55 9a 7a aa 1f 46 a5 bf e2 99 35 f3 07 69 80 3f
       -0.041550626335539555 0.008012830838834032
000520 80 26 eb 2c 7c 33 b3 3f 4c 92 49 49 39 f4 b3 3f
       0.075004349676556 0.07794530905955205
000530 a0 29 2f 6c 88 47 a5 bf 67 48 f2 77 fe 02 89 3f
       -0.0415613777218653 0.012212741885637436
000540 8d 77 f8 79 e9 06 a2 bf cd ce a2 11 55 80 bb bf
       -0.03520898450754748 -0.1074269455009997
000550 37 f7 98 68 a1 e5 a6 bf 5a b0 03 7a 65 ff a3 3f
       -0.04472069169831488 0.039057894844376675
000560 3d fa ce be 23 9c aa bf 78 75 db fc 01 8d bb bf
       -0.05197250084119218 -0.10762035773537615
000570 c6 26 f7 a1 01 e6 a6 bf f0 63 1a 2c 2a c6 a9 3f
       -0.04472355939976817 0.0503400019490029
000580 5c c5 48 31 73 f5 a8 3f 8a 7d 99 70 0b 5d 98 bf
       0.048747634664673994 -0.023792437312633953
000590 93 e9 83 0f 9b eb a6 bf 37 a6 2b 6e e1 53 a5 bf
       -0.044766278881030484 -0.041655583094165775
0005a0 40 b7 3f 47 a9 7e d8 bf 71 0a 07 72 91 9b a1 bf
       -0.38273078878306777 -0.03439001576363843
0005b0 5e 4a 0f 93 ae da a6 bf fb c5 61 2f 2b f8 97 bf
       -0.04463716073191358 -0.023407625929797487
0005c0 14 0f 68 3c fb af d6 bf f5 f8 46 f9 8c b2 b6 3f
       -0.35449105166502304 0.08866196714277293
0005d0 00 ae 6f 6e 56 b9 a6 bf c8 b4 16 5d ad e4 88 3f
       -0.044382763844478035 0.012154917147962144
0005e0 24 83 ec c1 ec 59 de bf 9c 72 25 9c e7 28 bb 3f
       -0.4742385762966015 0.106092906591082
0005f0 fb 56 a6 5a 27 ed a6 bf 13 7d 7d bb fa f9 9c 3f
       -0.0447780893475009 0.028297345822804475
000600 89 06 a9 da 04 db ef bf ae e2 bb 6b 78 6b b3 3f
       -0.9954857130725979 0.07585861807082026
000610 5f 2c 77 9d a3 f7 a6 bf ec 84 61 5f 99 25 2d 3f
       -0.044858086559167225 0.00022237298225306153
000620 73 91 2b ce 1f 9a e1 bf 44 a3 21 e3 38 ac bb 3f
       -0.5500639940988051 0.10809665246200689
000630 1f 77 6f e7 59 bd a6 bf 51 15 59 f4 82 a8 95 bf
       -0.044413384915726654 -0.021150633014504653
000640 dd 93 3c 33 0b 8f ed bf 39 e9 61 46 3b 38 bb 3f
       -0.9237113953319028 0.10632677524873636
000650 90 70 32 5b 61 b1 a6 bf 8e 78 cd 3b 7a 91 97 bf
       -0.04432205427403446 -0.023015890026151946
000660 0e f5 71 bf 2c 7a e9 bf b9 19 dc 8f e4 c2 ae bf
       -0.7961639155543325 -0.060080664216048026
000670 1b 1b c6 f2 66 a9 a6 bf 0b 3f 83 9b 31 74 9e bf
       -0.0442611857752608 -0.029740119091740385
000680 53 c3 27 8c 66 a6 e3 bf f4 65 da dd a5 99 b2 bf
       -0.6140625703247714 -0.07265698114715474
000690 06 d5 21 9c cc b2 a6 bf fb f7 0b 89 0d e4 a1 bf
       -0.04433288007650486 -0.03494303033765785
0006a0 ae 1d 93 14 3b 29 f0 bf cb 5a 1f ab b7 99 b8 3f
       -1.0100661090562926 0.09609554221911336
0006b0 69 8e 83 c5 1d ae a6 bf 7a 03 40 af aa 18 a6 bf
       -0.04429715190943002 -0.043156942265347234
0006c0 83 d7 00 04 d0 ae e3 bf 5d 72 ab 45 8b 89 8d 3f
       -0.6150894239606121 0.014422500671053823
0006d0 9e 6a 88 a3 c7 29 a7 bf e4 a6 50 72 84 7a 93 bf
       -0.04524062987566889 -0.019022054173695305
0006e0 f1 05 e1 f8 80 18 e3 bf 88 7a 82 ea 0a 87 a8 3f
       -0.5967411862295063 0.04790529358546275
0006f0 3d a1 d0 eb 0b 60 a7 bf 2f 3c ea 37 f7 ae 92 3f
       -0.04565465215302076 0.018245566165713874
000700 c8 31 d1 c7 70 15 d7 bf f7 74 b6 7f 39 2f f3 bf
       -0.36068362725634673 -1.1990294445780003
000710 15 d2 b7 67 6a 71 50 3f 37 c7 de 38 94 52 ba 3f
       0.0010036028969554512 0.10282255543168338
000720 91 a9 a2 04 6e 19 e5 3f 11 32 88 ac f1 9d f3 bf
       0.6593542185340074 -1.2260605563670917
000730 14 ef 92 dd 99 aa 49 3f 41 f1 6a c7 f7 6b b6 bf
       0.0007832766815662772 -0.08758495920750865
000740 88 f6 6f 6f 5e 23 a7 bf c0 bf 7e 87 12 53 f1 bf
       -0.0451917181999138 -1.0827813427713266
000750 6c 40 70 72 2d ae 52 3f 7c 92 c2 69 7c 5c 96 bf
       0.0011401599711043054 -0.02183718104847053
000760 e8 f3 35 71 a8 7f f7 3f 49 21 f3 25 61 b9 f5 bf
       1.468666498403076 -1.35775866340744
000770 7a be eb f0 db 5b 4b 3f 0a 08 f1 eb e8 a7 a8 3f
       0.0008349250727785606 0.048156050492721716
000780 52 c2 ca b7 99 df ef 3f 07 ff 4f 9b f1 18 f1 bf
       0.9960449781120337 -1.068589789094348
000790 79 45 6f b0 e8 97 59 3f 6f 92 04 50 ba 7a 9a 3f
       0.0015620968203971782 0.025858794340040733
0007a0 0f f1 d7 ef 11 8d b8 3f 4d 21 5e bd c2 d0 eb bf
       0.09590255837969529 -0.8692334841335111
0007b0 ea 8f 31 f2 68 9a 63 3f e4 25 25 51 e6 16 89 3f
       0.0023929643371491853 0.012250708915092674
0007c0 a1 7f 37 f8 e6 80 ce 3f 36 67 22 48 fd 7d f1 bf
       0.2383087837215472 -1.0932591264485843
0007d0 42 f2 87 0d 95 1f 63 3f 6f 74 53 09 73 c5 ab 3f
       0.002334395521982808 0.05424079407541959
0007e0 6d 0f fa 85 86 c6 b0 bf 37 e7 ee c4 b2 31 f2 bf
       -0.06552925845067899 -1.1371333782867177
0007f0 30 f4 8e e8 85 dc 4b 3f d7 c1 1c 02 ab 99 b9 bf
       0.0008502630090486737 -0.10000103761263489

lstm.weight_hh_l0 f8 [256, 64]
000000 bf ff 44 65 ac 06 a8 3f 81 83 f4 ff cf c8 ad bf
       0.046925914155962804 -0.05817270278408327
000010 6a 0f 62 f9 b2 ab b2 3f f2 99 81 9f 56 7f b6 bf
       0.07293242062047303 -0.08788052934833226
000020 d1 00 ac 92 ff a0 af 3f 07 dd 1b 04 5a fb a6 bf
       0.061775194792063844 -0.04488641071469073
000030 4c ce 0d fa 88 ff 92 bf 28 af ac 4e 45 d0 b1 3f
       -0.018552913915711053 0.06958420916333508
000040 04 3c f9 92 79 57 b9 bf 3d 47 18 96 6b 09 a6 3f
       -0.0989910110304067 0.04304062087261549
000050 6b b5 1b f5 9b 2d 95 3f ea e0 63 1a 46 d7 9b 3f
       0.020681797824115316 0.027188392029501886
000060 44 68 19 c9 1e 98 b2 bf 11 35 f8 24 11 29 b8 bf
       -0.07263367089891043 -0.09437663223817007
000070 62 75 ab 4f 3f 93 c2 bf fc 5a 91 3d 90 6d 9b bf
       -0.14511863126873964 -0.026785138852882348
000080 e7 50 1a 0f 4b 13 b6 3f d5 a6 7f 03 21 71 bb 3f
       0.0862318908569396 0.10719496093193055
000090 7e 91 6b ed 42 98 a4 3f eb c3 5c e7 2d a0 a3 bf
       0.04022416256137527 -0.038331446163631565
0000a0 49 b3 0e 8c b9 8d a5 3f d2 ff bc ac 1c 24 88 bf
       0.04209689936337797 -0.011787628194383535
0000b0 3c 7f 05 55 62 0a b0 3f d1 a3 31 07 ca 58 ac bf
       0.0626584489414172 -0.055364907625353184
0000c0 05 34 08 93 3c e5 8f bf 0e 85 e5 2d 3d 9c af bf
       -0.015573952900945551 -0.06173888383160363
0000d0 c0 2a f7 c2 a3 de b0 3f 74 69 10 d4 b2 a3 a0 3f
       0.06589721212291533 0.03249892080949027
0000e0 a2 a7 ed 11 e0 24 b3 3f 34 40 1f 2f 7e 6c b2 3f
       0.07478142202094643 0.07196797037545438
0000f0 39 27 b9 e8 2c 4b 9b 3f 85 fc 63 f6 e7 2b a9 bf
       0.026653958992290703 -0.04916310198495303
000100 18 f4 27 1b b2 9e 7a bf c5 d4 78 f9 07 1b 95 bf
       -0.006499000288838118 -0.020610928155481618
000110 5d ee 17 3d 98 55 98 3f ed 22 98 7a d7 c6 ae bf
       0.02376401780018821 -0.060110791888353755
000120 bb 17 82 1a e1 9c ba bf 13 86 22 21 56 e5 88 bf
       -0.10395628831073982 -0.012156174551196696
000130 56 00 97 c4 7e af 87 bf 7a dc 77 1f 20 5d ac bf
       -0.011565199255415031 -0.05539799102910421
000140 91 80 62 3e 72 6f a1 3f 6c 61 97 f4 78 45 a4 bf
       0.03405339252026452 -0.039592532975521205
000150 34 04 48 51 37 d7 58 bf c4 36 cd 92 27 a9 c5 bf
       -0.001516155262948138 -0.1692246882252474
000160 61 f9 16 70 98 92 a0 bf 08 18 7f 74 bc 1d 99 bf
       -0.0323684346035289 -0.024527496919994035
000170 60 7c 74 e7 19 3b ac 3f 3c 44 a8 9f 8c 53 9c bf
       0.05513840628031441 -0.02766246532889148
000180 fb 6e 27 4b a0 f3 81 3f 68 74 57 d4 2b 39 7d bf
       0.008765461247939301 -0.007134600838495243
000190 ba c9 a7 a8 e7 9e 91 3f d0 bd a1 67 f6 24 ac bf
       0.017207736653242135 -0.05496950163876202
0001a0 29 05 40 ba c8 24 ad 3f c7 eb c9 08 63 f8 78 3f
       0.056921265349965396 0.0060962551621015
0001b0 d1 3f 0d 96 e5 37 a9 3f e4 c8 3c 63 12 19 95 bf
       0.04925458389936888 -0.020603453928921392
0001c0 4d ff 6b a8 49 c0 ad 3f 14 b9 6f c9 dc 47 9b 3f
       0.05810766392641984 0.026641320986464725
0001d0 dd 31 19 ec 5a 88 bb 3f e5 67 8e 71 d9 6c ba bf
       0.1075493647014762 -0.10322340986604635
0001e0 6a 59 97 f9 29 ff b5 bf bc 4c 5a 11 ce 94 90 3f
       -0.08592474311385492 0.016192645844580453
0001f0 19 35 5b 70 49 1e 63 bf 53 07 c9 91 e0 8f bb 3f
       -0.002333777842841511 0.10766414221964497
000200 18 10 75 ad 9b 39 a6 bf b1 cc 21 6e fb af 32 bf
       -0.04340826504133605 -0.0002851475566167479
000210 39 e6 8a 3e 65 2d b2 bf a8 fd 02 75 c2 df b8 3f
       -0.0710051801387629 0.09716430050592939
000220 e7 56 1d 41 28 42 a5 bf 43 2d 20 00 98 cf 9a bf
       -0.04152036471229597 -0.026182532317801998
000230 48 e9 63 f3 ee 7b ba 3f cd 0c cf d6 90 f7 98 3f
       0.10345357362885921 0.024381888495338445
000240 d0 48 4e 61 32 09 ad 3f b7 c5 9e e6 85 06 b0 bf
       0.056710790994786486 -0.06259953384758075
000250 ae 1f cd 7e eb ad 80 3f 19 17 2b 58 7a 31 b1 bf
       0.008144225890319347 -0.06716122295901207
000260 5a d1 0f 05 0f 1d ba bf 40 a9 93 78 e4 5e b0 bf
       -0.10200590013102354 -0.06394794410485805
000270 92 f7 59 ee af 22 a9 bf d4 66 24 3e 21 36 b2 3f
       -0.04909276756823923 0.07113845603125962
000280 48 4a 42 6c 02 d2 ba bf 99 e0 75 f7 aa 24 a3 3f
       -0.10476699011841462 0.037389128406119805
000290 b7 cd b8 ef 69 a8 83 bf 8f d3 cb e6 3f 08 73 bf
       -0.00959856760810039 -0.004646539321346745
0002a0 a7 ca 47 d1 5f 99 b5 bf e1 44 61 dc 5f 65 9b bf
       -0.08437155589471478 -0.026753900361943365
0002b0 0f 99 e6 79 9b e5 b3 bf e3 f4 9f 77 7f a1 71 bf
       -0.07772227979748812 -0.0043044070425797025
0002c0 77 e2 c0 c2 ef 0b bb bf b9 64 fe 08 f4 bc c2 3f
       -0.10565088753436123 0.14639139594217968
0002d0 f2 73 21 d0 52 c2 a4 3f 70 b9 bd 4c a3 83 97 3f
       0.040545070559097854 0.022963096197992028
0002e0 fd 9e 48 19 d7 9e b9 3f 0e a1 8a 37 a1 f0 ba bf
       0.10007995955731626 -0.10523421865457669
0002f0 c6 24 7e c9 a9 b3 b0 3f 23 74 04 75 fc 36 71 3f
       0.0652414433408409 0.004202829514068393
000300 13 fd 49 ce 9c eb af 3f 19 96 41 6f 0c f9 c2 bf
       0.062344455892338634 -0.14822535927230332
000310 71 fb 56 b4 ae 50 36 3f a0 6e 0a b3 47 18 ba bf
       0.00034050240750709617 -0.10193298455345223
000320 03 97 ae 47 fc 4a ab 3f 94 6a 74 48 c8 4d b5 3f
       0.05330646872543634 0.08321811455645395
000330 d7 12 01 89 69 76 b0 bf b3 c5 b7 71 96 bb af 3f
       -0.06430682749585102 0.06197805536420322
000340 54 27 03 a0 01 bc b2 bf 63 2e 48 8d 7b b4 b6 bf
       -0.07318124920416597 -0.08869144629732655
000350 3f 01 53 f7 04 b7 a7 bf 51 ca 74 ab 98 68 b1 bf
       -0.046318202200839036 -0.06800226388876608
000360 e3 2b 29 0e 75 7c d3 bf d8 0c 47 25 ce 4d d2 bf
       -0.3044712675370517 -0.2859988559759592
000370 64 6d 46 f6 5b ab b6 bf a0 78 4f 93 1f 0b 8a 3f
       -0.08855223429275366 0.012716528590257348
000380 03 88 b1 b7 c2 3a c5 3f 5b 17 0e be 8f c5 b4 bf
       0.16585573167236597 -0.08113954916015358
000390 f9 f7 2b c6 0d 12 a6 3f dd 84 d1 0f a7 5f af 3f
       0.043106489601981886 0.06127664630981553
0003a0 ff 7a 20 ce 52 16 91 bf b8 e6 5f 81 46 3a b1 bf
       -0.016686719733224994 -0.06729546221313398
0003b0 2b b3 1c be b7 84 a6 bf 34 a1 74 99 1d 16 b1 3f
       -0.04398130603508429 0.06674370762323606
0003c0 48 f2 9e 94 17 03 a3 3f 9d 60 fa 81 18 60 cb bf
       0.03713296593875676 -0.2138701090486891
0003d0 58 e7 f3 dd 09 b8 a7 bf 9c 31 b9 4f a3 0c b4 3f
       -0.04632597765335217 0.078317839587902
0003e0 3f 42 4e 21 ad 04 a5 3f af 08 d6 83 42 75 9a bf
       0.04105130225719166 -0.025837935730586178
0003f0 ba 21 55 05 4d ab a1 3f 91 bd 96 01 e3 3b 62 3f
       0.03451004686445765 0.00222582184934312
000400 da 7c da d5 e0 d0 ce bf 39 2b b7 44 17 b2 af bf
       -0.24074945871414039 -0.061905600679514845
000410 8c 3d d3 9b 22 ba d4 bf 6b 19 6b b5 9e e4 ae 3f
       -0.3238607904176767 0.060337981839938624
000420 de 29 05 68 7b 47 c6 3f bd e7 af e6 bc 60 91 bf
       0.17405645922765606 -0.01697058828356267
000430 13 97 8a 95 e9 e0 da 3f 70 27 38 5e dc 76 f0 bf
       0.41997756580018225 -1.0290187530940464
000440 43 df d8 2f a7 77 ed bf 0d 19 7a a6 36 f8 d1 3f
       -0.9208560881151943 0.2807747483970083
000450 a2 35 3f df 44 71 cd bf 90 6f 6b a3 6f 73 db bf
       -0.23001919651725894 -0.42892065962745907
000460 80 46 99 c7 41 e3 e4 3f 05 29 3e f3 9f e8 d5 bf
       0.6527413271343931 -0.3423232913416004
000470 1e df b2 55 6b 42 ef 3f 7e 5c 7e aa 5c 5e e0 3f
       0.9768578218272272 0.5115187959626295
000480 d6 92 1b 17 8a 2a ee 3f e9 41 9d 4b 69 74 d7 3f
       0.9426927996942946 0.3664801824970981
000490 fb 47 72 14 bd 78 87 bf 30 f8 6f 6e b2 d7 a2 3f
       -0.011460759340739193 0.036801887494206986
0004a0 68 63 fa 7f 24 ba af 3f 54 26 ff 0d 59 a8 e0 3f
       0.06196703016502775 0.5205502770779256
0004b0 54 c9 3f d7 ac 89 64 3f 72 70 67 4b bf 89 af 3f
       0.0025070548817833025 0.06159780307254516
0004c0 c6 0e c0 6e d4 c8 dc 3f b6 aa e1 73 95 80 ac 3f
       0.4497576791329546 0.055668516536419174
0004d0 39 57 9b f1 63 32 a8 3f 10 69 37 e5 c2 4a a4 3f
       0.04725944828321222 0.039632883530162144
0004e0 c2 8f ba fd f9 46 eb bf fa dc 73 bc 25 86 d1 bf
       -0.8524141269340293 -0.2738127079350786
0004f0 26 02 f1 6e 6c 60 da bf ac fe 71 0a 8d f9 c3 3f
       -0.4121352275288096 0.1560531903269199
000500 99 c9 fb 2b 93 b1 d9 bf 3b 66 ab 81 5e 61 ad bf
       -0.4014633111502462 -0.057383492783355604
000510 58 cd 68 eb c9 49 a7 bf e3 ef eb d6 31 9f a1 3f
       -0.045484838472840294 0.03441768406443637
000520 e1 75 c8 5d a1 77 ea bf cf 18 0a 0a 3b 1f da 3f
       -0.8271033126545114 0.4081561658898751
000530 85 8e ba e2 0c 56 d0 bf eb 2f b0 f4 2e 8d e1 3f
       -0.25525209561804046 0.5484843043391242
000540 6e 46 74 57 5b 95 b1 bf 78 31 ba bf 5a 6c 91 bf
       -0.06868525395500466 -0.01701490206919362
000550 7b c8 d6 cc b0 c1 d5 bf e5 b1 3f 90 97 93 de 3f
       -0.33994693759735356 0.4777583035163658
000560 0a 4b 21 38 1a 91 a0 bf 51 7d 38 92 b7 96 da 3f
       -0.03235704360181131 0.41544904021607915
000570 69 7b 3b 54 b6 a2 af bf 19 f9 0f a8 f5 e8 d2 3f
       -0.06178827074267341 0.295468725322182
000580 4c 4c f1 d8 b4 7e dc bf c7 44 37 f8 40 6e ed 3f
       -0.44523354707525153 0.9197087142912544
000590 8d 5d 01 51 be 9d c8 3f 1e 2d e8 a5 ad 20 98 3f
       0.19231394725168763 0.02356215787044135
0005a0 ab ab 29 b0 85 3e af 3f 66 12 26 98 5c 0b e3 bf
       0.06102388167786129 -0.5951369258551267
0005b0 47 0a bf 5f 17 c3 dc bf bf 43 44 57 0e c0 d6 bf
       -0.4494074282667139 -0.3554721691335167
0005c0 32 98 6a 0b 91 bc 81 bf 6d 92 27 bf 98 2c d6 bf
       -0.008660443459415832 -0.3464719645255972
0005d0 a2 7b ca 11 4f 6c ec 3f 79 66 af 6b 3e 40 db bf
       0.8882212970237229 -0.4257961322415223
0005e0 06 b1 89 1f 5b ad a9 bf b8 57 30 b5 29 31 d6 bf
       -0.05015072593673335 -0.3467506665632487
0005f0 0d 63 96 27 94 12 a7 3f 41 3b b3 c7 be 58 ee 3f
       0.04506361945386148 0.9483331585305238
000600 c4 0d 88 eb 98 86 bb bf 55 c1 40 1e c6 9d af bf
       -0.1075225424793223 -0.061750594323145926
000610 7c 8c 7a d4 22 31 d3 bf bb 9a a1 12 cc 1b c0 bf
       -0.2998740267741551 -0.12584830198030325
000620 b3 1f 8c fb 9e bd b5 3f 4f a5 6b 78 0c f8 af bf
       0.08492463723462045 -0.062439336490408885
000630 d2 ae 17 f4 07 11 dc 3f c5 a2 7a 11 c7 6c d0 bf
       0.4385394939151698 -0.2566392584508715
000640 eb 10 50 06 da 08 a5 bf 68 03 0a ee e6 3e f4 3f
       -0.04108315779743229 1.2653569506075772
000650 a1 99 5a 9b b0 7f cf bf a6 a2 3d 7e 1f db d3 bf
       -0.24608428559913612 -0.31024920776557463
000660 07 59 90 d4 35 b5 bc 3f a6 7b 26 c9 b8 69 b0 3f
       0.11214004935786558 0.06411318694016063
000670 82 a8 6d bd f5 72 ad bf 31 c5 21 9a e7 79 d4 3f
       -0.0575176995979101 0.3199404721445545
000680 e9 6e e5 c2 4b ca 83 3f 9d 2b 1a e8 4f 99 b2 bf
       0.009663192639599543 -0.07265185753401089
000690 66 0d 35 c2 3d d3 a4 3f 3b ca 90 7c c1 3e a5 bf
       0.040674142796457244 -0.041494413810501084
0006a0 7a 51 db 94 f4 98 b5 3f 9a 49 e2 6e 83 3b d5 3f
       0.08436516412922926 0.33175741032132466
0006b0 ce 95 ab a6 1f 3f b6 3f 9d 2a 90 1a 31 6a a2 bf
       0.08690069026086819 -0.03596642922646718
0006c0 71 07 89 35 9a 25 de 3f 7d 07 2d 3d 68 8d b6 3f
       0.47104506710103694 0.08809520238449227
0006d0 ff 99 fa c2 38 70 cf 3f 2b d4 d5 4c 28 3f 89 bf
       0.24561223526434614 -0.012327494473291697
0006e0 93 6e 76 c5 64 c7 88 3f 4a 73 e1 71 52 6b ba bf
       0.012099063182908132 -0.10320010452546771
0006f0 7b 25 97 6e 15 dc bd bf d6 69 2b f3 d9 6b ba bf
       -0.11663946104012794 -0.10320818125493444
000700 27 8f 86 b0 a6 74 d1 bf a9 7d 5c 30 c3 10 b8 bf
       -0.27274482001142747 -0.09400577479072204
000710 3e 49 54 59 22 e7 ae 3f 5f c8 ad 5f db 2a b8 3f
       0.060357163814972456 0.0944039448347964
000720 82 46 61 d6 59 2a b7 3f da c4 ac 32 3b 1d d8 bf
       0.09048997386823923 -0.3767841334220755
000730 01 14 35 4b e8 ff 71 3f f3 37 e2 72 28 52 b1 3f
       0.004394442937443622 0.06765988163735397
000740 5e f1 3a 38 2e 69 b1 3f f2 42 45 92 b8 e1 d1 3f
       0.06801117775734641 0.27940191539987247
000750 81 30 52 0c 99 93 ab bf 04 55 e3 9f 35 e0 c0 3f
       -0.05386045718577837 0.13184233004600554
000760 4a 63 a5 07 9f 4a b9 bf 65 2c 34 03 0c 53 ea 3f
       -0.09879487930937816 0.8226375639509454
000770 5d d2 88 7f fc 12 b6 bf 31 fc 68 3a 68 b5 86 bf
       -0.08622720826753878 -0.011088194162878736
000780 e1 2f 78 a0 0d 47 72 bf d0 5e b7 7e cc b7 d7 bf
       -0.004462292890377002 -0.3705931889976286
000790 78 6e 59 46 1e e1 e2 bf 9f a9 48 f4 54 7f 8e 3f
       -0.5899802564631065 0.01489130373473274
0007a0 04 82 c9 7f 34 9e 78 3f bc 8d cf 84 fb 6f d9 bf
       0.006010251116635338 -0.3974598690967601
0007b0 8c 53 c1 f2 0b af e0 bf 3e 8d e3 1a 62 89 e5 bf
       -0.5213680020630007 -0.6730204129384345
0007c0 78 60 18 6a 26 cf ac bf 33 94 73 15 6f 6e d6 bf
       -0.056267929507328895 -0.35049035162802794
0007d0 e8 4b b8 1f da 7d d8 bf 82 22 14 f5 b0 de d9 3f
       -0.38268139932296075 0.4042169946047026
0007e0 cf 1d d6 4b 4a f2 ae bf 51 b4 01 b7 c9 d4 c1 bf
       -0.06044227767693721 -0.1393062728488155
0007f0 be 5c 83 d5 10 2b a3 3f bb 01 3d 8e dc 98 b9 bf
       0.03743794065820215 -0.09998873207678731

lstm.bias_ih_l0 f8 [256]
000000 fa 7f 57 fe 9a 8e ef 3f 65 01 6e 8d d3 0a e6 bf
       0.9861578910458768 -0.6888215791987419
000010 81 5a f8 70 13 16 f7 bf 6a c0 41 92 66 3f f2 3f
       -1.4428896344085447 1.140478679004469
000020 ad 5f 32 ff 92 7b f9 3f fa 25 8a 54 7b 3a db 3f
       1.5926694840072557 0.4254444432814065
000030 a8 db df 7c e5 5f a6 bf 7d 67 76 62 3f 4f df 3f
       -0.043700381749594286 0.48921188941459787
000040 ba 73 0a 08 b2 b3 e2 bf 4c 80 9d 47 44 09 f9 3f
       -0.5844354779288701 1.5647623822660703
000050 bf 28 6a 4b 36 83 b0 3f be 29 67 5e 17 c5 98 bf
       0.06450213757685484 -0.024189343583012272
000060 ba 61 19 31 ad a5 b5 3f 44 70 f4 de 77 e8 ae 3f
       0.08455927323064474 0.06036734196297336
000070 d1 36 70 24 d1 91 dc bf c4 a5 8c f8 a3 a9 e4 3f
       -0.4463999610751275 0.6457080702286295
000080 42 64 04 2d b2 a1 6f 3f ed ff c0 6b 94 ce de 3f
       0.0038612823483501766 0.48135862849085137
000090 38 cb a4 68 6f f2 c8 bf 46 08 69 05 92 9e c0 bf
       -0.19489853486592223 -0.12983918441938352
0000a0 ab ed 7a 1f a1 4d e4 bf 9f 97 1f 00 28 db e8 3f
       -0.6344762434813921 0.7767524721536921
0000b0 a3 79 8c 73 10 0c f1 bf 82 33 ee 0e f4 96 de 3f
       -1.0654453767416292 0.47796346147588775
0000c0 22 ce 9a 34 64 0e 83 bf 36 94 88 d6 57 c1 be 3f
       -0.009304793219917565 0.12013768184313353
0000d0 45 dc c7 fa 77 b1 e3 bf c0 04 fb 26 9a a9 e5 3f
       -0.6154136560497895 0.6769533883417793
0000e0 37 1d 6e 69 0e f1 cc bf a8 be 62 2b e2 5d d4 bf
       -0.2261064543529103 -0.318230192536229
0000f0 83 30 80 1d 91 84 ed 3f a6 e7 72 5f f9 f6 b3 bf
       0.9224324775873501 -0.0779872758893406
000100 63 5e f7 ba f2 ed 75 bf b0 41 1b 61 e2 4a d5 bf
       -0.005353878178958024 -0.3326955745988256
000110 37 a3 3b ea d1 ab b6 3f 48 3d f8 c6 ae 93 c4 3f
       0.08855926483705621 0.16075691905323652
000120 bf c4 b8 2b c5 71 d3 bf d4 24 6e 1a 5a c9 c5 bf
       -0.30381898183538775 -0.17020727434672855
000130 38 3e d5 0a ff 3e 04 40 cc a4 25 3e 66 81 df bf
       2.5307598921133625 -0.4922729117302651
000140 2c 18 4f d6 6a ed e0 3f e0 15 de b4 d7 73 c0 3f
       0.5289816079828191 0.1285352357046312
000150 39 c6 72 32 d6 9b b7 bf 05 b5 f9 37 07 34 d5 3f
       -0.09222162944458824 0.3313005491862245
000160 7f 82 91 32 6e e8 fa bf 1f f2 a4 43 20 ea e3 bf
       -1.6817457175567652 -0.622329837911426
000170 1a 5f ba 8b fb 7f 99 3f db fb 20 31 5f 71 ae 3f
       0.02490227737743487 0.05945870852200815
000180 28 7d 5f e7 63 99 e8 bf b5 cc 8e 25 57 68 df 3f
       -0.7687243956569647 0.49074343364481915
000190 0a 3b e3 85 f0 ec ed bf a3 cf ae 0b d3 be b2 3f
       -0.935173284053094 0.07322424922204944
0001a0 48 11 11 ed 58 01 d1 bf 78 bd 22 a4 d9 59 ba 3f
       -0.26570723677675234 0.10293350465030027
0001b0 59 df 72 e1 bf ab cd 3f 7e 4c 01 c4 1e 8a c6 bf
       0.23180387981642062 -0.17609009333191133
0001c0 07 68 8e de 24 62 f1 bf 7e 41 a3 13 ef 28 f0 3f
       -1.0864609426121221 1.0099936263178217
0001d0 4a 45 04 d9 78 6a c9 bf 5b 52 c3 1b 9a 81 d2 bf
       -0.19856176945226373 -0.28916027747371736
0001e0 f6 a1 b3 7e 4b 1e b6 bf f2 2d 42 ff d9 7c bd 3f
       -0.08639976352026921 0.11518633348367027
0001f0 d8 ed b3 4f e1 0a 60 3f 33 f9 90 85 5f 55 d1 bf
       0.0019583130466551517 -0.27083576243957735
000200 1e 4a 94 da 8e 5d db bf ee ed 13 42 42 22 b0 3f
       -0.4275853285372778 0.06302274811962835
000210 c3 a7 4b 20 a1 2f ba bf 3a 10 ab 5e 08 26 f2 3f
       -0.10228926695313505 1.1342853258111192
000220 48 29 80 ed a7 02 c9 bf 83 2c 2d b6 cf 35 c4 3f
       -0.19539355370245404 0.1578921927960871
000230 ca 58 22 6e ca a0 b5 bf 71 20 0f 82 40 99 d5 3f
       -0.08448472203085369 0.3374787588222779
000240 9c ac 87 13 76 f2 b3 bf 5f ed 71 52 d7 b9 d6 3f
       -0.07791841484838574 0.3550928406836728
000250 c1 f5 22 f4 eb 27 a7 3f 87 e0 1d 96 f4 b4 a6 bf
       0.04522645335371634 -0.044349330258172386
000260 0e 7b 9a 97 7e 12 b4 3f 76 54 60 b8 4c 22 c2 3f
       0.07840720368629325 0.14167174341915584
000270 01 8a 60 b0 bd 77 cc bf 5a 17 7f 2b d2 57 d0 3f
       -0.22240420448459022 0.2553601670045872
000280 af 2b fe 9e 83 2e b7 3f a5 18 23 d6 21 0a ce 3f
       0.09055349952374912 0.2346842094031604
000290 06 96 88 e5 bc 40 bc bf 80 13 63 f1 0b d6 73 3f
       -0.11036282161565944 0.004842802669547619
0002a0 98 0b ff b1 9b d7 89 3f 87 0f 94 58 35 79 c7 bf
       0.012618271226420494 -0.18338648629298523
0002b0 d2 bf aa 1c 9f 56 f0 3f 41 ba 39 7d cd d2 d0 3f
       1.0211478347591663 0.26286637524654927
0002c0 2f d5 d2 ee 36 19 be 3f 22 e2 1e 35 26 e1 a1 3f
       0.11757224398282483 0.03492087744183815
0002d0 06 88 05 e7 5d 00 eb 3f b1 a6 28 94 17 b9 b7 bf
       0.8437947761669882 -0.09266803137929959
0002e0 64 ce d4 f7 dd d3 9a bf 84 e4 d4 55 04 8e 8f bf
       -0.026198833705349492 -0.015407594556210442
0002f0 6f 26 7f 60 35 da e0 3f 99 1d 85 44 d6 0c b4 bf
       0.5266367802334581 -0.07832087681628365
000300 86 a9 dd e5 50 f5 cb bf 1d 0c 67 bd ae d8 c4 3f
       -0.21842395042342505 0.16286262748880712
000310 60 7f 2a df 9c b0 b8 bf 75 e9 bf b0 4e a0 4b bf
       -0.0964448971594698 -0.0008430847387892864
000320 b5 e8 98 7d 12 08 d6 bf c3 78 8f 34 3c ec 03 40
       -0.3442426897560254 2.4903492075237366
000330 eb 74 fd 6a 8a d3 f4 3f ab dc a3 5b 36 8a b1 3f
       1.3016456774997163 0.06851520287806305
000340 f9 be 5c 87 71 7f c0 3f d4 1c df c8 6c 0e b5 bf
       0.128889266104572 -0.08225135711755921
000350 bb 05 c8 36 73 99 c5 3f 55 18 bd fe 4b 2b e9 3f
       0.16874542403097145 0.7865352607120807
000360 b4 88 04 96 e6 30 e5 3f 71 29 10 8d 3a c4 94 bf
       0.6622193269761483 -0.020279803142366718
000370 81 92 f3 97 32 4c b7 bf 0b 71 ea e1 64 ff e4 3f
       -0.09100643357994366 0.6561760342042658
000380 74 f9 8e cd 9e e6 b0 bf 4e 11 ac e6 63 e0 f4 3f
       -0.06601898687856594 1.304782773078006
000390 4e b1 39 05 4d 3f 0b 40 fd ee 75 6e 6f b7 b4 3f
       3.405908623526705 0.08092400023263831
0003a0 65 74 47 43 d3 16 e3 3f fd f7 9d 57 81 aa b8 bf
       0.596536284832507 -0.09635170353973872
0003b0 60 d6 7c bf 6b b6 c2 3f 05 84 45 8e 94 b9 94 bf
       0.14619204378111572 -0.020239182647291205
0003c0 be 03 d8 8d 10 30 d3 bf 9d be 6d 11 10 12 a8 bf
       -0.29980863429960525 -0.04701280796768723
0003d0 5c 67 ea f0 c8 5e d5 3f cf 57 42 4f 9b 04 92 3f
       0.3339102127734941 0.01759569808253741
0003e0 45 b8 a8 38 40 05 96 3f a8 e1 4f c3 6d c5 c7 bf
       0.021504405458635984 -0.1857125476524406
0003f0 ee 72 c0 b4 3e b3 cd bf 73 2f 0f 86 54 be b9 bf
       -0.23203262162942145 -0.10056045792515338
000400 bd 00 18 2e 51 81 da bf 2f 43 5b b5 aa c3 e3 bf
       -0.41414288998931764 -0.6176351110571882
000410 24 58 c5 81 34 b6 f0 3f 03 e6 e3 61 0c ac e4 3f
       1.0444836682486391 0.6460019981306576
000420 2f 80 e5 3e 0a 4b 8e bf b5 ad fd 79 08 50 c2 bf
       -0.014791564983795606 -0.14306741673077075
000430 90 a4 8a 73 84 fc ad 3f 28 b2 82 b9 8c 1f a7 3f
       0.05856717977923964 0.04516258015187119
000440 8c d4 0f a2 5a 4b ca 3f 0f 49 15 02 d5 9d f1 bf
       0.2054246226613582 -1.1010332185147182
000450 ec d0 f9 61 3b 3d e0 bf d1 e9 8d 62 8b ff eb 3f
       -0.5074746049490648 0.8749443936242703
000460 3e d1 09 fe 24 69 d6 bf be b6 41 0a 4f 72 81 bf
       -0.35016751106674693 -0.008518807888516885
000470 40 43 18 08 78 09 bf 3f 1f a5 2b cb 3a f3 b3 bf
       0.12123823354364749 -0.07793014011590003
000480 10 82 22 13 a6 d6 ef bf b6 f3 eb 86 94 7f d1 3f
       -0.9949522374845987 0.2734118764490704
000490 f5 82 6a 3f 1a a8 a2 3f 61 0d ea 75 22 76 c4 3f
       0.0364387705242332 0.15985518224270392
0004a0 e3 6e 7d 49 20 19 b8 bf d9 8c e5 99 b7 84 ba 3f
       -0.09413339418591309 0.10358760363810705
0004b0 b5 df d7 3f bd 56 b6 3f 6d 50 b9 38 2b 97 b2 3f
       0.08726103600190423 0.07261915335522114
0004c0 52 da 9f ce ef 7b ad 3f 33 87 75 69 90 97 a7 3f
       0.05758618733664335 0.04607821738569697
0004d0 32 3e 84 b8 8d d5 98 bf 43 4c c6 dc 96 fc ee 3f
       -0.02425214232158463 0.9683336555484704
0004e0 b6 34 39 6f af c4 83 3f 8c 7a 60 ef 61 82 bb 3f
       0.00965249117066445 0.10745822996293891
0004f0 e8 61 85 b0 45 43 ab 3f d5 40 a3 c7 67 11 c6 3f
       0.05324762134359046 0.17240617034850084
000500 bb 06 fb 03 f1 63 de 3f 77 fe 2b 45 e2 e8 b0 bf
       0.4748499430535095 -0.06605352581754596
000510 5b e5 71 1b cc 4a d3 bf c4 f2 02 04 3d 52 b3 bf
       -0.3014402645126972 -0.07547360752046034
000520 98 5a fd 68 bd 9b 86 bf f8 ff f1 8a 41 fc b8 3f
       -0.011039237753420125 0.09759912149638683
000530 3f 83 1d 58 b1 55 c1 bf 7a b0 b2 08 c4 5d b6 bf
       -0.13542763521675202 -0.08736825191835065
000540 f4 32 94 24 91 a8 c7 3f fa 94 33 81 fe 2d bb 3f
       0.18483175550536368 0.10617056516965198
000550 96 ff 43 12 1a 0f c6 3f e2 4d 85 9a f3 f2 f2 bf
       0.17233587161899483 -1.1843143497434245
000560 72 81 8d 72 50 90 da bf 38 bf 10 4c e0 6a e0 bf
       -0.41505824267189617 -0.5130464063313189
000570 4d 7a f8 15 ad 77 b8 bf b3 6c f0 98 b9 af c1 3f
       -0.09557611261741635 0.13817520110828738
000580 df 5e 7e 14 93 5d d9 3f b8 33 d4 1e 53 71 b8 3f
       0.39633633614856295 0.09547919752749479
000590 62 17 93 8b 9c 84 f3 3f 95 20 44 23 81 74 a4 bf
       1.2198758556491716 -0.039951358370729974
0005a0 e7 f8 06 98 03 d7 ed 3f eb 3b 0c 70 50 be eb 3f
       0.9324968308717673 0.8669817150529274
0005b0 df 22 91 12 90 1f ce bf 50 56 3f 9c 2e 90 e3 3f
       -0.23533821970547472 0.6113503505427591
0005c0 4c 3d d6 16 f3 40 c4 bf b2 43 47 86 eb cd d3 bf
       -0.15823210349160843 -0.30944336045382237
0005d0 77 8c 80 5d 29 36 97 bf 53 42 0b 7f 95 d9 f4 3f
       -0.02266754754249375 1.3031210863738536
0005e0 62 1f 20 a9 e8 23 a5 bf 12 3a f7 4c 21 4a bb bf
       -0.041289587636184746 -0.106599885263883
0005f0 5e 96 9a aa 21 1d 97 bf 38 4c 40 83 9e 7c d6 3f
       -0.022572065389473976 0.3513561517476691
000600 36 2b 91 28 94 2c ea 3f 3c 34 a4 c7 a5 2e 8a 3f
       0.817941741211462 0.012784285693237966
000610 92 ce cb 4f b0 52 f8 3f 30 ab 90 2f 11 48 d8 bf
       1.520187675193402 -0.3793986286643074
000620 60 2d cd 26 54 91 b5 3f 21 91 4c c8 b8 0f c4 3f
       0.08424879023839571 0.1567297914526842
000630 31 86 2b 92 ef 45 bb bf 63 00 b8 5b fb 3d f1 3f
       -0.10653588598827281 1.0776322920574095
000640 bc 7d b6 6d 18 58 c9 3f ad af cb ab 36 27 d5 3f
       0.198000958986979 0.33051840569418794
000650 84 12 8f cc 10 87 d6 3f 4a 50 c6 74 06 c7 a4 3f
       0.35199375130131494 0.040580941920013006
000660 2d d2 88 ab 9f e5 df 3f 63 b1 66 fc d2 d8 d1 3f
       0.4983901190892393 0.2788588967184948
000670 00 68 cd ab 80 21 e0 3f 1f 8b a6 08 33 cb cc 3f
       0.5040896754755977 0.22495115206137314
000680 2b 4c b1 de 8b 67 dc 3f 65 03 68 58 8b 6d db 3f
       0.44381996867486134 0.4285610545485297
000690 e2 22 60 52 1e 8a de bf 65 5c cc a7 7f 4d d9 bf
       -0.47718008083806585 -0.39535514246512654
0006a0 8d a9 cd 5b 1b d9 cb bf 79 4e 88 8a b1 4b c1 bf
       -0.21756307585321757 -0.13512248291282328
0006b0 fa a8 96 5d 2e b9 f4 3f fa 5d 0b c8 03 ff ee 3f
       1.295210233287945 0.968629732810711
0006c0 b7 56 2f 1d 9d 15 d9 bf c6 cf 2c 9d bd bb 97 3f
       -0.3919441971787409 0.023177111356929257
0006d0 7d f5 26 80 46 6f a6 bf 01 42 d8 35 a9 11 af bf
       -0.04381771387441356 -0.0606816175678695
0006e0 72 4e aa e8 72 c5 b3 bf 33 e6 7b 7e cc 22 95 bf
       -0.07723158054641902 -0.02064055940625149
0006f0 b4 eb fc 1a 47 ba ee bf ae 13 1f a0 d6 23 86 3f
       -0.9602389838322467 0.010810543786542084
000700 cf 89 49 1b f8 0c d9 bf 4c 05 5c 7d 2c 6d bd 3f
       -0.39141657509585753 0.1149471097997054
000710 34 61 96 bf d0 30 8f 3f 81 8d 91 39 7b 79 b9 bf
       0.01522982678106697 -0.09950990825159602
000720 22 72 de 7d 82 9a bb bf 75 52 e7 c1 f9 d1 ef bf
       -0.10782638142558956 -0.9943817889384962
000730 83 58 b7 d3 75 36 bb bf d7 4d 15 01 be f2 c5 bf
       -0.10629974764683152 -0.1714704041756778
000740 76 0e cb 26 ed 9f 58 bf 2f ac 3a 0a 1a 40 ea bf
       -0.0015029731686561332 -0.8203249168194641
000750 c2 88 67 22 4c 52 bb bf b4 23 93 c2 6c f8 76 3f
       -0.10672450866653363 0.0056080101432564484
000760 16 c5 54 8b 43 dd e7 3f 3c b9 99 a4 0f 89 d4 bf
       0.7457597466765573 -0.32086554598108186
000770 e5 36 0c 7b 6a 92 d3 3f c8 81 9a 17 cd 38 df 3f
       0.3058115197789973 0.4878418665412281
000780 a8 61 12 67 e7 7e e2 3f 2a 38 39 c7 1e 50 e3 3f
       0.5779912007447381 0.6035303011974567
000790 5e 8d 69 a8 94 d4 13 40 6b f5 b4 4e 7c 8c c9 bf
       4.957598334734341 -0.1995997795401466
0007a0 ab 04 bc f5 f2 8f e9 bf d9 f1 d3 4a 7f 9f df 3f
       -0.7988219069958594 0.4941099386922168
0007b0 08 ce a9 2f 81 e9 b7 bf 0e 56 69 93 fe 78 e7 3f
       -0.09340674794821535 0.7335198287134419
0007c0 37 35 5b 63 83 68 c9 bf 4f 4f a4 43 0e 60 c7 3f
       -0.19850199080830475 0.18261888792823774
0007d0 96 f1 68 3f f3 a8 ed 3f 0f e9 d6 5b 1f e7 e1 3f
       0.9268738020396536 0.5594631952037917
0007e0 e7 9a 71 a0 dc 10 d8 3f 8f f6 47 1e 2b 9d 87 3f
       0.3760291640123072 0.011530243741613403
0007f0 ee 9f 34 de 01 95 42 bf 71 f0 44 71 8d 59 93 3f
       -0.0005670794602439225 0.018896303213509606
