model_lstmBlocktest_target_franka.pth (torch, 733091 bytes, 10 tensors)

lstm.weight_ih_l0 f8 [256, 112]
0	0x3fac952c637c0753	0.05582560266885985
1	0x3fc554c508d6af3b	0.16664946490834062
2	0x3fa4ff451834b7c7	0.04101005478365454
3	0xbf67c667f8c9b13d	-0.002902224607444519
4	0x3fcceed9479f0eeb	0.22603908536085923
5	0x3fc74dd0d842ae75	0.1820622497519825
6	0x3fa4eddb2320188b	0.04087719730164093
7	0xbf9b000586c10cc3	-0.026367269849526986
8	0x3fb2cd4a23929fc9	0.0734449707839523
9	0x3fc51d63764fe696	0.164959366578661
10	0x3fa491db85ab519d	0.04017530447677873
11	0xbf956eb5170046cf	-0.020930127648233928
12	0x3fac3edaaebcd5f1	0.055167039709356554
13	0x3fc0f5d294af2d6e	0.13250190982794713
14	0x3fa5a26dcef8c399	0.04225485946188385
15	0x3fa2cbdbedf63844	0.036711571500845724
16	0x3f74291838c37401	0.004922003379957297
17	0x3fc5ac93a261e32f	0.16932912281824872
18	0xbfa6c5cc0fb7ebbc	-0.04447782222629068
19	0xbfa7d0f6d4bf9864	-0.046516145200983045
20	0x3fcd5aa68ddc14e7	0.22932893683188313
21	0x3fc5d96213e1dec3	0.17069650622192087
22	0xbfa5bdd5e02aab9b	-0.04246395455751114
23	0xbfa33ea6d2c8a541	-0.03758736918491446
24	0x3fbd5d1509689282	0.11470157127093653
25	0x3fc38309eed918e9	0.15243648684026503
26	0x3fa219bab2c75c38	0.03535254890783118
27	0x3fa30d1056820ccf	0.03720904403692204
28	0x3fbba9f31b74113b	0.1080619756722329
29	0x3fb769067884cf18	0.09144630853989744
30	0xbfa5124d638de825	-0.04115526047003496
31	0x3f9eee597f06ce1d	0.030206106546485246
32	0x3fa6356ec01719d4	0.043376408527865756
33	0x3fbbd7bb184eb164	0.10876054137651675
34	0x3fa543edaebec19f	0.04153387792701157
35	0x3fa14e742ccac743	0.03380168005732156
36	0x3fc666728cd0cba2	0.1750014484001357
37	0x3fc1c6ae20e62758	0.13887573820494015
38	0x3fa54ba37ceb0638	0.041592701910769525
39	0x3f99eee63788235b	0.025325390948668907
40	0x3fcb453a301ac56e	0.21305014942985728
41	0x3fba711ccf5b0229	0.10328846037283114
42	0xbfa514bbf3387f9c	-0.041173814239527234
43	0x3f90cd0c83898adc	0.016407199409864556
44	0x3fc1172234ca4359	0.13351848199502106
45	0x3fc20b559d7cf525	0.14097089948510547
46	0x3fa38c2d43e29003	0.038178839241737726
47	0xbfa15d0982155361	-0.03391294205599738
48	0x3fc85648c2b69498	0.1901331854579993
49	0x3fb93f1f28ab78b4	0.0986194109241037
50	0xbfa4e5394b3e7301	-0.04081133883958011
51	0x3fa5032c8612c318	0.04103984009396394
52	0x3fafb4eb20fa951c	0.061927173400628116
53	0x3fbbfb9464e6533b	0.1093075510346581
54	0x3fa44b65fd59ffa0	0.039637744118407925
55	0x3f4e979c1863abcf	0.0009336006339969396
56	0x3fc3a9e66bbfea02	0.15362243901456912
57	0x3fc14377ce01e726	0.13487145956951813
58	0x3fa3bd97d727e974	0.03855585576453083
59	0xbf97fe77a70a0a95	-0.023431653566613326
60	0x3fc81c2781053434	0.18835920142956442
61	0x3fc0c2bf040ecf1a	0.13094318102013675
62	0x3fa67ba0733e7eb7	0.04391194731510722
63	0xbf834a6cfe310120	-0.009419299609476683
64	0x3fce27cebdf7a59e	0.23558983112097293
65	0x3fbe7866c3df629f	0.1190246799664103
66	0x3fa510011120145c	0.04113772710847094
67	0xbf9d68fb77835f1e	-0.028720788163666737
68	0x3fcc1b64fa522304	0.21958601210305784
69	0x3fbd38cd4872833f	0.11414797800763397
70	0x3fa535151ca86391	0.04142061209512982
71	0xbfa07da7712cc8b6	-0.03220866447954178
72	0x3fc9ef44c70490da	0.20261440007846582
73	0x3fb06103490babe8	0.06398029836024899
74	0x3fa434235d1f5e37	0.039460282437798026
75	0x3fa561354c174d2d	0.04175726465077854
76	0x3fc61f9989ad233e	0.1728393480537082
77	0x3fa58cc3c004ad34	0.04208957404110905
78	0x3fa3dcf9ae1bfba5	0.03879528284414072
79	0xbfa758967f76d532	-0.045597746905892925
80	0x3fc7483a956a3689	0.18189174934052613
81	0x3fa1c6af930a6ac3	0.034718977641394776
82	0x3fa35871f9126525	0.037784158376960066
83	0xbfa47d22e0885222	-0.04001721373439106
84	0x3fc500e490faf465	0.16408974722972683
85	0x3fa87b384cc1171a	0.047815093392769195
86	0x3fa4d0437ae8d728	0.04065142512665282
87	0xbfa2b7826430a163	-0.036556315164775886
88	0x3fc4ed9d7aad36c0	0.1635014389998357
89	0x3fa99c4ea067d095	0.050020653801682226
90	0xbfa68525520bcbee	-0.04398457171000546
91	0x3fa01776e22192fe	0.031429019073391004
92	0x3fc1875d1014fd9d	0.13694346699956564
93	0xbf83311d6fa0e3b0	-0.009371023148661312
94	0x3fa493154bf120fe	0.040184655685665746
95	0x3f4309efed381ef1	0.000581018592527875
96	0xbf96873f1a1334ca	-0.022000299421780757
97	0xbf789fa2eb7054ac	-0.006011616139422287
98	0x3fa46d60a409a35e	0.03989698412335117
99	0x3f9e5b0764fc8fbe	0.029644122637492158
100	0x3f8238589b0c2bbe	0.008896534187007418
101	0xbf8c9c54c3067671	-0.01397005291147055
102	0x3fa6c45a4d3ad33f	0.04446680252787027
103	0xbfa638542796558c	-0.04339850409739218
104	0x3fc1144c3f13c84c	0.13343194084115095
105	0xbf9f79dd57cef0ef	-0.030738314136883934
106	0xbfa4a5f86d6469ab	-0.04032875380854092
107	0x3fa35e05a42e5f1f	0.037826706210749565
108	0x3fc3e478d63669f0	0.15540991267773974
109	0xbfb2b3220ad5ef65	-0.07304585232298917
110	0xbfa59b0e38a65d47	-0.042198604979768954
111	0x3f91686f98c67bcd	0.01699995393721192
112	0x3fc52b3ee9cba448	0.16538225570482923
113	0xbfbcfec5f6dc349a	-0.1132625320135098
114	0x3fa4c050bfb67ec8	0.04052975025410671
115	0xbf94dab7ea68639b	-0.020365594560732708
116	0x3fd3fc9d88a8e735	0.3122934183662552
117	0xbfbd780b7bc2ccad	-0.11511298915393083
118	0x3fa6d9fdea83e49f	0.04463189590200866
119	0xbf9700adca7c086b	-0.022463527187035853
120	0x3fd416cb3fe5af3e	0.3138912319179673
121	0xbfbf4d6e01b59707	-0.12227523366672353
122	0xbfa66c189e02a194	-0.04379345825992967
123	0xbf957264cf2d5233	-0.020944190163691267
124	0xbfc337eb57662f30	-0.15014402167832364
125	0xbfbf8644ed65b42a	-0.12314253612358131
126	0x3fa4aed111dfb7bb	0.04039624541461203
127	0x3f98ce6a0bea0df1	0.02422490785330739
128	0xbfc5266808163182	-0.16523456950052312
129	0xbfbfbf2c7f6c4792	-0.12401083098327906
130	0x3fa3b5827c32cabb	0.038494184170664046
131	0xbfa32307946dca04	-0.03737662970424441
132	0x3fd724a5ccfbd645	0.3616117955965346
133	0xbfbe40b93e5151e1	-0.11817510386874332
134	0xbf9e11df80d65822	-0.029365055311778694
135	0x3f8d9928ec60944d	0.014452285493527972
136	0x3fd371acb532b617	0.30381314940572807
137	0xbfbf3db7ee0ebb77	-0.12203549920989852
138	0xbfa5837b172a28d4	-0.04201874406597175
139	0xbfa0f4664abfb82d	-0.033114620804426266
140	0xbfbe92151de6e1c3	-0.1194165418627398
141	0xbfa53df406ab8f13	-0.041488290609576726
142	0xbfa3bcad992b5843	-0.03854887480490323
143	0xbf78af9fddbae3fd	-0.006026863553125314
144	0xbfa0f3ea4e93a83f	-0.0331109257620743
145	0xbfb11b5255836aa7	-0.0668231447956865
146	0xbfa37d27f7f3ec67	-0.0380642404724874
147	0x3f9acd5acbd38d36	0.026173990908217003
148	0xbfa035aac1b49cc8	-0.03165944685525229
149	0xbfa597afa22516a1	-0.04217289785678458
150	0xbf7da5e7798bf913	-0.007238296698004259
151	0x3fa905ea78a358e9	0.048873259760215344
152	0xbf941a5b927ecbf3	-0.01963179666172361
153	0xbfad142c0f1e14bc	-0.05679452595271914
154	0x3fa6da7d8686ad62	0.04463569895900822
155	0x3fa991cab78ab434	0.0499404286432327
156	0x3fa30604c35f206a	0.037155293320723384
157	0xbfb34970977a866b	-0.07533935259064044
158	0xbfa67402ecb12362	-0.04385384692483886
159	0x3fac728da077290d	0.05556147178465851
160	0xbf6a86fe69f909ac	-0.0032381981871207523
161	0xbfb95c66354a178d	-0.09906615067492748
162	0xbfa5be8cb75a0561	-0.04246940363101249
163	0x3fb1e280bd962d65	0.06986240986423338
164	0xbf9414fc8a2f7002	-0.0196113070813766
165	0xbfb8f97ed09ef510	-0.09755699723514888
166	0xbfa63ed6e3fdbbef	-0.04344817669959144
167	0x3f9604fff2674fcb	0.02150344769491123
168	0x3f94caaade660a20	0.020304364990361035
169	0xbfbb821f6078ada3	-0.10745426278361107
170	0x3fa636faa29b08ec	0.04338820681506825
171	0xbf5ac2df88f1c5f3	-0.0016333754499807645
172	0xbfa63ca05cda0df8	-0.043431292852826375
173	0xbfb4245eefa42b7f	-0.07867997503869438
174	0xbfa524b9f4bbde2a	-0.04129582512353765
175	0x3f8ae6c6dd947d42	0.013135484349332874
176	0xbfb321ec16e767eb	-0.07473636206796612
177	0xbfb2286e5872bcef	-0.07092942866687556
178	0xbfa6b2a814a24d16	-0.04433179141883607
179	0x3f8829d5821ce4b6	0.011798542054395216
180	0x3fd86c349a098f52	0.3816043380995683
181	0xbfb02dbff4251900	-0.06319808683938177
182	0x3fa4c0a48dfe653c	0.040532247861117615
183	0xbf9d530ea681f5dd	-0.028637150681324875
184	0x3fd79f1063aee5a9	0.3690834973782225
185	0xbfb6642728503c14	-0.087465712873595
186	0x3fa4d20d12eec8ff	0.04066506248581624
187	0xbfa6f88c41188b20	-0.04486501974704127
188	0x3fda0f8f51555d87	0.40719969694824737
189	0xbfb569252ef64c0c	-0.08363563915763467
190	0x3fa4c5bdd2c2cb7f	0.040571147897387576
191	0xbfa755f6e65f02c6	-0.04557773172519357
192	0x3fd3f0bf3e1d0bfc	0.3115690332962797
193	0xbfb071ba6feac1d1	-0.0642353556857025
194	0x3fa5c9da5ed7c328	0.04255564124821937
195	0xbfa915b1458ee06b	-0.04899362539384885
196	0x3fd20dc3e580e9e0	0.28209016239602924
197	0xbfbada5c1247b52d	-0.10489440389911371
198	0xbfa2b6573c2f4a53	-0.03654739961315969
199	0xbf90c67eea8c7af6	-0.016382201257438354
200	0x3fd1d594d0bca7ad	0.2786609686323754
201	0xbfb0d2ec66d0df6a	-0.06571843633798627
202	0x3f9d07874ae71412	0.028349031397528597
203	0xbf89c80aaf3c90ea	-0.012588580582424364
204	0x3fcea74b98e271e5	0.23948044743600785
205	0xbfab69b179d2ebf7	-0.053540750619013915
206	0xbfa5bda925f02ea9	-0.04246262157547893
207	0xbfa7d48ea63f09eb	-0.04654355792401418
208	0x3fccd989b22d7092	0.22538872909615698
209	0xbfaaddd3c927eddc	-0.05247365789906741
210	0x3fa56ef9151bc76e	0.04186228163406623
211	0xbfa6d072991d5432	-0.04455907935213367
212	0x3fcf841f1b3d6f85	0.24621952848508158
213	0xbf9586b844df54e7	-0.021021727756154098
214	0xbfa28f2de87c34e4	-0.036248621587313484
215	0xbf94b3a8114a090d	-0.020216585211991368
216	0x3fd13de500429698	0.2694027426281109
217	0xbfa0f8fb9cab0c2f	-0.033149588465242956
218	0x3fa4e9e7218758ab	0.040847037165506826
219	0xbfc0d5f7595940d0	-0.1315297304413492
220	0x3fd90b8e7d8257c6	0.39133035904648883
221	0xbfb5e1c1ce4e0adb	-0.0854760292695959
222	0x3fa4d9afc7319370	0.04072331720889266
223	0xbfc0a9f072e45191	-0.1301861344333131
224	0x3fbe73bc444bdec6	0.1189534823168926
225	0xbfb5e7e45b74a81c	-0.08556964142613349
226	0xbfa13b9cc8bf6d2f	-0.03365793180975129
227	0xbfa4bb66b7b8ef0a	-0.04049225800232932
228	0x3fd2dee160a80287	0.29485353888598137
229	0xbfb67963afba8139	-0.08778975525138301
230	0x3fa5423eb04c860c	0.04152103330694609
231	0xbf9c0af11d4cef91	-0.02738548985801931
232	0x3fd5a3931aef39c7	0.33810880308456287
233	0xbf99d8eba33d4046	-0.025241548384031164
234	0x3fa69394e61d687e	0.04409470852870444
235	0x3f6bcbfe1f111c88	0.0033931697185241617
236	0x3fc91c114d02e581	0.1961690546066102
237	0xbfc1a68a7bb2d46a	-0.13789492645233575
238	0x3fa431dd41183b8b	0.039442934223294555
239	0x3f57880454975e15	0.0014362375535393924
240	0x3fcc250a0ac71b66	0.21988034750230695
241	0xbfc40d735ff6f0bd	-0.15666048227092758
242	0xbfa6bf0ce2cd5e29	-0.044426348386590604
243	0x3fa5a55bba343995	0.04227720878599254
244	0x3fb47a0ca2660e0a	0.07998732533274491
245	0xbfc37bd0ca0431bc	-0.15221605171281094
246	0x3f93f63dcffb8fa1	0.019494024104360744
247	0xbfaa3b93a1bfb581	-0.051235784048780715
248	0xbf7ab0237c101c24	-0.006515635120201178
249	0xbfce52339edba92b	-0.23688359505406117
250	0xbfa293bcca9a571e	-0.03628339741878349
251	0x3fa584850013e60f	0.04202666879605143
252	0x3fc5a1a16d8bcd82	0.16899507378512274
253	0xbfc7a4410a212342	-0.18470013613321085
254	0x3fa3efc6a92aee9f	0.03893872084651417
255	0x3f931cc3c882cd4b	0.018664416421143398

lstm.weight_hh_l0 f8 [256, 64]
0	0x3fc69f296c9bcacc	0.17673223307754993
1	0x3f9e98c093611fc6	0.02987957858593384
2	0xbf899fb089d11bb0	-0.012511614995799863
3	0x3fb160d5b431d650	0.06788383149417965
4	0xbfb4a1d5fd719b17	-0.0805944198378764
5	0xbfc63f85d0606a00	-0.17381355929030917
6	0xbfb59163f478a766	-0.0842497321943064
7	0x3fa102c9989e1bee	0.03322439182289104
8	0x3fc368b10744405e	0.15163243155302814
9	0x3fa158ce153f6188	0.03388065347070596
10	0xbfad27e35f69ef22	-0.05694494762152959
11	0xbf96a46f7c2009a0	-0.022111646605489477
12	0x3f8f20b729bfeda7	0.01519911857757601
13	0xbfa5c2f2fe8f25e5	-0.04250296933566825
14	0x3f9cc0b9c24e1514	0.028078939899860947
15	0x3fb3fd5e0a426755	0.07808482885812158
16	0xbf9903b93a0cb68c	-0.024428266685552688
17	0x3fb4252ffde051c1	0.07869243572378705
18	0x3fc1ca2ac0f8e324	0.1389821474311016
19	0x3f89590f485a7134	0.012376899142787147
20	0xbf57c17b982e3f9e	-0.0014499384858232887
21	0xbfc3e9352c0272d9	-0.15555443428902185
22	0x3fc29bafb6dc1f60	0.14537617138580128
23	0xbf7ef46c5748d32a	-0.007557318884711598
24	0xbfb346dd3684fe80	-0.07530005055468258
25	0xbfaedf0615afa685	-0.06029528631900142
26	0x3fb2c82dacc23407	0.07336698024501241
27	0xbfc91c0ca817c7e0	-0.19616850097332783
28	0x3fad5aa597df82f6	0.05733220557136136
29	0x3fa25742ad1a5bee	0.035821994429333745
30	0xbf97b5caaeaf808f	-0.023154417907676857
31	0xbfadbcb085133398	-0.058080211872584886
32	0xbf969c7a267ca3ca	-0.022081287955334074
33	0x3f804644fbeaf244	0.007946528375549218
34	0x3fba7068c8620db7	0.10327772991336458
35	0xbfa028ffd8d31f09	-0.0315628006151752
36	0x3fa8fde116c4c0c7	0.048811944989553484
37	0x3fc404d6c5e22e84	0.15639767324715959
38	0xbf8564b33b92fba5	-0.010445976501044127
39	0xbfa2d9dba5bc0b33	-0.03681837461592465
40	0x3fbee85f162ec920	0.12073320666857912
41	0xbfc3c4328879f8c7	-0.154424969328778
42	0xbfb45adf82e504f8	-0.07951161332768553
43	0x3fbd1023d5b93411	0.11352752654893573
44	0x3fb91b90a5a2948d	0.09807685893845726
45	0x3fc93e5c2207ab4b	0.19721557294482248
46	0xbf4af6bbf3c94fa9	-0.0008228700385850457
47	0x3fab749ab3f49ab5	0.05362399527284848
48	0xbfb5271318bc0800	-0.0826274810206371
49	0x3fa40bcb53f16e8b	0.03915248298355064
50	0xbfc10f8d0c1d9fd3	-0.13328707782352342
51	0x3fa8463ca34b54b7	0.047410864766484755
52	0xbf915fbed8a06463	-0.016966802570184913
53	0xbfb04692ab0ef208	-0.06357685734014507
54	0x3fa5b8595aafb620	0.042422096557725775
55	0x3fb1724cb978fc0d	0.06815032508983183
56	0xbf9cbde8782c734e	-0.02806819184762626
57	0x3f84b957f59c60ee	0.010119139845798899
58	0x3fa563df61fab9d5	0.041777592382789365
59	0x3fa1b21adbd12307	0.03456195767700448
60	0x3faf635be630c04d	0.06130492386762452
61	0xbfb0bdba21e61a02	-0.06539500548942814
62	0x3fa1542010e2f707	0.033844949780798265
63	0xbfc58ec3fedf0c6c	-0.16841936058890228
64	0x3fa0dbaeff13deb1	0.032926052701382054
65	0x3fb91d738d23a7ec	0.09810564227851132
66	0x3fb15bf3f9475aaf	0.06780934177309449
67	0xbfac6690c570b08d	-0.05547001276167505
68	0xbfaee3bbbffa81a1	-0.06033121794212382
69	0x3fbc6ded9f0e54a7	0.11105237134173028
70	0xbfb65c895ea48b9d	-0.08734949646581787
71	0x3fb9d9bb8d975023	0.10097858626187466
72	0x3fc662b97aaab6e5	0.1748878334960217
73	0xbfb73820a01e2ee1	-0.09070018681648719
74	0xbfa2600ad5d4a6c9	-0.035888994791390134
75	0xbfb1a2243be8e88a	-0.0688803335441738
76	0x3fa3637bb81417ee	0.03786837217380411
77	0x3fb4f3e4c8dbb109	0.08184652236713331
78	0x3f6569a754584d53	0.0026138561395413844
79	0x3fb9b7631fa7b1e7	0.10045451662853787
80	0xbfc4a47e525e2d4b	-0.1612699415385158
81	0x3fc5ad1254e3726f	0.16934422631210874
82	0xbfa765f8ad1a90fc	-0.04569985497554005
83	0xbfa0f04953e43b82	-0.033083240023294117
84	0x3fa699e4954a7a40	0.04414285967253706
85	0x3fb8752d8e1aea62	0.09553799361575835
86	0x3fa4b2dcbfe1c08a	0.040427111075474434
87	0xbf91d3a5b135f50d	-0.017408932629668295
88	0x3f967e4aee0d2a4d	0.02196614339781382
89	0xbfb8b330608e93aa	-0.09648420674655137
90	0x3fc64772d49aada8	0.17405543690743497
91	0xbfbfcfe08dc401d3	-0.12426570378375539
92	0xbfb5ed06469f9af7	-0.08564795707898641
93	0x3fa7b263e694b69d	0.046282884499629896
94	0x3fab96d3599652f2	0.05388508289903439
95	0xbfbcde0dfd0b9a4a	-0.11276328494896251
96	0xbf90687051d9a538	-0.016023402209986076
97	0xbfa17e308088e021	-0.034165874185817076
98	0x3fa60ac77eaa6a64	0.04305098935329424
99	0xbfb6b622287bce30	-0.08871663559312348
100	0x3fb0f2bab0d118c7	0.06620375458541893
101	0xbfb9b30406af3495	-0.10038781321709885
102	0xbf7f8ef9cc7e2aa9	-0.007704711700976454
103	0x3fa10b6614950662	0.033290090572802425
104	0x3fa8b3c6f4cd2153	0.04824659097954744
105	0x3fc194140d5780f0	0.13733149196105598
106	0xbfb7d7ddb421d4ac	-0.0931376042152176
107	0x3fb046b76001b760	0.06357904523767166
108	0x3fbf6ea1139e464d	0.12278181771241599
109	0xbfba2f883c051294	-0.10228778329207905
110	0x3fada185b6fd7c17	0.057872942531268894
111	0xbf95041f5941e8b4	-0.0205235384205273
112	0xbfc6fc496fdc1c86	-0.17957418405442044
113	0x3fc67b782b06012d	0.17564298725847874
114	0xbfbbe4574e625172	-0.1089529577605555
115	0x3fa6005f32c15e1e	0.04297158712932635
116	0xbfbe9bd505105183	-0.11956530927301938
117	0xbfa4862010e37b90	-0.040085794507596195
118	0x3faaebe3d50be8bc	0.052580947643904946
119	0x3faff210c9ef9561	0.06239368882215036
120	0xbfc72bf381f7119d	-0.18102878423645744
121	0x3fa46fc5297a7a18	0.03991523867920338
122	0x3fb6acf4522316a6	0.08857657437610075
123	0xbf56c96111363db3	-0.0013907859728056026
124	0xbfafa52dcf5fd526	-0.06180709034371494
125	0xbf8913c5943b6cb1	-0.012244742952523731
126	0x3f8bf636a8586576	0.013653208744517125
127	0x3fb745391bc69155	0.09090001037708835
128	0xbfe0b9458dc17efa	-0.5226161736172508
129	0x3fe0d0886b6de183	0.5254556749560354
130	0xbfc6191a530524b0	-0.1726410775538958
131	0xbfd1823c95ceb670	-0.27357401494632594
132	0x3fe9a65d8e874dfb	0.8015582832107947
133	0x3fc3522cb8153968	0.15094527233527377
134	0xbfdb1dca1fe21797	-0.42369320977774677
135	0xbfa4aaf32b6e6456	-0.04036674409071199
136	0x3fac595eaffd8a9a	0.0553693380195643
137	0xbfd5b36e8c37a2f9	-0.33907664960001643
138	0xbfe2433cb9d79bff	-0.5707076673251094
139	0xbfa6fac553c533d8	-0.04488197944247191
140	0x3fd7447bbc2cebe0	0.3635548913622966
141	0xbfe42c735f79574c	-0.6304261078573545
142	0x3fe1a7a90596cd35	0.551716338077688
143	0x3fc6d3e1711652e9	0.17834108373485627
144	0x3fc212ca6519e594	0.14119844376163526
145	0x3fdbf4c5dc33e4da	0.4368147516648385
146	0xbfd6c9790362ae5c	-0.35604691820728873
147	0xbfcdb1fdcc67a052	-0.231994366461779
148	0xbf1f171f8f5bfc54	-0.00011860017897545708
149	0x3fa14752266b2f00	0.033747260274678226
150	0x3fba922add3cb744	0.10379283810899859
151	0xbfc76deaf90c506c	-0.18304192696143973
152	0x3fc9b42793ab7448	0.20081038198887513
153	0xbfe7298f9238e3d9	-0.7238233428862443
154	0x3f4c14892d2d9d1d	0.0008569402510660049
155	0x3fd13aa379ba6625	0.2692040146590407
156	0xbfbcb4a90168a1e8	-0.11213165554421034
157	0xbfcc232eb6bf500a	-0.2198236839600443
158	0xbfc5f09dfed87979	-0.17140555328019128
159	0xbfe19a2d48320d25	-0.5500704202717414
160	0x3fde9f923a2c1a2d	0.4784894531334512
161	0xbfc5ea7a9d32758f	-0.17121823001518208
162	0xbfe04f9f4d385c02	-0.5097195156293994
163	0xbfe0bcf5d4a64af4	-0.5230664399444707
164	0x3fea8364b6040321	0.8285392336839302
165	0xbfa9c5d7358a25c1	-0.05033752945480386
166	0xbfab2a82a0c6182a	-0.05305870258875729
167	0x3fe0ef95c86d1c68	0.5292462267469888
168	0xbfb22c5ec3733520	-0.07098953506211503
169	0xbfbf1ff7e4ac4ca0	-0.12158154805028909
170	0xbfc1bd2d4a6ea57c	-0.13858572134385472
171	0x3fd0118a0adf9aed	0.25107050954686266
172	0x3fd3a3214a0fdfa9	0.30683166725747896
173	0xbfc5c108550129a7	-0.16995338583576577
174	0x3fc55c4ae865526e	0.16687904689264904
175	0x3fe30eef800129fd	0.595573186882859
176	0x3fb33b8520a1de52	0.07512695357024171
177	0x3fc2340a943f4617	0.14221317518836038
178	0x3fe567a2a09f65a0	0.6689007889901184
179	0x3fb5efa4f38d6bda	0.08568793245414899
180	0x3fbe9d03a9f48751	0.11958334826752305
181	0xbfd7d27cfdeeb8c0	-0.3722221832093844
182	0x3fa569e43c8139fd	0.04182351339897037
183	0x3fe6094b098e295f	0.6886344133975334
184	0x3f952ad6be6cb0e6	0.02067122971782078
185	0xbfbb53f6939d96ab	-0.10674992660423281
186	0xbf2dc24e8320f824	-0.0002270432319750336
187	0xbfc496dcdf3aa1e3	-0.1608539667115699
188	0x3fc29c2a544d318e	0.14539078823362356
189	0xbfa4dbe67e036fcc	-0.0407402066063863
190	0x3fd6a137b40a6da1	0.3535899408541017
191	0x3fba0bc1b58435d2	0.10174189263872016
192	0xbfa061f4e3b48083	-0.03199734954455471
193	0x3fb987119912081c	0.09971723544188688
194	0x3fb04afbff519c61	0.0636441706025024
195	0x3fc498b4ead4b605	0.16091023889877945
196	0xbf921fd02236efea	-0.01769948204831443
197	0xbf21b7fd584a87f6	-0.00013518302525478116
198	0xbfb0b9d9f1a68364	-0.0653358664481068
199	0x3f9050233ee7fa7a	0.015930700983512548
200	0x3f9d933c8753f1ba	0.02888197494483944
201	0xbfade6b0fad95858	-0.058400660153595296
202	0xbf947d5471f831bf	-0.020009345489641946
203	0xbf9f134aa5d43737	-0.03034702908649153
204	0xbf90f62dd539481f	-0.016564098490853604
205	0x3fb071952c6e4ee7	0.06423313460100709
206	0x3fb3f86f20ad26f9	0.07800955341113171
207	0x3fb016e2e5324d71	0.0628492173730615
208	0xbfb3959ef7a7ae9d	-0.07650178476586196
209	0x3fa5036145e22043	0.04104141214435277
210	0xbf888d8736c5b002	-0.011988693579688462
211	0x3fb4a1967e1269bd	0.08059063508918647
212	0xbfb1651305a663b3	-0.06794852149904677
213	0x3fa67cc2009e1e7e	0.04392057664432246
214	0xbf8fb70ea1c19649	-0.015485872565658048
215	0xbf985a7489639906	-0.023782559285700187
216	0x3fa122e611a74dd8	0.03346938100335323
217	0xbfb43c2648ae64a8	-0.07904280924266749
218	0xbf524964d897359b	-0.0011161312889841127
219	0x3f950533fe1b7d48	0.020527660736545245
220	0x3fb195e07258e55e	0.06869318763428597
221	0x3fb1751c04533e49	0.06819319825739813
222	0xbf91f497bda05432	-0.017534609745855252
223	0x3fb538e00c7226f7	0.08289909652571824
224	0xbfb2fd4de71defd1	-0.07417761700156623
225	0xbfb4a90a37aa4dda	-0.08070434435858634
226	0xbf9a4a2170f25615	-0.025673410910334555
227	0xbf7f67737416c852	-0.007667017927291369
228	0xbf68cfd962074108	-0.003028797698995448
229	0xbfbf6a23ea6dfe56	-0.12271332238560126
230	0xbf7026f167485555	-0.003943388921944309
231	0x3fbd480797fefdf9	0.11438033543435457
232	0x3fb95ecdaaa06be9	0.0991028348511659
233	0xbf6a42d7625d01c4	-0.003205700561835752
234	0xbfc8f49ccaacfb3a	-0.1949649800899012
235	0x3f8b9bbe9882bb78	0.013480652837044124
236	0x3fb23a0dea4411f4	0.07119833917028712
237	0x3fac57fd8bc3d2c2	0.055358813582562685
238	0xbfa2c0526778f14e	-0.036623549586212265
239	0xbf91e624f29d286c	-0.01747949343488424
240	0x3fc1156eccde8a52	0.13346657756217667
241	0x3fbafa36a300a6c2	0.10538045386843023
242	0xbfab9886c9fafbb4	-0.05389805999356359
243	0xbfabc150aa9836b0	-0.05420925219014572
244	0x3fa648d13e5b0bf0	0.043524302350782196
245	0xbfa00ceb414d8e12	-0.03134856388239994
246	0x3fb1928a77e41f1a	0.06864228655842589
247	0x3f8116765a46cd63	0.008343624715826342
248	0x3f9fd16a26f14c2b	0.031072291018357994
249	0x3fb13fa83baa8ce7	0.06737758118338243
250	0xbfb753c0cf80664a	-0.09112172189670634
251	0x3fc504cae48c9da6	0.16420875701554144
252	0xbfb4bc9de7765f77	-0.08100306416451795
253	0x3fa9d8d787fc0b3b	0.05048249754874808
254	0xbfa33b1be55fb41a	-0.03756034064267784
255	0x3f84b793891df5bd	0.010115769025783256

lstm.bias_ih_l0 f8 [256]
0	0xbfb6b1c2bf00fe5d	-0.08864991343670554
1	0x3fbcf17e2616e30a	0.11305988721768415
2	0xbfe355fbd634d1e4	-0.6042460616795862
3	0xbfc7beab2e24e5da	-0.1855062461197992
4	0x3fd616383a7e0b12	0.34510617935318166
5	0xbfa9951fb600aa72	-0.04996584984504161
6	0xbfb226b7a4773204	-0.07090327992700202
7	0x3fb16f89746a1086	0.06810816852709153
8	0x3f8e9798bb11eedb	0.014937585076260465
9	0xbfb1c292deb71342	-0.06937520921117105
10	0x3fc053a4726ff745	0.12755256259691286
11	0xbfc33f8537d528e8	-0.15037598825649146
12	0xbfdab2646dac171c	-0.41713820181063155
13	0xbfc2a6d5c3ef931f	-0.14571640078715917
14	0xbfc547ee27997e41	-0.16625763829778076
15	0x3fea75f4548d2e2b	0.8268987323185163
16	0x3fe2796bb29abdc1	0.5773218620651549
17	0x3fd6db8efa61bc9d	0.3571507878431904
18	0xbfb95aa74f83e820	-0.09903951350489182
19	0xbfbd84a48bdf2c45	-0.11530521788442723
20	0x3fbf049fed1930c3	0.12116431749854244
21	0xbfb26aa79446ed4c	-0.07193992013974543
22	0x3f948af46eaf9c33	0.020061320548759375
23	0x3fc93c8af5cafb1c	0.1971601200256935
24	0xbfe27468b84c9445	-0.5767100905983474
25	0xbfb225c8c56bd356	-0.07088904208997113
26	0x3fcb7797943f3689	0.21458716143245152
27	0xbfb0e22270daf8ac	-0.06595053916223276
28	0x3fd9becc6869215c	0.4022704143176463
29	0xbf8c201970ba77c8	-0.01373309970159288
30	0xbff07595eae23434	-1.0287074256077746
31	0x3fc16a936322f8fc	0.1360649332108962
32	0xbfc5b6f472390976	-0.16964583947453676
33	0xbfd8161c6ea30f12	-0.37634955219640276
34	0x3f9beeb53dc1bc7b	0.027277786154112676
35	0x3ff07c44a4052a5f	1.0303388983762927
36	0xbfc37f1b9ecdc585	-0.15231652502147255
37	0x3fb95aa4a03add92	0.09903935348380902
38	0x3fbfc95630fa060f	0.12416590400427928
39	0x3fe72400e5e2d299	0.7231449594460911
40	0x3ff1a97773de549d	1.1038736845123716
41	0x3fb72c7b95e93fb9	0.09052250299396193
42	0x3fc2547d3a3f531e	0.14320340484723543
43	0xbfda959aa92a34d3	-0.41538111228949254
44	0x3fcd096415256352	0.22684908897897543
45	0xbfb9415dea7e260b	-0.09865366911812871
46	0xbfac20a97bcd09cf	-0.054936691629808736
47	0x3fa61c11bc919813	0.0431829016386446
48	0x3fbb5be7d2eea57b	0.10687111758911343
49	0xbfdc5d107335bd59	-0.4431801915261154
50	0xbfdc3dc7ba808a45	-0.4412707635221163
51	0x3fb5946e6077faba	0.08429612975303771
52	0x3fc34e60e7ee7f0f	0.15082942318712653
53	0xbfc3b20c9b02234a	-0.15387113159911286
54	0x3fab05fd40af9fca	0.05278006949066556
55	0x3fc976b1227360d3	0.19893469030535602
56	0xbfabd2531c03e9d7	-0.054339024705729315
57	0x3fa0f71a4cef0bfe	0.03313524426587121
58	0xbfd9081d0977843c	-0.39112020420549576
59	0x3fc3983ba19496d9	0.15308328046483302
60	0xbfae4192d077e306	-0.059094036052505
61	0x3fe5b88d4742913a	0.678778304271453
62	0x3fd8fe31041eec29	0.3905146160356617
63	0xbf93adacd9322d61	-0.019217205769149873
64	0xbfd5d8abb9d5b225	-0.34134953639912374
65	0x3fc15788303b3539	0.13548376421969424
66	0x3fae5d2b1ef58dca	0.059304568795393545
67	0x3fc6d060fd1b8e72	0.1782342182042274
68	0x3faf499e94b56373	0.061108546879672064
69	0x3fc0b86c4f4ec733	0.13062814590880975
70	0xbf71d098ea19800f	-0.00434932453353555
71	0x3fd4ac69e13f3808	0.32302329060337387
72	0x3fc9487c1bb02a99	0.19752456047020386
73	0x3fc5b94092eadd8c	0.1697159497614219
74	0xbfb23d1121dde218	-0.0712443072969865
75	0x3fc598426acd5cf2	0.16870908942176005
76	0x3fc6fb6b69978790	0.17954771667342273
77	0xbfaa737ae07515a4	-0.05166229238470102
78	0x3fcabc5e3dc15bce	0.20887353911777357
79	0x3fe189da01671c63	0.5480775859258639
80	0x3ff6b2812beb8eb4	1.418580218852111
81	0xbfb8f916b1e66d08	-0.09755079119934262
82	0x3fc62bb7315a41ba	0.17320909414094193
83	0xbfe1f339caaee085	-0.5609406431822356
84	0xbfb532028e5dcd2c	-0.08279434180967787
85	0xbf9db457b1802d4f	-0.02900826474073642
86	0xbf7f8fa6bfce19de	-0.007705355991566935
87	0x3fef9d6ab1b0e8cd	0.9879659147766461
88	0xbfc8defb65e292ac	-0.19430487131935104
89	0xbf26a2af2486e30c	-0.00017269504520613826
90	0x3fbe89bb70cd20f7	0.11928912643373112
91	0x3fe35a67ddfa9379	0.6047858558200537
92	0x3fca8b53548234b4	0.20737687708279895
93	0xbfbda87efd70dc64	-0.11585229575654094
94	0xbf689358735b30da	-0.0029999473143559165
95	0x3fae3a2a0ee326ad	0.05903750831346364
96	0x3fc59e0d447cdc71	0.1688858589566027
97	0x3fc58563df341a16	0.1681332435475304
98	0x3fa8dcc2d8ee0aee	0.04855927370137701
99	0xbfdb1d022bdcccf1	-0.42364553721854664
100	0x3fd9de18b55573e4	0.40418069561365955
101	0x3fde77e71ef559e8	0.47606828711778215
102	0xbfa832335e9c2879	-0.047258000659057005
103	0x3feb0522b254678d	0.844376896190839
104	0xbf9c7694a82fe277	-0.027796099438975177
105	0x3fbce72febd727f7	0.11290263660262655
106	0x3fbc4c3e81dd11ed	0.11053839369294112
107	0xbfab240c9cd372dc	-0.05300940908793958
108	0xbf721c2163afd099	-0.004421358516072748
109	0xbfdc972e4ae88201	-0.44672734561211774
110	0x3fc00741fe6a87a1	0.12522149012243936
111	0x3fbc5e18851e7b89	0.11081078767754894
112	0x3fec42bd2e641349	0.8831468492577211
113	0x3fe5502527756707	0.6660333414722296
114	0x3fee3eddbb8c8225	0.9451740897239388
115	0x3fee8c997c7935a3	0.9546630316851189
116	0x3fced01906bc3188	0.24072563961852844
117	0x3fba84d10fc6d6fa	0.10358912120031141
118	0x3fc12e4927d3f46a	0.13422502941822084
119	0x3fcaa004897f8521	0.20800835336471216
120	0xbfcc95f612a49178	-0.22332645330710554
121	0x3fc2da12c4035d2e	0.14728006907419328
122	0x3feb3ed7bd6c194b	0.8514212321904692
123	0x3fc96eb0ccd7ca12	0.19869050981613207
124	0x3ff0b1e449852a57	1.0434306022531439
125	0xbf91c420f42f99c1	-0.01734973421471309
126	0x3fbfe5ef8b240140	0.12460229060161954
127	0xbf95cdb77721db50	-0.021292559286361368
128	0xbfbda8b2a94c79cb	-0.11585537560720309
129	0xbf81fe995e1add3b	-0.008786390480379871
130	0xbfc27eb1897b9201	-0.14449137890836997
131	0x3fb0b9df56318d68	0.06533618788085038
132	0xbfb8c70ae3c6ec9d	-0.09678714810336193
133	0x3f6993e5e469abcf	0.0031222810824167234
134	0x3fc30a49e0e2d6ba	0.1487514827801329
135	0x3fe3b16f8092fb3e	0.6154096137250702
136	0xbfb23caeb3dc78c6	-0.07123844042914404
137	0xbfbe67361b543ed8	-0.11876238028730357
138	0x3fc24bd65833a61d	0.14293937021948092
139	0x3fc56d8ef8918336	0.16740595948342624
140	0x3fb91596cf905079	0.09798567359422518
141	0x3fae89c2612f732b	0.059644770015188385
142	0x3fb14a65706cfff1	0.06754144663591412
143	0x3febb72b01d192a9	0.8661093745727914
144	0x3fa4132562056719	0.03920857259318051
145	0xbff55e66c2b62179	-1.3355472188869426
146	0xbfc329a3a5a288bf	-0.1497082289470821
147	0x3fbcec1784ce269c	0.11297747604671787
148	0xbfbd1ee2b6b4dd69	-0.11375252686126704
149	0xbfd4dc36d87d8180	-0.32594081060053526
150	0x3fc2b9cf908483d0	0.14629549557233057
151	0xbfc61e2b6cad7b58	-0.1727957039501813
152	0xbfb706b6cd39fce3	-0.0899461985627457
153	0x3fb34898ad3dcb3a	0.0753264830544084
154	0xbfb0514ebe58dac7	-0.06374065539499006
155	0xbfc638d7df04d489	-0.1736097182235066
156	0x3fce3dbecf792893	0.23625931864291214
157	0xbfc2a260da4e33fc	-0.14558039340445805
158	0xbfc8dc9027a61e1c	-0.1942310517881517
159	0x3fae23c8b7c42fdd	0.058866760666290686
160	0x3fe14c6ffa4f184c	0.5405807389113391
161	0xbfb90c7fbf5bd512	-0.09784696981281041
162	0xbfc0b47fce946ecc	-0.13050839983849583
163	0x3fc11eb5fc5cbd63	0.1337497217404958
164	0xbfb7329bc299d144	-0.0906159734821062
165	0xbfcf10dc0114c5cf	-0.24270200779714776
166	0x3fb7caf7777223cd	0.0929407755485407
167	0xbfb55b8439a7ad3b	-0.0834276810416456
168	0x3fdea6fbfc1b7fd8	0.4789419137941855
169	0xbfc22fd199fb770e	-0.14208431261698035
170	0x3fb56127114ee528	0.0835136811500844
171	0xbfa3bb7487a51091	-0.03853954463787191
172	0xbfb7708f3c325f77	-0.0915612718548554
173	0x3fa7a11a60397a9f	0.04615099358192264
174	0x3fc31052cb187f92	0.14893565098554667
175	0xbfc77863cb72b6fc	-0.18336150583257183
176	0xbfc3c527e1fc7eda	-0.1544542172859938
177	0xbfca3993a77179bd	-0.20488210369053475
178	0x3fa0a05631f5458f	0.03247327194061277
179	0xbf7eb5762a21a673	-0.007497273998617981
180	0x3fb5656d591ca597	0.08357890534957445
181	0xbfc7deab9bf107e3	-0.1864828597481952
182	0x3fb59e87b38b8219	0.08445022710248686
183	0x3fbbfba8162edfa6	0.10930872479991524
184	0xbfc309dfc0f2502f	-0.14873883172242716
185	0xbfc394c4687c1621	-0.15297751523773775
186	0xbfe17b2603fd02af	-0.5462827756783407
187	0xbfc9129062d688a0	-0.19587902856898598
188	0x3fdc25fc0c0aa859	0.43981839347782664
189	0x3fed53b67c39250c	0.916468851684074
190	0x3f7d84de8f5e64ff	0.007206792235501468
191	0x3f4be6bd7bd12387	0.0008514809811766979
192	0xbfdf0676c8aa3545	-0.4847695312135623
193	0x3fd4140fe1096fd6	0.3137244889855969
194	0xbfc568549bca8413	-0.1672464142511961
195	0x3fdb5779039da967	0.42721391060935904
196	0x3fe090955a7157cc	0.5176493421993142
197	0x3fbc05856669ffc7	0.10945924520819893
198	0x3fd4176fbebb7c17	0.3139304506893849
199	0x3fb8c72dd2a94a94	0.09678923028085712
200	0x3fede9c60917bf9f	0.9347868135064238
201	0x3fccae46c617ae6d	0.22406849548802957
202	0x3fc3cda4b28cf837	0.15471323698324266
203	0xbfc9e46576a3b897	-0.2022826031965834
204	0x3fcd3f664d38bbec	0.22849730272852697
205	0xbf79d739601e9e6a	-0.0063087693432986956
206	0x3fe12de3042118b2	0.5368514137888012
207	0x3fa389d0357600a9	0.03816080715751131
208	0x3ff9bdde52b4305b	1.60885460191914
209	0xbf6e3bd582069d4d	-0.0036906404568132546
210	0x3fb60be534905425	0.08611900838180071
211	0x3fd3fceb7ad4f6a9	0.31231200213719973
212	0x3fd9f631d0f42be3	0.405651525551262
213	0x3fdb6aea696f6e5d	0.4284006147042641
214	0xbfdad0a45dcb2bd1	-0.41898450049910446
215	0xbfdfc9a33398655e	-0.49668197668650815
216	0xbfa10ffb216610d8	-0.03332505018900783
217	0x3fd4c316344d7051	0.3244071493879846
218	0xbfe1a2bc635fc95f	-0.5511152211095512
219	0xbfe88e7be855cb9c	-0.7673930681033769
220	0x3fdd835555ed9ec1	0.4611409510748495
221	0x3fc2f4a4001bd409	0.14809083943660564
222	0x3fe95865ca1f4e4f	0.792040724535079
223	0x3fc12313887a08f8	0.13388294376279197
224	0x3fc5f4d584c0881a	0.17153424245867727
225	0x3fb5a1239ff2812e	0.08449003844225864
226	0xbfcd402c568a7e03	-0.22852091050752685
227	0xbf97cd4d464b1967	-0.023244101920476903
228	0x3fc1ed302194ebda	0.14005090369923218
229	0x3fc320e6e3d1a147	0.14944158672302363
230	0xbfbfcd294a4c5608	-0.12422426284714316
231	0x3fd60b69a60b5451	0.344446575310319
232	0xbfc024fc3513084c	-0.12612869826813478
233	0x3fac7968337fa07a	0.05561376217502896
234	0x3fc7eb8fb99b1d3a	0.18687626421726994
235	0xbfafbb7dac3abeb1	-0.06197731711779165
236	0xbfb5d19b64cfe58b	-0.08522959910614795
237	0x3fcf23a704884fb5	0.24327552529632404
238	0x3fc933524be1f1a4	0.1968787069817043
239	0x3fc5a66c012054ec	0.16914129309649384
240	0x3fe4ce188ff50ba5	0.6501581966079938
241	0x3feebdfc5f25ea1a	0.9606916292535204
242	0x3ff09b6b5fe08f5c	1.0379441971972119
243	0x3fe480b065906d36	0.6407091125178457
244	0x3fbbdfb9e5a1a19b	0.10888254028544113
245	0xbfca47e1d8677ae6	-0.20531867090809114
246	0xbfd62c557ffba3df	-0.34645593164765204
247	0x3f9288416865a8a6	0.018097898480313866
248	0xbfcf7791e735780b	-0.24583648480887663
249	0xbfa4b1293c05537a	-0.040414131714590476
250	0x3feb698934ae9de7	0.8566328076312261
251	0x3fe1b5c1aa57c77c	0.5534370734223866
252	0xbf78795e97aeb03b	-0.005975121976842297
253	0xbf6110fea3e09bfe	-0.0020832990112640273
254	0x3fa37bd59211d87e	0.03805415542676459
255	0x3fc7184bdfec926a	0.1804289668445052

lstm.bias_hh_l0 f8 [256]
0	0xbfb7b06a27eacc0f	-0.09253562426128802
1	0x3fbf00c046542691	0.1211052104664765
2	0xbfe6ca9d5aaac5ef	-0.7122332354394397
3	0xbfc12c840ff58bde	-0.13417101649528623
4	0x3fd6191e335b70ed	0.3452830792937352
5	0xbfa9dc379d802730	-0.05050824926008912
6	0xbfaf282be2c1e769	-0.06085335867915271
7	0x3fb6950f5824b0c3	0.08821197416245057
8	0xbfb45b6e4e74b169	-0.07952012458253467
9	0x3fa3dabf5e468a95	0.03877828622650729
10	0x3fc1090cab310363	0.13308866843183428
11	0xbfc3fc8f46af94ca	-0.15614500953157623
12	0xbfdaede2b222cdbb	-0.4207693805321601
13	0xbfc1b843592d6863	-0.1384357629238507
14	0xbfc564ae600257ce	-0.16713504493662729
15	0x3fe9d590fbcf896a	0.8073201101472425
16	0x3fe0bed70597e528	0.523295889782422
17	0x3fdb05913fb35d2b	0.42221480580106413
18	0xbfb8c9ae52389f55	-0.09682740695336396
19	0xbfbb5ff7b8cf9a34	-0.1069331003378487
20	0x3fc6df34ffa96f41	0.17868673785675962
21	0xbfb6d990467b9f39	-0.08925725670598873
22	0x3fab74a2e15a1254	0.05362423897625904
23	0x3fd077025400e0a6	0.2572637386651969
24	0xbfe16f598a03daf5	-0.5448425002676617
25	0xbfa2823dd2047569	-0.036149913679973285
26	0x3fcad0bb1c98a9fd	0.20949496170335627
27	0xbfbf1c8f76bcb32f	-0.12152954720359042
28	0x3fd71c95a739d2b7	0.3611196644845153
29	0xbfb714e76623b059	-0.0901627182353776
30	0xbfef42dce57ed38e	-0.9769119722683273
31	0x3fc19225a19dc0f1	0.1372725524083829
32	0xbfc60b64acf853d6	-0.17222269483377656
33	0xbfd5ab850598af7a	-0.33859372660184983
34	0x3fa6d6034b82a9a2	0.044601538627222284
35	0x3ff010369be43994	1.0039583291541918
36	0xbfc36a57066dcce1	-0.15168273748313424
37	0x3fb963f47841901d	0.09918144164981908
38	0x3fc15091d6bc6e4e	0.13527129159125412
39	0x3fea243a8a6444d8	0.8169224455797588
40	0x3ff1901fb84335a4	1.097686500335251
41	0x3fb0857f9db6ffcf	0.06453702545604688
42	0x3fc28a76912705e6	0.14485056006928615
43	0xbfd9224c272fc2f3	-0.3927183516198475
44	0x3fcdf643e67ef668	0.23407791857418947
45	0xbfbd4558d90cd84c	-0.11433940218998478
46	0xbfbd3b5e8a6d4317	-0.11418715362129848
47	0x3fa5f6ec86c659cb	0.0428995050926236
48	0x3fbb2f1ba6c6204c	0.10618756124142797
49	0xbfe29b60b2ecab91	-0.5814670080775263
50	0xbfd88836376adeb1	-0.3833137074648035
51	0x3fa81b04f1b8696e	0.047081141001586654
52	0x3fc58ff0aa17d884	0.16845520310716122
53	0xbfc36ea88394c891	-0.1518145220266587
54	0x3fad5b75060e117c	0.05733838747895256
55	0x3fc344a6288c7e1b	0.15053250293657147
56	0xbfba26e9776183da	-0.10215624966214368
57	0x3fae3dc14c1b62fc	0.059064903774645544
58	0xbfda5b57402d2a3b	-0.4118250014040858
59	0x3fc2789899c27d23	0.14430530078696177
60	0xbf93a0b01994a3d6	-0.01916766315585846
61	0x3fe2e0d4389e93b1	0.5899449449394664
62	0x3fce588dee9a890a	0.23707746649331113
63	0xbf93a5c0dcd44762	-0.019186986425729365
64	0xbfd6ca9a1f48d418	-0.35611584715962996
65	0x3fc3a0668a4fcd48	0.1533325362539506
66	0x3fa62be1df6e474d	0.04330354549814661
67	0x3fc505934d4e9c71	0.16423264765510084
68	0x3fab761e882f10b5	0.0536355534782457
69	0x3fc18e4ce384c042	0.13715516194634075
70	0x3f8bed859ce8358e	0.013636630869792634
71	0x3fd18c707ca3ba9c	0.27419674083550105
72	0x3fc78372bac74584	0.18369897956885606
73	0x3fc8f8c0aef869a4	0.19509132903551774
74	0xbfb246992ac89ca3	-0.0713897447063681
75	0x3fc5d393d4fba88e	0.17051933192789587
76	0x3fc84c0c50020896	0.18982080370557658
77	0xbf78e9427aa5e7b7	-0.006081828769646628
78	0x3fcb94d37c4d90ac	0.21547931260568498
79	0x3fe274f22df8c724	0.5767756364714143
80	0x3ff7cfc3ad35b962	1.4882237211237102
81	0xbfa88ccbc69b80ba	-0.04794918822676793
82	0x3fc63b9299600f91	0.17369301308655996
83	0xbfe1cb673140190f	-0.5560794794007807
84	0xbfb42a6f6c9dc225	-0.07877251054538499
85	0x3fa9b49f7572f3a0	0.05020616825775126
86	0x3fa4cff686dccb41	0.040649131739334717
87	0x3fef4b01862e5802	0.9779060002063036
88	0xbfc9298439ab132d	-0.19657948318322252
89	0x3f4ba96ff74fef06	0.0008441731175703189
90	0x3fa5a289e61cd824	0.0422556966208705
91	0x3fe02fb8c7c3aa43	0.5058254148146449
92	0x3fc8673a87c150d2	0.19065028790158195
93	0xbfc0a3bfdf7aa199	-0.1299972382742112
94	0xbf34044cf5ca5c45	-0.00030543211850314985
95	0x3faa5ce1d6451b77	0.05148988476371746
96	0x3fc46831d9eec3a4	0.15942977086299692
97	0x3fc43f4269ad2911	0.15818052444439748
98	0x3fb02ea647af189c	0.06321181535813242
99	0xbfdf07517b6a328e	-0.4848216729376781
100	0x3fd6df51a1109cfa	0.35738030175203017
101	0x3fdc8d9666b89cf8	0.4461418154846366
102	0x3fa61fdc41dedf51	0.04321182540974056
103	0x3fed3bcef1dc4bbd	0.9135508273924341
104	0xbfa2ab8debeff191	-0.03646510605901477
105	0x3fc07e9e7a3d3567	0.12886410683351388
106	0x3fb1f2ee5dcf7da6	0.0701130847005432
107	0xbf84e7ecca5096b5	-0.010207986759336188
108	0x3f6091166df08050	0.002022308166047572
109	0xbfdba0bebf42ab68	-0.4316861026551835
110	0x3fba4f39445fde70	0.10277135772036572
111	0x3fbb7ed22ef285c1	0.10740388532806035
112	0x3feb311b4f8c37f8	0.8497444680849631
113	0x3fe43366076ead5c	0.6312742371714353
114	0x3ff172e4c55e3d4b	1.0905502042476936
115	0x3ff03f3feacb2284	1.0154418155308642
116	0x3fc4a91e4787025f	0.16141108028934334
117	0x3fbae1d18ee4e301	0.10500821817994323
118	0x3fc589063be826bf	0.1682441513551591
119	0x3fcbf635472f9a9c	0.21845117545963866
120	0xbfcfbaffd3821552	-0.24789426639123718
121	0x3f6cb587f4c85e7e	0.0035045295137584023
122	0x3feb7ba32c0342e3	0.8588424548744026
123	0x3fc91cf7fdeb33b9	0.19619655512215475
124	0x3ff2085a1323469c	1.127039026982323
125	0x3fc4d14a3751322c	0.1626370210746172
126	0x3fbead0cc0039029	0.11982803047027403
127	0xbf965ffe5a7f198c	-0.02185056140276624
128	0xbfb80546e0f8086b	-0.09383051865009555
129	0xbfa4c01dd2e3e9e1	-0.04052823256820993
130	0xbfc53e8fe9feeb89	-0.1659717457349326
131	0x3fb3ffacbcc1fcde	0.07812003715843072
132	0xbfbdd2b6e6d9a06e	-0.11649649749745247
133	0x3fb07195eff6d6a2	0.06423318012715609
134	0x3fc2ae73f6b492e6	0.1459488825431869
135	0x3fe2d9048f052155	0.5889914315567163
136	0xbf8d8aa84c16b485	-0.0144246242733408
137	0xbfb77044399d42c8	-0.09155680090521934
138	0x3fc243ae30acdf74	0.14269044281695253
139	0x3fc3c137e601c01d	0.1543340561943304
140	0x3fb4f973a2af1dfa	0.08193133088854401
141	0x3fa5289611828f4c	0.04132527316804033
142	0xbfaf2dd2d8e89f3a	-0.06089648149310141
143	0x3fe8dbb1b119098b	0.7768181284848635
144	0x3fa71ca9649cf6e4	0.045140546352269856
145	0xbff544002c6fd206	-1.3291017280399742
146	0xbfc2777de2edee4e	-0.14427159863031352
147	0x3fa9ebc7f328f72e	0.05062699168455108
148	0xbfb52b72b9717440	-0.08269421603604687
149	0xbfdb2268e4e46166	-0.42397520401711686
150	0x3fc4f2cf0c10d3c0	0.16365993584773086
151	0xbfad542ec2012405	-0.057282887632546
152	0xbfb37892282d34d5	-0.07605851631997791
153	0x3fadfa8b0ff85cf2	0.058552118014796664
154	0x3fb8ad34c525daad	0.09639291585140582
155	0xbfc6b6b47dc031b3	-0.17745071544812915
156	0x3fc5d3de2ad9b768	0.17052819340045322
157	0xbfc0bfc767a3edbe	-0.13085262833179273
158	0xbfc79352a6ed0ac3	-0.1841834368770688
159	0x3fbc918528610a82	0.11159546123330169
160	0x3fe257321631d2bd	0.5731440003861149
161	0xbfc0c4abeb9fd5e0	-0.1310019398221547
162	0xbfca9a06081746e3	-0.20782542605461804
163	0x3fb77decefe263fb	0.09176522118140433
164	0xbfb8d34b33593db2	-0.0969740867960727
165	0xbfce69ac4016f55c	-0.23759987954501127
166	0x3fc44cbf4d5dbcac	0.15859214093822993
167	0xbfc13219c6489250	-0.1343414514714305
168	0x3fe17c91d6499a47	0.5464562592795311
169	0xbfc063a3d19cb4a3	-0.12804076895682667
170	0xbfb1f6727c078df6	-0.07016673591675002
171	0xbfa313b77724adf3	-0.037259801191193896
172	0xbfb7523a3438da33	-0.09109843993142235
173	0x3f9b89db1b89bfbc	0.02689306598261941
174	0x3fbcb2600ee0c685	0.11209678996308454
175	0xbfc662b614c51c51	-0.1748874284187161
176	0xbfc30fc5f23b36c2	-0.14891886069965748
177	0xbfce8679479fe213	-0.2384788131455627
178	0x3fb7781cb2864490	0.09167651518352415
179	0x3fb2cc2b9685b095	0.07342789101466203
180	0x3fb978eb78383903	0.0995013397698337
181	0xbfc4b63693e93e3a	-0.16181070539686165
182	0x3facb512224ec643	0.05606896084590265
183	0x3fb0baabc6365a46	0.06534837330978246
184	0xbfc368ba386a362b	-0.1516335273230863
185	0xbfbc19ca1634bc5d	-0.10976851503504421
186	0xbfdee6683fa613ed	-0.4828129407472364
187	0xbfcd29b96ee5a0a8	-0.2278358260621236
188	0x3fe1497e6c198318	0.5402214156457346
189	0x3fea36099071cc60	0.8190963574583172
190	0x3f8d57a8e2b5208b	0.014327353876652424
191	0x3fa5e8f9c050f5ac	0.042793087698082516
192	0xbfe2e79b96bda497	-0.5907724327236278
193	0x3fd33bcd06a60c89	0.3005249562194839
194	0xbfc3e2c3647b5f1c	-0.15535776525825262
195	0x3fdccfd2e1b11b28	0.4501845554372488
196	0x3fe02de9a7dd2116	0.5056045797910282
197	0x3fc219c866305d79	0.14141182889646212
198	0x3fccb6a46f8226c8	0.2243238014673834
199	0x3fa904ea53524b7c	0.0488656260214588
200	0x3fef20364767bb85	0.9726821322091018
201	0x3fcd29449c7596df	0.22782189979186904
202	0x3fc3f5e84c77bce5	0.15594199880386053
203	0xbfc9e32e7edcb58c	-0.20224553293648417
204	0x3fcd321ca7acdf01	0.22809179484624312
205	0xbfb6159170a5d48e	-0.08626660347165879
206	0x3fe21e069144f127	0.5661652409831149
207	0xbf81eca631a742b4	-0.008752153768825856
208	0x3ffbd39c8c3d3ccf	1.7391629675001246
209	0x3faae75954bbce76	0.05254630240770279
210	0x3fa8b38cbe47e955	0.04824485609784072
211	0x3fd41de0e2815e05	0.314323636242506
212	0x3fdb27cb713910e4	0.42430387551236337
213	0x3fdb937b13695118	0.4308765115322486
214	0xbfdbed9c8dd62938	-0.4363776574251861
215	0xbfe20a6549181550	-0.5637689998263031
216	0x3f97df6a33e614d7	0.023313197534226084
217	0x3fd4dcb256973d7d	0.3259702535260301
218	0xbfe1a918ca7d66cc	-0.5518917040710334
219	0xbfe649328e71f8de	-0.6964352399952778
220	0x3fe267039bfb13be	0.5750749632357992
221	0x3fc2fe7f53590205	0.1483916432353142
222	0x3fe71ec98e382cbf	0.7225082185481354
223	0x3fc1a2e3beab4140	0.13778349695213343
224	0x3fc5d3fa6b33b491	0.1705315612265719
225	0x3fb56e9cf1c6160f	0.0837190714138034
226	0xbfca8f9addcd26ae	-0.20750747518677798
227	0xbf993f55159fadf9	-0.024655656285103664
228	0x3fb19f3546b2773a	0.06883557296756929
229	0x3fc3ebeb343ba59e	0.15563716936530353
230	0xbfbf9ec5c92ac074	-0.12351642762473763
231	0x3fd5ea6d2af8c3a1	0.342433254208169
232	0xbfc0e987442556a7	-0.1321267206901002
233	0x3f85d67bfb54e420	0.010663002593547743
234	0x3fc83e6f33d3a27c	0.18940534620857707
235	0xbfad1024b9250be6	-0.05676378974978728
236	0xbfb595fac5686506	-0.0843197566940895
237	0x3fce4962bc25b21f	0.23661455332639122
238	0x3fce600228ee5e5e	0.2373049449786206
239	0x3fc4c9970acebf88	0.16240203883853277
240	0x3fe47431f7e18667	0.6391839829850142
241	0x3ff152e3c7dcbaea	1.0827367598646398
242	0x3ff162bee4bfeb62	1.086607831529101
243	0x3fe1c69c43228708	0.5554944335201251
244	0x3fadc931811620ea	0.05817560864221767
245	0xbfcb8173597427e2	-0.21488801830156407
246	0xbfd5498650a9d555	-0.3326125896195056
247	0xbf9726ff531b0987	-0.022609700629581588
248	0xbfcf6c619012c553	-0.24549502882795568
249	0xbfa8823018c2e624	-0.04786825468313463
250	0x3fe5d39b17c16d4a	0.6820807899452259
251	0x3fe18f198196fb3d	0.5487182169962136
252	0xbf99ec7c4cbe3d72	-0.02531618326571334
253	0xbf8ebd55ff9ea427	-0.015009567130464486
254	0x3fbc7619404bb23f	0.11117704219550094
255	0x3fc86c0f270ab8c2	0.19079770475713614
