model_lstmBlockold_dataset.pth (torch, 367511 bytes, 6 tensors)

lstm.weight_ih_l0 f8 [256, 112]
000000 ed b3 08 03 a2 23 b7 bf cb 32 cf e3 e6 95 c4 bf
       -0.09038746427604823 -0.1608246433592256
000010 43 88 4a 62 c9 27 a1 3f 98 bf 80 f4 0f 62 93 3f
       0.03350667309611357 0.01892876558139242
000020 b1 6f 6e bc f9 c4 ac bf 10 5c 19 9f 31 de a0 bf
       -0.05619030404270065 -0.03294520442130289
000030 e3 94 dd 18 30 f4 a0 3f f7 d6 05 2c 1c 46 b3 3f
       0.033113005671830974 0.07528854441428821
000040 0c 8a 1c 2c 17 00 9f 3f d4 3e 4e 2b 78 b8 b4 bf
       0.030273782794333612 -0.08093977982775452
000050 75 9c 6b b8 27 07 a1 3f bb fb 82 35 83 6d 82 3f
       0.033257714521646976 0.008997941084428853
000060 a4 7a fc 72 e4 0b c9 3f 45 e9 73 1d 47 ea bc 3f
       0.19567542662203607 0.11294979542791335
000070 6a e6 d5 6e e1 fe a0 3f 15 3b 1f 69 63 55 6e 3f
       0.033194584636430616 0.0037028257001802214
000080 f3 f4 9a 59 a4 85 b5 3f d7 42 7a 2f aa 40 ba 3f
       0.08407046496991537 0.10254920634384788
000090 8c fa 7f c0 e2 e0 a0 3f c7 6c 8a bb 61 16 a0 bf
       0.032965742109799384 -0.03142075933757265
0000a0 30 5b 2f b0 24 26 c2 bf 90 77 5a bb 02 61 b4 bf
       -0.14178904154570082 -0.07960526536996171
0000b0 be 77 37 9b 63 2f a1 3f aa 0a 09 1c 00 22 b4 bf
       0.033564675042483824 -0.07864380535560636
0000c0 21 80 e8 b4 ff 8d e6 bf bd 35 e0 f8 58 d2 98 bf
       -0.7048338445056325 -0.024239912214445648
0000d0 67 bc 3d 7b 26 39 a1 3f 2d 97 23 b7 10 0d 6d 3f
       0.033639147323690825 0.0035462690803908154
0000e0 53 2f e7 d6 ca cd d2 bf 85 4a df 17 bb a4 b3 3f
       -0.2938105677283051 0.07673234303300987
0000f0 fd cc 6e 77 2c 7a 87 bf a0 34 c9 62 24 82 a8 bf
       -0.0114634965847018 -0.047867905672867694
000100 f7 71 00 d9 74 e1 d7 bf 57 06 ba fd 70 32 9d bf
       -0.373135768810044 -0.028512731062170307
000110 72 2f b6 0c 4e 59 87 bf ad 4b 8e b5 2b c2 a5 bf
       -0.011400804293564912 -0.04249703017480697
000120 b4 81 a3 ec 5e 29 ea bf 4f c2 47 64 ee 80 6d bf
       -0.8175501462792938 -0.0036015182579307923
000130 dd 26 3e 85 17 bf 85 bf 9f c1 1d 0b a8 16 ad bf
       -0.01061838508009621 -0.056813479763948786
000140 0a 45 26 fe 67 5f ef bf 6b 01 a5 41 e2 49 9e bf
       -0.9803962673051114 -0.02957871938383631
000150 fd dc 71 32 ae 34 85 bf b7 ce 72 95 bc d3 99 3f
       -0.010354386248066389 0.025221773740396993
000160 9a c4 ff 3a e5 1f ef bf 19 65 1f f9 10 2c d0 3f
       -0.9726434852911041 0.25268959358580073
000170 63 cf 5b 63 7d a3 84 bf cb e8 57 24 81 04 9c 3f
       -0.010077457041439869 0.02736093315432057
000180 c8 71 0b ec a3 2d c7 3f 40 ef bb 60 a0 07 c8 3f
       0.18108033204670293 0.1877327415785377
000190 26 b0 1c a2 63 d0 84 bf fc 7c 7f 15 b0 96 ac 3f
       -0.010163095841186087 0.05583715689112442
0001a0 7d e3 29 27 d5 a7 e2 3f d4 ef 41 b4 5d 60 cf 3f
       0.582987381450138 0.24512835790289833
0001b0 d2 b3 ef ef a9 59 85 bf ed 30 3e bc 82 55 89 3f
       -0.010424926409507682 0.0123701299378571
0001c0 1c 6a 35 3f 6e 66 c8 bf 41 a5 10 4b 0b 89 71 bf
       -0.19062593542442208 -0.00428108607688077
0001d0 b6 63 00 d3 5d 48 97 3f 64 00 6b d9 5e 86 a0 bf
       0.02273699379302104 -0.03227516559627544
0001e0 c4 b4 54 2f a4 2f af bf cd cb 0e 04 c0 f9 c4 bf
       -0.06091034963388034 -0.16387176702627784
0001f0 ca ad b7 b8 36 75 97 3f de 21 9c 4f 60 91 c0 3f
       0.02290807249475594 0.12943652999116656
000200 31 ae 7a 68 d5 8d b9 bf f7 71 87 01 04 71 d3 3f
       -0.0998204593731138 0.30377292775463566
000210 74 47 11 e9 8b a4 97 3f ce 3c 51 8b 9e 3d 94 bf
       0.023088632679282253 -0.019766309026007893
000220 d2 76 c9 a4 1b 91 f1 3f 8e 4d b3 c0 4d 7f ed 3f
       1.097926753710841 0.9217900050811509
000230 b7 66 cc 65 4a 51 97 3f 29 4b 1d a6 a8 f0 86 3f
       0.02277103658989318 0.011201207703981435
000240 ae db db eb 8a 22 e3 3f 13 f6 a2 aa ea d4 f1 3f
       0.5979666334741205 1.1144816079607878
000250 90 38 32 17 d2 1d 97 3f 37 8e 85 76 c2 02 87 3f
       0.022574694314748955 0.011235732309336928
000260 d8 89 5d 5d 4a b3 f1 3f c6 5f 45 71 65 45 f8 3f
       1.1062720915875754 1.516942446198287
000270 8c db b3 77 b8 3b 97 3f 00 c0 d6 70 96 66 84 bf
       0.022688753419938076 -0.009961295431679673
000280 d8 2e 5c cb 79 69 fa 3f bf 7f 2f 5d 3c 0c f1 3f
       1.6507509177926547 1.0654872551021837
000290 a1 b3 8d cc f6 75 97 3f 16 60 c5 5c 1b ec 95 3f
       0.02291093467231387 0.021408488786022493
0002a0 71 a8 f4 60 18 e0 e4 3f 1c 9a 36 28 22 25 dc 3f
       0.6523553746858523 0.4397664444644833
0002b0 2e dd d5 c3 42 9b 81 bf 82 0c 98 90 bc c1 50 bf
       -0.008596917725965793 -0.0010227529004403217
0002c0 60 63 d6 75 5f 55 e2 3f 09 a2 d4 3a 50 32 e0 3f
       0.5729214955818911 0.5061417721781832
0002d0 74 2d cf 65 fa f7 7c bf e3 61 12 bb 1b 23 b4 3f
       -0.007072427860247078 0.07866071049864547
0002e0 bc 72 3e 0c 74 cd d5 3f ba 1d ad 31 7d fc f2 3f
       0.34066487498948184 1.1866428318479465
0002f0 7f e0 43 8d 05 50 82 bf a1 7c ba a9 f4 43 9b 3f
       -0.008941691754884793 0.026626417979625065
000300 1f d4 9e a5 6f 0e ec 3f 88 71 64 af ad 5d f5 3f
       0.8767622217916403 1.3353707171691855
000310 38 95 5d 8e 58 90 7b bf 13 2b 5d b8 03 ff a1 bf
       -0.006729455873800298 -0.03514873147522315
000320 e5 54 f7 29 a6 23 f2 3f 32 5a 17 75 6e bc f3 3f
       1.1337033881475744 1.2335037778735907
000330 50 8e a8 0b 5c 61 7b bf ab f6 ba 58 7b 69 a9 bf
       -0.006684646180051226 -0.049632887441004435
000340 44 d1 b3 59 ba 52 c5 3f a9 5c 45 51 dc 50 ee 3f
       0.16658715610504704 0.9473706805537364
000350 14 db 52 a3 f5 78 94 3f ca d1 fd 6a ee c4 89 bf
       0.019992673963055443 -0.012582647934075281
000360 f3 3d 2b fa 00 15 c2 3f 73 b5 90 47 29 01 f1 3f
       0.14126598563460355 1.0627835078733738
000370 9b 0f d6 ce 91 71 8d 3f b1 20 40 3e 59 9a a2 bf
       0.014376772999419354 -0.03633383641141686
000380 4b 29 d9 bd 87 e6 ae bf 3f 08 3e 45 d8 ed c0 bf
       -0.06035255615695919 -0.13225844746563273
000390 b7 cd b3 5d 92 4c 99 bf 98 86 88 68 17 05 b5 bf
       -0.024706160515916866 -0.08210893919069873
0003a0 93 75 8a 34 af 37 d8 bf be 3f cb 2b 9a f7 b4 bf
       -0.37839870577757856 -0.08190311021030447
0003b0 92 0d 06 c6 78 81 97 bf 27 1e 6e 8f a8 30 9d bf
       -0.022954833113102042 -0.028505929712563962
0003c0 3f 72 2b 47 ed 8e d9 bf 64 14 9d e0 c2 62 c2 bf
       -0.3993485636727065 -0.14363895385227743
0003d0 8e 63 52 a1 f7 97 8b bf 12 17 f4 49 b8 8f af bf
       -0.013473448382045363 -0.061643370654605914
0003e0 97 ba 3d 89 7d 1c e6 bf 04 9c c5 4f 7f e4 c1 bf
       -0.6909778290262975 -0.13978568453896412
0003f0 17 d1 b8 2c 17 33 81 bf 1d af b7 e3 a4 ea a2 bf
       -0.00839822869520694 -0.036946442410991966
000400 17 a2 88 11 3e 0b da bf c9 1e 00 ba 13 dd b3 bf
       -0.4069361850002066 -0.07759211817767232
000410 fb 5a 2a e4 c9 54 86 bf ca c7 c2 76 62 36 b7 3f
       -0.010903908992344826 0.0906735935157307
000420 c4 d4 e3 56 ec 54 e7 bf af 0f 5b 6e b3 71 a1 bf
       -0.7291166016645083 -0.03407059404483392
000430 00 75 dd 61 98 6d 6e bf 36 35 01 1c 95 a6 a0 bf
       -0.0037143684593688997 -0.03252092329840155
000440 81 48 57 32 73 99 e3 bf ad 44 c2 63 3b 2d a8 bf
       -0.6124816878530198 -0.047220092704386964
000450 96 e3 14 5e 0c 2e 63 bf ae 92 62 e8 38 47 aa 3f
       -0.0023412934830528516 0.05132463299495292
000460 44 75 41 b6 9b b1 ec bf b3 b6 9a 3c 30 36 a6 bf
       -0.8966806945497088 -0.04338217487143705
000470 c6 8a 0b e0 43 ad 90 3f 78 38 e5 b4 c1 d5 80 bf
       0.016285954045893523 -0.008220208485593114
000480 84 86 d4 2f c9 d0 e4 bf a4 61 11 f8 7a 22 b6 bf
       -0.650486558359447 -0.08646362835259552
000490 c8 a4 cf 7d 19 cc 90 3f 43 13 39 d5 93 8a b7 bf
       0.016403578094387666 -0.09195827441824371
0004a0 fc f7 b3 92 74 c4 df bf 7a 1e 55 e7 e8 ac a1 bf
       -0.49636568380799395 -0.03452232192881595
0004b0 6c ca 03 8f ff 69 90 3f 3d 47 4f d9 af 2e 7d 3f
       0.016029351333552475 0.007124602231628971
0004c0 07 4f 41 19 a9 72 d0 bf 04 d7 cf a8 8b 44 a2 bf
       -0.2569983240730242 -0.0356792110032256
0004d0 f6 bd 1d b7 52 51 90 3f 8a c8 1c cd 99 7f b2 bf
       0.015935223032498023 -0.0722595334780484
0004e0 d8 5f ae 1c 35 d8 c7 bf 6a 4d b1 ac da b6 be bf
       -0.1862856283230474 -0.11997763363006234
0004f0 26 09 48 bb 59 37 90 3f 64 f5 02 98 67 58 a9 3f
       0.01583614545416725 0.049502599054430246
000500 db 64 dd 11 6e 8d d5 bf 1b 99 20 71 db 0e c9 bf
       -0.3367571997128615 -0.19576590560718263
000510 c6 db a1 50 7d 6b 90 3f b0 49 97 34 31 b9 b1 3f
       0.01603503994598634 0.06923205884894545
000520 62 e1 a4 86 af c7 c6 3f 20 3e 54 19 d9 44 b8 bf
       0.1779689223710746 -0.09480053776155062
000530 13 33 1c b1 1e ac 90 3f 68 62 bc 60 09 81 af 3f
       0.016281585273691123 0.06153134637697094
000540 11 dc 27 cd 05 c7 b8 3f 2c db 72 6b 94 13 d0 bf
       0.09678684481319545 -0.2511950539878167
000550 aa e8 bf ec ea a1 96 3f 77 25 75 34 72 69 91 bf
       0.02210204191212798 -0.017003807498701087
000560 6e 6b 1f 92 2e fb b2 3f 6f b8 ca 11 20 91 cf bf
       0.07414523189019714 -0.24661637181037885
000570 e8 1d 49 46 27 a2 96 3f 03 21 c8 2e 04 65 7e 3f
       0.022102941193478914 0.0074205554378823394
000580 3d c1 60 04 08 18 c6 3f de 4b 68 62 c6 a8 ba bf
       0.17260837758795758 -0.10413780119442559
000590 5b 42 7a ef 3c 90 96 3f 0b 95 bc 8b c9 58 97 bf
       0.022034599415351113 -0.022799634126518458
0005a0 0c 3f aa d3 d5 21 c5 bf 7e f3 d3 a3 e0 cd bc bf
       -0.1650950702210071 -0.11251644134240554
0005b0 9f a9 08 b2 e7 c0 96 3f 07 82 80 57 38 01 b3 3f
       0.022220249406169065 0.07423736702231319
0005c0 de a6 61 79 ff 2e c7 bf e9 c6 14 99 1d f0 a1 bf
       -0.18112176348522885 -0.035035061775841765
0005d0 37 89 3b 78 bf ba 96 3f 65 0e e3 5a de 7b ae bf
       0.022196761811650503 -0.059538792223546
0005e0 4a 63 9f be 50 ad d0 bf 5e 19 b9 74 7a c5 9d bf
       -0.2605783330487169 -0.0290736325971691
0005f0 c7 ec cf cb 0f aa 96 3f 01 31 ed c0 a0 4f 92 3f
       0.022133108916005974 0.01788188149957737
000600 b4 51 30 70 86 0f e9 bf b3 e6 de ba 99 10 af bf
       -0.783145159834524 -0.06067352682243889
000610 ff 65 87 1a 1d 41 96 3f 59 c7 7a 5d 1f 7a 99 bf
       0.021732764000125467 -0.02487992294363237
000620 fc 76 09 96 7d 3f d8 bf 0e ab 23 c6 e3 68 9d bf
       -0.37887515689895657 -0.02872043511244287
000630 be 31 e6 d6 8d 7b 96 3f 99 0f ba 69 98 46 ad bf
       0.02195569633617977 -0.057179224878409936
000640 d4 97 7c 00 85 dc e6 bf 55 26 26 22 a9 3a a0 bf
       -0.714418888998575 -0.03169754545076545
000650 59 4c 01 c0 25 98 96 3f 42 8e 7b 7e a6 76 a9 3f
       0.022064771503505252 0.04973335546472103
000660 18 b4 23 f4 e1 a8 e0 bf 5b 46 6f 36 94 60 c6 bf
       -0.5206155556057892 -0.17482235582297076
000670 d2 19 93 3e 47 8c 96 3f b4 fa f8 e0 6d 1d 96 bf
       0.022019494241954103 -0.02159663854240064
000680 e0 0c 0c ed 6a 01 db bf 48 26 64 81 ca 91 c7 bf
       -0.42196152829292366 -0.18413668935709127
000690 9f bf 91 4a b1 84 96 3f 74 fc 37 a5 e7 ea 9c 3f
       0.021990556885100095 0.028239840945385855
0006a0 02 ea 33 08 55 46 e8 bf 63 a0 49 02 0f 87 a4 bf
       -0.7585854683123332 -0.04009291556286667
0006b0 d3 14 89 66 32 89 96 3f 2a 57 98 93 0d df b2 bf
       0.02200773955180042 -0.07371601918597706
0006c0 d0 ff 12 39 fc 58 d9 bf c9 86 4b dd 82 1e b0 bf
       -0.3960562283864393 -0.062965563799959
0006d0 8b 5f 1f d9 08 b1 78 3f ba 6f fd b2 f9 48 89 3f
       0.006028208315875259 0.012346220755425342
0006e0 20 74 95 c8 63 f4 e4 bf ae 7b 9c e6 da 65 a7 bf
       -0.6548327367451101 -0.045698967600621074
0006f0 21 3d 5c 26 c8 93 73 bf 90 f8 c7 d3 d5 4f b0 bf
       -0.004779607615787358 -0.06371818943441299
000700 f7 7b cd c3 06 c9 bf 3f 76 49 c0 94 1f 51 d9 bf
       0.12416116981829349 -0.39557637716747907
000710 41 64 c0 93 17 2c 92 bf 3e f7 eb 11 e9 49 b8 3f
       -0.017746323006665902 0.09487778365652574
000720 14 3d 5e 40 7f 2a e5 3f 58 ac ce 10 e6 83 dc bf
       0.6614376313390573 -0.44555045739497734
000730 75 49 d2 e6 2d 0e 92 bf 9f 7c bd d0 37 c8 9b 3f
       -0.017632214749548198 0.027130958667268442
000740 25 5e d5 98 b7 c3 bd 3f 61 2f f6 bc c8 b8 d3 bf
       0.11626765710149607 -0.3081533284500804
000750 bf 32 26 82 09 0d 92 bf 19 69 e2 79 b2 5a c0 3f
       -0.01762785775058506 0.12776785804164417
000760 97 bf 07 13 38 b8 f3 3f 2c 16 54 fa 26 d7 e0 bf
       1.2324753516549884 -0.5262637032726096
000770 a3 77 4d d3 da fe 91 bf 6c 3e f0 ac db 02 c1 bf
       -0.017573756358039493 -0.13289972252140403
000780 c1 21 bf d1 4c cf ea 3f bd 9a d0 82 b7 aa d1 bf
       0.8378051849950269 -0.27604472899330884
000790 c7 fc f9 14 5d 04 92 bf 94 d4 08 24 66 cd c3 bf
       -0.017594770818047303 -0.1547057796430279
0007a0 be 1e 75 10 ae d7 d3 3f e4 95 c6 e0 34 44 c3 bf
       0.31003905875375526 -0.15051899886490994
0007b0 5c 35 0b e2 c2 e9 91 bf fb 60 4f fb 71 b9 c4 3f
       -0.0174932909456421 0.1619093396282166
0007c0 7a 89 47 54 9b ee db 3f 55 ca ef 2b f4 0d d8 bf
       0.43643840055860716 -0.37585167208377374
0007d0 70 61 1f 71 de d3 91 bf 36 55 f2 ef 5d 53 c2 3f
       -0.017409778265432718 0.14316915718215178
0007e0 e3 b4 3b e7 aa 11 cf 3f 6d f7 25 2d 3c 52 d9 bf
       0.24272667208371165 -0.3956442299748833
0007f0 7f 6f 88 3e 6e ce 91 bf 3f de b9 ab 0a 93 c0 3f
       -0.017389032904346898 0.12948735604344283

lstm.weight_hh_l0 f8 [256, 64]
000000 24 32 bd 17 a8 97 b0 bf f7 44 e6 9a 74 bd c2 bf
       -0.0648140962559372 -0.14640672267390872
000010 2d 3f c0 df 81 3c 8b 3f e2 01 c8 1b 56 92 b0 3f
       0.013299002304875874 0.06473291567090869
000020 05 32 bc 85 cb 43 bd 3f 5c 5c 46 5c b1 25 c0 bf
       0.11431571974771522 -0.12615029340369943
000030 36 28 4e d1 01 25 94 bf 51 7c 39 38 c9 6d 7e 3f
       -0.01967242088316131 0.0074289188520132035
000040 12 56 0d f9 50 7b 51 bf 6d ca ff f2 0e a7 8e 3f
       -0.0010669985533317034 0.014967076102015054
000050 f7 22 de 16 77 57 65 3f 5a 71 b4 46 b6 16 5d bf
       0.0026051832164209992 -0.001775434497921577
000060 ed 2c 1b 89 44 c2 98 bf 1b 18 f0 d0 67 7a c1 bf
       -0.024178572529120968 -0.13654802038235023
000070 3e 63 94 86 b8 16 b1 bf 5b e1 4d d8 fd 96 5a 3f
       -0.06675294194827772 0.00162291326088678
000080 a8 f7 e4 36 26 bb 91 3f 5b 20 04 18 94 3b 7d bf
       0.01731548032807209 -0.007136896602112665
000090 e0 87 37 40 95 0e 9a bf 0c 64 42 56 22 5a 97 bf
       -0.025446254772653165 -0.0228047719143412
0000a0 cb cc 3d d3 35 1c a9 3f a0 5c f1 08 ae 8d 63 bf
       0.04904335216169783 -0.002386894142130183
0000b0 25 c1 c9 5f 5e 1c a1 bf 5b 88 d0 88 0e b2 be 3f
       -0.03341956061638233 0.11990443077277872
0000c0 9a 25 ac 68 68 ab 84 3f 37 58 b7 fc 19 01 96 3f
       0.01009255952296222 0.021488576936313755
0000d0 4e b4 b9 51 1a 62 be bf a5 74 7e 4c 9b 23 78 bf
       -0.11868443007706839 -0.005893332134204209
0000e0 df 82 c0 d1 4f 15 a2 3f 24 f0 fb c3 01 68 af bf
       0.035318846086971105 -0.061340384649128304
0000f0 3f 70 a1 3e 03 08 a7 3f 13 c4 74 47 0e 5f c3 bf
       0.04498300685438083 -0.15133837212627607
000100 2f 29 7e f5 40 0f 6c 3f f1 a6 af f0 00 67 98 bf
       0.003425242302857921 -0.02383042782813666
000110 fe b0 91 a9 b1 d8 95 3f be a9 75 ed a5 ce b0 bf
       0.02133443448512739 -0.06565320060113941
000120 7e 8d 04 f0 aa 82 92 bf 8e 61 97 ee 60 15 8f bf
       -0.01807658281280799 -0.015177495270948051
000130 02 64 9f 95 02 7a 97 bf d5 1a 77 be c1 66 93 bf
       -0.022926369077911353 -0.018946673631741035
000140 5b fb 53 be bf 0e 71 bf 11 31 cd a3 66 9f b0 bf
       -0.004164456365514403 -0.06493226527272024
000150 e5 af 12 e0 11 9d 6e 3f 7b 13 55 19 1b c2 b4 bf
       0.003737006104151052 -0.08108682030167629
000160 2c 4d 8b 7e b4 a0 9f bf 04 63 7b 5a 72 de 10 bf
       -0.03088647863735365 -6.434987028159858e-05
000170 42 c1 ac 45 74 5d 84 3f 87 42 2d 7b a6 e9 ad bf
       0.009943874718005067 -0.058423235450964
000180 a4 e0 c9 5a 09 70 74 bf ca bd e0 be 14 d7 ce bf
       -0.004989658872197964 -0.24093875236711276
000190 7c 89 90 18 e5 ed 78 bf 59 fb a6 00 92 07 90 3f
       -0.0060862492619285745 0.01565387848836095
0001a0 0a 07 c5 e9 83 7d 99 bf 57 52 aa ef 06 31 80 bf
       -0.024892865317503378 -0.007906011761670202
0001b0 fd 2e 53 f9 94 4b 84 bf e8 52 f9 b3 e8 78 88 3f
       -0.00990978608969994 0.011949365608566478
0001c0 23 0e 47 46 65 6d ab bf 59 da 31 28 2b fc ae 3f
       -0.05356899721985211 0.06051764360102103
0001d0 b7 2d 30 47 73 32 8e bf 20 b2 89 55 31 b2 9d 3f
       -0.014744663820258503 0.029000063749139326
0001e0 5d ac 53 6e e9 d8 bf bf db 8d b9 03 0f 91 69 bf
       -0.12440356200720389 -0.00312092716721833
0001f0 d2 40 8f 85 4d bb aa 3f 61 ab 5d 1e 6c f8 b0 bf
       0.05221025710454942 -0.06629062405924692
000200 6c 28 80 4a ad cb 8a 3f 05 03 01 ca 3d 26 a5 bf
       0.013083795391157525 -0.04130738345020827
000210 4f df 04 94 5e d9 b0 bf 51 87 08 65 60 cc a5 bf
       -0.06581679452653798 -0.04257489426915007
000220 5b 5d c8 76 b7 5c 95 3f f2 06 ba 4b fb 6d c0 3f
       0.020861498474997613 0.12835637281028017
000230 15 6a a2 02 77 fc c8 3f 53 f1 b6 ab 7b a9 c1 bf
       0.19520461681970916 -0.13798471340659066
000240 88 06 2c 25 b8 18 bd bf 02 5e 47 96 6b 0e b4 3f
       -0.11365843684691346 0.07834503573337062
000250 e8 88 7d 65 02 17 b1 3f ba dc 89 a0 97 15 cb bf
       0.06675734498779529 -0.21159644449992304
000260 ef a7 62 c6 59 d7 a2 3f 9f 3f a8 05 d7 33 af 3f
       0.03679924532600853 0.06094238227899428
000270 f7 d1 5d 02 1e 7d b7 3f 63 54 ec 74 1e d7 b0 3f
       0.091752887323146 0.06578245501107598
000280 a2 17 ec bc 8f 67 9d 3f da 09 72 3c d1 2d c6 3f
       0.028715368181131525 0.17327323390425314
000290 69 4a a6 d0 cc 60 79 3f 09 48 d8 90 30 10 8e bf
       0.006195831354846784 -0.014679316921533585
0002a0 87 1f 90 6d 15 98 c9 bf 86 2e 0e 58 fc 24 b3 3f
       -0.19995372628931937 0.07478310727872825
0002b0 d2 e5 e5 51 38 44 c6 bf a3 a2 6a 55 3b 5f 9e 3f
       -0.17395690916946066 0.02966015538064205
0002c0 e5 d8 e2 28 42 86 96 3f a6 e9 b6 74 63 a6 b4 bf
       0.021996530290118072 -0.08066388701892055
0002d0 be 89 2b 08 93 d0 9e bf 29 33 c0 85 a4 c1 bf bf
       -0.03009252297750619 -0.12404850259208601
0002e0 b5 11 cb 96 41 fc a0 bf ff 62 23 52 10 9c c6 bf
       -0.03317456212747364 -0.1766376877847264
0002f0 61 e4 be 50 fe bc a8 3f e5 88 0e 84 35 9f c1 3f
       0.0483169053617949 0.13767117450794966
000300 f0 58 1d f4 e3 a8 aa 3f 5e a7 d7 f9 a2 23 b8 3f
       0.05206978182711619 0.09429377174060735
000310 af 8b 50 e5 78 a8 62 bf d2 b8 04 df 4f ae a2 bf
       -0.002277599453479571 -0.03648614499467019
000320 8d 8b c6 ce a0 6a b6 bf 20 23 04 46 ef 58 ae bf
       -0.08756451652747739 -0.05927226762475457
000330 c7 9f 3c 25 c6 cf 9a bf 75 ad 68 30 17 d7 b0 3f
       -0.026183219931368542 0.06578202182634192
000340 5e 54 53 28 85 7f c0 bf eb ba ba 5e 40 10 80 3f
       -0.12889160603541233 0.007843497172272026
000350 02 3a 28 7c c1 fa c0 bf ed ea f0 b6 c9 c8 a1 3f
       -0.13265245973930467 0.034735015470195175
000360 f4 21 e1 b4 69 7d a3 bf 51 da 98 ad d0 71 96 bf
       -0.038066199617393354 -0.021918545337223986
000370 fa 94 52 0b 0a 16 81 3f 4e 8d 45 ae 50 77 bf bf
       0.008342817755258459 -0.12291435484580868
000380 41 7e 34 10 6b 99 b5 bf 4a 0f 9c 63 94 09 a7 3f
       -0.08437222619658603 0.044994961890579235
000390 2f 01 30 58 31 69 b0 3f d4 b1 a6 87 04 6b 8d bf
       0.06410511401191309 -0.014364276304001423
0003a0 ef e5 2e 22 15 fa 88 bf 07 b7 5c 36 02 09 b1 bf
       -0.012195744615257601 -0.06654371096803056
0003b0 85 90 42 f7 4a dd ca bf f2 04 fb ea b4 cf b6 bf
       -0.2098783213924699 -0.08910685288266842
0003c0 89 fa d1 6f 1d bf bc 3f 2d 68 10 90 cc 83 a5 3f
       0.1122911832808119 0.042021172128628194
0003d0 64 42 27 b4 91 2b b8 3f 33 10 c3 bc ac fe af bf
       0.09441481254840195 -0.062489889185173196
0003e0 73 e3 61 b1 90 39 c1 3f 83 31 ca 1e ea 95 c0 bf
       0.13456925069092626 -0.12957502845200616
0003f0 6d b8 e5 ae 88 30 a5 bf c9 04 e2 41 7b 03 c2 3f
       -0.041385909414075474 0.14073124615609903
000400 7d cf e8 d0 8c 2f 9a 3f f7 40 2c 75 d3 c1 a5 bf
       0.025572014094179963 -0.04249440007527199
000410 b6 9c 2a 4a 18 bf c6 3f 8a 18 a5 4d ef fb c1 bf
       0.17770675298127053 -0.14050093928580437
000420 ee 2f 4c 39 8c 61 92 bf a2 42 68 c3 f9 2a 95 bf
       -0.017950240132492405 -0.02067175154849344
000430 80 85 1e 2b 36 e2 c6 bf 00 a8 17 93 98 59 c9 bf
       -0.17877843003683935 -0.19804675276037642
000440 56 6b 3c 04 b3 1d c3 bf 86 72 d8 87 6e 8e 8c 3f
       -0.14934385020100177 0.013943542023349364
000450 f0 09 06 a8 0f 85 c6 3f 75 0d 0e c6 7d b6 c6 3f
       0.17593570427204908 0.1774441926064402
000460 39 56 0d f2 a4 3a 91 bf b8 bb 78 9f 7d f1 c5 3f
       -0.01682527282112842 0.17143221174907608
000470 ea 64 7f a0 0b bd c8 3f 37 af 77 56 30 9b c3 bf
       0.19326920830534472 -0.15317348691984886
000480 ca 8d 37 61 47 ae c5 3f e0 e8 cb 55 d6 f7 b2 3f
       0.16938106772350486 0.0740941962684789
000490 9c d9 83 af 44 41 88 3f cd d8 3a 2c 9f 18 90 bf
       0.011843239408773347 -0.015718924593522133
0004a0 de ca 11 6e f9 5d c7 3f 08 03 44 8a 05 18 c3 bf
       0.18255536913382903 -0.14917058230641822
0004b0 33 10 6c 2d a0 7e b5 bf ed f4 af d5 24 40 8e bf
       -0.083963404740701 -0.014770782252521342
0004c0 14 69 09 66 42 8c c6 bf 60 19 54 14 13 80 9d bf
       -0.1761553762651792 -0.028808878055337828
0004d0 23 96 ee f6 d9 10 a0 bf 95 48 bc 18 8b b0 c5 3f
       -0.031378566163123865 0.1694501753596042
0004e0 67 aa a2 e1 95 bc b9 bf 31 7b e4 b5 93 be 8e bf
       -0.10053383597065989 -0.015011934269350742
0004f0 f2 89 18 b8 c6 e6 ca 3f c3 57 4f 15 14 3f b6 bf
       0.21016773213439383 -0.0869000007654384
000500 d1 f9 ac 2f fc 6c c8 3f 9b c8 9c f1 63 34 a1 3f
       0.19082596137918853 0.033602832072930876
000510 d8 c2 6f 78 67 62 95 3f 25 c9 2d 9b 8b e0 91 3f
       0.02088319466196506 0.017458134981503854
000520 10 e0 ed 42 3c 02 b2 bf 79 7b 8e 49 19 2c cb bf
       -0.07034660943998028 -0.21228328792218656
000530 f4 5a ba b1 ac f8 ad bf 13 ce ce 0e 54 7d c2 bf
       -0.05853786153345722 -0.14444971774138135
000540 06 5d ff 0b 42 99 68 3f 27 aa 2d c9 94 51 88 bf
       0.0030027666070783247 -0.01187435378024755
000550 77 90 74 1c aa de c6 3f d2 f4 df 7f 7a 72 a7 bf
       0.17867018117351893 -0.04579527674648322
000560 44 6b b3 55 73 ee ac bf 0b 67 e0 16 ff ef a2 bf
       -0.05650673314240476 -0.03698727754836114
000570 d3 6e 89 6a f6 31 93 3f 19 f1 3f 4b 44 dc a0 3f
       0.018745279552929994 0.03293050211502386
000580 f7 56 dd b2 dc cd c6 3f fd 63 30 44 55 fc c2 3f
       0.1781574128496499 0.1483255942301013
000590 10 bc 47 4c 8f ce c0 bf 71 cf 47 13 3c 6f a4 3f
       -0.1313037035428981 0.03991115317685868
0005a0 35 19 58 9a 5a 43 a2 bf 65 04 d8 71 c4 78 bb 3f
       -0.03567011961063075 0.10731151370420518
0005b0 74 b8 a7 4c 7f e0 c5 3f 9a 7a 86 82 9d f6 c8 3f
       0.17091361277511263 0.19502610085779254
0005c0 2f 94 32 2d c3 cf a0 3f 0a 49 51 6a 40 38 c7 3f
       0.03283510138252443 0.18140416327748482
0005d0 76 48 64 f1 dc d6 be 3f e5 6c 1d 34 2d 5d a9 3f
       0.12046605008461761 0.04953900586289154
0005e0 9a 08 4d 61 5a 88 63 3f f9 9e 43 cc d5 1d c7 3f
       0.002384354137036371 0.18059799646220379
0005f0 f1 9f f0 ac e0 cc 8c bf 02 54 81 cd bf 99 bf 3f
       -0.014062648084362169 0.12343977706161982
000600 af 4d 2b c2 b8 7e a7 bf 7c 0f 4a 11 8b d3 91 3f
       -0.0458886849425214 0.01740853589082246
000610 70 a6 74 ad dd 76 ce bf df ab 96 87 48 2c be 3f
       -0.2380025002433288 0.11786320982234554
000620 69 92 66 29 18 77 c7 3f 68 7c 44 a5 37 fc c2 3f
       0.18332197209851422 0.14832206315711294
000630 74 cd f5 82 c4 48 d1 3f d7 5d aa 93 91 9d c9 3f
       0.2700663832576631 0.20012111387471407
000640 59 17 ad 19 fb 6d bf bf 28 51 97 8f fb 2c e5 3f
       -0.12277192475184275 0.6617410473359415
000650 0c d7 4c fa a5 10 c5 bf 47 ea e7 87 c7 65 cd bf
       -0.1645705673378689 -0.22966856132537058
000660 ed 2e 92 28 3a ed d0 bf c1 60 de 20 3e df bf bf
       -0.26447919809355264 -0.12450016310174573
000670 91 4a 07 fd 6b 83 8a 3f 1f 7f f0 2a 0c d7 b0 3f
       0.012945979747120336 0.06578136490179219
000680 7f 5d 49 8b 3b ff d2 bf 20 77 a1 61 14 0c b4 bf
       -0.296828161260656 -0.0783093202930698
000690 ca 2b e1 35 70 1f 77 3f 4b 8d fe cc 43 fb 74 bf
       0.005645216295373021 -0.005122437330928274
0006a0 f6 49 12 cd 96 8a 8f bf 47 a0 a6 77 51 76 ca 3f
       -0.015401056416782116 0.20673578588798788
0006b0 09 ab f0 49 33 01 b3 3f 8d 89 6a a4 61 3b c8 3f
       0.0742370658414694 0.18931217697270278
0006c0 40 cb ee e6 d6 7e d4 3f 0f ab 9d 4f 0c 1d 80 bf
       0.3202416663363472 -0.00786790483444613
0006d0 80 53 bf 66 ae d5 99 3f bd 1f 92 6a 78 c1 c7 bf
       0.025229191800309803 -0.18559174731876552
0006e0 a1 8b 21 4a 7b f5 d3 3f 5c 33 c5 08 8b 48 a3 3f
       0.31185800780638756 0.037662834950060925
0006f0 0f b9 61 f4 a8 5f bd bf 75 88 62 b5 c4 71 ba bf
       -0.11474090544081526 -0.10329846790640025
000700 0d c5 61 c1 80 9f c8 bf 25 d7 1f a0 77 d4 bc bf
       -0.19236764376140805 -0.11261699351583994
000710 53 0c ae 5c a3 e1 99 bf bb 92 3c 02 11 72 ba 3f
       -0.025274803668718992 0.10330301575283844
000720 a4 9b 8a 11 88 86 d5 3f e9 17 c5 e5 3c f7 bb bf
       0.33633615220099444 -0.10924130067459682
000730 79 71 aa 1a 00 c6 c1 3f 67 81 44 e4 36 e4 c7 3f
       0.13885499288597794 0.18665205140952
000740 1d 03 28 e3 14 ff bf bf 07 11 4a fa 3f 2d 99 3f
       -0.12498598619277997 0.02458667721886434
000750 37 36 95 f2 d4 57 bc bf 27 b7 6b e7 b7 6f d0 bf
       -0.11071520731385297 -0.2568187484711068
000760 cc f4 18 be 9a f4 cd 3f 76 24 48 bd f3 d4 e1 3f
       0.23402723581413054 0.5572451302442818
000770 30 a9 49 bd b0 be bb bf 55 d7 42 e9 f4 36 a0 3f
       -0.10837845441134131 0.031669286226515915
000780 c8 56 a5 da 59 83 bc bf 43 b1 39 37 ac 9d e0 bf
       -0.11137925708802776 -0.5192471579189618
000790 7d 49 a0 b7 1b 90 d4 bf 95 1d ae 18 34 d0 8b bf
       -0.32129567081678784 -0.013580710414102618
0007a0 0b 39 dc 5d a6 2d 85 bf c7 d8 02 1c e7 e1 d1 bf
       -0.01034097646654832 -0.2794130109354111
0007b0 ba 66 bf d9 5d c7 d0 bf 50 f6 58 8b 65 0a de bf
       -0.2621683718149189 -0.4693845616164696
0007c0 fe dc de de 77 86 8c 3f aa 6d 0b 93 32 83 b9 bf
       0.013928352822274889 -0.09965816583592493
0007d0 1a 79 a9 de e1 87 cc bf 53 62 c9 d3 0e 17 bf bf
       -0.2228967988220994 -0.12144558592388792
0007e0 13 23 5a e2 fd 86 91 3f 5f f7 73 f9 ea 6e c0 bf
       0.017116515102801943 -0.12838494472810688
0007f0 5e 3b 3f 5c 18 11 95 bf 44 83 3e ad a1 df 92 bf
       -0.02057302535086635 -0.018431211661325678

lstm.bias_ih_l0 f8 [256]
000000 36 a3 2d b9 30 c9 e7 3f 29 5d 74 75 6e 08 e6 bf
       0.7433093659175032 -0.6885292333635437
000010 20 6c bb 64 c4 47 e3 bf cd 7d 07 ea 7e 3c f2 3f
       -0.6025106398986999 1.1397694722908114
000020 03 8d 67 64 16 ec e8 3f 7a 16 b9 d7 83 db c7 bf
       0.7788192711854268 -0.18638656648015567
000030 9f 1b a0 d4 50 0a c2 bf 5e 5a 07 dd c8 ab d0 3f
       -0.14093981153584154 0.26048490128360935
000040 6c 51 8a aa 94 bf c1 bf 99 c5 ae 3c cf ee f7 3f
       -0.13865907981074643 1.4958031053941794
000050 14 26 e4 1b f9 38 c5 3f 39 d7 26 f7 8a 0e e6 3f
       0.16580118047595305 0.6892752482587873
000060 c2 b6 c5 d6 b4 f9 c1 3f a6 90 f9 c1 96 3e d5 3f
       0.1404329346363991 0.33194512312753444
000070 9a 3e af ea f1 34 a6 bf 15 91 7c 49 02 0b b4 3f
       -0.04337268819619773 0.07829298299890682
000080 bb 77 6c c4 56 b4 cc 3f 8b 07 66 dd 8a 47 d1 3f
       0.22425350752831527 0.26999160405113604
000090 c2 ed 05 1a 18 e3 c6 bf 86 34 95 f7 fa 9b cf bf
       -0.178805363375302 -0.24694764222150328
0000a0 fd 6c 4d 0a 00 8d e3 bf 8b a4 e4 5c 87 2f e1 3f
       -0.6109619332522979 0.5370518507308061
0000b0 1d 80 77 c5 bb 40 d2 bf 85 35 d9 10 c9 8f cd 3f
       -0.28520101817957927 0.23095048258475628
0000c0 0f f3 f7 d9 31 66 b3 3f f4 12 54 02 27 e7 d9 bf
       0.07577811786172738 -0.40473342158683967
0000d0 94 d4 c7 f5 1d 43 e2 bf 09 82 3f 11 ff a3 da 3f
       -0.5706929970171069 0.41625954326994524
0000e0 30 02 f1 67 25 4b d7 bf 40 90 1b a8 d4 0c c1 bf
       -0.3639615550091859 -0.1332040615881187
0000f0 dc 8a 71 cf 13 6e e3 3f 23 7f 18 6c 48 7d c4 bf
       0.6071871806746816 -0.1600733306704508
000100 b8 5e e0 c1 80 5d b5 3f 68 7d 23 ac 8b 62 c5 3f
       0.0834579919177213 0.16706987290579467
000110 b4 57 3f 80 ea 12 c3 3f 3d 5e 57 66 9d 19 d0 3f
       0.14901477109986916 0.2515634059359149
000120 f1 cf b3 e0 57 9f d4 3f 82 7f 9b 1b 78 f6 df bf
       0.3222255415305418 -0.4994182843784004
000130 37 81 7f 4a b0 19 0a 40 62 2b 13 d0 89 c2 bd bf
       3.2625432796632157 -0.11624966936066763
000140 ce 79 c0 79 f7 e2 c5 bf d1 ab 63 6a 17 36 74 bf
       -0.17098897404589625 -0.004934398142931466
000150 63 da 4f c1 6d 35 cb 3f 5c d4 dd d5 b7 ee c4 3f
       0.21256801547106638 0.16353509848309755
000160 a1 13 f8 81 45 1a 01 c0 62 de 0f 1a 1e 7a da bf
       -2.1378278879005426 -0.4137034658919899
000170 a8 64 cd cf f2 57 c4 bf 38 de d3 8f 28 70 b2 3f
       -0.1589339747104408 0.07202390204826592
000180 38 2f c2 5c 2d e8 5c bf 9c 21 63 da 88 8c aa 3f
       -0.0017643397323209974 0.051853443773839575
000190 a1 33 48 e0 80 50 e6 bf c1 b8 e0 53 fc 28 d7 3f
       -0.6973270779140998 0.36187656584924005
0001a0 cc 5f 04 de 25 a9 c1 3f 0a 43 7e 58 9b 48 cd 3f
       0.1379744848316008 0.22877828427274266
0001b0 a2 a3 00 23 6f 91 d7 3f 07 32 02 57 26 f1 b6 bf
       0.36825159471714575 -0.08961715339882668
0001c0 a2 73 85 dc f0 1a db bf 45 05 d1 98 d1 e5 c4 3f
       -0.4235193398979452 0.163263511292863
0001d0 c4 26 c8 08 e1 89 d8 3f 53 d5 a1 09 ec ba c0 bf
       0.3834154687652751 -0.13070440740890862
0001e0 b1 29 d6 db 46 1b d6 3f de b8 01 99 34 d5 ae bf
       0.3454148432580509 -0.06022037856824779
0001f0 a0 18 ef 6b 8d 8b a6 3f e6 0a 1b de be 54 b9 bf
       0.04403345053246821 -0.09894936487675529
000200 20 6b 90 7e 7e 14 d2 3f 5f e2 93 e1 0e e6 c8 3f
       0.2825008617380025 0.19452081694159326
000210 92 de 8b 30 5a a5 c4 bf ff 08 95 31 53 b7 f3 3f
       -0.16129615183284735 1.232257074051233
000220 9d 44 48 39 5a 60 bf bf 8d ae 6b cf 8c b7 d1 3f
       -0.12256397150510386 0.2768280053703414
000230 46 6b d5 f7 cc 86 a7 3f fd a0 28 db 2e 76 a8 3f
       0.04595032239259082 0.04777666497494868
000240 2d 2c ae 17 40 e8 9b 3f cd 82 c9 23 bb 91 e2 3f
       0.027253152318319863 0.5802894305198493
000250 01 93 12 e7 bf 23 9b 3f c4 e1 bf 0c 58 ba b8 3f
       0.026503561476277863 0.09659338294284853
000260 4a 5b b0 ef a8 f3 d8 3f 78 33 6d 71 35 f5 c6 3f
       0.38987182051771596 0.1793581775513322
000270 9b 5c b3 69 a5 ee d4 bf 79 40 45 6a 8e 74 cd 3f
       -0.3270658046944363 0.23011951626768104
000280 ae 25 0e d8 6d 88 cc 3f ce 73 38 e8 c4 06 a8 bf
       0.22291348504613268 -0.046926644656401714
000290 9d 72 c2 63 cb d2 a6 3f 9f 67 66 b2 0e fa c0 3f
       0.04457698433654864 0.13263114653528604
0002a0 f8 0b 65 e3 c0 da c9 bf da 2a 0a b3 46 52 c1 bf
       -0.20198832610375894 -0.13532336942838336
0002b0 2f ea 5e c9 f7 9b ed 3f c7 01 d0 f0 05 0c b5 3f
       0.9252890522978471 0.08221470956050957
0002c0 ed 52 93 d6 b1 cf a0 3f eb 81 6c 3b 56 5a bf bf
       0.03283458465890541 -0.12247218085077065
0002d0 7a 7c de 40 15 78 e5 3f fa 60 79 26 73 9e b2 3f
       0.6709085719084122 0.07273025216398202
0002e0 2b 4d 15 4d 82 ca c1 bf 64 fe 45 d0 aa ad bb 3f
       -0.1389925838835578 0.10811870178985711
0002f0 ce 50 10 7d 01 ac de 3f 7c bb b0 3e db 6f d3 3f
       0.4792484017682569 0.30370217439752145
000300 a3 16 c8 bb ef 78 bf bf 17 55 2a c9 e8 84 b3 3f
       -0.12293909391891104 0.07624678527129834
000310 43 3a fa 1c cd 76 cc bf 08 65 48 b7 46 60 bc 3f
       -0.22237552561678528 0.11084405874898462
000320 22 b4 4b c9 e2 b9 70 3f d2 c0 a8 a7 b1 5f 01 40
       0.0040835245933808235 2.171725568616332
000330 00 e9 5c d2 46 e0 f6 3f 9f eb 20 fe 4b 73 75 bf
       1.4297550408651318 -0.005236908766216879
000340 af 6f fe 2c d8 f6 86 bf 16 60 64 31 ea 25 c9 bf
       -0.011213005898575405 -0.19646956836436463
000350 81 19 95 ba 0e 23 d3 bf cd 9c 30 45 5f 1a e0 3f
       -0.2990147420972776 0.5032192565312471
000360 3c 12 d9 9b 04 25 f0 3f bd 4e 99 3e eb 96 bb bf
       1.009037598401064 -0.10777159002582955
000370 8c a2 06 eb af 5f bf bf 29 fd fb fe a7 4a c6 3f
       -0.1225538204950089 0.1741533274689371
000380 31 04 96 1f b2 d7 e2 bf bd 83 6f 9c b9 0e e8 3f
       -0.5888300530351726 0.7517974906332864
000390 b7 9a 84 dc 57 5f 0d 40 ad a6 06 7c 0d 1c ac bf
       3.6715543010680807 -0.054901524915590506
0003a0 e9 d0 0b 8e dc 91 e1 3f 8f 33 68 f6 ba 21 ae 3f
       0.549055364068889 0.05885109193704984
0003b0 e2 ed ab 6d 04 fa c2 3f eb fd 03 8f be 58 bc bf
       0.14825492243822597 -0.11072913161841995
0003c0 50 7c 4f 5c ee f4 bf bf c0 1d f3 2c ce ee bc bf
       -0.12483110192941749 -0.11301888081935996
0003d0 a8 01 2d 61 c1 21 d2 bf 42 74 ea ea 53 d4 a6 3f
       -0.2833102654440389 0.04458868258118588
0003e0 12 89 55 0d a2 77 a7 3f a3 d4 f7 cf 70 5d a0 3f
       0.04583460247774175 0.031962895762185604
0003f0 8a 3f bb 33 b6 8e ca bf 44 b3 77 3a fa 6c 6d 3f
       -0.20748021627377639 0.0035920035622808728
000400 a0 26 a0 ea 6b 19 c3 bf 9b 11 6a 8a cf c3 da bf
       -0.14921330410316092 -0.41820133702301526
000410 db a0 3e 03 49 c5 f2 3f 2a d3 c7 ac 9d c2 ed 3f
       1.1731653334373309 0.9300068258877208
000420 c7 68 5e 79 7f 44 c5 3f 1e 70 39 bb 12 2e c6 bf
       0.1661528914090182 -0.17328104154410168
000430 c7 8a 3f c0 09 8a a7 3f 94 7c 08 a9 24 1c cd 3f
       0.04597502204685138 0.22742136243411848
000440 0c d4 00 0a 9b fd e0 3f 69 be 96 8a 72 90 e8 bf
       0.5309577174544997 -0.7676327425778712
000450 f0 6b 5d c5 4e a9 cd bf 40 cb 15 e0 60 a6 e9 3f
       -0.23172936093291652 0.8015598656332728
000460 41 5f 00 31 5c 02 c0 bf 59 e5 bb 6e f5 19 ca 3f
       -0.12507202522896857 0.20391719729358718
000470 8b 78 6f 9f c4 fa bd 3f c9 ad 90 55 66 36 cb bf
       0.11710766689745548 -0.2125976484106629
000480 c5 9d 2a 05 f2 e4 e5 bf 75 fc 42 61 f5 e0 b0 3f
       -0.6841974354655852 0.06593259453346596
000490 d1 f0 ab a6 03 7e b9 bf e0 d0 6b 09 90 2c c4 3f
       -0.09957907504207532 0.1576099439622629
0004a0 53 b5 29 19 bd 88 c2 bf 86 6b c6 76 f2 fe cc 3f
       -0.14479793289812423 0.2265303688007771
0004b0 fc 6f a9 9e 3f 71 b3 bf c2 c8 e9 ad 9d 6d cf 3f
       -0.0759467851980275 0.24553271285873818
0004c0 b4 4f e0 64 9b 12 b7 bf d8 53 06 43 26 45 b6 bf
       -0.09012767041013953 -0.08699263702722193
0004d0 e9 31 32 a9 7e 5d b7 3f 11 73 8a b9 39 d2 e1 3f
       0.09127036696208503 0.5569122909397227
0004e0 1d bd cb 36 73 1d c6 3f 99 73 85 74 88 c6 c4 3f
       0.17277374435023143 0.1623087471915852
0004f0 0a 97 41 ba f8 a0 84 bf 7f 7d 5b 05 af 3f 74 bf
       -0.010072653946007221 -0.004943545985696018
000500 ac 8f 69 4a 9f e2 c9 3f 03 85 b5 86 6a f3 ce bf
       0.20222846158423857 -0.24180347039786207
000510 c8 01 37 8c 44 a6 a7 bf dd e3 4b e4 5f 72 b8 3f
       -0.04619039737326919 0.09549521754878705
000520 ce cc 41 1b 49 48 c3 bf 1f ad ff 85 9f 4c d0 bf
       -0.1506434805956815 -0.25467670522512437
000530 cf ec 50 b5 31 d2 d3 3f ae 1f 85 7d 20 d0 c4 3f
       0.30970423418666554 0.16260152939707723
000540 03 ae 1d d8 0a f1 77 3f 14 ec 35 c9 6e 3f b0 3f
       0.005845110283057678 0.0634679070698641
000550 9a 2d 11 3c 96 4d ad bf 58 d6 06 c1 a6 af f4 bf
       -0.057232565719995424 -1.2928836383920466
000560 5f 37 71 ea 41 b8 e0 bf 05 96 f9 d0 1b 23 c9 bf
       -0.5224923685980051 -0.19638393119673495
000570 ef ba 87 86 bf 5f be 3f c7 80 c4 1c 2c 1e b8 bf
       0.11864850077084176 -0.09421039297422161
000580 56 3b 0b 13 61 7a c4 3f 35 b0 99 a3 c9 52 e9 3f
       0.15998471670033138 0.7913559146231878
000590 6c 6b 08 2b 55 74 f2 3f 30 06 93 2d b5 67 c9 bf
       1.153401535126899 -0.19847740865047703
0005a0 79 5e d7 ff 57 82 e3 3f 26 3e 82 13 ed 06 eb 3f
       0.6096611019992927 0.8445954686193928
0005b0 0f 24 67 e6 9a 33 d8 bf 99 0c 1f f2 8b d6 d6 3f
       -0.37814972400934804 0.35684488911301454
0005c0 44 bf 1c b0 59 75 b1 3f e1 48 b9 1c 92 5d dd bf
       0.06819687413803616 -0.45883610539489267
0005d0 a1 c8 0a 68 31 06 9e bf 6c e2 04 39 3e 96 f5 3f
       -0.029320499396540915 1.3491804339702425
0005e0 2e 74 a8 f1 cc b3 9b bf 65 3f 40 1c 66 08 af bf
       -0.027053072213778666 -0.060610953281979
0005f0 45 21 d1 b9 43 6d b8 bf df 76 56 67 6c 1d ab 3f
       -0.09541724478288412 0.0529588581223217
000600 e6 07 f5 c8 3e 9f c1 3f 82 ff f3 23 e5 d1 c0 bf
       0.13767227947579314 -0.1314054894974071
000610 3a 79 6a ce 36 c9 f3 3f fd a3 d2 14 88 95 c0 bf
       1.2366245329972814 -0.12956334130038263
000620 2f a9 c3 24 4d d5 a5 bf 87 87 d4 4e 11 49 c2 3f
       -0.04264298509390795 0.1428548464692165
000630 8f b9 c6 d1 7c ec bb bf ac ec 65 23 16 91 d1 3f
       -0.10907726403704586 0.2744803758320795
000640 35 83 70 22 5f 24 e1 3f cd 2e de 83 43 25 c3 3f
       0.5356898949286008 0.14957469881880173
000650 08 aa 6b d3 d3 f7 d3 3f 1b 68 66 1d f9 2c df 3f
       0.3120011868146837 0.4871199404821042
000660 30 4b 9e 39 ca 21 df 3f 73 18 51 6f d9 64 a7 3f
       0.4864373743704844 0.04569129451606182
000670 f9 c9 cd e5 e6 61 d7 3f e2 4b 5f e8 7b ca af 3f
       0.3653504604509688 0.062091705432656644
000680 31 0e 84 d2 6b 27 c7 3f 62 b0 9c 72 83 82 dc 3f
       0.1808905389699347 0.44546590988716706
000690 80 35 92 9d 1a aa d1 bf 04 c4 f6 0c e3 80 d1 3f
       -0.27600732219510604 0.2734916330910553
0006a0 13 f6 54 6a 0a d5 cd bf 61 d0 76 b4 e7 bb 97 bf
       -0.23306398574816053 -0.02317773856130179
0006b0 68 15 24 cb bf a8 f1 3f 5f 4c d7 d4 52 a5 e4 3f
       1.10369853355345 0.6451810986567458
0006c0 ad 10 16 3b 6e 91 8b 3f 32 04 af 6d 6e 4a d7 bf
       0.013460980585257987 -0.3639179297570677
0006d0 13 75 40 03 bb 9c cf bf 56 59 00 cc 24 4b c2 3f
       -0.24697053583887704 0.1429182048893362
0006e0 0e 8a 5e 89 5d d8 b1 3f 3a 9e b7 82 9c 10 ba 3f
       0.06970772365324526 0.1018159693845683
0006f0 4f 18 ed b0 3d 9d c3 bf 41 39 29 d4 53 8c c6 bf
       -0.15323611391994738 -0.176157454103711
000700 ca f3 8a c0 ef 84 b5 3f 36 68 dc 88 11 ac 81 3f
       0.08405970049621128 0.008628975857892223
000710 cb bb 66 c0 f6 eb a9 3f bf 5d 1a 5c 9b 6b b4 3f
       0.05062838648461073 0.07976695059402682
000720 19 7f 56 16 31 e3 e3 3f fd 18 e9 a0 0a 7f e6 bf
       0.6214833675657899 -0.7030079977783142
000730 27 5f b9 ae 14 52 d0 3f 25 c9 9f 08 34 79 df bf
       0.2550098139085883 -0.49177265970424094
000740 1d a6 17 9f a9 0c a9 bf 60 6c 8c 65 72 3c e1 bf
       -0.048924732847648957 -0.5386287673349095
000750 f6 c8 2e 64 d0 cf ce bf 41 2c 86 b7 98 69 b0 bf
       -0.24071698085533172 -0.06411127548760566
000760 94 79 a1 e2 c3 8e dd 3f f2 5b 0e 93 d9 4a c5 bf
       0.461838694876769 -0.16634673767541092
000770 66 a2 6b 6f c8 6e b6 bf c6 c6 16 dc b9 bc d6 3f
       -0.08762791366792441 0.3552689217859605
000780 ee cc a0 b3 c2 73 d9 3f ae 3b ff bd a0 5b ea 3f
       0.3976904634648254 0.8236850462798111
000790 46 d1 a1 54 b3 75 10 40 ed c4 f3 d3 66 32 c7 3f
       4.114941904427104 0.18122563695172947
0007a0 56 d1 ab 24 92 77 e0 bf e0 b2 e3 ee 6d 5b db 3f
       -0.5145960537179615 0.427455409327008
0007b0 7f fb 9a 44 6b a0 a7 3f fa 19 cb b4 70 68 e2 3f
       0.046145774960215206 0.5752490550156033
0007c0 3e e3 52 d9 cb 93 c7 bf 60 ae 25 95 f8 aa da 3f
       -0.18419788466942494 0.41668524327426404
0007d0 38 9e d8 52 00 b9 d9 3f d3 33 e0 4a dd 04 ef 3f
       0.40191658106275296 0.9693438017289914
0007e0 82 e2 a6 4c 9f f4 9b bf e9 bb 8b a2 17 8a c8 bf
       -0.02730034737916976 -0.19171424328621292
0007f0 77 73 36 80 0b ef d5 3f ac 3b 77 7f ec b3 d7 3f
       0.3427151443555014 0.3703566784651524
