sequencetest_target_franka.pth (torch, 264803 bytes, 6 tensors)

lstm.weight_ih_l0 f8 [200, 112]
00000000: c48c 9b8c ec8a 97bf c588 90ac e4af c1bf
00000010: 42a2 0c06 8bac 55bf 1238 5deb 0997 9d3f
00000020: de31 4807 7bd0 bfbf 3723 4462 16bb b4bf
00000030: 4445 393c 15c6 b33f faa3 5945 1ffe b0bf
00000040: 46dd c1ed 4f59 b33f 82a7 a1c4 8e43 b2bf
00000050: a232 98c2 6e09 a9bf cc88 0836 d75f b33f
00000060: b2a9 e0c6 9dba bebf c9f5 7109 63cf bbbf
00000070: 2365 d84e 73cb 883f 23cf c53a cdc1 a23f
00000080: b5fa 95b3 e6f5 b1bf 82aa 2d72 27c2 b0bf
00000090: 890a 4d75 ac96 bc3f 9859 2f96 8c0e bf3f
000000a0: 8dab 439c f986 64bf 9826 f7c1 89dc bdbf
000000b0: 18d9 51d0 3e29 a5bf 4d1a a225 1ee5 a9bf
000000c0: 9138 c130 b41c aebf 7cbb d916 47a2 be3f
000000d0: 3434 6c7b 0dd2 b33f 05b8 5d91 2482 993f
000000e0: b3bc 29e9 1401 833f b29f b4e6 605f a73f
000000f0: 7d52 1ffe a495 923f c447 3b40 1809 b5bf
00000100: 7857 ae6c 67d8 ab3f 8e0e 070f 95f3 543f
00000110: dda4 0e89 39af b2bf da9d 4766 398f 76bf
00000120: c736 c715 846b acbf 556c 54cd 7478 38bf
00000130: 1857 e282 a653 92bf 6d06 fb38 6c79 933f
00000140: 3d44 97dd e3df ad3f 395b 41aa 0e31 a53f
00000150: 2261 b6e1 99d6 833f f8f0 5286 f4d1 51bf
00000160: 60a7 62fd 372e b9bf fb85 fd01 fcfc bcbf
00000170: 35d7 4b14 6d64 213f dc4e d5ec 9d7e a53f
00000180: 58d9 b9d0 6ebf 52bf d2f2 59b2 4221 c1bf
00000190: 3bf4 8fdb 1183 b03f 9e51 acb4 e310 b1bf
000001a0: 61aa 0f68 77e8 b93f 5d69 107b 8514 8d3f
000001b0: 1762 e871 e086 b9bf cc70 3b01 8461 b0bf
000001c0: f3fe 4ab3 9364 b0bf 2d8b 9318 6658 c0bf
000001d0: 5167 c49c ec1b be3f 1063 f65f cf66 b53f
000001e0: 2076 19ab 313b a73f 3e6d 2921 18f6 b0bf
000001f0: 24ea 7bde 0610 bebf 4a24 6146 939c b3bf
00000200: 7495 76fa 9ca8 bb3f f4f9 50c5 34e0 b8bf
00000210: fcb7 882c 0374 babf 250b 09bc 4178 85bf
00000220: ed54 07e6 dc35 aabf 8a41 a4b4 200a bcbf
00000230: 3848 69f3 8a13 a3bf 551f 2b5e 2b56 aebf
00000240: e76f b383 2693 9ebf 5ab6 8db5 117f b6bf
00000250: 5d77 e5d5 f3a6 b73f fd7d db17 175b c0bf
00000260: 9c79 467b 10e6 b7bf ce5c 969c c62b b4bf
00000270: d096 e7b4 ace8 abbf 2c37 bc21 b5ac b4bf
00000280: 6c06 d597 8481 bbbf 941e c284 21af babf
00000290: 9ef6 6228 f344 bb3f bec3 835d 0900 b63f
000002a0: 0248 f2cb ed93 3ebf 6ad2 63b8 2140 afbf
000002b0: 62e1 98c9 3c79 953f 3daa 2c08 56f1 b3bf
000002c0: 4490 57c6 faae 883f bb97 dc11 28bf be3f
000002d0: d281 f92d a696 aabf 733b 3a8e 391d a63f
000002e0: 3bb5 f132 e9d1 9fbf b960 6445 104b b1bf
000002f0: 1b2f 9f3f 71b2 b2bf a61e 0d83 8650 b8bf
00000300: 48e9 0cfa f299 a8bf 6425 635a 4bf2 b8bf
00000310: f1e5 bc04 9aa4 903f a084 c406 b0d3 b13f
00000320: 38f2 e35f c3f9 c13f e904 c549 a582 b6bf
00000330: 10fb 3adf c317 b03f 73c3 65c2 6297 c0bf
00000340: 5b1c c0ff 584c 983f 1288 d633 eb30 943f
00000350: e32e 2e54 a1ce 943f 1ccd 4eee 2380 b63f
00000360: 4f00 f679 0f17 80bf 7e82 8756 f658 ae3f
00000370: 935b 08f2 5710 a7bf 2201 f477 36b9 af3f
00000380: 35dd 2e45 2a3c b7bf 10d8 d4d5 7855 c1bf
00000390: 8377 68fa f60c b2bf 360b 2d0c 572f c3bf
000003a0: 6ade 8401 10cb be3f 5403 dd53 622b b6bf
000003b0: 828f 3529 d8f5 b03f 31a4 c2ff 18e1 b5bf
000003c0: 6417 12b7 2e80 c33f 616a 02df b142 b13f
000003d0: c3bd 99bd f92b ab3f 9ae5 11ea 89ed 85bf
000003e0: b070 583b 33ec a63f 889c 7e51 93b3 b53f
000003f0: 908d b083 09fa babf 21e7 60ef 3e63 aebf
00000400: 381a b1aa 774c b53f cf8f 7e0f a39e a4bf
00000410: 48a6 be0b 64dd b8bf b5c7 c0f8 fe00 bd3f
00000420: edb6 ca5d 635b c23f eb25 5745 667f b6bf
00000430: 2a67 de99 8c1a b43f 40cb a7e8 d3f8 b13f
00000440: eded 981b dff5 86bf 1b99 8d90 5b78 a5bf
00000450: 31ba 8755 e458 76bf a3ce 2860 e820 9c3f
00000460: 11ec c740 3f37 b2bf fbdb 794d 801e bb3f
00000470: fe47 a0eb 920a b6bf cd7f b1d8 eb00 c03f
00000480: 8641 a319 3f74 823f 5009 f6fc 1184 bf3f
00000490: c232 aaf7 3724 bdbf a390 5abf 6db5 a03f
000004a0: a9a6 c8e9 dc5c ae3f 0664 1876 1e2f c2bf
000004b0: fef3 4580 0b41 71bf 5017 9b7a 6f10 aa3f
000004c0: 7b65 7745 5e08 bd3f 019d 0136 119d bb3f
000004d0: 9a47 ce8f bea1 87bf b804 b95e 040b a1bf
000004e0: 52b3 652d 516c 9bbf ecf8 830f bd23 b33f
000004f0: 48f2 a535 89dc 8ebf c8ef cc45 8073 b93f
00000500: 8fca fbbc dbea b83f e68d 38e7 dafc bbbf
00000510: 37f2 69ab 7e88 bcbf 2550 8add bb27 3fbf
00000520: dd20 2c11 7673 943f d907 a55b 0caf 65bf
00000530: a37b a0bf 4c9f a13f 8b01 0ad4 e52c 6f3f
00000540: c7f8 1626 1607 afbf 3628 1dd8 9126 a33f
00000550: 873c acc8 d1d5 a93f 58d1 b427 3cc7 b9bf
00000560: 834a e6da 18fb ab3f b88b ef9a 854e a33f
00000570: ed5f 451b 4c65 763f fd78 02d0 a9ca b2bf
00000580: 8450 2ce1 214b b0bf bf4a 8141 356b be3f
00000590: c380 d612 e402 91bf 8a49 bd15 81ea b6bf
000005a0: 7a4a d98f 79ef b4bf 6324 d483 fd94 bd3f
000005b0: eb27 75fc fdbe 953f 594b 294d ab75 733f
000005c0: e619 ffe6 dbad c03f 65dc b60c 3206 c1bf
000005d0: eed2 15e6 4683 bd3f 8af2 055e 43df 393f
000005e0: beb0 e920 ac68 adbf b1a0 87f2 2630 9e3f
000005f0: 8f96 cf0d 9424 a9bf 12d6 a013 4071 973f
00000600: 3e94 428a 0a37 b63f d990 32ba 9194 b7bf
00000610: 4984 87a9 0abd 803f 518b 2d4f 2966 acbf
00000620: 79f8 31cc d00b 78bf 8ca9 0d71 a965 86bf
00000630: 3740 4f07 8a3f a73f ef55 95d0 f4a3 ad3f
00000640: 40f8 dc12 039c bebf 2e62 71a5 899b b7bf
00000650: 2793 e70d a439 c03f e517 3ff7 a491 bcbf
00000660: 0b69 2847 8552 8b3f d442 98dc 6627 6b3f
00000670: 9319 036b 7bee 83bf cdd5 ace5 f5de a8bf
00000680: 85b2 ba2d f6dc 96bf 0a5d 04a5 ddd8 793f
00000690: d538 949c 55a8 aa3f e56d c694 15ff a5bf
000006a0: 7ca6 a213 4489 b9bf ac6f ec63 f476 b9bf
000006b0: 64c1 daff a2ef b83f 1223 db12 b762 933f
000006c0: 35a6 b49e ad5b b63f c486 e253 6e1a a33f
000006d0: aac7 650b 5657 be3f f9f1 da07 4591 923f
000006e0: 3697 754e 1df2 c13f a521 0bae 9ac4 9cbf
000006f0: af54 24ad 7674 c13f 096f 39fe 3486 9d3f
00000700: 3e1e 1b5e 8d32 a93f 1897 3374 0804 bcbf
00000710: 732f 935e e9f0 b53f 6dfb f089 1200 a63f
00000720: 6a1f b272 a23f 833f 75a5 fb48 bc3f bdbf
00000730: 7fe1 a42d edcc bb3f 0f76 4111 22ee 94bf
00000740: 59e1 0c4b ba6a b33f 6d47 5297 980c b0bf
00000750: e610 7d84 4727 a7bf 92cd e662 91d8 b3bf
00000760: 0dd3 b7fe 34bf 7e3f 9bc5 22f8 7f30 bebf
00000770: 1dca 2dca 009b b83f 0713 69db da97 9b3f
00000780: 4c37 4f03 df3c b03f 00d2 d456 6955 923f
00000790: b8b2 1495 7e81 afbf c910 4d41 c52b bb3f
000007a0: a25d 367c 3539 bf3f 0028 645d 8ea3 b8bf
000007b0: e13a f451 f4f9 9cbf e1ae 09f2 0dc7 93bf
000007c0: dd62 552e 556b a73f e83c 504e b069 82bf
000007d0: 03a8 1656 24f4 b33f a384 a5d9 49d4 a63f
000007e0: c99c d58b e7c7 b93f 377c 3ced d168 af3f
000007f0: 803f 64d2 3e2c b6bf 1505 5e89 bd61 b73f
-0.02299089058113847 -0.13818033624654028 -0.0013228757527007505 0.028896479597555987 -0.12427491119178266 -0.08097972773624638 0.07724125595384118 -0.06637759631270504
0.0755815463506809 -0.07134334850857552 -0.04890009046002787 0.07568116254018092 -0.12003503899965187 -0.10863322239489216 0.01210680088392963 0.03663483946266257
-0.07015840420170145 -0.06546255624349764 0.1116740976695302 0.12131575266480465 -0.0025057673648140656 -0.11664639459118076 -0.0413303021713764 -0.05057615479841058
-0.058812743140706954 0.11966366107820464 0.07742389930008714 0.024910518047754255 0.009279406896182207 0.04564955536108019 0.018148973474881636 -0.08217002456811345
0.054385406510092105 0.0012787776614552634 -0.07298621746180652 -0.005507683007159392 -0.05550778165671271 -0.00037339068997405595 -0.017897226084264778 0.01901787851125507
0.058348770904224946 0.04138990238487001 0.009686662865349197 -0.0010876548706582594 -0.09836149154821561 -0.1132352356776422 0.00013269263776976575 0.04198163524656959
-0.0011442739659322711 -0.1338275309425599 0.06449996576698507 -0.06666396294560292 0.10120340624386294 0.014199297731512567 -0.09971430569601868 -0.06398797063906442
-0.06403468253392557 -0.12769771766678542 0.11761359050106292 0.08360000698884229 0.045373489509739295 -0.06625510034193824 -0.11743205005397123 -0.07660789936302695
0.10804158320259721 -0.09717111413281271 -0.10333270871407757 -0.010483277846224557 -0.05119219119993965 -0.10952953729816364 -0.037258474553383214 -0.059251170392200216
-0.029858209408175098 -0.08787642176113178 0.09239124271468087 -0.12777985253249816 -0.09335425386095725 -0.07879296610768735 -0.05450954159077315 -0.0807603080140466
-0.10744503695334523 -0.10423478594941066 0.10652084098816281 0.08593805821489206 -0.00046658092100770887 -0.06103616119245177 0.02097029667331308 -0.07790124606678091
0.012052497079771858 0.12010431705547735 -0.05193061171735604 0.043191717731239 -0.031074184164414858 -0.06755162901061142 -0.07303531459109218 -0.09497872066014654
-0.04804953863500089 -0.0974471183464139 0.016252905406167476 0.06963634648538397 0.14043466741704136 -0.08793099452033783 0.06286262702904488 -0.1296199273306474
0.023728743181007022 0.019717860259000082 0.02031948162361531 0.08789276664792961 -0.007856484326794226 0.05927247816339774 -0.04504656629085626 0.06195993627807385
-0.09076179684676762 -0.13542089882838626 -0.0705103265140377 -0.14988220304993555 0.12028598820767802 -0.08659948871082906 0.06625128751835344 -0.08546596759937654
0.15234931887624292 0.0674239320236807 0.05306988181552754 -0.010706975417849308 0.0447708139365387 0.08477135409940406 -0.1053777643688163 -0.05935093566991002
0.0831980506637614 -0.04027280391827014 -0.09712815558182186 0.11329644749710506 0.14341394500427587 -0.08788146202927975 0.07853010899125637 0.07020306043686464
-0.011211150197701658 -0.04193388118328497 -0.005455867700659798 0.027469282979110898 -0.07115550357404767 0.1059341611051962 -0.08609884502973839 0.1250281150887517
0.00901078507413967 0.12310898233230216 -0.11383390232567606 0.032634191139807166 0.0593022380238158 -0.14206295744295988 -0.004212422300381212 0.05090664264348155
0.1134089393230137 0.10786540573609572 -0.01153897167549527 -0.033287178576310195 -0.026780384441212952 0.07476407650753786 -0.015069076490129465 0.09941865638842196
0.09733365405899462 -0.10932701249162555 -0.11145774540813923 -0.0004753907829038193 0.019971699522131615 -0.002646946083729934 0.03441848601527588 0.003805588610987514
-0.06060094084703987 0.03740363848790233 0.050459438081923706 -0.10069633454697191 0.05465009376634546 0.03770844951920743 0.005467698374864921 -0.07340489700661475
-0.06364642856016373 0.1188233647274428 -0.016612590455793674 -0.0895157507014003 -0.08177909624036231 0.11555466145013464 0.021236389669219518 0.0047508899175053515
0.13030575541615902 -0.13300157185378506 0.11528437726321858 0.00039477724751416836 -0.05743921186226107 0.029480560829967476 -0.04910719555463771 0.02289295310784751
0.08677736163606739 -0.09211073680723149 0.008173068331361348 -0.055466929354926926 -0.005870643249293755 -0.010936092150321007 0.045406640426904614 0.05789151235755329
-0.11956805429960671 -0.09221706666119964 0.1267590587514402 -0.1115973571423577 0.0133409893360761 0.003314686681513338 -0.009732212260485073 -0.048576053892627515
-0.02232727674588599 0.006310334967813755 0.05206553970684672 -0.04296176377394171 -0.09975076178911907 -0.0994713539079714 0.09740656610916215 0.018931255842093604
0.08733639835977487 0.03731102727875915 0.11852014330159358 0.018132284740874003 0.14020124751112356 -0.028093735573550344 0.13636668638415503 0.02883227159178062
0.049213807809391316 -0.10943653904868389 0.08570726927717746 0.042969302500288055 0.009398717046010769 -0.11425377637683261 0.10859567989689899 -0.020439655593113722
0.07584728557856603 -0.06269220060701537 -0.045221552775304194 -0.07752331413830962 0.00750656796616479 -0.11792754943851096 0.09611515937812283 0.02694646801161851
0.06342881995007338 0.017903943943752054 -0.06153483934244747 0.10613663524879081 0.12196668894318077 -0.09624566822108704 -0.02829725027282393 -0.019314020059410523
0.04574075880618065 -0.008990647687851142 0.07794406034250305 0.04458838254755306 0.10070655025411947 0.06134658833456579 -0.08661263119233631 0.09133514980023379

lstm.weight_hh_l0 f8 [200, 50]
00000000: 20fc 78fe b6ec be3f 8c0b 8981 4a48 bbbf
00000010: 37ab c3eb e1ed bcbf 0aee 364a 316e b4bf
00000020: 06a8 23b5 27b9 b13f eab1 e68c 5bcb 8a3f
00000030: aa58 a1f6 94e0 c1bf 4cc3 d4a0 86d4 a3bf
00000040: a29b 7c32 5b79 b53f 7858 fc15 f385 b2bf
00000050: b069 dbde 239e b33f 3bfa 4b0c 5689 b83f
00000060: 68a8 6eb7 9375 c23f 834f 500f ec89 a03f
00000070: 0df5 dc72 60df a9bf 1272 ce2a 853a b7bf
00000080: 4238 f7b7 849b a2bf a080 c884 cdcf a73f
00000090: 25b0 267f 84b4 b8bf c38d d8f0 fad7 babf
000000a0: fa8f b972 d43f b03f 7399 a53a 9bc1 c2bf
000000b0: 9e2a 0e3d a154 b0bf 1527 b3ab fab6 84bf
000000c0: fce3 4399 4f62 babf 1d78 e494 b355 9bbf
000000d0: 4012 21fc dc91 b9bf 17a4 aede c043 c03f
000000e0: 6c0c 47ad 160d c0bf 09c2 71b7 e403 b83f
000000f0: cac3 0f9a 31eb b93f a343 c27f 9e87 96bf
00000100: c5ac 7deb e7c4 a73f 994a 214a 7a0c 893f
00000110: 54d4 4664 3a62 ae3f dad5 fa0e d104 bf3f
00000120: e60e 84fa f987 923f 7076 3683 03e0 a33f
00000130: 150a d9f7 534d afbf a401 3313 4297 b23f
00000140: 5b41 e66d 44ac 80bf f8b1 9374 e4c3 b33f
00000150: c04d 90c7 cddb bd3f 7c5b e9a9 d0bc bebf
00000160: 6768 d49e 1cee ac3f e6ec 64ea 2801 a03f
00000170: d8a9 8d2f d1d0 a2bf 9167 372b c5ac b0bf
00000180: 0123 d5ab 826d c0bf 73b2 bd7e 186b afbf
00000190: e25a e827 b201 7a3f 090a 3969 c0cb a5bf
000001a0: 7a75 71c4 764c a63f c7c2 14e3 6f6e b2bf
000001b0: e258 1fbf 710e 91bf 2508 c5ce 699f a53f
000001c0: 037c 81f1 7b92 acbf 2708 abeb 09aa c1bf
000001d0: 7e5a b989 5ff5 b23f 08f3 eebf 7472 b43f
000001e0: 4aed 748b e039 a93f 40af 538a 83c1 b03f
000001f0: c631 3fcf 8cc0 b1bf de2d 4764 4b89 bdbf
00000200: d5e1 fb08 490c 80bf 63a4 9d5f 4e5e 963f
00000210: 497b 1995 c500 abbf d5fc 70a5 b869 8e3f
00000220: fff0 0a92 e26a bd3f 6126 8580 f41c a5bf
00000230: 7cc6 68c4 4e29 bb3f f719 39f2 0c45 babf
00000240: a99e 9077 b1b0 ba3f 6938 84a2 0530 99bf
00000250: 159b 18a4 aa72 b7bf 1523 ecef 9958 c0bf
00000260: d85e 4390 90c3 c0bf e863 5882 9353 b4bf
00000270: 96a9 c663 5d11 c03f a978 61c5 8b64 b2bf
00000280: 9df3 97be 3d54 4dbf 1c48 6b02 b959 aabf
00000290: 6211 f91a d130 c23f de86 6ba8 1c8b bf3f
000002a0: bab8 9d21 c052 b9bf e74b 705d 6cc9 bcbf
000002b0: 33b7 699c ae0a b1bf c81c 59ee e110 bf3f
000002c0: b939 307f 7d2a a73f f9e0 b4a0 f833 82bf
000002d0: e1fe 3a21 d86d a1bf 98de 01b0 01a1 b8bf
000002e0: 747e 6129 8823 a83f 43f5 bf7b 2107 983f
000002f0: 8fd1 5e4c f231 c0bf b14c 5a30 4fec b3bf
00000300: 1ced 44aa 710e c0bf 0293 c3e8 bf32 be3f
00000310: c99e 0fae 0e4d bcbf 2130 ba2f 6639 ab3f
00000320: d206 444d b240 bd3f a80c 414d c01c 9ebf
00000330: 7717 586a b599 b6bf 562d 9796 bb56 b73f
00000340: 5d5c c409 973b 9cbf 443c 4a0d fb6b bd3f
00000350: dd5c 6a56 4582 b1bf 2e91 40a6 91cc babf
00000360: 634b 9c05 8f04 b93f df9b d90b f477 bb3f
00000370: 12f7 7217 2f35 983f 25fc 4a3f 6695 7c3f
00000380: c8a3 01c2 9a63 893f dcdd a6f8 f66d bc3f
00000390: 3c96 54d6 9aca b6bf 4552 19bb c742 b73f
000003a0: 978a 3221 aa63 b6bf 2842 2e87 c07e b63f
000003b0: 3c9e cea1 a968 71bf 928b e305 4c7f 9a3f
000003c0: 3fd4 0771 e512 ae3f 9582 5f70 40f1 c2bf
000003d0: 1c7b d5c9 1831 643f 84e3 1be9 b15a c03f
000003e0: cece 764c a2ba be3f 51b4 9b27 21f0 bd3f
000003f0: 2a8d 30bb 406f b4bf c34d 9832 15c4 b6bf
00000400: 8d7e 6b7d 1341 b73f b923 5e3f bef6 24bf
00000410: ed82 3e83 c848 90bf 5336 6370 7aae 93bf
00000420: 78db ed86 4928 bc3f a5e1 c480 40e6 acbf
00000430: c0ee 70a6 126d b23f 3ee6 6039 dc30 b7bf
00000440: d5f6 2f37 1931 c1bf bb01 41cb 98e6 b93f
00000450: 41a2 16f9 3940 b13f 4f47 8f62 384f 8c3f
00000460: 948f 70c9 eef9 b03f 8f7c 1098 5f57 673f
00000470: c211 855d 09ab bf3f 9e2a d720 fbcd af3f
00000480: f46b d408 01fc 893f 10d1 104c e635 b7bf
00000490: 8abe d083 a615 bfbf 2eee 010a 66a7 c13f
000004a0: 701b b931 c26f a33f e160 bc92 4ca1 b83f
000004b0: 1d9d e333 35b1 bebf c635 7e3c 1c54 b03f
000004c0: 6115 05b3 8060 aebf dae1 4c01 4828 b73f
000004d0: e53b da70 f227 b23f e749 1117 7727 b33f
000004e0: be5d 969f 9b01 bc3f 08fb bab2 6779 be3f
000004f0: 0897 f999 c543 bdbf a91e f8bd c8bc c2bf
00000500: af61 f506 a8ef b33f 4d10 3a0e c29a b1bf
00000510: d117 d9e1 db86 843f 37d3 361d 860c 9dbf
00000520: dc31 6749 1c35 b03f 8f62 f757 f4a8 ba3f
00000530: 5af8 8770 f825 9d3f a3fa cd87 3f93 b93f
00000540: 7300 b6db 3fb7 a0bf c69d 510a fd7f a7bf
00000550: af57 9d7b 98c0 a6bf d2b7 7dbf efac bb3f
00000560: 2875 fd5b 5a69 b4bf 5c4b b401 d3b4 b6bf
00000570: 38b3 3d64 9a02 b03f 7c05 6149 d70b b53f
00000580: 38cd a3f7 d186 8e3f 32e5 454f f358 b43f
00000590: 3696 4ef1 9e56 9c3f 02a8 fd2a d156 bb3f
000005a0: 2463 f080 0a90 b13f 2ee0 e35f 541f b6bf
000005b0: 8e8c ab3f 644f a43f aee9 7d8b 1052 c0bf
000005c0: e381 e543 b0ca bbbf bfd3 8937 9708 8bbf
000005d0: fce9 d20e 9779 a73f 61a0 9c27 e297 9f3f
000005e0: 9232 68d4 9690 abbf faba 86f2 2671 b43f
000005f0: f0b7 5a38 96d2 8dbf 0ecb 2fea 6ad1 b23f
00000600: 5642 1324 86a1 a63f bb1b 50f4 136d bebf
00000610: a532 9b9d b3be ba3f 5854 af0a 3c69 a2bf
00000620: 25bb 287e 3c1a b8bf 6e22 ac9a 986b b53f
00000630: a825 5717 c251 bdbf 494d 0b95 24fa b4bf
00000640: f4c4 b6f6 237f b4bf 34c2 f31d 18e5 a4bf
00000650: 4136 127d be85 adbf 2fd1 d89b 4d09 bb3f
00000660: 81f9 a621 9259 c13f a536 724b 3c13 bf3f
00000670: cb56 c763 d03f b3bf 4877 6e84 1b53 c13f
00000680: 404c 0e54 912c b23f 29a7 670f c457 ab3f
00000690: e840 e746 b4ec c03f b763 06af f611 a23f
000006a0: 8f53 0f73 9e0a b53f 48eb 1fee 4b06 c2bf
000006b0: d3d5 8d42 aabe bd3f cad7 8b4d f6e7 b7bf
000006c0: 4227 018f 6f62 b6bf 204d 444e dac8 babf
000006d0: e541 3994 b197 b3bf b661 b7d3 4996 b2bf
000006e0: 2404 32b6 a54c 6d3f 641d 0238 45aa bc3f
000006f0: c1db 1120 4ae3 bc3f afdd 3422 7a98 a9bf
00000700: 5a51 00b7 254e b33f b81b a96f 0549 ba3f
00000710: 4442 0c0b 3ee2 babf cb60 0e6c d1d5 b63f
00000720: 7484 aae7 8399 923f 1a0f 659d 09b8 b63f
00000730: 13d3 a164 ae27 623f 2277 feb2 a235 b5bf
00000740: 638d 7448 9d6d b93f 18f0 dc89 133a b5bf
00000750: 50c6 d9df 9140 b2bf 7d1a 2501 56a8 bebf
00000760: eb7e 1464 7e75 703f ffc7 4615 96c8 9c3f
00000770: dc4e 332c cf40 b7bf 694b 37ed f69c be3f
00000780: 7a5a f080 27a7 9bbf ea06 3f37 2bd0 bc3f
00000790: 46c3 11e0 e20b c2bf 35e8 f2ce c6f6 acbf
000007a0: 682e 972f 4113 b93f b178 2881 3e0e c23f
000007b0: 35ba 4d53 b674 bc3f b608 2341 20f2 8cbf
000007c0: aa6d c106 658b bc3f 5bad 012b 7391 b73f
000007d0: e459 2559 7026 aabf 106d 54f7 8377 b23f
000007e0: b407 2d5b 2908 933f 4b0c 818e 2918 b73f
000007f0: 5e58 5011 eb1a b13f 6bcb 1f71 866a 8dbf
0.1207994815131177 -0.10657182371600821 -0.11300479894604797 -0.07980640470389502 0.0692314927324845 0.013083186376058504 -0.13966619532101748 -0.0387308188750298
0.0838829992540995 -0.0723564079929434 0.07663177672239985 0.09584558296408201 0.14421316582348997 0.0323022621816156 -0.05053235437524437 -0.09073669715002833
-0.03634276147532535 0.04650728460205866 -0.09650447944903869 -0.10485809688594032 0.06347396660709129 -0.1465333973275836 -0.06379134884461243 -0.010114630093443414
-0.10306260577989684 -0.02669411274211352 -0.09988194613931345 0.12706766961244462 -0.12539943180863433 0.09380940893766633 0.10124502192753862 -0.022001720950871505
0.046424148079347506 0.012230830561894822 0.059343170872502654 0.1211672460147705 0.01809683410193843 0.03881846405714107 -0.061136840824947004 0.07262051552516496
-0.008141073802818857 0.07720783086887895 0.116635190221408 -0.12006858967047934 0.0565041488536771 0.03125884877450762 -0.036749398283820234 -0.06513626389587858
-0.1283419932390402 -0.061363950225175844 0.00634927360672208 -0.042570126385289404 0.04355212352741496 -0.07199763578388306 -0.016656663217724417 0.04223185204547545
-0.055805085402191444 -0.1380016709063636 0.07405659782794236 0.07987146077989504 0.04926969244339803 0.06545278670426757 -0.06934433040368679 -0.1153761977977221
-0.007835932337443655 0.02184412439911333 -0.05274026341498101 0.014850084828252378 0.11491218629356935 -0.041236534775248364 0.10609905524395374 -0.10261612809799901
0.10425862473550275 -0.024597251934260465 -0.09159342294934121 -0.1277038976188797 -0.13096816104984188 -0.07940027172334363 0.12552993175388555 -0.07184670990816024
-0.0008950520979734592 -0.051465779824539676 0.14211477105176146 0.12321642982308442 -0.09891892262178006 -0.11244847565858117 -0.06656924551654413 0.12135135716481493
0.04524604966728724 -0.008888189701437886 -0.034041170174075715 -0.09620676562360087 0.04714608674180179 0.023464701822367273 -0.12652424553892813 -0.07782454424368514
-0.12544079603126412 0.11796187813486017 -0.11055080174957789 0.05317229588135342 0.11426844011659945 -0.02940655204316714 -0.08828290792743397 0.09116718699003931
-0.02757106778252837 0.1149289042898412 -0.06839402541878621 -0.10468397435085272 0.0977258099267551 0.10729909219081389 0.02364038067457048 0.006978415873788034
0.012397011800389893 0.1110529286441912 -0.08902900440860945 0.09086273496479531 -0.08745826063617766 0.08787158298788056 -0.004250204682569921 0.0258762243837612
0.058737916991880905 -0.14798741805045226 0.002464817442770507 0.12776779062530974 0.12003530852126262 0.11694533555028498 -0.07982258386669075 -0.08892948613384193
0.09083673297890922 -0.0001599414096598287 -0.015902646074780803 -0.019220269307700665 0.10998973411720481 -0.05644418308151281 0.07197681964401692 -0.09058929825632675
-0.13431086725898092 0.10117487871412482 0.06738626796016779 0.013822975642969885 0.06631367128335192 0.0028492800779669823 0.12370356114576622 0.062118385084962244
0.012687690813029541 -0.09066619259903441 -0.12142410963201136 0.1379210995545334 0.03796202523203973 0.09621122915666859 -0.1198914767916119 0.0637834212959297
-0.059330007412919945 0.09045839339967846 0.07092204337298787 0.07482094109699454 0.10939953466583227 0.11903999436888679 -0.11431536683229748 -0.14638623500672068
0.07787561578641687 -0.06876767012914904 0.010022847966990074 -0.028368087323275417 0.06331040184085829 0.10414054057708654 0.028465158336978248 0.0999030787042821
-0.03264808232324947 -0.04589834929430085 -0.044438138093638606 0.10810755181384415 -0.07973255868769924 -0.08869665900810503 0.06253972003260067 0.08221192876319167
0.014905586595409845 0.07948227582337067 0.02767418239422722 0.10679347323971913 0.06860414169240109 -0.08641555157726152 0.03966820981238427 -0.12750441371083582
-0.10856153161649433 -0.013199979193112442 0.04584953361468888 0.0308528267552507 -0.05383750288828994 0.0798515646081163 -0.01456181869010817 0.07350795953224695
0.04420108023044082 -0.11885189737959838 0.10447237584885245 -0.03595912580900834 -0.09415033416801728 0.08367303634816789 -0.11452878064951355 -0.08194187773488183
-0.08006500981607073 -0.04081035009028647 -0.05766101147410697 0.105610704945154 0.13554598467994697 0.12138726083704883 -0.0751924747085823 0.13534873930341917
0.07099254896302032 0.05340397537277248 0.132223639126557 0.035293301453925556 0.08219328221396281 -0.14081715705091313 0.1161905682073077 -0.09338321107119821
-0.08743951073952608 -0.10462726984797088 -0.07653341168157331 -0.07260571879249408 0.0035765873486188916 0.11197311990155395 0.11284316332772361 -0.04999143283424289
0.0754111835270285 0.1026767156227909 -0.10501468438838751 0.08920010459985687 0.018163739218497857 0.08874569027562665 0.0022161871066209786 -0.08284966344805558
0.09932883280685227 -0.08291742435261573 -0.07129775729279086 -0.11975610282852674 0.00401830073795371 0.028108925865758746 -0.09083266095268122 0.11958258906751741
-0.027004830593876573 0.11255140398773347 -0.14098773899925215 -0.0565702560065379 0.09795005237463672 0.14105969721362535 0.11115588697223518 -0.014133693683451614
0.11150199332171576 0.09206313896145472 -0.051074515230243894 0.07213616169285708 0.018585821332869748 0.09021243790725568 0.06681698963834168 -0.014363336875225582

lstm.bias_ih_l0 f8 [200]
00000000: a736 9cd9 32bf b8bf 3679 fe56 1cf9 b33f
00000010: 44e1 753b 0663 9ebf ab30 c817 1e18 c03f
00000020: 881e b5c3 b0fc 923f 3355 c970 dd26 acbf
00000030: c234 844e 5e0c c1bf ce78 2f9f 2aa8 babf
00000040: 2fdf 73da 0724 afbf c73b 067a d696 c0bf
00000050: 1145 81c9 fa61 92bf fa75 b3d2 4583 afbf
00000060: 312a 97ce 7522 c23f 621a e15d 7892 a7bf
00000070: 26f5 6803 3cf9 bfbf ce50 188c 6f9e aabf
00000080: c2bc de0b 0a82 a03f b672 6150 bfd0 7e3f
00000090: 1bfa 5741 5464 ab3f 7f3d 509d b431 8cbf
000000a0: a621 848f bc36 bfbf 04bb 533f 0c23 b9bf
000000b0: 4919 1c99 091f bf3f 3c6b b267 4a40 683f
000000c0: 5d7a 10a3 bf53 bbbf 1dbb 8cc2 116e bfbf
000000d0: 9327 341e c652 a23f cb63 203f 5169 bf3f
000000e0: e17d d819 6602 b23f 37f8 b9cb cdfd a0bf
000000f0: 056f 7c61 1452 bdbf 2652 5755 42a2 703f
00000100: dfbd bbcd 0012 acbf 1ad2 9933 9f88 a5bf
00000110: fccc 35e8 fdc9 bc3f 367e 9343 7d27 8a3f
00000120: 5ac1 9c76 5b3e b7bf 400b 052f 2121 933f
00000130: 0b91 bf07 25f4 adbf 7c35 93e8 7a98 bb3f
00000140: 84e4 608f e57b b2bf 0f11 a35f 935f bf3f
00000150: 037b 82e1 9bf4 b93f 2729 fee8 d7c2 833f
00000160: 4f38 9fa0 eb48 b83f 6f72 b81d ac78 b43f
00000170: d1d2 535f c0a7 93bf 18d8 cc3c 4fde c03f
00000180: a88b 2df2 8e43 abbf be34 2e5a f3aa a5bf
00000190: d7a7 357d cce6 b4bf c9db a187 0497 c23f
000001a0: cf0c 7be7 ae1c ac3f ec48 6008 de4b b63f
000001b0: d112 059c f1d4 abbf e519 c861 ce11 91bf
000001c0: f142 3d82 393b c13f b0a9 bc39 4894 c03f
000001d0: 6996 7543 0a5d c33f 057d 8137 8ec9 b6bf
000001e0: 55ba 417a 7a64 c0bf 670f 81ef 7d60 a3bf
000001f0: fe8a ec20 7991 a2bf 8f2b d8c7 470c 993f
00000200: a69a 633c 6846 b1bf 49f8 1dbd 6162 903f
00000210: 4016 02fe db3a a0bf 7732 4765 f264 ba3f
00000220: 1028 0ebb a1e9 a5bf 8396 fc91 347d 4cbf
00000230: 9cb9 ab3c b082 a4bf ecd6 60f7 0e36 abbf
00000240: 7688 10d3 14e6 c23f 3af6 6227 fff9 8cbf
00000250: 365d 8e38 5262 b63f 508a 4643 1bd0 a43f
00000260: 99b7 1fc1 a2a2 b6bf f8cc d5c9 04ec b13f
00000270: 15d0 d724 5fbb a63f 2178 1848 699c b03f
00000280: b3be 0b2a f2c4 973f 5ed7 7122 04cc bc3f
00000290: 5d29 5f56 290d bdbf 60a0 b955 a4a9 a43f
000002a0: b77d ed8b a408 97bf e5f4 caf5 6593 b53f
000002b0: 992a 4dd6 f950 b7bf 95fd 330a 24f9 bfbf
000002c0: 00bb 8e00 8b0c babf d1c3 dac1 543d 83bf
000002d0: 875e 1f73 b01f aabf 3d6f 2282 3f11 be3f
000002e0: 7946 7201 14bc b53f da92 19e2 53bc 8abf
000002f0: d984 5f3a 0564 b9bf 20fa e78e fc37 98bf
00000300: 8b49 0a1b 9958 b4bf f531 0168 52d2 ba3f
00000310: 0dfc 19d7 efa3 a9bf 226a 560e 9d80 94bf
00000320: f1b4 9654 4f4f b63f 4a33 18fa efb2 a63f
00000330: 0451 9d73 7aa8 b2bf c627 1fe0 f899 b63f
00000340: b0f9 afca f95f c23f 422f 49f7 77a2 b83f
00000350: ddca 516f 502d 9fbf 5bd1 62ee ed16 a8bf
00000360: 233d a41c 7208 a43f 9b66 6535 0ba6 9f3f
00000370: 42db 0bd3 c00e c1bf 88cd d075 cd96 b9bf
00000380: 0aef 1371 3d12 9c3f 3962 68d4 5f77 b0bf
00000390: 1cdd 157b 1a0d a8bf 7871 e8ce 8fa8 abbf
000003a0: cdff 07b4 717d a6bf 0ab4 4560 26e3 ae3f
000003b0: ac29 3e88 4d37 bbbf e907 08cd 4625 a5bf
000003c0: 757f 3ed1 65f0 ae3f a322 4f5d 5114 b0bf
000003d0: 8368 b64c be5c bcbf f970 92b2 5c75 943f
000003e0: d6bf 1cfe adb8 833f 7f25 be9e c61d 96bf
000003f0: d871 6f6f 1ba0 b0bf 5118 f07a f44f b03f
00000400: a729 4f61 226c a5bf 1acc 6a07 2924 2cbf
00000410: 31bd a5c3 37fb ba3f 1f45 2690 0a38 9ebf
00000420: 8e55 c397 5911 9b3f bb2a 4997 04ae 903f
00000430: 09f6 29a6 8e73 c0bf 35f5 0d62 2060 bb3f
00000440: c99b 3ccc d2f2 aebf e383 995a 636f aa3f
00000450: fa84 421a dde7 acbf 3ff8 7c9d f596 c03f
00000460: 582d 9ba9 8efb bfbf 8074 a160 ef2c aebf
00000470: 731e 1327 f5d2 a5bf e653 b8f5 1edb 953f
00000480: 21f3 4501 5276 82bf 6a11 6ffd 4e03 be3f
00000490: 77d8 101a de5b babf 57f3 9606 393e b83f
000004a0: 4e39 289f 8ddd 9b3f 2fe5 74b5 8a64 c13f
000004b0: eacc f69b b62e be3f 5dd1 0ce1 4a34 b23f
000004c0: 2f55 0b1e 19db a5bf 4ddb 8d20 154c c1bf
000004d0: 94e1 eeb8 a0bf bdbf 1c0b 113d bf4f b73f
000004e0: 5b45 3a2d c5d5 7c3f 4c97 0b40 9245 a13f
000004f0: cc60 7e43 fb12 9a3f 3f94 069a 3557 c13f
00000500: c8cd 9ef5 1f79 b33f 6aa9 cc5f 40fa 98bf
00000510: 182b 17a8 b459 b3bf ff68 975d af38 c13f
00000520: 2947 ea26 5601 95bf c70c dc71 2421 9ebf
00000530: a39e dea0 e48e c03f a560 ce02 d0c1 bfbf
00000540: 01ed 50f7 4534 8d3f 259f 57a1 f113 b4bf
00000550: fcfd ac00 99bc b13f 5d84 31cb 5ead a83f
00000560: e249 a148 5dad a7bf e842 d726 7b09 9bbf
00000570: a0b8 504d e3ab 953f 5d59 ab5f 00b8 babf
00000580: 29b8 a6bc 4778 bebf 2827 dfd2 e636 a93f
00000590: 0221 afd9 92e3 bdbf 6f75 4c90 0f4a b4bf
000005a0: 9c06 461c ae42 c03f e16e e284 067f a5bf
000005b0: cb7b f256 0d95 b7bf edf1 cade 3f49 c1bf
000005c0: 7ec4 982b fd6f 823f 944e 1cb1 6a3d abbf
000005d0: 475b 2c9b 4b62 c0bf 529c e6e0 6600 c23f
000005e0: 8a3f 2b03 ab58 bcbf 1b5a e0f8 2dfc bb3f
000005f0: cbac 0f74 3c65 b9bf 2c3f 762c 99e1 b33f
00000600: 3e6e 004c 751e 9fbf 4235 9c91 a4bf a83f
00000610: c951 ef1d 20ca 94bf 9b61 2991 a3f6 9cbf
00000620: 4b70 82d0 9d07 b63f 7f87 e912 943c babf
00000630: 3c52 6b0a d7ed 86bf 261c ccf3 e9cf aebf
-0.09666745960950128 0.07801987766149385 -0.029674622897318828 0.12573600922803982 0.018542062706983248 -0.05498401643550679 -0.13318995317277965 -0.10412851702082834
-0.06082176725061427 -0.1296032043287296 -0.017951887654196478 -0.06154840657266543 0.14167664134431981 -0.04603935380923897 -0.12489676554919935 -0.051990018702925064
0.03224212069414413 0.007523295707952007 0.05349982545520878 -0.013766680765938897 -0.12192896369754766 -0.09819103761740783 0.12156734455138464 0.002960343668360647
-0.10674665194572115 -0.12277327537297507 0.03578776472757208 0.12270076552557822 0.07034910326955625 -0.033186370009375236 -0.1145336854937647 0.0040609923502939235
-0.05482485305207851 -0.04205796723264062 0.11245715064233147 0.012770632385978958 -0.09079524656113361 0.018681066984991945 -0.05850330085357499 0.10779541185475766
-0.07220301390124645 0.12255211911093887 0.10138868575675634 0.009648978040577362 0.09486267730173491 0.07996631360624361 -0.019194608515095638 0.13178434818991103
-0.053249804556592395 -0.04231987453304374 -0.08164670998453914 0.14523369429272595 0.05490633559886648 0.08709514336104335 -0.0543590071634178 -0.0166694876843624
0.13461989268628075 0.12952521151721674 0.15127685827171725 -0.08901299338457498 -0.12806635827606053 -0.03784555004725015 -0.036266122120897734 0.024460908482108187
-0.06748057817785966 0.016000296752729324 -0.03169906116185617 0.10310282681093406 -0.04279809387578848 -0.0008694178286289964 -0.04005957356081355 -0.05314680833582294
0.14764652543914608 -0.014148705853922573 0.08743776207699203 0.04065022655710904 -0.08841912474573944 0.07000760963073904 0.044398282287062475 0.06488664636751242
0.023212226692463655 0.11248803940710903 -0.1134820781582326 0.04035676523636833 -0.022493907013424876 0.08428036928940548 -0.09107934457748924 -0.12489533661936598
-0.10175389064418638 -0.009394323507281673 -0.05102301984123608 0.11745068480598504 0.08490109477340892 -0.013054519021531364 -0.09918244052052518 -0.02365107176046355
-0.07947689924393424 0.1047717574994705 -0.05007886410475502 -0.020021871566863088 0.08714767279771586 0.04433393409644866 -0.07288327524776511 0.08828692886086661
0.14355394741865046 0.09622907435658326 -0.03044629744949644 -0.04704993758187711 0.039126935955318375 0.030906844266928784 -0.13326273255344218 -0.09995731474264435
0.027413330103612167 -0.06432150779472402 -0.04697497131831538 -0.05402039910061068 -0.04392581293723161 0.06032676625441276 -0.10631260467758946 -0.04130002262901639
0.060427839081284164 -0.0628100254826998 -0.11079015133728558 0.019978950881168498 0.009629592244522128 -0.021597960890664233 -0.06494304152096875 0.06372001649296634
-0.04184062421662143 -0.00021470070688209346 0.10539577986286443 -0.0295106554490917 0.02643337239063253 0.016288825734856554 -0.12852652657959165 0.10693552392873047
-0.06044634574055114 0.05163107377007472 -0.05645647950701434 0.12960691633083063 -0.12493220940375716 -0.058936577363717824 -0.042625103969439325 0.021343692538795887
-0.009014740623337016 0.1172379845366486 -0.10296428810474532 0.09469944392089978 0.027212345923595387 0.13588079319178223 0.11790028865543759 0.07111042017351595
-0.042687210958016635 -0.1351343544917775 -0.11620525851220115 0.09106059304125974 0.007039804669731832 0.03373391181757643 0.025463033670889243 0.13547391911302673
0.07606696840848948 -0.024392133566985143 -0.07558755019924168 0.13454238958258455 -0.020512910962288054 -0.029423303079067844 0.12936075072251638 -0.12405109470853633
0.014259859666813758 -0.07842931927700343 0.06928402201173606 0.04819771032703877 -0.04624454032513704 -0.026403354879053348 0.021163512796356643 -0.10437013946225222
-0.11902283054107045 0.04924699138753247 -0.11675374807885322 -0.07925507805744812 0.1270349157385241 -0.04198475238919542 -0.09211810467466745 -0.13504789713432733
0.009002664463965578 -0.05320294773096382 -0.12799973561114994 0.14063726407514082 -0.11072796656958253 0.10931670499881145 -0.09920099099660999 0.07766110740180626
-0.030389626277708574 0.04833711888759719 -0.020302297427251568 -0.02828460286613819 0.08605371800007437 -0.10248685323452199 -0.011195831304044217 -0.06018000699082675

lstm.bias_hh_l0 f8 [200]
00000000: efcf 5ff3 62da c0bf c0fe 3202 886a afbf
00000010: d6e2 00aa 9fd7 b03f 42e2 c1c5 808a b3bf
00000020: 9abd bfa2 7955 a0bf dcb7 fd8a fe4e 97bf
00000030: bdb4 2a2a cfac bfbf b99b b537 7e1a 973f
00000040: 0ffd 6e91 7048 973f ff23 4725 47df a8bf
00000050: c2a5 1206 e795 c2bf 4f67 bba2 19d7 903f
00000060: 16eb aa4a 233c babf ff5c ad3b a4dd c23f
00000070: 62cc a0f6 8b4d bfbf edca 8e3d 6c98 a13f
00000080: cf02 c43b 5213 bdbf d1d4 b786 8ab4 bebf
00000090: d4ba 9543 8151 b83f 1b1e 2beb 1ee0 a63f
000000a0: 8e88 3112 0867 9c3f c61d 9a26 e315 bd3f
000000b0: 5ec3 fc06 0d56 babf b691 9e96 42f3 a53f
000000c0: 0456 04c0 db44 9abf c760 0b96 3d42 8d3f
000000d0: 50a6 dbe6 548d b13f 34df e1ea 4390 ba3f
000000e0: 6397 a138 5a91 be3f 9d00 4f82 356c 99bf
000000f0: 7fc4 ab2c ff71 7c3f 9b96 458f 0885 9e3f
00000100: f129 7eeb 9606 9c3f 6452 6c4d 4312 b4bf
00000110: 489a fe6a 5ec0 89bf e673 09d3 d9f6 bebf
00000120: f9dc 2a38 1f1a b5bf 2339 9216 a435 4dbf
00000130: ac4d 402d dc0a a93f 201b c05c 6c04 8fbf
00000140: c90e 1410 b6cd b23f efdd 1919 0c1c c23f
00000150: be4c eeeb 0077 bdbf 9aa6 6c1f d049 a73f
00000160: 4ee0 08e7 e32a b83f 79ec 77b0 673d b8bf
00000170: 65ff 5e80 898c a33f 1d7e b14f e491 b7bf
00000180: 08c8 6e99 d506 b43f d3b7 2670 0d2a b83f
00000190: 0c1e e6d3 aee3 c23f ddd7 966e 4a71 bfbf
000001a0: fe1d 02a0 6978 b5bf d693 f870 29b1 993f
000001b0: 53de da7b 8dfb bdbf 6789 f4d2 b93c c0bf
000001c0: c1ef 70a0 1318 ad3f 0da6 7d2d 700e bfbf
000001d0: 0888 02ce caae bc3f 3c4a 8f0c b0e9 b6bf
000001e0: b48d 1783 ed0d ba3f 74d7 a51c 0927 a2bf
000001f0: 66a7 5b49 14c2 b9bf 98dd 8cc7 7b9b 873f
00000200: 9d2a 7052 5b4c 9b3f 044b b31e 0643 c4bf
00000210: edd4 40f1 1cc3 a63f 6e68 55a2 f5d1 933f
00000220: 2e1f d94c 3e08 b9bf 2f81 dc6d 6c09 973f
00000230: 66cd 217c 4d7c 9ebf 774a f9aa 50d6 aa3f
00000240: b4cf cb83 e746 bebf c94b 8512 55c0 b5bf
00000250: 5ff0 3884 6f57 b73f 5475 e396 3dd5 b3bf
00000260: c65f 9363 3b09 a1bf 2fe5 41c8 8fed a6bf
00000270: bd98 a87d 07f3 c23f ed0d 2fde 3392 ac3f
00000280: 0cb9 f561 6ca9 c0bf 8a15 b432 62cc b43f
00000290: 08b1 cc8e 22e3 503f e1fe 0ef5 2ceb c0bf
000002a0: b235 f0ee 3dce 793f 5ec2 712f 0550 c0bf
000002b0: 4767 9e32 cb3b b43f 3ab4 87b8 87f2 bb3f
000002c0: 770c 8a3d 3395 b2bf 258d c68e e527 bf3f
000002d0: 15a2 a941 6449 c13f edcc bc55 e758 bfbf
000002e0: f967 cce8 f70c a9bf 874d 4bad a2b0 b53f
000002f0: 3a41 0261 0711 b13f 49ca deb0 2d61 b6bf
00000300: b5b7 4f6a 033a a23f 9e02 1171 ec42 b33f
00000310: ee2a 3065 3bef a1bf 5d4a c704 6514 c23f
00000320: 0fdc 1784 7e81 53bf 3323 ee0e c0a7 be3f
00000330: ac40 9a88 2ff8 b53f fd86 9598 32c6 bb3f
00000340: 605e cab7 f92d 803f 8394 710a 54e5 b1bf
00000350: 7895 0c0e f790 a33f 62a4 c16e 7194 6f3f
00000360: 9722 dba5 0aaa b93f 333a 4c30 d60f a03f
00000370: 9ab7 3e83 dc39 b1bf a049 6979 1bb6 4b3f
00000380: fe2f dc60 5936 b13f aa25 aa47 b059 bd3f
00000390: 7b28 7128 29fe b4bf 946b 78aa b1f6 903f
000003a0: e5e1 d3c9 aeaa b23f 4805 a2be b1c4 b93f
000003b0: 7e36 7a47 2982 b73f 513e 8623 94f7 c1bf
000003c0: 598b 1ee3 b04e b6bf fba9 914e eaaf bcbf
000003d0: d364 b586 5644 933f 47f2 ee50 1be9 c13f
000003e0: 36dc b79c d91d c0bf 298e 6539 699c bc3f
000003f0: 00ea 89cc bd3b b7bf d76e f534 899f b53f
00000400: b34c a3f9 c6d9 abbf d31e cbe4 4ed2 b23f
00000410: 685f e1bd dead b63f 4a0d d345 3af0 a0bf
00000420: 7410 b425 7bc6 bc3f d76b 73af 1860 b5bf
00000430: 2869 3920 2045 b4bf 67e8 a764 adeb 9cbf
00000440: c67c cadb be8d c03f d9bc e610 8402 94bf
00000450: c6e3 aa86 a4e7 b7bf b177 6e9a d3f4 b3bf
00000460: 151c 13f5 429d 90bf c38b 5da5 2dfc 9a3f
00000470: dbd6 6169 5067 b03f f16b 9936 5687 ba3f
00000480: 393b 1443 fcd0 90bf d5b3 cbe4 afe5 a33f
00000490: e9ef fe30 bf12 b3bf defd 10ec 1eff b53f
000004a0: 834b 1d0c 310d 883f 100f 2497 24fe a93f
000004b0: 0089 3b1f d873 8e3f 0144 dd04 af97 a6bf
000004c0: 214b f200 56b0 903f 4aec 2609 90b7 a63f
000004d0: f3c1 df53 9189 bcbf 1ff3 1f72 539f 863f
000004e0: ab6a b070 c65e b83f d24e 72a3 6223 c03f
000004f0: 8b3f c54e 8767 babf 466e 2b4b 3cd0 a4bf
00000500: 2df1 922f b3ac 853f 33bd 11b9 8168 913f
00000510: 12d4 3519 a897 ae3f c6e6 50ee 51e1 b63f
00000520: 4741 9f24 f8a1 a4bf c128 766f f3f8 a53f
00000530: 88dd eb8d 69c5 b4bf aff7 d1c1 89a9 b1bf
00000540: 7595 dcdf 47d2 b13f 5d6c 7967 9b0a b9bf
00000550: 4fd3 eb0f 9666 adbf 9c47 a118 c686 89bf
00000560: 3e1b b730 0be5 bb3f 0b10 ad3e ddd6 ae3f
00000570: 6cb3 756a 5e1d 9ebf f7c0 c3ce 0678 ab3f
00000580: 4de8 7a39 96a3 bcbf c9af 0dfd 965a b63f
00000590: 15f3 2422 87ef b63f a64b d3f7 3f21 85bf
000005a0: 8c3b 4af2 4f25 c23f 268f 81e2 b56e a63f
000005b0: 447d 3976 f367 b63f adfa 084b 713a c3bf
000005c0: 7c32 3638 7612 8f3f 39a0 709f 878a ad3f
000005d0: 4912 cae1 270f b13f f826 2566 751c b63f
000005e0: b1d7 b8fb 4a00 b13f 694a 715e 8474 aebf
000005f0: ab21 c943 fbca 9e3f a21e f7f2 e5dc 97bf
00000600: a09a d09e 5572 bc3f b899 534a ebc3 b0bf
00000610: 7dad 2ff3 2d51 a73f 8e9b a8f8 af7f 913f
00000620: 03ee 5c5c 5f75 bcbf 6465 2a82 f8f2 bd3f
00000630: b79e 6d0b 295b 913f 5dbf 8bc1 4531 b53f
-0.13166462787160024 -0.061359644192177765 0.06579015636897209 -0.07633213832912936 -0.03190212356264084 -0.022762276872008033 -0.12373060969794643 0.02256200041793097
0.02273727309852541 -0.04857847528507619 -0.14519965931439854 0.016445541913390923 -0.10248013089123406 0.14738896287847322 -0.12227701922601988 0.034366018785837095
-0.113576068488338 -0.11994233883872886 0.09499366664907011 0.044678655821879874 0.027736784086649417 0.11361522381240893 -0.10287553234662769 0.04287155235877853
-0.02565329894522074 0.014286500112050139 0.06856279979879187 0.10376381382399985 0.11940540201757481 -0.024826847151189758 0.00694465329682814 0.029804357285135735
0.027368887065259476 -0.07840366974080265 -0.01257394565602711 -0.12095414545315428 -0.08242983933711291 -0.000891404267479055 0.04891098072416908 -0.015145155506628039
0.07345140354669434 0.14148093438755846 -0.11509710083037114 0.045485023342121525 0.09440445318694055 -0.09468696649848764 0.03818158809690323 -0.09206988282812074
0.07822928424755571 0.09439167011325304 0.14757333132386952 -0.12282242965633779 -0.08386860043002994 0.02508988143940257 -0.1171196391468297 -0.12685320663974695
0.05682431539068445 -0.12131405935874558 0.11204211740053449 -0.08950329119333217 0.1017750210808604 -0.035454067942665285 -0.10061766425101623 0.011527030017176185
0.026658465296388035 -0.15829540728608305 0.04445734448419523 0.0193556194620687 -0.09778203369307611 0.022496885495571547 -0.02977105207578514 0.05241634451944759
-0.11826941459349777 -0.08496600820698953 0.0911779115494382 -0.07747254308511248 -0.03327355947993697 -0.044781201549037745 0.14804166446373826 0.05580293738560358
-0.1301703909225086 0.08124364602925574 0.0010307157019254238 -0.1321769901824075 0.006300203253898061 -0.12744202438945512 0.07903738008317616 0.10916946654443019
-0.07258911373541986 0.12170252547962386 0.13505223470862462 -0.12245031207276087 -0.04892706600931258 0.0847264931756425 0.06666608923319908 -0.08742032592889716
0.03559885666605515 0.07523992309962543 -0.03502832040984126 0.14124739392589705 -0.001190541792650771 0.11974716534144818 0.08581826291106393 0.10849300599286589
0.007900191232052822 -0.06990552191708059 0.038215370621666744 0.0038549628716749032 0.10025087880343118 0.031370824237559346 -0.06728914455626836 0.0008456834937738307
0.06723555197476114 0.11464978932976658 -0.08200318562845325 0.016566062955557806 0.07291691234048121 0.10065756706355444 0.09182985301068844 -0.14036800131406094
-0.08713822884469148 -0.11205925386608577 0.01881537625499592 0.13992635204148682 -0.1259109511590581 0.11176164294516212 -0.09075533145543346 0.08446557562768518
-0.05439588353478921 0.07352154813554117 0.08859054694891955 -0.03308279135083099 0.11240358038418369 -0.08349756511181226 -0.0791797712967407 -0.02824278761725232
0.129325730628784 -0.01954084733159509 -0.09337833678991023 -0.07795450706768638 -0.016224905212563884 0.02635260888872516 0.06407644818122142 0.10362757523527912
-0.016422216028384205 0.03886174838940063 -0.07450480409801198 0.0859240843137665 0.01174391096325223 0.050767081689654714 0.01486939282716948 -0.04412600454691785
0.016297668273703828 0.04436922179908061 -0.11147411630350472 0.011046077652275664 0.09519615412902264 0.12607987385546565 -0.10314222024066859 -0.04065121095274242
0.010583305253356013 0.01700022403786967 0.05975079829924125 0.08937561100256194 -0.04029822775885577 0.042914969783923514 -0.08113727297665296 -0.0689931963151753
0.0696148797547574 -0.09781810070255532 -0.05742329544401647 -0.012464091898582379 0.10896367968881024 0.060233034039384924 -0.029408908126629482 0.05365010522825913
-0.11187113669703415 0.0873197906309421 0.08959240516282947 -0.010317325354128059 0.14176368074955936 0.0438134039875691 0.0875236667284201 -0.15022102512189886
0.015171931829877076 0.057697523320087325 0.06663750898776145 0.08637174361970412 0.06641071935231825 -0.05948270466673906 0.0300711879847612 -0.023303597406793337
0.11111960532489684 -0.06548948826421153 0.0455412253721432 0.017088651229780143 -0.11116596226650448 0.11698868921157196 0.01694931156398979 0.08278308844796585

linear.weight f8 [2, 50]
00000000: dde1 a6a1 62d6 91bf f1ab 8fb0 1f6b bf3f
00000010: ea61 9f3e 5f0d bc3f 3ae3 dde6 e589 59bf
00000020: 47eb 657b 61c8 bdbf dff4 8eb6 cd7e a5bf
00000030: 4845 e4ce a978 b43f 0d06 1548 6a56 9c3f
00000040: 169c 043b 1209 bebf 69d1 f602 936d 9e3f
00000050: 54e4 848d a7b8 adbf 4dfc 777e 5ccc b93f
00000060: 07cc 932a 040e 883f b6bd 8847 fb82 aebf
00000070: 420a 06f1 5d26 c0bf af9a 912a 90a1 be3f
00000080: 0087 94b0 f479 b3bf 05ee af03 4d0f b7bf
00000090: 3a26 a8b9 73a1 afbf 1e35 f9ea 2d40 b4bf
000000a0: 8368 a444 e5f6 b83f ff65 3c6f 0daa 473f
000000b0: 2224 ce6f e035 95bf 9d27 228f 456f b03f
000000c0: 95dc 4cf9 1d77 ab3f 36e1 8332 69b5 6a3f
000000d0: f18a e18b c2a7 a3bf 3ed8 8903 4e6e b4bf
000000e0: a8b0 a15a d87c babf ccf6 aa0d 4703 bcbf
000000f0: 36f1 9486 c366 83bf fcac 4e25 882e bdbf
00000100: dc7f 43d2 07c3 7c3f e7a3 d09e c3e3 70bf
00000110: 3dba 92cf c0bc bc3f 5c29 da6b d835 a43f
00000120: ea94 40a2 18ea c2bf 26be fc70 5337 af3f
00000130: b817 d2cc 4a6e 83bf 5a04 0edf 7900 9bbf
00000140: 6567 0929 b60f c2bf 483b 5b85 e6c7 973f
00000150: bfda b130 714c bdbf b79e ecd5 8784 bebf
00000160: b577 5248 2455 8fbf 20a1 0f27 5e9d b33f
00000170: 4498 097a 1a28 b5bf fe78 55ca 997f b93f
00000180: d76b 11e2 bf60 c13f 5646 f359 816c b63f
00000190: f6de 55f7 acb4 c0bf 42ad 928e 6f68 b6bf
000001a0: 6865 c1ae 9d1a 823f 5f3c a37b f6f0 823f
000001b0: e8db 41a6 8583 b9bf bafb 81de 1a86 bcbf
000001c0: 3585 3535 3087 ad3f 5a62 c58a 0407 b2bf
000001d0: 6ec2 edb8 ebe1 c0bf 7ac1 8507 04bc ba3f
000001e0: 80d8 00f8 feff b6bf f503 091f 0039 ab3f
000001f0: 1200 1304 04dd c3bf 808d 96dd 76cf c1bf
00000200: 6482 4346 3435 c13f 622b e6b1 cc75 b1bf
00000210: dedf d829 c65f 963f a9db 5f86 e795 bdbf
00000220: 42a2 32ec 2afb b7bf 8b0c 2677 4d7c be3f
00000230: afc8 944d fc11 bb3f 4668 2070 1d18 c1bf
00000240: 34f3 fc20 33a3 bdbf 0a8a 4c6c bba6 42bf
00000250: c13b 171e 6f32 82bf 6cd8 dfcd 0d62 c1bf
00000260: 178c 32e0 c069 b33f 60ec 6f02 e48e b13f
00000270: d6ac 30fd def5 a6bf f77b d83d 4f9e 67bf
00000280: 8df0 4c0f def7 bebf a9b4 071c e446 adbf
00000290: b1fd 5e34 b309 7a3f 35ce 1756 0634 bf3f
000002a0: ad20 6238 221c 8b3f 6a71 dae4 ca7a b4bf
000002b0: c5cd e2ee 0fa2 a53f 1bbd df44 2201 b2bf
000002c0: b42a b727 60e8 97bf 935e 3228 7a61 aa3f
000002d0: d8bb 0971 426e b0bf d8af 5143 bd7b b3bf
000002e0: 019c 9870 fa5b bc3f b343 3808 9380 b03f
000002f0: d96c 993b 5394 8abf 1683 af5f bdbe a0bf
00000300: 5098 5242 b53c a73f ef8c 670b ac31 b73f
00000310: c366 e71f 0ccb b43f 8918 7943 83bb ad3f
-0.01741937743801879 0.12272832928253742 0.10957904127952359 -0.0015587563643448391 -0.11633881819390722 -0.04198305943962465 0.07996617604319056 0.027673397683662105
-0.11732591572636894 0.02971486764518386 -0.058049427056581365 0.10077455604185666 0.011745483922345213 -0.059593059999652295 -0.1261708666680353 0.11965275801922347
-0.07607964812316581 -0.09007722225208432 -0.06177865639990583 -0.0791042994180384 0.09751732755504076 0.0007221761320323482 -0.020713335823106978 0.0641978716322726
0.05364316623893576 0.003260331595921563 -0.03838928182155666 -0.07980811678302843 -0.10346748554883567 -0.10942501147925582 -0.009473350090609328 -0.11399126921485342
0.0070219331284704055 -0.00412346281249485 0.11225514476493799 0.03947330776743982 -0.14776904985880118 0.06096897844542708 -0.00948770940363973 -0.026369003523999936
-0.1411044788717916 0.023223497285296518 -0.11444766463123822 -0.1192097565914264 -0.015299113709541826 0.07661999181403134 -0.0826431796973291 0.09960328283111505
0.1357650617454442 0.0875931591611104 -0.13051378323483903 -0.08753106337342323 0.008839828391659935 0.009248662613030754 -0.09966311749472789 -0.11142127926176118
0.05767202996754365 -0.0704195822521653 -0.1318945553753283 0.10443139251379377 -0.08984368853347924 0.05316925410125598 -0.15518236349998965 -0.13914380855304032
0.13443616324277052 -0.06820372908820851 0.021849724105976402 -0.11556860952974425 -0.09367626444385116 0.11908420714284966 0.10574318784782365 -0.13354843115740972
-0.11577148013470834 -0.0005691924239708557 -0.00888525782184313 -0.13580486824475047 0.07583241914339599 0.06858658847333876 -0.04484459725093763 -0.0028831050574491496
-0.1209696566920135 -0.057181480809825054 0.006356906907910285 0.12188758470420498 0.013237254472429372 -0.07999866568792915 0.04225206175888333 -0.07032980138295779
-0.023347380088845696 0.05152494183238079 -0.06418242702214572 -0.07610686200649697 0.11077847718171087 0.06446188879659935 -0.012978220230414216 -0.03270522873913799
0.04538504061319826 0.0906016853182796 0.08122325686363312 0.05807123373647111

linear.bias f8 [2]
00000000: 0250 2c66 fdef b7bf 11d3 0b5f 6224 bebf
-0.09350570435009334 -0.11774267979110344
