sequencetest_source_robot.pth (torch, 265175 bytes, 6 tensors)

lstm.weight_ih_l0 f8 [200, 112]
00000000: 6724 3dc7 e438 bdbf 4421 db5f 0264 b83f
00000010: 27c1 9ee3 23af 8ebf e4d9 7796 874a a53f
00000020: 596a cc30 188a bbbf b458 aa17 f702 99bf
00000030: 15da f281 e544 81bf bc60 9385 43af a33f
00000040: a839 4417 fe38 a53f 7c1d 96c8 3402 bfbf
00000050: b369 a0c2 a154 67bf 9f38 43a2 b593 a73f
00000060: d573 9f83 94e9 a93f 24ef 7ed0 fb93 8dbf
00000070: 1924 04e2 6e45 81bf 422d 2db0 c69d c03f
00000080: b0dc fbd4 2740 9b3f 6e5c 3a10 ce8e a6bf
00000090: c73e 0d5b 6ada 71bf 9d33 8ad0 2a0a ac3f
000000a0: 0a8b 5f58 c7e2 b8bf bf55 05f4 3486 86bf
000000b0: 685c 5bd6 44e6 87bf d850 1114 8be4 aebf
000000c0: b59b 9220 3ff4 c23f 6fb6 458d 04d4 bb3f
000000d0: 1370 b753 2442 6ebf 5d76 d508 0641 aabf
000000e0: 1f8a 4f73 aa59 bb3f da76 66e6 b190 aa3f
000000f0: 0ff1 861e fc2a 61bf bb19 51c9 a04d 803f
00000100: 69f0 b77b 6b36 a83f bf5a 2cae a3a7 c0bf
00000110: 9489 35b2 bd57 82bf e905 2532 4d4e a7bf
00000120: 44b4 9656 1d6a a63f 333e 198c 3960 b8bf
00000130: bb74 d8e0 2bc4 92bf 4d43 11f7 a901 a3bf
00000140: 4ea1 79de e286 a83f bc73 18b4 4e74 96bf
00000150: 6d3d cb4f 6a88 683f c079 e6a3 9087 a7bf
00000160: 6896 9164 fd8b b3bf 484d b1a7 e1f8 a9bf
00000170: bbb8 347e ddf4 8dbf fe84 a515 28d7 a33f
00000180: 2723 51ea 9d2f c23f 5272 76df d89e c03f
00000190: b968 1836 36f3 58bf a30d 015d 4c0a a83f
000001a0: 2e02 f893 1321 b8bf aabb 6b4f 1318 b83f
000001b0: ea6e f1ad 6f51 543f 7678 0999 85a3 9a3f
000001c0: 1616 ff6a cea8 b2bf 6d35 3a87 bb3d 343f
000001d0: be45 c9a5 5405 86bf ad70 37af 95a2 b3bf
000001e0: 9211 caec 4d67 543f 7c26 c624 cafd 963f
000001f0: 3988 a59a fdc9 7ebf 2a5a 8093 ccf8 a73f
00000200: 5d4f 23ad 0e2b 90bf a776 d1ed 0bd3 aebf
00000210: 2805 92a6 82c3 683f f1d1 350a 44bf 87bf
00000220: caa9 699a d665 9fbf 9017 0508 7005 9ebf
00000230: 8882 a4a2 0701 85bf 6f10 585c 404b ab3f
00000240: a440 f013 fd67 b0bf f05f 6f37 2ff5 aebf
00000250: 4bf9 1dea a663 82bf f08f e165 2152 a23f
00000260: 8424 5316 228a 9c3f 8fda ec0c d4e7 c33f
00000270: 8a0a 64d5 5d26 8bbf 7a80 b455 4308 a7bf
00000280: 7845 079d 7bdc a33f f070 b473 6b97 c13f
00000290: c190 c187 1934 493f 6b10 9b01 e0b9 97bf
000002a0: 670a fc5a 32ab a93f 4ec7 fed5 f412 9bbf
000002b0: 4d8d b05b fa73 79bf cc1a 5974 7c61 a63f
000002c0: bea4 cd7c a8df b13f 66e5 b278 2ab8 bbbf
000002d0: b32b 91dc db0e 83bf 9c62 414c 4bec 733f
000002e0: 0155 426b 8da1 b8bf 36a3 e897 c6d4 c03f
000002f0: 66e1 dc7c ecf2 47bf 6ef1 8db7 986e a53f
00000300: db0a c4f9 67fe acbf aaf9 5e8b 0251 b13f
00000310: efe7 ff0b 2d26 513f a442 f4a7 1e2a b83f
00000320: c777 9492 2f4e bbbf 577e 63d7 d485 b83f
00000330: 114b fe62 ef33 6a3f 9da1 6260 f4bb bb3f
00000340: a9e6 9aec 05da b53f 838d 7124 e353 bcbf
00000350: 4025 4e25 d4f1 90bf b6ad 4fac 265c bcbf
00000360: c4a8 1b7a 4ecf a6bf 69d7 3df0 0398 c13f
00000370: 9d73 1e2c e91e 91bf 0d39 8bb7 597c 7c3f
00000380: 3840 16c5 9824 b33f 6113 b1cb a718 abbf
00000390: bcb8 52ba 2b5a 943f 7755 9146 c68d bfbf
000003a0: 5119 1fbc 0c4b c13f 0707 4588 3874 c63f
000003b0: 6b96 d4f3 873c 943f f578 7dab 3a8a b2bf
000003c0: aba3 eb14 c26b c43f 106a 779e bd2b b8bf
000003d0: 2eae eaa7 161d 953f 125a eb5e 736c 9abf
000003e0: 46a5 90cb 3304 9e3f 2dc9 cae2 0f7b bb3f
000003f0: 36fa 6c0b 6f29 953f b4a9 a065 e7ca b93f
00000400: 03f8 1a08 a03d b3bf 1ccc ab75 4897 ba3f
00000410: bc57 0f87 a0d7 953f 1aa1 00e9 ef85 a13f
00000420: 92ff 970b 036f c33f 9a59 2a51 3ee4 bebf
00000430: fe6a 0731 80a1 933f f2d8 d8ed a073 b03f
00000440: d93e 6eff c505 bdbf cad3 c82d e4b5 c23f
00000450: 733b 8dcb 9911 913f 9320 bd1f 9132 adbf
00000460: 0201 94a9 50c7 c13f 46e1 c191 08cb c43f
00000470: 8694 baa8 6b78 933f 460b 6ed4 3b32 bfbf
00000480: fa5a 7e53 1045 763f 440d 8fed 461f c23f
00000490: 6097 3daa d53e 923f 4eff 456c 6482 8abf
000004a0: eea4 8eb2 ef28 c43f fcad 568a 95fb b4bf
000004b0: 6288 31e2 bada 873f bdd5 834d 38a1 b5bf
000004c0: b136 ff38 ae85 b93f 4dc6 2fb8 5841 babf
000004d0: 0647 6159 0dd1 903f 7d29 7407 507e b1bf
000004e0: 8a57 9d05 2a7d b3bf 8172 9d27 7415 a6bf
000004f0: 107d 6e5b 875e 883f c8f3 c719 97c0 a13f
00000500: e9ea 4baf 3ce4 b93f a4c7 51cf 2e2c a1bf
00000510: 3692 9573 4e85 893f f1b5 dc97 46ee 63bf
00000520: a1ad 8c22 5035 c53f a751 57f5 6173 c13f
00000530: 2534 1161 b595 933f 5986 9191 0090 bcbf
00000540: 67fb 3bef 7a13 b4bf 78d6 7dae 0f18 6fbf
00000550: f07c 691d 1844 7e3f a3b9 d7e0 386b c3bf
00000560: 7ce0 5d56 48d4 c23f c1ec 35b3 7853 ae3f
00000570: 4e48 139e 7174 8c3f f4b4 6c63 3d52 aabf
00000580: 53c8 044c ece9 953f e22d cfe0 fc46 953f
00000590: a532 37cc 30c7 8a3f 92db 7b33 b033 9ebf
000005a0: b265 02d8 1b39 93bf ca1f 18aa 0c4f 823f
000005b0: 19d1 5a11 60ad 8d3f a2df d579 7573 c5bf
000005c0: 610e 93fd 1cbe be3f 1242 e1e9 1c14 b73f
000005d0: 2de8 983c 841b 8b3f 0fe5 2856 c01e a4bf
000005e0: 351f 9b75 fc5a adbf 6985 6e31 f18c a7bf
000005f0: b6c3 bbb7 4872 7b3f 8fb4 d989 6c68 b03f
00000600: 3b71 d4c5 20ac a23f 86b0 f067 e506 753f
00000610: 2b52 3dd6 065b 8b3f b566 5fdb a8cb b03f
00000620: 2cfa 2947 2433 a4bf 9d80 c544 aac3 a83f
00000630: 2ef6 8a4d 1fdd 853f a0e1 7aeb 05b2 b23f
00000640: 0392 7439 622d ae3f 8a05 4e60 4a91 aabf
00000650: d5a6 743a 7897 853f a662 db61 a6c8 893f
00000660: 1add 468b 65d0 b5bf 2658 7b1c eaec b8bf
00000670: cd28 e97f 54ea 763f 3542 cbe8 405a a0bf
00000680: 2adc 367b fd05 b6bf 6776 d8b9 125d b1bf
00000690: dfe7 e09e 187d 793f cc21 e8ef e3a1 a4bf
000006a0: 068d 20a0 88db bfbf e8a4 8a27 5249 a03f
000006b0: 2289 1e44 c8b8 703f be6b 1111 68f0 99bf
000006c0: 8363 b4e9 d9dc b93f bc85 2c29 d0ab bcbf
000006d0: 1b5c 5d0b f442 86bf 8d7c 9d1c 5186 cfbf
000006e0: 11ba d7f8 466b a6bf 445c 0c43 0dac c3bf
000006f0: 300e b57a 5810 64bf ac0f e7d9 0115 cebf
00000700: 9244 777f d5f6 8b3f 789b 2c01 1fc4 be3f
00000710: 529d 621c 0e31 903f 37cf e7e8 f010 b83f
00000720: ea4d 6495 3bd0 7f3f 8887 f03b 3b75 b83f
00000730: a006 4087 ae0c 963f a53b bbe4 d922 bf3f
00000740: 1091 51b6 b8e2 c0bf ca01 fbea cc7d 9bbf
00000750: e54e 92f4 a833 933f 38ab 54ff 962b 883f
00000760: bbb1 91a1 e174 bcbf bd4f a16e 151b c23f
00000770: 23d1 24fb 0e03 943f 564a c4b0 3a90 a6bf
00000780: 6bc8 4a6f c1c5 b9bf 9fde d2bc b645 cc3f
00000790: b2fe 24bd b543 943f 3e1b 589c 2386 a03f
000007a0: b889 14c3 fe68 c0bf 7db6 08ca 154f b93f
000007b0: f3af 570d 4994 943f 9c01 ac39 7df3 b93f
000007c0: 0e27 73bd a0ae c03f 8f59 9824 4bca c53f
000007d0: ec24 00c7 f75c 953f 7b10 4c13 b8c1 88bf
000007e0: 42c5 deb4 1384 b9bf 64bd ccf0 be0a ca3f
000007f0: a233 aa25 4ff5 9e3f 1ced 96b1 3998 b93f
-0.11414937843541538 0.09527602043374822 -0.01498249090568089 0.0415842410256351 -0.10757590476388525 -0.02442537385885464 -0.008432190921991137 0.038446531348826224
0.041450443592214115 -0.121127413722311 -0.0028479728107530743 0.04604880910629671 0.050610199992412376 -0.014442412662780742 -0.008433214447466185 0.12981494524351872
0.026611921667577476 -0.04405826519103405 -0.004358687831725389 0.05476506992008654 -0.0972103682284279 -0.01099816674892906 -0.011669671813633722 -0.06033739681211764
0.1480788144155817 0.10870388459235313 -0.003693648291784876 -0.05127734048685959 0.10683694186403912 0.051885184645681995 -0.002095692081836138 0.007960563796712053
0.04729019055591339 -0.1301159477668161 -0.008956415177355827 -0.045519268389863594 0.04377834016791174 -0.09521827383400065 -0.01832645950172627 -0.03712206974944952
0.04790410009155953 -0.021928052656324346 0.0029947353744785216 -0.0459561538766482 -0.07635482507029112 -0.05072693988827354 -0.01462719956779456 0.03875088943710557
0.14207815114266362 0.12984763060821308 -0.0015228299529384383 0.046953569748917866 -0.09425470697898028 0.09411736191735423 0.0012401190395143155 0.02601441141666113
-0.07288828003137157 0.00030885532690024567 -0.010752354916948256 -0.07669959571598169 0.0012453328119202728 0.022452505583294244 -0.007516852036447524 0.04682006168893722
-0.015789250676632494 -0.06020390775732425 0.0030229141016781154 -0.011595279275504718 -0.030661919760328428 -0.02931761788320092 -0.010255870486220134 0.05330849768873313
-0.06408673989085628 -0.06046435882279855 -0.00897913362473148 0.03578285568872264 0.02787068616160983 0.15551233893502966 -0.01325677211253164 -0.044984916889235074
0.038791525763040846 0.13743346357012554 0.000769150224652758 -0.02316999444771321 0.05013425217295691 -0.026439500390274255 -0.006214120828221437 0.04371251030220477
0.06981900259929127 -0.10827889868496285 -0.0093056847273568 0.004864019520106535 -0.09621509426718335 0.13149340073985066 -0.0007308630681342298 0.041859409719992566
-0.05662846492670833 0.067642363573191 0.0010466995154261268 0.09439269638483921 -0.10666177109348417 0.0957921052790821 0.00319859271253032 0.10833670952945913
0.08535801912776243 -0.11065501823173034 -0.016547503258640406 -0.1107811136895894 -0.04455037346436222 0.13745164137406654 -0.016719477956587892 0.006954527336985328
0.0747771722001297 -0.05292248116942378 0.019875224349271234 -0.12325705740780345 0.13510283647174018 0.17542177823821012 0.01976215768549709 -0.0724217098881786
0.15953851720339904 -0.09441743010339843 0.020618776320288905 -0.02580433146325773 0.029312905597327153 0.10734652792851725 0.020665869781846 0.10075231772558518
-0.07515907476314969 0.10387089608029537 0.021330364459423143 0.03422498435276307 0.15182531419850115 -0.12067021829202532 0.019170763962260466 0.06426435286343571
-0.11336934553241508 0.14617588267870324 0.01666870407944594 -0.057026419758188805 0.1388951137560142 0.16244608990724368 0.019014055417433194 -0.12186025558734767
0.005436958097468242 0.1415795001940784 0.017817820087109637 -0.012944016031496777 0.15749927729238017 -0.08196386935622252 0.011647663143041057 -0.08449127094703264
0.09969605342413491 -0.10255960938209192 0.016422470646211294 -0.06833362752892032 -0.07612860333514795 -0.04313242896634951 0.011899049260874622 0.03467247190199135
0.10113887099934583 -0.03354021340136562 0.012461293127395395 -0.0024329546712553653 0.16568948447216506 0.13633369903130907 0.019125780152808986 -0.11157229951779736
-0.07842224445992728 -0.003795652988567263 0.00738915843848463 -0.15170966128011995 0.14710334984897944 0.05923058688764505 0.013893973957611074 -0.05140868986777916
0.02140015806180202 0.020778609486837747 0.01307523844925502 -0.02949405016166968 -0.018772540148892687 0.00893983739935313 0.014490843324303658 -0.16758602570530196
0.12008839789182836 0.09015064916571472 0.013236077403338065 -0.0392971139121504 -0.05733479438418813 -0.0459971783486804 0.0067007866416454644 0.06409338345993575
0.03646948256411738 0.00513352977490567 0.013357213414260624 0.06560759883668761 -0.03945268028927659 0.048367806334455234 0.010675663522643122 0.07302891730331007
0.05894000007018365 -0.05188972879023897 0.010542811664510246 0.01258974062095437 -0.08521113062203192 -0.09736502833706648 0.0055945683257709435 -0.031938579957231296
-0.08602890260850474 -0.06782643353695904 0.006222816633504962 -0.040297625575536594 -0.12444356831888478 0.03180939419446266 0.00408247212354443 -0.025331140558005442
0.10102617221526881 -0.11199666028235006 -0.010869890782187188 -0.24628652474618598 -0.0437872103465119 -0.15368810438005387 -0.002449200450117116 -0.2350160898187118
0.013654392197084673 0.12018007067363878 0.015812130434509193 0.09400849996728487 0.0077669455988771206 0.09553880895012246 0.021532752041827252 0.12162553629171542
-0.1319189920642505 -0.026847078172751705 0.018751754691563333 0.011801891009402973 -0.11115846819456625 0.14145152952062104 0.01954291732654768 -0.044069131925557656
-0.10067376105397023 0.22087749690921485 0.01978954283663254 0.03227340014932743 -0.12820419812585526 0.09886299307319209 0.020096913756717027 0.10137159975056992
0.1303292202995227 0.1702360085188954 0.020862456818609695 -0.012088239754582944 -0.09967158475662521 0.20345293767739314 0.030232655214195277 0.09997902475054271

lstm.weight_hh_l0 f8 [200, 50]
00000000: 17d9 d919 83c4 843f 5b6e 17f7 a7be bdbf
00000010: c977 ba4c cc9e b8bf 096d 92a5 e188 7fbf
00000020: aceb 4b65 9661 8c3f 88fc 6738 70bc a3bf
00000030: a6d9 7417 f346 92bf d6c2 d48d 62de ba3f
00000040: 2fb1 4f0a 033d bb3f 6597 effb 1e71 a0bf
00000050: 1a89 03c8 92e7 ba3f 042a afb0 e887 c1bf
00000060: 5267 85b9 c0eb a83f e6e5 dff1 987e b2bf
00000070: c38e 2767 8395 b5bf ca94 d0db 6abe b13f
00000080: 3dec 63be 5aad b43f ef60 234f d184 b43f
00000090: 2399 5640 74ec c13f d08f 5b7a d306 bfbf
000000a0: e899 2353 3520 c03f 74b3 80c5 2a10 b8bf
000000b0: a149 66cd 04e3 b6bf 7d6e 7785 f301 8c3f
000000c0: b01e 0981 0651 a73f b88c 352d 8b4e c3bf
000000d0: 40da 2f4c c1ac b2bf 4370 a01b 9999 96bf
000000e0: dfc1 ab03 2d04 c43f b063 a426 6dcc b5bf
000000f0: f60c 915b 690f 9b3f 6930 3da4 cded ca3f
00000100: d520 9358 caa0 b23f 4750 3233 2cfa a23f
00000110: 2d5a cea5 b832 c4bf 1ea6 c5d1 d39a bfbf
00000120: 6f07 c851 af5d c6bf 92ee 5e26 81c4 b73f
00000130: 5cfb a325 456c c13f 359f 71c9 8de1 b7bf
00000140: ae5a aa50 fbad c7bf 29a3 2e98 b258 be3f
00000150: bfd5 08a0 e284 8bbf 1a7d 803d 00c3 b53f
00000160: 92b6 2ac3 e67e c83f f585 4811 6ef2 933f
00000170: bd55 06e4 fdde a73f ef4a 4d86 4ce2 b0bf
00000180: d73e 2e3c 1803 983f 4f06 c84b 6e3f bf3f
00000190: 8f22 50e5 abf2 5fbf ab32 3397 34b0 c0bf
000001a0: 04a5 2868 996d 963f 5a7d 65ca 6cee b33f
000001b0: e422 254c 6cfe c23f 933a 56d1 47bf 5a3f
000001c0: f6b5 61f8 e901 b3bf 26b4 86e0 64b5 9c3f
000001d0: 1882 1ca2 6221 98bf 7577 acd2 809b b93f
000001e0: 37b5 98a4 7f8d b43f b3a2 442b 8d27 8e3f
000001f0: f361 170a 042e a4bf 640d 00d7 0c55 b13f
00000200: c8b0 4aa9 0e07 973f a6d9 c013 5692 a8bf
00000210: 528f a719 bed4 a33f f444 8f9b 769b abbf
00000220: 2221 923c e91b c13f ac13 b365 c0c0 adbf
00000230: 56b9 1f47 eb32 c53f 6d24 8621 98e2 6fbf
00000240: af3d 51f6 db95 9dbf eaca e2f9 bef5 c3bf
00000250: eb9c 3a47 5bb7 c3bf d3dc 3b0b ea61 c03f
00000260: 82cd e3fb 2c21 a4bf 996a 7759 7913 bfbf
00000270: b75c f521 1d14 cbbf 664a 83c1 d38b bbbf
00000280: d026 5446 1480 b1bf dfcc b7fd 0daa b6bf
00000290: 592d 377d 38bd a4bf 9654 68de fff5 a53f
000002a0: 1228 e3ee 00da abbf d864 9dcd f477 bf3f
000002b0: 5761 b636 9037 943f 039f f842 6e94 8ebf
000002c0: 8d6d 88d8 78c9 b1bf 6206 ade7 326d 923f
000002d0: 6107 8f17 3489 9dbf 4cb5 4851 1372 9c3f
000002e0: 321f f4c3 ebd3 c43f 297f 0f14 9303 a3bf
000002f0: 81bc 7c44 525e c6bf 91d6 14f1 419e b7bf
00000300: 70e5 8507 bec6 b6bf a6aa af4b d0f0 b1bf
00000310: fe32 e05c abdb b7bf 6bba 28d3 6c63 c6bf
00000320: 63ff ebd3 9e69 ad3f f002 b942 714a a9bf
00000330: db16 ac7a 03c6 9d3f aec6 ae6c 9de4 a73f
00000340: 10ff 6885 f69f b53f ac9f 44a3 5636 ac3f
00000350: c8a4 db05 ebaa b1bf 7972 b483 ba9b 8f3f
00000360: e022 bb2d e29e acbf 92b9 18a9 92e8 b7bf
00000370: f442 2c0b e5b8 ba3f d4d3 e8a2 d514 c3bf
00000380: 2ef6 fa9a b4b7 b5bf c24a 25fa 08ef c13f
00000390: cdf0 a8c3 c8d1 b33f f227 44a1 ce17 c2bf
000003a0: 3fc7 7493 c54f c23f 2abd 3dd3 da66 96bf
000003b0: 5199 2148 26b3 c63f 8fb3 3e54 cae3 813f
000003c0: 0dc8 9e48 1289 a9bf a7cd e5b9 13c2 94bf
000003d0: d5c4 e360 09f2 a0bf b36b 9009 ed32 9dbf
000003e0: 137c 5078 d2ed c0bf 8ba8 6688 d59e 8dbf
000003f0: c39d 72c1 c852 85bf 48bc aca2 344a ac3f
00000400: 0731 1cd2 b1e0 a93f 48fe 88ce d8b5 c9bf
00000410: 7583 3f61 59fc b03f fcba aa76 866b 863f
00000420: be94 bc39 be3a b8bf 7881 a6a1 e746 c1bf
00000430: 5589 77b5 be19 a6bf 40ab ce14 7e97 b2bf
00000440: 04f5 2388 2a84 abbf 1bd6 32be 3da3 94bf
00000450: 18d0 7789 d01b ba3f 971a af67 aa3a 6a3f
00000460: 011b 2b99 dada 9bbf 35f0 e45f eb24 823f
00000470: e83d 6c56 b02f b2bf 89e5 1226 84e6 a03f
00000480: 7ba4 5e4c 1dae c03f dc31 03e5 0770 aabf
00000490: 41d0 296a 18ab c0bf 47ab c9ca 2308 b83f
000004a0: beb0 1bd3 7cc0 71bf 5ed6 17e6 2adb 623f
000004b0: 46ee 8fb1 1d98 a4bf 5acf b71c a5b8 c03f
000004c0: 3347 6d27 6644 c13f 690e 8004 a237 ba3f
000004d0: 2936 8f11 47bd b5bf 6df2 44e2 635f ad3f
000004e0: fcc4 29f1 9c19 c7bf a299 a571 5e3a a3bf
000004f0: fa4f 7700 147c c6bf 8332 5363 40b6 81bf
00000500: 3934 c70f 12f5 c43f 9f74 1e3e 6517 b73f
00000510: 13aa ad24 1082 973f 2f61 d12d 550e b53f
00000520: d03e 23ed 7697 a8bf 83f6 48d7 10cf c13f
00000530: 5537 46bc 7e4e cabf e8ae 87c6 4fe5 b8bf
00000540: a91f b5f0 1750 b93f 9fc6 4700 49c7 98bf
00000550: 6242 7ad1 098f c4bf be8f b650 bfa3 cc3f
00000560: 7444 88fa 34e1 b63f 5f30 2a58 561a a3bf
00000570: aad7 072d f398 bfbf 9619 4a16 5a09 b2bf
00000580: df24 0ca5 8ae8 89bf 7749 a0e9 569f af3f
00000590: 6803 4eb0 27ce 623f e3a3 97a1 e68c b23f
000005a0: ab43 6c6b 8af1 a23f 9447 8e32 77a4 b13f
000005b0: a3dd 4d7d a892 be3f 029f 0c51 ad7c 9b3f
000005c0: c4d2 8f82 06ee cd3f 39fe a7b5 82bf b03f
000005d0: e5dd 3241 d0e5 bf3f b36b e1c7 1e63 9dbf
000005e0: 42c6 53f1 1e86 98bf 0006 63ba cf74 99bf
000005f0: 7d29 3d67 4f7d bb3f d48d 8559 2b51 a0bf
00000600: 52b4 d89f 3c0c 9d3f 0373 1257 c245 c33f
00000610: 7e32 8749 ce24 c0bf b3f1 6ea1 fa1b c2bf
00000620: 7958 3427 b173 713f 81f2 3ea8 d8f3 9d3f
00000630: ec1a d0b7 6497 c4bf 74c9 6254 648b bebf
00000640: 9d31 bf6d 674f c9bf 8bd6 a704 0aab 78bf
00000650: f19a d35c 3d94 a6bf 1cb1 c4dc 72f8 aabf
00000660: 5151 1fb4 b3a0 aa3f 2688 b45a 9f0e c43f
00000670: 15b2 637d c9cd cbbf 9ef7 1a2c 1c70 b2bf
00000680: 09bc eba7 9cc0 b13f 497f eba4 ab29 be3f
00000690: 58e0 3bee abdc c23f 17e4 4627 3a1e 9c3f
000006a0: 7ca2 7d38 7b83 ae3f a4d2 f371 44a1 b6bf
000006b0: 60b8 edc0 bb94 9e3f 1046 ddcf 31cf b73f
000006c0: 9b1e 261e a771 9bbf 9551 b667 f1dc b9bf
000006d0: 99cc cfef f453 9ebf 5959 28e2 4428 b2bf
000006e0: 7d7f 8401 2920 b8bf 004c 5183 c35f b83f
000006f0: 3be7 b516 555b ab3f 81f3 2b44 3cdd 7f3f
00000700: 5b3c 8938 6c62 babf adcb 9919 0a4f adbf
00000710: 3796 72a5 de00 a7bf d05f cbfe f80c a6bf
00000720: 37e8 441d 1c99 9e3f b91e e1b7 268b b53f
00000730: 3ce7 aee7 96bc a03f 4618 e27f 6285 b7bf
00000740: ad82 65e7 beed c93f 530c 2e05 e878 ae3f
00000750: 92ba ccc9 127b 92bf 1f76 05e2 8c0f c5bf
00000760: ec38 8bef 40b5 bf3f 76f0 c990 0bd8 bcbf
00000770: effa e4e8 e2bd c1bf 34a3 76cd db48 a83f
00000780: ae7d b72c 8a69 a83f 8428 9895 f882 783f
00000790: e75e 54f7 c020 c03f e70b cb0a dff1 c73f
000007a0: 9f29 2c1e 4cb4 b33f 014c a406 1d5c bc3f
000007b0: a356 0256 50d9 893f 3c1d a5a0 2b23 b93f
000007c0: 98b7 52dd b6c5 c5bf fa7b 6ca1 e797 aa3f
000007d0: c7ce 5004 3c7c c0bf ca5e ad99 f92b c23f
000007e0: 6908 1175 97d6 adbf f252 dd6f 0174 bf3f
000007f0: ccc8 3c60 6174 a63f a4e8 744c 5688 c13f
0.01014044211045166 -0.11619043142803191 -0.09617306588412967 -0.007698899681737766 0.0138580083525904 -0.03854704559852801 -0.017848776156108713 0.10495582544968882
0.10639971734753283 -0.03211304498090221 0.105096029120919 -0.13696011187705903 0.04867365135824166 -0.07224422364370006 -0.08431264179631186 0.06931178919383565
0.08077017925454384 0.0801516359528056 0.14002850667493147 -0.12119790780303608 0.12598291930699124 -0.09399669000477023 -0.08940153135907859 0.013675596724105116
0.04554004979268933 -0.1508344622371618 -0.0729485331538422 -0.022070305167389625 0.15637743643993837 -0.08515054887210627 0.026425977910787567 0.21038218039973636
0.07276596701115363 0.03706491589505894 -0.1577978906249923 -0.12345622893703775 -0.17473403447371136 0.09284217058933056 0.13611664140622792 -0.09328542869627372
-0.18499700011007775 0.11854091849694427 -0.013437052258363445 0.08500672818671653 0.1913727238619925 0.01947948437203269 0.04662316711907575 -0.06595304755073149
0.023449305222640184 0.12206162786608242 -0.001949947230288771 -0.1303773630410395 0.02190246294245403 0.07785682622260506 0.14838937490482984 0.0016325188965741518
-0.07424795450216223 0.02803571339034163 -0.0235648547596857 0.1000290407505114 0.08028409737081153 0.014723875887811521 -0.03941357253251345 0.06770401238468576
0.02248785885119345 -0.04799145690087707 0.0387324720684591 -0.05392046593591174 0.13366427857932545 -0.05811120263528066 0.1656164262089514 -0.0038922282512357438
-0.028891980084436216 -0.15593707276783358 -0.15403309801079187 0.12798810528304347 -0.03931561064555479 -0.12139089998474119 -0.21155132444503064 -0.10760234331545745
-0.06836058346757601 -0.0885323280743253 -0.04050613907346685 0.04289245214401054 -0.05439761081795792 0.12292413730519358 0.019743207301503442 -0.014931546610639673
-0.06948046957443506 0.017994685545323803 -0.028843702257069895 0.027778913341696396 0.16271731441542553 -0.03713664646033827 -0.1747534593973548 -0.09225856910492271
-0.08897006686847475 -0.0700807747631794 -0.09319563882327128 -0.17490921316626226 0.0574464448636707 -0.04939607562528703 0.029075674402540535 0.04666606857007359
0.08447209126552147 0.055102069311316754 -0.0690142525960652 0.015433747429193222 -0.055899684984586306 -0.09339253071150314 0.10438376925254628 -0.14907331900181353
-0.08483437331866447 0.14010727132934703 0.0774198033986437 -0.14135153650596483 0.14305944156654424 -0.021876734870088267 0.17734221002610664 0.008735256858779098
-0.04987389694669284 -0.02027159521226243 -0.03309659297691218 -0.028514579495190606 -0.1322577559921859 -0.014463108277443367 -0.010411804584079648 0.055253643853909795
0.05054240884610022 -0.2008620270225825 0.06635054229947264 0.01094727563517272 -0.09464634809099245 -0.13497634308897566 -0.04316516843006705 -0.07262409217825638
-0.053742722624500444 -0.02015396569614412 0.10198691707756813 0.003201802084251536 -0.02720204887261968 0.008859480728112693 -0.07104017362529869 0.033008699081118094
0.13031355122555852 -0.05163597746431822 -0.13022141631847897 0.09387420369027409 -0.004333961101775139 0.002301772867890502 -0.040223052907063336 0.1306349172806403
0.13489987301960013 0.1024113903986802 -0.08491939715096265 0.05736839425160132 -0.1804691484026434 -0.03755469453135453 -0.17566156409031902 -0.008648398429067733
0.16372895975510618 0.09020073668075888 0.022957088698072847 0.08224995010948953 -0.048030582854719506 0.1391316462704034 -0.20552047913627783 -0.09724901768612038
0.09887838007591533 -0.024197712556946468 -0.1606151841010784 0.2237471717936596 0.08937388531218621 -0.037310312521271476 -0.12342758035069204 -0.07045519870925995
-0.012650569116447517 0.06176253892785415 0.0022955680055364754 0.07246247716069791 0.036999059308193104 0.068915796129913 0.11942532595809623 0.02684279257951428
0.23382645964706772 0.0654222196098936 0.12460042564168068 -0.028698426198711945 -0.02394913051552395 -0.02485966277231988 0.10738083143693263 -0.0318692728785909
0.028366992241150087 0.15056638003888886 -0.12612322416534377 -0.14147885210503616 0.004260723118269743 0.029250512379564334 -0.16087016082038674 -0.11931445179178529
-0.19773571833355855 -0.006022490628756603 -0.04409972913872718 -0.05267676300931809 0.05200730870970694 0.15669624260868992 -0.21721762297183092 -0.0720231635741286
0.06934527492170174 0.11782334114422811 0.147359362912314 0.02745905747153551 0.05959687294563751 -0.08839824468652552 0.029864247942377964 0.09300528836072197
-0.026800738539832208 -0.10102757246051504 -0.029617144715257202 -0.07092695733476741 -0.09424072539377266 0.0952112384414221 0.0534311857436038 0.00777934590837226
-0.10306431179309199 -0.05724364817151382 -0.0449285103762062 -0.0430677233723028 0.029880942617843877 0.08415452946894221 0.03268882349170929 -0.09187903997562427
0.20256792353304345 0.059516192085560825 -0.018047612730863145 -0.1645370582217973 0.12385946129072395 -0.11267158779986794 -0.1386073720149947 0.047430867033943974
0.04768020435198693 0.005984278710011396 0.12599956585540115 0.18706882502564712 0.07696986900933787 0.1107805386748595 0.012621524452963334 0.09819290801998631
-0.17009626204292938 0.05194019170289006 -0.1287913342545066 0.1419670105340088 -0.05827782920870634 0.12286385518138923 0.04385666179440903 0.13697317822681498

lstm.bias_ih_l0 f8 [200]
00000000: 51b8 f24c 91e6 c23f cf94 6384 c47c c83f
00000010: 43be 3f16 df3b 8c3f aa8c 6047 13ef 8dbf
00000020: 2ea3 3ac5 0d76 ae3f 0c89 0855 125e b73f
00000030: 4915 167a 6404 bcbf 32af f758 5d5d b43f
00000040: e6a2 3bb5 d962 ad3f 7317 fc18 7650 c13f
00000050: 1b63 2f77 6475 b03f 4e39 76df c25b bc3f
00000060: 67b9 9fc5 6fbd c33f c1f5 3518 6201 a3bf
00000070: 424d ed5f e667 8bbf b4ae 2a7d 1c00 c03f
00000080: 8348 5bf3 b46c c73f 605b 3f43 3e62 943f
00000090: 4cf6 9b4c c8fb b13f e5dd 1f06 485b c03f
000000a0: 5bcc a980 04f9 aebf fc7f 4cae fda2 c13f
000000b0: fa24 e61a a043 c83f 1b06 8335 64f7 793f
000000c0: 8117 7229 6916 a1bf 18ec 5437 0bbb b6bf
000000d0: afdd 1da8 edaa bc3f 4a37 e5d8 8213 98bf
000000e0: 9043 0394 d4c2 aabf b30a 180c 710f 8f3f
000000f0: b176 e0a1 09ee bb3f 6b76 529d 5013 743f
00000100: 461a 41bd 3003 a33f f3e1 3883 a355 c23f
00000110: 75fd 161a f09a b63f 70d2 e57a 8be6 993f
00000120: 21e0 0536 0308 c23f f7b8 0db4 039c b03f
00000130: 1ee2 b955 c474 c73f 141e 3f23 8101 c63f
00000140: 1c6e b479 5bf7 ce3f f0f1 7a03 a3f4 bbbf
00000150: 9324 eb6f a557 b23f f731 9e8b 6981 be3f
00000160: f57c 462d 2150 a43f 4bed 4ebc d789 acbf
00000170: 8960 a560 1949 c93f 5d18 c227 29f5 af3f
00000180: e3c2 87ab ff3e 96bf d373 29e9 ca0d a53f
00000190: 7648 8a27 4b3e 9a3f 97d3 3582 b666 873f
000001a0: 564a b02c d3c3 ca3f 9932 58e4 33a9 9cbf
000001b0: 9088 185e b0e5 953f 61a7 41f7 2ea8 d03f
000001c0: aec2 aad5 beef aa3f 7bcd 50e6 4cd7 b43f
000001d0: f1fe ca8a 347b bbbf a20a da4c 1c05 913f
000001e0: f32a d712 ee53 bd3f e72e 05da d871 b53f
000001f0: 8a4a 6f2a fc80 c93f fd50 8099 19cb c73f
00000200: fa55 6f59 0786 c93f 450d 2dcc d31d c43f
00000210: 7225 df59 ec6c ae3f c295 1801 306e 903f
00000220: f822 9ebb 5695 b3bf 007a 77cf 519e a83f
00000230: a8dd 769a 338f c13f eef8 5afc 7f0b a73f
00000240: c860 bdaf f1c0 b13f 14dc 14a1 1259 c43f
00000250: 0769 fa8e 18a2 b7bf 85f0 34a5 a421 bd3f
00000260: c24b 5839 a0a4 b03f c001 e4d5 09e2 aa3f
00000270: 2833 9b16 976b b63f 85a3 4e28 f563 c93f
00000280: d6ec 12e2 ea1e a03f 3122 9c6d 3a18 c53f
00000290: edb7 7331 c3d3 b13f 108e 8140 5ec2 9cbf
000002a0: b2ea a79c baec cb3f cd1b 224a 263d acbf
000002b0: a4f8 8956 f625 8f3f 3e32 8d97 3008 cc3f
000002c0: b1bd 3404 0156 9b3f 1603 0d63 cf04 bd3f
000002d0: 67d6 2894 6b56 b0bf f1e4 c741 300c b93f
000002e0: 18b6 a931 466a d03f 721a ab9d 6c0e bc3f
000002f0: 3bca f323 68d6 96bf 2602 4b3e 20cc 8abf
00000300: b91c efd1 4a66 ce3f 2dab 147a 3abc ca3f
00000310: 2098 ecb0 4b35 acbf 60cc e52f 0d82 b7bf
00000320: f32e c4b1 4e00 acbf d105 2941 b86a c13f
00000330: 788e cda5 4f15 be3f 358a 1d38 12e8 b43f
00000340: 4330 0b9e d2cd bc3f 2bbf 192e d5b8 ac3f
00000350: b6a2 1cf4 6fee c4bf 7388 2410 a22d 63bf
00000360: f18f c990 4d07 afbf 218a 9161 3c28 b73f
00000370: eee6 7e7e 2c1d b83f a1ea 5bd2 a2d5 c13f
00000380: 4f63 b756 9312 a53f 9b0c 9ca8 1e9e 96bf
00000390: a6f1 0766 1d41 b13f 485c 3995 af88 bb3f
000003a0: 2503 e07f f405 bc3f d3f6 24c3 015b b73f
000003b0: ccbd 179a 0b3c 8cbf 3cab a319 1e71 c13f
000003c0: 45b4 6bf5 ad62 bd3f 7cdf 95bc 69b3 93bf
000003d0: 138d b046 87e1 bcbf 0245 ba38 149f ad3f
000003e0: c06a 58c9 c236 b53f 44e1 24c0 89a2 c23f
000003f0: 49ea 73d9 bb2f b13f df41 0ac2 461a babf
00000400: ef6b c311 e2ac b43f 8669 5474 0e5d 9fbf
00000410: 9c4a e6f2 cedb a13f b91f 8774 aa79 adbf
00000420: 0c96 3ced cc05 943f 93b5 0517 6cf6 c4bf
00000430: e94b 24f9 4471 803f 549a 7605 89f7 ac3f
00000440: 730c 6e0c e47e b8bf d247 7975 e7e3 88bf
00000450: b86f 89ec 16a7 be3f aa51 35b2 bf9c a83f
00000460: 9d67 7fea 3298 cbbf 5991 f7f5 0bac c3bf
00000470: 33c9 fb77 cb68 b83f e8c9 c8fb 904c b83f
00000480: 3705 4ad8 6a78 9bbf 6952 82ea 4087 b7bf
00000490: 4998 05f6 982d c6bf da21 834d e0a3 a23f
000004a0: 615b 3b9a 8b9a b03f 3462 0b4f e820 b33f
000004b0: 75ce fba1 8dec b33f 3310 d92b b872 ba3f
000004c0: 07f1 43a5 ccf3 cd3f 96c0 611b 429c ad3f
000004d0: 831d 9267 dced a93f e139 049f 36c2 c63f
000004e0: 9bad e1e2 39a7 c83f 2f81 7d8c f35c ce3f
000004f0: c91f 026e 9dd7 ca3f f18a dbd3 9624 d43f
00000500: 047f a61e 81e1 a83f 4c3d 64a1 fd9e be3f
00000510: b50c a12d c1ef a53f 49b5 123c ade8 83bf
00000520: 418a fe39 cce0 cd3f e751 97f6 373a b93f
00000530: cb76 ea01 333a b2bf a874 0fde 8217 a63f
00000540: dea1 82c6 87ae c23f 25a2 893e fda7 c93f
00000550: 0fa8 6611 5761 bf3f e952 0abf 2358 c23f
00000560: 5615 3ab0 046f ce3f d736 2fba 626d 8a3f
00000570: ee3b a6b9 5c2b b93f 1199 5df0 40d3 a63f
00000580: 3683 4f28 8df6 c73f e005 054d 18e2 d13f
00000590: 1987 e282 2775 8f3f 1d4c d725 eeea c53f
000005a0: b55b 0deb 81ba d43f 42c2 2eba d49d c13f
000005b0: c116 88ff 82bc c63f 65b2 31fa 0a09 cf3f
000005c0: c01c 5532 dc89 a33f abc5 f490 f928 6ebf
000005d0: ce02 b0a2 51de b03f eea2 2d54 438e c33f
000005e0: aa84 f074 e99c b33f 7e62 7fb0 c856 c23f
000005f0: 6384 7f4b 0f3a b3bf c4f7 6563 bfd2 b93f
00000600: 0bde 71ad 130c c93f 14c4 204a 5102 cb3f
00000610: 110b 239e bb3e b73f ad89 8f32 c3a8 a6bf
00000620: 8f73 58be 138d a33f b0ea 8365 0257 d23f
00000630: c175 5c1c cf5e af3f b19e bd8a 064d 933f
0.14766136414749778 0.19130760635667918 0.013786070696340086 -0.014616156211621895 0.05949442894536215 0.09127916885384851 -0.10944202404615057 0.07954963132914086
0.05739479386631334 0.13526798458058983 0.06429126653473498 0.11077516513453142 0.15421864652257541 -0.037119927840631124 -0.013381767084558963 0.12500339614540723
0.18300496943135522 0.01990601811834425 0.0702481448206182 0.1277856855301557 -0.060493603425947305 0.13778658877072292 0.1895637637465269 0.006339446488881541
-0.03337410574844935 -0.08879156208870176 0.11198315958414783 -0.02351192902397451 -0.05226768786236058 0.015166171247078841 0.1091009159285601 0.004901232624573741
0.037133715727169433 0.1432384863599193 0.08830166470487717 0.025293521286089804 0.14086952340926565 0.06488059182968074 0.18325094400258107 0.17192091198943216
0.24192374651544035 -0.10920161089865821 0.07164987547288808 0.11916217478410106 0.03967384030988256 -0.05573915647206692 0.19754330843966653 0.06241730318383596
-0.021724696010951738 0.04112085434164894 0.02562825611909899 0.011426378105832842 0.20910110170423718 -0.027989207088512023 0.021384006255296628 0.2602651037801618
0.05261036260833883 0.08141022322597806 -0.10734871281146831 0.016621057692200687 0.11456191978428958 0.0837684185291284 0.19924881050117832 0.18588562007119683
0.19940273158015015 0.15716025800257163 0.059424768419897314 0.016045332018753695 -0.07649747925291794 0.04808288247635417 0.13718266527369605 0.04500961261281754
0.06935034313699184 0.1589682852297477 -0.09231713762929782 0.11379460366601009 0.06501199150106543 0.05250578628511304 0.08757919599447617 0.19836296527980948
0.03148588189784511 0.16480188705487955 0.06963748891186557 -0.02808520573343115 0.2181618943139561 -0.05515403418490159 0.01520912601085584 0.21899993324258732
0.0266952666108275 0.11335464637978662 -0.06381866805244273 0.09784223180749387 0.2564864621152494 0.10959509705853934 -0.022302272028307462 -0.013084651852637807
0.23749671221432836 0.20886927567456706 -0.05509411368102257 -0.0918281785905477 -0.05468984527587208 0.1360693281331309 0.11751268194125852 0.08166612501148836
0.11251560553063293 0.05609766185523165 -0.16352652949833207 -0.0023410954755869683 -0.060602592396008854 0.09045770055812642 0.09419515693926048 0.13933215400159774
0.04115734513806634 -0.022087554017173088 0.06739982357971161 0.10755441086927064 0.10946586725186742 0.09123240484492649 -0.01378640235904429 0.13626457454605567
0.11478698007313522 -0.019239093909589652 -0.1128162906248245 0.057854301380880116 0.08286683478983559 0.14558526880296985 0.06713460978418441 -0.10196344601923311
0.0807629865043251 -0.030628419733241617 0.03488012995798792 -0.05756886169871173 0.019553377132202995 -0.1637702095426162 0.008028544285968624 0.0565760440033968
-0.09568620017494016 -0.012153442642702492 0.11973708414865214 0.04807089853662501 -0.21558224153596664 -0.1536879492770236 0.09534904174123397 0.09491830966070547
-0.02682654328464659 -0.09190755582160083 -0.1732665253904904 0.03640652605242041 0.06485817447115273 0.07472087793156207 0.07782826618841361 0.10331297941689925
0.23400266713714066 0.05783278068781887 0.05064286007205523 0.17780192150571764 0.19260333612633648 0.23721165046573264 0.2097050463819399 0.3147332257196203
0.0485954618372926 0.11961350622390404 0.04284480745311595 -0.009721139331612465 0.2334227832007674 0.09854459543505066 -0.07120055004858299 0.04314812622735903
0.145951244286393 0.20043912461848482 0.12257904219464442 0.14331480816021916 0.23776301007107276 0.012903949076555161 0.09831790478186495 0.044580487576967205
0.18721165149966063 0.27942473908851007 0.015360172921933523 0.17123200271325426 0.3238835139686061 0.137629118833063 0.1776279208863141 0.24246346680174038
0.03816116442117723 -0.0036816477146650226 0.06589231702674711 0.15277902231471024 0.07661303620308738 0.1432734357647582 -0.07510467141357106 0.10087200333325003
0.19568105668052768 0.21100822562723975 0.09080097780956133 -0.044256305620155124 0.038185708032165804 0.2865606299743986 0.06127021046834669 0.018848516672192065

lstm.bias_hh_l0 f8 [200]
00000000: 76a6 7c35 a670 773f fa7a 7b11 4c11 c03f
00000010: 44c9 c3c7 6ac3 adbf 4af2 2bb0 294d 9b3f
00000020: 3bb7 f849 9881 a03f 23c6 1ff0 8b4a b1bf
00000030: 3421 acfc a34d bb3f 79e0 435b be8d c73f
00000040: e8a4 fc90 ee4b c63f cbca e591 30d9 b63f
00000050: f225 9dcd 7cea 95bf 38bc d39b 0249 aa3f
00000060: 174f 2dd4 0abd 633f f0a7 f468 2d31 a7bf
00000070: 4351 1399 46e7 933f f975 a27f 96f6 b63f
00000080: dadd 841f 8bd5 b0bf ce20 bb40 3eb5 ca3f
00000090: c488 18d0 0960 ce3f a947 a948 2ae6 923f
000000a0: 0468 0fd3 f248 a0bf 1309 ba4f cb72 c13f
000000b0: c6ab 6005 442a b33f 4332 7266 e382 873f
000000c0: 15e3 42a8 102a b5bf 5a5b 84e3 88f4 ae3f
000000d0: 1aec 04e2 820b b03f 02a2 31fa 069f b93f
000000e0: 6bb9 8662 2db9 abbf bb29 403a a3ef c53f
000000f0: c612 b912 8fee 9d3f 7dc0 2424 9ebb 9c3f
00000100: 872c ee6c dc31 c73f aafc 13bd e818 583f
00000110: b3d0 8d81 9306 c93f 03a0 c4eb b92c be3f
00000120: 7db3 b8e0 4006 bf3f 5ee6 85a2 e87d 983f
00000130: 6ac6 a3aa 9e22 ba3f 7c12 6bd0 0454 acbf
00000140: fd04 05e2 7d91 b03f 921b da8a de22 73bf
00000150: eaa7 d9c0 b85e a73f 64ff 83f0 c0eb c53f
00000160: eeb1 dbb9 deb7 aa3f 727a f484 d804 95bf
00000170: fbff 22e2 eee4 a53f 48cf d9bf 543f a53f
00000180: 8bf1 481d c27b b83f b9ec c2b2 a8c7 b0bf
00000190: 2b4b 1ed2 39d1 903f f5e0 67eb f1d3 c63f
000001a0: 46a9 91e4 d028 c03f 06d5 6b21 3af4 ba3f
000001b0: 7e2a a94d 8088 c43f 58c8 65cd e8d7 c93f
000001c0: beb8 a1c5 ffc8 a23f 956a 33d9 01aa a83f
000001d0: 2489 5a5d 1d73 babf 01bb 357a c8d5 a43f
000001e0: cdd8 d831 46e5 c53f 6181 8555 5a54 d13f
000001f0: ed3c 7cc2 997f b33f daa5 182b 2bd9 ac3f
00000200: a05c f8f8 4f70 8a3f 0989 bc8d 45f5 773f
00000210: 564d 5654 249d adbf d2f1 54aa b1bf c93f
00000220: 7f11 2f78 b552 953f 52ac 3fe6 3d41 c43f
00000230: 7d3d cf87 3f18 9a3f 147a 8537 dee2 9e3f
00000240: 7dcd 8133 f6a7 b83f 9d89 6b13 86d4 c43f
00000250: b68b b557 b58b 8bbf fcd1 32c9 41c4 ae3f
00000260: b271 e91f 7b5d bd3f 9f9e 94d4 0bd8 c83f
00000270: 6592 1269 4a78 c63f b5fc 03f7 5aa8 ba3f
00000280: f17f 97ca cb5b c03f a60e 1166 2c9f b43f
00000290: 4cab 60a7 3d59 ce3f 9f66 e1bb 8937 bd3f
000002a0: 3b6d 2fa1 81ae b53f 6ef7 c5a1 c782 b83f
000002b0: 44c0 182b 4057 b93f 96f7 dd73 4443 d03f
000002c0: 21a2 0665 5574 c83f 9336 c8c8 228f 7e3f
000002d0: 0f68 a6ae 7642 c23f cf95 6ab8 5fdc b63f
000002e0: 390d af6f e6e9 c43f 4d43 0068 2f56 b93f
000002f0: 2150 8e83 ba1d cc3f 2c93 ab1a e4b2 c43f
00000300: 4656 5082 58ab d13f 20b2 ab30 795c a53f
00000310: 23d0 71a3 41e2 c73f dce6 4ee9 e7b8 bd3f
00000320: e087 32c7 b41d ba3f ab3b e320 c474 9cbf
00000330: 0ab7 3a05 9da4 c03f bce3 9b1c f434 bbbf
00000340: 7c9a 31b8 2690 c0bf 84c5 c0ad ffed bd3f
00000350: 63bd eae1 9e28 a23f d965 a90c f85d 6cbf
00000360: 70ab 27cb d5bf a9bf fec2 fac6 ac83 abbf
00000370: fcb2 78c6 ca8f 98bf ad16 5977 7568 b93f
00000380: 417c 7405 e5c7 b7bf b7fd d0e5 5cdc b73f
00000390: 140a 9c0d 0802 a3bf 0c08 b511 aa19 c03f
000003a0: 9bb9 8762 baea ba3f f085 1770 91f8 c53f
000003b0: b552 02ed a03a af3f fdbd e367 6098 ad3f
000003c0: ac9a 1f5b 55ea bdbf 9a41 75c4 1c3e bd3f
000003d0: 4c62 5583 633d 9c3f 18ca 6c9b 275e a6bf
000003e0: 1383 ab5c ca82 bd3f 5c5c 4600 67c9 a03f
000003f0: 8210 a539 c232 b6bf c71f 0bee 784f babf
00000400: 70db c4b1 6b15 98bf 4ad6 916f 5abc b93f
00000410: 6768 c1a0 2863 bebf 0109 a1aa 887d c23f
00000420: e83b 6d14 377e c03f c7fb e43f c9f7 ab3f
00000430: 8ce8 1dca f1b0 b0bf 0797 f643 d246 bd3f
00000440: 7c66 e074 6531 b73f cabd 6bde cecb c0bf
00000450: 0b58 5193 82c3 ae3f 0c51 4c76 632f a2bf
00000460: ffa2 b6fd ec95 913f 8749 32e0 e6e1 ac3f
00000470: 7734 7215 f9ad b83f 7e9a 157a 0d40 7a3f
00000480: 03b7 c78b b251 be3f 7661 014c ef05 b63f
00000490: fba3 56b7 be2a b3bf 00c0 3d0f f1bd 8d3f
000004a0: 17b5 2c12 26e6 c6bf ac5a 910a 9a84 b3bf
000004b0: b74c da6e 7dd1 ce3f ed2e 146f afbf b33f
000004c0: f0ca b7fc c20a b63f e9d4 2493 25d5 c23f
000004d0: 2815 415c 0c57 9fbf 2ad5 e086 f710 99bf
000004e0: 786f 858d f21c c73f 0deb 2ead 1cb7 bc3f
000004f0: 26c7 df59 0cd1 c73f ae26 4189 debd cb3f
00000500: a202 40aa 2b85 ce3f eb29 b4ab 1488 c93f
00000510: f40c ee90 a5b7 ad3f 281d 2de8 bd54 c33f
00000520: d207 f1ae 28e2 c33f dbea 1ed0 41b4 92bf
00000530: 7109 9945 49bd bc3f 7ab3 87ba 1a27 b63f
00000540: 7b33 c817 a590 bb3f 9aeb e953 14c0 aebf
00000550: 57ca 53f5 f4c1 b43f 5124 018f bd04 c63f
00000560: a07d d674 c494 bb3f 04ee 7670 0187 a33f
00000570: 2c4d f4e9 a992 c33f 762b b3b6 985f c93f
00000580: 0b07 827d 48a6 bb3f 4f46 bd00 0a2e b93f
00000590: 1861 6365 6c44 d23f 2f39 fd5b ac99 d23f
000005a0: 3506 78e9 fe46 d03f 06ba b02d aa78 aa3f
000005b0: 284b f28b 5899 cf3f 912c 7bb8 f69c c73f
000005c0: fab8 9d2f 433e d03f dac5 ff0a a9e1 ba3f
000005d0: e904 9b90 6658 d03f 8d1f 1353 6597 cd3f
000005e0: 618e 2a67 18e9 943f efa7 c073 aa97 8abf
000005f0: 7d37 72f3 0aed b13f e2c0 975e 0892 c93f
00000600: c76f e691 53e4 b43f 2853 3a0b 28ad b83f
00000610: 05cc 5046 aa80 c33f 6fce c03f 50e0 ab3f
00000620: 8196 d95b 6d8e ab3f 62ec 1f85 4146 cb3f
00000630: d84a 2574 ba76 ca3f 52c0 fcee f083 9b3f
0.0057226650749640975 0.12552786687498224 -0.05813153923544914 0.026661540391602657 0.0322387304589555 -0.06754374134450152 0.10665345114478414 0.18401317077928406
0.17419225768507052 0.0892515522189498 -0.021402311372446144 0.05133827354608694 0.002409478330642655 -0.04529706865498884 0.01943693455980734 0.08970013252334032
-0.06575841445452771 0.20865610275928365 0.23730585728578124 0.018456135449305276 -0.03180655313890671 0.136315740517667 0.0748636735085447 0.011480118335634453
-0.08267311199132295 0.060459401867936705 0.06267564790771055 0.10008281334160787 -0.05414716556275575 0.17137565941113828 0.02923034240508817 0.028059454875972712
0.18120913809648106 0.0014707825505977747 0.19551318956258043 0.11786996847206414 0.1211891697536895 0.02391780368768647 0.10209075609216148 -0.05532851261299229
0.06472002761895009 -0.00467192583676636 0.04564454416397708 0.17125713104177998 0.05218406695152909 -0.020526297678879542 0.04276224623163213 0.041498802584924166
0.09563840117420434 -0.06554655422489732 0.01642313332520044 0.17834304804251358 0.1262456050929563 0.10528910938213096 0.16041568557769276 0.20190153149775614
0.036689751505819754 0.04817205215814117 -0.10331901101247759 0.04069353572673685 0.1710593932527388 0.27077349044522775 0.0761657810037268 0.05634436513021131
0.01290953138872758 0.005849143690087163 -0.05783952264314489 0.20116253678305768 0.02082332178157875 0.15824102156270442 0.0254831244126854 0.03016230787158676
0.09631289250846993 0.16273570965047393 -0.013450066317721592 0.06009107190167026 0.11470765618418602 0.19409320716771547 0.17554597979064393 0.10413139849332505
0.12780139343431032 0.08055379382954672 0.2370984141610627 0.11412869297910298 0.08469400582491897 0.09574554156821843 0.09898758937993174 0.2541056758417367
0.19105021889596777 0.007460723758880089 0.1426533081801726 0.08930013897278076 0.16338806584654167 0.09897133149230548 0.21965724395397593 0.16170932104355396
0.27608311391790996 0.04172114104389757 0.18659229736988533 0.11610269018174385 0.10201578009812762 -0.027789177424718463 0.13002360110606787 -0.10627675722561397
-0.12939914697490795 0.11691282264725628 0.035466160848381965 -0.0034627766338359675 -0.05029171090048734 -0.05373897484731137 -0.023986023296106204 0.0992501655938109
-0.0928938997571871 0.093206220729363 -0.037124873791999274 0.12578321327788478 0.10514416604539749 0.17164819691883748 0.060994175845882216 0.0578031660860425
-0.11685689425176332 0.11422900959337881 0.027577929392778963 -0.04368709347035721 0.11527695429277811 0.03278657797198356 -0.08671201617568339 -0.10277515231712107
-0.02351921341434199 0.10053029273861927 -0.11870054173178489 0.14445598918434402 0.12885178086659654 0.054624833154313594 -0.0651999586533824 0.11436189803370321
0.09059747794563039 -0.13121972904580864 0.06008537338554739 -0.035517795744597874 0.017173483834684863 0.05641099440358049 0.09640461705767388 0.006408741611585554
0.11843410408593162 0.08602805715179848 -0.07487098670993923 0.01452244117510304 -0.17889858138497836 -0.07624209173205071 0.24076812660914523 0.07714363538633125
0.08610171003219214 0.14712972340354405 -0.030605500345946585 -0.024478786094012474 0.18057090673653042 0.11216906765086439 0.18606714619050385 0.21673185064201078
0.23843904316892855 0.19946535476658708 0.05804173845447194 0.15102361523370544 0.15533932249132804 -0.018265751197513374 0.11226327847638175 0.0865341859241208
0.10767585592857458 -0.06005919956529411 0.0810845469421023 0.17201966745986622 0.10773876049505882 0.03813938615664017 0.15291332171964578 0.19822987481014892
0.10800602974088862 0.09835875051546704 0.2854262342566627 0.290629472573431 0.25433323669139735 0.05170184905761137 0.24686724503825386 0.18447765357845872
0.25380019807825216 0.10500580328496004 0.2553955471194756 0.23118273311979146 0.020420438095824504 -0.012984592111099117 0.07002323573598619 0.19976906412876533
0.08160898506179058 0.09639215730778672 0.15236404832248254 0.05444575098263448 0.05382100816931957 0.21308154106359029 0.20674830123115018 0.026870503031375677

linear.weight f8 [2, 50]
00000000: ec20 9d46 f32a cfbf 641e 5749 9755 cdbf
00000010: b1e5 8b29 ee2f a83f 138e f1f4 2261 bc3f
00000020: eb4d a176 8c64 d03f 3b19 f4df 4711 d2bf
00000030: 26ff 7885 df12 cebf 2cf3 47d0 b440 c8bf
00000040: e0cc 76f9 6fd6 c9bf e684 38ca 3b6d ba3f
00000050: 8817 c9b3 6233 c0bf fe1a 753c 174a bb3f
00000060: 8bdb ae0a 9526 c83f 5078 864c 0891 cc3f
00000070: cd9b 30f4 48c1 bd3f 1883 dc6d f38c ad3f
00000080: 113c 2f9a 27ca b5bf da94 d7f9 2d88 ccbf
00000090: 1556 7cac 6d7c c8bf 4c1c b709 0e9f ba3f
000000a0: 87e5 ea07 e75d a53f 07af 8d5b 6bb2 a93f
000000b0: 7e67 226f 7526 b23f c6fd 4c91 571a d0bf
000000c0: 168d 67d4 f54f c9bf 8945 6aee d176 cb3f
000000d0: c654 28d8 a8a8 ab3f 3809 d156 4bf1 d0bf
000000e0: 0579 cc53 91df c1bf ee03 ab4b 1993 d2bf
000000f0: 87a9 5271 2fd1 c7bf 570e b04e 41fe cdbf
00000100: 8e93 35fe 9d7a b63f 7c8f 6000 489a d13f
00000110: 8036 a9d4 7e7b d23f 6058 2451 dab0 c4bf
00000120: e42f df99 c94e cd3f e9a3 66ca cdaf 553f
00000130: 9447 19fe 72e6 d3bf 02ef 3b6f 7363 d03f
00000140: 57a0 a9b7 8ad8 cabf 830c ad4a 658d ccbf
00000150: b30e ac8a cb8a d33f 67fb 0734 54e8 d1bf
00000160: 7143 9f1b eef3 d0bf 625a 3d08 8930 c33f
00000170: c296 1f0c 90f7 d3bf 168d aeed f7bf c7bf
00000180: 7d67 82bf 7a9c c7bf 24c7 f2c7 7126 b4bf
00000190: 47d3 1c19 5f44 cc3f 8a5c d7ac fe02 c83f
000001a0: 06e8 1200 4e29 d2bf f0ae 4425 73df c5bf
000001b0: bcdf 5cdf 6442 d0bf e344 8bfe 3886 bc3f
000001c0: 9dd2 6393 cf11 c03f e595 b528 775a bd3f
000001d0: da28 ffb8 ea2b c23f 07d2 c376 dc4d cdbf
000001e0: d4bc 3465 eebe cd3f 4a6a 915c 8101 d0bf
000001f0: 9ffc 99f5 bf48 c1bf 805d 911b 059f cfbf
00000200: a556 53e5 3f2f c9bf 3447 6750 40e1 d3bf
00000210: 3360 55ae 19bc b03f 1878 c526 26b5 d33f
00000220: 0a10 3c97 6d68 d03f 98bc 0476 27d2 c6bf
00000230: 89a6 1d4a 3954 7f3f f907 b351 e715 d0bf
00000240: 5839 42ad 1108 d2bf 643d 0c85 5ea1 c13f
00000250: 4ba0 73ed 7bcf 8abf afd1 9624 bc29 a1bf
00000260: 7a52 5cd2 56c5 cfbf a0eb d7ba f142 c83f
00000270: 2b04 3ef8 7ef3 d23f 1a91 5d09 0403 d03f
00000280: cbeb 280e b1c1 cd3f 7f9d d038 7dfb c33f
00000290: d952 7ccf 0098 cebf 1391 dfa4 eed0 d0bf
000002a0: c039 447b a4f2 c5bf 47be 622c 1f24 cb3f
000002b0: 31e6 a0d5 aea6 b0bf b64a f2f2 9575 c93f
000002c0: 2e42 2f62 1055 d23f 00f8 e80a ee1d d1bf
000002d0: 313b 3ad6 be68 b33f 3f66 36cd 9370 ca3f
000002e0: 403d 176d 635c ccbf f452 53c9 7bbb ae3f
000002f0: dcce fe00 3e0a d03f 2fae c842 885f aebf
00000300: 1423 b9a1 eecd c23f 7698 c14a 8580 b43f
00000310: d87a 00b1 99f0 a33f 4eea a358 8577 cc3f
-0.2434982390207162 -0.22917452889508916 0.04724067933234311 0.11085718612735489 0.2561370047089599 -0.2823047339483257 -0.2349509622308627 -0.189474679660543
-0.20185661011564715 0.10322927176504812 -0.12656816271390547 0.10659928537380023 0.18867743512757004 0.2231760381372987 0.11623054467837264 0.057715994988262576
-0.08511588587065001 -0.2229058713848307 -0.1912972538199688 0.10398948418797821 0.04173204394960366 0.05018935673328256 0.07089933360330566 -0.2516077918007479
-0.19775269385636624 0.21456359998095945 0.05402114523546113 -0.2647274349038926 -0.13963524429068044 -0.29022819890457086 -0.18607132943482105 -0.23432175008939524
0.08780848938256566 0.2750415805514803 0.2887875630156955 -0.1616471191597979 0.22896690381310159 0.0013236531900508947 -0.3109405023034182 0.2560700022001897
-0.20973333328152208 -0.22306505342757896 0.30534637968251416 -0.2798052318684569 -0.2648883123156827 0.14991867925955932 -0.31198502715993126 -0.18554591279562577
-0.18446287489933502 -0.07871161586333791 0.22083653188897243 0.18759139480127757 -0.2837710381242008 -0.17088164634457526 -0.2540523701932178 0.11142307486013041
0.1255435437848477 0.11466164344673009 0.1419652369789393 -0.22893863486355334 0.23238925878238226 -0.25009187736364835 -0.13503264896641995 -0.24704040380559533
-0.19675444314514326 -0.31062324382684214 0.0653701830500502 0.30793145929590215 0.2563737847233375 -0.17828839552519038 0.007648681437652302 -0.2513368890614625
-0.28174249572557164 0.13773709770655806 -0.013091056999158598 -0.0335215372719263 -0.24820981284632976 0.18954297660078812 0.2961118149033292 0.2501840678653636
0.2324734992160685 0.1561123397270698 -0.23901376849302983 -0.2627522096720593 -0.17146736163017628 0.21203984896918568 -0.06504337993182997 0.19890093195552588
0.2864418944200534 -0.2674517733138373 0.07581703882372605 0.2065605880750798 -0.2215694697065178 0.06002413590036851 0.25062513444139056 -0.0593226033709836
0.14690955063476763 0.08008606982329688 0.038945010048555495 0.22239748790873864

linear.bias f8 [2]
00000000: 6c21 ce2e 4bcb babf 75cd be1c e336 763f
-0.10466451542572991 0.005423438222283185
