sequenceold_dataset.pth (torch, 265175 bytes, 6 tensors)

lstm.weight_ih_l0 f8 [200, 112]
-0.11928765470284988 0.09277899545452525 -0.015782247214021827 0.03276789157140519 -0.11247897683722258 -0.021839660228042613 -0.010677852376500617 0.033976716144611646
0.03647657716604307 -0.11813330775329497 -0.0039010858174045662 0.04673534055673225 0.04599626682651277 -0.011525435230570856 -0.007443709250857796 0.1330152352444026
0.021563914011731584 -0.04099208888538422 -0.00383764848431774 0.05283393213491698 -0.10258670636589305 -0.00805654285292065 -0.009177905600649376 -0.05350879286045158
0.14286223543057422 0.1109381990845217 -0.0028829313675172337 -0.04445135269156464 0.1026589044751144 0.04932777141347235 -0.0017934571615325348 0.011458740726718635
0.04223951155988809 -0.12744901067585326 -0.007737602618807111 -0.0441101285831423 0.04418859368655727 -0.09245199310933451 -0.014260037152287172 -0.038779106585762245
0.042509685031546576 -0.025406484917385026 0.0029212761958256487 -0.04973740582795794 -0.08191553767051275 -0.04810987364110603 -0.011518240342416136 0.036114206224890415
0.1363923493361984 0.13279257183294743 -0.001468858798127228 0.04410187200646709 -0.09968252838132612 0.09694226256563201 0.0005143358937096671 0.022123752446116862
-0.07826210374074093 0.003189538806369241 -0.008272298536865041 -0.07515171103578336 -0.004189256622075716 0.025068225000254026 -0.0065541176656974546 0.039467642389722085
-0.020859440498013925 -0.057508027949384866 0.003336609212029237 -0.009272197579822802 -0.03573648674219028 -0.02670823827478681 -0.00864410543611302 0.05795499866854524
-0.06912431510948013 -0.05761184645650437 -0.007668759723159409 0.035489963253519545 0.02243705506964128 0.15853686042321405 -0.010165354292947796 -0.04404331658969467
0.03344178856668709 0.14041225653922135 0.0014248663514077424 -0.019973327109800067 0.04690239054428008 -0.02862380512678628 -0.005102893038187308 0.036074696177838934
0.06441260950874554 -0.11060577035681826 -0.007089071645480955 -0.0011174453832858903 -0.10197556460127508 0.12791439347727565 -0.005831594867396801 0.034078891873155624
-0.06213814295405075 0.0703413186642814 -0.004408416774871216 0.09319465550672452 -0.11210577025688723 0.09802541369356008 -0.00200863552041441 0.10605651806535488
0.07974503276618869 -0.10885834036507583 -0.00948953735532143 -0.11088728365798739 -0.04997193060811923 0.1346037204136659 -0.009575523819917053 0.008305325157635969
0.07386686016125839 -0.04593088327148169 0.022756926462883603 -0.12176701634477669 0.12908972314665546 0.18037840672689806 0.02255784029320771 -0.07616635785629054
0.1554147573049336 -0.08942930209143671 0.023374283571786825 -0.028704379752420333 0.022852002230686928 0.11234134462476512 0.023264894019276085 0.09943473513740668
-0.07598860323874893 0.10888081245597649 0.0239883848338321 0.041325672113834755 0.15112604650884412 -0.11364172167162559 0.021866577397303563 0.06261214046642091
-0.1193435737904174 0.1511703949972912 0.01948977703372049 -0.058263789751956785 0.13262809084817606 0.1674543038921452 0.021616676471958907 -0.12403419323153086
-0.000879481400696819 0.14859141121870034 0.02047230481150375 -0.017692043940773963 0.1512135149826072 -0.07490590238320785 0.014621496953330098 -0.08254297470393704
0.09391568186526979 -0.09759743707428582 0.019134163381041576 -0.06603932861529105 -0.08130012465491536 -0.03820197072434179 0.014875251768263036 0.0338696130146034
0.10015379204409391 -0.028590722850061673 0.015470685486917003 -0.00103522969436449 0.16464900046346606 0.1412479056024242 0.021878734159137957 -0.10502299254744099
-0.08455968862209653 0.0032594759367296465 0.010245025395655393 -0.15318784335354665 0.1408724193066779 0.06625281805658154 0.015464303651397173 -0.050249936505880805
0.015752907970910852 0.025734701181041163 0.015207541804193378 -0.025747459083329927 -0.025084880022993056 0.01383360880844294 0.015749385274798872 -0.16569165623673437
0.11919389719893511 0.09507336897492198 0.01547856941476686 -0.033434250657437735 -0.06368181419612486 -0.04106228641180864 0.009778705432723505 0.06794099958756046
0.03548376559840511 0.010089461342115889 0.015527693421815517 0.06883657772787108 -0.04570126748699116 0.055434564015485896 0.013753343792133768 0.07328658317271859
0.05310308336166371 -0.04485780198089776 0.013657855712276814 0.013221905368738983 -0.08610672759617731 -0.0903257247959388 0.009314073398652247 -0.026513522008093208
-0.09245624555067784 -0.06285724273583702 0.009765576027157667 -0.040672712850096604 -0.13087370065777182 0.03671205984440201 0.007899498253962418 -0.028351098023325385
0.09449700438770255 -0.10719490610268126 -0.004271946269142978 -0.24686036936470448 -0.05005812383657267 -0.14899416054043482 0.0015190403771760304 -0.2408528754410219
0.010527844286324167 0.12465812102706436 0.01621934824171797 0.09025456936732759 0.0049103819457196884 0.09693322149874024 0.02170578540762774 0.12281824981850989
-0.1347598000415245 -0.030693461754594475 0.01888809212492079 0.008885027118647146 -0.1140207610286992 0.13873508655354508 0.019932203193265857 -0.03824900032309813
-0.10350401348568852 0.2184558738332033 0.019791768717383598 0.03005616408780944 -0.1311396107087373 0.09604211544679049 0.019921966573785747 0.09999584052912981
0.12737848365483212 0.17051400417014329 0.02067637911854028 -0.007377947113018331 -0.10241126939789796 0.20342747767683467 0.028215054757938146 0.0987787567841685
00000000: 72e9 c3bf a289 bebf 8ea0 3b3f 5dc0 b73f
00000010: 7002 91ae 3829 90bf 27ed 50fd f3c6 a03f
00000020: a4df 0017 6ccb bcbf bda3 bdc9 225d 96bf
00000030: ac1a fd15 45de 85bf 444a 5569 6565 a13f
00000040: d710 ffd3 0ead a23f 7663 5e05 fc3d bebf
00000050: 1007 2680 2bf5 6fbf 9365 84ce b1ed a73f
00000060: 9a13 849b d28c a73f d988 19bb a59a 87bf
00000070: 7ca1 b17c 4b7d 7ebf 534a 9faa a406 c13f
00000080: f20a d1c5 d914 963f 549d 5042 eafc a4bf
00000090: a560 7ad7 2170 6fbf 46f0 4695 0c0d ab3f
000000a0: a78a d854 1f43 babf f0b1 93e0 f27f 80bf
000000b0: 0f5b 34a3 ddcb 82bf d9a5 c426 8165 abbf
000000c0: 91fe 804a 4f49 c23f ddf5 f120 7266 bc3f
000000d0: a84a 15fe f19d 67bf a07e 25e4 53c2 a6bf
000000e0: 4922 5d9d da47 ba3f 63c7 025a 7d41 a93f
000000f0: 7c7b c1f6 4d62 5dbf 9694 6525 ae77 873f
00000100: f859 7fd1 6aa0 a53f f952 61ca 3f50 c0bf
00000110: aed0 27e3 76b1 7fbf 0ab8 5f4f 9a95 a6bf
00000120: b2e0 7a29 e39f a63f a9c7 da0e efaa b7bf
00000130: f8a8 abc9 5d34 8dbf f39e 1be5 dada a3bf
00000140: ca8f f255 d4c3 a53f 5552 4e57 2804 9abf
00000150: 622d 2837 5cee 673f d081 d666 2e77 a9bf
00000160: 7140 54ab 6af8 b4bf d875 ce7b dba1 a8bf
00000170: 900a a00c e096 87bf b755 50ad 8f7d a23f
00000180: 0d6b e9f3 4d75 c13f 7f4d 96d4 58ff c03f
00000190: a286 0620 d710 58bf 5099 eb43 8594 a63f
000001a0: 1361 614f cb84 b9bf 92d3 5147 35d1 b83f
000001b0: 06b1 dbeb 8fda 403f 402c e2e4 9ba7 963f
000001c0: ff27 1538 fc08 b4bf 8010 9b9b f220 6a3f
000001d0: 73bd 6d1d 11f1 80bf 121b 237d 243d b3bf
000001e0: 945b fb02 c128 71bf f2ef 2d1a 7cab 993f
000001f0: 71f1 7390 7dd8 7abf 0ccf a052 1a35 a43f
00000200: 23df 015b 2d5c 95bf b8a1 9936 b171 adbf
00000210: ac0f 3f6e 6055 6b3f cb69 f04a 4dfd 82bf
00000220: 5acd a983 0d4c a2bf 1329 b287 6759 9bbf
00000230: f0d2 3531 00b4 81bf be9d d70f 47ac ad3f
00000240: f7ec c090 21b2 b1bf ea24 c9c8 4c7f adbf
00000250: 95be 6303 4769 7fbf e72c 058f bd2b a23f
00000260: f17b f846 bdf9 963f 5936 5d93 ef4a c43f
00000270: 6278 ecc1 92d1 84bf b660 b878 d88c a6bf
00000280: dd65 6d38 481f a13f fe91 e560 07f9 c13f
00000290: ab92 5998 5258 573f 2765 ea4a e373 94bf
000002a0: a8da fb12 9703 a83f 1962 a00b 8f4f 9dbf
000002b0: dc8b 6c6b c5e6 74bf 690a 98f0 6178 a23f
000002c0: bb42 4a43 587d b03f 9671 6ee6 a850 bcbf
000002d0: c77e 052e 6e09 7dbf def4 14d8 e74e 52bf
000002e0: e61f f412 121b babf ed16 56b4 7f5f c03f
000002f0: eee7 d2d3 dee2 77bf e382 28dc c972 a13f
00000300: b2c5 a417 92d0 afbf 7079 387f e301 b23f
00000310: dadb 005e 8f0e 72bf e538 90dd 9adb b73f
00000320: 7c3b f2b8 f6b2 bcbf 3e9f fd89 3118 b93f
00000330: f51a d5fb 6974 60bf 084b 9e1c 8526 bb3f
00000340: 76cd bfa3 2b6a b43f 62cc c3e3 23de bbbf
00000350: ff1f c324 406f 83bf e873 dae8 1b63 bcbf
00000360: c215 5cbf eb95 a9bf 215e 8cd8 b13a c13f
00000370: e05b 300d 559c 83bf 1440 7adf 6102 813f
00000380: 7d9b a644 f0e8 b23f 5608 0eb3 4084 a7bf
00000390: 1889 a97b 974d 973f 16ac ee88 1f2c bfbf
000003a0: f010 9515 0386 c03f 6ff7 e5be a316 c73f
000003b0: 5a95 4f09 6719 973f df56 0c70 a37f b3bf
000003c0: 3861 f879 a1e4 c33f 5e6d c9b7 d6e4 b6bf
000003d0: dd73 089e 6def 973f 5b89 2751 ae64 9dbf
000003e0: d969 eae8 8366 973f 8beb 2601 67c2 bc3f
000003f0: 77ae d49b c0d2 973f cb67 8007 8e74 b93f
00000400: 2276 c735 fd73 b3bf 490b a9e8 9cdf bb3f
00000410: 9374 6141 6990 983f b0a3 6d74 a328 a53f
00000420: 3525 aa29 1958 c33f aa6f 0ab6 9f17 bdbf
00000430: 1cff 2f2b 3164 963f 26c6 a267 5907 b03f
00000440: 32e8 6aea 4c8d bebf 9b81 512f 8d59 c33f
00000450: 6a59 ddcb 20f5 933f 3025 0d5f c0d4 adbf
00000460: 90a6 5c10 f5f9 c03f 5746 6583 246f c53f
00000470: ad29 fb99 ae22 963f 28e2 8373 b4c0 bfbf
00000480: cf4b 3ded 9fd1 4cbf 984d d319 0b05 c33f
00000490: e07d 8e1e b1f6 943f 0405 80f8 dc1d 92bf
000004a0: e620 c8e6 f65a c33f 1a64 0381 082d b3bf
000004b0: 236c dd19 e0f1 8d3f f232 de50 8921 b5bf
000004c0: 3160 31ae db0a b83f 5150 6848 25fc b8bf
000004d0: 42e2 d4f7 e797 933f 6808 a714 f4e7 b0bf
000004e0: bbb7 8dc0 15d0 b4bf 89be ce6d 358f a3bf
000004f0: dc67 ea7e ea76 8e3f d9a8 73a0 5b57 a13f
00000500: 3857 66cd ada3 b93f b8a7 70ee e246 9dbf
00000510: c73e b441 18af 8f3f 29db 976b 11f6 50bf
00000520: 73a3 27ec 3713 c53f a56f 984f 6914 c23f
00000530: f6f7 c3fe 6067 963f 5abe 516e c9e2 babf
00000540: f21c 3129 b4a5 b5bf 787d 9cd1 9db3 6a3f
00000550: 7311 2b08 58fb 843f 9593 acc4 a89b c3bf
00000560: 7750 ea80 1b08 c23f 9e23 d2d6 f1f5 b03f
00000570: 415c 81b3 bfab 8f3f 7c71 d613 5cba a9bf
00000580: f534 35c2 8721 903f 0395 c78f 325a 9a3f
00000590: 45cd 9cb5 2125 8f3f 703b dfba 8a5d 9abf
000005a0: 4896 4acd d9af 99bf 6be6 578b cb54 8c3f
000005b0: a5dc bf5a 9b20 903f 6ae0 605a 6235 c5bf
000005c0: 962a 5ac2 7d83 be3f c5c3 7772 ba56 b83f
000005d0: 32fe 666b 3ab3 8f3f 0ba9 474a 4b1e a1bf
000005e0: 9182 528d 734d b0bf 3fb4 79b2 1d06 a5bf
000005f0: b601 3fa0 db06 843f 453f 49d3 9464 b13f
00000600: e972 9199 ed2a a23f 1239 fd93 c8a9 843f
00000610: d59d 6ebb fbcc 8f3f c619 1c22 469f b13f
00000620: 9818 7c12 2866 a7bf 8670 074f eb61 ac3f
00000630: fb03 628e b62a 8c3f 8560 f6d5 e8c2 b23f
00000640: a2d0 b5cc 5330 ab3f d5f0 f410 9af7 a6bf
00000650: ee14 f15c a6f8 8b3f 6c42 3219 1614 8b3f
00000660: cfbc fd2a 170b b6bf ff6d fc31 961f b7bf
00000670: db37 1ec5 4113 833f 01c6 b457 5c26 9bbf
00000680: bd7b f366 36ab b7bf c7fd dd89 6917 b0bf
00000690: c252 4e6d f9ff 833f 48c0 0fc7 0dd3 a4bf
000006a0: d8a5 1d2c 78c0 c0bf 880e cd50 eccb a23f
000006b0: 849f 3eb5 9c2d 803f 2774 43fb 1108 9dbf
000006c0: 5547 6aa7 f430 b83f 2a41 0218 2071 bbbf
000006d0: 1983 42d8 757f 71bf 11c9 8cde 1e99 cfbf
000006e0: daec 8de9 37a1 a9bf 5177 689b 3d12 c3bf
000006f0: d50a 712f 51e3 583f 1658 955b 44d4 cebf
00000700: 10d4 4157 9f8f 853f 14f7 fd38 98e9 bf3f
00000710: 57de 0a09 ce9b 903f d24a bf67 ec1a b73f
00000720: 003e e29d e81c 743f c5a6 3b98 9dd0 b83f
00000730: 0fca d699 0a3a 963f 9a8c 524e 0471 bf3f
00000740: 6236 ff22 cf3f c1bf 907f bf59 1b6e 9fbf
00000750: 386b d767 6657 933f 0576 3027 5032 823f
00000760: 61ec aeef 7630 bdbf f910 c741 12c2 c13f
00000770: 48c2 6883 1b69 943f d71b fc7a 5f95 a3bf
00000780: 9aff ec30 3d7f babf 74c9 ddb0 5cf6 cb3f
00000790: f410 7c1d 4b44 943f 458f 3307 0bc7 9e3f
000007a0: 2a23 9ac9 2ec9 c0bf 7df3 e150 3796 b83f
000007b0: 3e2b a08b 6c66 943f 4903 cfd0 5399 b93f
000007c0: 467b c12a f04d c03f e4db b523 67d3 c53f
000007d0: 478f 7450 302c 953f 9514 fe98 5638 7ebf
000007e0: 0c4a cefc 9f37 babf 4469 dd5d e909 ca3f
000007f0: 18c2 c245 68e4 9c3f 6273 ed89 9049 b93f

lstm.weight_hh_l0 f8 [200, 50]
0.011434654891294898 -0.1135469131505776 -0.0902352702678332 -0.011643154992166602 0.014413318711707947 -0.04287946412137607 -0.013578192051423396 0.10239579329951466
0.10818188882444876 -0.028147654968881004 0.10066459358863279 -0.14085106621276236 0.05536065546442607 -0.07089079150120348 -0.08316618810750663 0.06994866866261193
0.08504781432666066 0.07794334501277013 0.13572724055506302 -0.12058142458411474 0.12363342025727658 -0.09503410343224232 -0.0849031873802981 0.017195225986620138
0.04987569543986689 -0.1519686306909104 -0.07389208159504498 -0.02621869196037248 0.15869956540572602 -0.07728528984532988 0.02267170996769202 0.20593816376605253
0.06790869828046629 0.03442023905096966 -0.16062434616119672 -0.11952920795764653 -0.17778793605309176 0.08861359180104095 0.13757464399770009 -0.09546708562529423
-0.18557015156071052 0.11673249262679657 -0.009029532486867522 0.08057433376151854 0.1885767121814237 0.023816575629051043 0.04709522469377653 -0.07037804769400459
0.02787029121559024 0.12104327973351169 -0.008977771855586326 -0.135243590859115 0.017911915260883256 0.07626961436261864 0.14795023678683802 0.0011160172658803038
-0.07165800058960478 0.024268189974640614 -0.022535118910451735 0.10405062396564253 0.07848148694732648 0.010551789903369573 -0.04395223217247229 0.062242027913087285
0.025159517162505696 -0.05092546396661239 0.03986199417088219 -0.05585211590355316 0.13242945402447914 -0.059570657559576 0.16968075964965126 -0.0065903188730018535
-0.027623513905745606 -0.15096870078450297 -0.15300508560982967 0.1263383287719265 -0.03415753965506793 -0.12689396621973292 -0.2146962478413044 -0.11302012558690794
-0.07143576424280199 -0.08763465373059814 -0.03712787097258699 0.04484862941401374 -0.055112280497500506 0.12469074693472006 0.02509351839659838 -0.011547703442365772
-0.06627602537305265 0.01610952166080827 -0.03139962625562664 0.031197561781869554 0.1586188998293798 -0.04450716559814969 -0.17345374436845054 -0.09123216777995401
-0.0862994328992272 -0.07463485158485841 -0.09079959682585602 -0.16917862940686687 0.05862509061100075 -0.05253639465284174 0.027421069324748054 0.04292295204578264
0.08937370133165158 0.054799053546302684 -0.0660181893146177 0.01783894598221461 -0.054871337472885286 -0.09519963057351288 0.10524044961283555 -0.15085583651845402
-0.08847841864919323 0.1475541309885667 0.08156779520269171 -0.14622529887946684 0.14161824627863062 -0.016999855758266454 0.17826696257104546 0.013509661471305917
-0.04591712738697951 -0.027762794158806 -0.03516855152160518 -0.03291073821041896 -0.12594582502652 -0.007548019123612504 -0.008254026385985545 0.05473262979255289
0.046733218485366296 -0.19522591851125692 0.06463383361522176 0.012457634393196486 -0.09781552704641176 -0.1387420255297188 -0.04669115165047271 -0.06894145482805489
-0.056526490173009016 -0.02726517593688245 0.10618537358203974 -0.002567613197539268 -0.030092182843650877 0.006718573716106072 -0.06693017038781292 0.02953899596485308
0.13369074284185611 -0.04505582373251057 -0.12446550177499427 0.08789544313637253 -0.005719674271784043 0.0021008020255123194 -0.035161519633238214 0.13892549699480686
0.1327478006183121 0.1038111765300381 -0.08791602475168996 0.06083871227400424 -0.1884752583975583 -0.041550789259288096 -0.1763965408406059 -0.00801981821594461
0.16610258876651 0.09448223764534021 0.024781224576439893 0.08217576525510883 -0.05370663746389794 0.14343257200054604 -0.20418243397098418 -0.09982465192460589
0.10109782182048471 -0.023247128743416688 -0.16811452094191695 0.22391799391401956 0.09033064617868361 -0.04607631200117125 -0.13150486699564617 -0.07205266839518114
-0.021990636040407397 0.06767205447228275 0.010805057704570476 0.07290776414180684 0.04059285442219536 0.0691271882068799 0.11529601539526613 0.021375675745989017
0.23830054643996512 0.05816419934719113 0.12703970880073534 -0.02802421898235026 -0.030326650138380352 -0.02217714015140886 0.1108530849364646 -0.035106733642348655
0.022460492042178246 0.1537759904984592 -0.13037485678666444 -0.149233718743975 0.0011456600219811675 0.03223382034561879 -0.16950689234455818 -0.1242201470125738
-0.1941744236458962 0.000745354333216653 -0.04397967264100782 -0.050325236966183795 0.04895247811584703 0.15833209803326345 -0.22557731657575297 -0.07607268359698989
0.06769040247651287 0.1186923639543338 0.144472034607802 0.034361349209391524 0.05965171952864035 -0.08377303127869132 0.02847363983957039 0.0992231266274024
-0.028531452728555215 -0.0997729561184219 -0.030664126355180742 -0.06932387206210901 -0.1017456521931057 0.09814704917442033 0.057789489799975516 -0.00010628777227219391
-0.10759365221681153 -0.05474331220081436 -0.04946739355142289 -0.03519404827739583 0.030553156862595254 0.08699572840349384 0.031921067155555684 -0.09518222122828712
0.19756250541829073 0.05597158692084502 -0.010042888032823933 -0.17167752462428662 0.12960297003724275 -0.11183198188606965 -0.14580216148887148 0.05146268853958399
0.055861330382976464 0.005153017445135658 0.12316527802849313 0.19011190685916268 0.06911432290931355 0.10879113218400968 0.011781996921611288 0.0968332745549083
-0.17801697686050225 0.04677284960530237 -0.12113070741950416 0.13397882107062917 -0.05079734101341398 0.11524642091523869 0.043466055503974275 0.13466728723800298
00000000: f6ac 6466 0d6b 873f b621 8b16 6911 bdbf
00000010: 1afe be9e a819 b7bf 3815 4fcf 5dd8 87bf
00000020: 0eea f2e3 ba84 8d3f 7a83 2410 4cf4 a5bf
00000030: b8b9 6516 e2ce 8bbf 092a 7857 9c36 ba3f
00000040: 7e40 85ea ceb1 bb3f 72a5 3326 bdd2 9cbf
00000050: 110c 54a1 27c5 b93f 2dca 7e61 6807 c2bf
00000060: f5df 6859 3b58 ac3f 38d1 151f e625 b2bf
00000070: 7702 0e1a 614a b5bf 16fe 4dec 27e8 b13f
00000080: 0119 218d b1c5 b53f 194c c555 18f4 b33f
00000090: fc1e ae9d 825f c13f 6b07 189b 6cde bebf
000000a0: ac97 b298 70a6 bf3f 7b04 3fae 2754 b8bf
000000b0: dfe1 1f1d 37bc b5bf 7b19 0a15 a09b 913f
000000c0: 9c18 8fa1 4e89 a93f 25ed 6a45 b573 c3bf
000000d0: 2e53 e269 97ea b2bf d406 0ea2 12d9 9abf
000000e0: fb4b a771 4450 c43f 87fa 5800 f8c8 b3bf
000000f0: 6f2b 6cb3 4037 973f 73ce 2f87 2e5c ca3f
00000100: 3781 3ae6 7662 b13f cbbd 1692 879f a13f
00000110: 9913 daac 568f c4bf b749 1857 7799 bebf
00000120: cd55 7c4d c1c1 c6bf 943d c45e 61af b63f
00000130: b64e 5dc2 0b9c c13f e5e5 9aea 8770 b8bf
00000140: f393 0842 c3c0 c7bf 6370 363e 2ee2 bd3f
00000150: 2e89 d555 137e 82bf 0e18 6700 85a0 b43f
00000160: 289f cd1d 4823 c83f e1ca b755 5f63 983f
00000170: b80f b783 dd1c a83f 61bb 33b5 4b04 b2bf
00000180: da2d 3495 078a 9c3f 9f23 db3f b1fc be3f
00000190: f4e5 1524 f062 82bf 71e3 dd77 a94f c1bf
000001a0: 6f51 0449 8057 923f ccb0 5dcb 6786 b33f
000001b0: a3ab 378a 08f0 c23f 4e96 286a ea48 523f
000001c0: 2e73 07c1 2d58 b2bf f8c6 18a9 c2d9 983f
000001d0: 106d ed3a 7213 97bf 7592 0fcb 0fa3 ba3f
000001e0: 60bc c7db 5c17 b43f 7cd5 6444 2d9c 853f
000001f0: f7af 882f e880 a6bf 7d98 a5e4 2fde af3f
00000200: 909e 959d 6ac3 993f 265b 8a04 e712 aabf
00000210: bd72 a292 ca68 a43f f8b2 6f06 a698 acbf
00000220: 94f8 07c7 72f3 c03f 3d08 0a94 0b80 aebf
00000230: 0154 ba60 19b8 c53f e5df 7940 73fe 7abf
00000240: e898 4da3 5649 9cbf fc65 4b40 f152 c3bf
00000250: 5e6f 68af ab95 c3bf 9b42 27b7 da2b c03f
00000260: 1cef 75d7 187d a1bf 0c9b 7cbd 0f3e c0bf
00000270: 31b2 86a9 2a7b cbbf 5482 2f0f e3ee bcbf
00000280: 9a06 303f 9d49 b2bf 84ea c483 396f b6bf
00000290: 54da 319f 6c02 a3bf b80c 3549 66f6 a63f
000002a0: 3182 b044 ad37 acbf a1cc 3298 bbeb bf3f
000002b0: ca7b 6b83 1db2 993f beeb 0785 52a6 87bf
000002c0: d772 7c31 77f7 b0bf 44df bfb2 037f 903f
000002d0: 9fc3 bf9f 9c13 a0bf f0b3 45ee 40f2 9f3f
000002e0: 47b8 a5c5 9f4d c43f fd08 5da9 a4c9 a6bf
000002f0: d932 b777 bb33 c6bf 3745 f5c8 fd5a b7bf
00000300: cc2c f739 b817 b6bf 4ae3 b206 451b b3bf
00000310: c766 db72 a43e b7bf 4707 3e34 a5a7 c5bf
00000320: 116f cc9d 1b04 ae3f ec74 c4e1 0ce6 aabf
00000330: f872 e2cf 4414 9c3f 8c9e 9146 fff9 a53f
00000340: c187 57e4 31e1 b63f 148f aa1d 9f0e ac3f
00000350: b223 0c6c 91e6 b0bf 08da 5a66 5f44 923f
00000360: dd1d de8f 1818 acbf 988e e7c3 005f b8bf
00000370: daaf 4dc1 09f1 ba3f 30f5 207a 3e4f c3bf
00000380: 5605 808a 85a6 b6bf f327 7ec3 0de3 c23f
00000390: 3569 cd84 a0e1 b43f 527f 44b6 82b7 c2bf
000003a0: c04c 24f4 8b20 c23f 3fea 1202 6968 91bf
000003b0: 3496 19ab 73d1 c63f 7025 9811 f4aa 8b3f
000003c0: 911c e820 7382 a7bf 9fa2 d493 d96d 9cbf
000003d0: a616 44c5 9c01 a2bf 5918 9a20 add9 a0bf
000003e0: 0940 c727 fe1e c0bf a766 91f4 abea 7ebf
000003f0: 5fe3 1aab 7ce7 80bf 9057 f74d ea05 ac3f
00000400: f41c 109a 6aed a73f 3c30 abb3 29fd c8bf
00000410: f6ac 97c9 d78b b03f c936 6f62 6383 893f
00000420: 4b91 b439 700a b9bf 6b8f 1d77 4cc2 c1bf
00000430: 07e5 b312 e7e7 a7bf 7e3d d3ad 25a6 b1bf
00000440: ad2d 4d45 0af1 acbf b4d7 dffb 66eb 9bbf
00000450: f130 d9f2 f62e bb3f d56a cad6 ac08 65bf
00000460: bb05 b734 7cd0 9ebf 84dc 2e66 ef84 7b3f
00000470: e16d eeec 5522 b1bf bbbc 8076 783f 9e3f
00000480: e050 243c c71c c13f abd7 d992 8e11 a7bf
00000490: a094 9a9b f8dc bfbf 3ff7 bcd5 5080 b63f
000004a0: 3baf 0e5f 836d 77bf ee98 d67f b335 613f
000004b0: 000a ced1 b000 a2bf c92c 1689 4fc8 c13f
000004c0: 1ac3 2243 e1fd c03f 46e2 2788 5e93 ba3f
000004d0: 6353 1a23 aa81 b6bf 4a5f 186f 4026 af3f
000004e0: cc19 760f f51f c8bf fcb6 fb21 2546 a5bf
000004f0: eada 046f 2994 c6bf a1a5 a8c7 b16c 80bf
00000500: 893c 4481 d942 c53f cd58 bde8 fc2f b83f
00000510: d24b 71d4 3f60 993f 1862 4b90 7809 b53f
00000520: a39c f8b6 6f7f abbf 9835 f69e ff5b c23f
00000530: ea59 2966 a622 cabf c9cb 59bf 1b8e b9bf
00000540: fc72 6afe 8be1 b93f 562b b766 18ce 97bf
00000550: 95d0 b6d0 c684 c5bf bc5e 6c46 58a9 cc3f
00000560: 7afb 29c3 e81f b73f 32a5 547a 5097 a7bf
00000570: b66c 81c7 26d5 c0bf 3bca 582e 0b72 b2bf
00000580: bd78 729a b684 96bf 08c4 cfac f452 b13f
00000590: 27ba c74b f620 863f 1511 9d4e 15aa b23f
000005a0: faa4 632c 96c8 a43f a7ec 9cc4 51b2 b13f
000005b0: f855 7b27 0a84 bd3f 2c23 0951 81e3 953f
000005c0: e40e cade a180 ce3f 2709 fdab b2c7 ad3f
000005d0: c0d7 4b51 d642 c03f 74bd 1980 61b2 9cbf
000005e0: 4a93 2a0a f30d 9fbf 0d2b adae 9ab5 96bf
000005f0: bf7b 7626 de60 bc3f 95fe b981 82f9 a1bf
00000600: fcc7 171b e2ff 963f eee9 0c81 eeae c33f
00000610: be48 0f91 1fb0 c0bf 7aa0 bb2a 171a c3bf
00000620: a45e e914 3fc5 523f 094d 6b88 f380 a03f
00000630: 1882 88df 66b2 c5bf 7a5e ec3c e4cc bfbf
00000640: d8ae a31f b5da c8bf 06ac 173e 7c6c 483f
00000650: e723 5def 8084 a6bf a8cd ddbd 3ac4 a9bf
00000660: e1a5 2199 4c10 a93f 11df 7ae7 3944 c43f
00000670: 2cc6 b4ae b7df ccbf d503 2bd8 7f79 b3bf
00000680: 64c3 e380 2854 b13f d002 786d 9f62 be3f
00000690: 14de e943 0f7e c23f 6598 338e cf97 a13f
000006a0: 4125 0d91 ab8a ae3f b2f6 a03d 2672 b5bf
000006b0: bbda a29f 3128 9d3f 901e dfd3 af66 b93f
000006c0: 0c8d 8161 5937 9dbf 1bca 8d6f b88a b9bf
000006d0: 7374 6caf 6a66 9fbf a1be 5693 35bf b1bf
000006e0: eff8 adc8 000c babf 922d 673e 2a20 b93f
000006f0: 9aa1 7c81 9596 ad3f eec5 0306 dadc 1bbf
00000700: 7245 87f1 418b bbbf c988 27bf 5007 acbf
00000710: 3a1f 0b4b ca53 a9bf 6303 bb4c f404 a2bf
00000720: 13c0 0ea6 5349 9f3f fc7b 6220 5a45 b63f
00000730: a51a f946 f557 a03f a00c 56af dc5d b8bf
00000740: 1efc d769 ba49 c93f 9f16 a9ce 4ea8 ac3f
00000750: bd56 449d 5d91 84bf 131a dc74 87f9 c5bf
00000760: 6020 e382 d496 c03f f5f7 d850 05a1 bcbf
00000770: b4f1 a32d a5a9 c2bf 4bc6 7b48 5159 aa3f
00000780: 1f3d 3636 db99 ac3f 9df2 7096 541b 753f
00000790: 9397 2279 c287 bf3f 9c28 4543 9655 c83f
000007a0: caa7 94ec 79b1 b13f 063c d352 bcd9 bb3f
000007b0: 77dc addb 2821 883f 5fbf 60c3 10ca b83f
000007c0: a1d3 dfa2 42c9 c6bf 007f ca66 9cf2 a73f
000007d0: 387a e80a 6c02 bfbf 3f70 6dcf 3726 c13f
000007e0: e7b3 c0ec 1b02 aabf 45df cf18 ca80 bd3f
000007f0: 7b5a c0cd 2e41 a63f 0e9e 4315 c73c c13f

lstm.bias_ih_l0 f8 [200]
0.14447628441384297 0.19301356297822272 0.016269060312299244 -0.017052168730394862 0.0546220686050937 0.09521291935025854 -0.11377808634299034 0.08279586974005561
0.0624747180812998 0.1319828426266711 0.06017384913640196 0.11921457654494584 0.15721601769560406 -0.03654564253717371 -0.009372106554930672 0.12461283012521136
0.1915026578363317 0.016038771236099914 0.07717707610379679 0.13146177474298765 -0.06098133455702364 0.1400105090805686 0.19301949992072895 -0.001938140939846165
-0.028544381526775197 -0.08448249654245538 0.11371462306229946 -0.021182847334375112 -0.05913591475236629 0.023132802533289996 0.11188261991533471 0.0020086860224293283
0.04547102376111617 0.14249202953709347 0.08416358745851177 0.030647963868058015 0.13930768818390857 0.06780137879960813 0.17939745253259112 0.16826125152460908
0.2461972917280251 -0.11147922174701197 0.07552057234502985 0.11598459487762516 0.03545714408567803 -0.05200910107729334 0.2029629200079146 0.06746738947284461
-0.01521556329631718 0.041880386169206 0.025669899807617306 0.008258272904942285 0.20924021354620417 -0.03269796335348396 0.01866527338328049 0.26830049616427565
0.052000724581553484 0.07841178686691565 -0.10216486695006415 0.015120648896916063 0.11096893850553462 0.08935108447920745 0.20198112067619528 0.18760536192084196
0.20304885826949204 0.15681716610937435 0.06415241837094748 0.013172611256284664 -0.07835061969931097 0.055585313183019555 0.13133616463366335 0.05055287422436933
0.06587698450810078 0.16680455184936288 -0.08436779019625297 0.11852203078464771 0.06231442858987027 0.05258071872169249 0.08362147346845104 0.19746383424994912
0.034428481023966354 0.16145967012257212 0.07558625699810755 -0.02599691310261554 0.21400787915315725 -0.051561779056559225 0.01170958189358109 0.22391839860798032
0.020328561601731694 0.10700700078605321 -0.055652730182142826 0.09536650215736435 0.2571235454441634 0.10466052044680806 -0.026677787330129994 -0.010431106679280188
0.24164536169478493 0.2041200869105797 -0.05275408010529355 -0.09316730659920114 -0.059313879247751486 0.14426419199892457 0.12200913512715242 0.08648471260656844
0.11707617686920965 0.06458771066823535 -0.1713720366311461 -0.006987189188426199 -0.06891318790296029 0.09513172685264759 0.0901203731680134 0.14386355731563497
0.04585630965257454 -0.016475255739275278 0.07209153240924632 0.11193174981498824 0.10126729149705184 0.08686393696521955 -0.0065709232267915085 0.14164892474731436
0.11058491025535219 -0.014704103601756113 -0.10823896731618865 0.04959154322878373 0.07473085265706465 0.15379570161897924 0.07165709214952747 -0.10364679931127388
0.07618902769102735 -0.034053522932085 0.030271710336776354 -0.06219331490091542 0.024253058373887016 -0.15926919017702426 0.012501191364102476 0.06418606390729248
-0.09122630197728106 -0.01679884040278843 0.11514571815414366 0.054800863118882055 -0.22326147283066008 -0.15880965942988265 0.10005799866117088 0.10308148178805349
-0.03144976387283036 -0.0879401347467432 -0.1778107411447448 0.032082967318664 0.05933615025950592 0.06912675553581848 0.07493647561696337 0.10695576539871982
0.23492645902964612 0.05357271655930413 0.047688459036428175 0.18596221865690638 0.19397011496473404 0.23404124555417918 0.21429225629180115 0.3168512736195815
0.044208849595034766 0.11598852833070773 0.045267098127479415 -0.005856307472326727 0.23786117459927789 0.10710585554595033 -0.06299347234039697 0.04028942139784904
0.15406006010331075 0.20261801032678958 0.1254165143373477 0.15095362179166222 0.24254805479897448 0.018075879999820688 0.10619802683643356 0.04878838048832339
0.1843303338671105 0.2826135928485359 0.01147721779944838 0.17754697182928372 0.32786018175370374 0.1346694939561014 0.18581962614633474 0.2441255923266052
0.03392591198485696 0.003566895963466447 0.06204842884855024 0.15349315809851244 0.07992726076337733 0.13957595353325364 -0.0706691691299273 0.10194636195346936
0.19669473719342898 0.2066692900895466 0.08649231263914763 -0.04868104351087211 0.046531757662977576 0.2862608447460255 0.06766487417542454 0.018633741534507624
00000000: 4872 4dea 327e c23f fd83 561e abb4 c83f
00000010: c072 e927 d6a8 903f 4878 17ac 1f76 91bf
00000020: 35f5 987c 6cf7 ab3f 971b c4b6 df5f b83f
00000030: 3738 d887 8f20 bdbf a904 c730 1c32 b53f
00000040: 52d5 f8ad affc af3f 367a 5b54 d0e4 c03f
00000050: 8a06 3b54 1bcf ae3f 598f 77b3 d884 be3f
00000060: 1e7a 348b a71f c43f dc55 0447 1cb6 a2bf
00000070: 2e37 2fd9 ae31 83bf cdbe 0c5e a0e6 bf3f
00000080: 1887 40ba 2883 c83f 0d53 b5b7 776c 903f
00000090: bae0 dd79 e0c1 b33f fafd 984b bdd3 c03f
000000a0: e77d 2d0b f238 afbf 1276 cc46 ddeb c13f
000000b0: d32c d3eb dcb4 c83f c44a e8fc 26c1 5fbf
000000c0: 8374 9104 bd3a 9dbf b4f9 bb17 a5a0 b5bf
000000d0: c429 21cb 661c bd3f 7732 26d2 f4b0 95bf
000000e0: 48cb c207 1047 aebf 0698 6119 20b0 973f
000000f0: 04f4 86e1 56a4 bc3f 18ca c618 8574 603f
00000100: b873 f05f fa47 a73f bfb7 66c7 2d3d c23f
00000110: dcf9 a5af be8b b53f a05a 020a 2e62 9f3f
00000120: 7f66 6a96 d5d4 c13f 106a 9160 6e5b b13f
00000130: 0d7d cee7 7ef6 c63f 96b9 3dae 9589 c53f
00000140: 39f6 2a92 6483 cf3f 4042 96fb e689 bcbf
00000150: b0a8 65f4 5055 b33f 6ad6 d699 2ab1 bd3f
00000160: 32dd 8354 7027 a23f 9852 71d8 efa0 aabf
00000170: 4009 de5f b0fa c93f b215 55f7 8a45 b13f
00000180: 20b3 fb55 5629 8fbf 1495 e191 5871 a53f
00000190: d147 a9d0 3549 9a3f f8a6 62a0 b6e9 803f
000001a0: 4131 1821 62c8 ca3f 907f 7f96 c9bd a0bf
000001b0: 9d23 024b fd1c 933f 3cac 21d8 d52b d13f
000001c0: 0264 e4c6 d69f aa3f 01de 367c cb12 b43f
000001d0: 93c8 590a 7a27 babf a46b 0d24 93f7 8e3f
000001e0: 93cb c0d9 7568 bc3f c648 b371 b6df b63f
000001f0: 225a db71 84da c93f 978b 00d7 7303 c83f
00000200: 48f9 e046 81fd c93f 9c11 f2bb 9512 c43f
00000210: b4ce dcfa 4a6c b03f 02aa 63f4 3dfa 8a3f
00000220: 05d9 3a45 c90e b4bf e699 849c ad75 ac3f
00000230: a31b f199 9fcf c03f 2962 06fb 10e2 a93f
00000240: ea79 0566 50dd b03f 6a2b 82ff d959 c53f
00000250: d18b baa3 2099 b5bf 5e58 13b6 7557 be3f
00000260: 248f b941 ade7 af3f e5a3 9e26 dceb aa3f
00000270: ff52 ca85 3768 b53f a286 1fb3 7e46 c93f
00000280: 6208 1920 9ca0 a13f 9852 66e1 b5aa c43f
00000290: fb7b d5f5 9e59 b33f a16e 4a4e ef9e 9abf
000002a0: e949 0635 9c64 cb3f ff01 8b35 4e66 aabf
000002b0: 0d1a 437a 31fb 873f 533a 7fab 5ba9 cc3f
000002c0: 4242 04ad 02d1 943f 7ab3 d190 cf64 bb3f
000002d0: 267e 21c0 837e acbf db58 e667 f069 b83f
000002e0: 4cb6 ad50 b674 d03f 6f5a 8028 08cb ba3f
000002f0: b240 7300 6c51 9bbf 1386 6370 e75c 85bf
00000300: d1c6 da36 3cee ce3f 406a de64 9b20 ca3f
00000310: 2bcb 9031 9502 abbf b064 e606 d0d9 b7bf
00000320: 06cf 2287 635e aebf 7343 4fc1 3f77 c23f
00000330: 8232 2f9d fd3b bf3f a1c9 3fb4 dc23 b63f
00000340: 6e41 cb4e b4f8 bd3f 2228 0bf9 d188 b03f
00000350: c5cc 63d6 84ef c5bf 6353 e250 999e 7cbf
00000360: cf6a 4e70 4ba4 b1bf 78e5 a487 8d5a b83f
00000370: 33be 75f7 2012 b73f 3de1 e0fc 1e6a c23f
00000380: 19ce 8b6c 7a7a a73f 71aa 5fb2 e3de 90bf
00000390: 1c28 0436 9774 b23f cae4 d624 8fa7 bc3f
000003a0: e163 2239 a7ec b93f 10a9 7708 b73c b63f
000003b0: 604a d1c5 1cea 7abf e3d1 a64d 8d21 c23f
000003c0: 3e53 faec 4a4f bc3f 003b b160 2f1d 8ebf
000003d0: a89d c688 8cb5 bbbf c8ce a610 1064 a93f
000003e0: bd0e 2aa8 8f21 b33f 9704 5cda 93af c33f
000003f0: 9305 4f83 1e58 b23f da82 60bd 9888 babf
00000400: 733b 3fc6 1f81 b33f d520 9d9e 766f a1bf
00000410: 65cf 8f17 8cff 9e3f 53fb 0e5b cdd7 afbf
00000420: 1de0 2c32 cbd5 983f 790d 89cd ee62 c4bf
00000430: 9611 8f80 399a 893f d43d 5775 7f6e b03f
00000440: 7506 875f 9b5a b7bf 9a13 9018 b733 91bf
00000450: 5919 bf95 307a bd3f 59be c6d5 db0e ac3f
00000460: 67da 21fa d493 ccbf b726 c5fa df53 c4bf
00000470: ecf3 f3a7 669d b93f 4458 1a49 8c63 ba3f
00000480: 1df9 99f6 2e1a a0bf 7e3b bea2 3e83 b6bf
00000490: c30e 0c9b 80c2 c6bf 60db c8be 2d6d a03f
000004a0: d494 abd1 4e61 ae3f b80f 4e82 4ab2 b13f
000004b0: 6867 0d70 092f b33f 0c93 81fa 7361 bb3f
000004c0: 43ab 3ff9 1112 ce3f 6901 2913 e26d ab3f
000004d0: 638b ea27 9f6a a83f 5225 b627 9ccd c73f
000004e0: e462 1642 03d4 c83f c1ff c843 10f5 cd3f
000004f0: 5498 47bc ed6d cb3f 5917 7990 4a47 d43f
00000500: 9cae 68d6 8aa2 a63f 393d e497 6cb1 bd3f
00000510: 7fae 15c4 3f2d a73f b379 1a91 c8fc 77bf
00000520: 832e f226 3c72 ce3f 41ab c712 4a6b bb3f
00000530: 9740 9017 5720 b0bf ba9a 8ea6 d0a0 a43f
00000540: d4ba e173 3db8 c33f 4792 f70f 63ef c93f
00000550: 4d86 baf9 a50d c03f a66a 67c2 7252 c33f
00000560: 21f6 888d d00b cf3f 9058 c8c5 7b82 923f
00000570: c286 293c cb2f bb3f e68a 3e65 cafa a83f
00000580: 305c cfe9 2298 c73f 1d21 ac52 5716 d23f
00000590: e016 c818 5e81 873f 915b c1f2 dbb9 c63f
000005a0: cdbc 9245 a9fb d43f bcb8 2798 d93c c13f
000005b0: 3071 a000 f0c8 c73f 2667 94e5 813f cf3f
000005c0: c282 ecb4 bc5e a13f a2c1 5cb0 5238 6d3f
000005d0: f36c 58c9 cfc4 af3f eaaf 18ef a9a5 c33f
000005e0: 2a9e 09eb 1c76 b43f 16de ddf5 9fdd c13f
000005f0: b29f 3fea 5f17 b2bf e54c 8922 2819 ba3f
00000600: 8342 c50b 4b2d c93f 78d5 02a9 2374 ca3f
00000610: dbfa 2336 5c24 b63f 51f2 a0c3 b8ec a8bf
00000620: 0199 c6b2 02d3 a73f 0fcf 9301 1952 d23f
00000630: 17e1 ab35 7c52 b13f aba7 f839 b914 933f

lstm.bias_hh_l0 f8 [200]
0.002541485567710662 0.1272514158275351 -0.05564474098270038 0.024224850957794974 0.027474531068485783 -0.0626522175457236 0.10231286822203904 0.18724653022722623
0.17869734244877186 0.08600556271944863 -0.025334597215065535 0.05978469795665361 0.005412376309739041 -0.04471550114873196 0.023425814742815354 0.08930968426485515
-0.05721610569490466 0.20477406858531302 0.24419252700805927 0.025726233428635746 -0.03236483327380831 0.13853994833582065 0.07835750245131716 0.0031994709062715607
-0.07783098636430612 0.06454027988673536 0.06441617912731046 0.10225721456124626 -0.06101478631278291 0.17929163980245277 0.032021139896422156 0.025164921651095393
0.18950952309810665 0.0007851814933958945 0.19136921401300855 0.12312388446185683 0.11962740518872213 0.026850313592385523 0.09823802179253292 -0.05896544921470387
0.06916367023091469 -0.0071027896415713394 0.04951605752948615 0.16807427341744477 0.0479669588160065 -0.018944581728117218 0.04822554725150309 0.04658178526596317
0.10201905203335754 -0.06471668810668472 0.016467574380048804 0.17491679265057594 0.12646590618478332 0.10052073009316503 0.15767632541533724 0.20994798119821065
0.036094699308083164 0.04517664400696649 -0.09813980668269381 0.039186606689276815 0.16740235908383627 0.27634001479676334 0.07901194154368409 0.05808146339009224
0.01678491832831523 0.005520174164978257 -0.05306442942412763 0.19827411424490834 0.01893226625223969 0.16567444034287573 0.01975213848817176 0.03571355049042678
0.09283795070586516 0.17057184429260516 -0.005542623942667301 0.06497893203985931 0.11200469535122923 0.19381209656522216 0.17157719971843244 0.1032912582160451
0.13068994991436494 0.0772323062347542 0.2429890870858901 0.11614651832214341 0.08054193158687409 0.0993346865354909 0.0954865025387979 0.25899499881765153
0.18445916139098753 0.0011565125603241128 0.1507753059095844 0.08682958736837693 0.16478431429426163 0.09404589013066579 0.21526773778436434 0.16367569892588535
0.2802294496742118 0.037225956225312086 0.18892057880450921 0.1142672270521919 0.09738946601225436 -0.019593605046663798 0.1345199123101091 -0.10142343750741567
-0.12483720730354914 0.12536477077363284 0.0276179995037848 -0.008108861352945702 -0.05860314584054686 -0.04906319209471219 -0.028049186763397127 0.10378182790003827
-0.08819140527048287 0.09879125089313619 -0.032429395489420317 0.13016044154651984 0.09694719223851686 0.16727846031513827 0.06818691931682938 0.06320298107597891
-0.12105642233539066 0.11876390774962829 0.03215452355050809 -0.05193533075353357 0.1071356898947079 0.04102321822305051 -0.08218934770704556 -0.10445848621019213
-0.02809295237579479 0.09710175684690611 -0.12330822338342391 0.1398277292193165 0.13355044083231324 0.05912540815678374 -0.060726497256170305 0.12194788447910115
0.09505705990055138 -0.13586224269468608 0.05549448526623528 -0.028777692711107458 0.009352444601316245 0.05123575295591625 0.10111356055727358 0.014574123176722282
0.11380864781194523 0.08998193491111246 -0.07941533062732599 0.010208340249108255 -0.1843369035497846 -0.08178793705454658 0.23786615442610126 0.0808007684517458
0.08703018406842357 0.14286463547730602 -0.03354918799040319 -0.016315819277707026 0.18193830565005004 0.10900523522338137 0.19067999439850655 0.2188530505630536
0.23403359689152337 0.19583867413484862 0.06037849177027069 0.15463878925285598 0.15979686258519982 -0.00970072460421764 0.12044176105875623 0.0836744564913842
0.11578946925086225 -0.05784949836280002 0.0839263406924741 0.17964371230059756 0.11253288310921088 0.04330172564378378 0.16076404093301933 0.2023679739009482
0.1051315753713772 0.1016819934199347 0.2815018879152039 0.2958699036057355 0.25836451085379886 0.04874611990513084 0.25504216188789924 0.18614791559365462
0.2495600522261452 0.11224730135515416 0.2515503512424698 0.2318720872852077 0.023735130198611107 -0.01666871684371923 0.07445253519309757 0.20038165196611432
0.08263188006244886 0.09206502593604585 0.1480538064698179 0.0500001556284108 0.06216544274257489 0.21307910207359665 0.21313904359486036 0.02665269104634436
00000000: 76ba b0ac e1d1 643f b9aa ac3e c649 c03f
00000010: 2620 6ead 777d acbf d0f1 743a 66ce 983f
00000020: ecf8 a591 4822 9c3f 8179 61c9 f909 b0bf
00000030: db3e f916 2d31 ba3f d3c5 cebd b1f7 c73f
00000040: 178c d9f4 8ddf c63f ab73 27e7 7504 b63f
00000050: b0f1 fb09 50f1 99bf 5bd5 0c95 199c ae3f
00000060: a551 e7b3 492b 763f 48b9 1d3e f3e4 a6bf
00000070: 6068 cfd0 effc 973f 2536 22dd ffdc b63f
00000080: 7137 87ed 6d4b adbf a146 d263 0936 ca3f
00000090: dcae b662 b341 cf3f 96a8 e64c fa57 9a3f
000000a0: eb2a e798 1f92 a0bf 4d5c a551 adbb c13f
000000b0: abb5 6cbe 3c0f b43f b0a6 05dd c635 6a3f
000000c0: 73d4 0c45 bbec b3bf 0e62 6337 b685 b03f
000000d0: 2861 af26 947d b03f 5813 5260 872d ba3f
000000e0: 7258 927f 543d afbf 5ce9 b248 07f3 c63f
000000f0: 2b84 4529 1365 a03f 3cce fd4d d5c4 993f
00000100: 8c53 fe19 d941 c83f ae9f f36a 94ba 493f
00000110: 10d4 d251 c97e c83f a7c2 1e01 0c85 bf3f
00000120: c5ab fdd0 e69f be3f 1a0a 110b a67e 9b3f
00000130: 1f9a d282 2026 b93f 4834 f127 b830 aebf
00000140: 348e b6d5 b5b4 b13f b4df 8893 d017 7dbf
00000150: 3c97 6e2f 2b5a a93f d93d d031 7583 c53f
00000160: da80 ce0e 208f a83f a7ab d55b 3566 93bf
00000170: f2c6 8dd8 04b1 a83f 86fb 9c58 91d9 a73f
00000180: 845c 0dac eb1d ba3f df73 ecda 4591 b0bf
00000190: ee84 a035 e0dc 903f c14b fa67 ac63 c63f
000001a0: f2b2 8fe9 0830 c03f c4f7 5100 babb b93f
000001b0: ef93 81e2 bc2e c43f cbc3 8d50 93df ca3f
000001c0: aea1 2c22 017b a23f fb1c 1ba1 6421 a73f
000001d0: 864f 23bc b01f b9bf a8e3 5754 4410 a43f
000001e0: d8e7 c4c4 706d c53f 5335 8807 8eaf d13f
000001f0: 3170 ec68 203a b43f 114e 8783 dabc ad3f
00000200: 2b03 25cd 1030 913f 51e0 1b78 529c 763f
00000210: 2641 eac9 422b abbf c3a1 29d2 0b61 c93f
00000220: 6cf4 91e1 fa62 933f f522 87ef d134 c53f
00000230: 31bf 5493 e739 943f 6ec7 c2e6 0b49 a23f
00000240: 6dfe 1b5a 3ac4 b73f 5775 6d56 4cd5 c53f
00000250: 3fa3 15c9 dcb3 76bf b34a 0a94 75a2 b03f
00000260: 5e2f 88f7 56ac bc3f a98d 28b4 d5ce c83f
00000270: acd4 c3de 3df6 c53f a627 00c0 4b71 ba3f
00000280: 5627 66c2 72ba c03f b111 7915 7fc5 b33f
00000290: 3dce 2833 441a cf3f 19e5 bc39 c7bb bd3f
000002a0: a24e 1f62 659e b43f 9d41 077e ff6d b93f
000002b0: 2212 9dad cd71 b83f b6f5 6fc2 5f93 d03f
000002c0: ad99 cf98 5b9c c73f e4b3 efe7 c3f2 523f
000002d0: 2789 f6ef 9a4c c33f c485 12be 763a b63f
000002e0: 5bd1 6404 a717 c53f 1136 6f36 6413 b83f
000002f0: c778 d5aa e48d cb3f f6af 0447 53f3 c43f
00000300: 2e84 6e80 47ef d13f 3d9f 19d1 470f a33f
00000310: 71dd c0ad 8c2e c83f f59a 31f3 9d40 bd3f
00000320: 855e 7f1b 84ee b83f f06d 8b93 5810 94bf
00000330: b92f 04d0 f237 c13f 806a 24eb e2f6 b9bf
00000340: d455 b1ca 54f5 bfbf 848a 45eb f30b c03f
00000350: f14a 9992 e447 9c3f a4b2 8cf2 609b 80bf
00000360: 35de a745 3b01 aebf 1ce3 f78a cf1e a9bf
00000370: 3010 500f edb8 9cbf 95f0 bf24 7291 ba3f
00000380: 31cd 6c41 b693 b6bf 158a b727 624a b93f
00000390: 79ba 1cf2 959a a0bf b06d d6eb 18a9 c03f
000003a0: 067c 1afc 87d1 b83f f87a 306e 6169 c53f
000003b0: ee13 7bac b274 b13f 3225 bb10 122e b03f
000003c0: 6cb9 e6be 8dfd bebf 1fd5 babb 4f67 be3f
000003d0: 02c3 22c6 8e76 a03f 28ce 2f86 4497 aabf
000003e0: f808 559c 3e6d bb3f 9a12 4ac9 fe00 a53f
000003f0: a838 7b70 5c0a b5bf 36fc 0f96 cabd babf
00000400: a0f9 ce1e 66c4 9cbf aea6 0a26 a9db b83f
00000410: 9d79 c2b2 2091 bfbf 8313 0902 e0e5 c13f
00000420: 9bde de4b 2e18 c13f 78c5 ca7c af45 ae3f
00000430: 8188 6e1f 8b17 afbf c474 a7ff f937 bf3f
00000440: 22db 86d3 a855 b83f 2144 9118 ef63 c1bf
00000450: d656 a7ee c569 ac3f 8cb5 3144 e677 9dbf
00000460: 8639 9add 5f27 833f e7c6 a996 923b aa3f
00000470: 168e c60b 94e2 b93f 1791 4bb3 09d9 8d3f
00000480: 89b2 5a44 9022 bd3f 258d ac5b 0e09 b73f
00000490: a16b d827 9054 b4bf 9681 213c 1ce8 843f
000004a0: 089b 1806 5a98 c7bf 1949 dbe2 0df0 b4bf
000004b0: 14ee 0aed 6572 ce3f 42ee fdf1 5baf b43f
000004c0: a1b7 5632 9c47 b63f 89a3 906c 6349 c23f
000004d0: 51c8 73f2 5b2d a1bf 6e1f d218 18b5 90bf
000004e0: 060c 5420 c149 c73f da90 6060 c4e7 bb3f
000004f0: d3b5 f8b9 3368 c83f c429 6673 6003 cc3f
00000500: 4c3c 681a d0f4 cd3f 22c0 59de 3d11 c93f
00000510: f4fa 11ff ede9 ae3f d75b 442f 34cb c33f
00000520: 8246 673d 3974 c43f 2f85 6137 f9dd 83bf
00000530: ceeb d170 45d5 be3f 2b1d 246e b06b b53f
00000540: ac55 a7ef 60a4 bd3f 89d0 1d0f 739e adbf
00000550: ba10 8c58 327c b53f 3ead a1ae 90fe c63f
00000560: 1bbc ad7c f4ce bc3f 8336 00cf a42b a63f
00000570: 480e 1785 ea93 c43f 05c8 d49a 31e7 c93f
00000580: f93c ff25 e7e9 ba3f 32a9 54c4 d407 ba3f
00000590: 6eea 967e 2004 d23f 1cde f651 88ef d23f
000005a0: 441a 244d 0b89 d03f 194f 995d 40f5 a83f
000005b0: f337 1a5c 9c52 d03f 8cbe d8e4 b1d3 c73f
000005c0: 2884 5973 95f1 cf3f 0178 6238 3dbc bc3f
000005d0: e28e f8a4 6619 d03f 8463 df0b fcad cd3f
000005e0: cc99 e09f 054e 983f 8f19 d7a6 9a11 91bf
000005f0: 6f36 c243 520f b33f 67da f420 1ba6 c93f
00000600: 83a7 79e6 5c27 b53f 722e 80d3 9291 b73f
00000610: fb07 6b58 6df3 c23f 3618 70d2 9e99 a93f
00000620: c69b 0a1f 26d4 af3f 8efe 6e0f 2d46 cb3f
00000630: 68cd dee2 2348 cb3f 5be8 93d1 d74a 9b3f

linear.weight f8 [2, 50]
-0.2405831476820836 -0.22590774364127122 0.0446130524863213 0.12034827906136945 0.25744027320993623 -0.278680327353699 -0.24178500633118252 -0.19576844539582974
-0.2103776000832959 0.10809362119460472 -0.12307887548207137 0.1053479719758899 0.18820055027002366 0.2321565091433164 0.1252858027978185 0.06827738304825971
-0.09344497726578771 -0.23428803755501662 -0.18884280249093388 0.11251775320540441 0.044591149375737715 0.05948633685290937 0.08133308012453806 -0.26067526605832597
-0.20626251620637923 0.2231108127309754 0.057464784508549055 -0.27441407305576443 -0.14475801136319513 -0.3010977852009009 -0.1885586676961964 -0.23433296617456686
0.09471819999574384 0.28178552977021604 0.29434501646080513 -0.17126204462719052 0.23829633093160837 0.004448720961675989 -0.3074871788797195 0.2532795709765004
-0.2180862484836458 -0.23183477683831025 0.30654866429744554 -0.27649852570819294 -0.26265134124594325 0.1462906810643486 -0.3210637489681987 -0.1822034875451485
-0.1928944946039578 -0.08774962671835633 0.21777697942534716 0.18390139773586747 -0.28064599944154967 -0.18031858060878403 -0.2550632050495797 0.1076758774256329
0.1327127631162912 0.12056500590428187 0.15049737858576034 -0.23359778475888798 0.22876401585895767 -0.2486580151656688 -0.13385183916685853 -0.255898509604949
-0.20575105190586107 -0.32117974427090346 0.07357338415673338 0.3192355023241493 0.2537243031763657 -0.18681593867668664 0.004523883217144326 -0.26050611501835985
-0.29210532965178887 0.14678771745467348 -0.004556285577695647 -0.04205802558263013 -0.25136207536315164 0.1989103892799909 0.30060001153317567 0.2608542428209053
0.23453277217243562 0.15584187425236587 -0.24542595526629762 -0.2689807003460236 -0.17678187053599376 0.221605413397745 -0.07433312860624003 0.19558239447765705
0.2828328752574821 -0.2643753697291204 0.08418597968624371 0.21530619082760674 -0.22219015829684974 0.05657061679682381 0.2481371576178115 -0.055576875414619385
0.15581738143606522 0.07660308401820143 0.04738935407986927 0.23137464233985097
00000000: 66b3 a1b7 6dcb cebf d51b 6d81 8bea ccbf
00000010: 2095 cea2 85d7 a63f 7fce b212 25cf be3f
00000020: ee09 87c4 e679 d03f 1b74 0103 e6d5 d1bf
00000030: b583 6da3 cff2 cebf 412c 48bf f00e c9bf
00000040: b598 1538 a7ed cabf d6e1 ef07 06ac bb3f
00000050: c521 06e1 1882 bfbf 731c 56ae 15f8 ba3f
00000060: c7dd 3fa4 f416 c83f 177b 29f3 4db7 cd3f
00000070: e7b9 d57c 5d09 c03f 71ad 3f67 a07a b13f
00000080: 60ff 5491 02ec b7bf cd47 9281 26fd cdbf
00000090: 504b 643e 002c c8bf 8c92 3ca6 f6cd bc3f
000000a0: 500a 85b0 a6d4 a63f ce25 af3e fe74 ae3f
000000b0: 45c4 37a7 3ed2 b43f d72e a64f e7ae d0bf
000000c0: f39f bf64 cf66 cabf 6b21 0826 e58e cc3f
000000d0: 6c95 4534 066c ad3f e38b 550b 0090 d1bf
000000e0: 1dc8 5136 6e87 c2bf 6c7f 15a5 2f45 d3bf
000000f0: 9af5 90bf b022 c8bf 9316 0c65 9ffe cdbf
00000100: 4155 51b3 733f b83f db57 b62c c608 d23f
00000110: b224 dc7a 8cd6 d23f e424 5c28 eaeb c5bf
00000120: 9fd4 0d82 7e80 ce3f 4c7f a170 d238 723f
00000130: 9792 4eb4 dead d3bf d9b1 8584 bb35 d03f
00000140: 45e8 780c 40ea cbbf c149 4c10 c3ac cdbf
00000150: 8c8f f249 7e9e d33f 15c5 53df 26b2 d1bf
00000160: 1cb8 3992 47cf d0bf c3c2 702d a7b9 c23f
00000170: e9f8 6ff7 4e8c d4bf 7d9d 1ca2 7152 c7bf
00000180: 6483 f34c c4b0 c8bf 1bd6 fd70 c276 b6bf
00000190: 4d0d 3ab6 1de0 cb3f 316c 7bbc 148a c73f
000001a0: 3eb3 56a3 1af6 d1bf 04b6 49e3 ad14 c7bf
000001b0: ee74 069f f452 d0bf 7877 1c74 a590 bb3f
000001c0: 7052 ac58 bbfc c03f d8a3 6625 59dd be3f
000001d0: d66c 9483 7f43 c33f 6a8e fa3e 88e6 cdbf
000001e0: 20d4 4ea7 2348 cd3f 492d 839d 06d4 cfbf
000001f0: fd94 dd9b 0e22 c1bf 264c 7624 a460 d0bf
00000200: 9cd1 86eb 0c56 cabf c0fe 717c 358e d4bf
00000210: ad28 cf8e b4d5 b23f 2014 8dbe 5a6e d43f
00000220: bdf1 15dc 043d d03f db73 7ead 95e9 c7bf
00000230: d436 7fa7 a287 723f 145c 1ad7 21ac d0bf
00000240: f1de 758d dab1 d2bf 490e f69e f0c9 c23f
00000250: ae4f c298 9ca9 72bf fbcd d228 a188 a5bf
00000260: 51ec 48f5 5016 d0bf 7b66 6548 e575 c93f
00000270: e394 add4 073d d33f 8812 7cfe d5b1 d03f
00000280: f410 297d 2b05 ce3f d570 a164 a0f2 c33f
00000290: d0a9 ba21 1e6a cfbf 3c72 cfd3 fa36 d1bf
000002a0: 8628 3dd0 c9a0 c6bf c976 94f1 905d cc3f
000002b0: 9c87 5ff4 7e07 b3bf 6d3a fa09 d808 c93f
000002c0: e9ba 5d0f ef19 d23f cfaf b6ab 86eb d0bf
000002d0: 35bd 885d 368d b53f 558e 1d3c 278f cb3f
000002e0: 6063 b023 ba70 ccbf db22 1dea d2f6 ac3f
000002f0: ef08 7258 f5c2 cf3f 0baa a37c 9274 acbf
00000300: ee47 b5ee d2f1 c33f ac83 a17c 429c b33f
00000310: 7838 e7db 6a43 a83f f596 fc2c af9d cd3f

linear.bias f8 [2]
-0.10069354117965194 0.0013688963202890376
00000000: 03f8 484a 0dc7 b9bf 362a 583b 916d 563f
