sequencetest_ur5.pth (torch, 264803 bytes, 6 tensors)

lstm.weight_ih_l0 f8 [200, 112]
00000000: d5fa 238e f9e0 9cbf d6c5 24f5 e823 c1bf
00000010: 0825 9ef4 8e75 7bbf 3953 6bd7 b1cd a13f
00000020: 9424 52c7 5792 c0bf a8b7 7b03 72f2 b5bf
00000030: ae9e 1ef6 004e b33f fc67 6dc0 d961 aebf
00000040: d11b 218d c704 b23f e3d4 15dd 8c58 b1bf
00000050: 96e1 8e53 104e acbf 83ad f32d fda8 b43f
00000060: cbfb d28a 3b07 c0bf f4f7 9dd7 01b1 babf
00000070: 80cf 569c b135 923f c993 f7d8 595a a43f
00000080: 3dfb 8fc4 4849 b3bf c838 4549 2312 b1bf
00000090: 4c45 0bcb 4bfd bb3f 4b46 8076 ad05 bf3f
000000a0: cab0 4247 6981 7fbf 6d1a ee7e 1918 bebf
000000b0: 9b67 2e0d 9b63 a4bf cb31 d4cf 8f15 adbf
000000c0: f936 1c2b ef62 b0bf 33ff c3ae b873 bf3f
000000d0: b8db c29c 342f b33f 10e1 e1c5 4268 933f
000000e0: cd86 00b7 e95c 703f d017 0cca e76a a53f
000000f0: 15b2 7d6d 4b13 983f a069 5b95 78c7 b8bf
00000100: a043 ef23 5623 a93f 5a76 a337 edb8 723f
00000110: f6a4 1c96 f434 b1bf eb55 56c2 0b6c 92bf
00000120: e49e e4ab 881f afbf e969 b335 d1a5 783f
00000130: 1e49 8f2c dc8e 8ebf ca7c 7a1f 329f 7c3f
00000140: 4dce 8416 4b28 ab3f 46a0 5d4b a013 a63f
00000150: d27e e4c2 beba 823f 6fe5 f58f ef6e 90bf
00000160: e1ab 054b 9489 babf fa96 4b3f ebc2 bbbf
00000170: ac4b 8fe7 8cb1 51bf fead 1f33 ea65 9a3f
00000180: b28a 409c fe70 7abf 12f3 0b29 bd79 c0bf
00000190: 7cc4 3b89 ae4f b03f 5e88 490b 6fde b4bf
000001a0: 83c3 b17c 0d8c b83f 2873 d362 ab71 903f
000001b0: 9d12 93e9 03a3 b7bf d733 1e21 fd5e b3bf
000001c0: e733 f39b 84d0 b1bf 9e2c b725 4610 c0bf
000001d0: 48e1 e362 b7c3 bc3f 89d2 f8ed a53a b43f
000001e0: 9e96 68c3 0a62 a43f 4e23 d408 4407 b0bf
000001f0: 4c88 cf41 9e30 bcbf 9740 7ae6 930e b5bf
00000200: edee 1bf5 7d3a ba3f 6567 6858 75d4 b7bf
00000210: ad26 5c58 63aa b8bf b664 b845 a3de 89bf
00000220: 76ce fc25 f30b adbf 9e40 073e facb babf
00000230: fb7f dea2 43d5 9fbf b83c e394 c370 acbf
00000240: 3e0a 3d21 3220 a2bf 42c5 5b80 acda b5bf
00000250: 849f 9f7b 3779 b63f 14d6 bdc3 cf63 c0bf
00000260: 955a 4ed7 4052 b9bf 5158 180f af18 b3bf
00000270: a872 71c4 9561 aabf dd98 f698 4a36 b3bf
00000280: 44f8 36e4 2aef bcbf 4255 487c c28a b9bf
00000290: 7728 25d9 1cfc b93f 9976 0be4 5de6 b53f
000002a0: 94aa cebd 76b9 78bf 118b a137 6c02 acbf
000002b0: 799e f719 e7f6 983f 025b 7914 c535 b3bf
000002c0: 9b28 efc1 d386 7a3f 18b8 7244 70ce bf3f
000002d0: 5c61 4e66 dfb7 a8bf 28da 1404 05d2 a73f
000002e0: 952c 29a2 32cd a2bf 56b7 7862 8561 afbf
000002f0: 06f3 9d00 9d28 b2bf 49d3 68cd 1c4a b9bf
00000300: 82cd 2c96 3977 abbf 1043 6cef 96c3 b7bf
00000310: 94a7 9b48 b0b6 913f 6725 5d29 2323 b33f
00000320: b63b e5ce a742 c13f 9c70 442c 9948 b5bf
00000330: 5e1c f9d1 9418 ae3f 6f68 b9db bd57 bebf
00000340: ffe3 4f76 5395 923f 7004 9740 e2b2 993f
00000350: 320e b4b0 4f83 923f a1bc d614 1253 b93f
00000360: dc5e 6768 017f 8bbf e5a9 bbf1 aee0 af3f
00000370: edbb c4c8 b842 a9bf 6949 e43c 4853 b43f
00000380: 4a6f e1e5 4b60 b7bf 6324 cef4 c1d0 c0bf
00000390: b0da 45ed 0fc4 b1bf 9bb3 7e9b 12ee c3bf
000003a0: 4830 c604 839e be3f 9cbc dc43 4daf b4bf
000003b0: 98f2 47ab 3099 ae3f 42ed 632b fec5 b6bf
000003c0: f3e8 b1e6 a06a c33f 2670 1673 c417 b33f
000003d0: 8d50 aac7 b786 aa3f 5a87 bad6 4dc0 86bf
000003e0: e34c f523 d790 a63f f857 cc7f 4f4e b73f
000003f0: 67eb 63bf 81be b9bf 1a45 d041 65a5 acbf
00000400: 3ce5 147a 6624 b53f 7406 3fab c97a a2bf
00000410: a8f5 7872 de38 b8bf afb6 230c 5c10 be3f
00000420: 7f4e 8e74 e746 c23f 7e3f e1b0 0be0 b4bf
00000430: 531d d306 3243 b13f 9448 0bdd a9b6 b13f
00000440: 46dc c410 9024 87bf 5e61 c005 73fb a1bf
00000450: ce26 82da e96f 7ebf b841 901a 6eaa 9f3f
00000460: c222 4a77 27c5 b1bf 1d1a b3c8 5ac9 bc3f
00000470: 5d36 b7eb 102a b6bf a98d 906c e3b9 c03f
00000480: 724b 8c5b 19e8 853f d6a9 fdec 4ba7 c03f
00000490: 033e 9ede c019 bdbf 71cf 2933 840b a43f
000004a0: dd6b bf7e bf3d af3f 908a 90fb 4b46 c1bf
000004b0: 54aa a409 3f1a 7cbf 87e8 cce8 6a14 ab3f
000004c0: 6651 32a7 ac7e bd3f 3959 b69d 9545 bd3f
000004d0: 9291 d2df ce95 8fbf 74ed 9b35 1acb a5bf
000004e0: 66b6 48e2 6d91 99bf 5d10 b58e 960b b53f
000004f0: cdb7 1187 17e2 92bf b484 f73a 859b b83f
00000500: 4157 c88f f062 b93f 4984 cb3e 6137 babf
00000510: ff5a 006d 472a bcbf 6416 230a 2120 75bf
00000520: e834 7896 5654 963f 7823 7ddb da31 713f
00000530: c5a0 ea81 df73 9c3f 1c59 3d71 f57a 42bf
00000540: 4220 f5ba bfd2 adbf ff2b 5a1f ddd2 a63f
00000550: 16b4 e46f cd2c a53f f7bf f954 7814 bcbf
00000560: 1fd0 d8b5 7f37 ad3f 01ed 577c 6ccb a63f
00000570: 4002 0fe7 a733 60bf 22cd 13e5 bd37 b5bf
00000580: e0cf 1730 6853 afbf 71bc 9142 d029 c03f
00000590: 8bb1 9031 bab1 96bf 6ec4 f38b 7f1a b9bf
000005a0: 0a1e 3541 6e51 b4bf 24b8 c633 9f78 bf3f
000005b0: 3420 3b5f 9308 873f 5764 a16f ed73 4fbf
000005c0: 73b3 280c 360c c13f b372 7d4d 2624 c0bf
000005d0: 4e92 ee86 0a13 bb3f c366 5475 8764 60bf
000005e0: 199e b387 3deb abbf 5830 30c1 1bd7 a23f
000005f0: c842 c1fd 96e9 afbf 6b63 ae32 9109 9b3f
00000600: fff3 afc9 7403 b73f c3b8 2899 7dfe b5bf
00000610: 320e 7613 2cb8 7fbf f644 7e39 9c30 a6bf
00000620: ad19 9e46 6c52 65bf b63f 5799 ae80 6fbf
00000630: fbff b22e 3e25 9e3f 81e6 5e8e 09ad b23f
00000640: 0d0b 1733 b1c6 bdbf c111 ffe6 11c3 b5bf
00000650: b96d e9d2 6961 bc3f 9b1e 4bc0 6b44 babf
00000660: 646d 76ee f6f0 903f e945 cac9 9f1f 863f
00000670: 954e cf29 47ab 96bf 5d50 7288 c4ad a6bf
00000680: a351 f780 378c 93bf d17f 9524 5c18 8b3f
00000690: 6ea7 964b 77f9 a33f a30d 027b 5ef0 a0bf
000006a0: 8493 69b9 3eac b8bf 0744 5b70 2ed6 b7bf
000006b0: 6838 23ff e9dc b43f f93e 93b9 f2d4 9b3f
000006c0: 5ab1 80d3 9437 b73f 89be c30f e0bb a63f
000006d0: 6262 2ff8 05e6 b93f 9761 83be d9d2 973f
000006e0: c1e5 d8ce a95d c23f b189 4cad 12c7 97bf
000006f0: c403 75fc a3f4 be3f 7b59 f85e 184b 9d3f
00000700: 359f 682b 0470 a93f 9cb0 8a1a ed11 babf
00000710: e895 4c4c ab8a b33f e055 1b7e 0c66 a83f
00000720: 937e 5f78 cd32 843f 2d19 eac9 6790 bbbf
00000730: 25cd 7adf 125c ba3f 001d 659b 7e4d 88bf
00000740: 7829 4b52 168a b33f a8e6 a684 7b95 acbf
00000750: f785 eb58 ef5c a9bf 4102 aa7b e0e5 b2bf
00000760: 531c c248 fb28 803f 302c 25e6 189b bcbf
00000770: 56f2 a38a 17e6 b63f 4493 509d 9398 973f
00000780: 786c b67c 4457 b03f cfcc f476 d22d 993f
00000790: 8bfa 422a 9812 b0bf 2d9f c068 0142 bc3f
000007a0: 5cd0 41b3 e156 bf3f 00e8 0c08 cdd8 b6bf
000007b0: b76d 2cf8 29b6 a1bf f99a 0428 61f8 93bf
000007c0: 995c 36a1 c77b a73f c0d4 f070 11b8 6ebf
000007d0: f0a6 b6ad fe46 b03f 68ca 0de7 4d75 a73f
000007e0: 3c1b 8af6 a68f b93f c2a1 91b6 a96c b13f
000007f0: 3b36 ae79 8e25 b6bf cc7d 2134 c416 b83f
-0.02820196085030598 -0.1339083859434555 -0.006703909320898711 0.034772450968068865 -0.12946603043045413 -0.08573067269364165 0.07540899285106192 -0.059340290774983345
0.0703854293397932 -0.06775741956319652 -0.05528307933804226 0.08070356723663079 -0.12522072103999302 -0.10426341547096724 0.01778295056074297 0.039751823172799634
-0.0753369789017428 -0.06668301142528599 0.10933374125604195 0.12118038313953965 -0.007691775554274647 -0.11755523060683411 -0.039822430953065445 -0.0568051282117242
-0.06400961687560515 0.12285951868761628 0.0749390490262688 0.018952411010531967 0.003994858692779335 0.041831248678178334 0.02351110320835133 -0.09679368635571572
0.0490977209916601 0.00457089102766658 -0.06721428551522365 -0.017990287529377296 -0.06078745935729815 0.006017510629329406 -0.014920921430448927 0.006987758438895495
0.05304178857695927 0.043118485641401125 0.009145250628136568 -0.01604818645634992 -0.10366179305644564 -0.10844297690672625 -0.00107992897232088 0.025779399271341312
-0.00645541627094086 -0.12871517662269888 0.06371584749628484 -0.08151906991545974 0.09588703436180705 0.016058614642008667 -0.09233116581442365 -0.07566816385788343
-0.06958798224805172 -0.12549664346292827 0.11236139454184013 0.07901989993917814 0.03981050143583541 -0.06261086669486568 -0.11011685473161598 -0.08225368859189285
0.10245501741513481 -0.09308560760874014 -0.09634991557336532 -0.012631679120249078 -0.05673179472651395 -0.10467494978297728 -0.031086975875609806 -0.05554782097316874
-0.03540188461058279 -0.08536794790031357 0.08778712051537069 -0.12804600770657315 -0.09891133553024141 -0.07459539526493698 -0.051525764684560216 -0.07504717096762499
-0.11302440711639955 -0.09977355512849775 0.10150318433184845 0.08554636781215165 -0.006036247094849973 -0.05470598391618443 0.0243793592070731 -0.07503921270231831
0.006476237466765645 0.12424375220391004 -0.04827783702711727 0.046524197338318196 -0.036721784873031606 -0.061290901442005705 -0.0709322096353838 -0.09878711714629874
-0.05364398916426706 -0.09282821030889132 0.017298464233057212 0.07475490341052692 0.134846664450803 -0.08313901262994466 0.05878129065654812 -0.11852633108483855
0.018147758575626224 0.025096450035338724 0.01807903781901938 0.09892380722770834 -0.013425837515498022 0.06226107312052757 -0.049337172038910505 0.07939578520407554
-0.09131311762160724 -0.13137077763920776 -0.06939792197031625 -0.15570290176893029 0.11960619799191463 -0.08079989344399724 0.05976249781449389 -0.08895863112768601
0.15169154419329053 0.07458141145474481 0.05180906593628363 -0.01110897838163154 0.0440737944978993 0.09103867406915345 -0.10056315348258026 -0.055949367793923524
0.08258667450435991 -0.036093046335293005 -0.09461775107134562 0.1174371270787684 0.1427888220901998 -0.08154366558414769 0.0674315706884177 0.06919347426017658
-0.011300206672428936 -0.035121530963979394 -0.007430947771476416 0.030923576709086936 -0.06941458380073143 0.11244742774861334 -0.08657937769677333 0.1306728630162131
0.010696600061725656 0.1301054866010662 -0.11367421565068274 0.03915036320259347 0.0610179750653612 -0.13495778830936844 -0.006860967865842744 0.05289014903833427
0.11521414834925778 0.1143430242576401 -0.015422455029985103 -0.04256517319114553 -0.024968831001550028 0.08220807060303188 -0.018440597170801532 0.0961230534517366
0.09916594991986206 -0.10240752966957802 -0.1100201264492675 -0.005157593785218493 0.02180609982865614 0.004197935973771709 0.027785770706629593 -0.0005639742325722927
-0.05824851185985881 0.04457751281469057 0.04135744086156749 -0.10968734812354329 0.05706404776393036 0.04452075021614555 -0.0019777564379810653 -0.08288180201252662
-0.06118321978638597 0.12627604723408895 -0.022162350917072565 -0.09806058089067601 -0.07936753360728957 0.12293429388111626 0.011246825545995966 -0.0009598645549530144
0.13318515390110583 -0.12610319884961071 0.10575929445492102 -0.002001061026601332 -0.05452911645425846 0.03679739697699408 -0.06232902381510069 0.0264036833937981
0.08989648746496924 -0.0859144686625966 -0.007743999645188947 -0.04333961679288649 -0.002602778888959287 -0.003845540059707243 0.029438945389074416 0.0729528400978783
-0.11631305215182071 -0.08500778092918095 0.11086141013350116 -0.10260652012504538 0.016544206909754236 0.010802505822797808 -0.02213774864851688 -0.04429449239356196
-0.019089572187867564 0.013230056635336414 0.03901264951430404 -0.033083870425822746 -0.09637825037641617 -0.09311189883307246 0.08149588087982951 0.02717952020321854
0.09069185413017547 0.04440212433280261 0.10116612729269428 0.023265268567088517 0.14348337745631848 -0.023220340564088896 0.12092041886809485 0.0286067779507788
0.04968274145022492 -0.10183603189460871 0.07633467304966468 0.047653570550817426 0.009862523303979109 -0.10767220191528244 0.10296743351027667 -0.011866559140470745
0.07632579335328227 -0.055827960913530206 -0.04953716240357758 -0.07382014292853346 0.007890666158585946 -0.11174159640101844 0.08944842467094224 0.02304297111199395
0.06383159680119543 0.024588860044968904 -0.06278372794893465 0.1103821640723452 0.12241945864099207 -0.08924561926406227 -0.034592925591108985 -0.019502180163864378
0.04586623995708656 -0.003749879898828995 0.06358329525997042 0.045816835837190706 0.09984820860891558 0.0680643149113456 -0.08651056738582323 0.09409738800740469

lstm.weight_hh_l0 f8 [200, 50]
00000000: 08d5 a0e3 ecaf ba3f 67fa 0742 506f bcbf
00000010: ecae 0c98 a924 bebf ad54 c49d 159b b2bf
00000020: b955 9361 e78c b03f 4492 a2d0 ac6d 813f
00000030: cfd8 2550 cede c3bf a15a 3596 4429 a5bf
00000040: f1c7 8599 8ada b33f cbdc 7868 f74a b5bf
00000050: ce22 bbfd c03c b43f 3126 3a67 a601 bb3f
00000060: 5f0e f829 7bd4 c23f 198a 314f f0e3 a63f
00000070: 60ad 6cf4 2464 acbf a2db ccd4 697b b2bf
00000080: 8bcc d52a 6836 9fbf 0262 c6a8 dfd3 a73f
00000090: b20d e360 661d b7bf 4530 456a 7a5a babf
000000a0: 7591 8247 4a1b b43f a551 758e 80ee c1bf
000000b0: 82e6 aa15 2b40 b4bf 9b1f d66a 8bbd 8fbf
000000c0: 408e 50a3 3eaa b7bf 445a 685c 6a99 90bf
000000d0: 8555 fc84 ac36 b9bf 3657 1e02 1329 c13f
000000e0: 108b f691 e93a bbbf be39 1d26 cfaa b63f
000000f0: 7422 a7de 402f b93f 00ac dd9d bd35 92bf
00000100: bbc5 54ba e892 aa3f 2dba b65f 9652 783f
00000110: d3b8 1fee 985a b03f c90f 0feb ef65 bd3f
00000120: edf3 cd82 deda 933f 4f2b d092 6770 a63f
00000130: 4384 44bf 604e adbf 8aad 9682 54f4 ab3f
00000140: 4bf0 ea27 d522 7cbf 00d6 10ab 9c65 b33f
00000150: 5911 385a 5218 bf3f 3a8f a9c3 3558 c0bf
00000160: 385d 309d a792 ae3f 327d 518c 78f2 a23f
00000170: 679a fc7e c5d3 99bf bb93 e1de 7fe0 b0bf
00000180: 9f29 f02c ef09 bdbf c825 f582 0543 a5bf
00000190: 82dd 5d77 bdfb 8a3f 8e07 0b64 564a a8bf
000001a0: 7f71 9be6 36bf 9e3f 59eb 0a80 ef89 afbf
000001b0: b6fe 826a 8779 7dbf 93c2 770f 3db8 ac3f
000001c0: 0b93 1bb3 d446 adbf fc84 dd46 748b c0bf
000001d0: e598 7ab1 3710 b53f 2798 4738 cbd4 b23f
000001e0: 1ea1 5620 50e0 a53f 68c8 ae41 0231 b13f
000001f0: d0f7 ef2a d21a b4bf 8e9f 41b6 d978 bfbf
00000200: 1388 7665 76c2 6e3f fe4f d7eb e5b9 953f
00000210: 63f2 5a04 cea7 afbf 0299 5244 fdf6 933f
00000220: 43bd e340 19c7 ba3f 448e bfdb 15f4 a6bf
00000230: 89f6 de1a 28d3 b83f b138 e771 9e26 bdbf
00000240: f273 5980 1baa bc3f 85cf b562 8d69 8cbf
00000250: 67ac 6acc 2b79 b6bf d6e4 7985 d70b c2bf
00000260: f32a dc21 d198 c1bf 75d0 ba59 b93c b6bf
00000270: 7e30 906d ee44 bd3f be96 e08f 0a98 afbf
00000280: e693 b9ab 0347 713f e748 e230 396b aabf
00000290: e9a5 c78c 1cfd c03f a40f bcd6 cb3e c13f
000002a0: 528a 93ec 6912 bcbf 3418 2910 28af babf
000002b0: dd46 8fab 5246 b3bf 4e90 67bb c67c bc3f
000002c0: d0af 7859 b39c a13f 7c5c d189 7b8d 8dbf
000002d0: 3122 b94c cad2 a3bf 5c17 1c73 2ee6 bbbf
000002e0: 0f47 2233 3d7d a33f a9cd bd05 c930 a23f
000002f0: d8ac d0da bf45 c1bf 0db0 5a77 e9fb b6bf
00000300: abdc 6d9c 2176 bebf 9c0d d409 880a be3f
00000310: 112a 1c5d 2fe9 bdbf 9e23 5b18 04d3 a73f
00000320: 6321 b897 8284 bd3f e77f 91fa c226 a3bf
00000330: 927e 7fed 3563 babf c295 b172 8843 b83f
00000340: d7fe b383 edd1 9abf fac0 77d9 ff85 c03f
00000350: 9b89 ca1d c159 b2bf 72e9 c3aa 8dba babf
00000360: 92a2 ab64 6454 b93f 8fcc 14c2 2d77 b93f
00000370: dfb4 a2b4 b60f 963f 389a 0cf4 8cb8 8d3f
00000380: 212d ffec 4217 7a3f 47c6 2167 00eb b83f
00000390: 3340 3632 e779 b5bf e13a 7123 c966 b83f
000003a0: fbc7 85ff 53a0 b6bf 1ef9 20bc 040b b73f
000003b0: e736 80f4 ec0e 82bf 9f3d 3b72 621f 9f3f
000003c0: 7bda 4613 3dec ae3f b95f 50d5 bc97 c3bf
000003d0: d809 d3cc ba04 573f 4377 aa21 c0c2 c03f
000003e0: cf71 ae95 30b3 be3f dc6b 9bcc 2160 bb3f
000003f0: 150d ab6b 4985 b3bf aa26 5061 2b26 b7bf
00000400: 5544 bbe1 88eb b63f 7f64 29b5 c7d1 713f
00000410: 19f7 1758 9a70 94bf 3dbe 252f e045 8abf
00000420: b8e9 813c 9663 bb3f f56d b787 6c63 aabf
00000430: ed9d 67dd bc34 b13f 2aa1 48b9 81db b6bf
00000440: cffc d249 5772 c1bf d56f 35b6 a6c7 b63f
00000450: 3835 fb4d 3f23 b03f 0efd d1f7 030b 7a3f
00000460: 8b20 6170 0288 b03f 395f 7247 d6f4 86bf
00000470: b450 82b3 6ad6 be3f 014e f06a 8d34 b13f
00000480: 46b5 bcf2 a2f6 873f 019a e530 06e9 b8bf
00000490: 560b d713 ab5a bebf 5755 03e6 7d46 c13f
000004a0: c3eb d2d5 1c2b a13f 6b17 00bd e74b b83f
000004b0: d2da e4a8 916b babf bb49 d1ee b32f b13f
000004c0: 141b ab40 749b aabf 1e55 4cb4 24b5 b33f
000004d0: 4b0b 4c11 f297 b23f 43d8 6dcd 8955 b33f
000004e0: c053 2701 5e0e bb3f eb12 3a0c e2d5 ba3f
000004f0: 6569 7659 2430 bbbf 5a14 3602 3c28 c1bf
00000500: 7cc1 761d 53bb b33f 36b4 1ec8 7812 aabf
00000510: 8e44 c1c2 b6bb 7a3f 8eba 424f dae3 80bf
00000520: bbe7 e814 7646 af3f f9b3 a050 0b5e be3f
00000530: 7184 b977 b831 993f 564e 57f7 9f29 b73f
00000540: db31 1610 13ea a0bf 08b6 eab7 9222 a9bf
00000550: 6399 931d cf24 a2bf 2b09 abfc 5d11 bb3f
00000560: 1e6b 47ff ea42 b2bf cb8a aff1 1a98 b2bf
00000570: f0e7 f712 9cc3 b43f 5f8f 2d45 7190 b73f
00000580: cc01 c436 c5b4 803f e4cd 04ac 6228 b43f
00000590: 8ddb 3fc0 e8e3 9e3f 008f 390f 28be bd3f
000005a0: 5f98 eb04 2bdf b63f d9ec c8db d8de b8bf
000005b0: 767e cfa0 b209 943f b5e0 cbdc cbd4 bdbf
000005c0: 5264 83d5 9c7f bbbf 4baa 7c1e cef2 7e3f
000005d0: 85e2 33df e712 a83f 0238 21ac 1025 a63f
000005e0: a525 95b3 b353 a7bf c0ad 024c 4d0f b23f
000005f0: 98be 1aa4 a883 9cbf 2d0c 485d b685 b43f
00000600: 6768 95fc 3289 a33f 6f9f c12e 9cbb bcbf
00000610: 5d9f d890 da1e bb3f b46e d5fe 5117 aabf
00000620: 8668 5450 37b9 b4bf da0e b172 0beb ba3f
00000630: 03a1 05ac 7a93 b9bf af2f c941 218e b2bf
00000640: bbb2 d554 4d45 b9bf 270b 7f32 e4fa a7bf
00000650: c0fd b7c5 2060 b3bf d4a9 a423 6e2f b83f
00000660: 84e2 4865 88d4 c03f f635 dfaa 4b3e c03f
00000670: 02f0 dba3 45ac b2bf 6359 108b 7d8d bf3f
00000680: 724c 5c78 6977 b03f 42f5 5a5c e821 b03f
00000690: d354 4339 8b62 c13f d7b8 b513 9a3d a53f
000006a0: b596 b3b6 ecce b53f fc84 0840 5afd c0bf
000006b0: 2ee5 05d4 8621 ba3f a6be b595 ef69 b7bf
000006c0: bedf c69a b736 b5bf 5524 9a53 23d5 bbbf
000006d0: 7ec8 76fd f1fc b2bf 260b c520 09c2 b1bf
000006e0: 128b 607a 05c2 873f ce1b 8216 8fef bc3f
000006f0: 2e35 dc74 8bf4 b83f a984 a56e d0d1 aabf
00000700: efc1 03f8 1d50 b33f 1910 dea1 817f bc3f
00000710: f72b 6efc e0f5 bbbf 69c7 b3ba 8266 b83f
00000720: b91c dc67 9d48 993f c28d d479 11b6 b53f
00000730: 2859 daf2 88b2 2e3f 3b3e 0989 132c b4bf
00000740: 9732 a9e8 3ef9 b93f 3748 ea83 99d8 b5bf
00000750: 2b42 f77b b9a3 b1bf f575 0f73 4649 c0bf
00000760: 3be3 ab37 4308 7e3f d0e6 56d0 f399 933f
00000770: f724 18cc e187 b3bf 440a e63d 8ec1 b93f
00000780: 34c0 0b0c fd86 a4bf 3ceb b49c 91ca b83f
00000790: bfbc ce12 cfb3 c1bf 28fd 590f 5b1e b2bf
000007a0: 9495 f360 ffda b93f 9b38 2c00 f310 c23f
000007b0: fee2 9ef9 4d88 c03f 39ce 6fee fff6 91bf
000007c0: 0518 c0b2 3d77 c03f 702a 1522 008f bb3f
000007d0: 4c5a 70c0 c1f6 a6bf ad05 c348 4dea b23f
000007e0: 8eb0 8961 26fa 8b3f 38fb bd8c afed b83f
000007f0: aa27 8dee 7377 b33f e8c7 b756 d759 723f
0.10424690778093659 -0.11107350933159808 -0.11774692499301026 -0.07267890073520063 0.06465002186026582 0.008509969822918191 -0.15523699677914357 -0.041330474220264486
0.07755342720136561 -0.08317514706219524 0.07905203051189888 0.10549392719453789 0.147109408848439 0.04470778433530515 -0.05545154079149017 -0.07219563908880258
-0.030480983366441932 0.046538342811974345 -0.09029235711482533 -0.10294308752526245 0.07854141469812766 -0.14009100872011718 -0.07910413054460189 -0.015498246381653582
-0.09244147765326094 -0.01621023358355901 -0.09849050757141782 0.1340659866661384 -0.10636768163253074 0.08854384117623845 0.09837727962361403 -0.017783129463548875
0.05190207743215632 0.00593813648030887 0.06388240636417501 0.11483668793431358 0.019389607175515456 0.0438263289180073 -0.05723860106287095 0.054598465863217774
-0.0068691564944707946 0.07576922584924972 0.12146486952412285 -0.1276919560797241 0.059712636888600235 0.037006156090451006 -0.02522190654340264 -0.06592559043345052
-0.11343283507463874 -0.04152695869067774 0.013175468640595826 -0.047442149841585665 0.030026300263544577 -0.06159923971195864 -0.0071959771814246645 0.056093128336106045
-0.05718102156041568 -0.12925580463619457 0.08227871020298812 0.07355947612777013 0.04272699732547579 0.06715406516630795 -0.0785342554881645 -0.12293778133027741
0.0037548363140596035 0.02121695758781072 -0.06182712367214973 0.019496876998027275 0.10460050424784577 -0.04483097369646008 0.09697199493435894 -0.11387052803840693
0.11197063334971327 -0.013873200011154338 -0.08778642407075808 -0.14098638551130332 -0.13747610238382144 -0.08686407509486734 0.11433305907138622 -0.06170685774149608
0.004218115176262116 -0.0515992996380577 0.1327243506814704 0.13472888932312543 -0.10965597177304545 -0.10423517603439408 -0.07529179275959615 0.11127893519693652
0.03439865557842803 -0.014430012839666377 -0.03871757685243827 -0.10898104009910753 0.03806487321084095 0.03552845187268911 -0.13494108375866776 -0.08978137172624674
-0.11899004048415189 0.11734819641065147 -0.1168393709487321 0.0465317992907963 0.11530319408496363 -0.037405102812726736 -0.10307633446017864 0.09478047180308294
-0.026191435969848378 0.12908933752579071 -0.07168204285929962 -0.10440907877992858 0.09894397218489306 0.0994747732955139 0.0215443179846958 0.01451215858248843
0.006369840077194129 0.09733583944196154 -0.0838913438403786 0.09531838527002946 -0.08838391292900376 0.09001187890041648 -0.008817530833791177 0.030393160078174494
0.06039610729515218 -0.15306816497536405 0.0014049362392119982 0.13094331401674184 0.11992171911555903 0.10693560834208377 -0.07625254515283005 -0.09042616964156971
0.08953147421859005 0.004350452526147851 -0.019960796000297074 -0.0128285898578887 0.10698832490189758 -0.051539794508894156 0.06721096425427904 -0.08928690694358879
-0.13630190949149898 0.08898393581824789 0.06303783086624015 0.0063581614496108895 0.06457534068715824 -0.011209177070028541 0.12045924074692743 0.06720813618476741
0.011700890572309174 -0.09730566686412347 -0.11857098802924546 0.13496373873810327 0.033532048322249895 0.09490822185770546 -0.10320387242687026 0.06713413792139182
-0.05196727075013122 0.07698277856646427 0.0726310054997558 0.07552396073683192 0.10568797615208236 0.10482609556681736 -0.10620333847183401 -0.13404035671206566
0.07707709760030029 -0.05092217867727593 0.006526674184059845 -0.008247094673007351 0.061084451725448706 0.11862250059557757 0.024603731448568703 0.09047889507865511
-0.03303584643717602 -0.04909189696386923 -0.035437080727023916 0.10573375147490498 -0.07133358700177125 -0.07263344193010395 0.08110976660819325 0.09204776705661065
0.008157292112174107 0.07874123286892815 0.030166279539084285 0.1161828076524749 0.089342774106258 -0.09715037694779784 0.019568244042487547 -0.11652826443230675
-0.10741596424794977 0.007555775788015649 0.04701923942224532 0.04325153447335596 -0.04556047026796798 0.0705459890911504 -0.027845988289014828 0.08016528870943836
0.038156121571504546 -0.11223770276558097 0.10593954120906575 -0.05095916972888173 -0.08095117293524554 0.10514899778450673 -0.09990660381084031 -0.07248123031712227
-0.09871371575509162 -0.04683602444085571 -0.07568554713360864 0.0944737278956958 0.13148598619024565 0.1269011101089032 -0.07294116259066644 0.12325272221673837
0.06432208240976126 0.06301738981979546 0.13581981941266594 0.04148560991858268 0.08518866978155411 -0.13273170591950378 0.10207407642692054 -0.09146020321872558
-0.08286616829616286 -0.10872097769801432 -0.07417213857732638 -0.06936699914971864 0.011600535199311621 0.11303037929074763 0.09748145678550621 -0.052382005221042256
0.07544123940511559 0.11132059289781217 -0.109220563534265 0.09531418855820352 0.024691066230869228 0.08480939125416057 0.00023420259224300158 -0.07879755111320545
0.10145943813513224 -0.08533629866204327 -0.06890448833952038 -0.12723618143256457 0.007332098549107264 0.01914196929076334 -0.07629214508792247 0.10060967456051012
-0.04009238025707909 0.09684095455024261 -0.13829983156526812 -0.07077569126885364 0.10099788777332314 0.14114224918779858 0.12915968597896915 -0.01754379170229312
0.12863894680066337 0.10765076477142954 -0.04485135530574222 0.07388766313945068 0.013660716868990865 0.09737679658972531 0.07604145597465953 0.004480210463485769

lstm.bias_ih_l0 f8 [200]
00000000: a865 7850 6418 babf a00f 0abb f065 b63f
00000010: 9a23 d2af 0128 9abf e1bb 6417 5aa2 c23f
00000020: aea8 30bf 72e3 8d3f ecc9 6059 82b4 aabf
00000030: 565a 370d 319d c0bf 0dcd 5140 51c0 bbbf
00000040: 1d74 db3e 92d7 b0bf 8a80 e525 3925 c2bf
00000050: 625a 9543 889b 87bf c5cf 8a68 c4c8 aabf
00000060: fbd0 d3fa 4a64 c43f 4984 e894 547d 97bf
00000070: cdf1 de41 66cd babf dc7d 7178 bc56 a0bf
00000080: 42d2 6556 4811 9c3f c124 ee22 cbba 87bf
00000090: cb1f f1fe 8662 b23f 39e2 c68e 7061 90bf
000000a0: a0ff 057e 0f50 bebf 8bde e6be 4cc6 b5bf
000000b0: d4bc 2c5f d7f8 c03f a6f3 da22 d0f2 663f
000000c0: 9e54 aa9f b254 b9bf 762b 0929 c423 bdbf
000000d0: 3078 ce37 7d6e a33f 9231 f541 35c2 bd3f
000000e0: cb87 ffaa aa3b b33f ebd8 e7cf 2825 93bf
000000f0: cd01 ab7f 5337 bdbf 95fb 3b7c 7513 723f
00000100: a362 81f7 fd8c b2bf e822 afd1 1cf8 a3bf
00000110: 1c35 db3b 0274 c03f 14b0 bcff 7809 943f
00000120: 5803 7a55 5f9e b8bf 9064 7e9e 71fb 9c3f
00000130: 9289 cef2 b78f aabf e4bd 0651 e0fe bf3f
00000140: 8a24 df34 abc7 b2bf 71fd 54ef 2394 c13f
00000150: 36b5 a0d7 ebc1 b43f a8f4 36d7 bf7c a03f
00000160: e839 5570 282a b83f c673 d52f 5d86 b63f
00000170: 6c3c 4b26 7b1d a1bf ca84 1413 5395 c03f
00000180: e7ba 7ea0 0513 a8bf ddcf caeb 0260 a2bf
00000190: 7ed1 e896 5176 b6bf 3f1d 5d6a c4bc c23f
000001a0: 6856 0b6f 89da aa3f 043c 8f6a ab1e b93f
000001b0: 9e73 3fa6 d805 abbf 4bef ac93 29b7 6b3f
000001c0: 700f be0c 2d00 c23f bff5 1fec 2603 c03f
000001d0: ea81 1b2e 46c3 c03f aa9e eb35 b1a7 b7bf
000001e0: beaa e1eb 4ff9 bebf 5274 a655 4d01 92bf
000001f0: b4d4 ce3d dcae 9dbf a3ad 99ed 8439 a83f
00000200: d1ef fbea 957f a8bf a45c b819 df38 a33f
00000210: 7272 1d55 ebc9 a3bf bfab 1c5d ef17 b93f
00000220: af02 2ed9 113e a2bf 7d91 790b c1ac 62bf
00000230: 9e9f 4d83 64db a6bf 5fc2 3cff 0f1e a7bf
00000240: 4f20 65c2 1ce1 c03f 45f6 6ffc 8e02 93bf
00000250: 97d4 d144 26fb ba3f 5e96 3f1a d9de a73f
00000260: 972e bd97 78ac b5bf b2a8 635c 7fce a83f
00000270: 7eb8 fe13 9753 a43f d346 a384 ec25 b23f
00000280: 4df7 c973 9d89 953f c8cc f363 f75e bd3f
00000290: 555b c353 bbda bdbf 943c 628f bcab a53f
000002a0: bb75 ca1d ca30 91bf c930 d761 f0b5 b43f
000002b0: 6e27 ce58 9bcb b8bf f999 e2da e856 bebf
000002c0: e98e c8d7 5428 b4bf 8344 19ac ff02 72bf
000002d0: 1736 3d6f 5ce9 a7bf 1c5b d93a a8ed bd3f
000002e0: 1332 7604 465d b43f f860 f2d0 a1f6 7abf
000002f0: 2e6b ab3d 9c04 babf c8c8 91d1 8eb8 8fbf
00000300: e88b c23e e72d b5bf 767a 1093 48f2 bc3f
00000310: 3737 e025 3415 9dbf 5626 1b25 757c 613f
00000320: 9331 1e0a 77e4 b43f 7dd0 6ef3 1675 a33f
00000330: d03b 892d e744 b4bf 4a4e fe09 d437 b93f
00000340: d16e a6a3 8fcc c23f e0d0 9543 5bc3 b63f
00000350: 9559 9b91 0f27 a2bf c1b9 db50 3f1e abbf
00000360: 5398 63c1 a445 a13f 6b3b 55a8 f824 a53f
00000370: 967e 15b4 7d79 c2bf d6d9 4401 ba82 bbbf
00000380: d0e5 1fd9 6590 953f 280f f499 1b27 b2bf
00000390: 5f46 ad53 4049 a5bf 6130 2f38 3e05 afbf
000003a0: a845 cac5 8560 a2bf f590 2174 2676 ab3f
000003b0: abed e32a 8f09 bdbf 151b 0f2b 3ffa a1bf
000003c0: 3791 4ed3 2840 b13f 51ae a6c7 6ca1 b1bf
000003d0: 16ce df82 1407 bebf bfaf 3a8b 4483 8c3f
000003e0: 6b50 cf1a de8e 653f 9369 8e17 0cce 9bbf
000003f0: b38d 998b 0396 aebf 8e35 9463 c334 b23f
00000400: 9285 9c21 bdd9 a2bf cf44 92d2 b0b1 853f
00000410: 2047 347a 6159 b93f 98ae 7fbe d50b 98bf
00000420: 8bbb 84fa 61c9 9d3f ef76 464d febf a33f
00000430: 53f5 0da8 a646 c1bf b800 f04e 24c8 b93f
00000440: 4dd3 7a8c f294 abbf a3d0 e931 6cf4 a73f
00000450: e13c 824f 835a b0bf 988d ea61 018c c13f
00000460: 4fb6 ba24 6544 bebf 4891 1cb2 9ab5 b0bf
00000470: bf52 8ff4 f570 a4bf 8a3d bc5f 316a 9c3f
00000480: ba13 f4d7 3fe6 78bf 14a4 9ffc 0e71 bc3f
00000490: 8ddc 4978 1dad b8bf 40d3 88fe f74c b83f
000004a0: b14c 09b2 833d 953f 5c88 743a bda3 c03f
000004b0: ba1a ded7 f29c bc3f d88b b384 d12d b43f
000004c0: 9bd5 d289 399f a5bf 6f04 a34c 01d0 bdbf
000004d0: b170 1561 3cb6 bebf 84b0 3650 7d89 bc3f
000004e0: 31c3 204b 28e5 873f 35fe b497 0bf8 9d3f
000004f0: f932 bc2f 47c0 923f 1ada 688b 63d2 be3f
00000500: 42f0 a8db 94cb b43f 04c4 e17e 2157 8ebf
00000510: a995 a211 24d3 aebf 1398 b375 839e c33f
00000520: 2df4 4663 372b 5b3f ee4c 9210 5db2 8bbf
00000530: 76c9 9902 1033 bf3f d8dd 513d 7d8f c0bf
00000540: 2b47 f7a3 1fd0 a13f e9c5 c1d8 2a33 b4bf
00000550: 4ccd ada2 0243 b13f f858 898c b499 b03f
00000560: 2a29 6f8d 0ead a7bf 0050 d43e b00f 9fbf
00000570: 9d1e 9e88 a30e 9b3f 793e 4d04 81f3 b5bf
00000580: daab f5db 4436 bdbf 4e95 d38c b2ae 9e3f
00000590: 3d09 26dc f0dc bebf fc62 466e b9c9 b2bf
000005a0: d69c cc35 f3cf bf3f dd9d 2c6d 6975 a3bf
000005b0: 7113 59f2 4262 b8bf 830b 2fd8 dc3e c0bf
000005c0: 3bc6 10b2 35a9 9d3f f44d 1f36 a0e3 acbf
000005d0: 5b77 c4ab 5820 c1bf 3916 6667 f50e c33f
000005e0: 98c4 3f40 d09f b7bf 410c 8b04 3626 bc3f
000005f0: 6703 f68c dce3 b7bf ec20 dd3d c9ae b53f
00000600: 6e0e 6522 40df a8bf b827 28a1 d3d3 b13f
00000610: 1090 42a2 6e41 95bf df5d 673a 7ea9 91bf
00000620: 17d5 e490 7ae2 b43f 195a f4ab 3b8b babf
00000630: d48a dea8 5fc8 873f e711 9294 6130 a3bf
-0.10193469013792955 0.08749298635853942 -0.025543238025906946 0.14557958738575308 0.014593979320199981 -0.052158425722513474 -0.12979710717509602 -0.10840328045178556
-0.06578935656166647 -0.14176096296705892 -0.011527123033983237 -0.052312982331755666 0.15931069610054024 -0.02293903502334541 -0.1046966467683383 -0.03191174478774503
0.027409677766131908 -0.011586749080168325 0.07181590770880956 -0.0159967028755281 -0.11840912653678837 -0.08505706463517464 0.13259403369145295 0.0028013291510817382
-0.09894863508300708 -0.11382699968195972 0.03795234018547011 0.11624462948129224 0.07512919115791232 -0.01869643944697767 -0.1141254603089756 0.004413088728823751
-0.0724638680707224 -0.03900232371922191 0.1285403053538311 0.01956738530059006 -0.0961665710147036 0.028302932070435605 -0.05187773550939591 0.12498285272771842
-0.0733592037278347 0.13733338533527786 0.08108400358533605 0.032201762219736196 0.09439327948096088 0.08798773210351304 -0.03342804758505555 0.12955702239654548
-0.04702012619178735 -0.03588875892947361 -0.08774290022194539 0.14638571923772223 0.052448553853236046 0.09812423087645078 -0.052778978628089876 0.0033832370803831605
0.1406303703516829 0.12509619264157654 0.13095929385509858 -0.0924025303498818 -0.12099170216394392 -0.017583092072176072 -0.028987351677376608 0.047313837055152484
-0.04784840100725741 0.03754327000586358 -0.03864989675523568 0.0980214693378647 -0.03562980438346607 -0.002279641190215452 -0.04464258292028876 -0.045151233584310495
0.13186988346046966 -0.018564447553208536 0.1053947370545124 0.046622070745610186 -0.08466294960561026 0.048450450923909996 0.03970024222449896 0.07089117277362371
0.02103277224750082 0.11473032179110298 -0.11661883158681736 0.04232587099351651 -0.016787679737367372 0.08090116871534571 -0.09685679357622032 -0.11851363510013603
-0.07874040859365618 -0.004397391052024638 -0.04670227868937731 0.11690761028999613 0.07954824074676763 -0.006582862944149996 -0.1016328478394086 -0.015488734980156585
-0.08273167879319454 0.11307195272864043 -0.028401198207624403 0.0021345413195817215 0.08161109921474567 0.03800269815056454 -0.07917637693138535 0.09850812190989547
0.14686770907143523 0.08891840362577197 -0.0354542603724212 -0.052965143795393306 0.033734463316975515 0.04129769377561029 -0.1443326119724488 -0.10746347933750341
0.021058646561845695 -0.07090923794390547 -0.04157448789068207 -0.06058687625736137 -0.03589265860967866 0.05363578956237972 -0.11342711255195208 -0.03511235619185108
0.06738524588451332 -0.06886939882559175 -0.11729553408786617 0.013922248362483345 0.002631601141255093 -0.027153195321810108 -0.05973826483821245 0.0711176031220104
-0.036817465165096 0.010592824388626102 0.09902009232999065 -0.023482646705743265 0.029088526645121553 0.03857416814137859 -0.1349685974673017 0.1007101719587834
-0.0538707539066424 0.04678667172712039 -0.06388111773616202 0.13708512574258402 -0.11823112627708919 -0.06527106140544447 -0.03992432222699937 0.027748843639583444
-0.006078957928598189 0.11110013644760414 -0.09639152704936489 0.0949244495794348 0.02074247144839764 0.12999692301042642 0.1117698456783768 0.0788241337755119
-0.04223041350762032 -0.11645515557303708 -0.1199681984921337 0.11147292335835074 0.011667551796649885 0.029266530165157973 0.01831160763599635 0.12039777902177953
0.0812314068106739 -0.01481462639296361 -0.0602046271826951 0.15327494856973142 0.0016582528015611872 -0.013523795192929868 0.12187290252203362 -0.1293789433873218
0.03479098202264049 -0.07890575210492269 0.06742874595311327 0.06484535628382904 -0.04624219395153013 -0.030333284220503742 0.026423030103187462 -0.08574682574293914
-0.11410932893856743 0.029963292928092237 -0.12055878996583132 -0.07339056913623304 0.12426681579073615 -0.03800515611356634 -0.09524935166071004 -0.12691841655586353
0.028965796464211584 -0.0564241472308388 -0.1337996329029306 0.14889400051849735 -0.09228231018620858 0.10995805369297874 -0.09332064095907598 0.08469827423425941
-0.04857826633317762 0.06963846859448963 -0.020757416394772632 -0.017248127283748246 0.08158079183052212 -0.10368702839000611 0.011612651196462855 -0.03747849405866415

lstm.bias_hh_l0 f8 [200]
00000000: ae49 3aa0 d786 c1bf eb05 cda0 e08c aabf
00000010: c340 b821 07e5 b13f 2dba d02b 32ab acbf
00000020: 9357 f2a8 4459 a2bf 6319 0784 806f 94bf
00000030: c4f7 fa0b 76cf bebf 071a 00c9 cbb1 923f
00000040: fb1a f0b7 cf30 923f 2639 097a 0823 afbf
00000050: 18dd ee91 a6c1 c1bf b6ef 76ca 9866 9a3f
00000060: 59fc 78cd d9b4 b5bf c7f4 60d6 8cd2 c53f
00000070: eaaf 1cb7 b221 babf 5da0 a38c 17e2 ab3f
00000080: 7827 f635 324f bebf ee4f c66b 1dca c1bf
00000090: 3fb8 164f f701 bd3f 3371 2cab 28bb a53f
000000a0: fbe8 e76b e3a2 9f3f e94e d59f e13c c03f
000000b0: f5f7 73e9 517c b7bf 629f 7c40 31db a53f
000000c0: 50a6 aa4d 1d49 92bf 2df5 e48a 84b8 973f
000000d0: 80d9 cc2d 841a b23f 3323 0467 2ce9 b83f
000000e0: 2742 8f5c 2cc6 bf3f 71b6 e2a3 df29 85bf
000000f0: 41af a464 f1e3 7d3f c703 36c0 ecdd 9e3f
00000100: 4efe fea8 4d83 833f d821 cd95 7f49 b3bf
00000110: 0db6 8c32 a66c 6c3f 08de d75e 4536 bdbf
00000120: 1af3 0cbf 287a b6bf 198e b256 6ce4 813f
00000130: 5c1a cec7 706e ac3f 1603 c7b5 5cde 603f
00000140: b8a2 9f63 a37f b23f 2bd8 7b5b 2600 c43f
00000150: 9bf7 4e41 ed54 c1bf fb08 8cb1 fa6a b13f
00000160: 4534 8d7b 280c b83f 0a5a bcc2 2530 b6bf
00000170: 68d8 0218 9084 983f 83ce b240 b9fb b7bf
00000180: f000 0b9b 0d9f b53f fbdb c2ce 82cf b93f
00000190: 7fe6 e3f8 e91b c23f e270 97f7 6b25 bfbf
000001a0: df6c 99fb 8e17 b6bf 33f0 f591 178e a23f
000001b0: bae7 06ad 1090 bdbf 1c1a 3f15 b64f bbbf
000001c0: 8a23 3def 521f b03f 8033 fe8b fe17 c0bf
000001d0: 6ae9 eba6 c17b b73f 8d4e 6bc7 b3c7 b7bf
000001e0: 22ca b233 0fe2 bb3f 2373 4079 b81c 8fbf
000001f0: a1f7 e26a 07e5 b7bf becf 8fb7 5d9a a13f
00000200: 8115 e0db 2fb6 a73f 3b1e 0eb8 a580 c1bf
00000210: d2aa d309 d734 a33f 6011 05f8 3541 8d3f
00000220: b1c5 e157 4a32 b7bf 4c6f 347c 7997 953f
00000230: df7f 2f15 2c98 a1bf 4024 6dc8 30ee ae3f
00000240: 9ba0 7880 4924 c1bf f5c0 3c1b 54e1 b6bf
00000250: ab3a 4b74 f5ef bb3f f544 4708 834d b2bf
00000260: 2cf6 7380 b53e 9ebf cc47 e913 29fb b0bf
00000270: 6157 86a9 b558 c23f a224 820b 4aa5 af3f
00000280: 3365 4e20 10f0 c0bf 804e 17c7 dc5f b53f
00000290: 7d9b cf6a 4996 61bf 0892 2823 40a7 c0bf
000002a0: 5812 73f4 d595 883f 6a02 1ebd b5be c0bf
000002b0: a456 8ccb f0c0 b23f b5ec d971 0194 bd3f
000002c0: 1dae a720 6862 a9bf a36c 678b 2c37 c03f
000002d0: a636 dcac 00d6 c13f ac08 3644 797b bfbf
000002e0: cb37 7bec eac9 abbf 40d8 b0cf a858 b73f
000002f0: f070 1aca e66b b03f 6c58 80a0 b64a b4bf
00000300: 9272 023a af89 a03f 8dcc 7a66 9363 b53f
00000310: 487e 6ba6 7b58 8bbf 5dbc 3c3b fde9 c43f
00000320: f6d1 04c0 828c 7bbf 5f66 9a0e cf08 bd3f
00000330: 41f5 7573 ae5b b43f 93b3 d3b1 8d66 be3f
00000340: 88bc cfb1 31e7 863f 7e73 7ae1 4dc4 b3bf
00000350: 12eb bc59 31ff a03f 0077 d5e7 2de3 60bf
00000360: 9fc8 b61a 6748 b83f 19b5 3962 b961 a53f
00000370: 8be6 6ed3 1811 b4bf 7516 1bd6 4e4a 7bbf
00000380: dfc5 d9c3 c12b af3f adea d4d4 b3a9 bb3f
00000390: 5dc1 18b6 2d9c b3bf 8e73 a35c 5a7a 843f
000003a0: 0aaf ad14 1eb9 b43f 4fd9 6a36 ff0d b83f
000003b0: 2e4a b78b 9aaf b53f c12e 83ce cf2c c1bf
000003c0: 7841 ca17 6585 b4bf 8317 e0ef f53c bebf
000003d0: 4ff0 e35f ce34 893f 403a 48d5 8322 c13f
000003e0: e728 12e4 1603 c1bf 026b 2eca 2e30 bb3f
000003f0: 8144 b5a5 a0e6 b5bf 8c6e bf61 5784 b73f
00000400: ddad 4179 4e47 a9bf b7bf 63ff fa98 b53f
00000410: 7e1a 16e6 0b0c b53f 5d56 8b51 3eb4 9bbf
00000420: dd22 6a1c 6372 bd3f 2812 a139 d656 afbf
00000430: c2cb bf4d 4eeb b5bf 1ca3 d971 a2a5 a1bf
00000440: 64f9 5e3d 2565 c13f 3b6f 2ff5 51f8 98bf
00000450: f28c 00b2 2fce b9bf a2d5 a78d 730c b2bf
00000460: 5c38 0fca 7281 83bf 027e 68c0 7c7f 943f
00000470: 1d12 0411 0218 b13f be54 0fa1 0a2b bc3f
00000480: 6494 6803 929e 8bbf bb8c 6c5e 3fc1 a03f
00000490: ea15 fc82 b863 b1bf fcb2 1bca 490e b63f
000004a0: b4b5 1016 859a 753f d087 9bb7 43fb a63f
000004b0: aa16 22b6 c2e7 813f e403 9b77 61a3 a2bf
000004c0: 0821 2bdb 7d24 913f 6338 e5df 5442 b03f
000004d0: b8e6 bb06 3780 bdbf db1b 7948 4a1c a03f
000004e0: a368 1fb1 5689 b93f cb18 7fd0 4e21 bf3f
000004f0: 4a38 0ac7 e73c bcbf bf0a bdc3 e34a acbf
00000500: 5814 0591 1624 903f edaa 58fa ad2a 9b3f
00000510: ad94 2cfd fb3d b33f 5603 ac03 1aae bb3f
00000520: eb11 83dd 0c90 92bf 3df0 6dc9 bc19 ae3f
00000530: 352f d81d 9bb0 b6bf f6ae 73a1 df06 b3bf
00000540: bab8 ce92 6514 b73f 43af 53b3 c329 b9bf
00000550: 25ed 09c7 ec3f aebf 54a3 b0eb 8016 713f
00000560: 64f2 c065 f2e1 bb3f f998 e567 5ad2 ac3f
00000570: 13f3 9f5e 54ae 98bf 30ea a586 b97e b23f
00000580: 526b 8fae a861 bbbf d365 0fee 9a6a b13f
00000590: e299 2e3e a4f2 b53f 68d7 fcda b840 72bf
000005a0: af4f ad2d 8bca c13f 01dd 45b0 6075 a83f
000005b0: 31ae ee93 7b97 b53f 576b cfae 1b30 c2bf
000005c0: 6457 69bb 79fd a13f ff5e d2cc 0de3 ab3f
000005d0: 46b1 2ed7 8925 af3f 13b9 c49b dd39 b83f
000005e0: a57c ca20 13bd b53f 07a5 da55 5e1a aebf
000005f0: 8caa 71cd f860 a23f ff90 716a 8ba2 90bf
00000600: b42f 6a7a 57c9 b73f f108 55a6 869e a6bf
00000610: 9fd2 4e2c 5112 a73f d39d 12fa 26cf 9c3f
00000620: d7ca a51f 2f96 bdbf 8665 b2bb e133 bd3f
00000630: 3758 d6cb 445b a43f fea8 7bca 8301 bb3f
-0.1369275600778343 -0.051856059674275055 0.06990093777881427 -0.05599362168174014 -0.0358373123391821 -0.019956596430142592 -0.12035310547341199 0.018256363051500937
0.01776432571571272 -0.06081415643403636 -0.13872224927556753 0.02578200088258572 -0.08479081407948409 0.17048798053466482 -0.10207669229993113 0.05445931999003115
-0.1183959371320763 -0.13898055803713255 0.11331124955060633 0.042443533797469256 0.03089480730157222 0.12685795120579904 -0.09174072217498959 0.042687930223393136
-0.017857034554856377 0.023164816834868752 0.07071710699242395 0.09730794444125195 0.1241176343894571 -0.010333773793117037 0.007297461454338906 0.030143450957897302
0.009527785034037308 -0.07534024626978153 0.0034697767299778416 -0.11410935941227518 -0.08780150093384656 0.008736463924214498 0.05553009451891874 0.002059155535079414
0.07226010496345736 0.15625457255345174 -0.13540425957574773 0.06803862414020394 0.09393551842113464 -0.08667217258730645 0.02394318720390523 -0.09368474797775588
0.08445820842007712 0.1008226160800944 0.14147686627238795 -0.12166476053920719 -0.08629697458802664 0.03624032646891386 -0.11547950958529798 -0.10668504732812106
0.06297796574393835 -0.12573224864572907 0.0917321236155765 -0.09289096468574538 0.10891814243476763 -0.015191498947439158 -0.09333845481429971 0.034380844743196345
0.04631185111069681 -0.1367385052401334 0.03751251215893138 0.014284536010230553 -0.09061112065844303 0.021085642057286066 -0.03436410673725709 0.06041099974260833
-0.13391989491470188 -0.08937574067090621 0.10913023080068267 -0.07149523689374233 -0.02953609081759205 -0.06633240448107286 0.1433322026975317 0.06180793180926371
-0.13232614114239424 0.08349399433728344 -0.0021468576364784262 -0.1301040813133485 0.012004539034372971 -0.13082000478972883 0.07325654000700382 0.11553963689395881
-0.049578908907133214 0.126683776920662 0.1393433422130574 -0.12297780909833261 -0.054274884574268954 0.09119658537460484 0.06414644655382395 -0.07926503580560657
0.032300449210400775 0.0835506558603802 -0.01335236169455735 0.16339078323787506 -0.006725798361277393 0.1134156618740234 0.07952394789568464 0.11875234214285361
0.011183155287623828 -0.07721411471216119 0.03319696636613946 -0.0020614525407570694 0.09485477831074939 0.041761201134116806 -0.07838587915366639 -0.00666266246270696
0.060880713613083996 0.10805820413672036 -0.07660184570045687 0.009998994781591521 0.08094966893048308 0.09396357611226346 0.08471074973139345 -0.13418004592528202
-0.08016044455349014 -0.11811768633205415 0.01230775098928674 0.13386581339041648 -0.13290678154255106 0.10620396076266661 -0.08555034680945718 0.09186311851902412
-0.04937215070898635 0.08436554656122906 0.08221506469099357 -0.0270547616263087 0.11502665942874608 -0.061209387335598386 -0.08562173269437692 -0.03446681632778434
0.13589921471243394 -0.02438476618759398 -0.10080240340953475 -0.07050249298466452 -0.009524246970524945 0.020017575496352087 0.06677258410861282 0.11003176147581237
-0.013486042717952347 0.03272436168324463 -0.06792786786908037 0.08615552124292586 0.005274314754428234 0.04488574615767471 0.008742829497588051 -0.036402746057781404
0.016740767003995877 0.06351213899799428 -0.1152376548233417 0.03146583685570877 0.09975187134060319 0.12160198774572277 -0.11030434235928613 -0.0552588631094486
0.015762665368374534 0.02652999725811871 0.07516455584534994 0.10812532987257603 -0.018127633113879254 0.058790111149364034 -0.08863229254364742 -0.07432363216110702
0.09015498003165848 -0.09829352501008963 -0.05908145837471527 0.004171851726859927 0.10891642555447728 0.05629236715576442 -0.024102514529647467 0.07224616563136332
-0.10695890676235578 0.06803291618361777 0.08573366659275153 -0.004456255046354808 0.13899364214250684 0.04777052070397226 0.08434269296292808 -0.14209314380317536
0.03513698971498405 0.05446665883317613 0.060833270566350836 0.0946329598707261 0.08491630125580459 -0.05879492567084737 0.035896086767782526 -0.01624505841427126
0.0929159807075724 -0.04417820721075028 0.045061623247794495 0.028133973134257872 -0.11557287714621665 0.11407290298884307 0.03975882519004908 0.10549186414178632

linear.weight f8 [2, 50]
00000000: c92e 9e68 01cb 94bf b90e 6523 bd87 c03f
00000010: 7bc7 fa04 7a3f bc3f c31f 2f58 817d 82bf
00000020: d821 21f2 d996 c1bf af83 d8fd 41a1 95bf
00000030: 3242 ce01 a84e b63f a670 18db c3d3 973f
00000040: d2bb 71f1 2197 c1bf d4a2 eaba ebb1 a93f
00000050: 94b4 fcc0 286e aabf ab20 dad5 e634 be3f
00000060: b186 eb9f 9fe7 9c3f efce e4ba cf54 afbf
00000070: d85a 4ab9 aeea c2bf 8745 211f 1755 c03f
00000080: adb1 582c bc0f b1bf bf2d 1046 e75e b8bf
00000090: e56d 3684 8ec7 abbf 389e 216d a5f3 b3bf
000000a0: 6b94 b4f4 3999 b73f 6cfd 07fd c639 923f
000000b0: 4a2d 6545 9ec1 91bf 7520 fbed 1557 ae3f
000000c0: 0201 bc1f 1932 ab3f 4b26 dfda 7f90 7a3f
000000d0: 7da3 82a6 92e9 a5bf 106b de7e 890a afbf
000000e0: 3d8a 75a8 ed8b b9bf 6b5c ccd5 baff bdbf
000000f0: f5fb 6add 35af 8cbf 936c bebb e602 bebf
00000100: 1171 8646 222b 8b3f bbe2 7a1e c013 8dbf
00000110: b6ae c94e bf11 c13f 4119 cedb 894e a33f
00000120: 82ed 5a31 0b33 c2bf 4af9 d568 a369 b13f
00000130: f845 e198 42bb 693f c482 1f46 88be a8bf
00000140: eb1c 0aec d259 c4bf 2b36 7aca a65c 9c3f
00000150: bd09 e522 9a8a b8bf 73ca aff5 040c c2bf
00000160: 64ab 6e73 4784 85bf 744f d632 6690 b73f
00000170: 5536 9ff5 0572 b1bf 4c09 406d 29f1 b73f
00000180: 7da7 89d4 db2a c43f 745f 9a7b 2c32 bc3f
00000190: 787e 613a a657 c0bf 6448 d950 1945 b8bf
000001a0: d2ae c49a 3489 7d3f 7646 1f5f 9248 913f
000001b0: f6f7 9db4 7704 b4bf 559e ac74 32ef c0bf
000001c0: 7ec9 13f2 a3cc a93f 1ab1 51ea 15e5 b0bf
000001d0: 712a 46b9 6d8e bcbf 6269 69f9 4a61 b53f
000001e0: 06c3 1296 7cb5 b8bf 8870 c374 f453 a23f
000001f0: 9f35 34aa f7f9 c5bf a1c6 05f6 d5b9 c1bf
00000200: 453e 03cb 1cf9 c33f 9c96 8bd3 75a4 b3bf
00000210: 47bd de93 08ea 883f 31f7 ddcd 173b bcbf
00000220: 3324 136e adf4 b9bf 480f f559 8c49 be3f
00000230: a64e f920 0297 bc3f 6029 acea bb43 c3bf
00000240: 3a9d 7e2a 69b6 bebf d0f7 2dc1 bc2c 723f
00000250: 4a6a 2503 74ab 82bf b431 7c64 5df3 c1bf
00000260: ab54 0335 32c4 b43f 349e 553b ee1d a93f
00000270: a169 2757 5bdd a8bf cd43 9bc6 ab91 743f
00000280: 36a9 8b25 c2d7 bdbf 5045 a616 563e abbf
00000290: e533 4f94 ddf4 07bf 5eac bdaa 0ded c03f
000002a0: cfc3 d1f2 e872 80bf d8ae f610 ea22 b4bf
000002b0: b0c0 686e c8b4 a23f bd1e a72e 8702 b4bf
000002c0: 500a 9ff2 2a7b a2bf 0b1c 33e5 25d5 b23f
000002d0: b0d4 9601 ce5a a7bf 53df ccae 4fd8 b4bf
000002e0: fe67 96e6 4d7b b73f 607b 43a4 df19 b63f
000002f0: 2c3b 23ff 8a8c 92bf b47a b989 48a7 a8bf
00000300: ef73 3eb0 5619 9f3f d2a4 c6a5 04b9 b83f
00000310: b9db d437 f466 ae3f e430 510b 3c2e a23f
-0.020305654535646398 0.1291424200845677 0.11034357663700504 -0.009028444770493032 -0.13741611788488117 -0.02112296211101111 0.08713769954761899 0.023268757102514435
-0.13742470063468076 0.05018555313774234 -0.0516216979579919 0.11799471589086134 0.028227323661559726 -0.0611939349786591 -0.1477869419802207 0.12759675045030525
-0.06664634783437036 -0.09519811115767761 -0.05425687183307185 -0.07793649591769103 0.09218179916622808 0.017798527902411918 -0.017340157495067822 0.059258160877619405
0.05311659347899146 0.00648546164843251 -0.042797644449200846 -0.06062726663295426 -0.0997913872029494 -0.11718337745365807 -0.014006062335623052 -0.11723177035894343
0.013265865113503613 -0.014197827272583443 0.13335410449086788 0.03770857628028291 -0.14218273076935978 0.06801816281765585 0.0031410504080120437 -0.04832864624018421
-0.15899120831838984 0.027697187526930882 -0.09586490013047118 -0.14099180218143523 -0.010506208620275799 0.09204710713521341 -0.06814610716465926 0.09352358739127914
0.15755794408624615 0.11014059083606559 -0.12767484522463568 -0.09480436538550091 0.0072109274736182494 0.016878401809498254 -0.07819317016216573 -0.13229971596705306
0.0503894074444302 -0.06599556894952166 -0.11154828809064 0.08351582135347749 -0.09651926673792496 0.03579677510580931 -0.17169090090503134 -0.13848375809498228
0.15603980934837317 -0.07672821440390937 0.012165133488308512 -0.11027668739367581 -0.10138973176357595 0.11830975719663883 0.11167920403505124 -0.1505045791494224
-0.11997086799111836 0.004437196085630604 -0.009116083475125287 -0.1402394047403398 0.08111871523154217 0.04905647730157306 -0.04856381834879931 0.005021735190624943
-0.11657346169127866 -0.053209963097411106 -4.5693409027692905e-05 0.13223429524382174 -0.008031673345813587 -0.0786577502646496 0.036535514333423946 -0.0781635750673741
-0.03609594546971506 0.07356488080687044 -0.0456146599712296 -0.08142564790329958 0.0917252243001769 0.08633229980794743 -0.018114253828396418 -0.04815127068717598
0.030370096690251754 0.09657315299286331 0.05937922650848954 0.035508991605270684

linear.bias f8 [2]
00000000: edff d2d5 c4c4 b9bf 20ae bc15 0f44 bcbf
-0.1006587049514562 -0.11041349678696877
