sequencetest_ur10.pth (torch, 265175 bytes, 6 tensors)

lstm.weight_ih_l0 f8 [200, 112]
0	0xbfbbb6dda436552c	-0.10825906046951123
1	0x3fb749676e0b3ae0	0.09096380650155877
2	0xbf8d5ca6809ee556	-0.014336872863952504
3	0x3fa478b8f3efa5d5	0.039983539368971734
4	0xbfb9f60a6e993cf6	-0.10141053390656282
5	0xbf9d0f115f207b6d	-0.02837779181583804
6	0xbf87540dc5f01469	-0.011390788653452515
7	0x3fa379150a7922ce	0.038033158806290865
8	0x3fa857468d522ef5	0.04754085993871896
9	0xbfc0114c16959365	-0.1255278692507559
10	0xbf69fcf3827d6864	-0.003172374348577244
11	0x3fa7b8b570877883	0.04633109091422318
12	0x3fad0e72cd5fac04	0.05675085789683723
13	0xbf937f62b6a82e6c	-0.019040624998565667
14	0xbf7719e64d106ceb	-0.005639934171109954
15	0x3fc01daab46e3f25	0.12590535936441785
16	0x3fa0cd920e74b33e	0.03281837870085845
17	0xbfa8993ed5384989	-0.04804416992932931
18	0xbf7f51f6e23ccfb1	-0.007646526708231891
19	0x3fad9994ab5b42b0	0.05781235305551513
20	0xbfb766608e202192	-0.09140590162144793
21	0xbf8f019fceefd9f8	-0.01513981676360475
22	0xbf8f0c4d0b622227	-0.015160180959598325
23	0xbfa984fd1ba63b90	-0.04984274828449664
24	0x3fc3b3afbca5b261	0.1539210959557691
25	0x3fbac5cd03a083a5	0.10458070124197023
26	0xbf7cf66c0908ddbb	-0.00707094384465939
27	0xbfa673315e19fafb	-0.04384760163974551
28	0x3fbcd28d99eb76d1	0.11258778579528018
29	0x3fa85d00e751ab32	0.04758456062048423
30	0xbf7590f6f3e2e86a	-0.005265202196989541
31	0x3f8aa27fc2c5734c	0.013005254870842052
32	0x3fab33b124c7eaa1	0.053128753414019465
33	0xbfc133c8fbabe8f6	-0.13439285553597075
34	0xbf65b8860e804590	-0.0026514642995684803
35	0xbfa4f5936dfee55b	-0.040936095406730565
36	0x3fa978a6fca3775f	0.04974862894026332
37	0xbfb95f0579039255	-0.09910616115991762
38	0xbf80c3439543e9d8	-0.008184936516490035
39	0xbf9e02d5fe23990a	-0.029307693134705416
40	0x3fab8e8e9dd51942	0.05382199932732813
41	0xbf9ac8e6b574ca5c	-0.026157002282341288
42	0xbf603b91239ea7fb	-0.001981528735048419
43	0xbfa4b6e2262f425a	-0.04045778957482034
44	0xbfb21071637c1b90	-0.0705633991129686
45	0xbfac1d78936effdd	-0.054912345883621795
46	0xbf7f80a193c4e509	-0.007691031609561757
47	0x3fa30d30b025115c	0.03721000814633399
48	0x3fc2ef87d4e6c410	0.14793489356591794
49	0x3fc013b6d2eae434	0.12560162829120858
50	0x3f50b07cdadf005f	0.0010186404501695485
51	0x3fa972ab8d3bb2d5	0.04970298861539894
52	0xbfb69de98778dbb2	-0.08834704930710194
53	0x3fb7026abced2123	0.08988062965830017
54	0x3f6c645a3078d48a	0.0034658204565639105
55	0x3f9e3ef4848b76e8	0.02953702982892184
56	0xbfb13d8c1a37d84b	-0.06734538688746843
57	0xbf72237927292527	-0.004428361181063856
58	0xbf6784cd41fafd86	-0.002870942014709224
59	0xbfb3048bafa1304c	-0.07428811109383665
60	0x3f7bb772a4199faa	0.006766746345967004
61	0x3f92079925aa48f8	0.01760710995092382
62	0xbf712293a2b32edf	-0.004183365537027333
63	0x3fa8fcbcba03e5d0	0.04880323191350622
64	0xbf849cc54e2400db	-0.010064641425288226
65	0xbfb091d3d45253c0	-0.06472515042908267
66	0x3f7635fc71064e8f	0.0054225789066496685
67	0xbf7ad3dd752bec66	-0.0065497065249885186
68	0xbf9958543fce7197	-0.024751011270937786
69	0xbfa15acef985835e	-0.03389593883435425
70	0xbf754492cb923497	-0.005192349833248808
71	0x3fadc4a86cd11589	0.05814100578622134
72	0xbfadb6ff80fbd89f	-0.05803678941258394
73	0xbfb07a8ae326f07e	-0.06436985059457531
74	0xbf74157710fbc732	-0.00490328321733262
75	0x3fa52b83bd553bf7	0.04134761511033241
76	0x3fa153e9873cbd9f	0.033843324430900205
77	0x3fc37b6a60cc4546	0.15220384336911702
78	0xbf820af21b76cb1c	-0.008809939826141248
79	0xbfa2dc19f59fb16d	-0.03683549044930854
80	0x3fa6d4469aceae97	0.04458828582513979
81	0x3fc1257b240c5332	0.1339563299194651
82	0x3f6c6ae456a7ede2	0.0034689388023687465
83	0xbf9184a4f3e407ab	-0.0171075605258079
84	0x3fadc375ea28d95a	0.058131871065074406
85	0xbf9ec51d3e64e7b8	-0.0300488061268209
86	0xbf6657334fe8e520	-0.0027271272840862087
87	0x3fa634b683e78c79	0.04337091789400289
88	0x3fb34a8a0b98376e	0.0753561285311812
89	0xbfbc9496594fb911	-0.11164226227240116
90	0xbf770826a2b889eb	-0.0056230076984626716
91	0x3f647c8d272a3adf	0.002500796975545824
92	0xbfb73ddc224b1690	-0.09078765713919723
93	0x3fc072d9d07dbb40	0.12850496940833445
94	0x3f4d14c58d70a436	0.0008874859439674868
95	0x3fa0c1c533f0e02a	0.0327283502487606
96	0xbfaa277b87002d32	-0.051082477788521166
97	0x3fb06e2876389464	0.06418087850814086
98	0x3f47f2d38bd21712	0.0007308514538102182
99	0x3fb4f5ad462ef27b	0.08187373126470192
100	0xbfb9e8bbe7825e95	-0.10120748903352202
101	0x3fb7d46010f15cfd	0.09308433927195732
102	0x3f5819c28c4dc562	0.0014709854014792402
103	0x3fb907660458c3d6	0.09776914220925845
104	0x3fb73ccf61099e05	0.09077163809853779
105	0xbfbcfeb2261ce3d2	-0.11326135092248471
106	0xbf905460d882dbb7	-0.01594687768439559
107	0xbfbb3cc787b9aff0	-0.10639617026907877
108	0xbfa405f8f76f50da	-0.03910806675381347
109	0x3fc16c34d3e67c22	0.13611469599433784
110	0xbf8955946926f782	-0.01237026163004962
111	0xbf56bbeb03915c03	-0.0013875765855766449
112	0x3fb44bc861159488	0.07928135271284209
113	0xbfac2a90051efcae	-0.05501222670090421
114	0x3f8d6ee85fe04143	0.014371695924666588
115	0xbfbe17b35f98aceb	-0.11754914363762096
116	0x3fc1f3a6ee22869b	0.14024817111662888
117	0x3fc6336b8ebddebd	0.17344421834763138
118	0x3f8bd151ccf82cf8	0.013582839076681882
119	0xbfb13faa65ffd0b2	-0.06737771024910691
120	0x3fc5237c86687d5f	0.1651454597749575
121	0xbfb8a4e082c141f6	-0.09626582329043018
122	0x3f8bb1d5b3d892ce	0.01352278666588216
123	0xbf94a2ee30ebf422	-0.020152780281012757
124	0x3fa1d5e9e9fd227c	0.034835157216154905
125	0x3fbaf76b2d80c948	0.10533780918993785
126	0x3f912a9415c0c713	0.016763986423206378
127	0x3fbc4f108b14dba3	0.11058143039268357
128	0xbfb1def119cf21c6	-0.06980807190041735
129	0x3fba19c7a3f2d7eb	0.10195586922313253
130	0x3f918dd57d1f8128	0.017142616044908326
131	0x3fa69656f5e35f6c	0.04411575080456384
132	0x3fc3be46c3b3446e	0.1542442756240549
133	0xbfbf5a9ec3d8088f	-0.12247650414795629
134	0x3f8cf349e77935d4	0.01413591134692186
135	0x3fb1b90ca430d932	0.06922987946095274
136	0xbfbc65349fab396d	-0.11091927431264077
137	0x3fc273d137c793ad	0.1441594622002901
138	0x3f88234de1d9fc5f	0.011786087469998372
139	0xbfa96284df7ff8a1	-0.04957976558942901
140	0x3fc23b9138a1ced0	0.14244284882771874
141	0x3fc48374bdbd2f47	0.16026171936607111
142	0x3f8bc95fc40ce972	0.013567684336170702
143	0xbfbd5b1051270e4f	-0.11467077237380717
144	0x3f82586d144ef6de	0.008957721884026378
145	0x3fc1d8a52e86e8d6	0.13942398807359407
146	0x3f8e656f6e827781	0.01484190994261403
147	0xbf7ba0f18ecaa892	-0.0067452846384786925
148	0x3fc49c52b3373915	0.1610206008030636
149	0xbfb57fd9431c20f4	-0.08398206604408981
150	0x3f817b146235bdb2	0.008535537001732905
151	0xbfb56a9e0ff5a861	-0.08365810289038357
152	0x3fba7082b8aebb01	0.10327927597857568
153	0xbfbac60ff6a78467	-0.10458469173274097
154	0x3f8760cf27eadd07	0.011415117650683827
155	0xbfb1e7941ce84461	-0.06993985849136798
156	0xbfb29654c47b6f4d	-0.07260637089660556
157	0xbfa716e9fce0397b	-0.045096695059430446
158	0x3f7b982e63d9e30d	0.006736928187472524
159	0x3f9fdb83a962abd9	0.031110818112818215
160	0x3fbab6de3c2cb156	0.10435284585100155
161	0xbfa23641f92f1e9d	-0.03557020346448534
162	0x3f803f835feebcb3	0.007933641781930545
163	0xbf7792a745965724	-0.005755093961303168
164	0x3fc596e3b0a58d35	0.16866727948500118
165	0x3fc12faa77d27178	0.13426714754758584
166	0x3f9277ed6c2f3c98	0.018035611846980076
167	0xbfbbee0f367669fd	-0.10910124854709831
168	0xbfb4c5e979cb2640	-0.08114489768481636
169	0xbf77d118cb37a6ec	-0.005814644671298313
170	0x3f7926388542f3e1	0.006139965804490694
171	0xbfc36db2232d5e9f	-0.15178515164983694
172	0x3fc27a7428b9643a	0.14436199177251458
173	0x3fad694a8d28114b	0.05744393323041893
174	0x3f7c28dec3377172	0.006874914327877556
175	0xbfac7b031ecd964c	-0.055626008520260756
176	0x3f93035a963c10e0	0.018567481441110867
177	0x3f9339d39f28f636	0.01877527865348424
178	0x3f800f0b3c62577d	0.007841193943288744
179	0xbf9d7b488e045107	-0.028790601413747143
180	0xbf96216f0e306b76	-0.021611914864574776
181	0x3f7d0342e3e075fd	0.0070831883331527986
182	0x3f849a11f164b066	0.010059490374793433
183	0xbfc4dcee74661f26	-0.16299229320088066
184	0x3fbdfd7c6bde57e4	0.1171491397238636
185	0x3fb69ef235d868bc	0.0883628255327577
186	0x3f78b123353cc33e	0.006028306513869817
187	0xbfa33ebf96c3ac67	-0.037588107255793805
188	0xbfaee8b5ad5aee45	-0.06036918393280336
189	0xbfa8643afe9434e9	-0.047639697624711826
190	0x3f64ffda653f52e6	0.0025634065186558195
191	0x3fb116637d23a594	0.06674787335545879
192	0x3fa12a6877aaecbc	0.03352667294299169
193	0x3f6ae5a19e58f300	0.0032833248722269337
194	0x3f89b5383b471350	0.01255268031025883
195	0x3fb2bd434d057221	0.07320042257692495
196	0xbfa5e82b2400bd2b	-0.042786930222400286
197	0x3fa7db846bc69b5a	0.0465966588556543
198	0x3f70aa44351840b1	0.0040686287261594714
199	0x3fb281203a5a94a8	0.0722828047242553
200	0x3fac81374c032d52	0.05567333987127178
201	0xbfab792e69af3ec5	-0.05365891494841216
202	0x3f756998a8863e22	0.005227657624700595
203	0x3f8d47e31eaf9f4f	0.014297270177806047
204	0xbfb6bee2a849f132	-0.08885017975439238
205	0xbfb95dbc69ae536e	-0.09908654766179634
206	0x3f7a8144640481fd	0.006470935012004461
207	0xbf9c4c7d2dcca5ce	-0.027635532303212966
208	0xbfb6f924518ac576	-0.08973910322926834
209	0xbfb1d0e491ec31dd	-0.06959370195927002
210	0x3f60d78a1eb8921c	0.00205590225756881
211	0xbfa17406f06bf585	-0.03408834156833066
212	0xbfc067865671a363	-0.12815932484525225
213	0x3f9eba1d432a0464	0.030006844734547747
214	0x3f2dad4f8e2fce1f	0.00022641750464878847
215	0xbf96276663e2c715	-0.02163467392592285
216	0x3fb8d21c7e48c6ca	0.09695604403602967
217	0xbfbd23cca26b7c95	-0.11382750478104449
218	0xbf44b978ee07bef8	-0.0006324615933958879
219	0xbfce83aaea56fa6e	-0.23839317743655236
220	0xbfa88ab4e1f49cab	-0.04793324716802635
221	0xbfc3e6b7dd0bb505	-0.1554784612011774
222	0x3f5c64f7cd548b98	0.0017330570165732025
223	0xbfcd84b1b556d2f8	-0.2306120047993756
224	0x3f951087f3f26b56	0.020570873512592534
225	0x3fbd0630e19a414f	0.11337571628451325
226	0x3f8c7c894086e90d	0.01390940883799321
227	0x3fb8d6e4992977a0	0.09702900637918654
228	0x3f8e9cfd2964219f	0.014947870088250435
229	0x3fb78c90d1dfa1fd	0.091988612402595
230	0x3f92b9d025e9034a	0.018286945642333387
231	0x3fbf117a6251566d	0.12136044407210429
232	0xbfbfedb409967a0c	-0.12472081407620567
233	0xbfa24de9ff910b6f	-0.035750687071888325
234	0x3f90f626f841084f	0.01656399622175569
235	0x3f8ed44d755fddb9	0.01505337252090909
236	0xbfba9ec10b0da95f	-0.10398489494187889
237	0x3fc1143b95381f88	0.13342995439620275
238	0x3f910bc72f52edfa	0.01664649225561552
239	0xbfa48358a6e9f4d4	-0.040064592719298325
240	0xbfb7ec8ca1968bef	-0.09345320649167353
241	0x3fcc6c49e930bc36	0.22205470930336596
242	0x3f91c22b47c02b23	0.01734225869590057
243	0x3fa19ee6f77afda1	0.03441545268060087
244	0xbfbf072bad260ecb	-0.12120316483747755
245	0x3fb781768220c027	0.09181919743491616
246	0x3f92546cd45238f4	0.017900181254440775
247	0x3fba501c7d0ac15c	0.10278490116866607
248	0x3fc1936565049ac6	0.13731067116278534
249	0x3fc5c34f04e76dde	0.17002284755186187
250	0x3f9251ed982597b1	0.01789065590983058
251	0xbf8e3f5728370144	-0.014769249834785676
252	0xbfb7a11d3420f0e4	-0.0923021557109141
253	0x3fc94dc695bb27ab	0.19768602667892074
254	0x3f95ce2ab54a9f21	0.021294276538042504
255	0x3fb7faba999c3147	0.09366956949469794

lstm.weight_hh_l0 f8 [200, 50]
0	0x3f8d573193a1a9f0	0.014326464956146062
1	0xbfbd95500a9b1a92	-0.11555958041126704
2	0xbfb90d6a5bbd6c97	-0.09786095371002755
3	0xbf7896794e683618	-0.006002878048560166
4	0x3f9a71b3c3d0e6c6	0.025824364496861894
5	0xbfa18ec8499fd9e4	-0.03429246805892541
6	0xbf960deb836e0e43	-0.02153747548756103
7	0x3fbc0c17873973ec	0.10955950785996976
8	0x3fb9949c4d236f69	0.09992386706602265
9	0xbfa3135a3ab9532d	-0.03725702254147332
10	0x3fbc22e4a7567f53	0.10990742764852017
11	0xbfc26c825063ce00	-0.14393643307958826
12	0x3fa7fe09b6dafd57	0.046860030719012506
13	0xbfaf0d51ed211121	-0.060648498722488016
14	0xbfb306443d91b020	-0.07431437018539144
15	0x3fb248a51bfc49a7	0.07142097409476965
16	0x3fb3a433428b852a	0.07672424673684888
17	0x3fb5d415a2215240	0.08526740272766009
18	0x3fc28008da6fe68f	0.14453230539202308
19	0xbfbe0e3c260bc1bc	-0.1174047081838187
20	0x3fbe7331d90985dc	0.11894523190269218
21	0xbfb606f5ac1a8d98	-0.08604369594336558
22	0xbfb89177a1fbe0d3	-0.0959696550816063
23	0x3f906a8cb14b4685	0.01603145439259503
24	0x3fa4472929371fea	0.039605413705032635
25	0xbfc2635c71c002d7	-0.14365726045800528
26	0xbfb33a858ef05419	-0.07511172046390903
27	0xbf9bbd005c0fb37d	-0.027088170641877952
28	0x3fc4042a4804bb32	0.15637711063887988
29	0xbfb6a9f1b5e89c31	-0.08853064242485754
30	0x3f9e5049360fb3fa	0.029603141712801297
31	0x3fcb60725b09520d	0.21388081975113984
32	0x3fb3326256303633	0.07498755077559664
33	0x3fa17a83b8eaab32	0.03413783676417949
34	0xbfc4f01b251b037a	-0.16357745467942292
35	0xbfc083afa91b0f15	-0.12901874310602382
36	0xbfc74b98d6703c91	-0.18199453802705937
37	0x3fb7d883426578b2	0.09314747210507582
38	0x3fc18f2fe7413250	0.13718222419483306
39	0xbfb6b03a90f3b664	-0.08862653769366485
40	0xbfc8cfdaf767da7b	-0.19384324150424334
41	0x3fbc6cc89a1bd183	0.11103490602892489
42	0xbf93a275ac103cc4	-0.019174421908300557
43	0x3fb6e070ba1476f1	0.08936218779532702
44	0x3fc9019854deade2	0.195361176910736
45	0x3f8ad218b5105019	0.013096039796472824
46	0x3fa5cc6eff513ad7	0.04257532946268377
47	0xbfaf60784399f5fe	-0.0612828810235264
48	0x3f93657a7c3d71cb	0.01894179709721459
49	0x3fbd5851021df6f7	0.11462885190664084
50	0xbf70e25756b25fc4	-0.004122105757367881
51	0xbfc07df3add2949f	-0.12884374606543234
52	0x3f9706a053126da5	0.02248621470481073
53	0x3fb2900688d17907	0.07251015510835056
54	0x3fc2f0ba5b6b92d2	0.14797143424870868
55	0xbf342b27ab760405	-0.0003077480173133143
56	0xbfb1943ba88efd26	-0.0686681067008875
57	0x3f9e3fee2b82dee7	0.029540749936784485
58	0xbf94c1146f297958	-0.02026779106596996
59	0x3fb96184e898f485	0.09914427450799408
60	0x3fb41bd479c08e34	0.07854965183701595
61	0x3f8c58f8c868a837	0.013841575256339762
62	0xbfa46b76cabd765c	-0.039882385490938005
63	0x3fadf29318a85686	0.058491322288472467
64	0x3f8d007b1badaf1b	0.01416107347696243
65	0xbfaecc918d8d3c43	-0.060154484299908016
66	0x3fa385f49d6dc503	0.0381313745664418
67	0xbfa881f7b223efc3	-0.047866573806430356
68	0x3fc124e1d40ec67b	0.13393805364971798
69	0xbfb066e60c735bb9	-0.06407010845155882
70	0x3fc62e2d9e0e73fb	0.17328424661255312
71	0xbf8cc789b1620e91	-0.014052463269997236
72	0xbfa0f31301b2e376	-0.03310450931298352
73	0xbfc295a3895fd687	-0.14519161422474644
74	0xbfc3992647f27b32	-0.15311125290915012
75	0x3fbfc09c8d1e2457	0.12403276868111966
76	0xbfa6168dffaa491f	-0.04314082857048817
77	0xbfbd8748d4e822ca	-0.11534552762908415
78	0xbfca61a3a39db881	-0.20610471238200392
79	0xbfb9ec89f203b3ee	-0.10126554640346772
80	0xbfb0cac203a8c55a	-0.0655938395436996
81	0xbfb6d3470dff257a	-0.08916133968081921
82	0xbfa961044055759a	-0.049568302968263825
83	0x3fa219801ed908bb	0.03535080315170221
84	0xbfad75036a6a8120	-0.05753336595558012
85	0x3fc09784d54c9549	0.12962398924825383
86	0x3f929c39bb1d6693	0.01817407803114308
87	0xbf83bf92fe972ea0	-0.009642742533194693
88	0xbfb09b09251a2c31	-0.06486565738502816
89	0x3f847f648ecba5f3	0.010008607490322929
90	0xbf987b677fb3190a	-0.023908250016369904
91	0x3fa1d298e88fe99e	0.03480985487836395
92	0x3fc477e3168370e3	0.15990866278924107
93	0xbfa5f6713b3f4a63	-0.04289583061440252
94	0xbfc5e3e7ca3e1db5	-0.1710176217568297
95	0xbfb782e8772a7d7c	-0.09184124860120407
96	0xbfb44bab1371a69c	-0.07927960610109114
97	0xbfb2bbbf12e014c1	-0.07317728243659173
98	0xbfb6c9eeddbede25	-0.0890187541361845
99	0xbfc54731717a5b6d	-0.16623514214435478
100	0x3faec9c3ec5085af	0.06013309726428006
101	0xbfaa1a8b6f8c32e5	-0.05098376976648015
102	0x3f9822a11493b906	0.023569599991724942
103	0x3fa8e6b680c95b1c	0.048635199757589315
104	0x3fb7e2be460fdc59	0.09330357752320263
105	0x3faed2d59e1ea944	0.060202289153795024
106	0xbfb2c1a555975ed8	-0.0732673009837258
107	0x3f93dabdb30d7572	0.01938911824560336
108	0xbfae9d88a36f06a1	-0.059795637083437166
109	0xbfb9cc195c704879	-0.10077055460740948
110	0x3fbbe684f9ea4041	0.10898619748536566
111	0xbfc364d49fd8cb74	-0.15151460461637678
112	0xbfb6b443b9a3a169	-0.08868811876494011
113	0x3fc363523827c43f	0.15146854154548525
114	0x3fb624ee7ab24b01	0.08650103087920159
115	0xbfc239c3aeb23792	-0.14238782911382636
116	0x3fc1ce23ac9c8b07	0.1391033737973759
117	0xbf91d52fa55eb403	-0.017414802997951295
118	0x3fc72bd2cbd7c335	0.18102488473189174
119	0x3f8fbecf953ab1cf	0.015500661603561476
120	0xbfaa4f1bea2a6349	-0.05138480409113428
121	0xbf8db7780ed2d639	-0.014510095550899315
122	0xbfa4adbcda02a462	-0.04038801347025679
123	0xbfa1b3ea0d701ab9	-0.03457576192891083
124	0xbfc197f9943964ff	-0.13745040643224368
125	0xbf74768fd1c0a131	-0.004995881838148628
126	0xbf8c9f936bf85ad6	-0.01397624181030947
127	0x3fabf2c51ae49c47	0.054586562664831244
128	0x3fa9ba9b8d8b3861	0.050251828220653
129	0xbfc9f335e73f7966	-0.20273469725993748
130	0x3fb15eb339977c43	0.06785125881241165
131	0x3f91a5fea73508db	0.017234782176509405
132	0xbfb797d9c0df0704	-0.09216080626267958
133	0xbfc171267e380a3e	-0.1362655750563863
134	0xbfa87c492d4234ea	-0.0478232257602061
135	0xbfb390750397201c	-0.07642299020437843
136	0xbfadf474d6ca226a	-0.05850567933982094
137	0xbf9462fb34fa1a11	-0.019908833607155844
138	0x3fba86853aa02746	0.10361511880196614
139	0x3f7ff9c1f1e5e21c	0.007806546780891679
140	0xbfa2a554e30f31c8	-0.03641762992592451
141	0x3f2ef0bd61d60a4a	0.00023605644029707696
142	0xbfb226ee42c6f885	-0.0709065354376169
143	0x3fa334d72a2f5ad6	0.037512515925916354
144	0x3fc1977baf385cd5	0.13743539863273804
145	0xbfad5964f3e2cd7f	-0.05732264973758116
146	0xbfc0f86baaeb3f25	-0.13258119435931195
147	0x3fb9362f759146ef	0.09848305340099349
148	0xbf836da0d328a4d3	-0.009486442989400967
149	0xbf80397745fea2a0	-0.007922107528274325
150	0xbf9ff47a7de08c81	-0.03120604890149226
151	0x3fc114feab654132	0.1334532105343072
152	0x3fc0d3f796e37092	0.1314687239417976
153	0x3fbb3b334ae54999	0.10637207582957443
154	0xbfb72307825843c0	-0.09037825519796083
155	0x3faa8072a3102f6e	0.051761228947809865
156	0xbfc6f6fdfd35f3e2	-0.17941260207945137
157	0xbfa971d2f23ab49a	-0.04969653326893671
158	0xbfc6371897ffda97	-0.17355639860007407
159	0xbf69bd1dddd8a3ba	-0.0031419356662536176
160	0x3fc40de17e1aad28	0.1566736093276202
161	0x3fb70b98a06eedfb	0.09002069393948624
162	0x3f97dbe77706131b	0.023299805297500514
163	0x3fb4b1e0a8b4df2f	0.08083919638454228
164	0xbfa80c1479c1dac1	-0.04696716295523152
165	0x3fc1ab8cff625f46	0.1380478140824783
166	0xbfc9f68d1ba879b1	-0.2028366456078863
167	0xbfbb4488f50bb403	-0.10651451094209112
168	0x3fb79b0feb716acb	0.0922098111927127
169	0xbf9789b6cd092758	-0.0229862749713797
170	0xbfc3c654bb04cbc6	-0.15449008113645685
171	0x3fcb6c692ad44eeb	0.2142459353568634
172	0x3fb99be63ce60c09	0.100035085552051
173	0xbfa46671f49f19c3	-0.039844094382306426
174	0xbfbee8956a4a9804	-0.12073644490246244
175	0xbfb2fd99c48cd727	-0.07418213890636292
176	0xbf8cce5aa198c52f	-0.014065464073697768
177	0x3fae97e51943ae99	0.0597526162472068
178	0x3f81db5289f37c84	0.008719105563100855
179	0x3fb275e5fe0ee9b7	0.0721114869365128
180	0x3fa4fb4f36d69fc6	0.040979838794839504
181	0x3fb118af5eacdd90	0.06678291379363643
182	0x3fbce47580ff7c23	0.11286100768437328
183	0x3f9c88a05dee6a2a	0.027864938481437708
184	0x3fcee336aa8aac31	0.24130900695067362
185	0x3fabcb8eeae561b1	0.05428740136511879
186	0x3fc0b22e87682c36	0.13043767558733216
187	0xbf9b42a490340cbf	-0.026621409703704964
188	0xbf91a006b6a643f0	-0.01721201410106582
189	0xbfa01cb682a03445	-0.031469062276393824
190	0x3fbe763e7cbbef99	0.11899176163927762
191	0xbfa3591cb8b9e1bc	-0.037789247083256566
192	0x3f9753e21b79fafd	0.022780926634818666
193	0x3fc283fa03dfc92b	0.14465260686081058
194	0xbfc1403891837fdf	-0.1347723684802977
195	0xbfc1a581c0d143a9	-0.13786336817659375
196	0x3f8b60e1a5c65fbf	0.013368380424068847
197	0x3f97949d161bef80	0.023027853464540282
198	0xbfc3cf8c6936257f	-0.15477137696533913
199	0xbfbf4482e162f1c4	-0.12213914873695503
200	0xbfc98c9480f81835	-0.19960266396827966
201	0xbf7563eecf8e564e	-0.005222256521752634
202	0xbfa6e62e691b0da6	-0.04472489388492855
203	0xbfab4950a4185e2f	-0.053293724089766285
204	0x3fa393bce938a304	0.03823652598322805
205	0x3fc30116b4ccde26	0.14847072437417913
206	0xbfcb6472bda298cc	-0.21400293597725406
207	0xbfb492131f550a2c	-0.08035392298646887
208	0x3fb4ddc5e6cb8da4	0.08150898823401193
209	0x3fbfe272c4f101c5	0.12454907711163006
210	0x3fc1bee8bffea6e0	0.13863858580344068
211	0x3f9fb44f512260ff	0.030961264922184203
212	0x3face045ac00717d	0.0563985607588817
213	0xbfb959dff7508dfd	-0.09902763164478041
214	0x3f95019121d5a99f	0.02051378983507279
215	0x3fb7732a3d153422	0.09160102835922193
216	0xbf8ec4899c5404c6	-0.015023303111322394
217	0xbfb95d7e5353ce49	-0.09908284696921855
218	0xbfa3c62bd2888104	-0.03862130112634257
219	0xbfb46ccdc8f0707b	-0.07978521495573603
220	0xbfb7eb89a0f56ed1	-0.09343776874214461
221	0x3fb5e4f22450d006	0.08552468668568744
222	0x3fb08924922feb39	0.06459263390563032
223	0x3f7753ce995ba720	0.005695158984716092
224	0xbfb7cbd44b2de16c	-0.09295393786840628
225	0xbfb1848e0a613cd5	-0.06842887643255165
226	0xbfa8d7b4184888f7	-0.04852068706920137
227	0xbfa08608f1f9ea47	-0.03227260545550741
228	0x3fa368e62116ffa3	0.037909690417563334
229	0x3fb8421c9c027f0d	0.09475878533202949
230	0x3fa1ce9a371c4387	0.034779376246780784
231	0xbfb882873fe999f7	-0.09574170408595949
232	0x3fc8a572564271b5	0.19254903041736574
233	0x3facde92467718eb	0.05638558492823783
234	0xbf905e1db32717a3	-0.015984024104703242
235	0xbfc530baaa2a492b	-0.16554959591719273
236	0x3fc02b5fea20b5e1	0.12632368976612354
237	0xbfbc5b7b0bd4ea4c	-0.11077088393077722
238	0xbfc1c3051d97e88a	-0.13876403756131978
239	0x3fa52bd852650b83	0.04135013585848581
240	0x3faf04c27716ebbe	0.060583188092514714
241	0x3f8e0ec409e7d488	0.014676600982946889
242	0x3fbff028f9cdce56	0.12475830172280075
243	0x3fc755e5a6d36951	0.1823088707522609
244	0x3fb23ce7f11debc4	0.07124185215609119
245	0x3fbfab6a5531dad8	0.12370934085798113
246	0x3f959ca480d88b5e	0.021105356563690385
247	0x3fb7288d47d319ac	0.09046252254038362
248	0xbfc50d97bbea7c0d	-0.16447731662353285
249	0x3fae6ac417e94c78	0.05940830985914486
250	0xbfc0055cb612dd89	-0.12516363992993387
251	0x3fc1a6ffccaaedb7	0.13790891164340532
252	0xbfa740278bd5946a	-0.045411334819427676
253	0x3fc0218e56007882	0.12602404784496818
254	0x3faca542c269e0cf	0.055948339683654084
255	0x3fc20cb2a1bec9ad	0.14101250550954827

lstm.bias_ih_l0 f8 [200]
0	0x3fc3410bd9bbd793	0.15042255527049217
1	0x3fc9398511a79085	0.19706786500967524
2	0x3f91041b2e3fe4ba	0.016617226312494827
3	0xbf9724ef28c3f981	-0.022601830351953737
4	0x3fa869d994d592d8	0.04768257085632904
5	0x3fb8b1692a9e372e	0.09645707407454715
6	0xbfbcfe9d12507d80	-0.11326009461526176
7	0x3fb55d0910111f07	0.08345085756547742
8	0x3fae036f6c90c02a	0.05861995888005851
9	0x3fc04b1cedff3f84	0.12729226704550112
10	0x3fb08c5d32680372	0.06464178543684598
11	0x3fbd2336dc99e914	0.11381857763072772
12	0x3fc3f7c7fc3dc2cf	0.15599918190448256
13	0xbfa66c40dfcf6d30	-0.04379465801295124
14	0xbf9503eff391ddf8	-0.020522832146950137
15	0x3fc04d70e5617946	0.12736331176979315
16	0x3fc73dfc326f1927	0.1815791364917427
17	0x3f91cf4fc4ae8bea	0.017392393474107516
18	0x3fb2359b08d3dbdd	0.07113045659558233
19	0x3fbf7b182546fc5f	0.12297202024545716
20	0xbfadbc0f6a32728a	-0.05807541056967576
21	0x3fc0eeb5266a483d	0.13228477836361377
22	0x3fc7ba9f02d56aa0	0.1853827251278135
23	0x3f7db48161c97893	0.007252221487389704
24	0xbfa2cd2c6c3d8c9b	-0.03672159978193542
25	0xbfb78683d99b4672	-0.0918962866083122
26	0x3fbb2e4b7dbda0d3	0.10617515392152947
27	0xbf949a127c275369	-0.02011898882649935
28	0xbfadd591516745af	-0.058270016848506294
29	0x3f90ae5d25cb855a	0.016290145332168528
30	0x3fbb3c24ca196bbc	0.10638647016587205
31	0x3f73900fcfeecd0d	0.004776059881737693
32	0x3fa0ab84967179ad	0.03255857788529979
33	0x3fc12d6c089173bf	0.13419866960876267
34	0x3fb464d392cdea95	0.0796634896668514
35	0x3f9bdad4c5162cfe	0.027201962022030728
36	0x3fc1c897a275a7ef	0.1389340918788657
37	0x3fb123b705182fa3	0.06695121645333173
38	0x3fc799264f24b905	0.1843612562601679
39	0x3fc4934d4a225bf8	0.1607452976211048
40	0x3fce264b39bd156c	0.2355436355521009
41	0xbfbc6471d4793146	-0.11090766370142999
42	0x3fb130e0801d5a6a	0.06715205314444864
43	0x3fbcc28a5ebc7352	0.11234345257657921
44	0x3fa48159481def2f	0.040049352696739475
45	0xbfaf757238ae1b50	-0.061442918223341025
46	0x3fc98c17ea92a9de	0.19958781198268033
47	0x3fb102b645f9c5d5	0.06644763191595555
48	0xbf9a35e047a1e490	-0.025596145984739638
49	0x3fa25fbaf48f1bf0	0.035886614182849885
50	0x3f9ca16f90740e88	0.027959578696949566
51	0x3f8d1486bc3d7891	0.014199307078964803
52	0x3fcb0c136ea43c31	0.21130602743548502
53	0xbfa3f2b255f1cbc7	-0.03896100329520596
54	0x3f831c4ea9413d21	0.009331335582969448
55	0x3fd0c52f87ec05e9	0.26203525804166233
56	0x3fa66cda54090d79	0.04379923129865921
57	0x3fb538a1b519d3aa	0.08289538070114469
58	0xbfbcd5fee3370da3	-0.11264031455271221
59	0x3f92a5ee516cfa9c	0.018211101264791738
60	0x3fbebbbd102e7f8e	0.12005216260013027
61	0x3fb6c6fbc74072f4	0.08897374739212777
62	0x3fca860e02ee710b	0.20721602576384898
63	0x3fc634a515920145	0.17348159363974439
64	0x3fc868654d603598	0.19068590429416754
65	0x3fc2e8d95996067e	0.14773098825758163
66	0x3fafed278e5c42a3	0.062356220367410196
67	0x3f85b972ac69e843	0.010607620131157463
68	0xbfb51ac6c6af7c1b	-0.08243982649536045
69	0x3fa6a4c6a3c9a537	0.04422589063035292
70	0x3fc0faa7304a0877	0.13264932496901213
71	0x3fa2d6b69951dbcf	0.036794382301131294
72	0x3fb3aad1589343dd	0.07682522213441652
73	0x3fc41be2b1176bc6	0.15710099837346386
74	0xbfb91228cac81166	-0.09793333960266679
75	0x3fbbc2e855ad1925	0.10844280330374952
76	0x3fb0b3c29372eb49	0.06524292087389684
77	0x3fa583b5f20d6659	0.042020498082547326
78	0x3fb4c6034cb73dce	0.08114643691009535
79	0x3fc824f03bc52ccd	0.18862727087466738
80	0x3fa0a9b7e26fcfef	0.03254484786148725
81	0x3fc565082ca1c61c	0.167145749848303
82	0x3fafbfbc752c38b5	0.062009705832779906
83	0xbfa06d3d4e1dbd2c	-0.03208343103949071
84	0x3fcaa08f88736738	0.20802492296825803
85	0xbfaee7cb5975816f	-0.060362200422562455
86	0x3f82a525e20bb81b	0.009104057274694146
87	0x3fcc86c3b6bdf982	0.22286268637612855
88	0x3f9d36bbc0f9f5b8	0.028529103902192182
89	0x3fbd1a4e80a7ac63	0.11368265763273792
90	0xbfb1ebfeba304e0b	-0.07000724835989318
91	0x3fb64c5ffbf1e215	0.08710288907048665
92	0x3fd0e8fd7a9b72b7	0.2642205903373837
93	0x3fb98bc2b8f61a1a	0.09978882804544079
94	0xbf96a591c08d5f38	-0.022115971925216388
95	0xbf84b79d60fd8b56	-0.010115842363750776
96	0x3fcdaec615ede46d	0.23189617224469164
97	0x3fcb0a431c83623c	0.21125067608115156
98	0xbfb07fb395bf921f	-0.06444857030835081
99	0xbfb92560b703bdd7	-0.09822658985262166
100	0xbfa8fda43b8041a2	-0.04881013132410607
101	0x3fc0a9c7f9b0058b	0.13018130962158767
102	0x3fbcbd70829b5a38	0.11226561726230322
103	0x3fb4451a1748e364	0.07917941158747294
104	0x3fbb524571a7666b	0.10672410988572671
105	0x3fa9fdb472802aa6	0.05076373956406614
106	0xbfc49b0768abbeb7	-0.16098110781557803
107	0x3f69ef0d91c18b2d	0.0031657471682121825
108	0xbfabfff093be4adb	-0.05468704036242907
109	0x3fb5fb04c2979a87	0.08586148978029416
110	0x3fb8aba58ef5b3ea	0.09636912098149222
111	0x3fc1064299799c15	0.13300354474924406
112	0x3fa245a5e8cd26a1	0.03568762270749671
113	0xbf9c994b2013dedf	-0.027928518135893362
114	0x3faf55b2f14b4e79	0.06120070643887927
115	0x3fba1f13de770fbd	0.1020367067458769
116	0x3fbda0836cb44f27	0.11573048976816534
117	0x3fb87d271e96b617	0.09565968033594917
118	0xbf9097bb05650a00	-0.016203806118264552
119	0x3fc0a953cd50b409	0.13016746068152
120	0x3fbdb0ed99b069de	0.11598095895934743
121	0xbf99cd77663cd6d5	-0.025197854628649836
122	0xbfbde8af8281a221	-0.11683175026122018
123	0x3fb04c4c3ab8adbf	0.06366421159389456
124	0x3fb5c3972146e26f	0.08501572191642891
125	0x3fc1cecb3733f770	0.13912334628542622
126	0x3faf4c04839c0438	0.06112684351501979
127	0xbfba74d92528003b	-0.10334546239028068
128	0x3fb623852111e635	0.08647949273463314
129	0xbf98db97aa2a7988	-0.024275178681472137
130	0x3fa4fe1b025604b9	0.04100117114558927
131	0xbfab0e1225cc542b	-0.05284172736552536
132	0x3f8e73603f4ba2b7	0.014868499690650834
133	0xbfc5ae4d8bd04f2e	-0.16938180281487675
134	0x3f6afacf5386a41f	0.003293423589827884
135	0x3faccd67dc8d1c85	0.05625462119365302
136	0xbfb9e34456a3ade3	-0.10112406840533299
137	0xbf7a2cb2cb32bd50	-0.006390283978517999
138	0x3fc02299d7b0f875	0.12605593711663557
139	0x3fa5d39b1ae71cfe	0.04263004973796035
140	0xbfcaca9d63d12eb3	-0.20930831312067752
141	0xbfc2d4a68ed098ec	-0.1471145818079046
142	0x3fb7620477ee04ae	0.09133937767002706
143	0x3fb7f24b20f4edde	0.09354085497482553
144	0xbf9627bea52e4a97	-0.021635989028775695
145	0xbfb7eaf20f27cdb3	-0.09342873449332138
146	0xbfc56db1e23c2118	-0.16741012140870093
147	0x3fa42deb26a6e0ec	0.03941283079933719
148	0x3fb23ded714d63fa	0.07125743881387328
149	0x3fb4a20913dcbb24	0.0805974648944639
150	0x3fb3953c65d3c158	0.07649590955748431
151	0x3fb92d3bcf183583	0.09834646039981547
152	0x3fce25cfadae99e8	0.23552890759056244
153	0x3fabd0f0d8124891	0.05432846677389692
154	0x3fa57948aebcb59b	0.04194094784757426
155	0x3fc6221734f83c7c	0.17291536413583575
156	0x3fc77cb2e2e8cb47	0.18349300460394088
157	0x3fce6cd39c768556	0.2376961244563442
158	0x3fca3b0d5f3554cc	0.2049271311649704
159	0x3fd46746c6c0540d	0.31880349549584325
160	0x3faade873585c89c	0.05247900513030965
161	0x3fbeba868d634817	0.12003365470744175
162	0x3fa9311d2358d972	0.049202833714320784
163	0xbf93e587f645a66c	-0.019430279165510475
164	0x3fcce4a17631b094	0.22572725554653472
165	0x3fb86003f2f0d4b3	0.09521507912798448
166	0xbfb2776b456774b6	-0.07213468975483547
167	0x3fa447250d6c5799	0.0396052912603146
168	0x3fc23f0bf5fa03f8	0.142549033265851
169	0x3fc8f528e3f44248	0.19498168116162362
170	0x3fc00c2af63c4f2e	0.12537133239003978
171	0x3fc192a2913e0c7a	0.13728744594490988
172	0x3fcfae91c43adeb9	0.2475149353174311
173	0x3f8c215f83f04cfb	0.013735529149960337
174	0x3fb7888c6608d44e	0.09192731371952442
175	0x3fa627608a816938	0.043269173533831695
176	0x3fc7e93eec79a657	0.1868055967964206
177	0x3fd1e4a9f1927134	0.27958153334636227
178	0x3f8320e71318070d	0.009340100546072283
179	0x3fc593eee32f9e8d	0.16857706158701938
180	0x3fd4b5897beccfdc	0.32358014204078045
181	0x3fc1e256e6f5493c	0.1397198322034202
182	0x3fc5f1c1cc595ad1	0.17144033887844626
183	0x3fced83e4c4da0ca	0.24097422338241464
184	0x3fa1a96040f5e36b	0.03449536126112814
185	0x3f63b3d319e687ef	0.0024050829953958723
186	0x3fb0086109e1bc26	0.06262785426382375
187	0x3fc3f15a77aa28c4	0.15580302088739562
188	0x3fb44c6131fcaa76	0.07929046125779302
189	0x3fc1120df7985af7	0.13336348142248486
190	0xbfb4bddbad3386b6	-0.08102200487658248
191	0x3fb75853452d067f	0.09119148672928111
192	0x3fc9cd2a1958a732	0.20157362210857738
193	0x3fc9a37a119580f9	0.2003014169558879
194	0x3fb7587ad4fea0ba	0.09119384479584172
195	0xbfa411649a196769	-0.03919519787878196
196	0x3fa24bc7cf6b7233	0.035734409398831345
197	0x3fd2b19f569bfec8	0.29209121187157594
198	0x3fad6e30f93a8691	0.05748131792394163
199	0x3f88856aab6e7fca	0.011973222119024646

lstm.bias_hh_l0 f8 [200]
0	0x3f8161e97ee6cf2b	0.008487533745984507
1	0x3fc0ce25cfbf6934	0.13129112857752434
2	0xbfac500a480aa6c8	-0.055298157972470785
3	0x3f931ed82e99bb76	0.018672349781293694
4	0x3f94eb37805432b1	0.020428530891012545
5	0xbfafbcd4bcc91a7d	-0.061987541241752965
6	0x3fba52f38cba22f8	0.10282823739738578
7	0x3fc80d610d358bda	0.1879082979677083
8	0x3fc6733a68290ba0	0.175391484126604
9	0x3fb4cf1dc73e1720	0.0812853442604049
10	0xbf95879eabcbe558	-0.021025161014198573
11	0x3fabd8238eab3e29	0.054383383908881484
12	0x3f712ffa5e07a586	0.004196146008760398
13	0xbfaa9bf9e916338c	-0.05197125406548428
14	0x3f892dbd7e56c116	0.012294273775154834
15	0x3fb7914dd0421233	0.09206091246057539
16	0xbfb132399e7a3f34	-0.06717262381630179
17	0x3fca6283d386745f	0.20613143757228422
18	0x3fce7ac5ab34e450	0.23812170848558134
19	0x3f8bf1ecbd4f3694	0.01364502861715814
20	0xbf9e185f92f70d7c	-0.029389851899180183
21	0x3fc0be8347abbc9e	0.13081398963501994
22	0x3fb218e9cecdc571	0.07069264696999313
23	0x3f896123199af4ee	0.01239230558291601
24	0xbfb603b66b1373dc	-0.0859941493431075
25	0x3fad5d1d2d3a5df3	0.05735102822398721
26	0x3fad1e33528aec79	0.056871036363610857
27	0x3fba78a60db67d98	0.10340345225130532
28	0xbfaecbd9a0f62358	-0.060149002932184004
29	0x3fc6125db0141eab	0.17243548486316249
30	0x3f9b28e435c1294d	0.026523175984303028
31	0x3f9c9a6bcbe0f88a	0.027932819670461607
32	0x3fc69bd0e675fcfc	0.17663012745831697
33	0xbf7ee32b1fb0af57	-0.0075408634684598
34	0x3fc7eab8faa901a0	0.18685066451326993
35	0x3fbea92541f1f3c0	0.11976845607746522
36	0x3fbe8774632e2d2e	0.11925437375446243
37	0x3f9a9d0e5bac5446	0.025989746423040104
38	0x3fba6b79af70713a	0.10320244343933363
39	0xbfb10489d5d0e69a	-0.06647550077550549
40	0x3fade2e5ce15b27b	0.05837171688731232
41	0xbf7a2ba58e47565d	-0.006389280988931737
42	0x3fa5113d98613090	0.041147160388022574
43	0x3fc50bccf6e7b6dc	0.16442262702860588
44	0x3faae8f097045460	0.05255843966930551
45	0xbf9ae6d1729eefd1	-0.02627112638559465
46	0x3fa6f18c47a5da9d	0.044811614748075025
47	0x3fa7502d36232503	0.04553357396941673
48	0x3fb77dda8d28ff4d	0.09176412531178109
49	0xbfb21e6d941569bd	-0.07077679505656582
50	0x3f933746749c2597	0.01876554571848529
51	0x3fc72cddd4b095ae	0.1810567177318893
52	0x3fc0717a52f4f21e	0.12846306849122952
53	0x3fb8241144863ed1	0.09430034563979041
54	0x3fc2fd1db8cf9914	0.14834949039431733
55	0x3fca146e15b03a4d	0.203748474683794
56	0x3f9c8c8964b3408f	0.027879854937794376
57	0x3fa971f786aeffae	0.04969762343489435
58	0xbfbbcdee9656db83	-0.108611022666862
59	0x3fa5a571fb1f0525	0.042277871994438145
60	0x3fc6989cff9c2951	0.1765323875518541
61	0x3fd1a3d4c3fd694e	0.2756244577373267
62	0x3fb58a778fdd91a3	0.08414408933965105
63	0x3fa68082f8120bd5	0.043949215681116684
64	0x3f713cbe3a766c9d	0.004208319739883806
65	0xbf6d3bd45234a245	-0.00356856793373009
66	0xbfac1abb504ef6d4	-0.05489144664123349
67	0x3fc90bdff7c75238	0.19567489241184588
68	0x3f8e6900172a48cb	0.014848709780640587
69	0x3fc3c24003ba8e13	0.15436554128710664
70	0x3f957fd6bb849c4e	0.0209954788162146
71	0x3f96797ca0225d3a	0.021947810434167915
72	0x3fba91c75b370f08	0.10378690697603699
73	0x3fc4974d2f6d74b8	0.1608673554973501
74	0xbf938daed8aa6c3c	-0.019095165228105268
75	0x3fac07bddf4aeab4	0.05474656439533501
76	0x3fbd6c2fea0eaab7	0.11493205513276449
77	0x3fc77ff7b79d5d08	0.18359276261865198
78	0x3fc5a4e0ed559ba5	0.1690941962108045
79	0x3fb82ad2e9332877	0.0944034404120958
80	0x3fc07dcbe0f1bcf5	0.12883900149925123
81	0x3fb539b3f7833b81	0.08291172783650148
82	0x3fcd5ed21b1582e6	0.2294561989065393
83	0x3fbc2edd0e78bc08	0.11009008029280676
84	0x3fb3188f1ca6a793	0.07459349107253237
85	0x3fb72bbc1cd8b9dd	0.09051109031927447
86	0x3fb7c55018e3f2e3	0.09285450561214818
87	0x3fd0827b1e6b3b95	0.2579639241275172
88	0x3fc8ac8c0c22b348	0.19276571838909207
89	0x3f8016e0cd9c57ca	0.007856136584034962
90	0x3fc1753eb7a8b30d	0.13639053313945518
91	0x3fb41ca7da7356f1	0.07856225093140858
92	0x3fc5e7a212e67189	0.17113138125285968
93	0x3fb6d3c5db642622	0.08916889768820416
94	0x3fcc2114246e688b	0.21975948122855402
95	0x3fc510d405bc8434	0.16457605629060057
96	0x3fd14f8b142146b4	0.27047993627375466
97	0x3fa69e6d851cdbd3	0.044177458285438974
98	0x3fc6af1579339f3a	0.17721813600587116
99	0x3fbc134a5dedcb86	0.10966934960542404
100	0x3fbb9f054def6618	0.10789521362985288
101	0xbfa13e0bbe1f087e	-0.033676497419507165
102	0x3fbff15a3cb0ca4d	0.12477649671272069
103	0xbfbbd78f758b8470	-0.10875794048071596
104	0xbfc14dea93ba66d0	-0.13519031728065167
105	0x3fbc903c901dc22e	0.11157587545836442
106	0x3fa375fbd557ca2b	0.03800951937946125
107	0x3f60beb8223d95f2	0.0020440670358989827
108	0xbfa6b8810af4fb51	-0.04437640436889601
109	0xbfadde17f5272048	-0.058335064578898754
110	0xbf9653b0267b1b57	-0.02180361971729935
111	0x3fb7c9b5a4d5790f	0.09292159342064486
112	0xbfb92e540ca855f7	-0.09836316403410438
113	0x3fb65d8b57406380	0.08736487274326343
114	0xbfa62e87f4f5c16f	-0.04332375397905507
115	0x3fbec9b772bd1f69	0.12026545096625586
116	0x3fbc854a1aba3cfe	0.11140883591200532
117	0x3fc689a333f7c522	0.17607536351673853
118	0x3fadfb540a0fc269	0.05855810759374409
119	0x3faa793e813881e2	0.05170626952554237
120	0xbfbd9aec2758bd41	-0.115645179372895
121	0x3fbbb7977f039fd1	0.1082701382725866
122	0x3f9820b738a2d1e9	0.02356230052164846
123	0xbfa3648237abbdca	-0.03787619523597703
124	0x3fbe0f851132f145	0.11742431325814547
125	0x3f9af50566d0a88b	0.026325306320508928
126	0xbfb7bc794360b45a	-0.09271963019337318
127	0xbfbaaa0a84861ee4	-0.10415712104269975
128	0xbf923ad90e26344c	-0.017802611816979216
129	0x3fbb5c4f2901a4de	0.10687727690823887
130	0xbfbcd1ffff90b77b	-0.11257934560191345
131	0x3fc3186ca37fccae	0.1491828726135273
132	0x3fbfc9651851821e	0.1241667923327516
133	0x3fa91838879ef325	0.04901291518715415
134	0xbfb1e7421f9ba3fa	-0.06993497153929687
135	0x3fbd31a9dddeca43	0.11403905550722819
136	0x3fb5cd017d8ffb51	0.08515939059723833
137	0xbfc00ef29c49cc25	-0.12545616751921887
138	0x3fb0ffe0d272a388	0.06640439165006573
139	0xbfa4f87a7baab4ab	-0.040958240123793864
140	0x3f980045859b6a8b	0.023438535957078826
141	0x3fb01fafc8a3e59d	0.06298349998896531
142	0x3fb7a7320a994190	0.09239495047336832
143	0x3f74a6de6314f458	0.005041950892800427
144	0x3fbfa5d96c71a897	0.12362440965231013
145	0x3fb5a155095f5723	0.08449298361605577
146	0xbfb1aaf23da9302f	-0.0690146828212057
147	0x3f91f36b8bb9d513	0.01753013649291286
148	0xbfc6146820b5bcf5	-0.17249776456035418
149	0xbfb2036f048dcc38	-0.07036489354304443
150	0x3fcea56118addbf7	0.23942197518383043
151	0x3fb27a459837234e	0.07217822042651997
152	0x3fb66ef2a6300cdd	0.08763042981449894
153	0x3fc2621a5b976b1e	0.14361886474838398
154	0xbfa41e5d2949b8bc	-0.03929415825847246
155	0xbf9e0e6c5ee87e02	-0.02935189561151042
156	0x3fc5f26efdb748eb	0.17146098507379945
157	0x3fbcd75f4ff58264	0.11266132070660145
158	0x3fc73488fb6ca3e8	0.1812907436044775
159	0x3fcc43a96714c1f9	0.22081487210517972
160	0x3fcf0390be89e7ee	0.2422963075985644
161	0x3fc995c5a9a95fe6	0.19988318237551467
162	0x3fb07c7129a88cde	0.06439883486796158
163	0x3fc21667cd689c6c	0.14130876092642397
164	0x3fc2e61b49b29896	0.14764729593770615
165	0xbf961c1981eb32be	-0.021591566614733486
166	0x3fbc7f232901d820	0.11131496192123835
167	0x3fb53ea73aaae729	0.08298726255716517
168	0x3fbab1dfaf5da6cb	0.10427663833038563
169	0xbfb0c4fb71605442	-0.06550570981956219
170	0x3fb57905b3e4ee5b	0.08387790338468319
171	0x3fc53f377d215abb	0.16599172220113254
172	0x3fbe14484356200a	0.11749698299365732
173	0x3fa3f3d63b203ca7	0.03896970245124836
174	0x3fc2c10e94388322	0.1465166305288444
175	0x3fc9344b6d2d8211	0.19690840559907533
176	0x3fbb8c03b326b653	0.10760520099457808
177	0x3fb93ce140596dd4	0.09858520337132087
178	0x3fd1e16c19cffbf5	0.27938368340249947
179	0x3fd26bc6f9fcecd8	0.2878282014168696
180	0x3fd04222ec1fc1e9	0.25403664645185003
181	0x3fab8baca92a0ac2	0.05380000653260232
182	0x3fcece7352a0681d	0.24067536863805197
183	0x3fc76c64e27540f9	0.18299542481918943
184	0x3fd001c46cd116b0	0.25010786654125194
185	0x3fbc6f51bdf06c9a	0.11107359778582052
186	0x3fd022ccf48f6e52	0.25212406046714364
187	0x3fcdfa66243f2182	0.23420407075742494
188	0x3f97a7383fd6b48b	0.02309883012428719
189	0xbf976a7fc44d395d	-0.02286719928388813
190	0x3fb068534d76d8be	0.06409187928406632
191	0x3fc854c3673176b4	0.1900867704270489
192	0x3fb6669a57867812	0.08750309597823527
193	0x3fb5f18fe38fbb2e	0.08571719461154423
194	0x3fc38d65f1660785	0.15275263106383022
195	0x3fae76381a55e5d3	0.05949569055060135
196	0x3faa4d1525f63177	0.051369343646999015
197	0x3fcbfbf53bf6ea81	0.21862664630846854
198	0x3fc9fa46a7ff51c2	0.20295031741137676
199	0x3f94797cfa5d316b	0.019994690686233534

linear.weight f8 [2, 50]
0	0xbfd00693c83311e0	-0.2504014449189338
1	0xbfcd3267a78369f2	-0.2281007354675491
2	0x3fab46baa8fac651	0.0532739955209648
3	0x3fbd5225de8ed20b	0.11453472789327905
4	0x3fd023b83ec14888	0.25218015793246495
5	0xbfd26cf6622b8bf1	-0.2879005392734931
6	0xbfce1573ff0e82a3	-0.23502969697894568
7	0xbfc83f20ab7546f2	-0.1894265019605466
8	0xbfc9304401ea5e6e	-0.19678545087366522
9	0x3fbbad4fed1cfed3	0.10811328448198347
10	0xbfc0eef297014940	-0.13229210255901513
11	0x3fbcf39de6dab1ea	0.1130922974213672
12	0x3fc746624ad103bc	0.18183544781825656
13	0x3fcbc6f3eaa4f5d6	0.2170090575909131
14	0x3fbc41fcac86fa1f	0.1103818818291775
15	0x3faa430bc6e98c97	0.05129277041557961
16	0xbfb51751b7e1783f	-0.0823870729377356
17	0xbfcc2125e8c0afd5	-0.21976159920575236
18	0xbfc8dc02fae23fc7	-0.1942142224329457
19	0x3fb93202d7f53a2a	0.09841935894403578
20	0x3fa803718f2258a1	0.04690127250903343
21	0x3fa6afefa226b751	0.04431103567490758
22	0x3fb1875abd899d12	0.06847159507161774
23	0xbfcf74ef0c6d2cd6	-0.2457560358692265
24	0xbfc8e06aec2286d0	-0.19434868364355973
25	0x3fcadf6e1d14bc48	0.20994354648562052
26	0x3faa0859aa3be58c	0.050844957380785066
27	0xbfd08a682534b131	-0.25844768174535476
28	0xbfc1bfda849f0c9b	-0.13866740680359588
29	0xbfd245d693927842	-0.2855125847944501
30	0xbfc8d6389e8c57c9	-0.1940375112687305
31	0xbfced55ee552241a	-0.24088655659969122
32	0x3fb5b16044104a6d	0.08473779355726103
33	0x3fd16e8fa1b41e9e	0.2723731116425173
34	0x3fd2c88edda01703	0.29349109309292504
35	0xbfc40ddbc55c04e9	-0.15667292725269213
36	0x3fccc9be5fbfed4e	0.22490672755507507
37	0xbf6c7e2e80717d42	-0.0034781368481585926
38	0xbfd3fbf45ddd5ab5	-0.31225308577033256
39	0x3fcf7c0f30a10c42	0.24597349047152944
40	0xbfca0e18a1cbc844	-0.2035551824588443
41	0xbfcbc0e757c6d631	-0.21682445322010005
42	0x3fd368dd3188e049	0.30327539288874
43	0xbfd1fae2c268d3d5	-0.28093785271931654
44	0xbfd0df9f12895b67	-0.2636487656613355
45	0x3fc418ff2dcafadf	0.15701284156781178
46	0xbfd394dc0ad188d2	-0.30596066528791
47	0xbfc841a568841caa	-0.18950336077998503
48	0xbfc6e5a965eb10f8	-0.17888371921993218
49	0xbfb2ce345e425e77	-0.07345893193484608
50	0x3fcd21136aa66629	0.22757189471740105
51	0x3fc7cd26b535e6fe	0.18594821785136867
52	0xbfd2869df5044200	-0.28946637084393956
53	0xbfc655c98cd5e273	-0.1744930207894587
54	0xbfcffc2744d222ee	-0.24988261089699598
55	0x3fbde0e23c914c6d	0.11671270350170611
56	0x3fc01d751887c6e6	0.12589896867535016
57	0x3fbd255bc424f7b7	0.11385129488641509
58	0x3fc18936b7cb3ee3	0.136999931090478
59	0xbfcdd603fa73a689	-0.23309373597230756
60	0x3fce7045ffe75875	0.23780131335542234
61	0xbfd05cf004061ba9	-0.2556724585814956
62	0xbfc06f2b081c147c	-0.12839258094769324
63	0xbfced31f34c2c18e	-0.24081792904099725
64	0xbfc87304bcf30cbc	-0.19101008630796013
65	0xbfd379222001b05f	-0.3042683899464062
66	0x3fb00df78344edb8	0.06271311716857653
67	0x3fd3817de33b0110	0.304778549103518
68	0x3fd0917385965ff0	0.2588776402058093
69	0xbfc61e4a6c64ab2a	-0.17279939930571092
70	0x3f67a07adc80bf52	0.002884139979890601
71	0xbfcf6cb1672621d0	-0.24550454651422493
72	0xbfd1de6e51f27830	-0.27920110705042855
73	0x3fc0e5306d1250a0	0.13199429822691844
74	0xbf90bbd12f2f71ea	-0.01634146547790919
75	0xbf9db7b524924a75	-0.029021101338523942
76	0xbfcf2f103c7a4fd5	-0.243623761682669
77	0x3fc76836718ac237	0.18286781829876173
78	0x3fd2d7bcaa46f75e	0.2944175398696326
79	0x3fcf6b8c8e2bf6bd	0.24546963636378463
80	0x3fceb45b7b558442	0.2398790695397413
81	0x3fc4c407e185f9e9	0.1622323847950178
82	0xbfce30c074c76ef5	-0.23586278631307037
83	0xbfd09e548f546499	-0.2596637153342925
84	0xbfc68db80bd74e2d	-0.1761999185388147
85	0x3fca86beb671fcd0	0.20723709019146108
86	0xbfaf4905feedc30c	-0.06110399949000653
87	0x3fca082d5aed9308	0.20337454738469085
88	0x3fd25bb92c8ac75b	0.28684834813895116
89	0xbfd077831d1d480b	-0.25729444354249215
90	0x3fb1db7b8f6fd5d3	0.06975528957249048
91	0x3fc9a402c80e744a	0.2003177143896287
92	0xbfcc172f3607918a	-0.21945753229296044
93	0x3faf1b05d5e0b109	0.06075304256259712
94	0x3fcff08b2a860341	0.24952830864278933
95	0xbfb0f46b6aa5c888	-0.06622954705906825
96	0x3fc208e7906c201a	0.14089674522279055
97	0x3fb55fe280f46f18	0.08349433563529052
98	0x3fa12b5541bf3467	0.03353372981619245
99	0x3fcbcc2a874be73f	0.21716815573000223

linear.bias f8 [2]
0	0xbfbc8d70bd0fc417	-0.11153320899735807
1	0x3f88e9f8f48e6513	0.012165017092956398
