AIModels/trainedModels/contactDetection/trainedModel_LSTM_ur.pth (torch, 794735 bytes, 18 tensors)

lstm.weight_ih_l0 f8 [200, 112]
-0.016101057034783244 -0.17634162537873665 0.030855916193385912 0.12515981400585677 -0.08800666088230194 -0.07589845106103425 0.01629739563339933 0.1078370643713951
0.06408931418249907 -0.11481427256528678 0.11148023412090671 -0.07260866507305727 0.04715342392346969 -0.24659116342193102 -0.10762913426416022 0.08064390795152829
-0.13712367016020346 -0.1067519351761991 0.08920002487578395 -0.05765153464754815 -0.014783839848247106 -0.08102415369706707 -0.12418984799017509 0.04526553263358818
-0.06557756525119832 -0.11174409403509696 0.06091048802659192 0.013040326102719841 0.008094319970467577 -0.20829494738888338 0.0651297521909592 -0.30292252199456887
0.06810076993203139 -0.09005962459609665 0.09981968734540207 0.09832172746631604 -0.14743871808716222 0.019501455181974808 -0.09702382879772767 0.12242101467183833
0.06525375004594766 -0.19929515497456488 0.07308516829348521 -0.04741894382593486 0.09533360914635847 -0.042057593073921457 0.11793697590472983 0.13562337908293462
0.06493397175218778 -0.16466811125771827 0.07662035421183282 -0.059712977023860934 0.10823250486531305 -0.06459156710375344 0.1116853798355926 0.09930445003243142
-0.020305311182048535 0.06739216707821144 -0.005765435688436574 0.12879249876349574 0.022185070220577918 0.045518842048825045 -0.0725812418503471 -0.09308005121056319
0.06058141311929295 0.030563838233952655 -0.02017826922265445 -0.15709051043628866 -0.04782472062175585 0.044449496552015376 -0.10885822350495576 -0.23236396702588208
-0.005681096808027017 -0.05507327880183389 -0.023812453138945176 -0.07382794442741186 -0.0766869655504775 -0.050693767341201276 0.10284354175964304 -0.01598391404277578
0.01596589991768553 -0.017707953810334645 -0.013904400293547389 0.13676636335634967 -0.11967579690555995 -0.10570238862953815 0.14295566250439648 0.29723801735683647
-0.12190025893412641 -0.04434040790134835 -0.05661168638921032 0.12834245618021908 -0.09378256520682536 -0.1342036618925324 0.14972421188983492 0.3143283669924317
-0.002782194188956215 -0.08051896647821159 0.15582559540069482 0.31962368124417356 -0.02662368514225587 -0.020098981982506408 -0.00019232047353195182 0.11700318433700356
-0.1222198377776039 0.008706632778550105 0.03240923312600103 0.1781713488249778 0.004121580138662349 -0.02196963889725767 0.1242383699354536 0.07786704390935195
0.0972517802028662 0.08522255202963229 0.0791003259653885 0.09707847130017895 -0.036355863860199004 0.06289241127988601 0.09952551586269436 0.10059827743097041
0.19217999093785965 0.15664521253899472 -0.05057880103141153 -0.09966209525958285 0.10205742943876979 -0.03138850485470561 0.07507842633602023 0.1064628839469585
0.2037454118753279 -0.05344624945959564 0.18051973961177828 -0.09047221407580489 0.18227330927609903 0.11765651148180689 -0.06264109752372235 0.033092981638809554
-0.045880681006071004 0.046936236925116386 -0.04574798404378831 0.14666301829140846 -0.00277757536903226 -0.03194308662954971 0.011282479288622374 0.01551320056583932
0.1180859929893996 0.09130578374500097 -0.020790901664566666 0.13992683468188366 0.18843063822354264 0.013411966794315012 0.2118489878038694 0.1220635910774811
0.22090147921150943 0.12672820000665136 0.07770909610362803 0.2537379024703888 0.11950785232971177 0.09323520137407874 0.05766505599331902 0.06537305358767641
0.1106520453494295 0.17156720005972195 -0.03576463702963102 0.16302083751001606 0.03144746300752798 0.17687285915238998 0.12283606598855581 0.2760325160394941
-0.0106145370435028 -0.05545455391671189 -0.03734390645730979 0.021078526371585676 0.2552103476874607 0.18566089211096465 0.03226545428916406 0.009145075893837241
0.13827351843246075 0.2090983828423809 0.1609637942150627 0.26151863781858475 0.11270027868578487 0.20363338165321612 0.16705240693392462 0.27709420763512566
0.10820517969588885 0.037312172079490474 0.20253436377515424 0.08375940851664677 0.1615712235221756 -0.025739432513127096 0.19082379506905417 0.15263584976192532
0.02622443122969376 0.1625115812979852 -0.021314624534751296 0.11519270278347875 0.2653201838827685 0.015028251597550333 0.18702624065497306 0.1570106937510034
0.18428824451947717 0.25284825697165664 0.21107074946007026 0.09846632685341151 0.22722021880951693 0.26302340328954427 0.11190938782901283 0.13174083880041407
0.21204821495498008 0.1741571495985075 0.25641102795428944 -0.017222070485143095 0.13550359581723778 0.23614233473854057 0.20457973305320348 -0.017572101578341905
0.140282091379073 0.24230353966197463 -0.25903123506213 -0.10092554913572188 0.1384737361184171 0.06338088869463138 -0.12577996412315384 -0.08783026984992882
0.012461924759598531 0.07783122709441483 -0.11027665661120412 0.09025142237482325 0.03274506867509375 0.0025053212063318943 0.14179235176302435 0.03426095327679481
0.09443582018637209 -0.1347809672403048 0.1482782220287277 0.02346748057700925 -0.007096660293485769 -0.07470256312914854 0.10707311355450552 -0.03180015404110251
0.09033393874716905 -0.04050203188763164 -0.012715049273169434 0.08611041070579785 -0.03838824007065327 -0.13855758918445127 0.0208582278346794 -0.03724394960342956
-0.018233959564399556 -0.003688981627893482 -0.09635077880287268 0.19873986362333024 -0.09265541538882928 -0.1412224369337484 0.1031885058871103 -0.11810865425185146
00000000: 3bea 94a5 cb7c 90bf 906b f6c4 5c92 c6bf
00000010: 033d c17b b198 9f3f 49dc f69d 3c05 c03f
00000020: 8ad4 51c2 9a87 b6bf 7bcb 1fb5 146e b3bf
00000030: b18d 05b5 43b0 903f f393 c5b8 359b bb3f
00000040: d7d8 6f44 2868 b03f 022d c8d9 7764 bdbf
00000050: b220 b3f7 f789 bc3f 9e1e e541 7b96 b2bf
00000060: a49c 4a5b 7e24 a83f cd9c 309b 4c90 cfbf
00000070: 91e8 c23b 958d bbbf b600 4643 14a5 b43f
00000080: 793b 6cb7 448d c1bf 1ad2 5d46 1854 bbbf
00000090: 39d5 a415 d0d5 b63f 6338 c07f 8084 adbf
000000a0: 619b 4265 fd46 8ebf 91a2 50ba ffbd b4bf
000000b0: 71ee 9ce7 e7ca bfbf 5835 983c 0b2d a73f
000000c0: 92ee 1afa b0c9 b0bf 45e2 66cd 429b bcbf
000000d0: 4e7f 1dd4 a82f af3f 6a73 1ff1 e2b4 8a3f
000000e0: acbf 733c c193 803f a288 7aa9 68a9 cabf
000000f0: 0a21 a8eb 57ac b03f 9d10 4c25 1563 d3bf
00000100: 47c4 b053 0d6f b13f ba8c 54c6 250e b7bf
00000110: 033c a574 c88d b93f c63c f4db 9c2b b93f
00000120: 7b9c 2c9c 45df c2bf 0b89 ec80 30f8 933f
00000130: 1273 9ebb 8dd6 b8bf 92d2 5bce fb56 bf3f
00000140: 1682 6342 78b4 b03f 1dfa 6eee 8082 c9bf
00000150: 20a7 a4a7 b5b5 b23f d7f1 e2b9 4b47 a8bf
00000160: 0846 7e8d c867 b83f 9418 9aa5 9288 a5bf
00000170: 07fd 7f1e 1e31 be3f bffa dd5c 1b5c c13f
00000180: 7335 1345 839f b03f fbe2 453c d813 c5bf
00000190: db39 8c3b 649d b33f 63b6 ed06 b392 aebf
000001a0: f4bb c21c 20b5 bb3f c6d9 4eac 1289 b0bf
000001b0: 32d0 d5bd 6997 bc3f 238f 3c35 046c b93f
000001c0: f016 d95d eaca 94bf 3484 9bf1 9c40 b13f
000001d0: 8417 aa5b 7f9d 77bf 1465 14c9 457c c03f
000001e0: c035 3adc aeb7 963f 1e2a e7e3 3e4e a73f
000001f0: f1e0 0c2c af94 b2bf f1ff db1f 18d4 b7bf
00000200: 3a87 2fe8 8604 af3f 53c8 9e76 204c 9f3f
00000210: 08d0 9ab9 9ca9 94bf b5fb 6ab6 8a1b c4bf
00000220: b784 0556 7b7c a8bf d375 079c 15c2 a63f
00000230: cfbc daed 21de bbbf e68e 923b 1abe cdbf
00000240: 3026 efcf 0f45 77bf 51bb ac96 9032 acbf
00000250: b990 e0ad 4a62 98bf 5cbd d85e 63e6 b2bf
00000260: 899b 11c9 c1a1 b3bf 16d8 ae91 88f4 a9bf
00000270: e764 7650 f453 ba3f c39d 4d50 165e 90bf
00000280: cc9c fd67 5d59 903f 4455 faa9 0822 92bf
00000290: 1e0f 4004 e979 8cbf d278 e768 8f81 c13f
000002a0: af05 d5b1 12a3 bebf f6df 45ce 4f0f bbbf
000002b0: b300 9e03 5f4c c23f 473b eb9a f205 d33f
000002c0: 2bfa 7ef9 da34 bfbf 07ba a733 c9b3 a6bf
000002d0: dfe3 39fb 34fc acbf c7bd fd8d 866d c03f
000002e0: bf90 7f5a 2202 b8bf a87a 6ae9 952d c1bf
000002f0: 4e3c beb8 292a c33f 5001 1cba f41d d43f
00000300: 239f af21 afca 66bf b34c bb17 e49c b4bf
00000310: 5717 10d6 17f2 c33f 7922 7ee2 b674 d43f
00000320: 3da1 f043 3d43 9bbf 8be7 30d9 d394 94bf
00000330: e6c6 d049 3435 29bf ab5a 41b2 ebf3 bd3f
00000340: 365f 2d9e cc49 bfbf 0055 5678 c8d4 813f
00000350: b9ae ba68 f197 a03f 65cc 249a 51ce c63f
00000360: 6451 743e cae1 703f 804c 4682 357f 96bf
00000370: abf7 c7f7 15ce bf3f 78e0 0637 18ef b33f
00000380: 9af7 721f 7ee5 b83f 6b53 d929 25d1 b53f
00000390: 07d1 1f41 eb3f b43f f543 617b 22da b83f
000003a0: 9742 985c 3c9d a2bf ea1a 9d91 b719 b03f
000003b0: eb6f bf13 817a b93f 8296 9907 cfc0 b93f
000003c0: 1008 039c 5a99 c83f a608 7748 f30c c43f
000003d0: ee02 9af0 76e5 a9bf 436e ca7f 7483 b9bf
000003e0: 25db c089 6f20 ba3f 2681 a473 2712 a0bf
000003f0: ff93 bff9 5638 b33f 6b3f cacc 2641 bb3f
00000400: 7877 5b64 5414 ca3f 30af 0b8b 4e5d abbf
00000410: 7d1f f554 451b c73f aafc a6e0 2f29 b7bf
00000420: 1624 2357 bb54 c73f a0ce f9b4 bc1e be3f
00000430: aefb 3f39 3f09 b0bf 2c4c bb33 90f1 a03f
00000440: bfe9 e030 ac7d a7bf ef6d 2ec5 0608 a83f
00000450: 8ee9 a69e 476c a7bf 5b10 8c91 dac5 c23f
00000460: 4fce e86b ffc0 66bf f27d d020 d85a a0bf
00000470: 88db 7fbc 441b 873f dd4a b188 62c5 8f3f
00000480: f151 0136 e23a be3f 57d4 1edb d05f b73f
00000490: c48d d0ca 354a 95bf 824f 655d 1fe9 c13f
000004a0: db04 5ec2 7e1e c83f 478f 0db6 bb77 8b3f
000004b0: 1877 271d de1d cb3f 08c9 b53b 8f3f bf3f
000004c0: 8afc 6cea 7f46 cc3f c637 4131 a138 c03f
000004d0: d4e6 5d4a bee4 b33f d96b 37e6 3d3d d03f
000004e0: 230e 5f0d 1198 be3f 23d6 bc1c 43de b73f
000004f0: 4a04 3a33 4686 ad3f afdf 32d7 49bc b03f
00000500: 1fe5 0244 b153 bc3f 5951 a9fc e9f5 c53f
00000510: ea88 ca14 be4f a2bf b405 d6e6 dddd c43f
00000520: 4faa 51c2 e119 a03f 0e05 ce14 c5a3 c63f
00000530: 5aad 3036 2f72 bf3f 186c 4149 84aa d13f
00000540: c552 b60b 13bd 85bf 981c f90e 8a64 acbf
00000550: 61c8 e091 bd1e a3bf 1bc4 a7f5 9b95 953f
00000560: 9bc7 3ac8 5d55 d03f b2a2 e171 bcc3 c73f
00000570: 61d2 ecfd 1885 a03f 2758 114f a7ba 823f
00000580: adfe c857 f2b2 c13f 7f2d fa5d bcc3 ca3f
00000590: cd33 ff2b 769a c43f 286b 2eab b8bc d03f
000005a0: bd9d 34eb ecd9 bc3f 9187 499d a810 ca3f
000005b0: bbe8 3f28 f961 c53f ab0c ed57 e9bb d13f
000005c0: a938 0dac 55b3 bb3f 24f5 a5bd 941a a33f
000005d0: 897f 5d62 a5ec c93f 79b1 4fb0 4171 b53f
000005e0: 4950 80a8 5dae c43f ce27 7213 705b 9abf
000005f0: 8262 8f03 ea6c c83f 8f5a 764f 9289 c33f
00000600: 0171 f3c9 93da 9a3f 22b3 72f3 2dcd c43f
00000610: fe8d 363d 80d3 95bf 3361 31db 447d bd3f
00000620: 4fb1 2f82 01fb d03f df32 05c9 21c7 8e3f
00000630: 0bb0 8dd1 79f0 c73f d033 6429 ed18 c43f
00000640: c2cb 9fd7 c196 c73f c1ce a274 aa2e d03f
00000650: fe5e 09c7 5d04 cb3f d9b7 97d5 1635 b93f
00000660: 786f 6358 8d15 cd3f 7d84 cd1c 60d5 d03f
00000670: 284b d7f8 17a6 bc3f 6b02 1941 e2dc c03f
00000680: 9912 345a 6524 cb3f 11f1 f10e c84a c63f
00000690: 3f6f d9cc 0969 d03f b72b 0396 a9a2 91bf
000006a0: 9341 438c 2e58 c13f 5299 737a e939 ce3f
000006b0: 56a7 712f ab2f ca3f 4764 67c6 6bfe 91bf
000006c0: 5803 5879 c3f4 c13f e9cf 4669 cd03 cf3f
000006d0: 60ff cebe f793 d0bf 7c67 debc 41d6 b9bf
000006e0: 7de4 fde3 81b9 c13f 0c86 22dc ba39 b03f
000006f0: f053 33d0 8e19 c0bf 59b3 9a68 0b7c b6bf
00000700: 8d2f 4d3a a385 893f 3162 fa4e bfec b33f
00000710: b047 a849 173b bcbf f470 849b b71a b73f
00000720: b02d 212e f6c3 a03f 719f b514 0a86 643f
00000730: 3693 d274 4026 c23f 630d b5d3 a68a a13f
00000740: c87a 4527 f22c b83f 3ece 35b3 8040 c1bf
00000750: ce44 29e1 c7fa c23f cd1d 64f6 db07 983f
00000760: 8105 f13d 6311 7dbf 652b 9109 b51f b3bf
00000770: de5b ffc0 2469 bb3f 3485 3a1b 1c48 a0bf
00000780: 3c51 a300 2020 b73f ba02 c2ac aebc a4bf
00000790: aec1 5c06 590a 8abf 7997 d3f5 540b b63f
000007a0: 6714 4f97 9fa7 a3bf 0875 144d 41bc c1bf
000007b0: c31f 9cf9 db5b 953f 5d8c 0a93 a311 a3bf
000007c0: a2d1 0550 ecab 92bf 62ab 50ee 5a38 6ebf
000007d0: 2808 e7d3 71aa b8bf ea3b 56cf 4e70 c93f
000007e0: e16e e4ea 43b8 b7bf 75c2 0baa 9313 c2bf
000007f0: c3b5 1bda 8f6a ba3f d0e2 6267 5e3c bebf

lstm.weight_hh_l0 f8 [200, 50]
-0.20073670931559803 0.20448511849343912 0.03561371428095738 -0.18765171116758617 0.11373695070929654 -0.06656533195048887 -0.14717390792354798 -0.20396228392761367
0.1798859676656203 0.016067621219812898 0.06609521950522425 -0.041599881500569855 -0.2471770953589384 0.06769103782721304 -0.023951727275379392 -0.13281593864124638
0.04828160286175789 -0.1592838908667477 -0.013510619434257359 0.062392565277521114 0.21440130195548004 0.03423325220761472 0.18462814508422232 0.03477503002627375
-0.05259914688631438 0.21072750886852648 -0.25085234142130497 -0.11314645788312497 -0.13746575296966682 -0.05791905388196201 0.09216862908180096 -0.0523962254109338
0.16960983083458636 0.08317643345515487 0.03553948297614423 0.0747192380777365 -0.004817673076486539 -0.14698670167509328 -0.03384111699989524 0.09934714783998717
0.003234441321091818 -0.10949443365407446 -0.19513808442583533 0.17475672940275006 0.028150656162316153 -0.05373003440197983 0.13001397939840106 -0.02388906395892096
0.12670915339451108 -0.18421244393590974 0.055608472832881145 0.032924343456487676 0.2044693951830958 0.012841028459255971 -0.07511506214858736 -0.15017340210287122
0.043620534728649324 0.016087128331260764 0.010424547567678152 0.15824777430061768 0.14225297364004943 -0.21354901210971586 -0.02195592054999304 0.2339366675603465
0.010663671949631748 -0.07177685015638671 -0.037757182436277056 -0.0024560948098911917 0.00022237333689664108 -0.11198086405311805 -0.022629546490916638 0.15429387870553543
0.09357028192978373 0.03905230589555247 -0.4512247611152309 -0.009847363802992561 -0.018867437045959546 -0.027814368074489216 0.2383600539274794 -0.27480573618568976
0.16056054695439118 0.0908305406910476 0.17901699184387965 0.15138778625416469 0.14131731834826436 0.02746212294829127 0.05792147841931338 0.1791763043666209
0.17452024129843383 -0.07777139723664814 -0.007150750078099122 0.048533303986274874 -0.06973485768199897 -0.0629584985957138 0.10225950800145885 0.00967321846530719
-0.1304146768919677 0.026952466294408613 -0.007415972481705761 -0.16467280163231687 -0.23995729552508577 0.025518396112830768 0.1243510705057717 0.07420780719475457
0.17550324152153307 -0.06287673885597048 -0.02035245483171682 -0.37548018710032316 -0.10858668741126382 0.13194288047259015 0.03720414093119273 0.0063264614666272345
0.05926151540428778 0.08540345737402162 0.2489070876952193 -0.13921349572965214 -0.10995499541847567 0.2111232471052779 -0.23670560523474782 -0.10291271202544652
0.22479012172941162 0.1245324175292409 0.06307995061947486 0.3873797063536925 0.26203875247971314 0.16024227989810935 -0.02140286536583749 -0.042310872087659976
0.12999398527971137 -0.06330425645008658 0.3196589594023947 -0.25538420623901065 -0.0412765609426668 -0.02149347331400432 0.16923657518593224 -0.1775646844070578
0.01100838553319395 -0.07196226710105315 -0.06312487390766783 0.06457274134457118 -0.08529254246032471 -0.05851118657590459 -0.04904957113258807 -0.1161464308862057
-0.1517772720820395 -0.04335366151513057 -0.05272069446270446 0.07722346541204014 0.061994603530406214 -0.2005889240656388 -0.028645030193111758 0.1782689894501793
0.18136516976572292 -0.06240532954640466 0.11923755767639639 -0.04413255728859583 -0.14550609118132676 -0.2695286345469688 0.20348447234244002 -0.22180237996238286
0.2155444238654904 -0.28035252525277304 -0.05831982011409763 -0.09775738759335453 0.19691592333754981 -0.2617978758899463 0.15478402119943188 0.0238063682101225
0.2017925382765431 -0.11926098155636766 -0.031306577333644635 0.18931648993756436 0.20216484448354785 0.00667963440273051 -0.025511975028314027 0.1121561611700932
-0.27559950712569214 -0.06945767926550785 -0.2590024563311525 0.1058977385898245 0.032072328013710676 -0.23160917012818036 0.05715352478123956 0.28210680149889344
0.11161528165160585 0.17812702204475206 0.02739268848474177 -0.061310896899702864 -0.050122180542320045 0.1602403424438359 0.0693617424833295 -0.3253627622321697
-0.16240799056727576 0.08415876970888653 0.30082676831215727 -0.30980532446172643 0.06457782656782345 -0.0839987552049059 0.08765114179068506 -0.09605294711966218
-0.12444691105794697 -0.009205804306174124 0.12385272702842653 -0.17709739388790044 0.08589901584187493 -0.18248713018342896 -0.10133142399761454 -0.04772193575157974
-0.024518387849882126 0.2753716281294015 0.0447860461708037 -0.12472001216531042 -0.09656143681918386 0.13276317607897944 0.13887525493999206 -0.259673896115187
-0.09624156767491437 -0.2685780923530597 0.022710114644888313 0.06446824023227403 0.17133977127525807 0.03588494155813904 0.17620333922069442 0.06651124669605578
-0.1401570687494715 0.10791192815245944 0.038431879445686955 -0.11946881118672496 0.06422914208025833 -0.10388573840932647 0.2690376651335978 -0.16797014966432422
0.20599088517506714 0.03559566192568829 -0.021495721119562633 0.03850908437157439 0.13407165738950447 0.050956532108929475 0.06927551402223893 0.053664333946979746
-0.011647936633619264 -0.19481833388278688 -0.22231283375717292 -0.05410189721074684 0.189323109247646 0.10753551652398545 -0.13432991694826626 -0.12251232969865229
0.12337248905904584 -0.027459124365162377 -0.014112580519134084 -0.08435587117984653 0.01905709073453589 -0.09043053673703479 0.22466474721912874 0.003283260918318533
00000000: d7fe ce90 bdb1 c9bf 4158 3980 912c ca3f
00000010: df68 40f4 f53b a23f 8869 40a5 f804 c8bf
00000020: 46a8 a463 dd1d bd3f f154 c6f3 6c0a b1bf
00000030: 7396 ad38 98d6 c2bf a214 8ba5 6f1b cabf
00000040: 250b 11de 8006 c73f e989 a7ce 0774 903f
00000050: b166 32c6 9deb b03f e6f5 1f65 944c a5bf
00000060: 6486 71c2 7fa3 cfbf ed3e b329 3354 b13f
00000070: 9865 5235 cd86 98bf 5f04 6dd8 1c00 c1bf
00000080: e354 94c2 5db8 a83f 3eb2 061f 6a63 c4bf
00000090: 0361 f3a4 74ab 8bbf aed0 c216 ebf1 af3f
000000a0: 892e 0f7a 8071 cb3f bcb8 5555 0587 a13f
000000b0: 8c68 8722 e5a1 c73f 894b 5c61 08ce a13f
000000c0: 6e33 597f 46ee aabf 869b 7a77 1ef9 ca3f
000000d0: d6e3 a1fa f60d d0bf d229 4490 2af7 bcbf
000000e0: e190 a950 7a98 c1bf f900 7af4 90a7 adbf
000000f0: 049d 9fff 5c98 b73f bfc9 2595 add3 aabf
00000100: c0df 4162 c6b5 c53f 25e1 7cfd 0c4b b53f
00000110: e8d5 322a 3b32 a23f d808 edcb cc20 b33f
00000120: a6b9 e644 b2bb 73bf 831a 52d2 75d0 c2bf
00000130: 32a0 8c75 9f53 a1bf 7d72 ec8e d06e b93f
00000140: b1c9 3c76 1d7f 6a3f 1467 a3c3 d307 bcbf
00000150: 0312 68e5 48fa c8bf be36 c5b2 6d5e c63f
00000160: 7ff6 4f8e 86d3 9c3f 0990 23c9 8082 abbf
00000170: 53fc c44e 4ca4 c03f 9812 bef1 5f76 98bf
00000180: 7975 f76a 0138 c03f 9c48 1cfb 4594 c7bf
00000190: bc3c 65b8 b678 ac3f 0499 c6a4 75db a03f
000001a0: e711 ac9a 0d2c ca3f 906f 3caa 654c 8a3f
000001b0: 1b7d 5d9f bd3a b3bf d464 61cd e138 c3bf
000001c0: dce9 2f44 6e55 a63f d5fb 46e8 2479 903f
000001d0: abba 0717 7759 853f c199 a48b 7641 c43f
000001e0: 3d79 c56e 5835 c23f ef5a 8df3 9255 cbbf
000001f0: 38f9 dce2 9c7b 96bf 81e2 4000 a3f1 cd3f
00000200: 6045 3bd2 d5d6 853f 3215 08b8 f75f b2bf
00000210: 267e 81cf e854 a3bf 29a9 4cdc cd1e 64bf
00000220: 171b 406b 9c25 2d3f 8ace e224 c7aa bcbf
00000230: df3d 6828 332c 97bf afb2 81dd e6bf c33f
00000240: 6413 c4d4 38f4 b73f 1740 4ff1 a9fe a33f
00000250: 3ca9 08d2 dde0 dcbf 81a5 e2cb da2a 84bf
00000260: ed74 4944 fc51 93bf dd91 f4a4 5e7b 9cbf
00000270: fc49 250e 9582 ce3f 6ded 6acc 6a96 d1bf
00000280: b936 197d 3f8d c43f eafc be99 ab40 b73f
00000290: dce9 b25e 07ea c63f 63dc 7ccb ac60 c33f
000002a0: 0905 5596 af16 c23f d43d c4df 071f 9c3f
000002b0: ff05 184f e2a7 ad3f 0484 bcc7 3fef c63f
000002c0: 5df3 6ee4 ad56 c63f b614 b287 d3e8 b3bf
000002d0: c00a a3db 1a4a 7dbf d197 c672 5bd9 a83f
000002e0: 92a9 22c5 24da b1bf 694e 7954 0c1e b0bf
000002f0: c541 92da ad2d ba3f 6efb a467 8dcf 833f
00000300: 2baf 159a 6db1 c0bf 9fc5 1f65 6d99 9b3f
00000310: eb6f 6ef4 3560 7ebf 6f97 c694 ff13 c5bf
00000320: c2c1 5bb0 ebb6 cebf 5701 0193 7e21 9a3f
00000330: 3b7d 0bc5 78d5 bf3f 6564 0269 48ff b23f
00000340: 14a7 56e5 e376 c63f 4ac6 10a1 b018 b0bf
00000350: ae08 951f 46d7 94bf 0e14 f90c de07 d8bf
00000360: c45c 364f 56cc bbbf 97ef 481a 81e3 c03f
00000370: e086 26d1 6b0c a33f 37bc 9391 c6e9 793f
00000380: 2b48 257d 8657 ae3f 3d02 6340 00dd b53f
00000390: 8860 b2fc 2fdc cf3f 6c0c a971 bfd1 c1bf
000003a0: baab 5ab5 0226 bcbf 160a df28 1606 cb3f
000003b0: 30ae a188 5e4c cebf 02f1 7dcc 7c58 babf
000003c0: d555 a536 ecc5 cc3f c574 9444 5be1 bf3f
000003d0: 04a6 f1f4 0126 b03f 9715 7b40 d4ca d83f
000003e0: 27d7 0b30 3ec5 d03f 60a7 ccab d182 c43f
000003f0: a7d9 25fb a1ea 95bf 4673 c347 c5a9 a5bf
00000400: 0ffe b995 a4a3 c03f 8495 262f b534 b0bf
00000410: 656d 20da 4a75 d43f b988 6dff 3658 d0bf
00000420: 3922 ae8e 3322 a5bf e429 d893 6202 96bf
00000430: bbf5 da49 8ba9 c53f caf7 3988 70ba c6bf
00000440: 844d c67e 908b 863f f1ba be7f 1e6c b2bf
00000450: e65f ffa4 f328 b0bf 63ba 49d4 d687 b03f
00000460: 89b4 7568 bbd5 b5bf 2f5b 96a1 2df5 adbf
00000470: c969 cb7f 061d a9bf 9110 34c2 c5bb bdbf
00000480: 7c29 ef09 706d c3bf 151a bd7c 7332 a6bf
00000490: b256 14f5 34fe aabf 26b2 6dc2 eac4 b33f
000004a0: e216 62b5 c1bd af3f 9d9f 66da e5ac c9bf
000004b0: ae48 7d6f 1f55 9dbf b32c caab 84d1 c63f
000004c0: 847d 6350 f936 c73f 21ee fe62 97f3 afbf
000004d0: 2dcf ac42 5a86 be3f 689a 7ce4 8a98 a6bf
000004e0: 450d 7f8f f19f c2bf bdbe ad07 f53f d1bf
000004f0: 3730 fa78 c70b ca3f e583 0e38 0564 ccbf
00000500: 5631 abad f596 cb3f 79f2 d3b7 4bf1 d1bf
00000510: 8e82 3270 18dc adbf 0ae6 a7ce a006 b9bf
00000520: 14f1 657d 8a34 c93f 7603 c7e0 4bc1 d0bf
00000530: e359 7f7a f6cf c33f 2196 9853 b260 983f
00000540: 10bf 3c80 56d4 c93f 9034 793f e387 bebf
00000550: f36b 986b 6a07 a0bf 890b 70d2 853b c83f
00000560: 0398 baa1 89e0 c93f 4584 f1b4 1a5c 7b3f
00000570: 1da6 9ca9 cf1f 9abf 903c 4524 44b6 bc3f
00000580: 1e82 791d 6ca3 d1bf 09c3 e67c fac7 b1bf
00000590: 76a9 e109 7f93 d0bf fdb1 f63b 1d1c bb3f
000005a0: 77d7 d9bf c86b a03f f7bd 9389 5ea5 cdbf
000005b0: 9db6 920f 3a43 ad3f acae 9aaf 090e d23f
000005c0: 116f 6db0 d192 bc3f 8ca8 1bc3 ddcc c63f
000005d0: c713 c434 d40c 9c3f 9732 2552 2464 afbf
000005e0: a989 774c 9da9 a9bf 20e7 256b c182 c43f
000005f0: b139 8fef b0c1 b13f abe5 c755 bed2 d4bf
00000600: 313a 0cf8 c8c9 c4bf 4c3e 92db 6d8b b53f
00000610: 985f eaea be40 d33f 6b25 2cb6 d9d3 d3bf
00000620: e3d2 2725 2c88 b03f fc80 8242 f180 b5bf
00000630: 7cb3 7223 4e70 b63f c938 900a ed96 b8bf
00000640: b404 15b5 c0db bfbf bf59 6d23 7eda 82bf
00000650: 9885 1bf4 cfb4 bf3f 5349 7a9d 20ab c6bf
00000660: 04a8 cc57 7afd b53f 8f13 0a00 bd5b c7bf
00000670: 297a 2030 dbf0 b9bf a9ae b572 026f a8bf
00000680: 9c11 dd27 591b 99bf aef8 4352 b09f d13f
00000690: acd2 3d57 32ee a63f 7c1f 6895 a6ed bfbf
000006a0: 4273 3115 40b8 b8bf bba7 af3d 62fe c03f
000006b0: 5770 1813 aac6 c13f e422 dc42 7f9e d0bf
000006c0: 8cf5 ad91 49a3 b8bf 7905 c52a 6230 d1bf
000006d0: 10b9 c0fe 5141 973f 4fa4 6d97 fd80 b03f
000006e0: 32d0 102d 76ee c53f e078 d2d4 825f a23f
000006f0: 640e b3bd d48d c63f ff30 608d e106 b13f
00000700: a785 4ab5 aaf0 c1bf 815b 43ba 1da0 bb3f
00000710: f3a2 afe2 57ad a33f 2b61 f00c 8295 bebf
00000720: 2152 af30 5271 b03f 7826 fd78 4198 babf
00000730: 2d06 49c1 e937 d13f 8899 c1bd 0b80 c5bf
00000740: b8ed 8cc9 e85d ca3f fe5a b337 9839 a23f
00000750: 988e d96c f902 96bf 2d1b f373 76b7 a33f
00000760: e97a e793 4229 c13f 70d1 d97d f916 aa3f
00000770: 6d9c 2343 0abc b13f fb1d 873e e479 ab3f
00000780: 6f19 4297 dfda 87bf 1f09 58a2 ceef c8bf
00000790: 18ec 3b37 bf74 ccbf 8bea 576e 3eb3 abbf
000007a0: 123f 4c59 bd3b c83f 2b05 a196 7287 bb3f
000007b0: cd66 1504 b931 c1bf 5d98 69d1 f75c bfbf
000007c0: 9716 bce5 5695 bf3f 592c 80a4 3e1e 9cbf
000007d0: 31b4 557e 0ee7 8cbf 666a f1ab 5898 b5bf
000007e0: 64d1 d8b5 b383 933f fd64 d8a5 7426 b7bf
000007f0: d764 ef7e d0c1 cc3f ead6 9648 7fe5 6a3f

lstm.bias_ih_l0 f8 [200]
0.26982474302100856 -0.04798681767549296 0.1378542753416105 0.1700587534730447 0.06263658856488219 0.2040912338942837 0.09031458929841653 0.009289070951490591
0.20918735794609558 0.009098999752541954 0.010618952626861194 0.16974055435756533 0.2692176885553779 -0.05056042241625613 -0.010294730362578124 0.17542200500270638
0.19307883013648156 0.18019225920712817 0.1386697824521021 0.21365946655533544 0.13643996667836375 0.2078636897950506 0.2182041766888064 0.021263340911825655
0.07095953828296533 0.3005409577406708 0.010402290134779718 -0.05107678308426349 0.0102145326388226 0.05869367330743476 0.23923681449916478 0.14521009223652634
0.057660143331901254 0.03984632067435289 0.20377733106009688 0.11468594561759254 0.1770799086581819 0.056101775033784676 0.16935240269157803 0.09564391432476935
-0.020936196613962357 0.09195095764715226 0.0033019735972206433 0.03784609332886414 0.1126600987777388 0.13150503385368603 -0.06810928205565149 0.1994358989602284
0.24021015809265384 0.003949179530511678 -0.1441265362846557 0.18121002329392177 0.21166160878768148 0.056802442349119235 0.01856044293640159 0.16858886530586834
-0.007371857372285754 -0.10973441618220915 0.008531749854917732 -0.1071037829710444 -0.09643997227225401 -0.005390048305176183 -0.01995420412067234 0.0674259304912154
0.008139834739694174 -0.0012810287607933153 -0.06238444504300145 -0.1181822332853527 0.13583188283988612 -0.04789004382852793 0.095472352740121 0.08063718192219806
0.1397810883714586 0.26540409055373865 0.1525706571209633 0.14687001863708932 -0.017464417718640154 -0.0009438930099393476 -0.050579965179092946 -0.05481270493430828
-0.0135235207070214 0.14406212228809645 0.11984504458505559 0.06431413503081074 -0.1440606620867014 0.05608681888347025 0.08162249123902705 -0.023597671075183454
0.12094167775284466 -0.006241161306483296 0.026823785853524386 -0.026096270218273807 0.03385295336986949 0.13089017047101056 0.0787098970784224 0.28131127820263635
0.25747570808919495 0.054208365800809025 0.13071599969867206 0.21069754043719288 -0.010720954828710216 -0.16333124540779306 0.06909587306397025 0.043508451208195735
0.012810289726161363 0.0590294529536 0.021433223824131285 0.06438016133405138 0.02052079229630445 0.10667441299599163 0.08013834945945317 0.033514057196426895
-0.059396282831669464 0.06746833500062006 0.12012444070318923 0.06311704692363736 0.16363341044950228 -0.0892713708835023 0.09236049737901647 0.0908390177482997
0.050974280055619034 -0.040715889847811444 0.0712683457369604 -0.03095310690199107 0.05571720370507167 0.11153971496280284 -0.12929832927315446 -0.08119012196488266
-0.03261131768595541 -0.032891180768827286 0.14145421815102183 -0.006449811598088567 -0.12531069676484663 0.13670609073747364 -0.170033143508053 -0.10908083747538594
0.12366852596184676 0.09216865120863257 0.050648770854913906 0.07167207910662131 -0.012005470866131114 0.06938702698807976 -0.04984780878047978 -0.06494773022820698
0.05382984195389836 0.06853414648810247 -0.025124386019486303 -0.06229699291502116 0.04406181481013756 0.06958291651666214 0.23429395667974834 0.20141448128153325
0.23769354460109338 0.2322915419619639 0.03444042105195319 0.14548736683513944 0.053798774051903746 0.33032951661590254 -0.012759965791731416 -0.0884150074526252
-0.012816861250241752 0.12169125471701475 0.10672164558254423 0.140110531978427 0.14574288933489446 0.17044414567840888 0.1446294612670603 0.12184651847464781
0.1655739466793508 0.1002518015780834 0.09982662228962452 0.015272997110396076 0.06079466215461354 -0.002864223097303658 0.16669080797402352 0.1241107041015524
0.061539611067183114 0.08679108791436214 0.056267475137369106 0.14395248920915857 0.11689415209094026 0.05899401336272721 0.047655645272054174 0.2581928301255478
-0.004202779956008577 -0.024456767208741053 0.20887478197599824 0.27218923150869323 0.1358474034299508 0.03385340133016738 -0.03946754155547214 0.17803089487708532
0.004696619535015249 -0.05884926189129504 0.020720090952760385 0.126540068610053 0.14627140925539237 0.21380177002443843 0.20551813698309113 0.15975957665883295
00000000: 4851 bbff ce44 d13f c157 1c69 ba91 a8bf
00000010: 165e 1a7a 35a5 c13f 395a 4838 7cc4 c53f
00000020: 284f 6b93 f308 b03f 47f5 7c5b a91f ca3f
00000030: 416c 635f db1e b73f 9033 93ff 2506 833f
00000040: 75bc 8ebe a6c6 ca3f 1768 e812 7fa2 823f
00000050: 834a 00b2 63bf 853f c5a4 e2f8 0eba c53f
00000060: 6967 f6d3 dc3a d13f 3fe1 7f41 0ee3 a9bf
00000070: 49c9 d351 6715 85bf ae20 3e6f 3a74 c63f
00000080: 6d39 7e9e ceb6 c83f 72bb 243a 8a10 c73f
00000090: 96a0 4972 eebf c13f 1d01 ab82 3159 cb3f
000000a0: 8f1d 6065 dd76 c13f 720a d902 479b ca3f
000000b0: d350 5d4d 1dee cb3f 76ab 47a7 0ec6 953f
000000c0: 92bc 4380 672a b23f 64b3 2624 103c d33f
000000d0: dd84 75bf cb4d 853f 9714 dd71 bc26 aabf
000000e0: 9e76 055d 5beb 843f 1ad2 acde 180d ae3f
000000f0: f8f5 22db 4f9f ce3f 3b3e 9a8a 3e96 c23f
00000100: fc4f c95b a185 ad3f 9f15 53a8 bc66 a43f
00000110: 34de 4826 6015 ca3f 6c07 bde1 0e5c bd3f
00000120: 6c97 3bf0 8daa c63f 020a 0932 5fb9 ac3f
00000130: c898 87eb 56ad c53f 6e18 169c 1e7c b83f
00000140: 14d3 095f 4c70 95bf b32e ee13 198a b73f
00000150: 361c 9893 bd0c 6b3f b2f6 412a 9060 a33f
00000160: 3c84 d0cf 4ad7 bc3f 279a d42d 28d5 c03f
00000170: 01aa fb22 9c6f b1bf 845d d793 1d87 c93f
00000180: 5e64 96da 34bf ce3f 958f dfce 032d 703f
00000190: 7d07 ea03 bd72 c2bf 089d e0d9 e331 c73f
000001a0: 50ea c743 ba17 cb3f 6fdd 71b0 3515 ad3f
000001b0: 64fc a43d 8201 933f 9bae 7ae7 5194 c53f
000001c0: 9126 32e5 f331 7ebf c18c bf00 8e17 bcbf
000001d0: e410 d614 1879 813f e175 234d 276b bbbf
000001e0: 02bd ef3e 4ab0 b8bf 6e0c 1d13 e013 76bf
000001f0: b1c7 76f8 df6e 94bf 2ab5 5c66 d342 b13f
00000200: 0dc0 0320 9eab 803f a77e 8028 06fd 54bf
00000210: 1144 7a9e daf0 afbf f7c7 edda 3041 bebf
00000220: c094 466b f062 c13f 6356 1838 0b85 a8bf
00000230: 18e5 b048 e070 b83f a18b 326b a3a4 b43f
00000240: 3bcd 93c1 58e4 c13f 9bc9 4970 61fc d03f
00000250: 50f6 546f 6f87 c33f 2a94 6703 a3cc c23f
00000260: 9fed c73b 31e2 91bf b203 e7cd f2ed 4ebf
00000270: f5d5 8d00 9ee5 a9bf f740 322e 6910 acbf
00000280: 62b7 4e39 38b2 8bbf d0ec e8ab a070 c23f
00000290: 0d9a 1433 2aae be3f 70bb a022 e476 b03f
000002a0: fbb7 266c 9470 c2bf 24af ae59 69b7 ac3f
000002b0: dd5a 7d2a 36e5 b43f ef63 1ee6 fc29 98bf
000002c0: 9dfd aba6 08f6 be3f 54dd 34fb 5490 79bf
000002d0: 9ab1 fbcb b177 9b3f 6c4e 8a0c fbb8 9abf
000002e0: e075 319f 2c55 a13f bf3a c554 02c1 c03f
000002f0: 13c7 d2f1 5426 b43f fc14 f804 0101 d23f
00000300: 747b 7064 7b7a d03f e272 91ec 32c1 ab3f
00000310: eb86 e247 4dbb c03f af3f c312 23f8 ca3f
00000320: a039 f832 def4 85bf 7f80 b8ca 09e8 c4bf
00000330: 782b 1963 44b0 b13f 37df 135e bd46 a63f
00000340: 34c0 68fb 473c 8a3f a67a dfc3 1b39 ae3f
00000350: 866e 7d4d 97f2 953f 63e2 70df 377b b03f
00000360: 04da 330f 6703 953f a545 23ab 034f bb3f
00000370: fe71 1566 f283 b43f b5d7 3a27 c128 a13f
00000380: 662f 8888 3069 aebf 45de 57d4 9a45 b13f
00000390: c43e 45b0 79c0 be3f 356c 5b54 7028 b03f
000003a0: 6fef 3489 f0f1 c43f 25ea 6912 7dda b6bf
000003b0: 4467 af03 f0a4 b73f 8601 6ed2 3941 b73f
000003c0: a653 8d03 4d19 aa3f b9d4 a58e b6d8 a4bf
000003d0: e925 2e6e a43e b23f 8721 6ad7 2bb2 9fbf
000003e0: d9c7 791f f786 ac3f 236c f8e3 dd8d bc3f
000003f0: f1eb d3ff d88c c0bf abf0 9836 e0c8 b4bf
00000400: 359c e13d 6eb2 a0bf 4637 75e3 1cd7 a0bf
00000410: 7681 6bfc 2b1b c23f 9301 111e 1e6b 7abf
00000420: a4d4 3850 2e0a c0bf 9cd3 70ce 957f c13f
00000430: 6c34 4d63 a5c3 c5bf 1cbb 93c5 b8ec bbbf
00000440: f9f7 8c92 bda8 bf3f 6e52 a85e 5d98 b73f
00000450: 7d14 cfbc a2ee a93f 879c ccf3 1959 b23f
00000460: b7e5 f105 5396 88bf 6933 ae23 59c3 b13f
00000470: 8f95 fae8 a685 a9bf 8792 4719 6aa0 b0bf
00000480: ab4f 7bc5 958f ab3f 545f d32d 748b b13f
00000490: c1a1 2401 35ba 99bf f716 6b36 64e5 afbf
000004a0: 6a51 392b 458f a63f ffa2 cc9e 2fd0 b13f
000004b0: ce83 cb28 58fd cd3f 37c2 0521 f3c7 c93f
000004c0: 0419 44f8 bd6c ce3f 1499 eeaf babb cd3f
000004d0: 6c3f 28c4 2ca2 a13f c5df 447d 549f c23f
000004e0: e752 3c4e 838b ab3f db33 b169 1e24 d53f
000004f0: f142 309e e521 8abf 2810 7cad 5da2 b6bf
00000500: 0ddc 41ff b93f 8abf 3c02 3877 2827 bf3f
00000510: 8565 8d19 1c52 bb3f ae14 5654 24ef c13f
00000520: 91b1 a8f7 b3a7 c23f e6e0 bd1f 1dd1 c53f
00000530: 430e 17db 3783 c23f 02e6 fa5b 5531 bf3f
00000540: d55a 07ef 8631 c53f 5598 2421 1aaa b93f
00000550: 840b 01ce 3c8e b93f 37f5 cef8 7247 8f3f
00000560: 176c 735b 7a20 af3f 72f5 0011 b676 67bf
00000570: 5a68 65d8 1f56 c53f 941f 3317 b8c5 bf3f
00000580: 645c e2b1 1e82 af3f 952b 2dd4 f037 b63f
00000590: c544 162b 17cf ac3f 6f62 aa00 096d c23f
000005a0: 4a01 5370 c6ec bd3f 8afb 1a9c 7634 ae3f
000005b0: 7795 d31b 5266 a83f bbdb 5c38 3b86 d03f
000005c0: 6bd8 6927 ef36 71bf 4b49 4fdd 310b 99bf
000005d0: bae4 c5aa 68bc ca3f 32ce e961 8c6b d13f
000005e0: 3f34 7d9d 7263 c13f b592 24a7 3b55 a13f
000005f0: bdf2 77f0 1635 a4bf 6b5c 9663 b7c9 c63f
00000600: abd3 df34 c33c 733f 2207 6f8e 7d21 aebf
00000610: 9d8b 0cc4 a537 953f be29 2808 7732 c03f
00000620: 33be 8b83 05b9 c23f eb7a 0a3d db5d cb3f
00000630: 7ee2 8916 6b4e ca3f a27a 7c76 0073 c43f

lstm.bias_hh_l0 f8 [200]
0.04999388729381292 0.06617989285025812 0.20167903327522707 0.09241811891907206 0.21037818943596823 0.15699063031380886 0.18115189098482265 0.023418754326849194
-0.03807115621978274 0.03469012732698579 0.14540665323150836 0.08025581058362811 0.0137593708583298 0.029072925273849387 0.18167149782450628 0.1757028548711381
0.2068071246580517 0.18997928017912677 0.286502809397693 0.10420013529620412 0.14280039694879706 0.26559782905868057 0.19918701674999414 0.1550076738512119
0.11023241473934525 0.24491030364406735 0.17034037968432117 -0.0217134936088226 -0.016942371700967792 0.13157720708696655 0.10561464127924546 -0.0085828031401561
0.15703592505147398 0.06138744302146942 -0.011374940031840945 0.1544329872677091 0.09827878709546267 0.00491860346348365 0.038252046112750925 0.19923051728082591
0.05772766290241983 0.3410411597998813 0.03204790796440043 0.003976364882857386 0.019902851389375843 0.17233575779501237 0.07728403737231547 0.15553531974613244
0.1501051674538613 0.03306884247101386 0.03983298506858897 -0.055895919968655144 0.1506710885003764 0.11361838789246793 0.05077624965019501 0.0013427731949959194
-0.05566631404793448 0.06547421944601427 0.22002214999043496 0.08453959665761394 0.08914334351744553 0.19010947616896776 0.05430889918562115 -0.00795183648305502
0.0016703614969345087 0.1301218921707843 -0.003463353784475699 -0.07118613154833027 0.19250530529567364 -0.007994017574827646 0.23396323078568002 0.025046058743596677
-0.038293651501950694 0.11344478864989511 -0.049287304593304694 -0.021116910779567084 -0.005515802406063845 0.14344499874659514 -0.05616570270550968 0.09018030224876666
0.03249571678148687 -0.04182829153264739 -0.007681290833168637 0.08324043234527573 0.08767411292006964 0.14970719647621264 0.13050425296874432 0.09049235807506419
0.07307320616018001 -0.04379676647959429 -0.11725255404696928 0.1411627318861276 0.01585159441377094 -0.056614426537217884 -0.13509050341710677 0.08055471346627005
0.2679028105357509 -0.04703755902962769 0.053263724611546215 0.08550974482795701 -0.07428039386198017 -0.15096769981119348 0.14310946387665371 -0.08774680294124122
-0.10309262214551031 -0.12081643893930996 -0.02061459937307706 0.059539764989389676 0.09468825622476564 0.019514811024484626 0.0366330384471851 0.12772013703708696
-0.1337278141328103 0.06362683799658794 -0.11182179668208378 -0.09563930231213581 0.13077436071204887 -0.14210952874592706 0.0915379309293743 0.038338572352591756
-0.07418859708681043 -0.16252856872135044 -0.09709434998681164 -0.0527466549197313 -0.0458114408566959 -0.03418330383244924 -0.07040341562955593 -0.12491798181958085
-0.10957379241954653 -0.08572761382184373 0.09594821763222319 0.09516297784188023 0.016408797250131887 0.01236000770736913 -0.06432395954690008 -0.0213241506314543
-0.026805746706514828 0.035371862039321245 0.10434941910310956 0.04525035335665176 -0.11322357429729636 0.08023960229020377 -0.02297823049347438 0.130572000220516
0.0070213607374676945 0.07950813645163397 -0.10417496885307448 -0.08593987561975608 -0.08789872992505568 -0.14389018742382495 0.20445469058816323 0.13430094952811253
0.30264934537280674 0.2255790009778101 -0.045504752062585065 0.20086569956924746 0.22282473908686543 0.13118949690106985 -0.039602418377428526 0.09157598449740995
0.02677781882063534 0.20903829094459855 -0.035558534424675194 0.053462611667929545 0.11220286398146274 0.11287651990620094 0.09691148767716287 0.20938131305856467
0.003574875662443144 0.2480342781969698 0.07406731182804381 0.022174678533583337 0.06021569988816838 -0.03891791788194481 0.09383394215075479 0.12670408403493938
0.17546784154654252 0.16973565243567493 0.24574345851864038 0.19805134677587277 0.15547320254245708 0.1422739154781915 0.139892662389495 0.32825323600576084
0.06623603811875428 0.1841560622380515 0.2543094543614526 0.06623014985891286 0.07608025404116059 0.07733976365333226 0.018329953720263796 0.19291654023683996
0.043770727539585226 0.20878553222472535 0.12406138540530862 0.07602868771966864 -0.036826612639300906 0.013729660325188991 0.04700821570056119 0.12131345946632617
00000000: 4e8a da7d cc98 a93f 1dd4 715b 2af1 b03f
00000010: 145e 1a5a 9ed0 c93f 72b4 50be b6a8 b73f
00000020: 91a7 b529 aced ca3f 47f5 7cdb 4418 c43f
00000030: 20b6 b133 fc2f c73f ce99 c9ff 15fb 973f
00000040: 300e c505 107e a3bf 081a ba84 e7c2 a13f
00000050: a004 206a af9c c23f 8b49 c511 a58b b43f
00000060: 46ed cc7e df2d 8c3f 983d 00fd 4ac5 9d3f
00000070: 73c3 e2fa 0241 c73f af20 be5f 6e7d c63f
00000080: 6b39 7ee6 a778 ca3f 73bb a4b5 3d51 c83f
00000090: 4ad0 24e1 0f56 d23f 4202 562d dcac ba3f
000000a0: 8b1d 608d 4847 c23f 3a85 6c09 8eff d03f
000000b0: d350 5dcd f57e c93f 6af5 e89c 4ad7 c33f
000000c0: 94bc 4308 3138 bc3f c666 4d88 3859 cf3f
000000d0: 4d58 f7ab b6cd c53f 4729 bae3 0f3c 96bf
000000e0: bf44 7d51 5759 91bf 8934 ab9c 85d7 c03f
000000f0: e7eb 45a6 8f09 bb3f ab1c 5c56 dc93 81bf
00000100: fb53 32d1 c019 c43f a815 53c8 2c6e af3f
00000110: 4f1c 729b be4b 87bf ba83 deca 75c4 c33f
00000120: e02e 7770 cc28 b93f 3250 4890 8725 743f
00000130: 0363 1eae c595 a33f 360c 0bb6 6280 c93f
00000140: 7216 7bf0 7a8e ad3f ad8b fb4c 9ed3 d53f
00000150: b781 3959 9568 a03f a6b5 0f52 8549 703f
00000160: da10 42bf 6961 943f 2e9a d41d 190f c63f
00000170: f755 04fd e2c8 b33f 885d d7d3 94e8 c33f
00000180: 5d64 9668 a536 c33f f5f1 db39 66ee a03f
00000190: fae1 5730 fd64 a43f cc8b 7dd8 639e acbf
000001a0: 51ea c7b2 3049 c33f b1ee 383c 1816 bd3f
000001b0: 317e 5237 58ff a93f da4a 57bd ffff 553f
000001c0: d744 a68c 4b80 acbf 3f73 401f ebc2 b03f
000001d0: 1261 4d91 af29 cc3f 238a dc12 63a4 b53f
000001e0: fd42 1021 19d2 b63f 9b17 67df 8155 c83f
000001f0: 289c c443 60ce ab3f da56 1a6d 0d49 80bf
00000200: 1c01 1e00 015e 5b3f 00ff ae8b d5a7 c03f
00000210: e941 a4e7 2d5f 6cbf f5c7 ed1a 4139 b2bf
00000220: bb94 468b 03a4 c83f 7e59 61e0 2a5f 80bf
00000230: 8f72 58d4 81f2 cd3f 632e ca8c aca5 993f
00000240: 19cb b0b9 399b a3bf 8526 27b9 b70a bd3f
00000250: e526 ac82 2f3c a9bf 955e c3e4 ab9f 95bf
00000260: 6bb6 1fef bc97 76bf f918 32dd 675c c23f
00000270: efd5 8d40 c0c1 acbf 84df e668 0e16 b73f
00000280: 2e52 ac51 47a3 a03f e84c 5c90 846a a5bf
00000290: ae5e b6ce 6a76 7fbf 6cbb a0b6 3e4f b53f
000002a0: 0790 b287 cf71 b63f c7ab 6bfc 9a29 c33f
000002b0: 6fad 3e05 5db4 c03f 0967 78d6 812a b73f
000002c0: a2fd abf6 ecb4 b23f af9b 669f 876c a6bf
000002d0: 9d13 016d 4304 bebf 2cb6 6ed2 9e11 c23f
000002e0: c3eb 627e 663b 903f 1915 ebec 90fc acbf
000002f0: 769c 1647 a54a c1bf ee53 e0d3 3b9f b43f
00000300: 717b 70d4 5125 d13f 1f8d 6e93 4e15 a8bf
00000310: 881b 8a06 6245 ab3f 567f 8675 f7e3 b53f
00000320: 3907 5f36 0a04 b3bf 7f80 b8da e852 c3bf
00000330: c995 8c31 6951 c23f 6510 f610 9376 b6bf
00000340: f9e7 9230 4764 babf aa42 107e d3ed bebf
00000350: 7a91 8258 fe1b 95bf c8c4 e1fe fe7b ae3f
00000360: 89f6 cc53 7d3d b83f a716 8dcc b0fb 933f
00000370: fce3 2acc 90c1 a23f ecb5 ce29 2259 c03f
00000380: db0b 2236 fe1d c1bf 46de 5734 d949 b03f
00000390: 3ec1 ba6f 5aa0 bcbf d193 a43b d17b b8bf
000003a0: 71ef 34d9 36bd c03f 0ff5 3421 a530 c2bf
000003b0: 4567 afa3 076f b73f 2103 dc04 1da1 a33f
000003c0: 3556 391e 06fe b2bf 2f75 a973 bccd c4bf
000003d0: 17da d1e1 2cdb b8bf c110 b50b 9c01 abbf
000003e0: 2538 86e0 9874 a7bf db27 0f58 7980 a1bf
000003f0: e4d7 a74f f505 b2bf abf0 98f6 9ffa bfbf
00000400: 1dce f02e 070d bcbf 939b bab1 3ef2 b5bf
00000410: fa02 d7f8 0f90 b83f e9ef 9ed5 995c b83f
00000420: ff5a 39be 77cd 903f 093a 0d27 3450 893f
00000430: e168 9af6 8877 b0bf 7aec 4e86 ffd5 95bf
00000440: 0520 cc35 f772 9bbf f8a4 50bd 421c a23f
00000450: 3f8a 67be a4b6 ba3f 0439 99e7 0d2b a73f
00000460: b93c be5c 38fc bcbf 6833 ae23 958a b43f
00000470: 262b f5f1 9a87 97bf c136 5c53 95b6 c03f
00000480: 577d da2b 6ec2 7c3f 555f d32d a55a b43f
00000490: 7428 49f4 35ab babf 848b 35db 2700 b6bf
000004a0: 4a57 63fa 8780 b6bf 87ae 9960 fe6a c2bf
000004b0: d083 cb40 922b ca3f 3bc2 0505 c630 c13f
000004c0: 840c 225c 9b5e d33f 1399 eecf c5df cc3f
000004d0: 9dc0 d71b 664c a7bf c7df 449d f7b5 c93f
000004e0: b914 8f63 8585 cc3f a867 6243 d1ca c03f
000004f0: b310 8ca7 c446 a4bf dcef 8312 8671 b73f
00000500: fe11 5f00 a56b 9b3f 1b01 9c47 c4c1 ca3f
00000510: 0535 e56c ba34 a2bf a152 5891 735f ab3f
00000520: 2163 51af 53b9 bc3f cfc1 7bc1 79e5 bc3f
00000530: 721c 2ef6 30cf b83f 0873 fdc1 01cd ca3f
00000540: 99b5 d6c1 0e49 6d3f 394c 9254 96bf cf3f
00000550: 870b 014a 13f6 b23f 9d7a 677c f5b4 963f
00000560: 176c 739b 97d4 ae3f 470f 10a1 0ced a3bf
00000570: bfd0 ca50 8005 b83f c88f 99e4 d637 c03f
00000580: 1197 78f0 ba75 c63f cd95 16da e5b9 c53f
00000590: 2e91 c58a 8574 cf3f 6c62 aa1c bf59 c93f
000005a0: 9b80 29c0 8be6 c33f e5be 061b 0836 c23f
000005b0: 62e5 f4b4 00e8 c13f c0db 5cdc 1902 d53f
000005c0: 7c62 8951 d8f4 b03f d516 5604 6d92 c73f
000005d0: 60f2 6229 9b46 d03f c138 a787 75f4 b03f
000005e0: 7868 fada fe79 b33f 5649 92eb 89cc b33f
000005f0: 9e1a 105f 16c5 923f 6e5c 963b 7db1 c83f
00000600: 71fa 9be6 1d69 a63f 3e3e 64fc 7bb9 ca3f
00000610: f622 03a9 7cc2 bf3f 7853 50b7 9d76 b33f
00000620: 2507 d111 f0da a2bf 50ae a7d0 4b1e 8c3f
00000630: e989 27fa 7511 a83f 45f5 f81c 660e bf3f

linear.weight f8 [2, 50]
-0.2872969041761402 -0.2112620357405797 0.23366058601410084 0.36437946365810453 -0.24088396835568202 -0.046703620303624946 -0.04068504373923831 -0.21307782336094586
0.23026558875617442 -0.2666846584327344 0.18729833336044396 -0.26940732338448514 -0.06815259578587596 0.22739664484779276 0.33208437758436055 -0.06762813733689566
0.24665227775007628 0.25415363186117323 0.3823487027572049 -0.18709147194119521 -0.2997436146668055 0.1851023843615706 0.12288155555786165 -0.2379434911630775
-0.327915383183674 0.13675255962048563 0.03603457927101721 -0.17436461022839872 0.13661479763062329 -0.2578802036005254 0.15319209213847582 0.2170099925256446
0.17779692529768157 0.28462063098897294 -0.1122207980007541 -0.21823662585111284 0.1559159590199896 0.20820295416727458 0.23070831636412525 -0.10698834303633882
0.1562281661564183 -0.17161519450771903 -0.05472966258916811 0.25570470643316445 0.04968266100747464 -0.20961745382347255 0.24365837378912233 -0.09450642606257191
-0.012631924653946427 -0.0587101390474765 0.0910881961878777 0.29991123787876534 -0.027773655786821123 -0.17696432577110333 0.20591939944269916 0.24977438007687935
0.10478608596519522 0.18054311974861814 -0.05880127965983781 0.06285440882517147 -0.17827096776534165 0.25714181252737994 0.258755814758559 -0.2771841629504686
-0.30627253401031346 0.17080202283136606 -0.14204401392966653 -0.19728796952482358 -0.37215675553544886 0.17441943109685906 0.052783444099769865 -0.125053727590611
-0.1575942240661529 0.026060952069582914 0.09820019235582772 0.09291184059943114 -0.081080644273697 -0.050896936442992105 -0.3091837186303884 0.030409969564079722
-0.1912437048136659 -0.23342512659794837 0.009451852300460846 -0.22213576637779425 0.1946888354942811 0.21111895209642081 -0.19830264172408066 -0.12066369482293524
-0.07080750206931022 0.20696019809560476 -0.14555535101235623 0.2808017339341652 0.1702451424071544 -0.2149125392464274 -0.1872339128063431 0.15221691616871522
-0.18779360382371207 0.21248385931844585 -0.17323870787531231 0.0803899560478805
00000000: a86d eb8d 1263 d2bf b932 3267 a20a cbbf
00000010: a2ba a50f 97e8 cd3f 93b7 ef3d fe51 d73f
00000020: fff2 1b2f 49d5 cebf 4e24 9e73 89e9 a7bf
00000030: 3fbc 9788 abd4 a4bf c147 6b55 2246 cbbf
00000040: d80c 8dc2 5779 cd3f cb10 9487 5c11 d1bf
00000050: d36f 304c 64f9 c73f 0850 cf36 f83d d1bf
00000060: 30b0 09d2 7272 b1bf e4b2 6b50 551b cd3f
00000070: a530 4fd5 de40 d53f c0bf 26de 1350 b1bf
00000080: 7dd2 3545 4d92 cf3f 1837 4098 0d44 d03f
00000090: 72a7 80b1 6678 d83f 2389 ac04 9df2 c7bf
000000a0: bb70 8bd7 ff2e d3bf fd4d 9f57 6fb1 c73f
000000b0: 4a12 6766 2a75 bf3f b6b5 6bac ee74 cebf
000000c0: 9f44 a8cd 90fc d4bf 656d 9b9d 1b81 c13f
000000d0: b7ff fcd6 1f73 a23f 9260 415d 9451 c6bf
000000e0: 5691 fcfb 977c c13f 4701 30f8 1b81 d0bf
000000f0: 13cb de68 cc9b c33f b9c3 66c2 fbc6 cb3f
00000100: 95cf bdb5 0cc2 c63f 5854 7773 3937 d23f
00000110: 7e21 5891 80ba bcbf 11f3 6881 2def cbbf
00000120: 9529 75dc 0df5 c33f b21d 8af7 64a6 ca3f
00000130: 687d d9a0 d987 cd3f 25f1 648a 9663 bbbf
00000140: 2b8d 2dd8 48ff c33f 7523 f497 7cf7 c5bf
00000150: 4f18 e2bd 8605 acbf 0614 e445 775d d03f
00000160: af24 6978 0170 a93f 79da 6ba6 bed4 cabf
00000170: c310 6995 3230 cf3f c359 33b9 9231 b8bf
00000180: a8a2 313a c4de 89bf a617 4e5e 410f aebf
00000190: 8ab6 ad57 8e51 b73f 5f19 99e7 be31 d33f
000001a0: 02d5 2d7d b270 9cbf 206f df5b c4a6 c6bf
000001b0: 02f3 1b1f 915b ca3f 1489 e75c 9bf8 cf3f
000001c0: 1fde 4bcc 42d3 ba3f bc47 6b75 091c c73f
000001d0: 3c33 348a 331b aebf 3143 50fe 3917 b03f
000001e0: d36f 3044 95d1 c6bf 0950 cfee 0275 d03f
000001f0: 0e6c 828c 748f d03f 75d9 b5a4 62bd d1bf
00000200: a530 4f1d f899 d3bf d95f 1337 d7dc c53f
00000210: 7ed2 358d 7f2e c2bf 2a6e 8070 bb40 c9bf
00000220: 71a7 8091 6ad1 d7bf 2389 2c3c 6053 c63f
00000230: df85 5b7c 6e06 ab3f fa4d 1fb3 c201 c0bf
00000240: 2589 332b 0c2c c4bf 7ead 5de3 b8af 9a3f
00000250: 8c12 a1d6 a523 b93f 1025 c904 12c9 b73f
00000260: d97f 7e7b b3c1 b4bf e27d faca 290f aabf
00000270: a648 fe81 aac9 d3bf 6414 0083 ca23 9f3f
00000280: 17cb de78 ac7a c8bf b9c3 66e2 dfe0 cdbf
00000290: 3706 2324 7e5b 833f aea8 eedd f16e ccbf
000002a0: c110 ac52 90eb c83f 13f3 6821 f205 cb3f
000002b0: 9529 7520 fb61 c9bf 663b 14df d0e3 bebf
000002c0: d2fa b2c1 7020 b2bf 8d78 32f9 ab7d ca3f
000002d0: 2a8d 2dc8 8ea1 c2bf be11 fad5 a7f8 d13f
000002e0: 0d86 78c3 97ca c53f 0c28 c80b 4182 cbbf
000002f0: 3649 1ae6 47f7 c7bf 7fda 6b0a d87b c33f
00000300: c210 69ed 9e09 c8bf edac 59cd ab32 cb3f
00000310: d6e5 5c9c af2c c6bf d30b 27a8 6f94 b43f

linear.bias f8 [2]
0.01847338923763113 -0.026528292014706918
00000000: 6cd4 7c2a b0ea 923f 72d4 7c8a 3b2a 9bbf
