AIModels/trainedModels/contactDetection/trainedModel_06_30_2023_10:16:53.pth (torch, 794735 bytes, 18 tensors)

lstm.weight_ih_l0 f8 [200, 112]
00000000: aefa ea1b baa2 b0bf 7cbc 3e00 9ba9 c3bf
00000010: 80a3 4a05 7c91 5bbf 73d5 c2e9 8e45 ce3f
00000020: ba3f 196a 40bf c2bf a2c0 71a7 40f2 9dbf
00000030: d208 3886 d98f 8ebf c483 0d64 842f b93f
00000040: a3e0 fb7e e42d 8c3f 5ebc c7aa 4103 a8bf
00000050: d1b2 305c 1cf0 b53f 09c9 be19 c861 b63f
00000060: 1b8f a71f a1f6 91bf c05e 44b9 3021 c8bf
00000070: 83bf fc46 3fc3 c1bf 866f cf14 67bc c4bf
00000080: 4b25 df6f 2605 cabf 13bd f5d0 b2ae babf
00000090: 4976 e377 89e2 ad3f d93f edec cc66 b6bf
000000a0: db74 d70f bb6d b3bf 2de8 b46c c4cb b1bf
000000b0: cce7 d479 f2ec c3bf 95be 340c a584 cf3f
000000c0: bcdb e253 c97b bfbf c02b 6e82 285c b5bf
000000d0: 9fc1 268d 7dff 9b3f 7e23 d5ca cd94 cb3f
000000e0: 7b85 c515 843f b1bf 0535 2f05 56fd c5bf
000000f0: 2c29 df41 e95f 9b3f 28f2 fac1 fe21 d4bf
00000100: e173 2678 16f9 813f 96d2 163b 3f3f adbf
00000110: b3da b6f8 82f1 af3f ef0d 0c90 9540 babf
00000120: 274e 9c75 84c7 cabf 0685 d6ea 2f75 a23f
00000130: 5064 2a76 9800 c1bf f14c 6c3d 1a96 ce3f
00000140: a8de 16de 0e36 3bbf f09f 2948 7b7c c6bf
00000150: 6305 3212 7cf5 a33f 43c9 1508 5320 da3f
00000160: e924 a549 64ae 943f 531a e822 9592 7bbf
00000170: 6ee4 906e fee8 b43f 7538 0037 2197 b1bf
00000180: 4601 020f f96e 613f 758d 4382 10dc c2bf
00000190: 9cba 09b6 25f7 a33f 51d9 4185 fe6e b1bf
000001a0: 9184 3d9c afbb a03f 95be 1b36 6356 b6bf
000001b0: bfc0 b774 e001 b03f beb7 cd66 44fa d2bf
000001c0: 4aed 2efe da26 b7bf ccea 6516 d984 913f
000001d0: 2be3 03a5 b1b4 acbf 28a2 d670 3cb4 92bf
000001e0: e733 49f1 e385 a6bf 5f43 710a 896b 663f
000001f0: 88a7 75ad 6eb8 bfbf 4de5 3c9b 883b acbf
00000200: 3fa8 e845 bbc4 95bf 7833 9256 9499 8cbf
00000210: f6c8 fb4c 27f8 b1bf 70f1 0a4d 2799 c13f
00000220: b7db b01a c3d5 bcbf b9f3 9ca4 01c0 2a3f
00000230: 2210 faea 7260 c3bf c566 2df9 f6b6 d23f
00000240: fc79 a191 07e7 adbf 4fe8 1f4a c038 b6bf
00000250: cc2a f5fc 8073 aebf 64d0 4c8e 79ad bb3f
00000260: 6cc0 a30d 6b0a c0bf f716 3f12 c29c b2bf
00000270: 75c7 1b16 4c8d b33f 114f aa40 e389 c43f
00000280: 546f 37ec 4318 a1bf 990d dc02 316e a0bf
00000290: 1629 4b59 72a0 a1bf bbe7 0c67 82d0 c23f
000002a0: 2ce9 335a 9c53 c6bf d69e f485 1374 c1bf
000002b0: 3efa 4691 e221 be3f 975c 33af b715 d53f
000002c0: 80a0 fd1d 3f79 c8bf 2848 58fb 90de b9bf
000002d0: e6ee 300e cd60 b6bf 1cfb 2afe ed16 abbf
000002e0: 7d12 211c e3be c7bf f0b6 251c 365f cebf
000002f0: 6141 acf1 7a49 ba3f 1e6b e54c 0385 d73f
00000300: 883a e148 809c c1bf ff94 2607 ef52 c9bf
00000310: 215d cff1 e5c1 b53f e937 a94c b21f 933f
00000320: b21c c254 1ca8 c7bf d97e 0959 8afa c3bf
00000330: 1c87 102a f579 b8bf 21e2 9b26 1baf bfbf
00000340: 678a 1252 3e4e d3bf 4c79 684a d0bd c3bf
00000350: defe 387b 11a4 8d3f 0592 ae17 43c1 b13f
00000360: 4b41 ca18 7325 b9bf 662a f18f e9e6 c5bf
00000370: 8d6c 8f01 adea 603f 85da 11e1 b9e1 54bf
00000380: 249f 75a5 ec82 bb3f 7681 2999 5903 b33f
00000390: fd22 6596 e6e0 ccbf cd90 ccf5 7882 bc3f
000003a0: 033b 25ed 766f a0bf 286f 96ff a538 af3f
000003b0: 8186 c76b 6d0b cabf 2c6d 305c fc40 c4bf
000003c0: 3176 9566 0094 ca3f c846 2467 a5fd c43f
000003d0: 1e2f 7c1f 0c7d d6bf 0fd6 3aa1 9d42 94bf
000003e0: 70e1 161c e17f bd3f e590 f362 c674 92bf
000003f0: 4850 57d4 48ad ccbf 3321 628b 0029 c13f
00000400: ee8e dc0d 928c cb3f e157 32d7 6866 9bbf
00000410: dad9 437e dc03 bebf 1065 f96c cfd2 62bf
00000420: b5eb 99a7 2d67 ca3f 9870 c7c1 6253 c33f
00000430: 525a 0625 bbca d6bf 87b8 3009 01de b9bf
00000440: 920b 599e ab90 97bf 24ea 9e50 969c b63f
00000450: 29fc befa 5ba5 d5bf ffc3 35d5 6bfd c63f
00000460: a9da a9cd 736f 903f f363 7150 2110 8b3f
00000470: c0d1 382a f30a d2bf c184 75ce c67d bebf
00000480: 295c 0f76 be7e c23f 641e bb30 40f7 c13f
00000490: 3557 2e87 eb48 d4bf 47aa 21aa 8c21 b13f
000004a0: 3fb3 9d60 117c c93f 3b7a 0755 2594 b13f
000004b0: 0e4b 7d2a 4f0c b7bf 2f16 704f ce9e 963f
000004c0: f760 8667 91ea cc3f 78a6 c7cf 4918 c83f
000004d0: 5aa2 5ba8 132a cdbf d9d7 8fd0 7d3e bfbf
000004e0: ccbe 8efa 07b3 be3f 8d23 191e 08d0 c33f
000004f0: c5a6 bf38 e4e9 cfbf f80b 8c61 c087 93bf
00000500: 4117 9467 4f31 bd3f c4ff df72 f43a ce3f
00000510: a411 ba33 e4f9 d5bf ce80 2d91 f7bf d33f
00000520: 7259 0978 861d 9b3f e565 b19c 8306 ce3f
00000530: da4b 7a7f 10ce c7bf c7f2 752e 87b5 9c3f
00000540: 6c19 176b b603 883f 5dde 7897 d3c0 41bf
00000550: 0da9 d37e 4816 d6bf 9ef2 4e9c 4772 c53f
00000560: b80a c8ec 5332 cf3f f262 246d 4f66 ce3f
00000570: d7bb 8117 51c2 d1bf bfc6 0952 4de0 cdbf
00000580: f4de 5f99 19f8 c13f de0d e79c a0e1 d03f
00000590: b699 6eff 7694 c3bf 7c7a 2120 29a8 b03f
000005a0: 27e0 5608 7681 bb3f 3dad 50ac 2ba8 d03f
000005b0: 23d1 ca0f a071 c3bf 5ab1 cb74 8350 96bf
000005c0: b1b8 ffa6 db18 be3f aae0 605a 366a b73f
000005d0: 6980 70cc 9b7d bebf baf2 a7dd 75f7 cdbf
000005e0: 13f2 a329 a25a c53f 8d92 58fa 1c8d 9b3f
000005f0: 5e6e 5397 6dec c0bf bcb5 95f1 4f9f b3bf
00000600: 964b e874 6183 a13f 16a1 9ee0 2668 cb3f
00000610: de3c bc6e 3667 d6bf eefa 1670 4dd1 a3bf
00000620: a5b4 556a fe2d cf3f 555d 08e7 946a ad3f
00000630: 1f58 3cf2 49e1 c2bf 046a cd67 d9f0 bbbf
00000640: 44c2 ac6b 5f95 c43f 8e8d cd89 bb74 d23f
00000650: 6346 6c56 5947 c0bf eb55 5b6b 4648 b63f
00000660: 2210 3707 b340 c93f defb 1ba6 93f0 d13f
00000670: d83f a879 7367 cdbf ba1c 1530 9957 c73f
00000680: 2c94 369b b32a c43f 1eed 5452 ded7 c43f
00000690: 2483 0b01 839b b7bf e9dd 4d8c f668 b03f
000006a0: e7ae 4215 c866 b13f 2ef2 0c24 ba9c c83f
000006b0: a46a 6802 d48e c3bf 9cf1 5215 2179 cdbf
000006c0: 280d d089 ed15 b23f 6030 aa5f 3ef8 c53f
000006d0: 1067 d407 57bb e2bf 66f5 f3fe 422f d2bf
000006e0: 34c6 6944 1080 a33f 6b3b c8bc 0e22 aabf
000006f0: 6a82 56bd 58ce ddbf 3529 2a3a bd45 d3bf
00000700: ea8c 641c 7c61 ba3f fd23 120a 0552 c83f
00000710: 22e8 5bff c8b2 c5bf 1652 1b93 22a2 be3f
00000720: 5935 41bf 17d2 bf3f 6f4e c89a 5320 bd3f
00000730: c8dc 791e 92df b43f fad6 34c8 6b23 c43f
00000740: 13eb 9b2d bf92 c73f c1ad 9435 2281 96bf
00000750: 70b8 32de 2eb0 b73f 3454 8fb0 6d6d aa3f
00000760: e454 0544 cdf3 b33f 1396 37df d712 a13f
00000770: 7771 6686 54db aa3f 860a 500e d5a4 ac3f
00000780: f34a a463 73c5 c63f ee83 f2a3 a8bd b03f
00000790: c41d 6956 1191 b0bf 5e32 8c51 c4c6 c33f
000007a0: 595b 44e3 0a01 ae3f 8129 4fdc 289f a1bf
000007b0: f169 0fb7 8da5 9dbf a914 7f80 484f b13f
000007c0: 36f4 ea50 c5ea b43f e8c9 b6aa 3985 b93f
000007d0: 55c5 f946 de80 c2bf 4992 f910 5561 d13f
000007e0: bf0c 2c85 5cdd 893f 2a0e eb94 77c6 a1bf
000007f0: d0fa a249 0f82 ae3f 5fb5 67e4 21f4 2fbf
-0.06498301679219295 -0.15361344825712198 -0.0016826354159695522 0.23649774946322175 -0.14646153622243024 -0.029244432659141346 -0.014922809036765381 0.09838130419440377
0.013759408116570454 -0.04689984521598299 0.08569504976976396 0.08742952946230188 -0.017542378956831955 -0.1885128883957261 -0.1387709709756529 -0.1619995929348727
-0.20328216993793044 -0.10422818757591683 0.05836896503909068 -0.08750611099571816 -0.07589310776480167 -0.06951549200030689 -0.15566855381785982 0.24623549552915294
-0.12298258111955723 -0.08343747314772454 0.027341806163975964 0.21547863391813488 -0.06737542659313604 -0.17179370167870203 0.0267330595450314 -0.31457489913353465
0.00877587846917466 -0.05712316128066168 0.06238946233809397 -0.10254797713064766 -0.20921378843978397 0.03605031720804601 -0.13283067483715394 0.2389557647626144
-0.0004152094171234557 -0.17567387603344242 0.03898227426635505 0.4082229212719037 0.02019650172704682 -0.006731588901408419 0.08168020438542253 -0.06871230690760106
0.0021281113077408513 -0.14734083519497757 0.03899495932715988 -0.06809988740301277 0.032681930372526875 -0.08725566931729596 0.06252863740496915 -0.2965250972691783
-0.0904366369785993 0.017108337394783388 -0.0560660852369835 -0.018265671145544143 -0.04399025268921957 0.002736823709291888 -0.12390796408513272 -0.05514170546525552
-0.021258283750434478 -0.013964804546299212 -0.07019277219277228 0.137486374491242 -0.11263675119049209 0.0002040864949836277 -0.151380886778612 0.29241728147244955
-0.05840324070662814 -0.08680345353778417 -0.0594749745165096 0.10811576580164367 -0.12531793752669118 -0.07270443864316777 0.07637477435835456 0.16045799882396541
-0.03338825472357479 -0.03209069404513371 -0.034427235984894874 0.1469882014442286 -0.17442659763748602 -0.1363548664169147 0.11770454451377874 0.32945053204952884
-0.19120015110388877 -0.1010523427615061 -0.08741456600631245 -0.052909314419130576 -0.1855129134511521 -0.23728062033062924 0.10268371963707558 0.36749346265212235
-0.1375885349138637 -0.19784343575626193 0.08498990205349745 0.01867559998418492 -0.1848178304537434 -0.1560833868743348 -0.09561092640845142 -0.12376565640068594
-0.30165060057530585 -0.1542301524468236 0.01447309167190219 0.0693551953141381 -0.09822768550134701 -0.17110938576145712 0.002065027143982662 -0.0012745204187731018
0.10746649779832446 0.07426986684141021 -0.2256134256697563 0.1113658523650571 -0.03210040707437225 0.06097906823126059 -0.20347373736062838 -0.15823320866989243
0.20764164933182053 0.16399066482750002 -0.351382284876978 -0.019785368886649887 0.11523253379607978 -0.018023586072460147 -0.22403822296348808 0.1340637856085408
0.2152273719485644 -0.026757848867951742 -0.1172464187874093 -0.0022977877886601952 0.20627375301031994 0.15098223173015834 -0.35612372031883865 -0.10104376291630689
-0.023012811221871106 0.0883268305614498 -0.3382177303973913 0.1796088019432602 0.016050157001212515 0.013214359538482134 -0.28191832659947735 -0.11910669842247314
0.14449291958473623 0.140357993883515 -0.31695068551322275 0.06691817430115875 0.1990987512357609 0.06866677595051211 -0.09003157412852777 0.02209017143106545
0.225908446835781 0.1882412209081854 -0.22784658165552935 -0.12204729406207039 0.11991929881218794 0.15478612393988236 -0.2493253018467866 -0.019072538331794647
0.11403366354724388 0.2361741600907391 -0.3433771615166512 0.3085917394401009 0.026479817463348217 0.2345737948515271 -0.18597608780382197 0.028036224566210046
0.011725831168303023 -0.000541785541776595 -0.3451100576918556 0.167550040552574 0.24372338353722056 0.2374972613258915 -0.2774851541097951 -0.23340765481730405
0.1403839110278039 0.26377120325579806 -0.15296828720347627 0.06506592783396487 0.10744416907880404 0.26026431872988437 -0.1519050671682943 -0.021791509631769436
0.11756680323716996 0.09146442133431046 -0.1191041349525236 -0.23411439250039284 0.16682841332648532 0.026905491619020828 -0.13221521271667575 -0.07664966247622024
0.03420548011867834 0.2141159626746762 -0.3500495988273097 -0.03870622628482133 0.243591119691165 0.05745377845976899 -0.14750027015605924 -0.10914381775129561
0.16080849416313658 0.288374790738282 -0.1271773979174667 0.08704033013358241 0.19728696682261765 0.28030863973248 -0.22971957626623296 0.18236079070832095
0.15755314902085737 0.16283778209786076 -0.09221667075645407 0.06410160947222433 0.06797457236342162 0.19228293190271145 -0.15279626958438997 -0.23025907078944108
0.07064709295814409 0.17163829489834637 -0.5853686478542119 -0.2841346254134208 0.03808642230150064 -0.05104108862371145 -0.465719399357147 -0.3011315410627902
0.10305000012572277 0.19000304214230815 -0.16951858967496586 0.11966148463699997 0.12429951113991446 0.11377451447361307 0.08153641933482725 0.15733096385672934
0.1841658566189258 -0.021976980705557873 0.09253209042319255 0.051616123011321596 0.07793887053169929 0.03334688758677031 0.052454606443663225 0.055945070264006566
0.1779007183582376 0.06539396288509611 -0.06471355781206173 0.15450338346308262 0.05860170387511827 -0.034417416470733826 -0.028951849268063105 0.06761601578826294
0.08170731759578662 0.09968910615751947 -0.14455774751290087 0.2715656915445704 0.012629244627083812 -0.034717308929910054 0.05958602689633141 -0.00024378694270358722

lstm.weight_hh_l0 f8 [200, 50]
00000000: 2e42 30c5 5890 d9bf 25b8 119b 5d1f d23f
00000010: 6efc e083 01ba c83f aec4 2bf9 114e b3bf
00000020: c4c2 9b0b 8cee b6bf 2254 072d a10e bbbf
00000030: 9916 10a7 9038 a83f c101 6664 e61e be3f
00000040: 7b30 c4cf 7913 da3f e475 873b de03 b2bf
00000050: a7fd f09d 659e abbf c56a 7222 22a2 bd3f
00000060: e274 1193 3d51 aa3f f957 35d9 8323 9fbf
00000070: 90af 9d1a 1fb4 c4bf f15f 93df 1426 d43f
00000080: b9df 9260 cd50 d23f 7a25 d2f8 90bf d1bf
00000090: 2180 0e0b 654c da3f c6f5 07b9 6029 b83f
000000a0: 93fb e41e 5a5a df3f 3ba4 6aa9 3777 d3bf
000000b0: cda1 133a 7159 e63f f89e 8912 98e7 cc3f
000000c0: b15a 3642 b51d cabf 9e22 01a6 0746 aebf
000000d0: 1939 76b6 1d9a bdbf b943 9b2e 2e08 c5bf
000000e0: e919 1407 0396 d1bf 3586 635e 385f a8bf
000000f0: d288 1552 d187 d33f 1ac0 7215 3586 be3f
00000100: 4256 4f3b 703a a8bf e8cf c5ba c397 b1bf
00000110: 5bbc 73fe 0566 cf3f e638 35cd 28b8 d6bf
00000120: fc7e de64 3340 bd3f 742e a191 28ee c0bf
00000130: 2a46 bc90 c5ee debf 3bc1 9799 7e9c bf3f
00000140: 0127 df51 1bfa e8bf ba08 362a 0b4e d6bf
00000150: b694 7337 05c4 d23f 2b22 68a1 c865 b33f
00000160: 3cad 99dd 2c15 c3bf e6a9 c345 2867 a2bf
00000170: 425b 6f2a 25c1 d53f 3705 5d15 2954 d13f
00000180: dea2 d1b9 104a cdbf e309 4744 0137 cebf
00000190: 6d92 9a6c 0638 b8bf 1995 db10 c636 d03f
000001a0: 18c5 bae2 618f c63f 7a35 699b d1ec a73f
000001b0: cd0c 41b5 c54c 90bf dd82 d3df babb d33f
000001c0: 57c0 a113 fab5 a4bf 36b5 1965 bf97 c9bf
000001d0: 88ef bf2a 9fda c83f ce2d f6fa 139c cf3f
000001e0: 9381 5d92 fe83 d43f 6df9 0cf1 536d b13f
000001f0: e424 da42 b0f6 cd3f a088 0346 d83d c4bf
00000200: d69b 3ec1 6e81 a13f 875f 2f8b c6fa cc3f
00000210: 74fe 8a06 f898 d33f f4e9 ff43 ba5b d3bf
00000220: df0d 2794 e0cf d33f 6064 db09 c22a ad3f
00000230: 7274 5335 63b3 45bf 8f8b 02c1 0850 d63f
00000240: b5b8 0a7f 1be2 a53f 459b 3abf 321b b23f
00000250: 7eff fc5a f166 c9bf 7a61 5742 a984 ac3f
00000260: c9a7 38ce cde7 bcbf d38c 015a 0ca7 c4bf
00000270: e18a 1866 ce2e 94bf 50b3 dc8e 5bfb c13f
00000280: aa29 0080 3c2a c8bf 8313 6f96 3617 b0bf
00000290: 585b 72e1 65f4 d43f 6ce8 c827 4d29 883f
000002a0: 7822 07a8 aeae 81bf d4a0 699b 4f5d b9bf
000002b0: 60d3 39e3 0b3f b3bf c4f9 a962 11a7 b9bf
000002c0: 3bab 5089 4b5c 9c3f c321 b848 df7b bd3f
000002d0: 5cb8 d59a e019 be3f 5d12 f444 fe76 d4bf
000002e0: 7f1c 82f7 bced c9bf 24d8 9565 14a9 d0bf
000002f0: 44c2 c8f6 44a8 c23f a23d f543 ef51 bb3f
00000300: bf0e c922 73fc c03f 8661 7cfb 1f0b c9bf
00000310: 8ff6 7fce 87a1 c6bf e385 1759 4bcb d2bf
00000320: a948 f05b 71dd c4bf 7499 3a6f 1861 b63f
00000330: 8c96 5b7e 924d c73f 018e 7d5b 62c7 c83f
00000340: f0d6 8764 9a24 ab3f b733 7b14 271f 913f
00000350: 1a9b 5e37 b50d c63f 4bec 8222 fd61 753f
00000360: 9e92 c1e1 b38d b53f 4d20 21c2 2511 c63f
00000370: a59b 625d 3323 a6bf 997d a220 3f7d b23f
00000380: 7c12 1fe5 845d bd3f 2510 2125 3430 b73f
00000390: 9330 0c3a cc28 c93f 4b92 5a2f eba8 a43f
000003a0: af59 72a9 4810 b93f 1f22 2297 0c49 82bf
000003b0: 42f6 baa7 3f3b a93f 7637 8952 f555 b9bf
000003c0: f4b8 3a75 1964 d03f 006a c432 d328 cabf
000003d0: 6a91 027d c0f8 b1bf 6cab 43e1 f3ae d93f
000003e0: 06d2 db99 cdcf bc3f 5ef7 0a27 a0db d63f
000003f0: 7b73 9158 254e b93f 6e01 bf83 20a7 86bf
00000400: 8608 53f1 d305 ac3f aa4c a77d 427a 803f
00000410: 283f 8307 c782 b73f 3b68 7380 555c 90bf
00000420: 85c3 c1e1 6766 aebf 3333 cb61 adf4 c1bf
00000430: 81df 9902 72e7 a63f 4e36 017b 0a21 c6bf
00000440: ca0f 89bd 1224 c33f 05a5 67c2 de7b c33f
00000450: f619 69f2 03b6 53bf c5cc 08b9 a65a b5bf
00000460: 3606 ac73 4940 b23f 1727 647f 69ed c5bf
00000470: 57ae 8c75 02b0 c33f 3c2c 09bd b712 c6bf
00000480: 7f64 fe82 44d5 c5bf 6692 6c9d 682a a9bf
00000490: c387 1cc2 eea7 b93f bb7f b820 6640 ca3f
000004a0: 1195 3838 37e1 93bf 72a6 bd8b e726 c7bf
000004b0: b702 437e 3e30 ccbf ce81 d8cf a973 c93f
000004c0: 8385 10e1 4af0 c93f 320d ac0a 2e2d b6bf
000004d0: 6708 111a 2560 a33f ccbd 9521 b106 963f
000004e0: dc1f c248 c1dd b8bf 3d17 93ef 5f50 cabf
000004f0: 0666 5084 a726 d43f ca9c 19c2 33a7 d6bf
00000500: b38d 714e 3d3e 913f 0f27 1b9a 4124 b33f
00000510: c6a0 956d 05ab cc3f 7348 b4a8 818c b8bf
00000520: c3fb 2cfe 67ce d13f d180 1ed2 edde c93f
00000530: da20 36a9 2a93 d03f 247d a6dd efb5 c6bf
00000540: bf07 8c14 043c da3f 7984 3596 2469 b3bf
00000550: cd81 7b9b 6394 b43f 17ac d733 915b 97bf
00000560: c6e7 dd08 6c32 dc3f 9808 5213 be13 db3f
00000570: e686 600f 565c c93f 2f93 f86d 0978 9bbf
00000580: 0801 43dd 6f51 c5bf 9145 7870 d3d9 d3bf
00000590: 372c 5a96 a982 d1bf 5107 a368 8969 a0bf
000005a0: 62c4 59bf b317 85bf f1f3 f7d0 017f 90bf
000005b0: d844 7345 a4b4 c9bf 2be9 6740 3f7d d03f
000005c0: 5db2 9f07 320c d03f 7238 9708 c6e6 cdbf
000005d0: 03e3 7f9c 6efd b53f 024a bae6 fa80 bcbf
000005e0: d9fa 2500 a729 d33f 2653 5cdb 82f9 cf3f
000005f0: 8b58 3ab6 1d2e 9ebf b9e6 7d71 b7fc d9bf
00000600: 8e7a c7d4 4d6e bc3f 8661 a769 ff17 b63f
00000610: d899 867b 4d69 ba3f f2bd 23d9 4eb7 b6bf
00000620: ddb5 ed25 71b5 9b3f 6de5 118b 23d2 b0bf
00000630: 6932 a969 a56f d7bf 7a9b db38 001e c2bf
00000640: 4ba1 814c d8ad c7bf 0b30 4a44 451d c93f
00000650: 0ea1 59a3 6d5f c33f ab60 fdf8 3471 b1bf
00000660: 4fb8 21cf e9e4 74bf 0adf d127 e726 dcbf
00000670: dd40 ab64 95df ba3f 721a aeed fec3 7c3f
00000680: 1847 000e ac6f c8bf b78d e4f0 98e8 b2bf
00000690: 9f05 fd5d 9db6 af3f b003 ae9c 398b c93f
000006a0: 56e3 78dd 4d2b d13f c3ff 908e 5113 b7bf
000006b0: 6851 3d0e b08d c23f 7dab 7cbb 24d6 a2bf
000006c0: 9e86 b26a e67e b53f f02f 1400 8625 d2bf
000006d0: 1060 4ea3 a182 abbf e388 a89a 6946 b83f
000006e0: 9b63 28d3 62fb dabf 88b7 5a98 ba55 b6bf
000006f0: 0918 f875 ee26 b53f d19c a4d9 6996 a8bf
00000700: 915f 07f6 0120 b1bf 9ce1 0bcb 5c3d cbbf
00000710: 52b4 0ba7 c8af 91bf 3082 0287 d36f ba3f
00000720: 4128 be0b ce0e bebf 0b13 dbe1 a99a 7e3f
00000730: 6a28 5b73 b80f d93f 855a d01e 5c18 abbf
00000740: 8767 41bb 7338 c63f c675 3b81 5945 c33f
00000750: d4ba 82f9 805c a63f 0ded 2abc 186c bcbf
00000760: 4545 1ff6 a99d 6dbf dfbb bdc7 bf4b cdbf
00000770: 4a2f d212 a296 b7bf eefe db35 0c92 c53f
00000780: 9bb2 4c84 69fe 9b3f 0b4f 1a70 ce74 c73f
00000790: ca79 4c38 9589 e2bf e535 333e 6da9 bbbf
000007a0: 89b3 95f1 7eae c03f 5e16 6f83 e961 adbf
000007b0: a7ef 44f4 4303 b33f 01c8 e323 14c0 993f
000007c0: 3239 a2f1 bf38 c0bf b3cf 83c7 ee49 b83f
000007d0: a9ab 41af 4582 d6bf 8d86 3957 eb2a ac3f
000007e0: 5426 03ae 47c3 8c3f 2e2b c9c1 1c89 bcbf
000007f0: 84bd f454 5dab b53f 3736 8960 d916 c2bf
-0.3994352269810716 0.283164407191068 0.19317645015141544 -0.07541000684047347 -0.08957743914994426 -0.10569197987872817 0.04730655707684867 0.1176589961160124
0.40743871011432703 -0.07037152245853623 -0.053942847757294125 0.11575520840635097 0.05140106601968754 -0.030408916599604627 -0.16174687194449833 0.31482431253016246
0.2861817782500072 -0.27731727885164725 0.4109127624487901 0.09438137547836964 0.48988965050733063 -0.3041514543970753 0.6984182485876375 0.22581768899112098
-0.20403161747954848 -0.05912803555890388 -0.11563287453302386 -0.1643121459551631 -0.2747809952856231 -0.0476014723988211 0.30516465202357523 0.11923534177435649
-0.047320849647502175 -0.06872199354057751 0.24530100750368686 -0.3549901966079133 0.11426087582230687 -0.13226801977940605 -0.48332347044297086 0.12348166704010037
-0.7805306052261757 -0.3485134041039931 0.293214134361118 0.07577184620471004 -0.149083717540046 -0.035943277851249 0.3399136461643374 0.27076174818292337
-0.228822794658547 -0.23605361780035058 -0.09460487510166056 0.25334312101615947 0.17625068255214482 0.04672865888697238 -0.01591786307131997 0.30833312852887024
-0.040450873276200276 -0.19994347034973153 0.1941718062151916 0.24695062402712015 0.3205563001011111 0.06807446131731405 0.2340908361841577 -0.15813735407488583
0.034190617646622165 0.22640306278367126 0.3062114776512097 -0.30247360840408466 0.3095628210832881 0.05696684236836158 -0.0006622538009214542 0.3486348996031489
0.04274068761638842 0.07072751206088153 -0.1984540647772483 0.055699624393755934 -0.11291204724025684 -0.16134790797068507 -0.019709801656186413 0.14048332668007868
-0.18878895044356386 -0.06285420582487515 0.3274168683650962 0.011797526146541247 -0.008633961203387872 -0.09908006233456784 -0.07518076226717829 -0.10020550402439371
0.02769582772831856 0.11517138982174573 0.11758235721728866 -0.31976277097445466 -0.2025676926170696 -0.26031980438654245 0.14576017427454435 0.10671897324686211
0.13270415495400376 -0.19565200595458182 -0.1768045194912031 -0.2936581010854679 -0.16300789822759512 0.08741905894803442 0.18205481691181935 0.1935847231608108
0.053013634464077586 0.016720400452687047 0.17229333118049156 0.005220402534344147 0.08419346105217548 0.17239829997038428 -0.04323730959850217 0.0722236113237983
0.11470823854240025 0.09057927996133282 0.19655754885059604 0.040351247339718364 0.09790472161180362 -0.00892839275572138 0.04928015635003337 -0.09896786942519306
0.2561095852678499 -0.20437087992543468 -0.07020190288546294 0.4013032626959816 0.11254582411113043 0.35715488255288175 0.09884866154011533 -0.0110609569745754
0.054731963356531785 0.008045691928521077 0.09183925565161799 -0.015977226223960122 -0.059375044162954395 -0.1402794578083558 0.04473453790427496 -0.1728833294495637
0.14953836683900895 0.15221771709847345 -0.0012030638259986604 -0.08341447846833024 0.07129344057104778 -0.171307742312188 0.153808886906847 -0.1724462197329063
-0.17057091137101918 -0.04915167733841912 0.10021869887398709 0.205090299584297 -0.01941381722112562 -0.18087477038652683 -0.22022229352116593 0.19884226464001958
0.2026456450412689 -0.08662688980625857 0.03784290259547234 0.021509902644025122 -0.09713371301961565 -0.20557784269311155 0.31485927506727795 -0.35395521121104123
0.016838987267318205 0.07477197658877464 0.22396915293507486 -0.0958939587474406 0.27822303602073023 0.20211575278972885 0.2589823391395051 -0.17742727587481355
0.409913082185195 -0.07582310359204482 0.08038923784216152 -0.022810238637173876 0.4405775152769106 0.4230799854923446 0.19813037634690217 -0.02682509168348018
-0.16654775909228925 -0.31017003997211484 -0.2736000030788008 -0.03205518152527865 -0.010299114491518494 -0.016109493617467 -0.2008252467262881 0.2576444748844035
0.2507443499041864 -0.23360515040843982 0.08589831658163054 -0.11134307988167083 0.29941725744712994 0.24980197630852635 -0.029472793814953973 -0.40604959567245263
0.11105810589604401 0.0863036759323049 0.10316929116979823 -0.08873455811748679 0.02705933374402557 -0.0657064642454281 -0.3661893398137069 -0.1415405538202455
-0.1849928258482215 0.19620576700651812 0.15134973980026029 -0.06813365057803604 -0.0051011212509433764 -0.43987444771436 0.10497411449182743 0.007022853674135564
-0.1909079616894409 -0.0738616550557286 0.06194011471098836 0.19956131124857057 0.2682680762114179 -0.09013852816224159 0.14494896598138074 -0.036790035139651935
0.08396759133258988 -0.2835402489442904 -0.05373101347430531 0.09482440973127697 -0.42159338589549983 -0.08724561900700512 0.08262529735665693 -0.04802256376052017
-0.0668946481376891 -0.21281013407111693 -0.017272124477063784 0.10326883360040351 -0.11741340433778281 0.007471717455420866 0.39158450379603116 -0.05292022586961757
0.17359778064092898 0.1505538826958583 0.04367449804100479 -0.11102442354142657 -0.003615219074142447 -0.22887418034539928 -0.09214222869394209 0.1685195219979429
0.027337692928244377 0.183252148378067 -0.5792947864136349 -0.10805399673991863 0.13032519146090873 -0.05738763551157143 0.07426857675176156 0.025146784487283472
-0.12673186586875712 0.09487812396019883 -0.3517011844148166 0.05501494827036622 0.0140443420390454 -0.11146716815089228 0.08464606594201568 -0.14132230008765287

lstm.bias_ih_l0 f8 [200]
00000000: 4b18 c5f3 7f68 d43f 430c 01c8 5934 9b3f
00000010: 4d1e 3a61 ff03 bb3f 0c8e 0c9d 5102 c53f
00000020: 065e 9eb7 e024 bd3f 394a cdfd 36f0 d03f
00000030: a58d 3078 31e0 ab3f 56c5 9b9a 5f36 bfbf
00000040: aa15 3ac6 07f2 b93f 741f b94d db46 c83f
00000050: 9693 6a38 d8e9 b3bf 65ee c654 abc9 c83f
00000060: 16c9 66c7 e892 d23f 15f3 f59f 9ccf b7bf
00000070: cd6e ab2b b7e3 c03f cae3 f6e7 ced5 c13f
00000080: fe7c 9ef1 1142 d43f c28d c701 fbe1 d03f
00000090: 0d3e 1f6d 3d5a bb3f a2e8 a3a7 613f cc3f
000000a0: 7901 4549 2016 be3f 4d28 9574 121d a2bf
000000b0: 4a03 340b 1c88 65bf c10f 36d2 e250 d1bf
000000c0: 0a94 ac07 eba9 a4bf b4da b020 4c22 cf3f
000000d0: 4cdb bb3b d1ce cb3f bce7 360c 3972 b23f
000000e0: 8332 ca25 91b5 b0bf 4f4b a6d7 bede 7b3f
000000f0: ce9b 1b1f d3ae d13f 691b 77ba 7338 d13f
00000100: fd60 409a d957 c03f 8843 9338 ba62 cc3f
00000110: 474a 3df0 94c5 d53f d6f0 9f4b d97c c23f
00000120: 96cf 9f0b b20d d33f bb73 1118 b4a8 98bf
00000130: 667b de47 d614 d23f dc62 e77a 4ce5 b63f
00000140: eda5 5acb c481 be3f 7194 9d03 1210 a83f
00000150: 50ed 7f0e 8e2f cabf 64cc 7b6a c486 bc3f
00000160: f20e 2c2e ce83 ca3f e673 4508 65d9 b23f
00000170: 8ea7 d7b8 c4f1 8a3f d1d4 12aa 9863 af3f
00000180: 3694 ff6b 1cec d53f d14c 4353 5eb1 cd3f
00000190: 43e1 f92f c646 a1bf f6d3 ed07 4a38 c43f
000001a0: 418e 73bb e03e a23f c3a7 cd60 5b41 bfbf
000001b0: e717 e230 f518 cabf f04a 7d7f 6ff7 c33f
000001c0: b79d 6ac7 21f6 b2bf 0f96 15bf eb59 b9bf
000001d0: 6961 d276 8c5c 8dbf 62fe da99 f9fe b5bf
000001e0: 569a 8f0f 772f c3bf 5968 702e a25b bebf
000001f0: 3a8c f821 f7c4 a73f c1f9 be71 91f0 983f
00000200: 9d8f a985 e352 82bf 7aa1 1d50 0267 a33f
00000210: 6c62 a45d f1db c4bf cd6a 1bb0 fae3 ccbf
00000220: ebef 1501 2609 dc3f b86d 2632 7b4c cdbf
00000230: 9f6f 3924 bad2 c03f 69d6 b341 8aec b53f
00000240: c349 0c5c af0c d63f 80c3 960e a080 e03f
00000250: 0efa 6cae 4d04 7bbf 051d 8f09 bc85 d13f
00000260: a455 c11a dded bbbf d4da 750a 9827 94bf
00000270: 50c2 0c99 cc8f bfbf d2b6 7bc8 902a a13f
00000280: 6b0f 9b65 1465 afbf 61f9 4e5c 57f2 d43f
00000290: 4430 7e1b 3b7a c73f 6ff3 0cbe 45a6 b33f
000002a0: a36d 5cee ed61 c3bf 209a 6439 e954 a5bf
000002b0: da27 6c63 b77c ac3f 0bbe 28a5 42dc 9abf
000002c0: a2b3 000f fc8a babf 92fd be88 e550 a2bf
000002d0: 6b65 c7da 14ef b33f 25f6 b6f8 46cf ba3f
000002e0: b38c c1a8 4067 d13f f883 63a2 b749 c33f
000002f0: 1fac 564a a462 b43f 6a3f f0e8 5803 c53f
00000300: 9d0e cd1a 1929 c93f a2e0 e4e6 10fb 70bf
00000310: 8d71 cf25 3e5a aa3f 1fb3 3515 f42c 683f
00000320: c096 1460 908a b1bf 903a c842 a11c bcbf
00000330: 5838 3491 2a75 8f3f 9770 0a9d 31ac b6bf
00000340: 8a08 440f 692c a03f f26d e51b 4d7a b2bf
00000350: 658d f85e 6ca6 ca3f 9847 3b56 01a8 c83f
00000360: 7396 0f11 2608 ae3f b2d7 aa32 086c b43f
00000370: fcec ccd5 bcdc a7bf 9c88 3662 5b4b a63f
00000380: fa92 6515 b66a 883f abd3 dccc 4346 ba3f
00000390: b3d7 8391 f46d b93f b85e da6b 3b4e b53f
000003a0: 6e7f 62c0 88dd c33f 2de7 5f36 c09d b83f
000003b0: fa3b 706b f4f0 c43f 6e41 3e1b 256b c83f
000003c0: 66cb d9d7 5716 c03f 4d12 e8bb f754 d1bf
000003d0: 0ce8 45ef 891b 8fbf 9537 81df b44f aa3f
000003e0: 1457 de3a 1245 c73f e5f9 0f72 6ab7 a8bf
000003f0: cae6 d5dd dd5c cdbf 5595 88e4 f727 c5bf
00000400: ac2a 35f0 d3f6 9bbf cc2e fa62 b42e bebf
00000410: bc5e cadb 8341 50bf 79e8 a740 2a3d 99bf
00000420: 67bb 8ada 8eeb b8bf 534d 35ae 861b c03f
00000430: aa60 9424 08e6 97bf 82e4 b75e 400d b2bf
00000440: c520 724e 19a4 cb3f 8159 6176 8107 c63f
00000450: e3a0 e0d9 4f3d dbbf 8d17 a07f 28ce c53f
00000460: 36a9 e696 60ea d5bf 5e9f b1b8 7357 cd3f
00000470: 2b3b 6bef 726c a63f 0e10 5a17 652f b83f
00000480: beea 51df 6131 94bf f6fe 67d9 5f43 c53f
00000490: ac9e 23f6 7f6c 9e3f 6385 8a9e 7f3c b23f
000004a0: 7837 25af 06c2 b1bf 415c 8fc8 1465 c4bf
000004b0: da92 4257 e834 d33f f27f a205 8801 c33f
000004c0: d1a6 43c9 14d9 95bf 5477 ccfb d8d4 c43f
000004d0: 6291 6fda 309f c13f 05fe 996a 535f b83f
000004e0: 1668 9c9a 2d78 cfbf 34a3 f431 97df d13f
000004f0: 774c d8d5 cb55 c43f 045a 7dcd 83a8 b1bf
00000500: cb46 d91c 93a6 cbbf 5cdc 0524 a552 cd3f
00000510: f892 3865 32d0 ca3f d052 9f6a db43 bd3f
00000520: a695 e1c7 5310 ce3f e579 c541 12a4 b43f
00000530: 5659 c5f5 d172 d53f 73be 9e22 4f3a c33f
00000540: aabe d4f5 43ea d43f 5ec2 a1a3 493a d0bf
00000550: d0e7 343c 208e d53f 4011 909c 572f 67bf
00000560: 7f57 8b4e 5ae5 d83f 66b8 dce1 580a cc3f
00000570: cc7a 3ce9 bcbf c83f 4b92 9056 7b34 d93f
00000580: 19ce 50fa cf34 c03f 29ee c9db 14e0 c93f
00000590: e2e9 da73 ef4e bbbf 484d a9e4 65e3 c73f
000005a0: 84f0 f60f 363e d33f 5648 073e 698b c73f
000005b0: 9917 73c2 8664 bb3f d35e 8eb5 6178 cb3f
000005c0: 6cc0 c0d2 599b bf3f f15c bb88 13d0 99bf
000005d0: 668d 821d 1cae d03f 7e5b 4733 d8b7 d43f
000005e0: cbab 55b4 31f1 d13f 092f a639 cf08 ba3f
000005f0: 1807 5cfa a0d4 d43f 7158 6a70 c341 d43f
00000600: 351c 1291 8315 cf3f f050 6744 a94c af3f
00000610: c3cd 6a58 48ef d03f 5d6c ffed 2c23 cc3f
00000620: d3c5 1b72 b7c8 cf3f 6ff6 92d7 dd60 d23f
00000630: 66e6 6985 0c18 b43f c6bd 50dd 7f1b dc3f
0.3188781624379586 0.0265668896029292 0.105529748189036 0.1641332642403629 0.11384396059872168 0.2646615484747233 0.0544448336807151 -0.12192342304822054
0.10134934033893353 0.18966237349581727 -0.0777869355902808 0.19365445746904011 0.29021663162997535 -0.0930116549042846 0.13194932586963262 0.13933740927111976
0.3165325984536621 0.26379275487689935 0.10684570230591124 0.22068424878654463 0.11752511776740517 -0.035378052455215504 -0.0026283786515936313 -0.27056189087329235
-0.040358872114929126 0.24323417278511317 0.21724906365099128 0.07205540226178092 -0.06527049229243613 0.006804223516513399 0.2762954524791298 0.26907056054590456
0.12768096954165023 0.22176292192900982 0.3401844354713472 0.14443508331885963 0.297710906364267 -0.024081052750591896 0.2825217916342154 0.08943632126409845
0.11916761364650315 0.04699760717520796 -0.2045762606429471 0.1114313850373932 0.2071473813485834 0.07362967922149685 0.013156449213926693 0.06130673481076488
0.3425360731765211 0.23197535577364772 -0.033743089062172625 0.15796780955466233 0.035635970003366164 -0.12209101785052127 -0.20388665091394317 0.15598863339490476
-0.07406817549291743 -0.09902833380837016 -0.014336678863671808 -0.08592185980068615 -0.14988601932346296 -0.11858571656958485 0.046424601456486816 0.024355194633011615
-0.00894716025977243 0.037895271568063785 -0.16296212265367005 -0.22570737456302084 0.43805837732338543 -0.2288965220330803 0.1314308812023883 0.08564056495728213
0.3445242308527236 0.5157013211192947 -0.006595900957846469 0.2737875073766676 -0.10909826186374133 -0.019682288778734527 -0.12328795181816443 0.03352787444405937
-0.061318051722564736 0.32729133619786493 0.18341769068172387 0.07675586595446558 -0.15142606867526096 -0.04166344476316319 0.055639010321172314 -0.026230851488604084
-0.10368323675420624 -0.03577344221366298 0.07786684361726308 0.10472529956947392 0.2719270370491344 0.15068717412125898 0.07963015379816384 0.16416465162228217
0.1965667134155539 -0.004145685218013425 0.05146974765350185 0.002951122974698697 -0.06852056832993991 -0.10981185799048832 0.015360195690416287 -0.08856496891025
0.031588824380393524 -0.07217866831836497 0.20820383679629653 0.19262711248898934 0.058655919630649665 0.07977343785282079 -0.046605969523136864 0.04354367803468159
0.011922285583474846 0.10263465644386709 0.09933403542149115 0.08322497733240197 0.15519818681513747 0.09615708663468743 0.1636033558465611 0.19076980428918539
0.12568185844028362 -0.2708110175156307 -0.015189244856390637 0.051389362605376444 0.18179538607062595 -0.048274351524003646 -0.22939656574071982 -0.16528223666061118
-0.027308761154282976 -0.11790015617787758 -0.0009921825104920864 -0.024647388645441446 -0.09734433017250198 0.12584002977619466 -0.023338439209596253 -0.07051470100840798
0.2159453995739168 0.1721040561703369 -0.4256171825131913 0.17035394889552116 -0.3424302552836197 0.2292313243699437 0.043796149946152184 0.09447318859207618
-0.019719628577585573 0.16611860385454918 0.02971076907934271 0.07123563404686233 -0.06936685348520466 -0.15933475296944447 0.30010422250260904 0.14848423266539573
-0.021335911544986545 0.1627455930219478 0.1376706186848749 0.09520455696655723 -0.24585504578936995 0.2792718875739866 0.15886829320570303 -0.06897758261525416
-0.21602095516805372 0.22908462771349292 0.20947866384917524 0.1143166671093454 0.23487326869796482 0.08062852960345131 0.3351330661875144 0.15021695318636183
0.3267984295552916 -0.2535575960128308 0.3367996776538549 -0.002830191723207559 0.3889985816034524 0.219065771374008 0.19335137737740238 0.3938282342299188
0.1266117069477424 0.20215092403292204 -0.1066732080316011 0.18662713685135146 0.3006720691589708 0.18394198921902455 0.1070026612024705 0.2146112572197497
0.12346421618781428 -0.025207810612155993 0.26062682039101615 0.3237209797638839 0.28034632311635893 0.10169692189645842 0.32547783326309476 0.31651388147418574
0.24284405311138504 0.061131753540083156 0.2646046508263817 0.2198234712694526 0.24831288406089289 0.2871622662749819 0.0784919572560284 0.43917843449432004

lstm.bias_hh_l0 f8 [200]
00000000: 2161 140f 2a5b b93f 8921 0001 8f03 c23f
00000010: 2a0f 9d90 68ad c53f 1b1c d987 6124 b63f
00000020: 8097 e75d d1bd d03f 6994 9a7b 09d9 cb3f
00000030: 6e23 0ce2 9a98 c23f 51c5 9bda 5e98 bbbf
00000040: 22f5 e2dc 26ad c2bf 771f b93d 6d8d cb3f
00000050: e5d8 2a4b 342f ad3f bedc 8dc9 ddaa ba3f
00000060: 9448 367b d7cb a13f d998 afff 1566 8bbf
00000070: 6cb7 d54d 08bb d43f c8e3 76d8 02df c13f
00000080: fa7c 9e95 fe22 d53f c38d 87bf 5482 d13f
00000090: 85cf 4703 a84c d03f 47d1 4777 3c79 bc3f
000000a0: 8001 4599 f6b6 bf3f 8daf d596 83e4 963f
000000b0: 7280 6681 3f2a 96bf 861f 6cdc 3c83 c1bf
000000c0: 8a82 92f5 feca 51bf b6da b060 6403 c83f
000000d0: a5ed dd95 d523 d83f bee7 364c 93f6 b93f
000000e0: 8f32 ca65 52a9 b7bf b864 7ab7 6a66 b43f
000000f0: a537 3736 1e43 c23f a36d dc49 d682 bd3f
00000100: f860 8014 3210 cd3f 8643 9340 9624 cf3f
00000110: 8f94 7ad0 0d01 c03f d8f0 9fa5 4793 c73f
00000120: 309f 3f5f 3c05 cc3f e85c 0426 8444 b3bf
00000130: ccf6 bc0f c761 c33f 73b1 73a5 f9b4 c83f
00000140: f452 adad 8a52 c93f 91b2 7348 1af3 d23f
00000150: 4eed 7fae 9b81 c6bf 66cc 7baa 14db b33f
00000160: ec1d 58fc ab48 bd3f e573 45e8 464d bd3f
00000170: 7c7a 8ddb 5b4b c43f aea9 2554 ebd2 913f
00000180: 3494 ffb2 d427 d03f 64a6 a1e1 c7b5 d03f
00000190: b187 01c4 4a3a c33f 1558 2490 6542 b4bf
000001a0: 65e3 1811 8bf6 99bf c0a7 cdfc ddb5 b0bf
000001b0: e817 c26a 4ff9 c5bf 0151 2b88 260e 87bf
000001c0: b69d 6a4f 2853 bfbf fa69 ea60 8d80 b33f
000001d0: e9d9 9248 553c c93f 9801 25c6 9010 bb3f
000001e0: a796 c181 ea46 a23f af97 8f91 9fb0 b33f
000001f0: 2346 fcb0 63e5 be3f 1d83 206f a11f aabf
00000200: 998f a985 c192 8fbf 6568 072c 90ab c53f
00000210: dac4 48db 6ea2 babf ca6a 1bd0 02e0 c6bf
00000220: e8ef 1591 afa9 df3f b76d 2612 2b31 c8bf
00000230: d7b7 1cea 6546 d13f a559 cfe6 47c5 9e3f
00000240: 8693 1888 374e c53f fd86 2d9b 8c47 d73f
00000250: d867 73bd 9dae cabf 0974 3c26 bf15 bb3f
00000260: a555 c19a ccde b8bf 4a89 629d c5ec bf3f
00000270: 2561 86dc ee7e c0bf b3ed 1eb2 c5d9 c63f
00000280: 933d 6c16 fc54 8fbf b7f2 9de8 6c19 c23f
00000290: 19c1 f8ad ca9d ac3f 70f3 0c52 a07e b83f
000002a0: be24 4783 1c8f b43f c765 9b5e 199a aa3f
000002b0: e113 b691 dfc1 ba3f 7cd0 b566 f07d b63f
000002c0: d659 80df 0b66 c3bf bf7e 5f44 b1c5 b2bf
000002d0: 9b9a 3805 1bf3 b0bf 8cbd 2dd8 3068 d13f
000002e0: b48c c17c 5140 d03f 30f0 71b6 bbd9 a2bf
000002f0: f8a9 d49a 7d2c c1bf 5802 3fdc 2cbc a2bf
00000300: 9d0e cdfa c57e ca3f 164e 6ece f1fa babf
00000310: ff1c 61e6 299b 9abf 6352 560f e74a bfbf
00000320: 624b 0a68 ffe7 c0bf 923a c862 5ff2 b8bf
00000330: 0987 2652 33e1 b63f 5138 85ae 1123 ccbf
00000340: bdfb 5da8 9b95 b5bf 795b f99e 2b21 d0bf
00000350: 628d 38aa 9944 c53f 9847 3b26 6509 c83f
00000360: a0e5 434c 5b00 c13f bf84 5255 f440 7ebf
00000370: 8076 e66a 8811 b7bf 26a2 8db8 c8a1 c13f
00000380: 489b a6ca 1af4 afbf add3 dc2c 824a b93f
00000390: 3214 3ec7 6ff9 c0bf 4fa1 2524 0656 b3bf
000003a0: ecfe c420 9e51 bf3f 59ce bf0c e62d a63f
000003b0: f93b 703b 00d6 c43f 6741 3e73 cfb2 c13f
000003c0: 8e60 cbd9 8701 413f 4d12 e823 bf20 d9bf
000003d0: 805e f446 a17e c7bf 3c6f 027f 5d4e 9e3f
000003e0: 2eae bc75 5c8c b43f 73fe 83e4 e7d4 c8bf
000003f0: cae6 d585 ffd2 c5bf 5195 88c4 d7c0 cabf
00000400: 964a 0d0c 85b1 babf 6717 7d51 b2da c5bf
00000410: 0153 de1e 9cce a7bf da05 5627 01b4 b33f
00000420: 5089 ea6a 57b8 a63f 8aa4 a61a 117a 583f
00000430: d9e7 dac6 3f16 b53f 0f6e 2015 e2a7 913f
00000440: 8f41 e43c b7c2 b03f f7b2 c2ec c684 bd3f
00000450: e3a0 e001 7bcd d7bf 9017 a0ff 5e6c c23f
00000460: 34a9 e615 bc64 dcbf 5e9f b1b8 11bb ce3f
00000470: 959d b52f 2617 b23f 0484 d675 3e8f d23f
00000480: b37a d477 fc07 b1bf f5fe 6759 f8aa c63f
00000490: 9c30 ee6c 1143 a9bf cb0a 15bd 135e a83f
000004a0: c39b 929f 18c5 c9bf 1cae 477c 15dc d7bf
000004b0: d492 4263 054c d13f dcff 44d3 b5d4 b43f
000004c0: ad2c 5e9b 5855 a63f 5577 cc1b e4f8 c33f
000004d0: 7845 be89 308e ad3f f9fe 4cd5 4c46 c33f
000004e0: 37d0 3815 12ab b3bf c98c d2a7 8583 b43f
000004f0: 764c d805 39e6 c03f 02a6 82f2 5f6b bc3f
00000500: c946 d9dc 2295 c6bf 27ee 0298 6a40 d43f
00000510: ee25 717a eb33 b13f 464b 7d2a 3255 9c3f
00000520: a495 e1a7 49c5 c93f a5e7 150f 479d 973f
00000530: 5759 c545 0265 d23f 74be 9e36 a66e ce3f
00000540: 507d a937 2518 c53f 6f09 8706 1414 bbbf
00000550: cfe7 34db 15e8 d33f 9ef7 b731 44ad 703f
00000560: 7e57 8bf6 dddb d83f 68b8 dc91 f06c c73f
00000570: 9ef5 7872 bad8 be3f 4892 10c3 f85e d93f
00000580: 19ce 503e 03ca ce3f 15f7 e425 013f d23f
00000590: 2016 250c 9032 b53f 484d a900 1cd0 ce3f
000005a0: 87f0 f653 4ab6 d53f 32a4 03d9 291a d13f
000005b0: c78b 398f af80 c93f 622f c77e 0f38 d23f
000005c0: 3860 608b d0d1 c83f 6494 e8ce d079 c73f
000005d0: 668d 82f1 8296 d33f df6d 1dcd a425 be3f
000005e0: 9b57 ab38 f03b cc3f 8717 d3a8 5d95 c23f
000005f0: 1807 5c3e 9587 d83f 7158 6a5c a635 d53f
00000600: 1f0e 8978 f20a d23f 23ea 8cd8 820a d53f
00000610: c2cd 6a26 6d8c d73f 5e6c 7fc1 04ac c53f
00000620: a08b 37d4 ebb1 b03f b9d9 4b5e 8a4b b63f
00000630: 9919 96aa 0e7c b4bf c8bd 5029 99a5 d93f
0.09904730671076269 0.14073360012868033 0.16935450612265274 0.08649262968639031 0.2615855614698077 0.21756094489424818 0.14528213536712137 -0.10779373967286189
-0.14590917382694452 0.21525350107026117 0.05700076501436672 0.10416971369510272 0.03475831393292697 -0.013378307214179251 0.3239155540567171 0.1396182591395514
0.3302608929752321 0.273579775848898 0.2546787292515023 0.11122491752741324 0.12388554803783869 0.022356086808414544 -0.021645538590405917 -0.1368175579339061
-0.0010859956585493069 0.18760351868850983 0.3771871532005327 0.10141869173722193 -0.09242739663222664 0.07968775729604516 0.14267327925921083 0.11527766516922226
0.22705675126122293 0.24330404427612623 0.1250321643794092 0.18418212496897612 0.21890978480154777 -0.07526422432089286 0.15142143505538852 0.19302292422015518
0.1978314731628853 0.29608780932793716 -0.17583032627576717 0.07756165659138645 0.11439013396022063 0.11446040316282298 0.15854976864189385 0.017406155596668853
0.2524310825377285 0.26109501871414964 0.1502164322910722 -0.07913813370791474 -0.025354550283938865 -0.06527507230717244 -0.17167084420014977 -0.011257458715967507
-0.1223626321685661 0.07618030181985339 0.1971537212718453 0.10572151982797207 0.03569729646623659 0.07691380790455925 0.12068770476278039 -0.05102257234125871
-0.015416633502532128 0.16929819249964165 -0.10404103139514423 -0.17871127282599836 0.4947317997791729 -0.18900049577938002 0.26992175924794765 0.03004944177868087
0.16644949097931433 0.36374201921545063 -0.2084538626721144 0.10580057796001098 -0.09714964655116505 0.12470660297780004 -0.12887368934458113 0.17852088162713428
-0.015298814234056468 0.14140092237712107 0.055891355263499594 0.09568216326893064 0.08030870633151019 0.051956932829579076 0.1045207720508894 0.08785917766164347
-0.1515517083468711 -0.0733290473867738 -0.06620949628323063 0.27198430167387566 0.2539256780930359 -0.03681742288696943 -0.13417024669736555 -0.03659191311408411
0.20699381586211 -0.1053916100484503 -0.025982527433623833 -0.12223667263453701 -0.13208000736320985 -0.09744831239388876 0.08937378650309936 -0.2198202230596871
-0.08431408749127818 -0.2520245602112748 0.1661560135990881 0.18778671614432763 0.13282338355911083 -0.007386164118686255 -0.09011128053540496 0.13774975787534166
-0.062409245717665984 0.09879315943983498 -0.13261220196378215 -0.07553137190337121 0.12233913707768423 0.04331892877226257 0.1627807893969189 0.1382693588934771
0.0005189812978541196 -0.39262369638916966 -0.18355194058016266 0.029595814587636257 0.08026674150885846 -0.19399737031925532 -0.17050165209712126 -0.20901009651530925
-0.10427123588787376 -0.17073658923089427 -0.04649818302929099 0.07696540079452721 0.04437516384247664 0.0014939467460897437 0.08237074475155683 0.017241985835523773
0.06547112690555522 0.11530726700102521 -0.37191653426499566 0.14393222314555176 -0.4436483587147848 0.24008389967206772 0.0706657282331576 0.28999291904079905
-0.06652810979401629 0.17709259381808065 -0.049339813754245315 0.04759275134212756 -0.2013273982203981 -0.3728078569099311 0.27026495641102355 0.08137070091197479
0.04361988922672686 0.15603305203779408 0.0577254455703366 0.15058288970066494 -0.0768290807544084 0.08013186785915417 0.13202584062000583 0.11101340933478102
-0.1764262750971766 0.3164316639410764 0.0671984838419559 0.02766874679884814 0.20133324334453306 0.02306090383124339 0.28741509259761727 0.23775174777027852
0.1647993585383838 -0.10577511939394467 0.31104036719227407 0.0040714896999797506 0.3884196193370072 0.1830120765893668 0.12049451155413357 0.3964216141633057
0.24053993742710203 0.2850954885542348 0.08280277534967029 0.24072599441806575 0.3392511196104881 0.26722189133448915 0.19923967831991105 0.28467166309996206
0.19390303426257716 0.18340501883463667 0.3060614927764703 0.1177618981141033 0.22057917372756894 0.14518328421962343 0.3832753285388306 0.3313995268339403
0.2819181611159553 0.32876654765610364 0.36794594527892965 0.1693120903790683 0.06521486216619943 0.08709015657573262 -0.08001796402650142 0.40073231730181336

linear.weight f8 [2, 50]
00000000: f073 cb31 6a63 d9bf 42c8 1ca6 7967 c7bf
00000010: fc3d e05a 7ad9 cb3f 45a4 1f2a 5885 cd3f
00000020: 0b82 92df 4fbe cabf 55ac 7a68 58d0 d53f
00000030: fffb 37b6 9951 943f 1490 79fa 9f00 c8bf
00000040: 1791 901d cc04 d53f c70f c922 eb8d c7bf
00000050: 8027 9893 3cf7 84bf d6c0 f550 bfde cfbf
00000060: cfb1 1176 0827 c2bf 8594 ca9a fc6b c33f
00000070: 7751 d0e0 750b cf3f 540c 76ab 538b c63f
00000080: e9c4 b2b0 422f d73f 3133 abda a1fb bfbf
00000090: 985f 4bfc 7bc6 d73f 613e d4b7 bede a0bf
000000a0: e5f3 de1d 3331 c53f 8ebe f783 b778 d03f
000000b0: 1e49 c11a 3d70 d53f 2407 2c31 e5d8 ca3f
000000c0: 57a5 b5ce 4c81 d6bf 3475 4960 895c e23f
000000d0: a458 0ce1 38b5 9c3f 54fb 1d8f 0579 dabf
000000e0: bc0e 4b32 1746 923f bc79 8515 e3cf cfbf
000000f0: 5651 cf20 35ff d03f 909c 942b 90b3 d13f
00000100: 7e49 ce77 d014 d13f e6d8 bf17 bb80 cc3f
00000110: a3e7 a1af 335f b6bf a84c 4b35 dfe3 d0bf
00000120: a443 1453 eabc c83f 036f 6673 e7ef cf3f
00000130: ffdd bede 3dd2 d03f 1d11 f4b3 c3e0 c0bf
00000140: b912 1ef7 0358 d53f 26f2 b6a3 a78a d8bf
00000150: 99aa 278a 5093 d63f c13e 03e9 a04c da3f
00000160: d742 2c39 15f3 d13f 8a3e 8cd7 639f b0bf
00000170: 2d5f c729 7f1d d03f 190a f836 83fd b3bf
00000180: f063 b4da 53ca c2bf 976a 0673 231f c93f
00000190: e4e7 9673 76a9 c93f 1f64 0e87 2a60 d13f
000001a0: a4df 03ae 99ef 87bf 1891 7e28 8020 a6bf
000001b0: 1182 92cf 9744 c63f b158 f5d0 77a2 c1bf
000001c0: db01 e434 0da9 a63f 0e90 791a 87d6 c33f
000001d0: 3b22 215b 0d17 c4bf 3481 b769 8749 94bf
000001e0: cf13 cc89 16ba 933f ddc0 f5c0 d44c ce3f
000001f0: e9d8 0813 5c46 d53f 8894 ca93 6ccb c9bf
00000200: 8051 d070 a8bd cbbf 9c18 ecc6 0cad b2bf
00000210: e7c4 b2d4 5b7d d0bf 9899 55ad 3045 c73f
00000220: 995f 4bdc 7f1f d7bf c67c a82b 97c3 943f
00000230: f179 ef96 cb66 dabf 217d 6f63 c241 c9bf
00000240: 1e49 c196 f8a8 d7bf 9603 9660 eefb dabf
00000250: 5e95 d6da 9536 bf3f 66ea 9270 4006 d6bf
00000260: 3516 43c8 71b5 b2bf 92f6 3b4e ac1c c83f
00000270: e161 49ee 7f5f c8bf 69ce 2bac 2391 953f
00000280: 5651 cf28 a56e d3bf 969c 943b 82c0 d2bf
00000290: 0c26 39af b863 b4bf f4d8 bf0e 3a81 c4bf
000002a0: e1f3 d0e1 e9bd c53f a94c 4b85 416f d03f
000002b0: a143 1497 d729 cebf 076f 66eb 6abb c4bf
000002c0: f577 fbfa b459 babf 2211 f467 a4ac cd3f
000002d0: b712 1eef 26a9 d4bf 28f2 b62d 9187 df3f
000002e0: 3a55 4f00 6b5d cebf c03e 0329 4ab0 d7bf
000002f0: db42 2cfd b8c0 dabf e1e9 c3f8 69d9 7e3f
00000300: 5fbe 8eab 6a14 c9bf 0a05 3c0c a418 c93f
00000310: 4770 2e15 2001 a4bf 996a 86f6 bb58 c6bf
-0.3966927992130982 -0.18284531222303896 0.2175744003038601 0.2306318479234354 -0.20893286148658805 0.3408413906387911 0.01984253096270194 -0.18751907091348186
0.3284178055494222 -0.18401850889688218 -0.010237191442701521 -0.24898520901797977 -0.14181619420140953 0.1517329936806712 0.24253724553330944 0.1761269175732162
0.3622595525331023 -0.12493335331528212 0.3714895213902252 -0.0329494094277123 0.16556395491161804 0.25736797225452157 0.3349755059508811 0.20974411869979648
-0.3516418474815359 0.5737959747890842 0.0280350577696359 -0.41363657928734665 0.017845499462750367 -0.24853170920228063 0.26557663158498224 0.2765846658316571
0.2668954057673075 0.22267855319632374 -0.08739016569043527 -0.26390819744592386 0.19326523834800213 0.24950879225513498 0.2628321337938075 -0.13185926710878784
0.33349703915181866 -0.3834628199363429 0.35274137012189893 0.41092703585762186 0.2804616030053188 -0.06493209850691009 0.25180033760033177 -0.0780870446397234
-0.14679954699457154 0.19626277080972862 0.20048409122483613 0.27149451436122435 -0.011687470076580393 -0.0432167100364344 0.17396829257360527 -0.1377706308655369
0.04425851126325472 0.1549843673011541 -0.15695349645308618 -0.01981174071068033 0.019264557037803883 0.2367196981608747 0.33241941317409257 -0.20152051178334696
-0.2167254019592626 -0.07295303207874543 -0.25765128871269244 0.1817990156516316 -0.36129757416846925 0.020277368583376164 -0.41252412547865364 -0.1973193154835622
-0.36968817445917235 -0.4216266577932911 0.12192665665368937 -0.34413157456916676 -0.07308112277231589 0.1883750326159555 -0.19041442046251603 0.021061475165835484
-0.3036282442601722 -0.2929997999039612 -0.07964662816916518 -0.1601936885851455 0.16985820318396264 0.25679052369123184 -0.23565192105209312 -0.16196953291079572
-0.10293131949899233 0.23183112216805407 -0.3228242240077565 0.492649359362789 -0.23722589030391267 -0.37013486867088474 -0.4180128548041872 0.00753156085215287
-0.19593556763492168 0.19606447789559694 -0.03907108553468724 -0.17458295380932468

linear.bias f8 [2]
00000000: 5771 52ce 9f49 8cbf 08e3 a41c 1295 773f
-0.013812302097271951 0.005757399320196262
