AIModels/trainedModels/contactDetection/trainedModel_01_24_2024_11:18:01.pth (torch, 794735 bytes, 18 tensors)

lstm.weight_ih_l0 f8 [200, 112]
000000 72 c4 cb a2 84 61 7f bf e7 3e 9d cc 2d ce b1 bf
       -0.007661359891003904 -0.06955229039635534
000010 4a 27 3e 39 37 d0 95 3f d9 7e b4 b8 16 bc b4 3f
       0.021302092427084397 0.08099500665093319
000020 f1 8d db 8b be 7e b3 bf 1a 52 ae 19 44 ef 9d 3f
       -0.07615271486752541 0.02923303992027302
000030 8f f4 2f 06 a4 59 7e 3f 92 12 92 2d 31 1a b8 3f
       0.007409706801806539 0.09414965975345016
000040 ea 39 db 08 db 93 b2 3f 0a 9c f9 79 e3 12 82 bf
       0.07256859747142355 -0.00882508960712693
000050 24 3d a6 87 99 01 bb 3f 4e de fd f7 c4 17 91 bf
       0.10549315988304336 -0.0166922355997186
000060 97 88 a9 ee e7 b9 ab 3f 7a a5 0c 7a 76 e2 c1 bf
       0.05415272510869434 -0.1397235961860977
000070 25 6e 97 5e d1 31 bd bf bf 0d 3d 61 fe c6 b4 3f
       -0.11404141005862607 0.0811614024542484
000080 91 d0 16 f8 59 7b c0 bf 5e aa 7c de 57 62 6e bf
       -0.128764387261644 -0.0037090030854376862
000090 5d e9 10 ef c5 30 b5 3f be 0c 5c 67 61 38 aa bf
       0.08277546965192557 -0.051211398951659146
0000a0 98 1e 68 8f 9a 3d 7b bf b4 fb f6 b6 35 c2 92 3f
       -0.006650546789849131 0.01831897668102629
0000b0 fb ba b1 74 24 0a c1 bf 8f 85 e7 d6 5a 41 af 3f
       -0.13312202165567286 0.0610454928717089
0000c0 5a df e6 1d 2d 87 ad bf 03 92 3b ff aa 3a 8d bf
       -0.05767193784725917 -0.014272056497653734
0000d0 c6 a2 2b 88 94 1e aa 3f 70 2f fd 9f 57 d3 c1 3f
       0.05101455843197793 0.13926215469325198
0000e0 54 27 04 8a bd de 8e 3f 32 03 75 b0 2f 4d be bf
       0.01507328107301801 -0.11836526926073246
0000f0 bb 83 23 51 d4 86 ad 3f 2e 66 9b ec 2a b8 bf bf
       0.05766929140532492 -0.12390392567194716
000100 7d 05 74 ef d5 41 b3 3f d4 a4 0b 13 48 42 79 bf
       0.07522332283044438 -0.006166726627932568
000110 58 47 e2 c4 57 fa b7 3f 28 a4 4e 6c 39 a3 8d 3f
       0.09366367871032588 0.014471481912396625
000120 d4 11 df 66 44 29 c2 bf 36 ed ef 94 98 cc b9 3f
       -0.14188437483802707 0.1007781375519031
000130 38 28 53 7b 51 03 ba bf a8 f3 f0 fd d1 89 bb 3f
       -0.10161313305721442 0.10757172059761777
000140 c2 bb 77 fe fc a8 b1 3f b1 13 50 4f c5 72 be bf
       0.0689848061808638 -0.11893876253459613
000150 64 d3 38 86 49 c1 b1 3f d9 2a 76 2c d3 f2 ba 3f
       0.06935557867912007 0.10526771388519353
000160 71 99 6c 7b 99 3e b8 3f 81 67 49 0d 40 5f a1 3f
       0.09470519316946537 0.03392982637588116
000170 c9 04 dc 36 92 92 bc 3f 19 d2 ee 98 5a f6 b9 3f
       0.1116114982542228 0.10141531213486878
000180 21 49 3e 2a 39 3d b0 3f e8 9f a9 b4 39 34 ba bf
       0.06343419343310021 -0.10235939655979076
000190 de ba ef ad 89 29 b1 3f 8d 4c 82 2a 60 bd c2 bf
       0.0670400666856312 -0.1464042861522085
0001a0 51 ed a2 f3 f4 ac ba 3f 50 b0 99 18 e8 b6 91 bf
       0.10420161197810286 -0.017299295903669354
0001b0 13 fb f1 80 4d 7f b8 3f 55 d6 9b 94 9c f5 b3 bf
       0.09569248579098781 -0.07796648624556586
0001c0 7c 93 ec 33 93 e1 98 bf 06 df 9b 64 f3 82 ba 3f
       -0.024298000377843007 0.1035606499316338
0001d0 ad ba 61 e7 27 99 99 bf e4 5d 41 c5 50 06 a1 3f
       -0.024998305795117904 0.03325130851652228
0001e0 92 d6 aa f5 6e 22 91 3f b0 ed 8c 91 f1 b7 b4 3f
       0.0167329156344836 0.08093175700644539
0001f0 a2 de d8 24 88 ec b7 bf bb 87 bd 16 fe 8e b3 bf
       -0.09345293902958443 -0.07640064292129882
000200 8a e8 f0 f2 3f fe ac 3f f8 20 02 0c fe 8c af 3f
       0.056627272039308243 0.061622561422213395
000210 0e af 4f b9 26 98 a4 bf 49 88 20 bb ba 8e 83 bf
       -0.04022332203007127 -0.0095495785099652
000220 01 21 67 86 2b d6 a7 bf ba 56 d8 69 ec 41 b4 3f
       -0.0465558625761009 0.07913091262920605
000230 f3 b3 2f 2e 8d d1 bf bf 8e 88 ae e0 12 1c a2 bf
       -0.124291251922571 -0.03537043564507868
000240 92 14 1a 05 61 6f 73 bf 78 40 7a b8 17 42 96 bf
       -0.004744891151522117 -0.021736498484245165
000250 3a 58 86 d3 c4 be a2 bf 68 08 17 ec 7f 08 a2 bf
       -0.03661170084085126 -0.03522109753568331
000260 96 38 dd 03 e8 86 b4 bf b2 8c fa 96 32 39 93 bf
       -0.08018350691165418 -0.018772879090317836
000270 eb 83 b8 03 8c 2d b7 3f 20 95 2a 2d fb f2 b3 bf
       0.09053874102438868 -0.07792634823507116
000280 b9 24 c3 e5 af c5 83 3f 89 d2 fe 6e 15 c5 82 3f
       0.00965440196923094 0.009164969873247901
000290 b0 17 c5 08 d9 f3 9a bf c8 ce 51 10 ce 29 9f bf
       -0.02632083049800088 -0.03043291067702006
0002a0 d5 2a 31 a8 21 9c c0 bf 7b 7e 3f 4c 9e 9b b5 bf
       -0.12976475441458626 -0.08440579759143844
0002b0 7c 18 f2 b9 c4 2d c0 3f f0 c0 c8 58 61 19 c5 3f
       0.1263967426240845 0.1648370440975735
0002c0 a0 46 97 ff d6 6a c1 bf 87 d7 7d f5 5e f4 a0 bf
       -0.13607299308801135 -0.03311440226290956
0002d0 9b 11 57 02 e6 c9 b3 bf 80 23 f7 1f d2 3e a6 bf
       -0.07729947621471071 -0.04344803466989955
0002e0 e6 46 9d cd f4 52 bc bf 5a ca 25 5c aa ae c0 bf
       -0.1106408121097747 -0.13033036708255247
0002f0 c7 24 65 b4 4c c3 bf 3f fd 4d 40 56 2b d1 b3 3f
       0.12407378582169591 0.07741041999570793
000300 7b 33 ba 67 47 5b 99 bf 8e 5b ec 9f b0 84 b6 bf
       -0.02476226397134294 -0.08796218780876883
000310 c1 76 de 0e 74 a0 bf 3f 28 64 27 2e 56 ad c2 3f
       0.12354207385075268 0.14591481450659782
000320 a6 99 6b 38 ba fd a8 bf c3 c8 e4 04 7c c1 a2 bf
       -0.048810786616559285 -0.03663241920220763
000330 c7 e8 89 ff 37 17 a6 bf a3 d8 bd b9 53 92 b5 bf
       -0.04314589495057102 -0.08426402363497458
000340 57 1d e5 6c 07 1e c2 bf 87 62 79 f3 77 a6 8a bf
       -0.14154141251695293 -0.013012826078168572
000350 ef 22 be c4 c3 fe 7c bf 44 f2 6e e0 20 22 c1 3f
       -0.007078900070958779 0.13385401686345422
000360 b4 da f7 5a be 81 8f bf 8e 74 72 14 3b 2f ac bf
       -0.015384184981468742 -0.0550478422603443
000370 36 b9 fe 8f 08 34 b4 3f 47 bf 7d 3f 09 6b 79 3f
       0.0789189673948599 0.006205593228386714
000380 99 88 06 c4 1a e0 a8 3f 97 b1 7f e0 f5 fe 91 3f
       0.04858478205575629 0.017574159457511476
000390 9a e5 75 9a b2 87 a1 bf b3 b4 21 5d ab c7 b4 bf
       -0.034238416056676615 -0.08117171310159925
0003a0 86 66 19 62 7c ed b4 bf f2 b1 69 56 3a f8 75 bf
       -0.08174874682426933 -0.005363681679778841
0003b0 84 fc 6e 6f 89 63 8c bf 35 cc 9e 32 ad 2d a9 3f
       -0.013861726487333088 0.04917660944865824
0003c0 6e ed fb a1 72 83 c2 3f c3 18 a8 d4 c6 f6 b6 3f
       0.14463646802310443 0.08970301334202006
0003d0 61 b2 de e1 d2 02 c5 bf 97 bb 14 4a 8d 60 be bf
       -0.16414867428592841 -0.11866076525323731
0003e0 1c d1 ed 30 f7 a4 ac 3f 5c 11 d5 10 85 ff b8 bf
       0.05594608757283678 -0.09764892254776697
0003f0 b0 bd 85 b1 3b e0 a3 bf f4 48 37 c0 13 c5 b8 3f
       -0.03882013837835119 0.0967571586873282
000400 c9 46 67 d6 7f 64 c3 3f d3 68 f7 a0 86 02 be bf
       0.1515044972316473 -0.11722604207844549
000410 ac 3b 26 b9 c9 84 b1 3f ff bd 2b 9f 5c 8d 9c 3f
       0.06843243379829173 0.027883002486246863
000420 36 91 d0 05 f4 aa c1 3f f7 10 41 b9 a2 ed aa 3f
       0.1380295780555884 0.05259426604655631
000430 35 a3 6f df a8 39 c6 bf f3 99 43 04 8f d4 b5 bf
       -0.17363463315930408 -0.08527463773825854
000440 09 04 a7 ef 1e fc b7 bf dd 10 c5 5f 4a 94 90 bf
       -0.09369080878151705 -0.016190683455776223
000450 ab 5e 2b 6e f5 2f c4 bf 33 ef 4e ae 4f ac bb 3f
       -0.15771358374944575 0.10809801107000964
000460 2e eb 41 fb 62 6c a9 bf b7 25 25 30 b2 4a b8 bf
       -0.049655049487191114 -0.09488977122705121
000470 50 13 4e 12 aa 14 ba bf cf 35 31 19 0e ef ae bf
       -0.1018778128328226 -0.06041759545824343
000480 e2 75 59 f6 10 57 b0 3f 76 01 63 08 51 36 9b 3f
       0.06382852568045608 0.02657438863457303
000490 c7 c2 72 69 3d 76 c1 bf ba a9 6c 10 80 24 a9 bf
       -0.13642089508859653 -0.04910659981244998
0004a0 a0 b7 2e 26 01 72 c0 3f c5 e3 2f 38 bc 2e ab bf
       0.12847914089564672 -0.053090936526082134
0004b0 59 1d 9c dd 4b 26 b7 3f e1 f4 2a ce 42 21 ad bf
       0.09042810593029084 -0.056894385973899515
0004c0 51 46 80 48 e7 4c c3 3f e9 35 5f c6 ee 0a ae 3f
       0.1507844070443292 0.058677159991571255
0004d0 c5 f3 d6 10 1b 49 a8 bf 8f 0b a8 57 30 5b bb 3f
       -0.04743275242387982 0.10686018123673889
0004e0 f6 85 7b 64 d8 c1 ac 3f 24 a9 b4 f8 e4 c4 97 3f
       0.05616642214387106 0.023212030105392092
0004f0 2f 55 91 fe 57 94 b1 bf 63 bb ba a3 76 f3 a0 bf
       -0.06866979565650831 -0.03310747860574883
000500 c1 db b9 71 2c c0 aa 3f bc 4c 84 6a b3 19 b9 3f
       0.052247418291635046 0.09804841375835144
000510 56 5d 9d c7 89 de c4 bf 66 02 91 6e 80 3a c2 3f
       -0.16304132696925916 0.1424103298068246
000520 4d 1a 6e 6f 35 28 a4 bf ed 93 52 fc 17 1b b9 3f
       -0.0393692682765062 0.09806966695994364
000530 66 fb d2 bc dc 10 82 bf 84 14 f7 d7 b7 e9 b0 3f
       -0.008821224701362328 0.06606625578486286
000540 d7 67 ad e1 77 bb b1 bf a3 d4 c7 81 27 a6 c1 bf
       -0.06926678905202209 -0.1378831275648383
000550 e3 64 b3 b0 55 ed c5 bf a0 f0 00 f2 d7 6b 81 3f
       -0.17130538108793933 0.008506476471773106
000560 bd c1 a6 48 a0 c8 c5 3f 77 e8 f0 91 26 22 b9 3f
       0.17018512294226965 0.0981773477841744
000570 44 7d d7 ea 23 a1 ba bf 25 05 8a 9a 73 c2 c0 bf
       -0.10402130587998665 -0.13093419118744368
000580 d0 52 f2 24 c6 0d b0 3f 33 ae 46 9e 40 3c be 3f
       0.06271017457977313 0.11810687889254083
000590 76 7c d7 d1 2a 7e 97 3f 0d 45 53 d6 76 ce b5 3f
       0.022942227418635906 0.08518164379644962
0005a0 7f 7f d3 c9 ff 89 9b 3f 77 e7 52 8c 51 d2 bb 3f
       0.026893612569323985 0.10867795635104281
0005b0 40 98 e7 36 4b f9 9a 3f 14 76 4a e4 e9 2c bf 3f
       0.026341605402102397 0.12177907775409152
0005c0 a8 f9 ff bf aa 3c a2 3f 9f 84 f6 cd 01 4f af bf
       0.03561910241841143 -0.06114965094753554
0005d0 c0 e3 fa 21 61 77 af 3f d3 46 63 a4 3d ed ac bf
       0.06145766773028738 -0.056497503582830476
0005e0 a7 5a eb 8e 2e 4d b4 3f 9b 2f 4b 0b e3 9e c0 bf
       0.07930270184747688 -0.12984884311151465
0005f0 3f 84 f6 ef 93 6d a8 3f 63 43 6a 40 62 d1 9b bf
       0.04771101288066192 -0.02716592329176438
000600 9c e8 4d 79 f5 07 b3 bf 6b 78 e6 4b 73 73 aa 3f
       -0.07434019290477284 0.05166206647412327
000610 e1 03 24 c6 a1 ed c5 bf 6b 09 54 fb 6a 36 bc bf
       -0.17131445097768874 -0.11020535121864376
000620 49 52 d6 2a ec 88 c3 3f 17 79 e1 6d de 69 bb bf
       0.15261604396495645 -0.1070841806663093
000630 98 7b fe 9a af 47 a0 3f 73 c2 86 5f a9 65 b5 bf
       0.03179692046182153 -0.0835824831217538
000640 14 c7 35 61 86 e5 b0 3f ad 76 3e 4f d6 5c bf 3f
       0.06600227235119532 0.12251033243816307
000650 77 6d ae ea 85 b4 a9 3f ad 58 85 a4 4c c9 b8 bf
       0.05020540704500836 -0.09682158486006882
000660 91 31 d6 49 86 b9 ba 3f 0a 98 10 03 92 f9 be 3f
       0.10439338019040735 0.1209956414682837
000670 72 84 4b be f7 40 ab bf f2 6f fa f6 dc e6 98 3f
       -0.05323003957688223 0.024318173002583827
000680 3e cc d6 37 42 8d b6 3f 89 e8 e7 b3 36 db 96 3f
       0.08809293616541056 0.022320608835777498
000690 8d be f7 53 75 12 b7 3f ae e9 32 22 3b c0 b8 3f
       0.09012540149682931 0.09668321213658856
0006a0 4d c1 be c3 3c 3c 8d 3f f4 4b 70 11 de 76 b3 3f
       0.014275049899737846 0.07603252340076933
0006b0 08 6c 76 ac f9 e5 9e 3f 13 f6 50 bb 3b 2e b0 bf
       0.030174161101609115 -0.06320546458388092
0006c0 3b 68 1d 81 6c 15 96 3f cd 49 43 2f e3 c0 b2 3f
       0.02156610048346173 0.0732557287586026
0006d0 af be 38 24 e3 b6 c6 bf 0a be b8 c4 1c 4f 9f bf
       -0.17745627659450267 -0.030575227267204887
0006e0 d4 00 8a cc c1 0b 77 bf 1d 26 88 ec d5 13 bd bf
       -0.005626446749943354 -0.11358391785338325
0006f0 3d 38 60 39 d3 78 b5 bf ea b5 9b 7d 57 61 a8 bf
       -0.08387489462640559 -0.04761765869430319
000700 8c 2d 64 b8 c6 8f 60 bf 59 6f d8 9a 75 29 ba 3f
       -0.0020216828589860233 0.10219512014776679
000710 16 a3 ce 70 67 9a c3 bf 1f b0 c6 63 fa 15 95 3f
       -0.15314953811800852 0.020591652240611432
000720 66 6b 77 e6 15 b7 93 3f 2e 25 80 ea ff 0a 99 3f
       0.019253103438909312 0.024456022918490188
000730 da c1 b3 8a 31 0d b9 3f 00 a5 b2 76 3a 15 b8 3f
       0.09785756717952357 0.09407391927620168
000740 ee af ad 61 6d 3f b4 3f dd f6 35 0b 1c ef bc bf
       0.07909282335975806 -0.11302352212620854
000750 cb 4f fc 12 42 c6 bb 3f 52 ae c5 62 04 7d b1 3f
       0.10849392856135791 0.06831386004858445
000760 57 90 64 0a b3 bc 9c bf ff ad a8 e2 25 24 ad bf
       -0.028063580998733375 -0.05691641227562271
000770 ce 2c 50 7b c5 7b b1 3f 8b 79 dd 03 f2 69 a7 bf
       0.06829485188079618 -0.045730174037760106
000780 5b 7b f3 f5 30 da b1 3f 67 ae 49 1a 8f 7b 9a bf
       0.06973558430352737 -0.025861965159874958
000790 30 a7 05 8c 46 7c a9 bf 9f 03 50 d0 a1 d7 b1 3f
       -0.049776272385157916 0.06969653449779266
0007a0 b7 d6 4c 72 41 18 ab bf 0f db 36 df 6a 5c c0 bf
       -0.0529194309259941 -0.12782035731444139
0007b0 15 8b a7 c2 6c 3d 91 bf 21 fd ad 76 29 bf af bf
       -0.01683587968899321 -0.06200532506681556
0007c0 64 24 a7 12 0c f9 9e bf 2c 38 40 d9 c9 73 76 3f
       -0.030246914518816573 0.005481518241152766
0007d0 a0 01 20 00 2b 0f c1 bf 3c 29 ce 70 ca 75 c1 3f
       -0.1332753897295449 0.13640718944618324
0007e0 8d 62 fe c3 52 05 ba bf c1 62 15 36 b1 9d c0 bf
       -0.10164372715952137 -0.12981238499448547
0007f0 f9 16 f2 48 3c fb b1 3f 41 b7 b3 f9 48 b3 b0 bf
       0.0702397993173597 -0.0652356729148922

lstm.weight_hh_l0 f8 [200, 50]
000000 8d 5a bb 08 77 11 b4 bf 64 60 22 db b4 23 c9 3f
       -0.07839149439983313 0.1964021749488466
000010 d6 64 5b b7 0d c9 b4 3f 1c 58 62 03 12 17 72 bf
       0.08119283415307463 -0.004416532863748681
000020 9d 14 7d d0 84 04 9d 3f 55 cc af 5e 43 ab 7c bf
       0.028337550377973576 -0.006999266780428466
000030 6a a7 0f 07 98 57 b9 bf f8 14 8f 17 dd 5a a4 bf
       -0.09899282619849506 -0.0397557345636787
000040 3d 07 91 5f 78 08 c7 3f a5 1d 88 62 e7 57 b8 bf
       0.17994599024137328 -0.09509130626258029
000050 8b 7a 7c ac 5f 7c 8d bf bf 94 df c4 05 5c ae bf
       -0.014397380305635884 -0.0592958262275629
000060 4f 22 06 83 d2 83 c0 bf ee e1 e1 e5 e8 4a a0 3f
       -0.12902289769796702 0.03182151609593463
000070 6e 08 04 52 f3 0d a9 bf 26 b5 4f 6b 40 ca 7a bf
       -0.04893455864113681 -0.006540538442078947
000080 7c 92 3f cc 43 71 b0 3f 18 45 54 3a d6 5f c1 bf
       0.06422828423053234 -0.13573720787147958
000090 e0 d9 29 e3 b6 c0 89 3f b3 3c c4 a6 3e 8d b8 3f
       0.01257460480449607 0.09590522357415203
0000a0 03 e9 ae 99 b6 0c c8 3f ee 4c a4 99 31 1f ba bf
       0.187887978592535 -0.10203847886105041
0000b0 c5 38 94 57 20 53 b8 3f d2 e2 a3 13 ea d2 b1 bf
       0.09501840723189321 -0.06962454776283813
0000c0 8b 4e 21 a3 c0 f8 b2 bf 5c b5 98 48 86 cc b8 3f
       -0.07410816176098416 0.09687079689384376
0000d0 14 15 e3 95 f1 89 c4 bf 1f 69 73 48 a1 17 c0 bf
       -0.1604597074384989 -0.12572113073003607
0000e0 99 04 0f d8 3b fb bd bf 5d 4e 3d 53 d8 bd a1 3f
       -0.11711477303380703 0.03465152755839249
0000f0 15 47 92 82 d1 f8 a0 bf 2d c4 3a 19 30 a1 95 3f
       -0.033148333729640246 0.021122695484056365
000100 1f ae be 6f 54 02 b7 3f 84 32 8a eb 8c 03 ba 3f
       0.08987930038591017 0.10161667585834705
000110 89 5b de 65 5c c2 b5 3f 2c b3 80 34 23 ef 86 3f
       0.08499696242357237 0.011198306121593747
000120 f5 82 b5 fe fe 8d c3 3f 19 73 d2 36 d0 16 a8 bf
       0.15277087628330546 -0.04704905194487292
000130 12 3b 12 93 cb 30 b6 3f 52 dc 00 6f 72 83 b9 3f
       0.08668205586057479 0.09966197214167608
000140 e3 79 cd 51 54 ed a6 bf 12 58 35 7e 74 87 84 bf
       -0.044779429422067606 -0.010023985005926082
000150 99 3e dc e4 55 b0 bd bf 5f c6 13 32 6f 43 c1 3f
       -0.11597191655550389 0.1348704332845498
000160 14 72 be 83 c8 36 a4 bf fc 0d ef 8e 70 e2 67 bf
       -0.03948046310617684 -0.0029155920414909425
000170 fe 21 f7 a3 ad 66 b0 3f 71 f0 3e ad 42 1c a4 3f
       0.06406674626408201 0.03927811016862471
000180 64 ff 9c 52 bb d7 a6 3f b8 4e 8c 4e 92 1e b9 bf
       0.04461465247595589 -0.09812273423841134
000190 14 6f e7 53 33 23 b1 3f 1e 3b ae 54 38 41 c6 3f
       0.06694336698950237 0.1738653577308122
0001a0 58 27 a1 8e 50 30 be 3f 2b 60 36 83 ba 1a a9 bf
       0.11792472345510185 -0.049032047764910956
0001b0 95 94 77 f3 1c ea 63 3f 3f 9f dc d6 b1 90 bb bf
       0.0024309697580400893 -0.10767661567353758
0001c0 02 b0 b2 c0 c6 6e 92 bf f7 44 73 b5 e9 48 ae 3f
       -0.018000703345634868 0.059150031470958035
0001d0 35 13 73 1f 12 65 80 bf 14 37 17 9a 7d fd 90 bf
       -0.008005277237666067 -0.01659199002261065
0001e0 81 74 16 88 01 4d ca 3f 07 bd b5 c8 32 bc 97 bf
       0.2054750360956952 -0.0231788573268519
0001f0 b8 74 c4 ea e0 23 b2 3f f1 cb c5 13 a7 3e ab bf
       0.07085996371866343 -0.05321237675061486
000200 12 1b 0a 45 2f 3f c9 3f e8 b7 81 b6 2a 55 b8 bf
       0.19724074240749495 -0.0950495429585484
000210 c5 08 3a aa 09 09 b3 3f c5 95 1e 22 85 8d be bf
       0.07435665517735675 -0.11934692461962644
000220 e3 0a 7d 08 77 3e 91 3f e4 50 6d b4 d8 fc a7 3f
       0.016839847462743484 0.04685094072797982
000230 76 2d b1 6a a3 39 b0 3f 49 a8 92 7f 0c 04 c5 3f
       0.06337949137485119 0.1641860602297263
000240 a0 92 09 cf 1a 96 b6 3f 30 ff 46 be 07 df c0 bf
       0.08822791628478877 -0.13180634299168892
000250 b5 c1 fd 8f 99 25 c8 bf 3f 2b c5 58 ac 6c 9c 3f
       -0.18864745646307104 0.027758305471518026
000260 b9 b7 af 05 41 c6 b0 bf ae 1a 37 e6 c6 46 a9 bf
       -0.0655251158602529 -0.04936811027760278
000270 88 38 43 d1 a5 27 b4 3f e1 b5 74 d7 d4 7d c3 bf
       0.07872997626256695 -0.15227756996448163
000280 7e d3 57 5e cb bf bb 3f 5b f8 92 26 4e 72 b5 3f
       0.10839530041978482 0.0837754100966505
000290 fc a3 e8 f2 0d d9 ca 3f 46 96 19 0e 24 89 c6 3f
       0.2097489772870914 0.17606020630334934
0002a0 79 a4 c2 16 24 38 c9 3f 32 5b 4a 96 1d 51 a9 3f
       0.19702578650802474 0.04944698772049207
0002b0 2a 85 d6 e9 55 b8 a6 bf db 34 ae 0e 45 c8 b0 bf
       -0.04437511901347542 -0.06555587395105837
0002c0 15 86 8c 43 38 29 c2 3f b7 a0 85 a6 4d e3 9a 3f
       0.14188292787825732 0.026257718361563955
0002d0 d1 49 1c 4c 9b 3f ac 3f f4 39 9c b7 cf fd 6e 3f
       0.05517278007586735 0.0037831360795117456
0002e0 c2 87 7a a0 09 44 b5 bf f9 b8 b9 f5 a3 f5 96 bf
       -0.08306942146239663 -0.022421419022458065
0002f0 c4 b1 e6 55 a3 86 c5 3f a2 d3 b5 1c be 72 b7 3f
       0.16817132658378686 0.09159458352026076
000300 18 94 36 33 8b 3e 84 3f a7 bc f7 cf 31 0b 98 bf
       0.009884917736437557 -0.023480203932135037
000310 4c f5 35 d4 3e 3b 8c 3f 71 f4 af 30 bc d3 be bf
       0.01378487668147934 -0.12041832150130617
000320 f3 dc c1 42 8e ff b1 3f 7f fd fc 92 51 e4 b2 3f
       0.07030572061363553 0.07379636610584404
000330 9e 9d 83 c3 13 71 bd 3f 45 63 9e 1a 13 f2 c1 3f
       0.11500667117399252 0.1402000312780506
000340 88 77 27 cd a8 a7 b8 3f 81 9b 31 5f a8 aa c0 bf
       0.09630827911993667 -0.13020805976995223
000350 fc 00 a7 46 78 10 9b bf 0a b9 95 92 b5 36 bf bf
       -0.026430014908101804 -0.12192854717952542
000360 8e 10 4e 5a 52 18 bf bf ff 1e 01 b0 b3 2f be 3f
       -0.12146486954412891 0.11791537329656519
000370 92 b0 f2 74 31 22 c2 3f 15 a7 96 6c 5a ff b3 3f
       0.14166849336959736 0.0781151309116946
000380 11 64 ba 83 9c 2f c6 3f 36 1b 48 0b 52 4e a7 3f
       0.1733279841617166 0.04551941287723198
000390 18 e3 ad 99 6c c0 a5 3f b3 1b d7 bf 23 ef 9b bf
       0.0424837052914368 -0.027279432853699336
0003a0 2a 35 93 16 59 7d 97 bf 14 83 27 a4 12 5c b9 3f
       -0.022939102175589067 0.09906116969751749
0003b0 ef cc 75 26 10 c4 c7 bf 45 65 d9 d9 f6 18 b0 bf
       -0.18567087057053963 -0.06288092440208455
0003c0 db 74 ba 8e 0b 85 bc 3f df 26 bc 89 5e d4 b9 bf
       0.1114051078279376 -0.10089674818678017
0003d0 9b cc 90 6e f3 c2 c5 bf 89 78 25 d5 b3 d5 a1 bf
       -0.17001192949974073 -0.03483354546436696
0003e0 e8 56 51 87 90 be ba 3f 84 d7 fa 0c 93 1d a6 3f
       0.10447028449683737 0.043194384893850774
0003f0 0e 94 5d cc c8 bf b0 3f ce af 6f 90 41 48 b6 3f
       0.06542639722245289 0.08704004074360158
000400 ec 22 d9 dd 42 be a1 3f 1f 79 ad a7 a0 74 c4 3f
       0.03465470274074342 0.1598091906298089
000410 39 c6 aa 28 52 fc af 3f 43 80 6b 60 9e f5 cf bf
       0.06247193094658283 -0.24968318660740083
000420 20 99 13 0b 9e ba a5 bf 9c 48 5d 2b f4 63 b2 3f
       -0.0424394024392305 0.07183767374707134
000430 47 7c ff 36 da 00 be 3f 40 fe 26 55 23 e7 be bf
       0.11720050661777846 -0.12071438626207343
000440 c4 f7 3f 84 bb bc ae 3f 87 a6 5f 92 70 9e 99 bf
       0.06003366460207318 -0.02501846211808936
000450 3b da 63 8a 57 01 a3 3f bd ad b7 a8 7f 3e 82 3f
       0.037119613307301035 0.008908269249295548
000460 1e f2 b4 1e cf 3d c1 bf 95 fb 03 b8 89 91 af bf
       -0.13469876288753907 -0.06165724154742872
000470 20 20 54 96 1a 1d a9 3f 69 6f 27 be 35 c3 be bf
       0.04905016980234245 -0.12016616718704899
000480 f8 ad 42 43 b3 26 c8 bf 29 65 a9 ae 16 8e 90 3f
       -0.18868103775217526 0.016167025003914013
000490 c8 3c 26 99 30 d7 b8 bf 58 37 bf 7d 8b e6 ba 3f
       -0.09703353632925193 0.10508033580773934
0004a0 6d 1f 6a b3 4b 31 ac bf 03 3e 32 3c 22 41 c1 bf
       -0.05506359639281198 -0.13480022372503705
0004b0 7c 89 f4 d1 1e ba b0 3f 22 da 17 4e cf 1a be 3f
       0.06533997178897794 0.11759658485957705
0004c0 1a ab 70 d9 a4 79 51 bf 11 eb 54 f2 6b c4 80 bf
       -0.001066599832266041 -0.008187144596936176
0004d0 6c a1 76 1d 7f 93 66 bf e9 dd 09 01 b3 7f a4 bf
       -0.0027558787075642657 -0.04003676784207839
0004e0 f2 66 2a 0e 4f 98 b2 bf 2e d7 5a a8 6f 71 bc bf
       -0.07263654800263078 -0.1111058984777997
0004f0 24 39 f4 e2 b9 d7 bc 3f a5 c7 a1 34 14 5b c8 bf
       0.11266671934956612 -0.1902795083038288
000500 31 c1 1f 2c c2 c6 b1 3f 34 2d 25 ff 1f 47 ae bf
       0.06943906380889044 -0.05913639058652578
000510 93 85 87 5e 50 0e ae 3f da 14 78 0a bb 77 99 3f
       0.058702956713896935 0.024870798601132595
000520 e2 8d f4 fc b4 38 b1 3f e6 a8 0e f5 90 4a c3 bf
       0.06727152991930255 -0.15071308103262665
000530 bb b5 37 0c 8a bc ae 3f f2 08 a6 82 d4 2c 66 bf
       0.060032190314682286 -0.002706923541326061
000540 93 ca 20 59 f3 74 b8 3f 46 8a 75 a3 03 7c a8 bf
       0.09553452421168122 -0.047821153357990684
000550 8d 44 22 3e 18 ce aa bf 9e 38 23 7e a3 5d 9a 3f
       -0.05235362776250794 0.025747828077151362
000560 0f fb eb 82 a5 95 c1 3f 3f 39 15 83 a4 e8 a5 3f
       0.13737934963861462 0.042790547372180125
000570 71 2e 36 bb 78 06 bb 3f 91 a1 62 17 fc eb 8e bf
       0.10556749888035612 -0.015098542655622523
000580 0f 8b 41 78 b7 56 c7 bf ed 71 c6 d0 83 b7 85 3f
       -0.18233388301731465 0.010603933152020207
000590 d8 d2 1c 2a cd 94 c2 bf 00 86 e4 70 52 7c 8a 3f
       -0.14516605907706182 0.012932437963686816
0005a0 dd b3 1a 1e ef 01 90 bf 27 d2 22 51 dd 01 c0 bf
       -0.015632377827092248 -0.12505690061301886
0005b0 8d 30 4e 33 06 d2 a6 bf d4 5b 28 36 0f 7d ce 3f
       -0.044571107638234776 0.23819151062408983
0005c0 b0 eb 1a c5 23 74 cb 3f 70 7c a3 0a 79 63 cc 3f
       0.21448180317187626 0.22178566951240297
0005d0 8e 89 01 5f 88 e9 c5 3f bd d7 6c 56 ff 93 9f bf
       0.17118935240712257 -0.030838002824758116
0005e0 dd c0 9a 14 67 ac c1 3f 1f aa 9b c7 3f 95 cc 3f
       0.13807381158904422 0.22330472227561501
0005f0 d9 a6 d7 af ae 22 b5 bf 9e b6 d5 c9 49 55 cc bf
       -0.08256046097781268 -0.22135279040542327
000600 30 57 78 d9 1e 36 4e bf 66 e8 26 7f c4 f2 a3 bf
       -0.0009219790108001332 -0.03896154453418958
000610 ae 0d ca f8 a0 c9 c7 3f 55 e4 24 cf c7 d3 65 3f
       0.18584072254098544 0.002664461376437314
000620 d1 87 ad 5a ff c1 ba bf 70 d2 16 04 47 a6 a6 3f
       -0.10452266658606325 0.04423734593311657
000630 f2 f8 08 f6 66 82 40 3f 5d 07 89 0a 08 2e 97 bf
       0.0005038264026280533 -0.022636533396741643
000640 4a f5 98 67 cb b2 a8 bf 57 5e 58 48 bd 03 b1 3f
       -0.04823909415834267 0.06646330848922709
000650 39 b2 e3 e9 77 e2 c0 3f 8a 4c 4b 38 ca 90 bd bf
       0.13191126747496343 -0.1154905688702447
000660 31 cb fa 3d 5c 37 b5 3f 2c 4a 41 f4 8a 58 c2 bf
       0.08287598145652166 -0.14332711149707345
000670 5e c7 57 89 10 8a b0 bf 48 30 ab dc 57 6e b0 3f
       -0.06460669854257392 0.06418370377940719
000680 63 68 7d 94 5f c1 b3 bf 7c 94 9d 21 dc 50 b3 3f
       -0.07716939330330912 0.07545257397358002
000690 2b 21 e5 7f 46 1a b1 3f 75 2f c2 15 9b e1 b1 3f
       0.06680718061864314 0.06984872132505678
0006a0 6f 8c 7e d5 c0 e2 ac 3f e9 cb c5 08 4b 92 6a bf
       0.05641749006397211 -0.003243586112313225
0006b0 24 60 ee 53 25 ed c0 3f 7c e3 e4 54 21 a1 c4 bf
       0.13223711584282782 -0.16116730351657427
0006c0 e2 61 2e 2b 8b b9 80 3f 5e ce 4d 94 8f cb c4 bf
       0.008166396384511058 -0.1624621843471798
0006d0 df 59 62 63 6e 86 b9 3f 99 79 1c 78 2f 2f be 3f
       0.09970750738498378 0.11790749246981704
0006e0 fc a2 af ca eb 5b b0 3f ef c1 c6 54 b2 33 a3 bf
       0.06390260408774034 -0.037503788803750264
0006f0 a4 53 24 36 de 90 b6 3f c8 87 40 98 d3 e4 c0 bf
       0.08814801046203385 -0.131983231870491
000700 72 20 db 63 79 9b c2 3f 77 ec 3e b3 90 1a 92 3f
       0.1453696954324673 0.01767946332959666
000710 cb 81 1a 99 da 84 a1 3f 16 b9 ac bc a0 36 bb bf
       0.03421671980800375 -0.10630230528179072
000720 78 35 ce ef fa a6 a9 bf 97 5d aa 80 5d 67 41 3f
       -0.050102082989819274 0.000531120925489614
000730 3e b4 f1 5e a4 47 c7 3f a2 a8 c3 e4 f4 a5 c9 bf
       0.18187384258217948 -0.20037709398395004
000740 5f e9 6f 11 12 0b c6 3f 47 c6 92 5f 11 05 be 3f
       0.17221284724639482 0.11726482947667548
000750 1a 4b 4b ca 7a 8c c3 3f 90 43 e6 fe f1 96 b9 3f
       0.15272459867136307 0.09995949242717317
000760 68 bf e1 32 f7 c7 c3 3f f0 29 7d 4f 15 83 b2 3f
       0.15453996643509105 0.07231267157218446
000770 40 fc c3 b6 a2 96 91 bf 48 74 0a c8 d5 79 ba 3f
       -0.01717619171631335 0.10342155584153645
000780 75 10 c2 04 37 fc 9b bf 80 2e 5e 2f 39 ca c0 bf
       -0.027329311051758915 -0.1311713677681503
000790 49 c4 c4 fa bf 66 c1 bf a1 89 91 35 5e 54 97 bf
       -0.13594817871629264 -0.022782775897562172
0007a0 a7 0c 80 f2 c9 00 c4 3f 0c 83 58 47 d7 95 b4 3f
       0.15627407399015178 0.08041139118041601
0007b0 9e 98 01 60 c8 68 8f 3f 7c 63 fe 01 d0 ee bc bf
       0.015336575918081071 -0.11301899002718402
0007c0 83 ae 31 c8 67 9d a7 3f 39 49 1f a0 e9 bc aa 3f
       0.04612278288626916 0.05222253875367006
0007d0 2e 8d dd 3e 20 43 ad bf ff 3d f1 29 f0 75 b5 bf
       -0.05715275542641006 -0.08383084320052346
0007e0 84 4d b5 af 65 29 b2 bf 08 e2 e2 68 de 4c 9a bf
       -0.07094417133094139 -0.025683856155156476
0007f0 23 50 a3 a4 9b 0e af 3f 02 89 fc a3 16 6d a3 3f
       0.06065832504978654 0.037941653745535944

lstm.bias_ih_l0 f8 [200]
000000 29 3c 41 ff a1 1f c6 3f 2e a9 d3 a5 0c 31 93 bf
       0.17284035647978271 -0.01874179613234011
000010 1f 31 63 08 2c ea af 3f 3c 35 ac ca 3c 13 b7 3f
       0.06233346559892738 0.09013729045928626
000020 d8 c7 70 29 b7 ee 95 3f a4 2d d3 ab 75 4a c1 3f
       0.02141843977387467 0.13508482828033863
000030 26 21 d7 39 84 e7 9e 3f bc 2c 65 02 19 eb b2 bf
       0.030180040388388417 -0.07389980610348607
000040 dc b0 41 b1 7d 35 c6 3f 36 44 4d b2 f4 7f a1 bf
       0.17350741534335767 -0.034179350629195346
000050 2f 12 42 53 91 6f b1 bf 38 c7 c4 1f b3 88 bf 3f
       -0.0681086376444646 0.12317962194063348
000060 4d cf af cb 33 c0 c7 3f f5 3d e6 a6 3f d5 b1 bf
       0.18555304952280452 -0.0696601660222241
000070 79 6e 1d 30 a0 c1 ad bf b5 81 4c 0d 61 b8 b1 3f
       -0.05811787211743264 0.06921965193442399
000080 03 a4 80 20 54 e9 c1 3f f0 35 1f 45 04 ec aa 3f
       0.13993312441860448 0.05258191436551474
000090 87 85 ef 43 d0 70 59 3f 62 43 9a 4f 94 5d c8 3f
       0.0015527757493532816 0.19035581480832336
0000a0 96 18 2b d5 ec 38 af bf 79 02 fa 89 98 ae c0 3f
       -0.060981179257894855 0.130328242656123
0000b0 7a bd 91 22 7d 36 c9 3f e4 0e 05 83 93 e6 b2 bf
       0.1969753664775274 -0.07383081387257168
0000c0 4c ec a1 68 8d 1a a5 bf 62 36 86 b4 d1 2a ca 3f
       -0.041218203566096706 0.20443173708592882
0000d0 64 1d e0 e0 a3 18 87 bf 87 60 cc 49 e5 b9 b3 bf
       -0.011277466106561725 -0.0770552926227329
0000e0 02 5c ee 0b 5b cf 77 3f f9 cb 6f 67 ba 4e 88 bf
       0.005812984133533485 -0.011868912011754761
0000f0 79 2b 7b f3 fb 86 c7 3f 04 cf e3 02 bd e5 c2 3f
       0.18380689038016465 0.1476360572920542
000100 d6 41 2c c0 c7 19 91 bf cc ce 5b 79 e6 f5 97 3f
       -0.016699906448652012 0.023398972661154357
000110 e0 01 57 a4 91 3d c8 3f a0 84 f2 dc 01 55 b2 3f
       0.18937893413932638 0.07160960811826778
000120 0e db 0c 9b ba be c0 3f a3 88 cc ea bb 76 b7 bf
       0.13082058497249033 -0.09165548784634096
000130 9c e5 f5 df ce 1b be 3f e5 77 5d 82 f2 3a ad 3f
       0.1176118180063867 0.05709035722132664
000140 c6 3f 24 35 7f 68 b5 bf 33 0e 42 a6 7b 03 a8 bf
       -0.08362574622537897 -0.04690157322422941
000150 12 37 f9 09 ac 8d b7 bf c2 58 03 8a a0 01 73 3f
       -0.09200549357884949 0.0046402236041187
000160 f3 4b e5 53 3f 74 ac 3f 18 15 36 68 83 5e c0 3f
       0.05557439707867919 0.12788431728783034
000170 40 24 8a 04 fd 59 a2 bf a2 1f 0b 53 87 d3 c5 3f
       -0.03584280662932615 0.17051784090858485
000180 4f 90 3f ba 6d 28 c7 3f b0 88 73 87 61 c7 a3 bf
       0.18092128366618218 -0.038630531105597554
000190 35 47 87 40 41 51 b0 bf d3 76 62 95 33 1d c5 3f
       -0.06373985124016886 0.16495365900202916
0001a0 ba 25 05 16 84 5a a1 3f 4f d8 0b 99 4d 8d a1 3f
       0.03389370697784551 0.034281182224660804
0001b0 77 ae 5c a6 be 00 93 3f 74 eb 59 50 d0 d1 c8 3f
       0.018557528404171877 0.1939030067768176
0001c0 0d 38 c4 ee cc bd 85 3f 51 1a cf 8e 44 e8 99 bf
       0.010615922009062495 -0.025300093857163756
0001d0 98 0d 02 61 19 84 a9 bf 1c e0 f0 d0 bb 85 b4 bf
       -0.04983596142940455 -0.0801656136617343
0001e0 62 83 74 28 24 f3 9e bf 30 c9 76 2a 6c 9d a4 bf
       -0.030224385232148328 -0.040263538535685206
0001f0 c2 ed c2 24 8d db a4 bf 01 59 55 ac 77 16 ad 3f
       -0.04073754380939533 0.05681203821829862
000200 b6 9f e5 0e 68 fd 7b 3f b5 22 ec e8 b4 d2 78 bf
       0.00683346412402124 -0.006060320548166122
000210 72 d1 83 00 2c 2a b1 bf 86 c3 1a dc 05 b5 b7 bf
       -0.06704974186488302 -0.09260594009061948
000220 da ad 9b 04 a5 ba c1 3f 92 4d 53 26 f9 42 a6 bf
       0.13850844120984968 -0.04347971527900109
000230 8c b3 93 1f 7b a3 93 3f aa 75 ea cf 6b 56 c2 3f
       0.019178317835144607 0.14326236393109798
000240 dd db ec cf 56 9f c7 3f 68 23 c1 24 ab 1a be 3f
       0.18455014374350656 0.11759442946744303
000250 b6 57 4b 47 c3 aa be 3f f3 46 ae 7b 1b 4b c2 3f
       0.11979313364585562 0.1429170946035395
000260 6b 35 cd 2f 26 66 a1 bf e4 1b 3c 48 03 5e 93 bf
       -0.033982461295276455 -0.01891331795107111
000270 e5 d3 cc 8f 5e 18 a9 bf 5c 8f 48 5f 19 ac 78 bf
       -0.049014048627590324 -0.006023501501235842
000280 d4 ff 3c 54 37 20 9f 3f b1 94 c4 7a 11 2c c5 3f
       0.03039633227967882 0.16540735716367785
000290 c6 39 79 41 13 07 b4 3f 13 49 57 c9 be 80 70 3f
       0.07823295925593418 0.004029031047553272
0002a0 d6 6d ab fc 2b 57 bc bf db d7 aa e3 6f e2 9b 3f
       -0.11070513647739885 0.027230976362908037
0002b0 9d 2e 82 c9 f2 2e bd 3f 9e b9 10 6d 1b f7 b0 bf
       0.11399762553826993 -0.06627055561759795
0002c0 24 3a 42 60 d8 3c b7 3f 5b 99 b8 63 98 76 89 bf
       0.09077217435899648 -0.012433233779188304
0002d0 c8 cb 99 87 aa 15 b8 3f c1 6b 39 9e 2e 10 82 bf
       0.09408059893193788 -0.008819927409765673
0002e0 77 f9 c7 b0 a0 ef b8 3f 39 2a 2c 13 a8 bd c1 3f
       0.09740642848917057 0.13860035835416953
0002f0 1e ef e3 0d 1b 05 c5 3f 52 2f 20 2d df a5 c5 3f
       0.16421831300964923 0.16912450507549665
000300 a1 21 7a b6 d9 a7 c4 3f 1f fc 5a c6 d8 b9 bb 3f
       0.16137238893521746 0.10830454676305167
000310 3b dc 49 fc 27 8f c2 3f 31 e8 e9 b1 00 81 bf 3f
       0.14499378031516294 0.1230621752128236
000320 72 18 79 e2 db 12 a5 bf fd 24 b9 9f 54 fd bb bf
       -0.04115950717509599 -0.1093342676114339
000330 92 bf 32 18 76 ee b6 3f a9 bd 07 76 31 ca ae 3f
       0.08957613077904927 0.06013636174963761
000340 1e cf ec 75 92 6c a8 3f 5f 51 56 cd 29 58 ad 3f
       0.047703339476724546 0.057313257518361686
000350 dc bf bb 82 9a 06 97 3f a7 b8 11 47 29 c6 85 bf
       0.022486128072102804 -0.01063186882148799
000360 c5 d4 06 d1 1b 6c 98 bf cb 97 ff d8 21 de bc 3f
       -0.023849901802994084 0.11276446864903204
000370 a2 e8 c1 dd 35 ff bc 3f ae c5 3e ae 06 3a 8c 3f
       0.1132692018890418 0.013782550995389577
000380 66 b1 55 d3 55 4b a5 bf 5c 6d 29 9b 28 9e af 3f
       -0.04159038738984826 0.061753529492046794
000390 8b c4 58 9c 95 b1 b8 3f d9 49 c6 d1 7d 64 b1 3f
       0.09645972315844824 0.06793962832879376
0003a0 96 7f 3d 80 6d 8b c4 3f a1 84 1e 2f c4 84 b4 bf
       0.16050499688844572 -0.08015085363742226
0003b0 3a a0 52 86 a9 79 b6 3f c0 6f 14 2a 58 a3 c0 3f
       0.0877939179359836 0.12998487524680336
0003c0 08 09 2c f2 e4 61 b4 3f a3 68 73 28 69 ae 69 bf
       0.0796187487831369 -0.003134923350086431
0003d0 a3 b9 f2 74 91 62 b4 3f ec aa 35 3b ab 50 99 3f
       0.07962903123072933 0.024721789826268756
0003e0 9f ad 1f 72 6c 3e bd 3f 15 6d ac cc 9b 38 b7 3f
       0.11423375879501528 0.09070752856171212
0003f0 77 82 27 df fa a9 c2 bf 35 98 87 bd 0a a2 ba bf
       -0.14581237693984736 -0.10403506400288694
000400 a6 81 f3 01 31 97 b0 bf 4f 3f dd 77 98 80 b0 bf
       -0.06480699823032995 -0.0644622128140757
000410 f1 08 73 b5 0d 2a bb 3f 84 94 22 00 8a 03 89 3f
       0.10611043624797724 0.01221378147995212
000420 98 26 eb 2d 4f 56 b4 bf db 80 a5 42 fc 72 c2 3f
       -0.07944197531755959 0.14413407568191058
000430 bf 2d 24 0e d6 1d bd bf 24 ed 1f 29 ee 57 a8 bf
       -0.11373651356932778 -0.04754585506449363
000440 e2 9b 06 50 02 b2 c0 3f 3a 27 c5 03 58 71 c0 3f
       0.13043240458975364 0.12845897850120896
000450 51 47 cf 9e de a3 b2 3f da cd ed 9e f6 95 c0 3f
       0.0728129518240881 0.12957651863290104
000460 7d 60 90 2f 3e 4c 7b bf cf 31 c6 7d 25 d3 ba 3f
       -0.006664507783192272 0.10478433914813155
000470 13 48 67 83 82 f6 9d bf 58 88 c2 94 fa 87 a1 bf
       -0.029260672826986033 -0.034240561160246485
000480 9d b0 70 8b de 14 bd 3f 14 c9 5b f6 d7 af bc 3f
       0.11359969047834047 0.11205816044438094
000490 03 04 56 8d ab c8 76 3f 2a 08 87 2f 75 82 b2 bf
       0.005562467694631759 -0.07230312738741476
0004a0 03 b3 f5 fd b3 cb a3 3f f1 cc a0 3c 4f 68 9f 3f
       0.03866350627035866 0.03067134673638078
0004b0 e5 7c 32 68 2c 88 c2 3f 4f 34 bd ef c3 d7 bc 3f
       0.144780684354351 0.11266731837277287
0004c0 0b 42 ae 02 cf c2 a2 3f ed 52 53 54 c6 70 c2 3f
       0.03664252193187075 0.14406661145644453
0004d0 fe 6b 37 bc 93 d1 a0 3f 8e 9d 17 1e 10 db c0 3f
       0.03284894630970568 0.13168527097080268
0004e0 ff 5e df af 6e 93 a0 3f 13 40 6a dd 18 1b cb 3f
       0.03237481972581512 0.21176443873673687
0004f0 85 6d 38 c7 59 6f 73 bf 57 59 80 95 70 dd a4 bf
       -0.004744864173996337 -0.040751951455762984
000500 c2 7e f1 06 6e 83 b1 bf db 76 19 60 fd 0f bc 3f
       -0.06841170949473521 0.10961898418596709
000510 50 48 c9 cf 34 23 be 3f ef a6 93 a5 fd dc a6 3f
       0.1177247054377244 0.04465477606011158
000520 fb e0 e3 25 d8 79 bb 3f 26 7a d5 6b 51 f3 b3 3f
       0.10732794690182239 0.07793148882544951
000530 d9 c0 98 8b cc a4 c6 3f 98 9e ae 47 05 55 98 bf
       0.17690426651234395 -0.023761827945831898
000540 da e6 33 b5 ee b7 b8 3f 26 c4 a4 89 6e 2b b0 3f
       0.09655658649344492 0.06316271648826496
000550 28 4f ab 1f 3a da a8 3f 64 a2 52 d5 85 13 82 bf
       0.04853994022928837 -0.008826299259753152
000560 b4 91 4e 8a e2 30 ba 3f c2 2e 8a cc 92 8f 86 3f
       0.10230842472680629 0.0110160320921503
000570 ca 9b fa c5 79 64 83 bf 06 04 78 bf b7 c6 b3 3f
       -0.009468985895478971 0.07725094246417549
000580 5f 15 0e 17 b2 fa a9 3f 17 34 bb aa c6 4a c0 3f
       0.05074078113015434 0.12728198372352104
000590 0a 5d bd 43 55 59 a4 bf fd 5a 3a c6 3d 85 ba 3f
       -0.039744057196623286 0.10359560098218519
0005a0 0f d6 b0 ae 8f d7 c0 3f 21 5f 07 bf 05 86 b2 3f
       0.13157840757200787 0.07235752023495624
0005b0 57 25 76 82 b1 48 b0 3f 28 ae aa e5 f0 0e c1 3f
       0.06360921321006195 0.13326846327014263
0005c0 4d 2a af e1 64 a6 81 bf f3 f7 12 0c c8 bf 8b bf
       -0.008618152749382402 -0.013549387806389012
0005d0 99 48 b1 4a 22 d0 c0 3f 56 d8 11 b8 c5 aa ca 3f
       0.13135174414725695 0.20833655822542835
0005e0 c6 03 2b 6b a6 69 ae 3f 6c c8 ac ae b4 47 9d 3f
       0.05939979608729788 0.02859384838229355
0005f0 40 83 bd 9c 0b 8b 72 3f db ee 63 1a 7f 1a bd 3f
       0.004527135239045077 0.11368555444999677
000600 ba bc dc 61 6e e8 8c bf 2a 55 99 81 59 bd a9 bf
       -0.014115202294844632 -0.0502727480604029
000610 be 92 bc eb fd 57 a7 3f 49 0e 45 3a b6 cf bc 3f
       0.045593199755136635 0.11254443094826984
000620 10 07 4d d4 48 e9 bf 3f c6 7e 94 38 18 bb c9 3f
       0.12465338881613897 0.20102217447946752
000630 bb 76 43 79 70 b8 c8 3f f8 f7 63 f9 af 91 c6 3f
       0.19312864228316137 0.1763210265852988

lstm.bias_hh_l0 f8 [200]
000000 52 0f fb 82 23 0f a8 bf ab 15 8b 66 c4 6d b8 3f
       -0.046990499247412956 0.09542491439341087
000010 49 cc 18 e2 f3 25 c0 3f 2b aa 61 c3 d8 97 89 3f
       0.12615822353254405 0.012496655905313755
000020 f1 18 2e 45 09 a7 c5 3f 56 5b a6 57 22 86 b6 3f
       0.1691600406449605 0.08798422469986397
000030 47 c8 75 16 fe fa be 3f 7e 59 ca 84 30 9a ae bf
       0.12101734207479452 -0.059770122728127525
000040 59 9e 7c 1d 5a e1 b2 bf e0 10 35 c9 b3 96 81 bf
       -0.07375109882252086 -0.008588223054751543
000050 c6 ed bd 0a e1 11 b1 3f 6d 8e 89 7f 74 40 a1 3f
       0.06667906296018264 0.03369487816669623
000060 5d 61 a0 c8 4f e5 b1 bf 75 10 ce c8 d1 6c 84 3f
       -0.06990526817424354 0.009973181667881395
000070 5e a4 f8 63 f1 21 c1 3f b5 81 4c ee c8 ca b1 3f
       0.13384835606965145 0.06950050180285568
000080 07 a4 80 68 2d ab c3 3f f0 35 1f 33 d2 ee af 3f
       0.1536614189401748 0.06236893533751331
000090 08 df 87 f0 12 1f c3 3f bb 86 34 c7 a1 b5 b4 3f
       0.14938580269494417 0.08089648354919181
0000a0 99 18 2b 35 40 f7 ab bf 7b 02 fa 99 6d 12 c8 3f
       -0.05462074898746145 0.18806238191975297
0000b0 7c bd 91 a2 55 c7 c6 3f 3a e2 f5 19 fc ac ae 3f
       0.1779582065387152 0.059913519066814705
0000c0 16 89 3d 14 4b df 5f bf 67 36 86 f4 e9 0b c3 3f
       -0.0019453271097167927 0.14880108298932557
0000d0 26 fe f1 b1 4f 07 c3 3f 20 c1 98 13 16 6b a8 bf
       0.14866062344297964 -0.04769200314729205
0000e0 09 69 04 3d 2e db 95 bf 04 0d 24 fa 4e 3d af 3f
       -0.021343920206256892 0.06101462176777697
0000f0 ee ad ec ad cf b1 a9 3f 91 1e 86 a3 e9 37 79 bf
       0.050184717160245515 -0.006156838084627873
000100 94 ef 74 04 3f 2a b5 3f 66 e7 ad 5c 63 02 a7 3f
       0.08267587527092096 0.04494009500827083
000110 2b f1 47 5d 53 64 9a bf a4 84 f2 90 de 81 bc 3f
       -0.025773336952611785 0.11135664976838427
000120 2c 6c 33 8c 4b a2 aa 3f 56 44 66 85 89 48 c2 bf
       0.0520194634097709 -0.14283865941664214
000130 23 d3 50 00 e1 9f 8b bf 00 5e 97 08 10 91 c4 3f
       -0.013488538572440206 0.16067696017738342
000140 b0 fc 43 52 ea 52 74 bf 6d 7c 6f 26 51 e1 c9 3f
       -0.004961886708996818 0.20218862892849945
000150 11 37 f9 49 c7 31 b0 bf cb 29 7f dd 56 ee 9d bf
       -0.0632595592116696 -0.02922950484188806
000160 0b b4 1a 6c a1 09 a3 bf 22 15 36 58 74 98 c5 3f
       -0.03718285030968368 0.16871504122915676
000170 db ed ba 9d 80 0b bc 3f 9f 1f 0b 93 fe 34 c0 3f
       0.10955051279864085 0.1266172616944887
000180 97 20 7f 90 bc 3f b7 3f af 22 ce 1d 6f 7a 83 bf
       0.09081629302738957 -0.009510868165095358
000190 cc b8 78 5f b7 c6 be 3f 6b 12 3b 75 92 78 b2 bf
       0.12021967011307594 -0.07215228426054814
0001a0 8c b4 f5 5b 44 bf 9b bf 2d ec 85 30 24 52 b7 3f
       -0.027096813309459608 0.09109712776800967
0001b0 42 57 ae 6b f6 fe a9 3f 9f 5b cf 42 f3 4b 9b 3f
       0.05077333511796535 0.026656914665945327
0001c0 f7 f1 4e d4 99 4a a3 bf b9 1c 26 fe 33 30 c3 3f
       -0.037678534666586154 0.14990854177105975
0001d0 a0 7c bf b7 17 b1 c4 3f e2 1f 0f 8f ce 89 bc 3f
       0.16165443870611274 0.11147776596692396
0001e0 9b 6f f1 2a cd e2 c3 3f b4 4d 62 d5 c5 de c3 3f
       0.15535893055755143 0.15523598593845878
0001f0 40 12 3d 1b 43 2a a1 3f fe 4d 55 f7 e4 02 93 bf
       0.03352555949689817 -0.018565728755971726
000200 e5 fb 59 ee c0 da 37 3f eb 9e b8 f0 39 0b c0 3f
       0.000363990881261543 0.12534260038341158
000210 49 8b 1e 04 c1 a5 80 bf fd 86 35 38 2c 5a a7 bf
       -0.00812865060635705 -0.04560983835359698
000220 da ad 9b 24 b8 fb c8 3f f5 d8 34 65 8a 5b 6d bf
       0.19518186366563733 -0.0035836890253008132
000230 71 76 f2 13 81 2e c4 3f 55 eb d4 57 9f 71 b6 3f
       0.15766919588070352 0.08767124075249673
000240 b4 7b 9b fd f3 85 7a 3f 0f b9 7d c6 45 98 a1 bf
       0.006475403870097308 -0.03436487243640062
000250 4a a8 b4 58 33 02 b5 bf 4a c8 8d 22 e8 ab 99 bf
       -0.08206482806841212 -0.0250698348131169
000260 d3 6a 9a 5f 0a 90 96 bf 89 7c f8 66 95 0f c0 3f
       -0.02203384598270015 0.12547557380546362
000270 e6 d3 cc cf 80 f4 ab bf 83 bb 05 b5 c0 c9 c1 3f
       -0.05459978615400711 0.13896950568183905
000280 f7 3f 0f 85 f8 8f b3 3f 93 5a db a9 82 f9 94 bf
       0.07641556976818707 -0.0204830566570658
000290 67 8c 0d 3d fb 3c a9 bf 4d d2 55 02 9a 81 97 3f
       -0.04929337616229006 0.022955328362018346
0002a0 28 92 54 63 cc fb be 3f fe b5 ea 44 1d f0 be 3f
       0.12102963852937221 0.12085135395565058
0002b0 61 17 c1 54 3b d9 c4 3f c2 8c de 45 cb 7b a8 3f
       0.1628793872679877 0.047819473532649606
0002c0 39 74 84 60 79 f7 a5 3f 54 26 ee 18 23 98 a9 bf
       0.04290370276633166 -0.04998883895229925
0002d0 5d 68 cc b0 0a 99 a9 bf 3d 69 1c 4a bb 47 c4 3f
       -0.049995740968555615 0.15843907469463572
0002e0 79 f9 c7 00 e4 53 b4 3f 23 57 4f f3 f9 09 a9 bf
       0.07940506953307204 -0.04890423865405882
0002f0 84 43 70 c8 d2 62 a9 bf bc 42 7f cb 13 32 a0 bf
       -0.04958208748587992 -0.031632059660869655
000300 a2 21 7a 96 86 fd c5 3f 7e c2 af 65 80 e9 7c 3f
       0.17179949138177358 0.007058621932615082
000310 81 b8 13 6c 66 4a b1 3f fe f9 c2 c2 bf 69 61 bf
       0.0675415052280375 -0.0021256203964121747
000320 36 8c 3c 61 dc ce ba bf fd 24 b9 bf 12 d3 b8 bf
       -0.10471894620836583 -0.09697072201483432
000330 ca 5f 19 0c 82 f0 c4 3f 34 21 fc 04 d9 34 b2 bf
       0.1635897215917324 -0.07111889239979946
000340 74 98 09 f5 86 75 b1 bf 4a d7 54 79 4c 5e bf bf
       -0.06819957239494717 -0.12253263437454823
000350 1f 40 44 23 fb 07 94 bf b5 b8 11 47 ec af 8f bf
       -0.019561695125105524 -0.015472265166149727
000360 96 95 7c 37 39 c3 a9 3f ef 5e fe 83 29 38 9a 3f
       0.05031756212546694 0.02560486667752476
000370 a0 e8 c1 dd 0b dc b1 3f c1 d8 c7 95 24 a5 bb 3f
       0.0697638908767737 0.10798863083604983
000380 b0 d8 aa 11 0f ad bd bf 52 6d 29 5b a5 a6 ad 3f
       -0.115921918690989 0.05791203248801459
000390 b4 9d d3 41 9f 57 c1 bf 23 b6 39 be c3 3f b7 bf
       -0.13548651422682456 -0.09081672090697927
0003a0 94 7f 3d d0 b3 56 c0 3f 55 42 8f af c8 05 c1 bf
       0.1276459471509922 -0.13298901149984724
0003b0 39 a0 52 26 c1 43 b6 3f 71 df 28 04 05 d6 b3 3f
       0.0869713514863414 0.07748442985109506
0003c0 f0 ed a7 5b 8f 51 a7 bf 45 9b 43 e9 90 fc bf bf
       -0.045544128359292446 -0.1249476022236254
0003d0 5d 46 0d db 3f b7 b6 bf 33 57 ad d9 f7 fc 67 3f
       -0.08873366449304272 0.0029282418085284866
0003e0 d3 6c fd 90 23 05 8a 3f dd 25 a7 86 fd 2a ac bf
       0.012705114233247638 -0.05501549023353978
0003f0 ee 04 4f 0e 39 40 b6 bf 26 cc c3 3e e5 e9 c2 bf
       -0.0869174632962488 -0.14776292385758544
000400 d3 c0 f9 88 80 25 c2 bf 4f 3f dd b7 48 07 be bf
       -0.14176947296392103 -0.11729864586709236
000410 de 11 e6 6a 8b 07 af 3f 88 52 84 f7 bc 23 bd 3f
       0.06060443572917838 0.11382657091992077
000420 da b2 29 c4 d6 e2 af 3f d9 06 2c b5 4d 43 94 3f
       0.06227751869741889 0.01978799265180595
000430 33 6e 21 f1 a1 70 80 bf dc 12 e0 9e 83 96 a4 3f
       -0.008027329608174849 0.040210831779438044
000440 18 21 cb ff da 85 94 bf 7f 4e 8a 07 74 58 b2 3f
       -0.020041868078608166 0.0716621893318976
000450 aa a3 67 ff 98 31 c0 3f a6 9b db 3d 5a 68 ba 3f
       0.1265136000722838 0.10315479288293136
000460 05 06 f9 de 31 9e bb bf cf 31 c6 7d 61 9a bd 3f
       -0.10788261121435745 0.11563691445025558
000470 b6 40 3a 1b 7d 96 63 bf f2 5d cf ba cb a4 c4 3f
       -0.0023910945399806217 0.16127916928847658
000480 a1 b0 70 8b 3a 19 b1 3f 13 c9 5b f6 08 7f bf 3f
       0.06679120926190986 0.12303215040791242
000490 bd 9f 2a fb 1d d0 b2 bf 2e 08 87 ef ea 8f b8 bf
       -0.07348811513895633 -0.09594601009214962
0004a0 81 26 05 91 50 e2 b7 bf 6b e6 6b 48 0c 66 c7 bf
       -0.09329703846483463 -0.18280175720410638
0004b0 da f9 64 00 cd 6c bd 3f a1 68 7a 6f d3 52 a7 3f
       0.11494141826276608 0.04555378661935206
0004c0 10 21 57 01 59 02 ba 3f eb 52 53 74 d1 94 c1 3f
       0.10159832270358415 0.13735407047229073
0004d0 0d 94 c8 23 ff 1c a8 bf 8e 9d 17 3e b3 f1 c7 3f
       -0.04709622680483259 0.18706360370491065
0004e0 bf d7 f7 3b 80 c7 c9 3f 31 01 a4 d6 d4 da 89 3f
       0.2014007847607768 0.012624419021904561
0004f0 a7 0d e7 78 36 2c a0 bf b3 e9 9f ba 95 d2 c1 3f
       -0.031587316759693444 0.13923904049427235
000500 00 fb c5 1b 36 82 9d bf 77 bb 0c bc 2e 36 c9 3f
       -0.02881702942385811 0.19696602041355124
000510 9c de da 00 12 25 99 bf 15 59 6c 1a 20 80 a5 bf
       -0.024555474569494792 -0.04199314425038573
000520 fc e0 e3 e5 c3 e3 b2 3f 88 e8 55 b7 43 da 94 3f
       0.0737879215483907 0.020363863053241477
000530 d5 c0 98 2b 2d 89 c0 3f 60 58 14 d6 6c 53 b0 3f
       0.12918629292244668 0.06377296663808485
000540 26 19 cc b2 d6 c0 b0 bf 15 62 d2 88 40 00 cb 3f
       -0.06544248452346277 0.210945193107151
000550 4f 9e 56 2f ce 53 97 3f 07 13 95 aa 6e 88 5f bf
       0.022780629767707613 -0.001924617836565891
000560 b3 91 4e 2a f1 0a ba 3f 95 e8 ba 19 79 a3 99 bf
       0.10172946246036112 -0.02503766269249093
000570 80 53 bf 98 4e 13 b5 bf 06 04 78 71 ad 70 b4 3f
       -0.08232585171874796 0.07984432239756253
000580 57 85 c3 c9 df 13 c5 3f 12 34 bb 1a b4 e8 ca 3f
       0.16466901160951394 0.2102265482448336
000590 bf a8 10 6f 6a 2a c3 3f 81 2d 1d ff 54 2f c4 3f
       0.14973192618464812 0.15769445854889955
0005a0 0f d6 b0 36 b8 c7 c5 3f 89 af 83 53 ed eb c3 3f
       0.17015745802352497 0.15563742235042025
0005b0 b4 12 3b ef c4 f2 c3 3f 24 ae aa 2d ae 06 ca 3f
       0.1558462303275029 0.2033288691503553
0005c0 67 35 94 4f f5 a6 af 3f 7c d0 3e bf d6 f7 c8 3f
       0.06182066532538038 0.19506344164040346
0005d0 9f 48 b1 f2 ef a0 c6 3f b1 13 76 04 ee 79 63 3f
       0.1767864165327113 0.0023774765756478734
0005e0 cc 19 7e 6a 2a 13 38 bf 1b 32 ab 43 d9 73 b2 3f
       -0.0003673533014922042 0.07208021070545849
0005f0 74 b0 97 93 03 e9 af 3f 6e f7 31 65 05 75 c0 3f
       0.062324630514781015 0.12857119980975135
000600 97 a1 11 cf d3 8e 99 3f b3 aa 99 ff 84 d2 cb 3f
       0.024958905709725334 0.21736204605561724
000610 b0 24 ef 16 49 10 c3 3f 96 1c 8a c2 cb c2 af 3f
       0.14893449420768468 0.06203305005788555
000620 eb f1 65 77 74 ec ad bf 6c c6 7e 94 b8 21 4f 3f
       -0.058444633078554485 0.0009500647802182633
000630 b5 da 0d 85 8b b9 a1 3f fa f7 63 91 e2 a5 c1 3f
       0.03461872100063116 0.13787490939279207
