AIModels/trainedModels/localization/trainedModel_06_30_2023_09:08:08.pth (torch, 794735 bytes, 18 tensors)

lstm.weight_ih_l0 f8 [200, 112]
0	0xbf9ceb1a467fccd2	-0.028240595391207553
1	0xbfa85ab08bbe8a7b	-0.047566906984930456
2	0x3f86828af53c30d2	0.010991178139669353
3	0x3ff962e5d6c0d7f0	1.5866449726868233
4	0xbfb5202ff4e5eece	-0.08252238968810419
5	0x3fb1239a0c14c754	0.06694948954534868
6	0x3f77a7f6921c2585	0.0057754165334328355
7	0x3ff52b2224c732f9	1.3230306088109371
8	0x3fb1209f61ee8542	0.06690403119002489
9	0x3fa8c864800af90f	0.048403874044639854
10	0x3fbd7041f4891fe1	0.11499416561230148
11	0x3ff081ea76fd6567	1.031717743686693
12	0x3fa7490bb322635b	0.04547916948030802
13	0xbfb6093e2e537499	-0.08607853537565048
14	0xbfb9128125daa2f6	-0.09793860601588364
15	0x3fe17e187cbb5491	0.546642535797803
16	0xbfc13f396bcdd5e8	-0.13474195255154986
17	0x3fa9373db4cf55ad	0.04924958068992722
18	0x3fbad0f1526e5bfe	0.10475071203687489
19	0x3fe62af34b5ca820	0.692742964926996
20	0xbfa2da69b68371a4	-0.03682260849902555
21	0x3fb357566e5703c4	0.0755514163383984
22	0xbfbd1335830d873f	-0.11357435655147884
23	0x3fde6c6f7981f559	0.47536837450009767
24	0xbfb8c81846390f67	-0.09680320467401558
25	0x3fa026ebbec0dfe5	0.03154694274456896
26	0x3fae1030e2b6b0b4	0.05871727721691525
27	0x3fdcc6da80a9f1de	0.44963705601528925
28	0xbf955addd66ff34f	-0.020854440892424105
29	0xbfb37727727eb1d1	-0.07603689713750518
30	0x3fa88ec835193d21	0.047964340669404366
31	0xbfd509a65986aa16	-0.3287139772679962
32	0x3fb0a9123a2b2128	0.06507982177857186
33	0xbf54cc6d83c87e8e	-0.0012694425087217717
34	0x3fb49066176e86f8	0.08032835075439582
35	0x3fc46a5a58542830	0.1594956332485835
36	0xbfc5151c7a79ed84	-0.16470676403319484
37	0x3fb711153a3cfd19	0.09010441467124898
38	0xbfbb76182a2ce802	-0.10727072744057867
39	0x3fec552746376490	0.8853947039998662
40	0x3fb4a11c66b0eedb	0.08058335787876152
41	0xbfbf50a5a3c0be69	-0.12232432601808231
42	0x3fb8d5e7d45ee764	0.09701394018966664
43	0x3ff0297d086f5c56	1.0101290063373844
44	0x3fb5d86021ca329a	0.08533287835070738
45	0x3fa79cb0a26c26c6	0.04611732466407896
46	0x3fc439cc65c52a78	0.15801386803862605
47	0x3ff1dab7219e0ac0	1.1158973038842959
48	0x3fae80b955ed6516	0.059575835932898766
49	0xbfb55d0a6ee8d60b	-0.08345093925239426
50	0x3fc170135a56dd24	0.1362327757940217
51	0x3ff0feda1aac1e19	1.0622197191131646
52	0x3fb7e74d0202972a	0.09337312029910252
53	0xbf9f05820e6a7593	-0.030294448976396614
54	0x3fc5f00a65fff552	0.17138795834027093
55	0xbfcaad244479768c	-0.2084088644359564
56	0xbf781754a20fb0a2	-0.005881624791964553
57	0x3fb925492ec8774c	0.09822518722691348
58	0x3faf37d8e92b239a	0.060972956145241855
59	0x3fd80f71ffaff37e	0.3759427067705515
60	0x3f807bd4d05ff118	0.008048689469426537
61	0x3fba7c8c94de9691	0.10346296915539656
62	0x3f809475c18eef1e	0.008095664948875089
63	0x3fdc8d57d097153d	0.44612689371236397
64	0x3fb4b6c8580b25cd	0.08091404103756546
65	0x3fb36b4941c81b1b	0.07585580688474318
66	0x3fb13a66e9b1b05e	0.0672973938505392
67	0xbfc5c9c5861a9162	-0.17022007988010573
68	0xbf8f288679ca2cea	-0.01521401461766066
69	0x3fbbc831b108edf4	0.10852346965923926
70	0x3f85265536bcacc4	0.010327020390454307
71	0x3fe5a5271f5f52dc	0.6764102566472405
72	0x3fa93b347d7c3889	0.04927982360651224
73	0x3f9b1f0177487fbd	0.026485464959591577
74	0x3fbca7820f358535	0.11193096991839442
75	0x3ff2b73b7856455c	1.1697344494499111
76	0xbfaedfb2ec9de9c3	-0.06030043733968029
77	0x3f9f5737b0043f09	0.03060614597148884
78	0x3fce41df1df02e08	0.23638524019075668
79	0x3fa7765a0fc12986	0.04582482759777222
80	0x3fa008c8f2067596	0.03131702379617278
81	0x3fb247668ceab784	0.07140198650696844
82	0x3fbefb6f8c4ed6b3	0.12102410483825103
83	0x3fe04e05c26b2f0b	0.5095242306938145
84	0xbfc01e7b792e8141	-0.12593024651597243
85	0xbf964843432212c2	-0.021760035488585634
86	0x3fd094897a9f54e7	0.2590659806713362
87	0xbfd7918af0863c63	-0.36825822342593123
88	0xbfc37e06dc8fda53	-0.15228353280663728
89	0x3fa530c1571efe0b	0.041387597927947516
90	0x3fac7e33932f3b67	0.055650340763910226
91	0xbfbce2c437f7cd6f	-0.11283518186956142
92	0xbfbf9d20f5aad22d	-0.1234913444303138
93	0xbfb201daac71cfce	-0.07034079275200542
94	0x3fcea8b12a00e392	0.23952307272864154
95	0xbfe1bf9aa404c09c	-0.5546391681182459
96	0xbfa7a424a3f95f10	-0.04617418767582937
97	0xbfa01cac9d9fe995	-0.031468767396250964
98	0x3fce704bad8d54c5	0.23780199026319884
99	0xbfd47c9677c04b7a	-0.32010423368881613
100	0xbfbb499ac26b6879	-0.10659186598368987
101	0x3f8b4c02b4024893	0.01332857238620403
102	0x3fb6794c1c569ebd	0.08778835002760395
103	0xbfcfb58244da560f	-0.2477267109103853
104	0xbfc48039b19129a7	-0.16016312761560167
105	0x3f87af101463a5e2	0.011564374563437011
106	0x3fc119c094e947f0	0.13359839697892495
107	0x3fc067d6823bef36	0.1281688819798263
108	0xbfc763374a0bf457	-0.18271533122598058
109	0xbfa70c81106ccfa2	-0.045017274146089706
110	0xbfa4f2de0bee536e	-0.04091543098107918
111	0xbfdf26e577553f2a	-0.48674904492962645
112	0xbfa8c5dd3b5f2f2f	-0.04838458394769273
113	0xbfa5bf90d4439e55	-0.04247715560069013
114	0xbfea6a0988069ed4	-0.825443998027334
115	0x3fd4f2f2a5abf04f	0.32732835940237676
116	0xbfc5a2d5b49672dc	-0.16903182332762057
117	0xbfb6276b08cb1b4d	-0.08653897251779803
118	0xbfe8e64ce996c3b7	-0.7781128465922994
119	0x3fd43edee241ba9b	0.31633731933008286
120	0x3fac592cab5e8be5	0.055367847365481095
121	0x3fa7c823c4e1a385	0.04644881990754527
122	0xbfed8521d6d5e15b	-0.9225014873509666
123	0x3fe0af344eacd68d	0.5213872467636108
124	0xbf97f0558bc553c4	-0.023377739578183357
125	0xbfb7a314c7ce574c	-0.09233217123104714
126	0xbfe920ede5f383a8	-0.7852696887240329
127	0x3fd23e281688c6ed	0.2850437374173527
128	0x3fb34a022451ca53	0.0753480280562056
129	0xbfaa22b93fa896c4	-0.05104617025453487
130	0xbfe5560871c668e0	-0.6667520734947878
131	0x3fd937302e439301	0.39399342077221894
132	0x3fb233b6742a3f20	0.07110157333431433
133	0x3fc6a6a064700fa9	0.17696003822504494
134	0xbfec77206d7fe43c	-0.8895418299354172
135	0xbfc122ae2acafb5f	-0.13387085999962786
136	0xbfc379b987a08a49	-0.15215224382798656
137	0x3fc653ce9853df1b	0.1744325870310995
138	0xbfeb9c2f0c53575b	-0.8628154030545646
139	0xbfb184dd78dbb4f9	-0.06843361092224488
140	0xbfbb4dbd5322a006	-0.10665496139210981
141	0x3fc01357fe83cdd1	0.12559032371028292
142	0xbfe9addd2eeadc76	-0.8024736324649797
143	0xbfd3c75b5ad01779	-0.3090427767605131
144	0x3f7f180c286e3b4e	0.007591292850419885
145	0x3fd2c4598cc95e11	0.293234240996271
146	0xbfea9fd418881771	-0.8320103148587191
147	0x3fe4c938dbc1c07a	0.6495632450223774
148	0x3fb341faa7356528	0.07522551138153644
149	0x3fd0be8f864eee3b	0.2616308986286843
150	0xbfe355cd8930a840	-0.604223983716345
151	0x3fcd57f6a1b1b212	0.22924693007679814
152	0x3fbb8936315ca3fe	0.10756243424533804
153	0x3fd861bcbd2f653e	0.38096540904151144
154	0xbfe714dacfb2e085	-0.7212957436195359
155	0x3fdf3f23d6862d8e	0.48822875928518605
156	0x3f7bd53ef6658588	0.006795164057935017
157	0x3fd6113d6cc55c3b	0.34480224249040575
158	0xbfe7370dc0335724	-0.7254704240719758
159	0x3fcf63137e5334b9	0.2452110640355494
160	0x3f75e56e789d5039	0.005345756080561919
161	0x3fdd599a6c3d1650	0.4585939461725035
162	0xbfe9f3630d2ff84b	-0.810960317379576
163	0x3fcdd524d4e0eb89	0.23306713480436894
164	0xbfb3fbc1d70c07cd	-0.07806025982065919
165	0x3fdf842ae664e08e	0.4924418687765034
166	0xbfe51f1f024d67e9	-0.6600489659278966
167	0x3f712dcbc419f536	0.004194065056819787
168	0xbfbb9e4e03db6f92	-0.10788428873223513
169	0x3fd30c43b0873462	0.2976235603244445
170	0xbfea681e62433c48	-0.8252098006431732
171	0xbfe18a43bfdf956d	-0.5481280086066086
172	0x3fc120a733465f74	0.13380899432808813
173	0x3fe10e03e655fb2f	0.5329608439204544
174	0xbfe87bf788a1ae2e	-0.7651326817116961
175	0xbfd8bfaaaf1d517e	-0.3866984090903073
176	0x3fa18c346a62e4d9	0.03427280234013503
177	0x3fe2a90d9d804db6	0.5831363750643763
178	0xbfe454163748802c	-0.6352644996404755
179	0xbfae79a96467c15f	-0.059521955019479426
180	0x3f8099dcff311371	0.008105970895607691
181	0x3fe2614fc92182e9	0.5743788650835003
182	0xbfe450fb1513e894	-0.6348853503871106
183	0x3fe49d3e7951e5ab	0.6441948289422518
184	0x3f8a43161f466af2	0.012823269681395886
185	0x3fde29d55c1dbb15	0.4713033103534355
186	0xbfe3636e3663cd37	-0.6058875143338928
187	0x3fad2e93961eacb6	0.05699597556607598
188	0x3fb1349277a95717	0.06720843717024781
189	0x3fdcfd850515da49	0.45297360893838295
190	0xbfe375b5ec664cbb	-0.6081189744167185
191	0x3fee3885e4060e78	0.944399781569202
192	0xbfb421f4f7d0ee47	-0.07864314127157811
193	0x3fe51121895250fa	0.6583411867200362
194	0xbfea1476243b8924	-0.8149977405230726
195	0x3fe56662775a3779	0.6687481242276895
196	0x3fc335f9b87df2a0	0.15008470066449764
197	0x3fe0b7b8a9a83b37	0.5224269212356835
198	0xbfe2d6da0fb27d57	-0.5887270266138483
199	0x3fc6cfcf1c1a0939	0.1782168280806873
200	0x3fb33b1362821c19	0.07512017397867544
201	0x3fe8d038e208a784	0.7754177489016318
202	0xbfe199f4755aa9c9	-0.5500433246682458
203	0x3fe67217883c6a92	0.7014272366389653
204	0x3fbd261cd9340558	0.1138628034859911
205	0x3fe959577f098c77	0.7921559792706735
206	0xbfe4786698f52376	-0.6396973597958169
207	0xbf707ffa6209cea5	-0.004028299387403377
208	0x3fbe8e1ecc70c565	0.11935608378623426
209	0x3fe67e6f479faf6b	0.7029339217092291
210	0xbfde821037c50878	-0.4766884369493094
211	0x3fe071026b23e7b5	0.5137950985510914
212	0x3fa65bb8459e0ee0	0.0436685166341968
213	0x3fe8fd9ff768d950	0.7809600670068821
214	0xbfe1043f1760946f	-0.5317683655345159
215	0xbfc0de8967ba408c	-0.1317912823183217
216	0x3fb160c764fbcfab	0.06788297858639562
217	0x3fe95dfe57e4c544	0.7927238194153365
218	0xbfcff98350c34381	-0.24980203097814171
219	0x3fe224f00a34505b	0.5670089911750539
220	0x3fb5e2a090322c34	0.08548930664453352
221	0x3fe414d1c10ad5e0	0.6275414247854165
222	0x3fcdb311bc52006f	0.2320272607357796
223	0x3fdafd0622e151bd	0.42169335752739895
224	0x3f92e22b277ae52a	0.018440889630004488
225	0xbfce1119ac80f51d	-0.23489685938867746
226	0x3fc301d9b22e2d83	0.14849396896566355
227	0xbfe3482f0f573839	-0.602561502420719
228	0xbfb6e98aef27e666	-0.08950107897535417
229	0xbfd3f947a8307ce5	-0.3120898382639566
230	0x3fd99bfa63b13259	0.400145146709098
231	0x3fd5880d229066c3	0.33642891288182514
232	0xbfb57fc9aed4fd98	-0.08398113745078317
233	0xbfdb6f527bafeeab	-0.428669567859951
234	0x3fd99515235b387b	0.39972427799955995
235	0xbfd3752e574efa49	-0.3040271618482718
236	0xbfc0440673e695c5	-0.12707596453871708
237	0xbfd915e90fa53884	-0.3919623043810889
238	0x3fd576e518050d0b	0.3353817686622313
239	0xbfe6ec3a57e71fae	-0.7163364140369504
240	0x3f90e4a96e6b2be5	0.01649727570001493
241	0xbfdb1ccfa993e948	-0.42363349495248714
242	0x3fca5d83a461ed84	0.2059788277291369
243	0x3fd158520bd81d26	0.2710156551042523
244	0xbfd020423debcf23	-0.25196891829476636
245	0xbfe10157bbdbe05b	-0.5314139050597179
246	0x3fcc77f46c798403	0.22241072937598014
247	0xbfd896cf8a3655ce	-0.38420475480355953
248	0xbfcf474602221ac4	-0.24436259369050195
249	0xbfddbe07c4b8b041	-0.46472353182867115
250	0x3fb7e9e97377569e	0.09341296261785678
251	0x3fcee3f15890f321	0.24133126091501203
252	0xbfd33804d948018b	-0.3002941247832715
253	0xbfe4b4c1b94babbc	-0.6470650309614636
254	0x3fd220b28c2c2e58	0.2832456940529702
255	0xbff48c54b5fdb9f5	-1.2842604741123271

lstm.weight_hh_l0 f8 [200, 50]
0	0x3fca701c27550209	0.2065463249255262
1	0x3fc485ab25a7a65a	0.16032924021355904
2	0x3ff018a4a2c66899	1.0060163839721439
3	0xbfe329a4b03db868	-0.5988334123810661
4	0x3fafab541d7e0143	0.06185400829326906
5	0x3fa004b5036ca339	0.031285912197125794
6	0xbfceb8c2ddf3cea7	-0.24001346433180012
7	0xbfda32c32fa1333e	-0.4093482937940286
8	0x3fd6e515f1e6c339	0.357732282859661
9	0x3fdf2cb2f455bd1c	0.4871032129367039
10	0xbfd9d4fcf5564a43	-0.4036247630948859
11	0x3fd3e278f21b2d05	0.31069778102092044
12	0xbf99e6b77893643e	-0.025294176802024497
13	0x3fcba83c280a5e55	0.2160716243276847
14	0xbfce21bd7c9c795f	-0.23540466866047446
15	0x3fd0648fa3abd416	0.2561377619124995
16	0x3fd162a4c6643868	0.2716457307259419
17	0xbfafcfbde02d6a16	-0.06213181840458419
18	0xbfe20c4380bdd022	-0.5639970316392502
19	0x3fb125b942638b7e	0.06698186751195398
20	0x3fbc939b7dc4cdbd	0.11162730999495003
21	0xbfd4c70e246fb27b	-0.3246493678878221
22	0xbff18faddba8170e	-1.097577913316346
23	0xbfd9465499cde0b1	-0.39491763133947716
24	0xbfba37fc50e47254	-0.10241677260314336
25	0x3fd3c76a7e4256fd	0.30904638605112195
26	0xbfc2622e185787da	-0.1436212176186576
27	0xbfdb4b2673735067	-0.4264618041463621
28	0xbfd3a3183745638e	-0.30682950398982534
29	0x3ff1eea30d6c466a	1.1207609676679575
30	0x3fd6b2858b5fcd9c	0.35464609728588825
31	0xbf64b70a2478c253	-0.0025286863417693177
32	0x3fd32d0974f7dcd6	0.2996238367335996
33	0x3fe18c11c4c0443c	0.5483483164590619
34	0x3f830cd67a2c057a	0.00930182991351346
35	0xbfd4e116deaf863e	-0.3262383627571558
36	0xbfd2dc6e36744150	-0.2947040111330539
37	0x3fbd0b52799f62a5	0.11345401257802708
38	0x3fe1393b7600d89c	0.538236361003118
39	0x3fc1a8efdaa1b411	0.1379680459535
40	0xbf7d28334c916aab	-0.00711841620167301
41	0xbfab431f565564da	-0.05324647835613812
42	0xbfaaa3238fc2c9c1	-0.052025901125847714
43	0x3fe78d3bd3790795	0.7359904413535668
44	0x3f927122286cdc95	0.018009694783554926
45	0xbfcda6aa4d89d006	-0.2316487196545724
46	0xbfd0f6af48e83a02	-0.26505643958890357
47	0xbfaec630771e830f	-0.060105814495960634
48	0x3fd2e8f94910e0b1	0.29546959052414495
49	0xbfe9c699c0342e53	-0.8054932359677401
50	0x3fd24070d687ad37	0.285183152677479
51	0x3fb7b7394d500720	0.09263952386393415
52	0xbfc38bf28666bec6	-0.15270835459295123
53	0xbfcdbfff2ec019b7	-0.23242177756055835
54	0xbfb6be6685dbfd86	-0.08884278076219773
55	0x3fb735d498d462a9	0.0906651375884261
56	0x3fcff781c4705428	0.24974081126916414
57	0x3fca3685b036d2c2	0.20478888611036977
58	0xbfcffe9ecf200cdb	-0.2499578963616845
59	0xbfa023c0ac47b9aa	-0.03152277091054441
60	0x3fd231bce3307608	0.28428575693564584
61	0x3fc907c8a743168f	0.19555004279225272
62	0xbf82d761c885e499	-0.009199870998360548
63	0x3f8b01565ca00745	0.013186144544309672
64	0x3fb0b189f2b558aa	0.06520902801034603
65	0x3fb81dc619bdcbd2	0.09420431259586273
66	0x3faf1c38b7a18d35	0.06076218835439776
67	0xbfb2ef54541d7f95	-0.07396437696070131
68	0xbfb10ece59d621a3	-0.06663217252037738
69	0xbfb396bc18378fd0	-0.07651877967106135
70	0x3fcbf08e9857f5b8	0.2182787174096299
71	0x3fc77da2f0910a3c	0.18352162119306736
72	0xbfae3a5cd9482008	-0.05903902199139571
73	0x3fcc3e69e94434c4	0.22065471544229898
74	0xbfd3079cf229c551	-0.29733966492411407
75	0xbfced4f692be0d87	-0.24087412037998154
76	0x3fb15632e30d2d03	0.06772153895615322
77	0xbf96bbb404ab9fc3	-0.022200405869540207
78	0x3fb99a7d004a2dd6	0.10001355416368737
79	0x3fa7911114c402e6	0.04602864626395391
80	0xbfa8b26497eccc1d	-0.04823603014519782
81	0x3fd542b8c2a3eaf2	0.3321973706039635
82	0x3fb494bf0978cae5	0.08039468747373808
83	0x3fc4259d0588ca85	0.15739786882621246
84	0x3f86ba5f3b96507b	0.011097663885074596
85	0x3fd238eb94087ddf	0.2847241349827225
86	0x3f96201499627438	0.02160675226388184
87	0xbfa318074db8e1c8	-0.037292698133061075
88	0xbfcd737cedef0c4b	-0.2300869142328302
89	0x3fb7bf78e4d19c4d	0.09276538454433698
90	0xbfd0a750bc7d0478	-0.260212120123533
91	0x3f5d9a513d9a73e7	0.0018068116536717972
92	0xbfc5036e8ed49f87	-0.16416723226688765
93	0xbfd69120e6b21a32	-0.3526079419029059
94	0xbfac565edff675a1	-0.05534645542068551
95	0x3fc67f6935266f7b	0.17576327414723977
96	0x3f9cc877dff966df	0.028108475728322865
97	0x3fd7ff5569874724	0.3749593287039821
98	0xbfc5b4b9d597533a	-0.16957781724217985
99	0x3fc346045baeba58	0.15057424999891356
100	0x3fafb0b431b87f80	0.06189501864378055
101	0xbf99dcccc54ae35c	-0.025256347219257833
102	0xbfa884f3bf7ddf22	-0.04788934433503146
103	0xbfc832b9ad284156	-0.18904801325744341
104	0xbfd7406895f57e18	-0.3633061851923869
105	0x3fc09dc53e6701ff	0.1298147730540364
106	0x3fe626ddbefad70b	0.6922444086146425
107	0x3fdc9b106e5f806b	0.44696436670893175
108	0x3f8cce1111b72865	0.01406491599381727
109	0xbfe073e7bdf888a4	-0.5141485891692992
110	0xbfa78bc01dfb6851	-0.04598808637611341
111	0x3fc136fe01e3f361	0.1344907292585971
112	0x3fdf406d77b1c46d	0.4883073490992221
113	0xbfc5507925cc832c	-0.16651834817550915
114	0xbfc1ef15c4d32bc5	-0.14010879622068564
115	0xbfd31179724e16b9	-0.29794155275918005
116	0xbfa40108fa7f8198	-0.03907039697492393
117	0x3fc84a184ae8ae23	0.18976119668637734
118	0x3fb14612ddb2c2d8	0.06747548973613549
119	0xbfafa6d5512f0ce6	-0.061819711837893185
120	0xbfcf27d7b94f4e7d	-0.24340340183572443
121	0x3fc0d0090760014a	0.1313487325678671
122	0xbf8aaa8fee5e5042	-0.013020634138037338
123	0x3fb914ac3c533dfb	0.09797169182569825
124	0xbfc832804ec1325a	-0.18904117436831563
125	0x3fd3e8b24bc542fd	0.31107766532390696
126	0x3fb479efbf15cff0	0.07998560347715489
127	0xbfb7317c72379669	-0.0905988482332646
128	0xbfa3d62ee097a4b2	-0.03874346248250883
129	0xbfae0642814395a0	-0.05864150836877546
130	0xbfa7efca971e55aa	-0.04675133795459925
131	0xbfccf2b4eaa3e63a	-0.2261568208412415
132	0x3fc8237ff7ede4a5	0.18858337026521102
133	0xbfb7cfd3e2e2c350	-0.09301494874195027
134	0xbfc533ac7e627a4b	-0.16563945933462984
135	0xbfca9adb482f343b	-0.20785084747913793
136	0x3fb3e7e85c4b5e2e	0.0777573800399913
137	0xbfd8234abf950fa7	-0.37715405186849654
138	0x3fd0d79efb69b61f	0.26316046287579015
139	0x3fc5b48d214095df	0.16957248805662936
140	0x3fa979e7c8d8263a	0.049758189456110505
141	0xbfd2aa0fc4ffe5d8	-0.291629736311362
142	0xbfb9f9684650b5a4	-0.10146190373116909
143	0xbfa8aa36ff0b55f2	-0.04817363608678339
144	0xbff1c40bc4d7ce9a	-1.1103627862147847
145	0xbfd33d00e3e3a155	-0.3005983567695883
146	0xbfc80d50f74924e1	-0.1879063804101753
147	0x3fc06d89088bd93d	0.12834275166796685
148	0x3fd47bfa55f275fd	0.3200670089080118
149	0xbf8a265adb960ba0	-0.012768468691097656
150	0xbfd39a83e81f9cbc	-0.3063058630782043
151	0x3fc215e635510b93	0.1412933121046903
152	0x3fd6752d5024592d	0.35090191675535004
153	0x3fd8018871aae4ae	0.3750935659441649
154	0xbfc77c5b14cfa9be	-0.18348253742381176
155	0xbfcae0604d62197e	-0.2099724176261581
156	0xbfd8dc1b02072c61	-0.3884341735653774
157	0xbfd593197f07f612	-0.33710324674015724
158	0x3fd2969fec0cdd5a	0.2904434018305061
159	0x3fce97caa6a59ba4	0.2390073121743771
160	0xbfbb751a11218bd7	-0.10725558202970774
161	0x3fc5e4a146247e2b	0.17103973317078788
162	0x3fcd21b93309c41b	0.22759165756318187
163	0x3fb601e2a31e80d6	0.08596626741791921
164	0x3fcaab3cdec70a29	0.2083507621556049
165	0xbfe547d8c45f494a	-0.6650203547854201
166	0x3fccbcc4cfdf1151	0.2245107665058961
167	0x3fcb279036d100d5	0.21214487721045452
168	0xbfc2436b54fff8d7	-0.14268247270951548
169	0x3fc73b4293373786	0.18149597347513352
170	0xbfbfa3b5a5a16102	-0.12359175962172134
171	0x3fb0b03fa8b10b0f	0.06518934124418883
172	0x3fd02e18a626149d	0.25281349397148195
173	0x3faf0070450c7276	0.06055022089842492
174	0xbfb7330f6f1b4977	-0.09062286818087793
175	0x3fc6841c6368d9de	0.1759067044637978
176	0xbfd6003c1e59a930	-0.34376433338060775
177	0xbfcdb583f2cc7bd0	-0.23210191111954126
178	0xbfd5080642c93846	-0.32861477396079797
179	0x3fd6d9ea7c7c73f3	0.3570505347905161
180	0x3fd768b717595faa	0.3657663085955344
181	0xbfe664e065505d20	-0.699814031485321
182	0x3fc5dcb685d63984	0.17079812560082186
183	0x3fdde3fa421d017a	0.4670396466863377
184	0x3fd866e0918790f0	0.3812791272341789
185	0xbfba5cd77c0184d9	-0.10297915246475799
186	0xbfb932c6a48e093c	-0.09843102948619714
187	0x3f9f689196bfa92f	0.030672335458725882
188	0x3fc0cfb64b03313c	0.1313388696929766
189	0xbfd67d524349865c	-0.35139900752083064
190	0x3fb6aad7ad8760d3	0.08854434954207883
191	0xbfdc4a15a829c5cb	-0.4420217649668216
192	0xbfbeedd8892e217b	-0.12081673955083787
193	0x3fc44722f1df53d7	0.15842091379332032
194	0x3fda591cc6257cb4	0.41168898916471197
195	0xbfdd2948586cd7d1	-0.4556446898963005
196	0xbfdd602b87e1fed8	-0.4589947535496157
197	0xbfde11d0d20ad27f	-0.4698373843378149
198	0x3fc6610a579840f0	0.1748364379605003
199	0xbfdf959f8c64e0b9	-0.493507277587479
200	0xbfa0e2acb07b0f21	-0.032979389708570624
201	0xbfc03fcb150992be	-0.1269468167039544
202	0x3fbbe07ff865a3cd	0.108894346374327
203	0x3fb718904e47d0bc	0.09021856223245356
204	0xbfbd93b5d744ef7e	-0.11553513055417672
205	0xbfba6c7c09456ce9	-0.10321784235332
206	0x3f70d4ef8b858b80	0.004109321329766824
207	0xbfc1701d89621258	-0.13623398979338464
208	0x3fbff6d9524316ab	0.12486036547042072
209	0x3fb0885cca3eb7ae	0.06458072602865059
210	0xbfbfa0945f974133	-0.12354399999390324
211	0x3fd436172b3ed247	0.31580142234023295
212	0x3fcc289d531088f8	0.21998945766342337
213	0x3fd1ea2ee9575b9b	0.2799184111331045
214	0x3fbb32b8e2984069	0.10624270946596116
215	0xbfc30fec0b3c3e93	-0.14892340229606713
216	0xbfabca972bed8d6d	-0.054280017959878225
217	0x3f93df790da0c317	0.019407168823991485
218	0xbf8a12fa15aa63f5	-0.012731508051091448
219	0x3fc9edcb04d41d6e	0.20256936774988382
220	0x3fb8a762ad3cf3bc	0.09630409936376244
221	0x3faa1ff12dae6597	0.051024948908160166
222	0x3fcbe70566f197fd	0.21798770453023045
223	0xbfc25a0762deb877	-0.14337246253620936
224	0xbfc8fa3fdc781be2	-0.19513700738045175
225	0x3fad4d9e1719e8f9	0.057232799835178434
226	0x3f0e22712ccb59b5	5.747707255003861e-05
227	0xbfd0bd4775acf18f	-0.26155268184427255
228	0xbfc95e547a0e747d	-0.19819122276104287
229	0xbfc0ef964307a469	-0.132311613778515
230	0x3fd27b61b3ea668a	0.2887806183804079
231	0xbfd5b091a5062fba	-0.33890191188470065
232	0x3fd5714bd06c78ae	0.3350400481593948
233	0x3fd3c0856a433a18	0.30862555863578356
234	0x3f87ed710d2ce9a0	0.011683352675039782
235	0xbfc197fd14c215c7	-0.13745082391339578
236	0x3fb9bbcb24c99159	0.10052175186280489
237	0xbfc425f5ed291bb4	-0.15740846710306544
238	0xbfbc79ce4cfb496d	-0.11123360995705918
239	0xbfa687c40b459656	-0.044004560829119896
240	0xbf89574cd2266f2c	-0.01237354294135392
241	0xbfd4d6389db82273	-0.32557502176545156
242	0xbfa343988e1f6128	-0.03762509093184213
243	0x3fb62e00afaa612d	0.08663944519719698
244	0x3fc6a860936fefbc	0.17701346587261735
245	0xbfc87d6d5ee354bb	-0.19132773526385968
246	0xbf96d5c1ea230f5b	-0.02229979507025291
247	0xbfd769a2a94d7bd7	-0.3658224728914638
248	0x3fd3fabf65ca2c76	0.312179421810192
249	0x3f8a3df873e9fcd1	0.012813511884131408
250	0x3fd5da954c2fa150	0.3414662593845792
251	0xbfb970a69772c30b	-0.09937516400783523
252	0x3fd55d5342fcdfad	0.33382112066055464
253	0xbfe117abd38ea2a5	-0.5341395503974878
254	0x3fd5808d1d3bbe1f	0.3359711442453505
255	0x3fd1481912281d10	0.27002550862421604

lstm.bias_ih_l0 f8 [200]
0	0x3fd99241f84416ef	0.39955186123584857
1	0xbfa9dc90e23c8ade	-0.05051090966869308
2	0x3fcd2c8445c51cba	0.22792104155289455
3	0x3fd1024f8182ae21	0.2657660259962729
4	0x3fc8a28580bdfe6f	0.19245976244200189
5	0x3fbf074e31d85175	0.12120522229117177
6	0xbf9c7e710fd0f35a	-0.027826086607308433
7	0xbfa1be17f51061c3	-0.03465342394355588
8	0x3fd0bebd00c126c8	0.2616417415016312
9	0xbfb98c88960161c8	-0.09980062162629288
10	0xbfa552ceb8560163	-0.04164739608950432
11	0x3fe216b0715dd953	0.5652696813765864
12	0x3fd7d5bc9ba4de3b	0.37242045592890677
13	0x3fc275e65a819439	0.14422301692244036
14	0x3fa165f46a504374	0.03398097799084257
15	0x3fc660997ce05abd	0.17482298467139926
16	0x3fcc7a468f6fc0f2	0.22248155597436142
17	0xbf95691d5af2ec2b	-0.020908793140488918
18	0x3fae666185253431	0.05937485456761527
19	0x3fc930d2c7e69145	0.1968024707868016
20	0xbfb2df297e24d925	-0.07371768312154765
21	0x3fd193ea51d37544	0.2746530341226683
22	0x3fd8e99d52ba71ba	0.3892587001699003
23	0xbfb77141b72613ce	-0.09157191010861185
24	0xbfb3d70c7973e938	-0.07750013318210314
25	0x3fcf405a8d8987fd	0.24415141974446888
26	0x3fc787693482ca5b	0.18381991447457122
27	0x3fa0f5528ba4181a	0.033121661706943153
28	0xbfa0a6429d1d3246	-0.03251846473594759
29	0xbfa35c92e10a52ad	-0.03781565663408535
30	0x3fd8756589cad127	0.38216532188677593
31	0x3fd1b52c43004655	0.27668291609834245
32	0xbfa8afbf88d00352	-0.048215852213621915
33	0x3fd27a81552e09ba	0.2887271243891082
34	0x3fe26c29cbf6db9d	0.575703523986579
35	0x3fcdc65b9a7ed83e	0.23261590045666652
36	0x3f79596c4f67aef2	0.006188796126007411
37	0xbfcf7f4b030d4473	-0.2460721745397084
38	0x3fb544ccab26deef	0.08308104685317706
39	0x3fdc90f13403d027	0.4463465698202093
40	0xbfc686f66e58425e	-0.17599373233726373
41	0x3fc14da958ac9c70	0.1351825411777301
42	0x3fc4eb4cf45193ec	0.16343080453512415
43	0x3fb22ccc938e6884	0.07099608042190836
44	0x3fdbd303f1b8b95c	0.43475435834525
45	0x3fd07827053ca5e1	0.25733352195183384
46	0x3f80b990abe17a5d	0.008166437383065156
47	0x3fd34ca80dcaa508	0.3015537390406995
48	0x3fc7e3addef9f060	0.1866357172729094
49	0x3fe432b94ced3cb7	0.6311918737864265
50	0xbfc5d3a7c0975d10	-0.1705217066180258
51	0x3fd4fda014bb5bbe	0.3279800608119635
52	0xbf8b0ff7bb557965	-0.013214049725033214
53	0xbfc40fc93b1cb407	-0.15673175226530153
54	0x3fb1bf0ed250856d	0.06932156214363312
55	0x3fc5f8e3301d1f85	0.17165794228844447
56	0xbfb4d9d59af00af0	-0.08144888909013637
57	0xbfc7d876c3c8a232	-0.18629345474006836
58	0x3f7279b7714c62e0	0.00451060921911825
59	0xbfaf3349af67b853	-0.060938170110475774
60	0xbfb22c0bad6480d6	-0.07098458274095107
61	0xbfb989f34abab4c6	-0.0997612054295188
62	0xbfb47c5778ef57fe	-0.08002230360520454
63	0xbfcf7570535ce275	-0.24577144689989763
64	0xbfca0961011c8607	-0.20341122202175674
65	0xbf809959e9a744fd	-0.008104994242702274
66	0x3f7fee4423285090	0.007795587693653641
67	0xbfc88b554466965d	-0.19175210800055967
68	0x3fc0d1dbf42eb211	0.13140439436882947
69	0x3fad350db93bd7bf	0.057045391904395164
70	0xbf9a0d195397c752	-0.025440593459229284
71	0xbf927cc381d90b51	-0.018054060745508697
72	0x3fc361e9b7970219	0.15142556633328821
73	0x3fb9702be1a5d656	0.09936784991244826
74	0x3fc95ccfa4739d24	0.19814487008918846
75	0x3fb4a7f19e0d197a	0.08068761929198401
76	0x3fbe8a8ae835e8a7	0.1193014923973431
77	0xbf958208492fddd8	-0.021003846613863647
78	0xbfaac8ea7c0bf2d1	-0.05231411709062218
79	0x3fc3ffa2a4f8eaaf	0.15623887114801024
80	0x3fa0e6ced517e4b6	0.033010924827928376
81	0x3fd13ac5e81f29c2	0.2692122237027911
82	0x3fa2226348674ce2	0.0354186082728576
83	0xbf9aae3b62e393e2	-0.026055267248825127
84	0x3fa0d33b1b576638	0.03286156376607291
85	0x3fb9c1366862966b	0.10060443924393218
86	0xbfb6b05fa623fd35	-0.0886287479988724
87	0x3fad691b3bd312d0	0.057442523052974814
88	0xbf6d9c9c98e5ea5b	-0.003614717344303115
89	0xbfbe154e45ff260d	-0.11751260002997573
90	0xbfa18f42d1559b4a	-0.03429611974097797
91	0xbf9263827b4e023e	-0.017957724357531506
92	0xbf911ec2b150f715	-0.016718904564405685
93	0x3fc1bb680e7b4c36	0.1385316916190235
94	0x3fc68763885b6df8	0.176006738262785
95	0xbf9ded0f5be83f8d	-0.029224624619075313
96	0x3fc4cd1a37e88d0c	0.16250922899153186
97	0x3f9978b5fe8060d1	0.02487453809598678
98	0xbf8020a8b6315e96	-0.007874792156300086
99	0xbf882166d84112eb	-0.011782458757929123
100	0x3fc0aad9d93eac95	0.13021395785958548
101	0xbfc5332925b53dba	-0.1656238016243899
102	0x3fb84113c7b5fd7f	0.09474300027613046
103	0x3faa44e85d8c66b9	0.051306973857390976
104	0x3fa73b29af8e96c4	0.0453732516100849
105	0x3f8c4f4f1f8dee9b	0.013823145056213895
106	0x3fc4ca5163bd54c9	0.1624242531785625
107	0x3fc50344e9d4a2ef	0.16416226785192786
108	0x3f9586d070813454	0.021022087923757773
109	0x3fb598fa8dc6394c	0.08436552010809811
110	0x3fbed846b8f34cdc	0.12048761382475298
111	0x3faa7f185f25aa7f	0.05175090943779014
112	0xbfaa7851fdecc408	-0.05169922089260842
113	0x3facaa9897b81ee1	0.05598904468575739
114	0x3fb83426634d0b96	0.09454574512805744
115	0x3fbdca188ab78491	0.11636498819963693
116	0x3fc8ac475ddccb37	0.19275753100517942
117	0xbfbd363b94fa3c66	-0.11410877596994026
118	0x3faa451ab70128c4	0.051308474387569386
119	0x3faf29a1ecec8425	0.06086450593125673
120	0x3fc210ef798f28e4	0.14114182887562443
121	0xbfbe086c55f65110	-0.11731602762876414
122	0xbfa53d6e1704b52a	-0.0414842990015621
123	0xbfc4ca9bf016805d	-0.16243314002076917
124	0x3fc199b28972e1ba	0.13750297271123008
125	0x3fc0cc015f40f8c3	0.13122574950279473
126	0x3f9451f39b2224e2	0.019843870490636635
127	0xbfc327a7546ed527	-0.1496476328153815
128	0xbfc1fea0224d856a	-0.14058305430357204
129	0xbfbbbe16190629b5	-0.10836923705043129
130	0x3fc64db9e3e791f0	0.17424701336052761
131	0x3f77d0356bfabd29	0.005813797644506105
132	0xbfc983f0fe31a55a	-0.19933903133213954
133	0x3fbd044c2c1b24f7	0.11334682537848893
134	0xbfc3bc83ee72b5c7	-0.15419053214047393
135	0xbfb2cf854dc4fe2d	-0.07347901486081616
136	0x3fc04c85b78cb943	0.1273352762450007
137	0x3fbe9312ca2e0adc	0.11943166194945881
138	0x3fa5a497f6b20b08	0.042271374572939335
139	0x3fbef58cedfabfb3	0.12093430337949833
140	0xbfb6d3eaa65e1f4d	-0.08917109071455549
141	0x3fc19115b0526a16	0.13724013432950305
142	0xbfbaecf41be75a3f	-0.10517812424891647
143	0xbfb7501a9660316d	-0.0910660378578478
144	0x3fb25ee7545eee3c	0.07176061448893106
145	0x3fbc27652fd1adcf	0.10997612397630195
146	0xbfa16e8743856589	-0.03404638957244816
147	0xbfa209839898317f	-0.035228836419352476
148	0xbfa51814d532cba5	-0.041199351334760416
149	0x3fbf4149fe9f22cf	0.12208998171184791
150	0x3fcb6ecce587dfaf	0.2143188591724061
151	0x3fd5d12f7ae41c32	0.3408926677806817
152	0x3fd05ddf34f1e3e6	0.25572948618315505
153	0x3fc34a10d634a193	0.1506978078771338
154	0x3fca70addd78d48a	0.2065636950880257
155	0x3fc89879f0d2c38c	0.19215320834112182
156	0x3fac3bc57a10a7a4	0.055143519545097136
157	0x3fb7dc9e48d4face	0.09321011808513477
158	0x3fc8033c01f860a5	0.1875987062092054
159	0xbfbef482ef338c14	-0.12091844882847652
160	0xbfa6b762922e1af4	-0.04436786684441599
161	0x3fd411f70ef39876	0.3135965009699996
162	0x3fd09a48874eab85	0.25941670621494267
163	0x3fc106e011370e48	0.13302231636599715
164	0x3fd560443857ab33	0.33400063993638013
165	0x3fb6d691f6af536c	0.08921158096866372
166	0x3fd8316d6d8b8134	0.37801681230304784
167	0x3fbb25cb8e55c97b	0.10604545807817616
168	0x3fd0ea647a5caf1a	0.26430618237894665
169	0x3fbf05d9038ecd58	0.12118297898159847
170	0x3f85610def872a09	0.010439022896112442
171	0x3fc36f786fd6d2af	0.15183930836578471
172	0x3fc700caa3fb5dd0	0.179711656636512
173	0x3fccde8b5e2d0312	0.2255415162890349
174	0x3fa7cd6b70aebeba	0.046489102845382616
175	0x3fca698a49d7b70e	0.20634583097074038
176	0x3fa8e94a5ce705eb	0.0486548651129047
177	0x3fbc43f7ca9f095c	0.11041210839087995
178	0xbfb433c832214001	-0.07891513084291547
179	0x3fb3df3eb45972cc	0.0776251974397823
180	0x3fd15eb581c5ec8b	0.2714055793109728
181	0x3fb9644b5e9abac9	0.09918662128141444
182	0x3fd1207c7139845f	0.2676077943525054
183	0x3fe2ea8a3d0ebbaa	0.5911303703813833
184	0xbfa8802654899f84	-0.04785270482972151
185	0x3fc392584632b15e	0.15290358951223032
186	0x3fc02d1155bfc0c4	0.12637535750355344
187	0x3fd3200c17583041	0.2988310077641963
188	0x3fa4d584b7ba2765	0.040691516330368306
189	0x3fc6faf497d46f26	0.17953355229917028
190	0xbfc383f26315936d	-0.15246419752216003
191	0x3fd0c8d49351ea0b	0.26225771319119023
192	0x3fbfb333b9331d10	0.1238281561992276
193	0x3fcd3f77bbaccd5b	0.22849938072031759
194	0xbfac70c19c40ac31	-0.055547762225920734
195	0x3fd54c475f81b0ab	0.33278068854157067
196	0x3fc183d6108f23c1	0.136835821233289
197	0x3fd0069513df5717	0.25040175381342195
198	0x3fbff5c2ca942dec	0.12484376378795731
199	0x3fdaca9b83a8b531	0.41861617905927334

lstm.bias_hh_l0 f8 [200]
0	0x3fc7011910882ddf	0.17972100550865286
1	0x3fb04bbf1ee1ba9a	0.06365580085705816
2	0x3fd2abf692e28e62	0.29174579948651147
3	0x3fc8147e29e55c3f	0.1881253914423002
4	0x3fd5c5dbf05eff36	0.3402013633130879
5	0x3fb2f88531d8516c	0.07410461871069679
6	0x3fb02180c40bc32a	0.06301121507909771
7	0xbf95042cea20c36d	-0.020523740568197214
8	0x3f8d74f41824dc42	0.01438322733575437
9	0xbfb2ff64b60161c6	-0.07420949405184904
10	0x3fb7d80b01d4ff57	0.0931403045151432
11	0x3fde7342aabbb286	0.4757849376026474
12	0x3fbdf13b0e9378e8	0.11696213823185853
13	0x3fcca7534a819455	0.22385636461254657
14	0x3fccebd68a9410e1	0.22594720617792688
15	0x3fc669cd6d605abb	0.1751038345398309
16	0x3fce3c1fd76fc0f2	0.23620985049593163
17	0xbf86c702fde5d848	-0.011121772168490321
18	0x3fca85c9b1494d0b	0.2072078815132062
19	0x3fb65c1eb7cd22b1	0.08734313952767071
20	0xbfb13e532e24d922	-0.06735725285111419
21	0x3fd545d4d9d37544	0.3323871733862982
22	0x3fd7b20992ba71b7	0.37024154023108785
23	0x3fa5979fb1b3d86d	0.04217242283077458
24	0xbfa39285e2e7d26f	-0.03822725672572324
25	0x3fc82172cd8987fb	0.18852076564786543
26	0x3fd600219241651d	0.3437580040241118
27	0x3faffe070ba41827	0.06248495118238422
28	0xbfae8dc51d1d3227	-0.05967536907573772
29	0x3fa1f46ab2f5ad4e	0.03506787714544633
30	0x3fcfd0430b95a24e	0.24854314866685673
31	0x3fbf75b86c011964	0.12289002072166039
32	0x3faa31a2602ffc99	0.05115992950595078
33	0x3fd3db6f592e09be	0.3102682467362249
34	0x3fd713458fedb763	0.36055125289464324
35	0x3fd16e64fa3f6c26	0.27236294210678336
36	0xbfb296b8ab098503	-0.07261232543671174
37	0xbfd3063b4986a23a	-0.2972553461100095
38	0xbfa895fca9b24223	-0.04801930972564985
39	0x3fe1990d7401e7f5	0.5499331727762625
40	0xbfb8ea9c4cb084c9	-0.0973298728208817
41	0x3fd897ecb4564e50	0.38427274333046046
42	0x3fc8993f545193f1	0.19217673890230416
43	0x3fa30239a71cd0f3	0.03712635197590144
44	0x3fd5e347d9b8b95d	0.3419971109568872
45	0x3fd3151f7d3ca5de	0.2981642458931598
46	0x3fc3a7d89abe17a0	0.15355975681103207
47	0x3fd07d63adcaa505	0.25765315982660325
48	0x3fb8b63cd9f3e0c0	0.09653072663411688
49	0x3fe52145a8ed3cb7	0.6603115367269287
50	0x3f8b8548f68a2eb5	0.013437814735218859
51	0x3fb74386b2ed6eb4	0.09087411754938551
52	0xbfb2ff12196aaf3c	-0.07420457001233854
53	0xbfb99415123967f2	-0.09991580672195235
54	0x3fb9fe5a5e90856e	0.10153736885742656
55	0x3f72122903a3f214	0.0044118501775725245
56	0xbfc09b6e11780567	-0.12974334576578458
57	0xbf86b3a33c8a2313	-0.011084819111844923
58	0x3fcba5ebcb8a630e	0.21600100935463512
59	0x3fc0baf2c42611e6	0.13070520951818237
60	0x3fbd5657b29b7f22	0.11459873304874837
61	0x3fb8824e75454b46	0.09573831904462535
62	0xbf7796f58ef57fde	-0.005759200298911053
63	0xbfd48db56eae713e	-0.32114921387416817
64	0xbfcadd5ee11c8605	-0.2098806952645164
65	0x3fbf9073f2cb176e	0.1232979266888756
66	0x3fb1145822328500	0.06671667895217936
67	0xbfc2875d6466964f	-0.14475600626353688
68	0x3fc812ef142eb20b	0.18807781682461697
69	0x3fb8d1271c9debde	0.0969414181580954
70	0x3fbcf0dd0b1a0e2e	0.11305028458632968
71	0xbfb2da69287642d0	-0.0736451839241099
72	0xbf9b49ebc347eeca	-0.026649173540120676
73	0xbfaaed444cb45375	-0.052591451991395845
74	0xbf6e6aeae318b6a5	-0.0037130916250792284
75	0xbfb6593f61f2e687	-0.0872993101246725
76	0x3fc0cccdb41af459	0.13125010770991954
77	0x3fbf96298db40897	0.12338504514267111
78	0xbfada50cbc0bf2cb	-0.057899854617038914
79	0x3fd34762127c754e	0.30123187833108467
80	0x3fb43b521a8bf25e	0.07903016231643664
81	0x3fb55494007ca6a8	0.08332180988204618
82	0xbfb7945f3bcc5996	-0.09210772714536683
83	0xbf7d33444b8e4f35	-0.007128969934360009
84	0x3fd0ef257b6aecd5	0.2645963387728448
85	0x3fc8dc5bda314b43	0.194224816836675
86	0xbfa459b78c47fa51	-0.03974698626915497
87	0x3fc5f4c756f4c4b7	0.17153255220322247
88	0xbfaa5c01298e5ea8	-0.05148318893696785
89	0xbfc3d94662ff9317	-0.15506820520308714
90	0xbfc6d4e8a45566cf	-0.1783724596414715
91	0x3fc31c4de4963fb3	0.14930127774686994
92	0xbfa1c6dab8a87b9e	-0.03472026352050438
93	0xbfa912fa0612ceb5	-0.04897290538920399
94	0xbfa359b0de92483d	-0.037793662232744364
95	0xbfcd70060b7d07fd	-0.2299811893554419
96	0x3fc622c717e88d0a	0.1729363314380879
97	0xbfb38d13405fe7b7	-0.07637138673444964
98	0xbfb5d7fea3462bcf	-0.08532706724342563
99	0xbfc1883dc5841126	-0.13697025436716465
100	0x3fb11045427d5919	0.06665451882631536
101	0xbfc39e0835b53dba	-0.1532602560277903
102	0x3fc599d0e3dafeb2	0.1687565910888132
103	0xbfb4777d9139cc95	-0.07994828029204577
104	0xbfb20e3b5838b4c3	-0.07052966026158729
105	0xbfc5403bbe07211d	-0.1660227468366963
106	0x3fbed0fd5dfaa957	0.12037642998135333
107	0x3fc464a8b9d4a2ee	0.15932187150726612
108	0x3fb85e57ac204d04	0.09518955185221861
109	0xbf66e39d4738d5bd	-0.0027940818634088747
110	0x3fb3b51cb8f34cda	0.07698230281248489
111	0x3fc2aeb7f7c96aa4	0.14595698927845036
112	0xbfc021c6937b3108	-0.12603075219374937
113	0x3faab31557b81edd	0.05214754768172523
114	0xbfc19656de597a4f	-0.13740049225721626
115	0xbfa5b4520a90f6a5	-0.042391361036135757
116	0x3fc4778daddccb37	0.15989848126772596
117	0xbfc55e84627d1e42	-0.16694693383236553
118	0x3fa9d949f70128bb	0.05048590793792714
119	0x3f81212d33b210d0	0.00836406053554875
120	0x3f905cc94c79475f	0.015978951733195298
121	0xbfce9bc4fafb288e	-0.23912870650230328
122	0xbfcadc442dc12d49	-0.2098469947253341
123	0xbfc794bd78168060	-0.1842266880385095
124	0x3fa26b3a25cb86fa	0.03597432814946262
125	0xbf8db0be8bf07323	-0.014497269292456821
126	0x3fb4283996c8893c	0.07873878413423524
127	0xbfc8c087346ed524	-0.19337549267007959
128	0xbfcbd8882a4d8571	-0.21754552903716332
129	0xbfc4a2632c8314de	-0.16120567010344805
130	0x3fc07a95e3e79200	0.12874101284172923
131	0x3fbb804f0e3fabcd	0.10742658708447479
132	0xbfad804ed8c69569	-0.057619537317161136
133	0xbf8686c75f26d759	-0.01099925765161529
134	0xbfa8d28c19cad723	-0.04848134817932095
135	0x3f8d3d9cb1d80e4c	0.01427767198311538
136	0xbf97b1bfc39a35d9	-0.0231389964233609
137	0x3fb008d6ca2e0ae1	0.06263487278014736
138	0x3fb8919f5b590597	0.09597202282113525
139	0x3fb831f9edfabfb6	0.09451257762952889
140	0xbfc85eac512f0fa1	-0.19038919414572056
141	0x3fc2f4b3b0526a16	0.14809270963162707
142	0xbfb40c0763e75a48	-0.07830854596191117
143	0x3fbabd7a299fce92	0.10445369259087503
144	0x3f998d0d517bb919	0.02495213327250054
145	0x3fbef6962fd1add4	0.12095011393983351
146	0xbfbcf3ec55c2b2c6	-0.1130969724060363
147	0xbfae246f18983172	-0.05887171912408719
148	0xbfc62a1a7d4cb2ed	-0.17315989606995377
149	0xbfb764e26160dd40	-0.0913831222286392
150	0x3fc79d06fd87dfaf	0.18447959308082093
151	0x3fd18598ece41c33	0.27377913602726095
152	0x3fd4861b94f1e3e8	0.3206852869548684
153	0x3fc26e1bf634a195	0.1439852668929801
154	0x3fc035092578d47a	0.12661852197348705
155	0x3fcfaf1d10d2c38c	0.2475315410752298
156	0x3fccb195ee8429f2	0.2241694845800591
157	0xbfbb1e38d72b0548	-0.10592990162969784
158	0x3fc493a931f860b1	0.16075625362350857
159	0x3fae3ec1a198e7db	0.059072543121558595
160	0xbf738d0c9170d782	-0.004773186773538886
161	0x3fd9a90f14f39877	0.4009435371975835
162	0x3fbdfca8cd3aadb9	0.1171365262077221
163	0x3fa7be6284dc38f8	0.04637439605549959
164	0x3fd33abf2857ab2c	0.30046061458294804
165	0x3fa033a2f15ea6eb	0.031643955196455874
166	0x3fd5239dbd8b8133	0.33029883871315063
167	0x3fc8c73cdb2ae4b4	0.19358025266209256
168	0x3fba30cc8172bcae	0.10230711136203993
169	0x3fd136bae2e3b34d	0.26896545560048396
170	0xbf8f603e3078d63f	-0.015320287565468436
171	0x3fc4519fefd6d2b2	0.15874098978897205
172	0x3fc6edd1f3fb5dd1	0.17913269437006688
173	0x3fc841230e2d030f	0.18948782150439356
174	0xbf9b00269ea282d0	-0.02636776297788651
175	0x3fcabe8522d7b70f	0.20893921090412745
176	0x3fc4cf85db39c15c	0.16258309559226347
177	0x3fc8bfe9554f84b6	0.19335667291219288
178	0x3fbc4db74ddebfff	0.11056085253835589
179	0x3fc0dc55762cb95d	0.13172405500649634
180	0x3fd3d6c9c5c5ec99	0.3099846297624907
181	0x3fc75b10234d5d69	0.18246652339687877
182	0x3fd707b28839845f	0.3598448114699461
183	0x3fe528798f0ebba6	0.6611907762615956
184	0x3f9720d066ecc10d	0.022586113245041384
185	0x3fd72315c31958a3	0.36151641895902226
186	0x3fc5fddefdbfc0c3	0.1718100298890076
187	0x3fb7c6745d60c0b1	0.09287192611441487
188	0xbf938890108bb10a	-0.019075633058421672
189	0x3fcc8beaa3d46f25	0.2230199146223352
190	0xbfb83c13b62b26e6	-0.09466670224642434
191	0x3fd1bcb77f51ea12	0.2771433585509452
192	0x3fc4d9fb3c998e89	0.16290226420379764
193	0x3fdfc0a98dd666a6	0.49613417483633737
194	0x3fa87864d3bf53b8	0.04779353222662713
195	0x3fd210b34941b0a6	0.2822693076511861
196	0xbfa7afadddc370d4	-0.0462622006614041
197	0x3fa9c4ce9efab84a	0.050329644114171915
198	0xbfa13cb0cad7a448	-0.033666157494572746
199	0x3fd854b4cfa8b52d	0.38017006186676633

linear.weight f8 [2, 50]
0	0xbfe76f2163230241	-0.732315724970313
1	0xbfd8dc04717c1100	-0.3884287937401183
2	0x3f7edcbba6a4865f	0.007534726153865272
3	0x3fdd6fc3be419e64	0.45994657115668347
4	0xbfe1dbcd70fc3e12	-0.5580813605064938
5	0xbfaae0b4014c7239	-0.052495598944208806
6	0xbfc324c63cfaf686	-0.1495597646480073
7	0xbfd15c4bdec9df13	-0.271258323256448
8	0xbfcfd8d15dc574b9	-0.2488042552821861
9	0xbfd7b8e719549592	-0.37066056703255257
10	0x3fcf8bae541156a1	0.24645022492284333
11	0xbfdc6e506b13b467	-0.4442330403970289
12	0xbfd2ff46b2839a0c	-0.29683082039846975
13	0x3fc1f24c9e9b7c8b	0.14020688766956754
14	0x3fe03a89eeecec09	0.5071458498490539
15	0xbfda130b3b579388	-0.4074123458397527
16	0x3fda82ff0502f431	0.4142453717175299
17	0x3fc3f0767e650fc6	0.1557758443033192
18	0x3fe3cd52d283ec14	0.6188139068248142
19	0xbfc18f2db9cfe737	-0.13718196461541662
20	0xbfd9f443c91b2e7b	-0.40553373946452326
21	0x3fdac76cc75e40b7	0.418421930976375
22	0x3fe45157499890ad	0.6349293172284171
23	0x3fb80fb91029d544	0.0939899124585582
24	0xbfe33829d4529b40	-0.600605883305299
25	0x3fd8d534aa12b2e7	0.38801304444022694
26	0x3fb9b4442f845d55	0.10040689621051986
27	0xbfcb847ba1b3282e	-0.2149805583524666
28	0x3fb91e6242458699	0.09811987035711879
29	0xbfe2d703ed83fc5c	-0.5887469901061979
30	0x3fd3211a12c7ccc7	0.2988953765299808
31	0x3fd96277f58dd78c	0.396635045813462
32	0x3fdde1d4bf193f6b	0.466908632869482
33	0x3fe33968e05ba755	0.6007580167763346
34	0xbfb6825bf94a070f	-0.08792662464295752
35	0xbfe3752a1dcb3cb7	-0.6080523092185989
36	0xbfc35464036012ea	-0.15101289906319632
37	0x3fe6cbb13c000c98	0.7123647853735688
38	0xbf971725bfd2f0c6	-0.022549238045699103
39	0xbfe3f7a8396f0fe4	-0.6239815828089346
40	0x3fd597396ee7730d	0.33735500174025007
41	0xbfd45f6dd6bab1a3	-0.31832452745109147
42	0xbfcf6edbab0b97fa	-0.2455706200773305
43	0x3fdf9cda2c9707c4	0.4939485011528826
44	0x3f89cbb76d1cd3c4	0.012595589654304969
45	0xbfd7adf50cecf947	-0.3699925066211062
46	0x3fd0d71b498b09f0	0.26312906438775396
47	0xbfdce429f32b325e	-0.45142601725527765
48	0x3fb3220e47e6c437	0.07473840003400843
49	0x3fe9d233bd999bc6	0.8069094374776504
50	0x3fe127c9e723022e	0.5361070169820488
51	0x3fde8872257c10ee	0.4770779958783028
52	0x3fc9639ae2cadbd4	0.19835220407341458
53	0xbfd17127ae419e6f	-0.27253143326968304
54	0x3fe0bd5f6cfc3e05	0.5231167915935094
55	0x3fd05b3300298e52	0.2555663587174638
56	0x3fcb593cc0faf683	0.21366080687396413
57	0x3fce8e7edd93be0e	0.23872361964411976
58	0x3fdae5ae1ee2ba47	0.4202685643785213
59	0x3fc55ab222a92b06	0.16683031742498872
60	0xbfce63df4c11569f	-0.23742285932774096
61	0x3fdba55b2313b462	0.43196752953992335
62	0x3fdf321e8a839a1a	0.4874340393711535
63	0xbfc851bc979b7c7e	-0.18999440577224286
64	0xbfdece2d25d9d818	-0.4813340062750071
65	0x3fe056b8efabc9bf	0.5105862313342228
66	0xbfd3d1182902f439	-0.30963710789712057
67	0xbfb9522d7cca1f8a	-0.09891018196696968
68	0xbfe379d4c283ec16	-0.6086219596030584
69	0x3fbfdfe1e29fce30	0.12450992377107961
70	0x3fc44c2382365d17	0.1585735688974885
71	0xbfd6ef96751e40bf	-0.3583732742054159
72	0xbfe56db5079890a9	-0.6696419857367079
73	0xbfd3936a0c0a7546	-0.305872451552052
74	0x3fd7bcac50a53692	0.37089069247745343
75	0xbfc444c4b42565ed	-0.1583486442203105
76	0xbfc29e33dfc22ea1	-0.14545296121319942
77	0xbf850e32e4cd7e3b	-0.010280988318924425
78	0xbfd152f7149161b2	-0.27068879135688484
79	0x3fd71f288b07f8ab	0.36127675606975157
80	0xbfd5908a1ac7ccc9	-0.3369469892051709
81	0xbfda6f6a058dd783	-0.41305017988576526
82	0xbfd1e5f273193f47	-0.27965985527133735
83	0xbfe139889e1ba750	-0.5382731521651554
84	0x3fc5cf7e06a50391	0.17039466213648471
85	0x3fe33adb45cb3cb0	0.600934635463906
86	0x3fbbceed7ec025dc	0.10862621635910535
87	0xbfe3fe921a000c96	-0.6248255260292293
88	0x3fc75a85f7fa5e11	0.18245005234051395
89	0x3fe72aa0666f0fe7	0.723953437868201
90	0xbfd4e85c66e77310	-0.3266821865961882
91	0x3fdb5c5760bab1ac	0.4275110668775379
92	0x3fd71c08df85cc14	0.36108609989531826
93	0xbfdd00836c9707c9	-0.4531563339661458
94	0xbfc33802fed1cd3f	-0.15014684145317322
95	0x3fd40181beecf94f	0.31259196896634917
96	0xbfca87a2eb1613dd	-0.20726429442234365
97	0x3fe2388d95c59928	0.5694034505111505
98	0xbfd0add181f9b10d	-0.2606090325632671
99	0xbfe92099de799bca	-0.7852296204772469

linear.bias f8 [2]
0	0xbfa0cfd662872546	-0.03283567383511836
1	0x3f996021650e4a8f	0.024780771058042602
