AIModels/trainedModels/localization/trainedModel_01_24_2024_11:15:06.pth (torch, 794735 bytes, 18 tensors)

lstm.weight_ih_l0 f8 [200, 112]
0.012143259655284611 0.012138422780982544 -0.03225345770458587 0.3395235919538075 -0.056145046600292785 0.12779313344019777 -0.042138184354057695 0.22117423116594645
0.0958408880788248 0.08881378716348412 0.062452712788849535 0.2427591020225029 0.0773506524426517 -0.04532315073249863 -0.15627881803358618 0.29003592982622656
-0.10629669187085546 0.0896147469326692 0.04181863339023207 0.2564972844893792 0.014144352383603603 0.11998039776801364 -0.17491102242216328 0.2118209050978527
-0.03559455586035505 0.0933809864869286 0.013518428015801548 0.2093606537799653 0.03765685632331565 -0.014543115145665232 0.026643898590241827 0.07001699576741194
0.10017672728206083 0.10535790671480305 0.0706597290293205 0.13876697623478929 -0.11694822821916959 0.2136133051135539 -0.11670194830939909 0.1722711958063132
0.09857075668027158 -0.003228161813362531 0.0636730466493397 0.29819509549977413 0.1247741049145882 0.15437199704598004 0.11224780461497795 0.2882857607277018
0.09127396214647038 0.022757460264868676 0.06929860942117111 -0.0294788837387968 0.13182065276968546 0.1097425497012115 0.09917846552269585 0.022517624664395705
0.005339548631523629 0.23310414868934423 -0.018734795008419736 0.09619927135123399 0.04239582403359091 0.20639453890291215 -0.08628319120837549 0.021974768736195055
0.08472161346036539 0.18752046316268672 -0.031219057829742415 0.07514299605145064 -0.018800616942934473 0.2068483007358289 -0.1136452043839036 0.16543822699122562
0.022404394709850766 0.10682399723824863 -0.0212332053670331 0.0863793376548341 -0.05367261946896542 0.10552497523631804 0.10571742576168126 0.08389166544703727
0.03822868088876347 0.1295352399799224 -0.008279357416324051 0.07141085787948377 -0.10250686541558252 0.02778766365564684 0.14107573568379558 0.0774008901365295
-0.10682233501392119 0.07966766349806301 -0.06202893627579383 0.044841394749619096 -0.08333990658249062 -0.014673889807572648 0.13929005075740608 -0.010699536137976938
0.004403969706340586 0.017276669525156288 0.1390818417339168 0.24860030700826782 -0.02670941137449467 0.0593798391015707 -0.023035917265270517 0.053324869740622824
-0.1148425596483549 0.07339024608803045 0.06510744611070222 0.20703032751526373 0.044014850174009336 0.008867548961137861 0.3293108853109029 0.11711608855475353
0.013687206546142425 0.1720217330024441 -0.020529823039506265 0.051266849347741665 -0.1082842744804172 0.15464321303884235 0.004644310322729197 0.10348563659999778
0.08903585891168483 0.2511313397815302 -0.1426972859367209 -0.32302746904598434 0.02385147960937798 0.06577386929039693 -0.008829511445309747 0.1343572367787629
0.12474187634540662 0.053626032764649285 0.09984930081049083 -0.14224995879322494 0.12167203999965465 0.2324788471809451 -0.13870270176754143 -0.2518537310338213
-0.11223478269562485 0.1690535400422619 -0.12085144215323539 0.009492045773703106 -0.06012246328727859 0.09240493383756017 -0.06157032577618851 0.11807249754961947
0.04405674744865178 0.21459129130896978 -0.09503620030776323 0.030862416368379494 0.12472148467516922 0.1372515566758951 0.13444064122235247 0.041892683110718185
0.12801038630984274 0.2511452094177069 -0.0016658288789941963 0.15634304476572494 0.0420944107567774 0.21722836828970551 -0.02232684017646244 0.01753718159945137
0.04219368094087837 0.2925228879607535 -0.11793672264961659 0.1504623219676505 -0.053663022326541576 0.29462319662023734 0.03595169801263736 0.02566164135238858
-0.08094709260014099 0.05999789411229777 -0.12643098624758592 -0.022735838094058092 0.15759466493059177 0.29426776883859884 -0.060596729486136335 -0.323379947484369
0.052486429858259055 0.31350155316533235 0.07122295509427519 0.3034633824376647 0.016087999234655394 0.3050695006086344 0.07193260228107087 0.17315445942027674
0.02038685524580187 0.13552811560744077 0.09813283272580418 -0.17333262821085757 0.06410851757175927 0.0616423559991211 0.07806994627247005 -0.040246700813222853
-0.0625417678246612 0.23715324576656055 -0.1467961304334124 -0.012093562097355747 0.13989476031946083 0.08081498950704259 0.056685660459796804 -0.015859924647867826
0.0723004143906901 0.3091574152334735 0.07694940500843044 0.06482932736117601 0.11359148201254031 0.30879391169435727 -0.021248786990907077 0.3091791111594928
0.10119423041743897 0.2131975269590424 0.12260375114692323 0.12830500766390834 0.03604110237760032 0.27362058946942547 0.055006004729875636 -0.12805093833064315
0.04731107290418548 0.27981282891365356 -0.0647733181170021 0.0664073114648291 0.04974429797458313 0.09700333074308184 0.07954246096391825 0.10033976277845283
0.021475380014541533 0.14123297872335366 0.07779985756048287 -0.3987340857009637 0.043315561262235576 0.06729456011597934 0.324410630919787 0.6066667041333484
0.10647874096985205 -0.06717434412588538 0.3329402183324295 0.07404508138540804 -0.004158234335204582 -0.014809146667046247 0.2886625829922414 -0.11147117341467641
0.092454694972443 0.018676883183274342 0.16495723209744864 0.05827224827291808 -0.029897132636654583 -0.10539325584026742 0.1924156392320658 -0.18374938587155185
-0.008565541073356386 0.01173027826527787 0.06620449714903176 0.06832375001783415 -0.08100146640884141 -0.1282568790711829 0.2621034833181505 -0.3006499182949009
00000000: 7ab5 b0b8 90de 883f 4369 f486 07dc 883f
00000010: df58 0c74 8683 a0bf 0f5f ea28 c1ba d53f
00000020: 3718 f625 0bbf acbf b6b6 6380 865b c03f
00000030: 704f 6dd7 2293 a5bf 03b0 c9ec 6f4f cc3f
00000040: cd0b eb47 0789 b83f da12 4d17 80bc b63f
00000050: 6cfd f24d cdf9 af3f e219 fff1 ba12 cf3f
00000060: 6fc1 909a 40cd b33f 35a7 4b94 9834 a7bf
00000070: 4282 41be f100 c4bf a530 51dc f28f d23f
00000080: d120 428f 4236 bbbf 65ac 50f7 fdf0 b63f
00000090: 1186 8c7d 4069 a53f a142 1996 736a d03f
000000a0: 1611 49d7 b6f7 8c3f e21e 930c 09b7 be3f
000000b0: b8ad 8100 7c63 c6bf 1590 008a f21c cb3f
000000c0: 2af7 ab1a 7339 a2bf 4f92 07fb d0e7 b73f
000000d0: 5d03 c5b1 8caf 8b3f b9ed 8674 54cc ca3f
000000e0: 95f3 c16c c247 a33f 14f4 75df c7c8 8dbf
000000f0: 9805 55c4 8948 9b3f 6036 fc42 a2ec b13f
00000100: cf2b 7f97 2ea5 b93f a810 b75b bcf8 ba3f
00000110: 403d 5389 c116 b23f bcbb 58c4 1dc3 c13f
00000120: 3ec7 86af 51f0 bdbf eb01 ba47 ae57 cb3f
00000130: 4a4c 5ecb 2de0 bdbf 6ff5 0388 fb0c c63f
00000140: 2fa3 48e0 ee3b b93f 524e 442d f271 6abf
00000150: 68df fe74 e04c b03f b1f1 bfe1 a015 d33f
00000160: a9ee fe1b 32f1 bf3f 5887 5d2b 76c2 c33f
00000170: 2f7f dea9 45bc bc3f e796 8e1e 4673 d23f
00000180: 0c3b 65fa ba5d b73f 5c7e 4f4e bb4d 973f
00000190: fc48 1fbd 8dbd b13f dca7 5266 b62f 9ebf
000001a0: 58a5 4ac8 7fdf c03f 8444 f275 1618 bc3f
000001b0: 6a2f e389 c263 b93f 4c98 1136 dc0e 973f
000001c0: 75f8 f62b ecde 753f 3b61 9753 5bd6 cd3f
000001d0: 7007 6fcf 362f 93bf aa42 5af4 83a0 b83f
000001e0: 2528 6ccb e7b4 a53f e49b 54e1 226b ca3f
000001f0: 923a 6fbc a716 b6bf 388a 3cc4 8d80 963f
00000200: 8c9d 13cf 50b0 b53f 56a8 4ea8 ab00 c83f
00000210: 7a0d 9081 e3f7 9fbf fc7e 9046 923c b33f
00000220: c879 a80b 7840 93bf 1b60 724f 017a ca3f
00000230: 0215 2d24 da17 bdbf babf 376f 142d c53f
00000240: 5b0e 437a 2df1 963f 37f7 9046 d158 bb3f
00000250: df08 904a 28be 95bf 5214 47ce f41c b63f
00000260: e3a5 9e42 fa7a abbf 2c1b 8d4d af03 bb3f
00000270: bd83 4316 4c10 bb3f f682 8097 ec79 b53f
00000280: 9877 5fac b592 a33f f256 b259 9c94 c03f
00000290: 1318 ae8a c4f4 80bf a9f3 2b63 fb47 b23f
000002a0: 704d 93d2 e33d babf f272 888a 5e74 9c3f
000002b0: 83b1 820b c50e c23f af53 d173 8bd0 b33f
000002c0: 5cfd 5d63 b558 bbbf aadd 4599 1965 b43f
000002d0: ab9f 6bb9 41c2 afbf bccc e987 73f5 a63f
000002e0: cb36 399d c355 b5bf f309 a126 580d 8ebf
000002f0: 7ca3 54a2 41d4 c13f 0c1f 5c6e a3e9 85bf
00000300: 6aea c79d e509 723f 449c 60aa f9b0 913f
00000310: b078 db0c 6fcd c13f 0f23 3086 22d2 cf3f
00000320: df3c 6541 b659 9bbf 3a4a f7c5 0867 ae3f
00000330: 789a 263d ba96 97bf 26e9 32b7 654d ab3f
00000340: d1ec e06d 5266 bdbf af21 cb02 b4c9 b23f
00000350: 3384 c5af e1aa b03f 2ca7 fa42 f87f ca3f
00000360: 9548 124c 1d89 a63f 0d27 4546 2629 823f
00000370: fa22 a8f6 6d13 d53f 6098 2dea 51fb bd3f
00000380: 050b eac3 0908 8c3f d22e b9e2 ce04 c63f
00000390: a97b 301a c505 95bf 9790 a202 a63f aa3f
000003a0: b781 90a9 84b8 bbbf 956c 464b 59cb c33f
000003b0: 2974 2d8f e905 733f c97f cde0 087e ba3f
000003c0: be6b 32d6 0dcb b63f 8330 d72e 8912 d03f
000003d0: 2bc0 2998 e743 c2bf 26c7 d067 7bac d4bf
000003e0: 6ab1 88b3 856c 983f 359c 8869 8ed6 b03f
000003f0: 4198 2df7 3415 82bf 310d f930 9e32 c13f
00000400: dc5e 5867 15ef bf3f 1175 e011 df74 ab3f
00000410: 3170 8249 b98f b93f 62e7 6f24 3f35 c2bf
00000420: ccd8 a218 e625 bf3f 57b4 d3ea ddc1 cd3f
00000430: e5ad fa97 02c1 c1bf 2b9d 8a1c 5f1e d0bf
00000440: 8bc0 2631 6bbb bcbf cf94 e0e0 8ba3 c53f
00000450: 1ffb b8bf 1ef0 bebf 808c 5cd1 9070 833f
00000460: 06cc 251b 5fc8 aebf f544 d288 d9a7 b73f
00000470: 54c0 394f 2586 afbf 215c 88cb ff39 be3f
00000480: 0791 eb22 9b8e a63f efd6 1639 ba77 cb3f
00000490: e508 42dc 4a54 b8bf bf30 e9b3 659a 9f3f
000004a0: b2d5 c949 bfed bf3f 6dc0 9f81 7591 c13f
000004b0: a9d1 a6d6 5935 c13f 96f0 cd2f f572 a53f
000004c0: 88e2 5ff3 a462 c03f 78c0 3f5b c312 d03f
000004d0: 18b5 9523 fe4a 5bbf bde8 1c84 0c03 c43f
000004e0: 6ae9 160b 668d a53f 55ab c8a0 23ce cb3f
000004f0: 3711 86e1 d8dc 96bf 7a10 bc55 44f5 913f
00000500: 2e55 7aff 689a a53f bbdd 47eb b1b8 d23f
00000510: ed0b c7de 1931 bebf d3cd 1070 5942 c33f
00000520: 6845 cb3b b879 abbf 151f 8840 1bdb d23f
00000530: 475f 66ce 4268 a23f 2113 7b99 0b47 9a3f
00000540: 0084 6cdb f2b8 b4bf d716 1542 0bb8 ae3f
00000550: 4234 91fb e32e c0bf fd98 3e44 1048 97bf
00000560: fa52 f3dd 0f2c c43f 546f db7a 48d5 d23f
00000570: 4b68 c6d6 8806 afbf fb29 a8ce 41b2 d4bf
00000580: e535 7357 80df aa3f 9ac7 85d1 6810 d43f
00000590: 35b9 dae6 aa3b b23f a49c c6ad f16b d33f
000005a0: b79e 485a 5f79 903f b5c0 073a 4286 d33f
000005b0: 4e39 50ce 2c6a b23f 50ee 2ee2 ec29 c63f
000005c0: 632e 32b2 4ae0 943f be79 1c3c fc58 c13f
000005d0: 6f9e 38bb 3b1f b93f f767 bf78 c32f c6bf
000005e0: 9fa1 5d72 6a69 b03f 2815 213e 968f af3f
000005f0: ac6d 0a5a 64fc b33f 4985 872f 379b a4bf
00000600: c4e1 70bf bc02 b0bf 8e93 5a9d 095b ce3f
00000610: 9607 b231 37ca c2bf a630 9a6d 82c4 88bf
00000620: 8517 3a4e 12e8 c13f b996 f588 4ab0 b43f
00000630: eb6a a723 e705 ad3f 6ced b786 953d 90bf
00000640: 4696 4bab 4782 b23f 2498 ef2e 3cc9 d33f
00000650: cb36 f5c9 f4b2 b33f 8382 d6a0 a798 b03f
00000660: af18 59d4 5414 bd3f 6598 fb89 47c3 d33f
00000670: 0a8d d2f4 3dc2 95bf e453 c22e 97c9 d33f
00000680: 64d1 2f76 dde7 b93f f546 f07a 0e4a cb3f
00000690: 48ff 8a9d f562 bf3f 922d ea69 4c6c c03f
000006a0: d612 0cb8 fa73 a23f a023 d2ee ff82 d13f
000006b0: f5ff cb3e bf29 ac3f b715 2d20 f963 c0bf
000006c0: 836b b92d 2839 a83f 5add 4b11 74e8 d13f
000006d0: 1447 f7f2 fb94 b0bf 0dec f4ce 1100 b13f
000006e0: 7037 eda9 1578 a93f 0605 25d5 35d5 b83f
000006f0: 27bf 7b0c e55c b43f c231 9fdf ddaf b93f
00000700: 4396 535b a4fd 953f 46e2 5d18 ec13 c23f
00000710: 4511 db03 b1ea b33f deb5 78f8 db84 d9bf
00000720: 81f1 0e0e 752d a63f 2097 e55e 373a b13f
00000730: 119d 91ce 24c3 d43f 1665 ba4a d069 e33f
00000740: 144d 2fd6 3042 bb3f 2ea3 267b 5632 b1bf
00000750: 54b2 507d e44e d53f 5be0 fa52 9ef4 b23f
00000760: 8f32 a987 3908 71bf 40dc ee04 4254 8ebf
00000770: bdf4 61a0 7279 d23f 8a45 43f4 5f89 bcbf
00000780: 33af 4463 1cab b73f 277f da69 0820 933f
00000790: d171 8c8e 511d c53f 5d72 3131 dcd5 ad3f
000007a0: f8a6 ac9b 5a9d 9ebf 7b8b 0d6b 0dfb babf
000007b0: dbcd de5e 13a1 c83f 333c 7d91 1985 c7bf
000007c0: 40c9 4276 cf8a 81bf d2c4 2d4c 0b06 883f
000007d0: 686c 1a26 c7f2 b03f 8dde dd4f aa7d b13f
000007e0: 9f6d 2719 83bc b4bf 5183 8cae b86a c0bf
000007f0: 8e39 41b0 4dc6 d03f 77c9 a727 d93d d3bf

lstm.weight_hh_l0 f8 [200, 50]
-0.21732789313732692 0.2937755878251121 0.3328364813020707 -0.32459196101596716 0.08478898636583163 -0.03831468785160525 -0.2774552191599428 -0.3793317112541716
0.4037769616628789 0.27142935432092963 -0.22067825054689827 0.23987698116995324 -0.2913927055669424 -0.12872088425204747 -0.06864375224448716 -0.21586838268127195
0.12942727723896535 -0.0011862520251358468 -0.32462651958100874 0.21833169717099654 0.27021392299863595 -0.20338743160935324 -0.28850795646507577 -0.28321402649068567
0.08623850053910459 0.10598532631643927 -0.3683137348138799 -0.3263697003763477 -0.3140822368484957 0.3136713549538591 -0.10591713522260383 -0.29362792203486376
0.3186658433677648 0.37128818889696324 0.137126714803808 0.051642932262773646 -0.13995811505972158 -0.3222770332648582 0.001084808448888427 0.1365837430587675
0.08690985454675622 -0.21061016751278638 0.09648628452196646 0.3521650483069309 0.1806721633368538 0.009615680810820888 0.05695704584709457 -0.17784305737321035
-0.1284378661270414 -0.24216894659281507 0.015281846966829202 0.020368793702220268 0.21946259848922456 -0.2276621702267476 -0.08772301636349746 0.14119917655740472
0.004446446368094441 -0.07592409124769334 0.05262344185234382 -0.03959812554960222 0.07128812335701051 0.034934211734176566 -0.06958188168938371 0.001364453799993167
0.24591534287590164 -0.093531714268119 0.07973340652837534 0.12894418772277838 -0.05073997807728789 0.03630222312771017 0.20716408633408673 0.2706910267753555
0.04466235665749098 -0.029327741361497458 -0.337874659834215 0.12833013665206805 -0.023023391789708112 -0.0774278627436775 0.17719822683983502 -0.06829873972196326
0.2106395272075891 0.051963743658949305 0.2359051562709453 0.14323313464659848 0.1789434060006328 -0.00011982112811481253 -0.1993036998008185 -0.06408148754423859
-0.15729334187820518 -0.1312537251818439 0.10420161550116301 0.0038068975931066073 -0.12068723826545967 -0.023854969074650727 0.16425677661092228 -0.09704552666456073
-0.007547683576539345 -0.031154198339365127 0.0689116886090709 -0.20201962324947897 -0.09504379645383854 -0.0662418145248854 0.0036284190990898187 0.09085267748417514
-0.1264660647819124 -0.35972360430338773 0.06712737168140158 0.022577000471076386 -0.053280202712956824 0.012452524974226822 -0.006715908264049326 0.028350588962150283
0.40529290821413944 0.01398239351788744 -0.08458442716846704 -0.19614508443546652 0.009872836379035776 0.24251057282423458 -0.146404081533061 -0.03394482778165096
-0.17184988959967656 0.0824949020419533 -0.0021517214493598593 -0.08073333982816697 0.04202415795086779 0.18229129228776125 0.14741483120340343 0.059330510420956
-0.05800748910734709 0.022486846349527228 0.05352000792475938 -0.14746473776305408 0.03737219017214961 0.006128231377255476 0.05625392582756219 -0.37264897245949213
0.1511600986230385 -0.0830714501330921 0.007119161778227008 -0.1363838359486902 -0.15398136474015997 -0.1289196096932181 0.2574685937924602 -0.07016603559529204
-0.12885654417628614 -0.23580494856472078 -0.12703590519016023 -0.010491609282836104 0.255203081900864 -0.1154056799225194 -0.1254052107064778 0.1373523549997352
-0.01370879661042212 0.052372083099091526 -0.07777205328078873 -0.0037804064955525023 -0.05571464804787527 -0.35869245771165265 0.1752411471875661 -0.00032658422779721614
-0.10705910378061774 0.21703713644185177 0.057549396077153515 -0.10347191252880242 0.08877912964801307 -0.27736558883784485 0.07706281464078336 0.2485247310567438
-0.11202054100453207 -0.021482812277482794 -0.08998296852673594 0.1618583866638089 -0.06731471043987315 -0.09400567654126515 -0.058728957717453754 0.056461317655446305
-0.18819980453589152 -0.06330242957940088 -0.2331563677973978 -0.017779402369786795 0.20401590930982208 -0.3466928380371888 0.04412822958347191 0.4342415810038489
0.18354029317724888 0.11463444641871376 0.05396199609063009 -0.12353878069360819 0.024420338972568817 0.04532402332569189 0.016453030079867578 -0.30976183406356644
0.04822281274790283 0.0525646743744241 0.33497307784349983 -0.19482176649170882 -0.1963691250069613 -0.06391840620209592 -0.05043876685773815 -0.129412064403397
-0.15557063145455302 -0.04297028859376268 0.08107574095030452 -0.034482969172430794 -0.05259670410192778 -0.09337271970026736 -0.08396352307541251 -0.11011341261483887
-0.031575126168300334 0.056085132502761176 -0.011476634527891024 0.1717724154266873 0.13059989826988555 -0.0396968420573451 0.02193470297966772 -0.22540109050413334
-0.021804894380334807 0.006490411628151887 0.0034853846134410985 0.15428421235056797 -0.01633903268185863 0.024974886441585492 0.19355510689219657 -0.19042112608069114
-0.08494580445145088 0.1592913062394599 0.05063860068104889 -0.13705752791915307 -0.039848932682688444 -0.16440006946606683 0.3903540061186856 -0.2733838154680919
0.2347316920519805 0.2071494264350992 0.20514601790771084 -0.043520884373601895 0.06556580910351996 -0.04555884889838879 -0.15036851264323695 0.0633230284239607
-0.0027764755751364108 -0.17904711034291781 -0.005496287908309256 -0.001437043696437156 0.22892113186259283 -0.09964604202001492 -0.1827585554967744 -0.18902307189662462
0.1867511111217583 -0.03914259276920536 -0.06940935383555231 -0.07982711225304448 0.06162525616260735 -0.21922445205152305 0.33327693434477434 0.14944845995572148
00000000: 8446 c480 66d1 cbbf 2d9c 841f 38cd d23f
00000010: 43eb 8662 314d d53f e1ea 465c 1dc6 d4bf
00000020: 9692 8023 bbb4 b53f 49e5 8e96 fb9d a3bf
00000030: b75f 1989 d3c1 d1bf 4f08 8b83 f846 d8bf
00000040: 9219 4e53 7bd7 d93f 04e6 fe39 195f d13f
00000050: 40ca 8456 2f3f ccbf 8715 98f6 49b4 ce3f
00000060: 8afd 2c97 2da6 d2bf 0e5e 160a ed79 c0bf
00000070: 10fd f60e a392 b1bf 00a1 ed3d 93a1 cbbf
00000080: b2d0 79b1 1291 c03f 2f05 c769 806f 53bf
00000090: 70f1 404f aec6 d4bf 20ca 8305 4bf2 cb3f
000000a0: 03fe 8c56 2f4b d13f 6cfd 966f 9908 cabf
000000b0: 8acf 6913 ea76 d2bf 37f1 62b9 2d20 d2bf
000000c0: 5cb6 78f3 b913 b63f 058f 62b6 da21 bb3f
000000d0: e55d 6cc5 7392 d7bf 1064 61bd 3de3 d4bf
000000e0: 4434 e161 ec19 d4bf 5a01 ce04 3113 d43f
000000f0: d1f9 dda7 621d bbbf 6642 95c4 ccca d2bf
00000100: ca79 e76b 0565 d43f 9806 2d89 2fc3 d73f
00000110: 50c1 be41 5e8d c13f 65bc 4642 f170 aa3f
00000120: 39e3 7ec3 25ea c1bf 51f7 87d9 2fa0 d4bf
00000130: 2499 dd33 04c6 513f 6724 cd7a 937b c13f
00000140: b57a fa66 b93f b63f 7414 d622 46f5 cabf
00000150: 3dce 883c 53b3 b83f 1b71 5145 df89 d63f
00000160: 6128 6af4 4320 c73f 4ad7 e3d4 62b1 833f
00000170: 6c4d 6152 7929 ad3f 1f8a 9eb1 8fc3 c6bf
00000180: aab5 4ae9 a670 c0bf 5c88 dc5c 64ff cebf
00000190: 7860 8fc7 164c 8f3f 6d72 3d9b 8edb 943f
000001a0: 446b 9ab5 5917 cc3f 9783 d4b3 0824 cdbf
000001b0: f13f 63fe 0375 b6bf a6a1 c48a d012 c23f
000001c0: 0509 c0db 6f36 723f 342a e3e0 c26f b3bf
000001d0: 137e 84b3 75f1 aa3f d6d7 6f9c 3446 a4bf
000001e0: e85c 693e f03f b23f f3d4 d1a1 e5e2 a13f
000001f0: e702 4042 1ed0 b1bf f0f5 a91c ef5a 563f
00000200: b349 9e69 277a cf3f 879e ebc5 b1f1 b7bf
00000210: b723 7095 6869 b43f c0a9 a33e 3e81 c03f
00000220: 9c27 e224 97fa a9bf 8412 367a 3496 a23f
00000230: b2f5 da4f 5a84 ca3f 3088 d474 0053 d13f
00000240: 9294 6902 fcdd a63f 8f7e 0d68 1708 9ebf
00000250: 1fa5 8809 bd9f d5bf 1484 0136 1f6d c03f
00000260: 9981 1eab 7193 97bf 7e84 48fa 4fd2 b3bf
00000270: 0dd8 9776 6eae c63f c4be 76b5 067c b1bf
00000280: defd 4c6c 3cf6 ca3f 8292 2fe7 fd9a aa3f
00000290: ff1b 92e1 2332 ce3f c85e 819e 7655 c23f
000002a0: cac4 4d16 9ee7 c63f dc3e 764e 0f69 1fbf
000002b0: 7be3 4e9c c882 c9bf c012 48f5 a467 b0bf
000002c0: 876a 9f2f 3022 c4bf 2d2d 910c eccc c0bf
000002d0: 9792 c402 f5ac ba3f 1cf1 2b95 a42f 6f3f
000002e0: a70b 65dd 5be5 bebf ee42 17e0 6f6d 98bf
000002f0: 635b d8b5 5d06 c53f 9454 3fc3 f9d7 b8bf
00000300: 02dd f2e1 51ea 7ebf d4af 00dc e2e6 9fbf
00000310: 365a e348 32a4 b13f 4cdd 806d c7db c9bf
00000320: 88f8 744d ca54 b8bf b617 033b 39f5 b0bf
00000330: cc99 bcab 58b9 6d3f f06e 8cfe 1e42 b73f
00000340: 8e64 253e 0a30 c0bf 5344 0527 b605 d7bf
00000350: 0fbe 096a 422f b13f c802 a9da 6c1e 973f
00000360: 1b51 5af0 8a47 abbf dbaa 229c b580 893f
00000370: fb62 b6e5 2382 7bbf 87ba a8d1 ef07 9d3f
00000380: 3c26 85aa 51f0 d93f c274 0817 cda2 8c3f
00000390: 7080 7034 53a7 b5bf 4cf3 7539 481b c9bf
000003a0: b309 efaa 3538 843f a36e 9b21 960a cf3f
000003b0: aabb 1773 5ebd c2bf de8e 616a 3761 a1bf
000003c0: e26e d35b 2dff c5bf a75e 5bca 621e b53f
000003d0: 55cc 29a8 7ca0 61bf c642 42ae f0aa b4bf
000003e0: e1f2 14c0 3084 a53f 7e5a 5c31 5255 c73f
000003f0: a263 7b3b 7dde c23f d973 d393 9160 ae3f
00000400: 4f3c 4759 28b3 adbf 1b45 a5b6 ca06 973f
00000410: 8bdf 6f77 f966 ab3f 52b5 00e1 1fe0 c2bf
00000420: 0978 239d 7222 a33f f1e7 8f95 ea19 793f
00000430: 13e8 6687 50cd ac3f 5c7f 6613 7bd9 d7bf
00000440: 1de6 05d0 3659 c33f 858c 8da9 2b44 b5bf
00000450: 6edd 3270 fb28 7d3f c023 8d89 0675 c1bf
00000460: c74f e04e a9b5 c3bf b704 b911 7080 c0bf
00000470: 857c 858d 5d7a d03f e3f7 2bbc 66f6 b1bf
00000480: e16d 8e09 5f7e c0bf 1c04 2947 db2e cebf
00000490: bad0 1a69 b642 c0bf c27c 04f6 9f7c 85bf
000004a0: 5591 a64e 3f55 d03f 9234 0a05 3a8b bdbf
000004b0: 60bc 5d27 470d c0bf 1c50 6010 c394 c13f
000004c0: 7dcd df88 5b13 8cbf a89a 4480 83d0 aa3f
000004d0: e83d 6289 dee8 b3bf 818e 7248 16f8 6ebf
000004e0: 2d2c 8c5e a186 acbf d960 cc35 d1f4 d6bf
000004f0: 67c4 0a4a 4d6e c63f fb49 e993 2c67 35bf
00000500: 1511 7ab5 3968 bbbf d982 8475 dfc7 cb3f
00000510: 35a2 1c4c 1d77 ad3f b2a3 5da0 227d babf
00000520: cad2 67a2 3aba b63f 7109 4699 5bc0 d1bf
00000530: 19b0 9e7c 63ba b33f 8165 118c a8cf cf3f
00000540: c03d 18d0 60ad bcbf 75af a120 97ff 95bf
00000550: b1f2 04b3 1f09 b7bf fbf5 a68e c6b7 c43f
00000560: d903 e16f 893b b1bf 1212 628a c110 b8bf
00000570: cb02 73d1 b811 aebf 666f a371 7fe8 ac3f
00000580: 0a31 cc62 ee16 c8bf ce05 cd88 9634 b0bf
00000590: d8a0 455f 11d8 cdbf 7bf4 e17e c334 92bf
000005a0: bdb8 2c7d 311d ca3f 3d23 4828 3730 d6bf
000005b0: 7964 c8ad f997 a63f 3464 3e33 9dca db3f
000005c0: 8de6 5892 3f7e c73f 660a 5dde ae58 bd3f
000005d0: 3b4d df20 e8a0 ab3f 34e4 ddce 3ca0 bfbf
000005e0: 8848 fa34 a501 993f b560 d0db b534 a73f
000005f0: ccd9 7328 10d9 903f 1d87 b64c 23d3 d3bf
00000600: 8cc4 5817 a9b0 a83f 7be0 b9ca c1e9 aa3f
00000610: f835 98eb 3270 d53f 4dbf d06d ebef c8bf
00000620: 2aad ec9c 9f22 c9bf 331d 40e8 f45c b0bf
00000630: 1b88 352c 1cd3 a9bf 0b04 2914 9390 c0bf
00000640: 2e5e 280b bde9 c3bf 0977 6ba0 3300 a6bf
00000650: 256a e137 61c1 b43f 74a8 ba71 c0a7 a1bf
00000660: c686 fd87 f4ed aabf 5e83 7349 46e7 b7bf
00000670: 5d74 aa29 a27e b5bf a01c 0882 6430 bcbf
00000680: b914 856c 9d2a a0bf 8449 c8c3 30b7 ac3f
00000690: b136 b9cf 0f81 87bf f867 4e75 a3fc c53f
000006a0: 0a0d f759 7fb7 c03f 9a13 c8fc 2453 a4bf
000006b0: 83d4 c7ff 0c76 963f b357 1964 f1d9 ccbf
000006c0: 376c 06b1 0554 96bf f949 e39a b095 7a3f
000006d0: 6200 b89d 618d 6c3f 03db 2ac7 95bf c33f
000006e0: 3843 11ec 2dbb 90bf 38a2 f341 0493 993f
000006f0: c8b2 09eb 69c6 c83f b7f5 7d2e b85f c8bf
00000700: 1328 0d1c 02bf b5bf f9f4 6a53 a863 c43f
00000710: e43c ae7b 4ded a93f d9ab 0ae0 198b c1bf
00000720: 7528 4e4d 1467 a4bf b28f e8bc 0f0b c5bf
00000730: 131c 895e 8ffb d83f dc3b acd4 1e7f d1bf
00000740: 0b58 5926 b00b ce3f a642 f655 df83 ca3f
00000750: 5dbc e886 3942 ca3f 7ebd 278e 5e48 a6bf
00000760: 99dc d5bd ebc8 b03f 90bc 1f4c 7d53 a7bf
00000770: 8d4f 1382 463f c3bf 8c22 2a20 f035 b03f
00000780: 3f27 63f9 b0be 66bf 86dd ae05 04eb c6bf
00000790: 87a6 0c8d 4683 76bf fcb5 76eb 658b 57bf
000007a0: 2a48 5ba3 494d cd3f c0dc a62b 6782 b9bf
000007b0: da1f 76e1 a164 c7bf 8923 fe73 e831 c8bf
000007c0: 063b 61dd 75e7 c73f 8b15 a677 7f0a a4bf
000007d0: c59b c2b8 cfc4 b1bf 9e00 76b4 8c6f b4bf
000007e0: 3aec a677 588d af3f 63bc 05fe 8b0f ccbf
000007f0: 8c67 61c7 6854 d53f 0e44 f98b 2021 c33f

lstm.bias_ih_l0 f8 [200]
0.4377600749158399 0.007619062566610848 0.14808089495102897 0.16726568692069002 0.07897997544672641 0.16023201404826554 0.006137127087532521 -0.0812868381533264
0.2224829316207307 -0.046850478863660346 -0.13275177020256373 0.23136756556139706 0.3332817471102569 -0.06111131704416857 0.04883479705989158 0.17607068508409326
0.1500689606794721 0.3220672321435936 0.033695905633983045 0.1594057810198249 -0.0692609888726903 0.2247386587830041 0.33980375148574654 -0.010180285768164404
0.1450141991925856 0.18899669708238334 -0.03753616334788203 -0.06280985232995505 -0.00472461222079753 0.009608531792294813 0.21513507971811688 0.26024436020846625
0.18450490922929158 0.0656805757666101 0.2594253865842576 0.1742848179653244 0.08618729419758184 -0.006796533256487742 0.06774769320761244 0.13662239939896834
-0.08721873480075668 0.022545667338641127 -0.04843333927332888 0.006096542789333207 0.09561766588573954 0.2851976967625706 0.04189611299878617 0.18806818794605043
0.19508253505243775 0.10955406390266237 -0.1605060894403534 0.2186801392985695 0.12452555440360977 -0.03334400286527439 0.009273973907730104 0.19717008206294367
0.004463931895400288 -0.12954170569934534 -0.07293610978597606 -0.10613442174202027 -0.07473724923443938 -0.10099457185477828 -0.08662455001275046 0.041960587700810424
-0.05223679293905793 -0.05631371223597849 -0.06379467045044034 -0.1231205765430307 0.10394483809283335 -0.014694511084543511 -0.1291271928603185 0.132975852898853
0.15147693533284828 0.15291079198991445 0.15331511243744053 0.13389507897891617 0.016837626041763712 -0.03380288604345695 -0.03776920852382537 0.08276628962887776
0.06954827439078323 0.12952155143391475 0.05929467130075152 0.014324866436926327 -0.020521978361202817 0.11650878264914975 0.10441756560565815 -0.12183268316211458
0.0004423075440961062 0.16641368074165136 0.06109713044029823 -0.06004038774211073 0.13746982431576846 0.10753875441527586 0.08267642104437735 0.18098815084968953
0.35829882041247846 0.016144640476048466 0.09207353601912695 0.14999853121394413 -0.045665986963147755 -0.14121224148388828 0.04492740479696167 0.057147100390786604
0.02552360594228483 0.05382192338360315 0.07949899831434121 -0.007761392747901072 -0.03011003224315972 0.1349246943693122 0.11330493684570911 0.03658222960862679
-0.018402479892608598 0.04423272620679731 0.1299880050738273 0.04958930457513307 0.08660720849084799 -0.08592204825715537 0.07985061342938841 0.09982389146664701
0.11251562736653124 -0.027950912931406408 0.03247817701565743 -0.06050510872506624 0.031193942080189562 0.08722292922320549 -0.1178989735498591 -0.0932929767564885
-0.061745624602333016 -0.04422971538853904 0.1413314667522619 -0.009259095345652118 -0.13263111815666218 0.11664033754783203 -0.13598203834343484 -0.06503694600359551
0.1403347339070406 0.06670453195723633 0.11114680287358834 0.11588603097573906 -0.03962177616775208 0.13072225519079914 -0.015088191475341035 -0.08686597248145675
0.09927236059037427 0.0869755758136981 -0.02852970592688673 -0.155258306347439 0.031194121706799135 0.05433823756514148 0.18336993351104597 0.1880889076041082
0.12187985469752409 0.18731591619097443 0.05283956306966986 0.011018788825115035 0.0489803814635777 0.30049603695140903 -0.028857318853007036 -0.059376177459792005
-0.006392611050037788 0.23530149468657807 0.14105267014965403 0.015063390406705587 0.19771049942751412 0.23205904767063879 0.28089617768659964 0.05335796960062611
0.1869775205548125 0.07626669739164686 0.03333849279547513 0.17889851410996047 0.15861159625365426 0.033104022028621026 0.06754880633425098 0.09330156525326169
0.04133735341906888 0.12432801892740679 0.0032994721363578455 0.11866993873349452 0.20357682727942264 0.15738390417534537 0.07593298617402164 0.2370590554795414
-0.014883969441922176 0.0457040080386434 0.10110250961012801 0.17295122816317482 0.10538796669323786 0.1093112198071031 0.01600677061126421 0.2026151027847324
0.14557318982740505 -0.021692825814761403 0.05969129826274148 0.23723646233293555 0.12806551993298257 0.25458165404139305 0.2650999417257577 0.419475915452225
00000000: c483 50d5 4204 dc3f 1cdd cb88 2a35 7f3f
00000010: fd10 7d94 50f4 c23f 8d9e 8847 f668 c53f
00000020: 8023 951b 0838 b43f 8604 0e8e 7b82 c43f
00000030: d718 1e82 3e23 793f 69ba 76d7 36cf b4bf
00000040: d357 9d19 527a cc3f c1ef 0a35 c9fc a7bf
00000050: 7ec8 c08f 02fe c0bf b57d b8cf 739d cd3f
00000060: 934e 0cf7 7c54 d53f ba89 3d88 fb49 afbf
00000070: 30dd 8ee0 df00 a93f 3339 1cf5 7b89 c63f
00000080: 61ab 21af 7535 c33f dde0 4ae1 bf9c d43f
00000090: ae03 6af9 9640 a13f 9201 239c 6867 c43f
000000a0: 82c9 1892 16bb b1bf 1359 cf82 3cc4 cc3f
000000b0: 031f ec3b 58bf d53f 306f 81d3 66d9 84bf
000000c0: bb6f 7e45 d38f c23f 61ab 8234 0b31 c83f
000000d0: f330 fea3 f037 a3bf d7ad 9f75 4e14 b0bf
000000e0: d9fd 976f 1d5a 73bf 3ede 7b4e a3ad 833f
000000f0: 094b ced9 8b89 cb3f 6715 04f6 d7a7 d03f
00000100: 46ae 8b5b db9d c73f 0e69 e634 71d0 b03f
00000110: 366b c8ef 6c9a d03f 4ed9 ac04 f74e c63f
00000120: ceca e8d9 5e10 b63f 6131 0181 aed6 7bbf
00000130: 61c5 b4ae e957 b13f 47e9 a8c0 d77c c13f
00000140: de57 918d f753 b6bf d638 8b1f 3616 973f
00000150: 1817 6e30 41cc a8bf 51b1 613e b0f8 783f
00000160: d32b e63b 667a b83f 5358 1fd7 ad40 d23f
00000170: b390 5146 6873 a53f e9b8 524e 9e12 c83f
00000180: 5316 09ea 76f8 c83f 9c17 9b31 bc0b bc3f
00000190: f942 7aaa 768b c4bf ee39 49f7 b5fd cb3f
000001a0: 9605 ae1f e8e0 bf3f 50ee a513 7712 a1bf
000001b0: 80ec 19b5 3bfe 823f 9ae0 1a87 de3c c93f
000001c0: 027c 0998 c548 723f f12e b996 d294 c0bf
000001d0: 766d 3ade f0ab b2bf 19a2 5c1e a02b bbbf
000001e0: 5142 41f9 fa21 b3bf 6496 30bf c7da b9bf
000001f0: fee1 55c9 062d b6bf 1bb6 caaf db7b a53f
00000200: 6271 a4ea c7be aabf 4261 bda0 26d5 acbf
00000210: ab65 3ef7 d854 b0bf 1b8c b781 d484 bfbf
00000220: 2d5d 3200 219c ba3f e482 4fe4 2718 8ebf
00000230: 45ff 2d67 3d87 c0bf 22dc ad4d 5a05 c13f
00000240: 822b ada1 9863 c33f 91ac 66b1 9492 c33f
00000250: 1760 f360 d49f c33f f0a6 a754 7923 c13f
00000260: b440 c4f4 e13d 913f 0256 22a4 9c4e a1bf
00000270: 50af cf56 7c56 a3bf c7d3 2aeb 2b30 b53f
00000280: 066c 006c eacd b13f 9896 c485 2994 c03f
00000290: 13aa 2004 df5b ae3f c4e8 ed06 5b56 8d3f
000002a0: 9970 a4a7 b603 95bf 4fc4 2c03 85d3 bd3f
000002b0: 067c 670d 1cbb ba3f efe4 c33d 6d30 bfbf
000002c0: 2166 c96f b0fc 3c3f 6e39 3222 0b4d c53f
000002d0: b6b5 3d82 1f48 af3f bf42 951b 9dbd aebf
000002e0: 73c1 cf77 9c98 c13f ba24 44e9 a887 bb3f
000002f0: 8132 892c 482a b53f 8774 6ea6 9e2a c73f
00000300: 797c f72c 5eee d63f a0b6 667b 3888 903f
00000310: 817b 079a 2192 b73f c486 01e1 2633 c33f
00000320: 45b2 1741 8861 a7bf 7eec 7b23 3e13 c2bf
00000330: 001e 988c b900 a73f 5cb4 7a7e 6242 ad3f
00000340: 5642 3133 dc22 9a3f d114 7b11 8c8e ab3f
00000350: ac29 d3dd 0b5a b43f 56db 6000 69ca 7fbf
00000360: ef41 100f 2ad5 9ebf 4497 de5e 3645 c13f
00000370: 5248 3a66 8d01 bd3f 3150 91ef e7ba a23f
00000380: 4859 3785 19d8 92bf 3136 f100 aca5 a63f
00000390: 160a 556b 72a3 c03f 6a5e c3f2 c463 a93f
000003a0: 5ee8 10d8 e32b b63f ab12 45c3 fcfe b5bf
000003b0: b3a8 3efd 1671 b43f 856d 35fd 0e8e b93f
000003c0: 3b03 d4fb d2cd bc3f c524 bc03 2a9f 9cbf
000003d0: 7a5d 3bc8 faa0 a03f 751f 6e8e 86fa aebf
000003e0: a35b 4504 4ef1 9f3f f698 79ec 3d54 b63f
000003f0: d7ec a08b a02e bebf 5f98 1d6c 0ce2 b7bf
00000400: 301d ad5c 1f9d afbf f0d7 35fa 46a5 a6bf
00000410: e35f cc45 2617 c23f 63d9 99bd 6ef6 82bf
00000420: 6017 7575 0efa c0bf 138f 2923 24dc bd3f
00000430: eda4 c303 dc67 c1bf 3dfe 1de4 42a6 b0bf
00000440: 2ed2 4f12 7df6 c13f 4e56 4057 8c13 b13f
00000450: 27a3 65eb 1d74 bc3f 83a2 1af9 b4aa bd3f
00000460: af29 b331 4e49 a4bf 4fb1 73c1 81bb c03f
00000470: 4afc 89c7 8ee6 8ebf 866e f12e d93c b6bf
00000480: 71e3 21d6 e969 b93f 91ac ab05 0844 b63f
00000490: 3a91 ae27 e436 9dbf a5e8 1812 81df c3bf
000004a0: 9f8a 3b12 5af1 9f3f 9574 87b2 38d2 ab3f
000004b0: 1af4 bf7d aa78 c73f 8b33 731d 4c13 c83f
000004c0: bb93 f7a5 8433 bf3f dcbe 07cb f7f9 c73f
000004d0: 2069 a386 c90d ab3f 21c7 29cd 0491 863f
000004e0: 2937 10e1 f413 a93f 922b d2ba 533b d33f
000004f0: 8548 e5e2 c58c 9dbf 77dd b3e8 8d66 aebf
00000500: b2da 5576 232f 7abf 8e7b 3000 5c1e ce3f
00000510: db32 a78e 030e c23f cb37 4f09 8ed9 8e3f
00000520: daf9 8ee0 934e c93f 083f 3e62 1cb4 cd3f
00000530: fb0f 2ff6 33fa d13f 40d0 d45c bc51 ab3f
00000540: 075f ef1f e1ee c73f 7330 12db 3686 b33f
00000550: 784d 8230 be11 a13f 0be0 b381 25e6 c63f
00000560: a780 5681 624d c43f 4b3e f5a7 02f3 a03f
00000570: e8e5 16ea e04a b13f 96a9 6d83 9ce2 b73f
00000580: 2381 136a 2b2a a53f d309 4507 f6d3 bf3f
00000590: 0e59 6e9d 7e07 6b3f 58f1 e031 2761 be3f
000005a0: 5dbc b133 ce0e ca3f bac9 ace0 2725 c43f
000005b0: 4e17 4e1c 5870 b33f 03ad 407d f357 ce3f
000005c0: 48d9 e68f 7c7b 8ebf 92e9 a407 8466 a73f
000005d0: a8ab 51a4 dae1 b93f 7ec6 610e 4423 c63f
000005e0: 84e2 56ae b4fa ba3f be49 28f2 d1fb bb3f
000005f0: a0e9 2831 1464 903f dd6b 11ac 4aef c93f
00000600: 5fd6 bd6c 24a2 c23f 2299 bae5 a436 96bf
00000610: f5db c99b db8f ae3f bac0 91af c35d ce3f
00000620: 29bf ed71 7364 c03f 593d 91d9 104b d03f
00000630: 7a8d f8be 65f7 d03f 09ed 9482 b1d8 da3f

lstm.bias_hh_l0 f8 [200]
0.2179292191886436 0.12178577309236177 0.21190565288464555 0.08962505236671746 0.2267215763178124 0.11313141046779017 0.09697442877393855 -0.06715715477796771
-0.024775582545147383 -0.021259351289216324 0.002035930402083485 0.14188282178745962 0.0778234294132093 0.018522030645936674 0.2408010252469757 0.17635153495252495
0.16379725520104235 0.3318542531155919 0.18152893257957464 0.04994644976069338 -0.06290055860225686 0.28247279804663383 0.32078659154693445 0.12356404717122178
0.18428707564896576 0.13336604298577995 0.1224019262016595 -0.03344656285451414 -0.031881516560587964 0.08249206557182653 0.08151290649819755 0.10645146483178405
0.2838806909488643 0.08722169811372688 0.04427311549231948 0.2140318596154407 0.0073861726348624064 -0.05797970482678866 -0.06335266337121444 0.2402090023550247
-0.008554875284374364 0.27163586949137003 -0.01968740490614875 -0.027773185656673534 0.0028604184973767734 0.32602842070389637 0.1872894324267533 0.14416760873195444
0.1049775444136456 0.13867372684316462 0.023453431912891808 -0.01842580396400738 0.06353503411630476 0.02347194267807443 0.04148978062152344 0.029923989952071618
-0.04383052478024843 0.045666929928878316 0.13855429034954153 0.08550895788663797 0.11084606655526019 0.09450495261936548 -0.01236144670645688 -0.033417179273459933
-0.05870626618181767 0.07508920869559922 -0.004873579191914612 -0.07612447480600817 0.16061826054862083 0.02520151516915662 0.009363685185240396 0.07738472972025122
-0.02659780454056117 0.0009514900860709825 -0.04854284927682728 -0.034091850437740066 0.028786241354340034 0.11058600571307775 -0.04335494605024215 0.22775929681195287
0.11556751187929144 -0.056368862386829394 -0.06823166411747289 0.033251163751391415 0.21121279664556822 0.21012916024189257 0.15329932733537516 -0.00774265401186684
-0.04742616404856861 0.1288580755685405 -0.08297920946019528 0.10721861436229078 0.11946846535967019 -0.07996584259295247 -0.13112397945115156 -0.01976841388667684
0.3687259228590347 -0.08510128435438821 0.01462126093200141 0.024810735604708624 -0.10922542599641741 -0.12884869588728878 0.11894099560964476 -0.07410815375865017
-0.09037930592938674 -0.12602396850930653 0.03745117511713264 -0.012601789092562755 0.044057431685301365 0.047765092397804874 0.06979962583344111 0.1307883094492869
-0.09273401119374938 0.04039122920276516 -0.10195823231144645 -0.10916704466063994 0.053748158753394636 -0.13876020611958037 0.07902804697974623 0.047323446070939065
-0.01264724977589832 -0.1497635918049455 -0.1358845187081146 -0.08229865674280643 -0.07033470248157804 -0.058500089572046256 -0.05900405990626063 -0.13702083661118653
-0.13870809933592435 -0.09706614844155569 0.09582546623346322 0.09235369409431657 0.009088375858316271 -0.007705745482272394 -0.030272854382281753 0.022719740840336372
-0.010139538761321395 0.009907742787924945 0.1648474511217836 0.08946430522576959 -0.14083987959891758 0.1415748304929231 0.011781386811664418 0.10865375796726613
0.05246387937394351 0.09794956577722956 -0.10758028876047478 -0.1789011890521738 -0.10076642302839404 -0.1591348663753452 0.15353066741946078 0.12097537585068804
0.18683565546923722 0.18060337520682068 -0.027105610044868417 0.06639712155922299 0.21800634649853942 0.10135601723657645 -0.0556997714387043 0.1206148144902432
0.03320206902083923 0.3226485309141617 -0.0012275098575655371 -0.07158452990379151 0.16417047407408228 0.17449142189843087 0.23317820409670292 0.14089276418454247
0.0249784495379049 0.22404917401053262 0.007579182333894438 0.1858001955331478 0.15803263398720901 -0.0029496727560202724 -0.005308059489017928 0.09589494518664873
0.15526558389842837 0.20727258344871927 0.1927754555176298 0.172768796300209 0.24215587773093963 0.2406638062908095 0.16817000329146203 0.3071194613597548
0.055554848632840846 0.254316837485436 0.14653718199558208 -0.03300785348660565 0.045620817304447774 0.15279758213026823 0.07380426588700005 0.21750074814448703
0.18464729783197478 0.24594196830125853 0.16303259271528928 0.18672508144255137 -0.05503250196171044 0.05450954434214349 0.1065900204432284 0.38102979825971817
00000000: 7407 a1ca 1ae5 cb3f c4bd 8c38 5a2d bf3f
00000010: fb10 7d74 b91f cb3f 1f3d d1dc aaf1 b63f
00000020: bb91 ca6d 3605 cd3f e708 1c1c 2ef6 bc3f
00000030: 86e1 21f0 50d3 b83f 62ba 7617 3631 b1bf
00000040: 2e41 1533 c55e 99bf 47df 15ea 02c5 95bf
00000050: e5de cdcf a7ad 603f ad7d b85f 3729 c23f
00000060: 783a 317c 3cec b33f 54ec 846f 70f7 923f
00000070: 49b7 2368 91d2 ce3f 3339 9ce5 af92 c63f
00000080: 63ab 21f7 4ef7 c43f d8e0 0a9f 193d d53f
00000090: 0281 5a0e 573c c73f 3d06 8cc0 9492 a93f
000000a0: 81c9 1842 401a b0bf 86ac 67c9 0814 d23f
000000b0: 061f ec7b c487 d43f 0dd2 8fb5 e4a1 bf3f
000000c0: c56f 7e09 b896 c73f 61ab 8274 2312 c13f
000000d0: 8be7 008e bb55 bf3f b85b 3f6b e81f a1bf
000000e0: c8ff f22d c652 a0bf c87b cf33 331e b53f
000000f0: 0996 9ca3 07de b43f a255 1038 6740 bb3f
00000100: 21d7 e5ea 192b d23f 2469 e644 2954 b63f
00000110: 9e59 433e f7aa a63f 48d9 ac5e 6565 cb3f
00000120: 7dac 8c9e f640 7e3f 1826 2010 84af adbf
00000130: 9d3a 4b51 e137 b0bf 3fe9 a828 2bbf ce3f
00000140: babe 8aec 3785 81bf 8bb3 f869 7b62 d13f
00000150: e52d dc60 ef28 94bf a293 67f0 9270 9cbf
00000160: 6c7b c57c bb6e 673f 4c58 1f4f a6dd d43f
00000170: 2f64 94a1 19f9 c73f ecb8 528e 1574 c23f
00000180: c02c 12f0 cedf ba3f d18b cd88 0fc0 c13f
00000190: b6e8 2d2c 2d04 983f 5c30 b6c5 36de 92bf
000001a0: 9e05 aefd d443 b03f 6923 b468 0709 983f
000001b0: 137b c605 263e a53f 0d05 d7f8 64a4 9e3f
000001c0: 84d0 fe5c f470 a6bf 5e44 1be5 a761 a73f
000001d0: 56c9 e2a0 25bc c13f e35d a341 eae3 b53f
000001e0: b0bd be66 6860 bc3f 8c69 cf00 7a31 b83f
000001f0: ba0f af4a f550 89bf e749 3578 0e1c a1bf
00000200: 6771 a46a bf0e aebf 614f a1df 0b39 b33f
00000210: 405b e673 51f6 73bf 128c b7c1 e47c b3bf
00000220: 902e 19a0 238f c43f 6a3e d80d 6dce 993f
00000230: a40b 208d 442d 833f 1fb8 5b53 7ccf b33f
00000240: 25a4 9672 743c 9bbf fc9f ac66 ad2d 4f3f
00000250: b07f 32bc 9bda a8bf 1b64 61ad 7c74 a1bf
00000260: bc40 c4f4 237a 9d3f 08d5 ee4d 5d4f bc3f
00000270: 50af cf96 9e32 a6bf e969 9575 3727 cd3f
00000280: 056c 001c d595 bd3f f4a5 ed28 61dc acbf
00000290: fcaa ef5d a177 b1bf 377a bbe9 4b06 a13f
000002a0: eb71 0b5b 0509 cb3f 3562 9627 83e5 ca3f
000002b0: fabd b3f6 4f9f c33f 2d4e 3edc c2b6 7fbf
000002c0: 336d 20ff 3d48 a8bf 7239 32e2 6b7e c03f
000002d0: 1d25 e11e 203e b5bf 9b5e 35da ad72 bb3f
000002e0: fb82 9f3f 7c95 be3f 48db bb36 a478 b4bf
000002f0: b666 bba9 abc8 c0bf e45b 8ccc 2b3e 94bf
00000300: 7c7c f79c 3499 d73f 5652 26a1 32c9 b5bf
00000310: 2cdc 3b6c c0f1 8d3f 6a36 0c48 fc67 993f
00000320: 12d9 8b90 32f6 bbbf 81ec 7b33 1d7e c0bf
00000330: ff0e 4cc6 ea72 be3f c5a5 c280 c0f8 b2bf
00000340: 63af 3323 1923 b7bf c03a a1ab 8d21 c0bf
00000350: 3853 a6e8 cc2c a33f 9a6d 3080 f7ce 89bf
00000360: 0adf 7718 b28e a63f eb5c 7a8b aa74 a83f
00000370: 5748 3a66 63de b13f 0d54 e4db abbd c03f
00000380: 52d6 4d89 6abd b7bf 2f36 f1c0 28ae a43f
00000390: 0bec 5549 ef19 babf c550 9e16 5ff2 bbbf
000003a0: cbd0 21f0 e084 ab3f 5b89 a2f9 e4c2 c1bf
000003b0: b3a8 3e9d 2e3b b43f 1edb 6a5a c73a a83f
000003c0: a2e6 5f21 cde6 89bf 9d84 7710 742b c3bf
000003d0: a128 f1f5 a964 c1bf b60f 3757 8611 b5bf
000003e0: 19a9 ee7e 7401 b2bf 05ce 0c47 b9f3 adbf
000003f0: b9d9 41b7 c735 aebf 2acc 0e16 e689 c1bf
00000400: 5547 2bdf 2fc1 c1bf f7eb 1abd 53d9 b8bf
00000410: d0bf 988b 0488 b83f cec4 ccdf 7da4 b73f
00000420: 168a ae28 ed9c 823f d60d 674d 0f90 7fbf
00000430: 5927 1dde d8ff 9ebf 4807 88ff d743 973f
00000440: dedd 02db 09c4 84bf c0b2 02ba 824a 843f
00000450: 85d1 b2a5 b819 c53f 84a2 1af9 21e7 b63f
00000460: 76ca 6c8a 0a07 c2bf 4db1 73c1 1f1f c23f
00000470: c603 76f8 d620 883f 7d91 0e91 bbd0 bb3f
00000480: d5c6 43ac 8bdc aa3f 8fac ab05 3913 b93f
00000490: 49a4 ebbd 618a bbbf a5e8 18f2 3be6 c6bf
000004a0: 531d 710b d4cb b9bf d322 5e03 885e c4bf
000004b0: 19f4 bf95 e4a6 c33f 4667 e602 3ef8 be3f
000004c0: d9c9 fb12 3bea c73f dcbe 07eb 021e c73f
000004d0: d82d b9b2 92c1 9bbf e338 a5d9 66ff b03f
000004e0: cb0d 44c8 a1e7 cb3f 34ae 48cb 77f2 b93f
000004f0: 4fa4 7231 ae84 acbf 4c11 a6cb 9ce0 be3f
00000500: a144 3591 dcff a03f c23d 1806 46a6 d43f
00000510: 0e97 66ac 8c1c 54bf f918 d61e 5d53 b2bf
00000520: d5f9 8ec0 8903 c53f 0a3f 3e23 bc55 c63f
00000530: 0620 5e8c c8d8 cd3f 0534 352b c608 c23f
00000540: 50f8 7a5f f393 993f 3118 89b1 a4ad cc3f
00000550: 0a6c 1244 590b 7f3f 0ee0 b301 4dc8 c73f
00000560: a480 56d1 693a c43f 9b1b ac80 e929 68bf
00000570: 91a1 915e e7bd 75bf 96a9 6d35 928c b83f
00000580: 44e0 841e bedf c33f e184 a273 e887 ca3f
00000590: 7ab9 75ba ddac c83f b378 f0b4 491d c63f
000005a0: 59bc b1bb f6fe ce3f b7c9 ac54 12ce ce3f
000005b0: 9c0b 273c 9886 c53f 8d56 a062 d8a7 d33f
000005c0: cb49 0664 af71 ac3f 329d f420 ba46 d03f
000005d0: d0d5 28fa bac1 c23f 24e6 78c6 67e6 a0bf
000005e0: 0fc5 ad9c 9c5b a73f e624 1405 df8e c33f
000005f0: 673a 4a1c d6e4 b23f df6b 1184 10d7 cb3f
00000600: 55d6 bdcc 85a2 c73f d2ac 48c3 067b cf3f
00000610: f576 f282 40de c43f bfc0 1183 9be6 c73f
00000620: 2703 4958 382d acbf 9eea 89cc ace8 ab3f
00000630: 1036 e2cb 7b49 bb3f 08ed 94ce ca62 d83f

linear.weight f8 [2, 50]
-0.3120218049746254 -0.3238807125898627 0.22365130031417335 0.3772783950614044 -0.28657107640761087 0.05184033750393704 -0.09701364197557842 -0.2102269730840937
0.16043183277309575 -0.22986505564781096 0.07815905017549793 -0.36403401790700834 -0.13832268521776803 0.11267084201486577 0.41034328604641496 -0.20463984081232164
0.24737764732564008 0.3057364877198116 0.38437890649261935 -0.12480288490415076 -0.11120525461756817 0.4349091248567228 0.3216765668453479 0.01330428191450369
-0.4307941261432971 0.3447854325194302 0.05500301736842127 -0.20294193461249765 0.22990796864576307 -0.08993383769428016 0.213128882129179 0.23755829093610767
0.21673276239265224 0.28730834875347977 -0.06101160567289705 -0.4351106237650623 0.065684185535873 0.21796441500303795 -0.023533830444266057 -0.16378472093696914
0.2532163218667515 -0.1830991773940858 -0.26269763245019506 0.28027716155527566 0.10557510114242863 -0.3848550699656155 0.21170315866527736 -0.11089338596410761
0.11609647559769741 0.27194672753445714 0.11581309698636329 0.41252991472804845 -0.01776437008689377 -0.18986325717440397 0.2516065074946281 0.15123042226931746
0.16111468420153557 0.17769226947176608 0.011032476323240848 0.026034806040247882 -0.06913168458039572 0.3517685070499032 0.3289259041904513 -0.16245836011754158
-0.38453144247236776 0.3078137263067926 -0.14276938350523025 -0.2488708253834617 -0.3741869592708634 0.11213084405981462 -0.13575491594946737 -0.37486046808576334
-0.3563892353536394 -0.22518682100799794 0.20107893531545018 -0.11512103229951186 -0.10004908237110097 -0.022319612058892904 -0.4024768896455297 -0.1375363963421655
-0.25118049480436944 -0.25397342500841147 -0.029483984794509366 -0.2248234841423017 0.14347964316642434 0.4279929500103705 -0.10807086823996413 -0.13042515565869897
0.18343464473908103 0.2637565759962354 -0.24254350672268984 0.2922857168205315 0.37821311226818194 -0.23948499436853896 -0.24312635294129617 0.3274545323108581
-0.15583838869986721 0.22887081921998123 -0.3019671081269559 -0.2502669105340529
00000000: 6250 004e 2af8 d3bf 913b 182b 76ba d4bf
00000010: f053 4716 9ba0 cc3f 9fab 1148 5425 d83f
00000020: f99c 4936 2e57 d2bf 73d2 6214 d18a aa3f
00000030: db0b 8dd3 e2d5 b8bf 7d0e 11ab b7e8 cabf
00000040: 7eb7 7fc1 0789 c43f 9e12 40d8 376c cdbf
00000050: 46e3 6344 3b02 b43f 6db1 6256 554c d7bf
00000060: 5411 a7c8 8eb4 c1bf 58a8 aa0d ffd7 bc3f
00000070: 2df6 6c7c 1043 da3f 4bb0 df67 a331 cabf
00000080: b534 831c 12aa cf3f efd4 fcc5 2f91 d33f
00000090: 5d1d 2afc a999 d83f 841a 1cf5 14f3 bfbf
000000a0: 92ce b993 f277 bcbf 7576 ff14 8dd5 db3f
000000b0: 8561 9f4f 5996 d43f 6ca7 c17d 463f 8b3f
000000c0: fd09 c686 2192 dbbf 05b9 33eb f610 d63f
000000d0: 5eb0 8e01 5b29 ac3f 20e6 1256 00fa c9bf
000000e0: 3230 36d3 9f6d cd3f 6d61 b36b e705 b7bf
000000f0: 67f7 49a5 ce47 cb3f 136c 3b61 4f68 ce3f
00000100: f75d 392f e6bd cb3f b0e4 708e 4263 d23f
00000110: d944 15c6 e93c afbf 7ba3 cd3a dad8 dbbf
00000120: 43b0 bdc4 add0 b03f ef9d 1009 42e6 cb3f
00000130: 4351 6ea0 4019 98bf 571f 01d2 e5f6 c4bf
00000140: 77ca 4e3b b234 d03f 4982 6a39 cb6f c7bf
00000150: c80d 07bb 09d0 d0bf ff84 ac9e 0ff0 d13f
00000160: 40ba ad46 f806 bb3f 61ef cc28 77a1 d8bf
00000170: a1b0 76cf 1619 cb3f fafc 0e4a 8263 bcbf
00000180: 1f7b dfa5 7fb8 bd3f 1cf1 403f 9367 d13f
00000190: 8d41 0158 eda5 bd3f 963b 18df e366 da3f
000001a0: 989f 3ab2 d230 92bf 5357 2370 704d c8bf
000001b0: fc9c 492e 521a d03f 674b e7ba 845b c33f
000001c0: f685 c6ed 679f c43f 7c0e 11cb 9ebe c63f
000001d0: a788 04e8 3198 863f e094 0042 dea8 9a3f
000001e0: 4de3 6334 9db2 b1bf 6fb1 620e 6083 d63f
000001f0: b088 533c 1f0d d53f 3154 d57f 6fcb c4bf
00000200: 2bf6 6cc4 299c d8bf 2cd8 ef57 38b3 d33f
00000210: b334 8364 4446 c2bf cfa9 f9cb ffda cfbf
00000220: 5d1d 2adc adf2 d7bf 851a 1c64 9bb4 bc3f
00000230: b218 23c6 6a60 c1bf 7676 bfc2 b6fd d7bf
00000240: 8a61 9fcb 14cf d6bf 711a dcf7 ebd2 ccbf
00000250: ec13 8c5d f4bc c93f c7e3 ce6c 9278 bdbf
00000260: 2658 c710 d19c b9bf 07cf 68cf f3da 96bf
00000270: 2f18 9b6d 2ec2 d9bf 4b4f 26ea ca9a c1bf
00000280: bcfb a45a 5713 d0bf 0ab6 9dc0 1941 d0bf
00000290: 70ef cab9 0c31 9ebf 74c9 e113 04c7 ccbf
000002a0: 4351 857b 8a5d c23f 80a3 cd8a 3c64 db3f
000002b0: 47b0 bd4c 88aa bbbf fd9d 1081 c5b1 c0bf
000002c0: 25ca 0d54 c97a c73f af8f 0043 63e1 d03f
000002d0: fb94 9d66 aa0b cfbf 2041 b526 cfb4 d23f
000002e0: cf0d 07c5 a434 d83f 0b0a 59bd 71a7 cebf
000002f0: 09dd 56ab c31e cfbf 62ef ccda 03f5 d43f
00000300: a4b0 7627 83f2 c3bf 7d7e c795 a34b cd3f
00000310: c3de 77d9 6d53 d3bf 18f1 0081 5f04 d0bf

linear.bias f8 [2]
0.011091507692478852 -0.019146410469554592
00000000: 6094 6bf6 24b7 863f 28ca 35db 1d9b 93bf
