AIModels/with_0.1_0.1_1_scheduler/model_9313_90epoches.pth (torch, 388003 bytes, 10 tensors)

lstm.weight_ih_l0 f8 [256, 28]
0	0x3fd38cff28fa551a	0.30548075677627795
1	0x3fd636e2f31caea2	0.3471000074521077
2	0x3fda82c1503c7832	0.4142306598240594
3	0x3fdb4687ad75ae93	0.4261798089926085
4	0x3fddae9edca4d61c	0.46378299281363566
5	0x3fe0743b04686a28	0.5141882978526313
6	0x3fe31f0a5eae4e6c	0.5975391244159716
7	0x3fe3ac59537864fa	0.6147886877326123
8	0x3fde2d851eaee163	0.471528320278159
9	0x3fe2c7811da3897e	0.5868535593875064
10	0x3fe5c3b5bad7b2c3	0.6801403664845441
11	0x3fe7fa4368a524e5	0.7492997211312767
12	0x3fefbdc036747e31	0.9919129432273107
13	0x3feac8cd043dcc75	0.8370118220176567
14	0x3feee67cf917261d	0.9656357636496896
15	0x3ff0503795bb1406	1.0195842598780032
16	0x3fec45f0d205a0eb	0.8835376836769034
17	0x3fe860c690f5b3ba	0.7618134337659435
18	0x3ff0be872840f31c	1.0465156147394685
19	0x3fe6d3ff8293d985	0.7133786726324592
20	0x3fe9b76b12503078	0.8036399228744946
21	0x3fe46ccc409aca96	0.6382809888658183
22	0x3fd865ebee1c4b2b	0.38122080090504323
23	0x3fd46c6d7945d2a0	0.3191178974441673
24	0x3fcbf7378e6e04f8	0.21848196463182723
25	0xbf8fc5d6e29f9b41	-0.015514067450522641
26	0xbf97af44cf293bf2	-0.02312953485880693
27	0xbf8eb4554267e75d	-0.014992395485922289
28	0xbffbde4a54d55d5a	-1.7417701066786635
29	0xbff92bf786c3ebf9	-1.5732341064710893
30	0xbff8345c0dff5424	-1.5127831026814045
31	0xbff426130b22b996	-1.2592955050455195
32	0xbff23297f75743a6	-1.137351957488343
33	0xbfeacb98334c02d8	-0.8373528482335031
34	0xbfe5992d358e23ca	-0.6749483152390152
35	0xbfe72bb3b10dc83a	-0.724084707077288
36	0xbfe9534c2dac51b3	-0.7914181606343419
37	0xbfe5ff5b2d359cde	-0.6874214060780124
38	0xbfeaf7991f60a310	-0.8427243817178312
39	0xbfdfb039f640b2e0	-0.49513100669973475
40	0xbfc7e063a3ebf125	-0.1865353155516313
41	0xbfd14f8e783359ca	-0.2704807447275043
42	0xbfc6273f634cd9e7	-0.17307274197237563
43	0x3f93ed9f142bcfae	0.01946114121069769
44	0x3faccb2dc718be9f	0.05623763137225279
45	0x3fb054254e280d3a	0.06378396185032367
46	0x3fa590231123d14e	0.042115302889132
47	0x3fd1525791aeaa90	0.2706507609060873
48	0x3fc71c8a70b6d7bc	0.18055849555611114
49	0x3fb5bce6180a1696	0.08491361700915898
50	0x3fe1c1a36da38dec	0.5548874989876231
51	0x3fc01c65e7282a70	0.1258666399665631
52	0x3fd71fc673f1a287	0.36131440470357074
53	0xbfacaacbaab8dbec	-0.055990566816426085
54	0x3fc43571f64d83d0	0.15788101698401968
55	0x3fd7cfd95664dd8b	0.37206109463610265
56	0xbfec917df3f8a4c8	-0.8927602543891675
57	0xbfe5e577a7b59d20	-0.6842611575674802
58	0xbfe7142cce7b3542	-0.7212127716863181
59	0xbfe21e5053b5ee39	-0.5662004122709227
60	0xbfe6b4539051d1f8	-0.7095125025503526
61	0xbfdff049e803b9e1	-0.49904105813666716
62	0xbfe8551c0c047ff2	-0.7603893503874117
63	0xbfe5609cda37b41d	-0.668043543058619
64	0xbfdc8833b4d1052d	-0.44581310899600873
65	0xbfe8978f3d264ce8	-0.7685009188011493
66	0xbfebfcd1bfeb74ae	-0.8746117351944542
67	0xbff0adddee8c0c22	-1.0424479788059746
68	0xbff251c1f0dadce5	-1.144960347022612
69	0xbff1e44db283f2b5	-1.1182381604441336
70	0xbff59d18704ce65d	-1.3508533846601474
71	0xbff543384e01b145	-1.3289111182339906
72	0xbff360ced078342b	-1.211134733518757
73	0xbff353ad60296623	-1.2079290157620413
74	0xbff52f0f5441288e	-1.323989228362311
75	0xbff374da1b3f2f21	-1.2160283150032642
76	0xbff7217cbb2db72d	-1.4456755935347687
77	0xbfefe9e6aba5436d	-0.9973023750736566
78	0xbfe98a3c5a77b0e4	-0.7981244818634221
79	0xbfe0cae2ab59aaca	-0.5247662874874888
80	0xbfe3d1438e2ae390	-0.6192949082097687
81	0xbfd37e1bd5ef3090	-0.3045720662310112
82	0xbfac9ec8a9754b17	-0.055898924527943254
83	0x3fa9e4cf23f488fb	0.0505738002195972
84	0xbfce1dc58919a63c	-0.23528355783791877
85	0xbfdce7e55e28502b	-0.4516538066393447
86	0x3fcc87d8aec987c2	0.22289570364506345
87	0x3fc5dc70aa1aa918	0.17078979783884374
88	0x3fc6059340bd5fc4	0.1720451418029808
89	0xbfe4e773bf27cee0	-0.653253434515559
90	0xbff7fd490c1b3b3d	-1.4993372414498503
91	0xbfea5a6b0e45a06b	-0.8235373762845603
92	0xbfe1b6c4468de0ec	-0.553560388375471
93	0xbfd6042596a41a7b	-0.3440031024078178
94	0xbfee322db691d198	-0.9436253133595072
95	0xbfd104d6eeb81e6e	-0.265920384525521
96	0xbff239670d027097	-1.1390142925438675
97	0xbffb9155e58a386a	-1.722982308044744
98	0xbff671bfa57cadb4	-1.4027706589066442
99	0xbff6adfe2333905d	-1.4174786925368814
100	0xbfea33a4cc65c83b	-0.8188041679516184
101	0xbfedbf9b956977c7	-0.9296396177485285
102	0xbfe8be7f8333cb09	-0.7732541620774508
103	0xbfd7f8ed1f1e77b0	-0.3745682529350871
104	0xbfe3e5482ef930c6	-0.6217385213326672
105	0xbfdaaa37cc46e8ce	-0.4166392798321227
106	0xbff43c9b93635034	-1.2647968060819155
107	0xbfe83bdcf7d792c7	-0.7573075142541591
108	0xbff39b428deb4064	-1.2254052680691752
109	0xbffe5c93e6f044f6	-1.89760198793766
110	0xc0019e3f95bee25e	-2.202269716155839
111	0xc0062b7ca138fc89	-2.7712338061824693
112	0x400d92e65a13bd3c	3.696728423812287
113	0x4007e1eba76c8ebb	2.985312755585111
114	0x400238046166d724	2.2773521050938985
115	0x3ff18a0b68eef6f1	1.0962022875750643
116	0xbfd6f99c51b045ac	-0.35898502328299275
117	0x3fb867e2e0deab06	0.09533517827973634
118	0x3fd79052a2f9bb8b	0.3681837646062653
119	0x3fdc3b9be696a7d4	0.4411382438507847
120	0xbfd6fd25f7caf074	-0.35920094679364145
121	0x3fd447b33e4d92d4	0.3168762310436197
122	0x3fe21fb27de4b9b7	0.5663692911965005
123	0x3ffa13b21d1ff4a6	1.629808534401755
124	0x3ff8eb291e216d44	1.5574122597671058
125	0x3ff934d58c9646b9	1.5753989688568437
126	0x3ff55a06914c46b1	1.3344789195729556
127	0x3ff138ce7929cfc9	1.0763687832777455
128	0x3fef106c75e44674	0.9707548430034891
129	0x3ff2c426e7678a3d	1.1728886641727876
130	0x3ffc3d04b9752cd8	1.764897083706094
131	0x3fe4f212b2c78c15	0.6545499316965812
132	0x3fee7a45364ce21a	0.952425581031153
133	0x3fd2a8a2ad12159f	0.29154269124441073
134	0x3fe4dfec2a715af3	0.6523342923127003
135	0x3fe3ef7bc027f3e8	0.6229838135765222
136	0x3ff05d9cddea6f2e	1.0228546780189833
137	0x3ffbdaaf7a9c9265	1.7408900060192078
138	0x3ff9e1e77a940301	1.6176523960313605
139	0x4001630e6edf35a8	2.1733673726909792
140	0x3fd0c569bffdabdb	0.26204913853751827
141	0x3fbdde4475af262a	0.11667278168820219
142	0xbf9b58091d99bca2	-0.026703016692803623
143	0x3fbf29f9ba68f370	0.1217342453100636
144	0x3fc18bcfca7d56b0	0.13707921397388168
145	0x3fd8aba7b5881510	0.3854769966859104
146	0x3fcb0658da0330ec	0.21113119740619568
147	0x3fd5d7b3674efa1f	0.34129033173295115
148	0x3fe2795eb9d4e50b	0.5773156766437365
149	0x3fdb2d0184cb491f	0.42462194412395776
150	0x3fed14ac766f0e27	0.9087736428413721
151	0x3fe1c586e8f50249	0.5553621816580484
152	0x3ff2b6d1a0af6d1a	1.1696335102813635
153	0x3fe75d0140e9e9e7	0.7301031368108938
154	0x3ff04b749682f054	1.018421733794658
155	0x3fec064596308b98	0.8757656033889019
156	0x3febddf836893e0a	0.8708458962591419
157	0x3fef53d129c5af1c	0.9789815727103561
158	0x3ff129bf9484a9fe	1.0726924706929135
159	0x3febc365ff73fc99	0.867602347308906
160	0x3feed964fce06a29	0.9640374125477297
161	0x3fe95565319f14ba	0.7916742295425572
162	0x3fe93cf18ea58843	0.7886894022051439
163	0x3fea2ebbd0790eda	0.818204791234588
164	0x3ff23c1ad8eebc6a	1.139674041168997
165	0x3ff4eebd008c555f	1.3082857152379217
166	0x3ff2292df73db23b	1.13505360201374
167	0x3ff02c771f6abdfb	1.0108557917809537
168	0xbff3e87b46e5ab87	-1.2442581910533776
169	0xbff63efcaa947e12	-1.3903776801379348
170	0xbff493476d2b655d	-1.2859567894396016
171	0xbff03bc9d13b49f3	-1.0145967648610366
172	0xbfed20e51303d864	-0.9102654811274644
173	0xbfec814ccd0e74b1	-0.890783691883959
174	0xbff2064156081f30	-1.1265271530737202
175	0xbff2fa9e579ec499	-1.186186163202626
176	0xbfecbe704da22c53	-0.8982469097403601
177	0xbfe25aa86052bb4e	-0.5735666161834645
178	0xbfe207daf7b77ab4	-0.5634589040963278
179	0xbfd367f2ccae1c86	-0.30321950901311145
180	0xbfce95db799c3a4d	-0.23894828260422898
181	0x3f61eb9fbfb2b7f0	0.002187549600043852
182	0xbfd096bf7603e3bc	-0.25920092129632244
183	0xbfcf1cb4f9315fd7	-0.24306356589909114
184	0xbfd5c08634421525	-0.3398757467587806
185	0xbfd5481bd8674af2	-0.3325261700930887
186	0xbfb0398e665b4157	-0.06337823866784241
187	0xbfdb1a0a2a3a3d17	-0.42346433757571006
188	0xbfd24540193cbdd7	-0.2854767080743534
189	0xbfe44694baaa3527	-0.6336158414648353
190	0xbfcb9233325eaff4	-0.21539916953531668
191	0xbfcb3190e5dd3efb	-0.21245013450469927
192	0xbfabca01bbfc7e85	-0.054275564382121146
193	0x3fb8009589bd2418	0.09375891316189244
194	0x3fe205f97a27393d	0.5632293115429899
195	0x3fda4399911d48ee	0.41037596865966364
196	0xbfdf0e2801cccc55	-0.48523903060703805
197	0xbfe89217ef7ee4ee	-0.7678336789751066
198	0xbfdfd0b9fa6d88dc	-0.497114653166262
199	0xbfe490efa0a39809	-0.6426923882943366
200	0xbfda68b3ee7ac198	-0.4126405552770165
201	0xbfd42234a91ffe14	-0.3145877505885164
202	0xbfd696b79a05dffc	-0.352949047482525
203	0xbfe5568d5979585b	-0.666815447572627
204	0xbfde7bcda9bf9128	-0.4763063581178977
205	0xbfd8d700b57045c2	-0.38812272757158095
206	0xbfdc86389f4e39e3	-0.445692210742804
207	0xbfde6454f5712020	-0.47487377137122344
208	0xbfd5a0c2571d9a5f	-0.3379369593371048
209	0xbfd85cc5c89023c1	-0.380662389623975
210	0xbfbc9097656e287b	-0.11158128954244433
211	0xbfd78c3f9cb01476	-0.3679350881723801
212	0xbfe1602ad88821d5	-0.5429891804824886
213	0xbfe09b2600052c4e	-0.5189390182871507
214	0xbfcbc3b8b9579db1	-0.21691044855036304
215	0xbfdc5baa6fdf049a	-0.4430948345653377
216	0xbfcc62dec5f7e6ec	-0.22176727930473505
217	0xbfe1cf959a7876e8	-0.5565898911479197
218	0xbfe1edbd0a270e7f	-0.5602708051960262
219	0xbfe214dc8f7e4ec3	-0.5650465777020702
220	0xbfc7d721a2ed3b4e	-0.1862527890720806
221	0xbfc7e462e1aea5d2	-0.186657295414348
222	0xbfc7faf1e536aca7	-0.18734573070591873
223	0xbfc9d3f76056daa2	-0.2017811985403642
224	0x3ff78552ad559a25	1.4700495501398418
225	0x3ff72a066ce48fc0	1.4477600339532586
226	0x3ff265d1a3dd84a7	1.1498581315029612
227	0x3ff336920173d50a	1.2008228356110657
228	0x3ff1381d4e5f5a90	1.076199823515399
229	0x3ff2dfe77eaf58ac	1.179664130080293
230	0x3ff1c823a4281bd3	1.1113621151323414
231	0x3ff3dcc846e0f89f	1.2414019364073636
232	0x3ff06e4a9a4ddb7d	1.026926615477094
233	0x3fea0769f9702b5f	0.8134050247038934
234	0x3fe2c7a28730d2b4	0.5868694916194586
235	0x3fe32948997d48c3	0.5987895009841612
236	0x3fde3750370accea	0.4721260583421115
237	0x3fc6f5ec10c5d701	0.1793799478434082
238	0x3fe0dd7f32d11968	0.5270381920352465
239	0x3fdeaaf72453a35b	0.47918489978342443
240	0x3fe2192b2f675b4b	0.5655723501066431
241	0x3fdf091d78758cf5	0.48493134273139954
242	0x3fb52aa34da12e0a	0.08268185277227516
243	0x3fbd30a177db0ee7	0.11402329612888772
244	0xbfc75abf1596ecdb	-0.1824568610589726
245	0xbfc94450379d98fc	-0.19739725795370322
246	0xbfd0e41df4c5e2b2	-0.2639231577264055
247	0xbfc1220e62a3627f	-0.133851812518305
248	0x3fccdcea4709ee53	0.22549179524127058
249	0x3fc1d6db8a70e448	0.13936943301976812
250	0x3fc9fc93995eb2b7	0.20302052487149577
251	0x3fe9dc52687d947e	0.8081447640257833
252	0xbfcfad01c35586ee	-0.2474672511844384
253	0xbf9c0604a495b4fa	-0.027366707368334332
254	0x3fb2a2b9348e9bc7	0.0727954629243036
255	0xbfd587ff5e9672fc	-0.33642563092307376

lstm.weight_hh_l0 f8 [256, 64]
0	0xbfe00c6047c79cbc	-0.5015107538173633
1	0x3fcec40a51c0a4be	0.2403576754743763
2	0xbfffa6352e6b632a	-1.978078061414815
3	0x3fa142db1d930233	0.033713195190561505
4	0x3ffbce9a56ed890e	1.7379401584262868
5	0x3fc6803c7d99e2d1	0.17578846104495097
6	0xbff6c3571ad151eb	-1.4226904914440819
7	0xbfc899e6e08b8ffc	-0.19219671215171263
8	0xbff6ec831b882288	-1.4327422213993106
9	0xbfadad433a138d56	-0.057962513770486154
10	0x3ff1a2a879f7c794	1.1022114529009501
11	0x3fb1fb6e14c9b711	0.07024276740568448
12	0x3fe7c570b76557f2	0.7428515989256523
13	0xc005af2b3961dbf3	-2.710531662272382
14	0x3ff5ddf42d47f2ba	1.36668794334325
15	0x3fec21671f374dc3	0.8790774926841823
16	0x3fb912e2b511968c	0.097944421011187
17	0xbff24e868d79872c	-1.144171288142796
18	0xbff3f524da273620	-1.247349598084277
19	0x3ffdf898b98194ef	1.873192524560462
20	0x3fec85c9bfd40c4e	0.8913315531393751
21	0x3fe64146bba805bf	0.6954682984507413
22	0xbff6db5b59cfa8fe	-1.428553915810482
23	0x3ff7187eb7070c99	1.4434802197945713
24	0x3fe21edbfa70766b	0.5662670031922067
25	0x3fdb8e1fb73b255c	0.43054955381065496
26	0x4006b411e5f41804	2.8379247632137794
27	0x3fc95bf580c9d2f3	0.19811886585707547
28	0xbff482870b8de0a8	-1.2818670703254984
29	0x4005d8685c9e6b0a	2.7306678043218016
30	0x3fb4933e5cd71add	0.08037175909621959
31	0xbfff59129e01b949	-1.9592462703836466
32	0x3ff9974f3b3bcb02	1.5994407953082264
33	0xbfd2912494a6c07d	-0.2901088191674786
34	0xbfbf094c420ad7a8	-0.12123562443124902
35	0x3fc54b14c62c7562	0.1663537948269705
36	0xbff7e1c071b2a53e	-1.4926151696511876
37	0xbff14b912859cc04	-1.0809489799692082
38	0xbff18c6c2f1cd417	-1.0967828598343254
39	0xbfe02b74d19435af	-0.5053047269190553
40	0xc0015b5550923906	-2.169596318685879
41	0x3fc447598adf0101	0.15842742234054444
42	0x3ff44a46d284b296	1.2681339476941154
43	0x3fe4842881182853	0.6411325951933214
44	0x3ff10d6a61a5782f	1.0657752813635957
45	0xbfe8ecc2fa494431	-0.7789015663530617
46	0x400014fe9da90178	2.0102512662126024
47	0xbff4cc2469e9e64d	-1.2998394143345593
48	0xc006acebc2f1d5bc	-2.8344340543796687
49	0x3ff8bcb34911ad82	1.5460694174060738
50	0xc00f7b6905774aa2	-3.935258906081189
51	0x3feba417ff66f0e5	0.863780974228146
52	0xbfffcacdb798c465	-1.9870125934360428
53	0x3ffbdd4bcbdb8d8f	1.7415273631275772
54	0xbff9a4dddc93d294	-1.602750646238893
55	0xc00508985c857e86	-2.629196856330796
56	0x3fd459f2ef3619b4	0.31799004898530403
57	0xbffb98ffb0573639	-1.724853218870875
58	0xc00e4004d0e2b811	-3.781259185713687
59	0x3ffaf232859cd369	1.684130212711546
60	0x3ff890f591da237c	1.5353904435489474
61	0xc000f6187df5b6c2	-2.1201639023409777
62	0xc0004dd97d356fda	-2.038012483781114
63	0xc008ed5e8761132c	-3.115902955675116
64	0x3ff056774c7c4165	1.0211098659238698
65	0xbfe543cbc6232711	-0.6645258779401236
66	0xbff937561cd00982	-1.5760098577016781
67	0xbfff67a3a8b29e9b	-1.962802561736601
68	0xbfa5de702da4ca6f	-0.042712693759672564
69	0x3fd75ea8d783e7ab	0.36515255972301003
70	0x3fbf72a12dda0637	0.12284285897660473
71	0xc0034e25ca2fce29	-2.4131580158080124
72	0xbfd6b6aa67035aeb	-0.3548990255343784
73	0xc0047716ea20bd89	-2.558149174808652
74	0xbf9b0d076a9280a0	-0.026416889075904337
75	0xbfe8059bcf7e9614	-0.7506846478106035
76	0xbff2ff9f97863e93	-1.1874080580636572
77	0xbfde64e944e8061d	-0.4749091313279637
78	0x3ffa7304fb6b3e24	1.6530809231807178
79	0xbfd9b82185ece6fe	-0.40186346129085837
80	0xbfe8fbfa838e7d8f	-0.7807591027703199
81	0xbffa5b51d528f033	-1.6472948385771928
82	0x4010b542d78cb28b	4.177012794458856
83	0x4002439ce63e491f	2.2830141055830064
84	0x3fe50766ff8d6b92	0.6571536055811171
85	0x400834f928feb608	3.0258658602458617
86	0xc001b48cf36285a9	-2.2131594671670496
87	0x3ffbb38c41377e9a	1.731334929230718
88	0x400ada8eae42ea49	3.356717454354371
89	0x3ff7b8de386634b0	1.4826338008017892
90	0x400217f2671e5479	2.2616928154116605
91	0xc0117a30a5915b58	-4.369326197621227
92	0x3fe5843e3e53530c	0.6723929612440727
93	0xc01024fea22dd051	-4.036127599760293
94	0x3ff32efc51bfaf40	1.1989710992156262
95	0x3ff73a53495f270f	1.4517395845491057
96	0x3fc5693cdec8505d	0.16727410200167273
97	0xbfe3df991a8879bb	-0.621044685194469
98	0xbff630e34a6cc448	-1.3869355113240704
99	0xbfd771f0ed6f70ec	-0.3663294142441049
100	0x3fd7df492e2838f0	0.37300328738719113
101	0x3fff6dfe90590783	1.9643540991387176
102	0xbff9b15b6970bdca	-1.605800067783877
103	0xbfff1d6754c28c9d	-1.9446786223350394
104	0xbff9507e1bbc818e	-1.5821515162898296
105	0x3fec0868045c9494	0.8760261616886447
106	0x4007493aa5356ce5	2.9107563883713845
107	0x4015f8e07704e92a	5.493043765711528
108	0xc0001f37e1858bd5	-2.0152433031921455
109	0x3fe435207c2b142d	0.6314852166330006
110	0xbfe3b576da034d6d	-0.615901399427839
111	0x3fec740b35ed84ee	0.8891655019071132
112	0xc00a5c802cc45ad3	-3.2951663491652226
113	0x3fd608c3a46ecfaa	0.3442849260129558
114	0xc00e7fe917dd75e8	-3.81245630879015
115	0x3ff7ced3002c0195	1.487994194671136
116	0xbff804a9b1dcc201	-1.5011383960483047
117	0xbfe3624d229b3f67	-0.6057496715456921
118	0x4004a4d828bd3f04	2.5804904158356994
119	0xc009f96a8be8831c	-3.246785252602775
120	0xbffd8078d0800e40	-1.843865217641806
121	0x3ff3c3289a9b3f32	1.2351461448015013
122	0x3ff89b5064800866	1.537918465212465
123	0x3ff1ff8c55eaef31	1.1248896938477169
124	0x3fe9dda305f47f86	0.808305274611471
125	0x3ff91c354ac88079	1.5693867608279375
126	0x3feddc197bb8d103	0.9331176201290251
127	0xc00442c58f834a43	-2.532603379434734
128	0xbfe12f47b945ae30	-0.5370215052220768
129	0xbff5825e765c3822	-1.3443283675619644
130	0xbffc29d19cba160f	-1.7602096674103256
131	0x3fd68dd97b624bb5	0.3524078087731895
132	0xbfd90fdbcd8a2c76	-0.39159293243637394
133	0xbff2feb6761ec8fe	-1.1871857275078237
134	0x3ffa5e3ea98fdd41	1.6480089782251783
135	0xbfe25093afbac3df	-0.5723360473840521
136	0x3fd7cd49750e45f4	0.37190472060419144
137	0x3fc348871f12800d	0.15065087334824093
138	0xbfd53f4dc661d984	-0.3319887578321856
139	0xbff5aec79fecc871	-1.355170845705768
140	0xc0057fb73a76e1ab	-2.687361199143387
141	0x3fd663a125ae4726	0.34983090095294
142	0x3fe5433845f54a4a	0.6644555441255957
143	0xbff598533c42a862	-1.3496887544556775
144	0x3fe706415b78553d	0.7195135866665293
145	0x3fb36fb0ed8bf625	0.07592302131157476
146	0x3ffde87019590af7	1.8692475309514387
147	0xbff2f338a9529a87	-1.18438020841282
148	0xbfe3ba11d0619b5a	-0.6164635724970637
149	0xbff373cff94817ca	-1.2157745111048706
150	0xbfe4e351e21f3493	-0.6527490059321671
151	0xbfe42ae847be8ed0	-0.6302377129799996
152	0xbfd713fafbcc3933	-0.36059450711845215
153	0xbfb8403b8e104b49	-0.09473011225081253
154	0x3fdbc16e99b04051	0.43368115433350335
155	0xbffc2764455c041f	-1.7596171101906817
156	0xbffc6209dba23d16	-1.7739351825183056
157	0xbfe258bed7d52e2e	-0.5733331885798572
158	0x4006bb1c358b7dfe	2.8413623984522465
159	0xbffa7ffa5966353a	-1.656244610992259
160	0xbff9c3c5297d3cb6	-1.6102954502746747
161	0x3feda2ddadbd2083	0.9261310952506537
162	0x3ff9404678a67ccf	1.5781922066596967
163	0xbfef4a5393479d92	-0.9778230549390392
164	0xbfdfb3aeed542b66	-0.4953419988311708
165	0x4003314467315bad	2.3990562498033428
166	0x3ff3fdb9f9bad8d4	1.249444938189801
167	0xc00f7259ddfbd947	-3.9308354704363953
168	0xbfd1e5a58607b5bb	-0.27964151467207515
169	0xbfed2b1ec7d6b903	-0.9115137007809441
170	0xc006b8b37326e3fd	-2.840186023353907
171	0x3fc217169fc2c0a1	0.14132960129564245
172	0xbffa05fe00f4887c	-1.6264629399597927
173	0x3fb40e78e075a320	0.07834582786530264
174	0x3fcc32b1c1e9b6dd	0.2202970692482528
175	0xbfea1bd6452c02c0	-0.8158980704320911
176	0x3ff4166c17764a1b	1.2554741779791871
177	0xc0058d5b5dbec7db	-2.69402192343203
178	0x3fbe72397506e0cf	0.11893042666531815
179	0x3ff59138552debf4	1.3479541137046427
180	0x3fe05b66feca0a41	0.5111575104095395
181	0x3ff4cfad9c065b92	1.3007026762695415
182	0x40126bd5cc4ae60a	4.605307762214133
183	0x3ff17b0c645e6376	1.0925411148693605
184	0xbfddc16732d472c5	-0.46492938960890867
185	0xbfcc8fc3a08d97c7	-0.22313733424669932
186	0x4000b072845f4564	2.086155923993532
187	0xbfd0cb402998f115	-0.2624054342484368
188	0x3fbba33594b942da	0.10795912629078988
189	0xbff5dde41805709d	-1.3666726053552687
190	0xbffd9b67ca9c529f	-1.8504407801130254
191	0x3fe18994c0c97e6d	0.5480445638058434
192	0xbfee9638ae631794	-0.9558375745771053
193	0xbffbe200f80f5bc0	-1.7426767053454881
194	0xc00a20a296a29199	-3.2659351127969782
195	0x3fe1501c59eb872b	0.5410291439295397
196	0x3ff9bcf16a89bf3c	1.6086286698955083
197	0xbff9f434843e0ec3	-1.6221203962058304
198	0x400761d0d54218bd	2.9227615986629574
199	0xbff8c2cf04286e7e	-1.5475607073230147
200	0xbff0b34b31a21ee0	-1.0437728823471204
201	0x3fe11214b47dd7f4	0.5334571385599234
202	0x3fd74bb6e9e29310	0.36399624672257946
203	0xbfee607d575ec635	-0.9492785173844768
204	0xbfd6ffbbf9faf6e1	-0.35935878193036613
205	0x3fde8393c05f062c	0.47678083215950795
206	0xbffebba068150e1c	-1.9208072725022083
207	0xbff1bb11b813152b	-1.1081711950694835
208	0xbffc938b66008ece	-1.7860216125927084
209	0x3fd1a107bb8be7a4	0.27545350375259603
210	0xbffe57808ea7ba9d	-1.8963628361195
211	0x4004dc819a12f4ab	2.607669070914729
212	0x3fd30d0ada29a05b	0.2976710443967982
213	0xbffa825ba9d32f4f	-1.6568256982599967
214	0xc006a1e2f52ef152	-2.829046168799473
215	0xbfe05120b1f37775	-0.5099032855612068
216	0x3fe85e8b5bf1b652	0.7615410609993865
217	0x3fd781c7a6c63a0d	0.36729613577418335
218	0x40079d4e0e2a308e	2.9518090349793686
219	0x3fec02093d353ec1	0.8752485461681873
220	0x3ff2dc6e58e0847d	1.178816172767511
221	0xc007e74430ce9ba8	-2.987923032097985
222	0x3fd4d6a4678f10f2	0.3256007205311696
223	0x3ffbdd0887edf05c	1.7414632138961883
224	0xc004f4ea0b641876	-2.6195870294496286
225	0x3feef072a3cb42b3	0.9668515395261096
226	0x3f78bceb17ce3f04	0.0060395415611223
227	0x3fef274983aedf11	0.9735457965789199
228	0xc00075e17153b02c	-2.0575589040436366
229	0x400933331b5fdeca	3.1499998224861416
230	0x4003ecbf78b5f24e	2.490599577953879
231	0xbff13d75848b4dc6	-1.077504651785476
232	0x3ff2d7e09a8504d2	1.1777044330522597
233	0x40093bf6ecf2b7d7	3.15427956691472
234	0x4003c12b145cfee6	2.469320448959354
235	0xc00942d6a121aa28	-3.157635935630669
236	0x400b84bab4f85bd9	3.4398092401784024
237	0x3fe107b4779fe33b	0.5321905456940849
238	0x3fc28c1832f6ba20	0.14490034569230748
239	0xbffcd771498ce183	-1.8025982735690327
240	0xbfdb61dd853c5258	-0.4278482247475828
241	0x3ffbcc3d1b602155	1.7373629636150174
242	0x3ff383e754c05032	1.2197030363650012
243	0xbff02d9daf973cec	-1.0111367091192802
244	0xbfde23e22c30b45d	-0.47094015422300634
245	0xbfdbcdd29a0d6d4e	-0.43443741840538486
246	0x3fdcae155f2e5382	0.44812521262183946
247	0xc00b98a09e54e40c	-3.449525105443632
248	0x3ffeb9de19ef1a07	1.9203778279348869
249	0xbff3369a5d807ff6	-1.2008308079166432
250	0xc0066a3c1dcd386e	-2.8018724754575066
251	0x4005ca5cedca7576	2.7238100602541477
252	0xbfe4e1b2fb874fe3	-0.6525511658351174
253	0x3fef0cfa449966fe	0.9703341808155697
254	0x3fedac366d84d6fe	0.9272720469514011
255	0x3ff0f247dea76f14	1.059150571577395

lstm.bias_ih_l0 f8 [256]
0	0x3ff72ef38d04afba	1.4489627369430154
1	0xbfe90c2d3e998359	-0.782736418023073
2	0x3ffacac905f26d41	1.674508116941823
3	0xbff502c3d9d508e8	-1.3131750592297582
4	0xbfc56328b9676372	-0.1670885949413577
5	0xbfe23783b45dbe77	-0.5692766688134289
6	0x3ff0901433d2ba76	1.0351755165426346
7	0xbff62a123cdae91c	-1.3852712990906815
8	0x3ffb2f3e43d59982	1.699033989885351
9	0x3fde1f5f2bbd01cd	0.47066478034323894
10	0xbfbc8d3073f2e2d5	-0.11152937727718933
11	0xbf96bbd77a749549	-0.022200934266171122
12	0xbfede70aac54b80f	-0.9344533315504594
13	0xbff176f9e7aff30f	-1.0915469217572455
14	0xbffd390ac3c35c9c	-1.82642628164266
15	0xbfe7441bc52f952b	-0.7270640231405755
16	0x3ff932e914ec3ee9	1.5749293153093566
17	0x3fefbe757d8cef23	0.9919993831785842
18	0xbfc362a167353c82	-0.15144746341181664
19	0x3fe64335830ff19c	0.6957042274294056
20	0xc00c84cfc0b8ced9	-3.5648493820570875
21	0x3ff0ccdd45744ab3	1.0500157082612247
22	0xbf8e6b97ac8a65bb	-0.014853653862973873
23	0xbfaae816ef879069	-0.05255195306725186
24	0x3ff825d146f4d764	1.5092327853903607
25	0x3fe9ddbf12b88bf4	0.8083186498300834
26	0x3fddeb911439b1eb	0.4675028512490644
27	0x40006e24d0579ec4	2.053781154321628
28	0xbfe80e6ea63e93c4	-0.7517617461168062
29	0xbfacd48e55ba30dc	-0.05630917355037621
30	0xbfd5a4b47135eb2a	-0.33817778640484397
31	0xbfc133e1ba1733dc	-0.1343958052297286
32	0xbff9064ea9a2cb2c	-1.5640398622896994
33	0x3ff0ec0021751db3	1.0576173121388421
34	0xbfe8d8bf5f43ddd6	-0.7764584408423001
35	0x3fe52ea7db084e75	0.6619452741601451
36	0xbfbd8ca866112196	-0.11542751781337865
37	0x3ff4f0b85f274c84	1.3087695805486712
38	0x3fee572bb228506a	0.9481409530294631
39	0x3fbd1b65a42dc606	0.11369929559966616
40	0xbff72480056b860b	-1.4464111530036259
41	0xbff61f89f23c7de0	-1.38269991515687
42	0x3fd8770a4b3b59e8	0.3822656378446525
43	0xbfe7aab1e61a8793	-0.7395867819034144
44	0x3fbe4ff29f776e90	0.11840740578866815
45	0x3fec1ed33895e68a	0.8787628274141792
46	0x3ffa5a53ba889e9c	1.6470525061103336
47	0xbffa153ad3a26c5e	-1.6301830546351748
48	0xc00216da12249e26	-2.261158124678121
49	0xbfd05f75cec92b52	-0.2558264274018046
50	0x3ff1e73b1126809e	1.1189528150498869
51	0xbff362a9ccb0ee2e	-1.2115877147433696
52	0xc0007976f8cd4792	-2.0593089521070818
53	0x3fd0d1716b80903b	0.2627833890749149
54	0xbfe715cd3ea945f9	-0.7214113448955565
55	0xbfead2af587006e1	-0.8382183768555614
56	0x3ff1c27d9ecda2c3	1.1099830821278125
57	0x4008e819989c5998	3.1133300707544542
58	0xbfbb97240331e602	-0.10777497365952374
59	0xbfff9cecc758c7f6	-1.9758117472633763
60	0x3fede7c8bcc429d3	0.9345439612237051
61	0xbfc1ad65b138186b	-0.1381041636779544
62	0xbf9e4dc733876b30	-0.029593575019912055
63	0x3ff5f001e1863601	1.37109554381766
64	0x3fa97791f8442174	0.04974037318794702
65	0x3fe47d8b0f4605ad	0.6403250978766458
66	0xbfcb77ed8e020ba9	-0.21459741052612216
67	0xbfd2a36510484e28	-0.2912228259094456
68	0x3ffd24df806773e6	1.8215022102151521
69	0x3feb7515973b9264	0.858042521835682
70	0xbfec837efeb3c801	-0.8910517668393824
71	0x3ff0ca5567b917c6	1.049397854965251
72	0x3fda1187cf43bd9d	0.4073199771946408
73	0x3fda93bfd3fa0c67	0.4152679033360926
74	0x3ff1d4930a4479b6	1.1143980408738634
75	0x3fe141af36e5501b	0.5392681190664946
76	0x3ff0e1a3f103d03e	1.055087987389029
77	0xbfeaa0bdddc8ed09	-0.8321217853294068
78	0x3ff260bfbc3e3fd5	1.1486203530548569
79	0xbfc2c337aa351c44	-0.1465825635043264
80	0xbfe59c507be9c117	-0.6753313465287957
81	0x3fe0ab1ba1fc1003	0.5208871997606369
82	0xbfd14eeed0350a20	-0.27044267971737845
83	0xbfe8eacb350ff54a	-0.778661349904419
84	0xbf6026869c8c314d	-0.0019714955454956163
85	0x3fe50c6d755cd477	0.6577670376051533
86	0x3ff9d7bb5c71ae93	1.6151689158531652
87	0x4002af95bf4c5902	2.335734838979193
88	0xbfdd73935592eac2	-0.4601791701967778
89	0xbff224fc80908b73	-1.1340298673682951
90	0x3fd6c5d35b09c3e1	0.35582431688732014
91	0xbfe4607d8c8508b9	-0.6367786163830466
92	0x3fdf86d6579917b8	0.49260481409543955
93	0x3fd3407102567eb4	0.30080819347675036
94	0x3ff7d10eb43a93f8	1.4885394134701055
95	0xbfce2b7131e0306d	-0.23570074973429503
96	0x3fcf26b4bd4a8613	0.2433687137864103
97	0x3fe11375a2a9f283	0.5336254288700534
98	0xbfc51517ebbfb3ce	-0.16470622073339175
99	0x3ff196e479fe1620	1.0993389859517109
100	0x3feced8d20503953	0.9039979582901573
101	0xbffaca180a8ce426	-1.6743393337367336
102	0x3fd9e7ea74fd4eed	0.40478001999620866
103	0xbfd87b56ca962aed	-0.38252801689001964
104	0x3fe418262e0c5aee	0.6279478930835845
105	0xbfe899116b0c4d8d	-0.768685063436736
106	0x3fd571bd2035f536	0.3350670637663201
107	0x3feaeb1c0b21d4d5	0.841199895613182
108	0x3fd47197f68284fd	0.3194332034418748
109	0xbfea90069b0d007d	-0.8300812748275487
110	0x3ffc446adc101f1b	1.7667034717760035
111	0x3fe3d29bbe0fad80	0.6194590294011704
112	0x3fd698558a11c5be	0.35304773791639465
113	0x3ff21ad9ebeb15f5	1.1315554824408285
114	0xbfc732334733bc13	-0.1812194917360733
115	0x3fa4616943428c9c	0.03980568834347162
116	0x3fa258a47c551a09	0.03583253877382126
117	0xbfe3fc44c6bef15a	-0.6245445138697889
118	0x3fecc5d9d105b474	0.8991517145601748
119	0x3fc97c20ab729dbf	0.1991005742213314
120	0x3fc3f14b88b8b79a	0.155801240690775
121	0x3fd9dc5b839e88d0	0.4040745530457004
122	0xbfd66b19d366eff5	-0.3502869190667746
123	0x3fefc6b9669a18e4	0.9930083278602777
124	0xbfdef2f858e0e078	-0.4835797183946009
125	0x3fd6816910042a82	0.35164858402337285
126	0xbfea19648f591601	-0.8155997085347623
127	0xbfecf31c3495d1c2	-0.9046765353255568
128	0xbfd0b2025a309ad1	-0.260864818645513
129	0x3f94beab48a82248	0.02025859480821371
130	0x3ff04bd1174f8a4d	1.0185099516462686
131	0xbfd6a83a3baa1db8	-0.3540177900944985
132	0xbfe1b863fa758fce	-0.5537586108953236
133	0x3fef30870dd86613	0.9746737738052523
134	0x3fbc91ec711281d0	0.11160161743692432
135	0xbffc0de4d9bc0edc	-1.7533920769937401
136	0x3fe63fbc914fef82	0.6952803457383967
137	0x3ff3726e09712abf	1.2154369705992136
138	0xbffab09a08c12c59	-1.6681156484580895
139	0x3fe906aed5cf7ad9	0.7820657897935589
140	0xbfe36dd25b481bbd	-0.6071559698910886
141	0xbfc722999acb5758	-0.18074340875926498
142	0xbfec98e4ffd6e1b1	-0.8936638829100528
143	0xbfdd5e0ffa04fe61	-0.45886611381499703
144	0x3fe06bb632f69ab3	0.5131484027268328
145	0x3fea3a6264cb3d4b	0.8196269959097803
146	0xbfefa4cc7dd13276	-0.9888670403830264
147	0xbff0f79da36e660b	-1.0604530700715056
148	0x3fe70774a941be54	0.7196601205632285
149	0xbff855463911a0b6	-1.5208189229252134
150	0x3fee1bedfa8f024f	0.940909375545809
151	0xbfec7474bec5598f	-0.889215824698839
152	0xbfe51368c113b1a3	-0.6586192866357589
153	0xbfc31de6621ca696	-0.1493499735891432
154	0xbfe2540a3450a097	-0.5727587720657706
155	0xbffc0ec092147dd0	-1.7536016184093235
156	0x3fbf6cce997a05bf	0.12275401350964098
157	0xc002e89b778e45ed	-2.3635777797978705
158	0x3fe72d0a13efdb60	0.7242479695695287
159	0x3ff046fb5688318c	1.0173295383602605
160	0xbfdba2f4e5bfe979	-0.43182108341684217
161	0x3fffc5ac7995783d	1.9857601880426181
162	0xbfe1bcae9ab4c10a	-0.5542824765780392
163	0xbfecee5cf1c675d1	-0.9040970537350238
164	0x3ff39fb446efc8bd	1.2264902850115924
165	0x400179563fe1adeb	2.1842465391871335
166	0xbfeb02abc42c479d	-0.8440760451796795
167	0xbfbcbb302d36d5d4	-0.11223126510488807
168	0xbfd8a6a934e45ec1	-0.38517217793694775
169	0xbff3607d2f3d867a	-1.2110568852735057
170	0x3ff25a73c0342183	1.1470830448107285
171	0xbff6e182efa0937c	-1.430056510967204
172	0x3fd96fe36ef3432a	0.39745412669167257
173	0xbff7a5456f190e82	-1.4778494205246777
174	0xbfea42ac0a74c1ee	-0.8206386760921853
175	0x3ff227a37f3bf68b	1.1346774072730195
176	0xbff14306a1d8c6b8	-1.078863746847146
177	0xbfddba73a18e8451	-0.4645051076605045
178	0xbfec54ea537d516a	-0.8853656416563755
179	0x3fceca5893a06505	0.2405501099426958
180	0xbfc6b9e26253360c	-0.17754773903872978
181	0x3fdb5cd76fe74c40	0.4275415985877693
182	0x3fedbdd2a9dd85dd	0.9294217412645441
183	0xbfee057f53bc3883	-0.9381710658506254
184	0x3ff0e3bf676a3380	1.0556024589197648
185	0x3fb37d54789e7e08	0.07613113350679879
186	0xc000009807ad33fc	-2.0002899741871243
187	0x3fe4bf24aebb7f88	0.64833292128968
188	0x3ffeed9b455bcce2	1.933009406024944
189	0xbfd8d3c01a5ae451	-0.3879242188809871
190	0xbff1fcd440692cd7	-1.1242258564041572
191	0x3ff33429efec24e4	1.200235306927703
192	0xbfecd0aa0cfa7c6c	-0.900471711491162
193	0xbff499e25874a7b9	-1.2875693755436102
194	0xbff1f29d3ea8fcb4	-1.1217319915447606
195	0x3fc99cffe5f6a559	0.2001037476414165
196	0xbfd69cc2f9989b4a	-0.35331797003384635
197	0xbfc3c6faccd7a739	-0.15450987817831122
198	0x3ff373100e747313	1.21559148451269
199	0xbfe5c8918909e6d3	-0.6807334591423689
200	0x3ff867f515919f97	1.5253802149327151
201	0x3fe0d582f2f190dc	0.5260634179108155
202	0xbfec88f2e7fc8df5	-0.8917173892008906
203	0xbfdc5c86d69b9cfe	-0.4431473823337483
204	0x3ff24379b070fb79	1.1414734737624868
205	0xc007c9732ec7116d	-2.9733642248631242
206	0x3ff47c4cfe6c52ea	1.2803468645481026
207	0xbfe9d3e4623138b7	-0.8071157377069288
208	0xbff097cbf6aa350e	-1.0370597491594853
209	0x3ff5cc1cbf6d9eb1	1.3623321035064857
210	0xbfe0bbd3cc45c930	-0.5229281415652505
211	0xbfee0cc6bbb4d993	-0.9390596071378233
212	0x3fdd598113ce8c20	0.45858790334949795
213	0x3fe480fbb63794cf	0.6407450255325332
214	0x3fe0e8be4ed00b7b	0.5284110583601057
215	0x3fda7c44d6c1e02b	0.4138347718467254
216	0x3fda0e069d286d28	0.4071060690636892
217	0x3fe4c54fefd26347	0.6490859684009614
218	0x3fd5835eed163520	0.3361432376194262
219	0xbfff058b048f8ad7	-1.9388532808449577
220	0xbfef6146f546ae11	-0.9806246557759001
221	0xbff0ed00c21b1d0f	-1.0578620512258714
222	0x3fc9e634cf1d9bdb	0.20233783829755123
223	0xbfc1fc44249bd465	-0.1405110529664483
224	0xbff48beade4cc7a8	-1.28415953479678
225	0x3fe5a082eb5c59c9	0.6758436772241164
226	0xbfd030c1a240508f	-0.25297585339399914
227	0x3ff25fa62a536b62	1.148351826987629
228	0x3ffd85d3ca984596	1.8451726831302486
229	0xbffb644e711d2a83	-1.7119888704789055
230	0xbfe2ce970a466118	-0.5877185059244168
231	0xbfe78b45c2b5484d	-0.7357510378735782
232	0xbff608cb1fa6bf52	-1.377146838796723
233	0x3ff2577579a3b59d	1.1463522674124313
234	0x3fe88a7782a29513	0.7669026900736376
235	0xbfc20e88c5ba3392	-0.14106855063110096
236	0x3fe9301fd535ea62	0.7871245540876084
237	0xbff1f20587cbd1c0	-1.121587305501734
238	0x3fedb80a4c604d1c	0.9287158481332969
239	0xbfc371de4d229f21	-0.15191248670930071
240	0xbfcf58d3f00fe8dc	-0.24489831182274358
241	0x3fa4af2451289700	0.0403987263746739
242	0x3fcd785c38b39e3c	0.2302356030333942
243	0xbfd4a9b882e087e4	-0.32285893231357776
244	0xbfe475bc8cc8e726	-0.6393721341803242
245	0x3fd6c4d4df4942fc	0.35576364331522803
246	0xbfc2f4d6d0340e2e	-0.14809689680269983
247	0xbfe544bb126ab8c7	-0.6646399841026999
248	0x3fdec180c977ec5d	0.4805604903664909
249	0xbfc58e2ac4351260	-0.16840109425006045
250	0x3fb6155c97a70486	0.08626345350696071
251	0xbfec9d5a0b9f80a0	-0.8942079760563679
252	0xbfd7349fa5fde974	-0.36258689127102817
253	0xbfdc995e7bb453be	-0.44686090546138846
254	0xbfea3ee1621a7007	-0.8201758304671792
255	0xbfc62fc451b8835a	-0.17333272924681858

lstm.bias_hh_l0 f8 [256]
0	0x3ff6f6df5104afba	1.4352715649392693
1	0xbfe450dc46998351	-0.6348706606769189
2	0x3ffa3966c5f26d3e	1.6390140278152354
3	0xbff6d7bee9d508e7	-1.4276723035878207
4	0xbf84126396763754	-0.009800699261883906
5	0xbfe53c824c5dbe76	-0.663636349823675
6	0x3ff12c4c2fd2ba75	1.073314844903192
7	0xbff7e2bbe4dae91b	-1.492854970898924
8	0x3ff8dc875bd59982	1.5538400256424159
9	0x3fdc37509bbd01cd	0.4408761521226808
10	0x3fb0466b4c0d1d2f	0.063574510638422
11	0xbfb65e255e9d2546	-0.08737405357273528
12	0xbfede0689c54b80f	-0.9336436322535081
13	0xbfed5a77d75fe60b	-0.9172934729132874
14	0xbffacca50fc35c9e	-1.6749621024844497
15	0xbfeaa80fbd2f9529	-0.8330153174435156
16	0x3ffabd7488ec3ee9	1.6712537144230117
17	0x3ff018b0cac67792	1.0060279770764038
18	0xbfd4ccdb039a9e41	-0.3250033889002886
19	0x3fe5470a730ff19b	0.6649219748792804
20	0xc00c08b774b8ced9	-3.5042561644457746
21	0x3ff06bb6a5744ab2	1.0262972319657533
22	0xbf9b143ed64532df	-0.02644441778947992
23	0xbfab27cc6f87906d	-0.05303801404423401
24	0x3ffa015506f4d761	1.6253252288565465
25	0x3fedea41d2b88bf4	0.9348458400385184
26	0x3fdba5432439b1ef	0.43196180856355587
27	0x4000c742ee579ec3	2.09729562954803
28	0xbfed7d96463e93ca	-0.9215804454767007
29	0xbfbba7a5eadd1861	-0.108026857223281
30	0xbfd23d683135eb26	-0.28499798589443726
31	0xbfbf27ddf42e67cb	-0.12170207225281542
32	0xbffa292d35a2cb2e	-1.6350528807785838
33	0x3ff23286f1751db6	1.1373357231076233
34	0xbfe8c354df43ddd5	-0.7738441811224513
35	0x3fe5ba201b084e75	0.6789703872659191
36	0xbfc118c8130890d4	-0.1335687725960556
37	0x3ff876f023274c84	1.529037606542972
38	0x3fe9bb0a0a28506a	0.8040819357288573
39	0x3fc121415216e303	0.13382736690780214
40	0xbff680c4d96b860d	-1.4064377301186852
41	0xbff87149463c7de4	-1.5276577705006895
42	0x3fd9f94a5b3b59e8	0.4058404818473762
43	0xbfec86d8b61a8792	-0.8914607578956171
44	0x3fc217740fbbb749	0.14134073990083554
45	0x3feadc032895e68a	0.8393569748579506
46	0x3ffabbd1ee889e9d	1.6708545034142965
47	0xbff8dbee27a26c5c	-1.5536939190121961
48	0xc00328bd5c249e24	-2.394892425410733
49	0xbfdd3789eec92b49	-0.45651481932570853
50	0x3ff0748c3126809d	1.028454010003805
51	0xbff0995e50b0ee26	-1.0374434616086403
52	0xc001d8317ecd4793	-2.2305631548305853
53	0x3fd36c14cb80903c	0.30347175477277566
54	0xbfeaaa5646a945f7	-0.8332930927373913
55	0xbfea5084987006e4	-0.8223288514420486
56	0x3fef20d58d9b4577	0.972758080077411
57	0x4007d5c2909c5999	2.979375009318755
58	0xbfc7c3e22198f30d	-0.18566538467884933
59	0xbfff91bf6358c7f5	-1.973082912515108
60	0x3ff1d1aab26214e7	1.113688179787738
61	0xbfbdd38ba27030d3	-0.11650917735841242
62	0xbf86b74a670ed613	-0.01109178664215008
63	0x3ff665861d863601	1.3997861054698435
64	0xbfb2ce8c03ddef52	-0.07346415609748405
65	0x3fe7b671274605ad	0.7410207526265161
66	0xbfc383bf6e020bb0	-0.15245812293514183
67	0xbfc2b4cc80909c5a	-0.14614254262525855
68	0x3ffd5c8fb86773e6	1.8350979998860963
69	0x3feb4cb0c73b9265	0.8531116381896707
70	0xbfef2b06f6b3c805	-0.9740023439792372
71	0x3ff0810c77b917c6	1.031506030719798
72	0x3fd831f1bf43bd9e	0.37804835966286443
73	0x3fd7dac253fa0c66	0.3727269954762903
74	0x3ff19bf8824479b6	1.1005787933896563
75	0x3fe2b03596e5501b	0.5840099284346282
76	0x3ff352bd8503d041	1.207700271214904
77	0xbfe9e6a605c8ed08	-0.8094053376184158
78	0x3ff2cbde703e3fd6	1.174772680711603
79	0x3faa4013d72b8f24	0.051270122543227964
80	0xbfe0a1b97be9c11b	-0.5197417659929074
81	0x3fe1391041fc1005	0.5382157601129626
82	0xbfb45d71c0d4286a	-0.07955084760411216
83	0xbfe7c0200d0ff54a	-0.7422027831195603
84	0xbfb31b6eb4e46183	-0.07463733593283987
85	0x3fe5f0fd0d5cd472	0.6856675396908385
86	0x3ff8e3ca4871ae94	1.5556128339621056
87	0x4003018ccb4c5902	2.375756824748465
88	0xbfd98b55d592eabd	-0.39912935120416276
89	0xbff309e944908b73	-1.1899197271638655
90	0x3fdea4303b09c3e1	0.4787712647003542
91	0xbfe7d94e9c8508b8	-0.7452767426514333
92	0x3fe4706b83cc8bda	0.6387231420707125
93	0x3fbb6e768959fab3	0.10715428212459237
94	0x3ff5ddf4743a93f8	1.3666882076442999
95	0xbfd1e14818f0183a	-0.2793750995191463
96	0x3fd2753e4ea5430b	0.28840596847753436
97	0x3fdd7fcd2553e4fc	0.4609253754166074
98	0x3f92c20ea202611a	0.018318394315970023
99	0x3ff01c3571fe160d	1.0068869068940132
100	0x3fee5a0b78503953	0.948491797434864
101	0xbff85be4ee8ce426	-1.5224351232884685
102	0x3fd6077ae4fd4ee6	0.34420654642347726
103	0xbfd8a042ca962aef	-0.3847815492996877
104	0x3fe56d8ff60c5af0	0.6696243100767258
105	0xbfe86cd2fb0c4d8d	-0.7632841971666707
106	0x3fc5af7c006bea6f	0.16941785832007691
107	0x3febb41ce321d4d4	0.8657364307570341
108	0x3fdf3be736828503	0.48803119967676895
109	0xbfec8afd730d007e	-0.891966557224819
110	0x3fff69e420101f1b	1.963352322813029
111	0x3fe1b9c0b60fad79	0.5539248996623619
112	0x3fd9380e0a11c5c1	0.39404631598798906
113	0x3ff220bdbbeb15f5	1.1329934444960348
114	0xbfc64bbd6733bc14	-0.17418639697231753
115	0x3fb1fe4a21a14646	0.07028640099567793
116	0x3f97a7b5f8aa340d	0.023100703527735123
117	0xbfdc11570d7de29b	-0.4385583526377929
118	0x3feced97d105b474	0.9040030558077334
119	0x3f45ad6b729dc6cd	0.000661542381960889
120	0x3fc566b7a8b8b792	0.16719718683583246
121	0x3fdfc2f8739e88c4	0.4962750557989575
122	0xbfd29287b366efee	-0.290193486401903
123	0x3ff1818d6f4d0c6d	1.0941290233320402
124	0xbfd5aee658e0e07f	-0.33880003623517746
125	0x3fd0305f10042a84	0.25295235218133194
126	0xbfea40d957591601	-0.8204161363616437
127	0xbfe9e8d30495d1c1	-0.8096709336810407
128	0xbfd48c623a309ad5	-0.32106834108928456
129	0x3fba825ad22a0883	0.10355155592881897
130	0x3fecbc8f569f14a3	0.8980175678085697
131	0xbfe042a9e5d50ee4	-0.5081376542006777
132	0xbfe7c7da7a758fcd	-0.7431461707860706
133	0x3ff09407deec3309	1.036140318671814
134	0x3fcebaf2788940e2	0.24008017430833833
135	0xbffd2b7fb1bc0edd	-1.8231198256261714
136	0x3fe7955c514fef81	0.7369824970369195
137	0x3ff3044d51712abe	1.1885502988176735
138	0xbff9edd194c12c5a	-1.6205612002111338
139	0x3fe9fb63ddcf7ad9	0.8119372684703549
140	0xbfe5c4cb8b481bba	-0.680272838625448
141	0xbfd61d17ed65abb1	-0.34552572425189526
142	0xbff0bb74a7eb70e0	-1.0457655486452992
143	0xbfd640530a04fe60	-0.347676048073458
144	0x3fe05820aaf69ab3	0.5107577647330203
145	0x3fe753715ccb3d49	0.7289358913784919
146	0xbfee0ae745d13276	-0.9388309825531695
147	0xbff20e56fb6e660a	-1.1285009213955868
148	0x3fe00da1d941be50	0.5016640895173143
149	0xbff8421f0911a0b6	-1.5161428789379392
150	0x3ff1f13e79478122	1.1213974702332696
151	0xbff029229f62acd5	-1.0100427843088273
152	0xbfe00edd0113b19e	-0.5018143673928994
153	0xbfc6f64a621ca6a0	-0.17939119139309856
154	0xbfe502680c50a095	-0.6565437546278355
155	0xbffe0cd1ca147dd1	-1.8781297582389593
156	0xbf88d041342fd296	-0.012115964322199784
157	0xc0020785878e45eb	-2.2536726560872373
158	0x3febbb167befdb5f	0.8665878697055226
159	0x3ff13eb21e883188	1.0778065865189053
160	0xbfdc179f35bfe977	-0.4389417672060953
161	0x3ffdcb54cd957838	1.8621414213771583
162	0xbfe4047deab4c102	-0.6255483230688983
163	0xbfee3b9439c675d3	-0.9447728279516759
164	0x3ff13b1a82efc8bd	1.0769295801842838
165	0x4001182cc7e1adeb	2.1368041625735166
166	0xbfea20eb9c2c479e	-0.8165185976269986
167	0xbfa60917da6daba5	-0.04303812543260869
168	0xbfdbb93ef4e45ebe	-0.43318151393166804
169	0xbff08a549f3d867a	-1.0337721081090465
170	0x3ff1d79454342181	1.1151316918568173
171	0xbff6430d0fa0937d	-1.391369877857158
172	0x3fdf28118ef34327	0.48682059249863346
173	0xbff788d0a3190e81	-1.4709020968447535
174	0xbfe6192c5a74c1ec	-0.690572907135047
175	0x3ff086aff73bf68b	1.0328826577746522
176	0xbff1e43065d8c6ba	-1.1182102182760176
177	0xbfd8bb08f18e8451	-0.3864157065345966
178	0xbfef21c14b7d5162	-0.9728704904942271
179	0x3fda6724f9d0327c	0.41254543681933575
180	0xbfb13c11c4a66c2e	-0.06732283640887779
181	0x3fdaccb84fe74c3f	0.4187451153094947
182	0x3feea51a81dd85dd	0.9576542412216288
183	0xbfe936f88bbc3880	-0.787960312767396
184	0x3fec6752e6d46705	0.887612772788288
185	0xbf7c09fc76181eed	-0.0068454610604999746
186	0xc000330435ad33fc	-2.0249103730661755
187	0x3fe4622506bb7f87	0.636980546139953
188	0x3ffec629195bcce2	1.9233790388651006
189	0xbfdeb8755a5ae44d	-0.48000844787344904
190	0xbff210734c692cd7	-1.1290162071989494
191	0x3ff2a38b5fec24e2	1.1649278399439074
192	0xbfecd3ca34fa7c6c	-0.9008532557235305
193	0xbff415414c74a7bc	-1.2551892267751859
194	0xbff044a1aaa8fcbd	-1.0167557398233804
195	0x3fc61d3385f6a55c	0.17276615182098964
196	0xbfd60c0499989b4c	-0.34448351859685
197	0xbfc18cac6cd7a739	-0.13710551561899267
198	0x3ff4211be2747311	1.2580832334417134
199	0xbfe5682f7109e6d3	-0.6689679343973814
200	0x3ff8c61af9919f98	1.5483655689986104
201	0x3fe164b712f190dc	0.5435443277351868
202	0xbfe9213147fc8df5	-0.7853018194186335
203	0xbfdee431669b9cfb	-0.48267779369639613
204	0x3fef27cee0e1f6e9	0.9736093895187113
205	0xc0078f2c86c7116d	-2.944909146261287
206	0x3ff545ac966c52e9	1.3295102954772864
207	0xbfea0f612a3138b8	-0.8143773864810759
208	0xbfedfbe135546a1f	-0.9369970361324852
209	0x3ff2f618e36d9eae	1.1850823291696702
210	0xbfde148a288b926e	-0.47000364264957895
211	0xbff0175fadda6cbb	-1.0057064810887784
212	0x3fe4c75289e7460d	0.6493313496995953
213	0x3fea6e4c163794d2	0.8259640153816241
214	0x3fe31ade16d00b7b	0.5970297284660399
215	0x3fe1ac95eb60f015	0.5523175809134978
216	0x3fdb00a51d286d2e	0.4219143662209771
217	0x3fea46feafd26348	0.8211663660068576
218	0x3fd7a7991d163520	0.3696043762254977
219	0xbfff51de008f8ad7	-1.9574871084120582
220	0xbff215675ea35706	-1.1302255341337868
221	0xbff04066321b1d09	-1.0157224614393405
222	0x3fc8e1dccf1d9bde	0.19439277756757084
223	0xbfc1e566249bd464	-0.139813201785418
224	0xbff4c46d964cc7a7	-1.2979560729113275
225	0x3fe3db47335c59c9	0.620517349542575
226	0xbfccf3862480a125	-0.2261817625269568
227	0x3ff0bca1aa536b5f	1.0460526135782044
228	0x3ffbe2cf0a984597	1.742873231302246
229	0xbffbc0952d1d2a83	-1.73451726553563
230	0xbfe1f3b71a46611d	-0.5610003960783022
231	0xbfea8c3d0ab5484a	-0.8296189507621048
232	0xbff74a7b57a6bf50	-1.4556840347176667
233	0x3ff5d4a1b1a3b59b	1.3644120158236095
234	0x3fe293f9b2a29516	0.5805634011236716
235	0xbfba82298b746717	-0.10354861883788789
236	0x3fe6179c3d35ea66	0.6903821177978215
237	0xbff20cd29bcbd1c0	-1.1281305394924033
238	0x3fefcfdf6c604d1c	0.9941250912401389
239	0xbfd0255ca6914f92	-0.2522803904187124
240	0xbfc92a25500fe8e3	-0.19659868630680596
241	0xbfc211854bb5da45	-0.14115968891901978
242	0x3fd2fb321c59cf13	0.29658177155146
243	0xbfdb8991a2e087e9	-0.43027153879131547
244	0xbfe91c78c4c8e725	-0.7847255557491947
245	0x3fd9bf515f4942fb	0.4023021154908261
246	0xbfc6728a30340e33	-0.17537047723463814
247	0xbfe89b05426ab8c6	-0.768923406334374
248	0x3fd4df5e8977ec52	0.32613337921765606
249	0xbfc0bc8d0435126c	-0.13075411515650914
250	0xbf4f70d42c7dbafa	-0.0009594951634264986
251	0xbff0788309cfc04a	-1.0294218428862387
252	0xbfd04ba095fde977	-0.25461592338219624
253	0xbfda13747bb453c0	-0.4074374397326288
254	0xbfe4d5b6f21a7007	-0.651088211877778
255	0xbfcadc8951b88354	-0.20985523691435992
