AIModels/with_0.1_0.1_1_scheduler/model_9273_70epoches.pth (torch, 388003 bytes, 10 tensors)

lstm.weight_ih_l0 f8 [256, 28]
00000000: bbba 2fd7 b260 d63f a3d6 3c50 6235 d93f
00000010: f87a eedc 1be7 dc3f 6937 01e6 e9ec dd3f
00000020: 9ede b972 fbb1 de3f 9580 54a3 21b7 e03f
00000030: 0c1c e50a 4bc6 e23f 6148 72eb 70e6 e23f
00000040: 77fc d607 8d73 de3f 6466 3a84 8326 e33f
00000050: a08a 302e 1552 e63f a016 36c8 d26f e83f
00000060: 047b c655 f882 ef3f 6eb6 ab34 dd6e ea3f
00000070: c8a2 e0a0 6c84 ed3f 4b95 51f4 6b16 f03f
00000080: 41d0 0c4a af11 ec3f 7768 05bf 3873 e83f
00000090: 43e8 f246 013b f03f 9ab5 1267 d300 e63f
000000a0: ca06 a2db deab e83f 4567 b02c 519f e33f
000000b0: 867c 2af2 7ac1 d83f e634 fee8 4b68 d63f
000000c0: 9bde ad4f 88c7 ce3f b328 b273 463a 8d3f
000000d0: b54d 7355 5345 6b3f 03ac 256f aed2 4bbf
000000e0: 6bdb 72a2 71a3 fbbf 27be 1fd7 4b70 f9bf
000000f0: 1d83 eafa 678c f8bf 611c e87b 0bc9 f4bf
00000100: b185 0704 768c f2bf cd59 a8b5 9598 ebbf
00000110: 50e0 93ee 15eb e5bf f03d 7b1c 6508 e7bf
00000120: eb37 a501 f310 e9bf d83c 0ca4 22fd e4bf
00000130: 382f c46f 194e eabf 075f a819 958f debf
00000140: ec62 e55f dc79 c7bf 8560 fdd7 e2b0 cfbf
00000150: 5b21 a3f3 6aac c5bf 2098 68a3 24d2 9a3f
00000160: ae9a d3c4 19bc a73f 5efb 3614 d556 b23f
00000170: 3979 b7ac a089 a53f 0b6d c75c 8768 d03f
00000180: 0709 0401 3897 c53f 7588 5bfb 25ed b13f
00000190: 4285 132a 0804 e13f 63d8 f13c f679 bd3f
000001a0: 64b2 d84f 446c d63f c552 693a 8386 a7bf
000001b0: 9643 d62f d2bf c73f eed4 f452 a8b0 d93f
000001c0: 56e4 5620 5c3e ecbf ce28 96da 4230 e6bf
000001d0: af04 895a 8337 e7bf 35eb 2731 fd1d e3bf
000001e0: 9596 e50d 0ec6 e6bf 7c45 2c30 77e8 e0bf
000001f0: 7348 6712 232e e8bf ac15 25a7 9c58 e5bf
00000200: cc02 7acc 00b9 dcbf d278 f990 60c6 e7bf
00000210: 4f85 eaa6 02cf ebbf 44a3 03bd f3ee efbf
00000220: 80bb 21c8 a896 f1bf b4ec 2ece c0a1 f0bf
00000230: f9cd 37b0 07c2 f4bf 5da2 4163 732e f4bf
00000240: 493f 08d9 a84e f3bf e5eb 0ffa 6bdf f2bf
00000250: d9c3 696e 5f5c f5bf 3b57 b358 e096 f3bf
00000260: 39f7 c364 2e32 f7bf 7227 8ab8 430b f0bf
00000270: 3f26 52b5 a3a2 e9bf e8cc 9116 ef39 e1bf
00000280: 7c46 fe8e 5176 e3bf 3ac3 3f0e b64c d2bf
00000290: 2cad f0af 7931 73bf 8ef0 58b7 fe04 b73f
000002a0: f050 cf3d b6aa d1bf 46ad b821 39bf ddbf
000002b0: 4523 b24c 871b c53f 7731 cc4e 42ee c53f
000002c0: f341 b219 0a70 c33f f853 4482 8ceb e4bf
000002d0: d899 3da4 bea1 f7bf ee62 bb64 1a73 e9bf
000002e0: 2393 0c97 a47d ddbf 67bd 4185 8d43 d3bf
000002f0: d756 b79e dbff ecbf 986e b097 777b cfbf
00000300: b0c8 7705 fe12 f2bf 2563 c820 a946 fbbf
00000310: 77a9 4d74 4552 f6bf 1cb3 ea20 10cb f6bf
00000320: a5bc 27d4 d952 ebbf cc22 807c 9f43 edbf
00000330: 8b1e 4729 1f05 e9bf 20b3 b0b5 ce9c d7bf
00000340: d439 20e7 3a5e e4bf b34a 3cfd 0738 d9bf
00000350: 0f7d ba89 b9fb f3bf 91f6 dad6 d754 e6bf
00000360: 525e 6366 4255 f3bf c1a4 896d d924 fdbf
00000370: 7dee b2ac 6437 01c0 064c 74cf 368b 05c0
00000380: cf3c 0183 5321 0c40 d333 56fa ea67 0740
00000390: 7001 c9fb 360d 0240 9d60 0d5f 2afb f13f
000003a0: 1647 c6dc 3af8 d0bf 0935 279a 409d c23f
000003b0: 214a b561 93f0 dc3f 60aa 7592 15a1 de3f
000003c0: 1b6e 772f 10d7 d1bf 4f38 db7b 8da5 da3f
000003d0: 674e 6fc5 67d3 e33f aec8 1263 2aeb f93f
000003e0: 87b4 e67f f1e3 f83f 677d a2e2 a1ea f73f
000003f0: 74ea 3e8f 98bb f33f f8ef 5984 313a ec3f
00000400: d978 6c61 59ae ea3f e2ef 0dac 63ad f03f
00000410: 3fa7 a7ad dea7 fa3f 7267 e57c dbd1 e23f
00000420: 29a6 ee6e 7c3c ec3f ba5f 9916 1734 d53f
00000430: e8db c918 e135 e63f d55a b5e0 55d8 e53f
00000440: bbad 6439 ae90 f13f 3797 1b8b 09ec fc3f
00000450: 2388 f38f 76a9 fb3f a48e 1091 f91a 0240
00000460: 9f07 20d9 bd7c d63f e501 e353 1268 c73f
00000470: 14b1 3f5b dd3d a73f 5866 10c8 83ad c53f
00000480: 726b 1c91 85cc c63f 2687 c973 aa6d da3f
00000490: 93e6 c489 1cc5 cc3f 3c46 f6a3 a440 d63f
000004a0: bf9d c3f2 9e56 e23f effc 8dad dcf9 da3f
000004b0: 764f 8997 c06e ec3f 48fa 0649 e830 e13f
000004c0: 7833 8748 9b04 f23f adee 02ab 52a9 e63f
000004d0: 985f d1d1 481b ef3f 8ddc a13d 69e8 ea3f
000004e0: 4d2a eb94 ec54 ea3f 3e8d 4dea 629e ee3f
000004f0: f61a cd37 9e81 f03f 5b3c bb00 c751 ec3f
00000500: a3c0 3985 f238 ee3f 876c 2811 3501 ea3f
00000510: 6934 2293 0e51 e93f 6dab 578a 1582 ea3f
00000520: 4b83 5ad9 d4cf f13f 5476 f9e9 e3ba f43f
00000530: 3fed 564d 6c37 f23f 0418 0c48 9147 f03f
00000540: 5232 f8ce 4c35 f4bf d99d ac8f eb69 f6bf
00000550: 8c19 7813 070b f5bf 3ce0 1ec8 2ca1 f0bf
00000560: 980f b92e 7525 eebf f852 09bf dafb ecbf
00000570: 91dc 6ccd 7403 f2bf efb7 1706 28e9 f2bf
00000580: 962e 5ac1 d541 ecbf 83a2 7749 bc62 e2bf
00000590: e087 476b 8385 e1bf f56e bb90 6698 d3bf
000005a0: 0234 c5b2 d9ad cfbf b86e e4b4 5421 593f
000005b0: 7c4c 8aa5 11e1 d0bf de41 0d00 d787 cebf
000005c0: 2334 7f6d e643 d5bf bdcb 2c1b bd21 d5bf
000005d0: bb1d 06f1 6e01 adbf fca3 a257 b24c dabf
000005e0: 2e9d d9ef 9020 d1bf e684 9a0d 239f e3bf
000005f0: b4d7 7ac8 f4ad c8bf ea42 f143 215c c9bf
00000600: 00c3 0747 7d77 a4bf 71b6 408a fb2a bc3f
00000610: 18c5 e152 36d6 e13f b684 cc16 b531 da3f
00000620: 0d19 4bc1 a322 dfbf 43fb 93fd 13d0 e8bf
00000630: c964 3eb6 3e82 e0bf 0634 5a74 d656 e5bf
00000640: 2eb3 ea29 31a5 dbbf 50d8 18b3 a534 d6bf
00000650: 5775 bc47 576b d7bf 8995 1312 5dc8 e5bf
00000660: 6c87 4fcc 0d4f debf 4a95 809b 0def d8bf
00000670: 03e8 434a 910f ddbf 53f8 592e bd8e debf
00000680: 1e64 a971 b2b1 d6bf 9b5b 265e f0cf d7bf
00000690: c6d5 2fc3 8b1f bfbf 02f5 8544 a5e3 d6bf
000006a0: e02a aabe 535e e1bf 9e2c bccc 7751 dfbf
000006b0: 7c64 1c79 d2d3 cbbf 6fae 784a 23ce dabf
000006c0: 73b1 ab8d fc44 cbbf 7495 7278 61ff e0bf
000006d0: 99bb bde6 6e18 e1bf 0c4b abb9 eb18 e1bf
000006e0: 6ab0 8421 1c89 c8bf 8fa3 53e3 7fbe cabf
000006f0: d594 d5cc 4131 cbbf 67dd e32b ed71 cdbf
00000700: 30d6 8c13 bc58 f63f 4c9e f1d8 10c6 f53f
00000710: 2c78 d2b2 2e78 f13f 19a9 1560 5146 f23f
00000720: 59c1 f1e9 44bf f03f 82fe 19d4 2233 f23f
00000730: eef7 ce92 f9af f13f 760d c315 2835 f43f
00000740: 9292 9c41 83c2 f03f 40db 3653 73f1 eb3f
00000750: 6e7d 3422 d002 e43f 78cc a669 6127 e53f
00000760: 7f02 ee1d 14c2 df3f a6c0 0a06 b4b6 cd3f
00000770: b725 d86a dd9c e13f 557f d31b 5482 de3f
00000780: 08e6 a449 5834 e13f 49d5 d68d fce7 dc3f
00000790: 6979 6d47 97fe b13f 424d ba8d 78e2 bd3f
000007a0: 7357 80ad 1c6a c6bf 7634 0620 6b28 c6bf
000007b0: 048d e4a0 e946 d0bf 7a0c 3724 cdcd bbbf
000007c0: 6139 6392 868b c83f ce2e 12e5 d8c2 b83f
000007d0: 8089 d14c b875 c53f d3e5 226b 0ce2 e73f
000007e0: ccfe 0fc0 3c80 c9bf 85e9 35b4 ae54 e93e
000007f0: 27e5 2837 4b38 b63f 011c 1fa9 c827 d4bf
0.3496520139150722 0.3938833030291368 0.4516057641539386 0.46758506261254823 0.47961317256656766 0.522354907039715 0.5867057049553082 0.5906300161898451
0.47580266728977655 0.5984513838368 0.697519865240185 0.7636503134132973 0.984737556009208 0.8260332134938844 0.9224150793207508 1.0054740470598797
0.877158779744157 0.7640651446229317 1.0144055148544033 0.6876008046289599 0.7709802903848069 0.6131978867372047 0.38680909775752814 0.3501157546350683
0.24046424761376248 0.014271307378539743 0.003328955422696923 -0.0008490897874201545 -1.727403292241173 -1.589916076973063 -1.5342788506897655 -1.2990832176308447
-1.15929223607996 -0.8623760746002574 -0.6849469814033089 -0.7197747761037459 -0.7833189994942108 -0.6559003070887242 -0.8220336134849964 -0.47751357560763136
-0.18340639765189992 -0.24758563562750538 -0.16932427307461748 0.026192257379214934 0.04635696914356423 0.07163745635533078 0.042065640529232735 0.25637992916536295
0.16867733049009123 0.07002484690340956 0.5317421743203925 0.11514224040897285 0.3503580837012008 -0.045948124771404454 0.18554141364850513 0.4014073190804329
-0.8826122886304215 -0.6933912534016373 -0.7255265014902273 -0.597410770423585 -0.7116766234800759 -0.5283771458509103 -0.7556319579546326 -0.667066885428246
-0.4487916943399284 -0.7429659682782364 -0.8690198192672741 -0.9979189578708447 -1.0992820565840873 -1.0394905141863946 -1.297370613433371 -1.26134051105523
-1.2067039945431637 -1.1795463340811179 -1.3350519478810752 -1.2243350472321726 -1.449751275649261 -1.0027501305180206 -0.8011034528182747 -0.5383220139323415
-0.6081931870305222 -0.28593207732687953 -0.0046858552368960575 0.0899199674249209 -0.27604442630878534 -0.4647963361082542 0.1649026035777529 0.17133358809986607
0.1518566728086764 -0.6537535232806695 -1.476988450589138 -0.795300671331544 -0.4607936358536781 -0.30099809659346594 -0.9062326526570484 -0.24595541865061388
-1.1296367848959044 -1.704751136834781 -1.395085768041637 -1.4245759282886814 -0.8538636344582257 -0.9145047599459644 -0.7818752104003165 -0.3689457678145107
-0.6365026964356795 -0.39404487352400536 -1.248956239702071 -0.6978568264382422 -1.2083152770554944 -1.8214964178862803 -2.1520474903207387 -2.6929756362310426
3.5162725672485986 2.9257411534840485 2.256452529021935 1.1238197052935341 -0.2651507526398843 0.14542396094331192 0.45218357602894527 0.4785818033475717
-0.2787514174976608 0.41635453315109755 0.6195563179157489 1.6199134702733704 1.555650233854324 1.4947832920950874 1.2332997890031523 0.8821036896692922
0.8337828543478977 1.0423313828350662 1.6659838469881405 0.5881173552872794 0.8823835531849841 0.3313043327993871 0.6940770610952969 0.6826581372104906
1.0978224031376687 1.8076262887856964 1.7288728354547025 2.2631713231256345 0.3513636226999725 0.18286351295502282 0.045393865002411854 0.16935775059464464
0.17811650834559206 0.41294347102494766 0.22476536490448903 0.3476955033484932 0.5730738393294174 0.42150036762900717 0.8885195693678571 0.5372201372445682
1.1261246522073787 0.7081693019931287 0.9720806215291189 0.840870495200663 0.8228667172018703 0.9568342758397319 1.0316450290426338 0.8849825872693019
0.9444515802442947 0.8126473746409751 0.7911446450904239 0.8283794118882334 1.1132400980352084 1.2956275119426168 1.1385310193134754 1.0174725355477685
-1.2630127033945837 -1.4008594143177702 -1.3151922951234125 -1.0393493478022853 -0.942072478538182 -0.9057439547710535 -1.125843813364359 -1.1819229352945475
-0.8830364967738713 -0.5745526728542959 -0.5475480170537104 -0.30617679723739794 -0.2474929926778771 0.0015338256085390255 -0.2637371174434475 -0.2385205030682433
-0.3322692937188682 -0.3301842465763761 -0.05665156070886775 -0.410931191998827 -0.267612680653161 -0.6131758943266987 -0.19280872143798222 -0.19812408273221332
-0.03997413150853468 0.11003086209594827 0.5573989504611374 0.40928389765219764 -0.48648923755935486 -0.7754001572319357 -0.5158990439841996 -0.6668503067500076
-0.4319575223296849 -0.3469633339876781 -0.36592657094464215 -0.6807084420258188 -0.47357506706440833 -0.3895906466080602 -0.4540751672026319 -0.47746209646709764
-0.3545957670190222 -0.3720665854866014 -0.12157510295204252 -0.3576443833515698 -0.5427645419998406 -0.48934741014154237 -0.21740179933184212 -0.4188316561946754
-0.21304280202401635 -0.5311744072429705 -0.5342325693762745 -0.534292090067852 -0.191684261671415 -0.20893858528077344 -0.21244070531535067 -0.23003925936766764
1.3966637386014433 1.3608559107177767 1.091841410182961 1.1421674493126999 1.0466965807391573 1.137484386941566 1.1054626211839564 1.2629776811671412
1.047488457007749 0.8732239365843739 0.625343386465756 0.6610571921832067 0.4962206165583111 0.2321381597043956 0.5503985487750275 0.47670462338827707
0.5376397550928127 0.45165933467372504 0.07029099935377804 0.11673692188405929 -0.17511328193421213 -0.17310847343142982 -0.2543281623095057 -0.10860902914196116
0.1917579855712104 0.09672313301615107 0.16765502692130596 0.746343812227844 -0.1992259919934355 1.2078662286131546e-05 0.08679647537873746 -0.3149282123162607

lstm.weight_hh_l0 f8 [256, 64]
00000000: 8bcf 9fa9 6271 d0bf 0eff c2b3 2e0f c43f
00000010: a012 40b3 c613 00c0 723f 082a 28e3 92bf
00000020: ab1c 12db a298 fb3f 9a02 52a0 2d03 d33f
00000030: b3e0 4cba ff07 f6bf daf0 c74b f240 cabf
00000040: 6098 4216 2354 fabf 03d6 6cc7 8b38 bcbf
00000050: 75e6 ecda 8605 f23f 80a3 e079 050a 9d3f
00000060: a685 c56e 6b0f e93f a1bf 4070 d0f0 05c0
00000070: 567a 2ce6 0c1d f43f e1d9 a5b6 8149 ed3f
00000080: bf2a 09e1 be2b 9c3f 74ad 0e28 4f30 f1bf
00000090: 5d52 97a5 174e f1bf 03e8 4ff7 3cb7 fd3f
000000a0: 1840 8be6 7c79 eb3f b458 890e 85b3 e83f
000000b0: 6cc7 6458 5eb3 f5bf bf19 f2e2 4959 f63f
000000c0: ccc4 edea 67f9 e43f 5d84 fbe5 f62c d23f
000000d0: 90a8 c84f 2bd5 0640 041e 8cdf b81e d43f
000000e0: 43f3 d692 0de2 f0bf f61b 70a6 45f7 0540
000000f0: a1bd 0e90 baf8 b53f a727 8ebf 2c9d fcbf
00000100: 90dc a65d c279 f93f 94ef 67fc 1344 d0bf
00000110: 504f 383f eada cbbf 8fb7 9c45 81b2 cc3f
00000120: b31e 49ac b52b f5bf f98b 43af 4292 f0bf
00000130: 2455 0fa5 0f91 f0bf f92c 6b94 4af2 e3bf
00000140: c0a6 04ae f53b 01c0 4d7a 21ba d09a ac3f
00000150: 5e4c 715c 0615 f53f 91ab ab85 fa7d e33f
00000160: 7f73 48d4 7bec f33f 99da a6f5 69f8 e9bf
00000170: 77b6 761f 1905 0040 0d05 d808 2ae7 f4bf
00000180: 6b29 7fb4 7451 04c0 3847 16f1 8d43 f83f
00000190: 755d 920a ad41 0fc0 f103 31cd 37e6 eb3f
000001a0: c4d1 afdc b173 00c0 b876 6664 25af fc3f
000001b0: 2811 dc16 963e f9bf dce9 49b4 3a24 05c0
000001c0: 92cf 9e37 9410 d63f 5713 bd58 63a6 fabf
000001d0: 7a93 ede2 8ad1 0ec0 9f77 7c32 1540 fb3f
000001e0: 8a63 68ea 30ab f73f d85a 4990 3f8f ffbf
000001f0: b6fe 8f80 b6f4 febf 557a cdee 7316 08c0
00000200: b377 fe1e 2651 ed3f 1d13 a811 fecc e3bf
00000210: eb19 1016 a876 f9bf 5c53 61d9 2b49 00c0
00000220: eb36 64d1 bd8f b0bf 495e 545d def8 d43f
00000230: fb2e 112e c3b7 bf3f 25f2 455c b5d1 04c0
00000240: 65cf 573c cdd0 ddbf 709f 72ae af9b 03c0
00000250: 7105 994e 2454 a83f e574 6804 76f8 e4bf
00000260: cb51 f04f 8436 f2bf aa6f a2a6 3e89 e4bf
00000270: bb75 30ef 1080 fa3f c33b 76f0 1682 d0bf
00000280: b8d5 9749 0a1d e8bf d29f 1b33 cbe6 fabf
00000290: e5bd 70d6 5473 1040 8211 43bd 75a4 0140
000002a0: e4e9 7c4f c60a e03f 1098 ff13 67e3 0640
000002b0: 8f46 20d1 043c 00c0 571f 9312 18b9 fb3f
000002c0: b936 910a b111 0b40 5554 1e35 ee51 f63f
000002d0: 2acb 0c3d 7e78 0240 093b c233 b48e 10c0
000002e0: 0a50 010a 9d1e e63f 2485 adc7 26e7 0fc0
000002f0: ca16 1fb8 5692 f13f bcc3 96ff db90 f73f
00000300: 13c2 6455 b641 cc3f 467f 0a6e 29f6 dfbf
00000310: ca47 54d7 9381 f5bf 4201 268d 6f18 d6bf
00000320: 70e0 661f 63b2 d43f cead fd3a fc57 fd3f
00000330: 1ad7 ab5a 121f fabf 00a5 eff9 bbea fcbf
00000340: fa53 c106 3780 fabf 56fd 1ff1 0c7b e73f
00000350: 4bca bbc3 ad44 0740 2b74 1c98 34bc 1640
00000360: 3dd8 1e8b 3226 00c0 1270 e460 6e15 e13f
00000370: 4c04 af4b e441 e0bf 23dd cedf d216 ea3f
00000380: aed1 3dfe a85d 09c0 9043 02fb 9b44 d83f
00000390: e90f 1a42 460d 0ec0 a249 12e4 6f2b f93f
000003a0: e719 e61f fe0a f7bf c0ea 90d8 a08a e6bf
000003b0: b438 5572 b12e 0440 a5ff e309 d4e1 09c0
000003c0: ee07 647f ce4b fcbf 2faf dfa3 2c0f f33f
000003d0: 41c2 ae4c e1ff f73f d587 40a4 1c41 f13f
000003e0: fde0 b5ca 1d74 ed3f c0b7 9f0d 6a9b f83f
000003f0: 266b 65a5 6987 eb3f a1a0 cfe2 7e5d 03c0
00000400: cda8 e0db ea7f dcbf be4c 13c3 20e9 f1bf
00000410: 775b 9199 8eaf fabf 1c79 5f61 9586 db3f
00000420: 1883 e029 2373 e0bf b861 a503 d57a f3bf
00000430: 3cb1 723e ffcd fa3f d61d ac13 aace e1bf
00000440: 178f ae1e 4724 db3f 5fcb 0eb8 94b7 d63f
00000450: 8c45 c430 0b65 cebf 9c91 e3ef a441 f9bf
00000460: 1330 0b85 9c4b 05c0 e163 65f6 46f3 d73f
00000470: d6ff a824 6a43 e53f 01e0 3a13 4899 f4bf
00000480: 83bb ef17 86c0 e53f 9caa 30a1 9445 b83f
00000490: f027 483c 2b0a fa3f b1ec efb2 91e3 eebf
000004a0: 7920 1bf3 08f3 e3bf 5a4b ddf2 7478 f2bf
000004b0: 5afe 6432 0a38 e1bf e9f8 afec bce6 e6bf
000004c0: ba32 5202 3f41 d8bf a4c2 937e 85ec b1bf
000004d0: b1cb 6719 2f63 e43f 59a8 52dc faa2 fabf
000004e0: fef4 e4cb 01bc fbbf 9e1e 69ec 4cd3 e3bf
000004f0: 2c3f e877 3da2 0640 4116 e16c 63ed fbbf
00000500: 7d49 7635 def6 f9bf cb1a a0e1 09a7 ed3f
00000510: eada c6ae 6755 f83f 4d3f 35a3 1115 f2bf
00000520: e3d8 7883 1316 dcbf 3578 8654 cd1a 0340
00000530: 9c47 731c b80e f53f 1bb0 b915 91f7 0fc0
00000540: bed7 39db 1652 c8bf 3e10 36d3 dea9 eebf
00000550: f659 ebae 8be2 07c0 45e6 64fb c00c ae3f
00000560: c119 d9fc 9719 f8bf 84b0 d40a bd65 b73f
00000570: 922f 3c74 972c d43f 6024 688f 4dd4 e2bf
00000580: 22ef ae5a 2356 f33f af17 f55e 2ccd 04c0
00000590: a7b1 5b8d 0c9e b23f a121 bbe5 4b2c f53f
000005a0: 97aa f375 b19e e03f 3247 73f1 3aa4 f53f
000005b0: 5888 2f50 94c9 1240 8a1d e611 8588 f03f
000005c0: 8235 5086 66c2 dbbf 63ef 3a6d 17c8 b9bf
000005d0: 8466 0a89 31e3 0040 3523 84db 0fdb cabf
000005e0: 6fea 6c0a 9452 c73f 0049 c633 7d23 f3bf
000005f0: c10b 944d 5e9c fdbf b513 4b12 cb16 e03f
00000600: 800b 8fe4 e1c6 efbf 3096 7136 f16c fabf
00000610: b744 f0b0 3779 09c0 3858 f217 3e35 e13f
00000620: a7ef 8546 3a69 f93f a656 65ab 08f1 f8bf
00000630: 0a37 773b 24cb 0640 4c78 452e 3e07 fabf
00000640: b1de df54 5c1d f0bf a7f3 7fe8 febb d93f
00000650: 3608 3f6f 09ce dc3f dc57 47eb f999 f0bf
00000660: 68ea 04b1 f98f d5bf 83a8 eb0f 344e d43f
00000670: f58a 8af1 fa46 fdbf 2485 f47d b04c f1bf
00000680: 4123 0ee5 fb4f fcbf 6330 8e6a 2945 ce3f
00000690: 44de e6c5 8196 ffbf 9b7e aee3 9b30 0440
000006a0: b7d8 baee 721f d53f 0311 1a1b 3566 fabf
000006b0: 41d1 1598 9fc5 06c0 f7b3 1618 f865 dcbf
000006c0: fd8d 8ded 2d4d e33f 1ef5 0e15 ba13 be3f
000006d0: 9741 bda2 0f9d 0440 2484 3f3d 823f e93f
000006e0: 797f a008 01cb f13f 3c8b 39dd 2b9b 07c0
000006f0: d708 6893 3bca d03f d889 6ab1 61ae f93f
00000700: f001 6c22 f81e 04c0 94c1 f30d 0706 ec3f
00000710: 57fd 83a2 2b70 983f e60f 7379 e753 f03f
00000720: a78b 626e 55ae ffbf 303a 4c29 1121 0740
00000730: f3bc 7973 0522 0240 ca35 597f f1ee f0bf
00000740: cfcf 6441 257f f03f 3368 dbd5 208a 0940
00000750: f536 d56a 43e5 0240 5e77 6b2a 0246 08c0
00000760: 3934 12df 4477 0c40 9fbc 2147 a533 e43f
00000770: 917d 4e43 404b c43f 133f c102 7efc fdbf
00000780: 33ef b201 ddb7 debf 9c69 c026 a9a0 fc3f
00000790: 46e8 b6a6 1ac6 f33f 189f c5e1 06f9 f0bf
000007a0: e562 d517 260d e4bf fa5c 4dd4 929b dfbf
000007b0: 5dbf 28d0 fe71 d73f 47cf dc37 d5d4 0bc0
000007c0: 7d3f ee2f 4694 fe3f a489 0385 f91b f2bf
000007d0: 4a8f 0c91 7ecc 08c0 5106 814d 3a92 0440
000007e0: dbf4 dd85 4bc0 e6bf faa1 7781 dcec ee3f
000007f0: f11c 6ddd c123 ee3f 0cfb d89b 4304 f23f
-0.25692049565190506 0.15671333100726098 -2.0096563342979863 -0.018444659772341727 1.7247646863413972 0.29706898361477274 -1.3769528653483973 -0.20510700893635808
-1.6455412740265487 -0.11023782366540762 1.1263493110440355 0.02835854107266611 0.7831322825915563 -2.7425850648650827 1.2570923796808038 0.9152229850140509
0.02751062630185674 -1.0742942394961945 -1.0815655201341976 1.8572358761434777 0.8585800650416813 0.7719140323559004 -1.3562911465528158 1.396798979288732
0.6554450596287551 0.28399441203334225 2.8540865166770075 0.3143751319007324 -1.0551887260364345 2.745738315864851 0.08582654969244753 -1.7883727533939948
1.592226377322536 -0.25415515564940816 -0.21761825644409294 0.22419753932029748 -1.3231713037402357 -1.0357081266636199 -1.0354153106357638 -0.6233265780259948
-2.1542771907014355 0.05586864730934291 1.3176330195463133 0.6091282473329206 1.2452352802567643 -0.8115739629636948 2.0024893243888147 -1.3064365716421122
-2.539773378496809 1.5164927880727657 -3.9070683313290666 0.8718527801175907 -2.056491588702757 1.7927602693447806 -1.577779855056244 -2.642690094476377
0.34476190025019904 -1.6656220880842818 -3.852315686106917 1.7031452152363966 1.4792946964791747 -1.9724727283661903 -1.9347443601581467 -3.0109633118111483
0.9161558728553615 -0.6187734932760552 -1.5914688932258467 -2.035728166849749 -0.06469332086654915 0.3276897345944901 0.12389774203000663 -2.602396698841647
-0.4658692445075217 -2.4510186794977287 0.04751695117421207 -0.6553297124952705 -1.1383097765548083 -0.6417535070972822 1.656266149838628 -0.2579400394687889
-0.7535449445119218 -1.6813461300280221 4.112628317481243 2.205302694901719 0.5013152649401573 2.8610364496589753 -2.02930606250522 1.7326889730047321
3.3836384606900904 1.3950025629940417 2.308834530785494 -4.139359291772743 0.6912369914448402 -3.9878669357136847 1.0982272331470306 1.4728660568182326
0.22075537843331058 -0.4993995260829148 -1.3441351329133675 -0.34524143966702436 0.32338789049709415 1.833980780061086 -1.6325858632894268 -1.8073081744317392
-1.6563024772524373 0.7337708196136343 2.9085345546421073 5.683794380890542 -2.018651091460042 0.5338661091259402 -0.5080434301563712 0.8152860995532233
-3.1707324850669556 0.37918757927496305 -3.7564816631511246 1.5731047543564292 -1.4401837583587793 -0.7044224004560746 2.522799390054468 -3.2352677128510146
-1.7685074783516899 1.1912046815222757 1.4999707217613294 1.078396455392512 0.9204243621052509 1.5379429371055124 0.860279868163478 -2.4206521720517036
-0.44530745956820966 -1.1194160099155819 -1.6678606032125722 0.4300893259914049 -0.5140548532400286 -1.217488302461886 1.675292247712675 -0.5564775833344651
0.4240892219188352 0.35495489096063254 -0.23745860940156793 -1.5785264368688336 -2.6619196313895457 0.3742234617434957 0.6644793239611271 -1.2874222518130412
0.6797514407643209 0.09481171546273476 1.6274826388130315 -0.9652794356219571 -0.6234173534549107 -1.1544084059612119 -0.5380907997386644 -0.7156662581253644
-0.3789823076884137 -0.07001528110755345 0.6371074196052772 -1.6647900205957937 -1.7334001507400099 -0.6195435159106244 2.829218804144963 -1.7454561474891224
-1.6227705086099313 0.9266404539819971 1.5208508326738248 -1.1301437735855473 -0.4388474258333998 2.388086948732076 1.3160935508098879 -3.99588219616818
-0.19000516609565737 -0.9582361340731109 -2.9856179872106123 0.05869105404640299 -1.506248462379162 0.09139615549492147 0.31522165633281773 -0.5884158898271714
1.2085298101728275 -2.600182287077551 0.07272413684012823 1.3233145688883285 0.5193717292543906 1.3525952750828307 4.696854832554969 1.0333300303626367
-0.43374026409659205 -0.10070940415147116 2.1109343248652426 -0.20981023996889694 0.182207589235833 -1.1961643240397848 -1.8506758718874468 0.5027823788919848
-0.9930276359594785 -1.6515972258288336 -3.184188253719721 0.5377493350704361 1.5881903414546998 -1.5588461585188411 2.8491902013546495 -1.6267682845568912
-1.00716813234423 0.4020993490701649 0.45007549156082705 -1.0375918570111855 -0.336912558431925 0.3172731547807716 -1.8298291621401266 -1.0812230033992103
-1.769527334925627 0.23648565009023334 -1.97424485497858 2.5237348353983413 0.3300444918962841 -1.6499529894509244 -2.8464958078058378 -0.44372370102320197
0.6031713142114651 0.117488508359163 2.5766899789816295 0.7890025326015615 1.1120615326871912 -2.9507672579942703 0.2623433055415609 1.6050736360854128
-2.5151217164241118 0.8757357857230539 0.023865396303333366 1.02048442307659 -1.9800619422828534 2.8911460138690686 2.2666119596029772 -1.0583357786702998
1.0310413889355805 3.192445441015502 2.3619449945753055 -3.034183818249331 3.5582368304663103 0.6313043965618766 0.15854647909598588 -1.8741436107265528
-0.4799721256820135 1.789223815320475 1.235865260342068 -1.0607975787369863 -0.6266050782679399 -0.4938704560531303 0.3663327248386759 -3.4789223064671293
1.9111997482577572 -1.1318297572948746 -3.099850781627457 2.5714002661705213 -0.7109735121336159 0.9664137390764715 0.9418649029475131 1.1260410392566795

lstm.bias_ih_l0 f8 [256]
00000000: 186b 3c4f 0f90 f73f dba3 6f1f 85ee eabf
00000010: 2f2c 0154 0432 f93f 30a5 2ead c4ec f4bf
00000020: ddf2 fb8a 4046 c4bf 151a ea5a 86e3 e0bf
00000030: f4c2 14cb 1492 f13f e593 001c f0c6 f5bf
00000040: 57b8 bd7b 21e6 fb3f 5d01 6d34 d167 df3f
00000050: edd3 66fe 7fdb 9cbf 53ac a80f f639 b9bf
00000060: 2744 500a ebf1 ebbf 8490 49f3 800a f0bf
00000070: 3407 6eb3 a215 fdbf 2443 d5b2 6c10 e6bf
00000080: 843c f822 409f f83f c728 dbb6 b6dd ee3f
00000090: 3245 a828 263d cabf 5119 6ee2 8cf5 e43f
000000a0: c4e7 62af 7b39 0cc0 afcc 2d5a 5f72 f13f
000000b0: 0180 3829 5832 a7bf 8cc7 8170 6532 b1bf
000000c0: 1710 f0bc 7d09 f73f c6c2 2396 1597 e83f
000000d0: 122b 56d7 9974 d83f afb1 8e7a beb6 0040
000000e0: 1224 5c25 d2aa e7bf 38d2 4066 033e b8bf
000000f0: 775a 91b6 2fd6 d5bf 71cc 9463 9aa5 c3bf
00000100: 9d97 a664 6a29 fabf 9d71 453b a88e f03f
00000110: 9e39 230d fbbc e9bf dd84 4271 3dcd e53f
00000120: ad7f ab53 59bd bebf 25b7 f9e0 c6f8 f43f
00000130: e93d 83c1 3475 ed3f 8160 5fed d1c3 b83f
00000140: 829f c59b 3b72 f7bf 3e44 ae51 2188 f6bf
00000150: e280 bf52 6adc d73f c73e 0096 e65a e7bf
00000160: b2f9 4883 916d c23f 1334 8929 6d07 ec3f
00000170: bc65 65df 8628 fa3f 1639 f5c1 1b4c fabf
00000180: 4188 4e14 110a 02c0 bc82 fa76 6fc7 cdbf
00000190: 910f 432a 56e6 f13f 6e24 a076 6b92 f2bf
000001a0: b4f7 47d5 e2b8 00c0 0e58 53de e41e d23f
000001b0: 35a2 036d abe8 e7bf 5d66 44c1 e57d e9bf
000001c0: 1dbc 2ff3 c192 f13f c04e 2b53 1b97 0840
000001d0: 8712 f49d 5bbe c3bf 38e9 3542 34e6 ffbf
000001e0: 7b02 205f 2edf ee3f af7c 9f31 6e71 c4bf
000001f0: 6421 6c4b de0f acbf c932 b23c 91ef f53f
00000200: cf04 9b34 53d4 923f 00b9 6bd8 4301 e43f
00000210: 7315 5d69 b2ab cabf 8185 9a04 7a0a d3bf
00000220: 4404 2a72 8520 fd3f f9bb fad9 e120 ec3f
00000230: a002 4ee2 f521 ebbf 6b67 1dd5 d6da f03f
00000240: dd18 67dd d734 d93f c107 d2eb db2c dc3f
00000250: d263 4432 e9aa f13f 9323 680d c94b e13f
00000260: d4cb 7ddc dd3e f03f a57a 7faa 4d44 ebbf
00000270: d6b0 02d8 f31f f23f 5366 172f ca6f c6bf
00000280: fc32 7621 5feb e5bf 444c 28f9 07e6 e13f
00000290: 93af e346 4f07 d2bf 6df4 3a16 9043 e9bf
000002a0: 9f38 4a4f 8ece 51bf 8a6a a10a 9c7d e43f
000002b0: cff2 dc20 dc4b f93f 8730 a0da cfca 0240
000002c0: 54d6 e52c d6fc dfbf f734 1c17 963b f2bf
000002d0: 7940 a665 2623 d43f 2cf0 2ba3 3821 e4bf
000002e0: 4b9f d392 e73e de3f d3ae be6c edf2 d23f
000002f0: 53c3 5bc6 2952 f73f ded5 d3bf b305 d0bf
00000300: df38 9a35 3d3e d03f c00b 4093 f6a7 e13f
00000310: ca32 26d2 91f8 c8bf d125 5def 16f3 f03f
00000320: ab34 e70f 96ff ec3f 6412 013d fa42 fbbf
00000330: 3ed9 82a3 788d d83f f194 4906 108c d8bf
00000340: 099d ea83 e3a0 e23f db3c 2ea1 2e5e e8bf
00000350: 96ff 35e7 b818 d43f 8eab 81f1 58d1 ea3f
00000360: e4c3 c623 e411 d33f 0aa4 45fe c702 eabf
00000370: 9b78 760a ebe3 fb3f e489 b844 4a3e e43f
00000380: 0a94 f7f6 1a37 d83f 2e48 86ec f0ba f23f
00000390: 0066 bed0 087e c8bf 8eda c9f5 fdc7 a53f
000003a0: 7136 c484 f73b a13f 8d22 468f 3826 e3bf
000003b0: c390 5aba 6c32 ec3f 6203 c026 db95 ca3f
000003c0: 5645 ecb2 c416 c23f 6feb a4df 2977 db3f
000003d0: 9656 2a9e 7b64 d7bf 07f7 6edd 2121 f03f
000003e0: c2ba 7b16 689a dcbf d37d 7cad 3460 d73f
000003f0: 6765 b265 472e eabf 6521 6321 733f edbf
00000400: 674f 9641 9013 ccbf 6db2 b1db a586 a03f
00000410: 293c 28f9 cf77 ee3f 7464 f6b2 3b1c d4bf
00000420: b947 12fc b6e2 e1bf 790d 7ce2 4358 ef3f
00000430: 2901 be50 4585 bb3f bb5a c9c2 3a4b fbbf
00000440: 0ec9 8c7c 3b6a e63f 80d2 48ed 17cb f33f
00000450: c40c dd3c e8fe f9bf e7bd 321c 5b01 e93f
00000460: 8a58 f613 6289 e2bf c6d6 f873 2b37 c9bf
00000470: 45aa 23e5 ea90 ecbf a1e9 9915 ab94 debf
00000480: 068c 3004 5ab8 e03f 5307 f707 21b0 ea3f
00000490: b1b0 b5e4 fd61 efbf e331 57dd 9069 f1bf
000004a0: b044 5d0e 17fc e63f 6ed3 a3a3 422a f8bf
000004b0: fefd d6a2 5ac4 ed3f 8ceb 3d3d 26da ecbf
000004c0: 1c00 2d8c 9551 e7bf 98d9 4cc7 03d9 c2bf
000004d0: b187 20fb 16a8 e3bf 5442 3a68 80d1 fbbf
000004e0: 02a9 a926 ac69 af3f 92dc ac65 2aa9 02c0
000004f0: 1209 6b97 0b82 e73f 5bb2 baca 1fa4 ef3f
00000500: a849 3351 f495 dabf 2e62 85df 4839 0040
00000510: 266d c7b6 c368 dfbf e2ae a010 6878 eabf
00000520: 2278 2b06 3196 f23f 0d9b 7f2d 8b8d 0140
00000530: 2f93 79a8 3a30 eabf 71a1 ca94 35fe b7bf
00000540: ac56 6370 f6d2 d9bf 0c3a 313c 5867 f3bf
00000550: b566 00f8 4c27 f23f 37ff 33f5 58ef f6bf
00000560: a7a5 ccc6 51a5 d93f e621 b71a cedd f7bf
00000570: 9113 d8cb 023f eabf 8390 a779 8b00 f23f
00000580: 7c72 1022 3972 f0bf 62a7 5094 728c debf
00000590: 2bc7 dded ee8c ecbf d41b 657a 7277 ce3f
000005a0: 57ce 6567 b184 c2bf 3c3c 7057 82b6 dd3f
000005b0: b7c8 da4f 1592 ed3f e86f 414c 3fec edbf
000005c0: 0639 5115 09d2 f03f a334 69ad 2af8 a63f
000005d0: 8e0a 278f 0989 ffbf 0c88 0259 b1a5 e43f
000005e0: 1362 bc2d c102 ff3f 2488 986f bdee dcbf
000005f0: c6d1 f998 610a f2bf bd3d 8dd3 323c f33f
00000600: 38e7 cfaa b560 ecbf 7186 c817 e8a3 f4bf
00000610: 5694 cfe2 457c f1bf 0a38 c99a 529e c73f
00000620: 6abc 42b4 3e9e d6bf a98d d5ed d969 c1bf
00000630: 3f16 8509 eb6a f33f 7993 3de3 3f99 e4bf
00000640: a80f 39a3 3b94 f83f 0b42 077d 4602 e13f
00000650: f779 302b 6444 ebbf 0ca6 60f4 32c2 dbbf
00000660: 660b 9f30 52fc f23f 8294 dd04 9c2f 07c0
00000670: 38e9 f7f0 65bc f43f 6f44 f916 bdf1 ebbf
00000680: 0939 2c4a 4d26 f1bf 1044 312f 0511 f53f
00000690: 576b 369e 154c dfbf cac0 4371 d2d2 edbf
000006a0: b543 19c0 8821 dc3f ecdd 761c 29e4 e33f
000006b0: 255b 318c 0e98 e13f 0293 c842 c981 dc3f
000006c0: 6336 f848 6a40 da3f 2a85 1686 9ca9 e43f
000006d0: 4c41 396e bbd7 d63f 8d0a 437f 32f6 febf
000006e0: fce8 2213 9acb eebf 0758 5ac2 a3d6 f0bf
000006f0: adbe eeaa a714 c83f d5b6 d8d7 19c3 c0bf
00000700: 7228 d92f 197e f4bf b224 616c 73b6 e33f
00000710: 8595 9ae7 e2da d2bf e7a2 bbd5 5dff f13f
00000720: 737c 221b 3ba7 fc3f 267d 0970 d59f fbbf
00000730: b0df 3e3e 0037 e1bf 3625 d71e 40d9 e7bf
00000740: 27e5 9f12 d267 f6bf 88cb 2952 7e73 f33f
00000750: 7024 9b0b dd33 e63f c836 6377 6828 c4bf
00000760: 5690 f706 5695 e73f 5837 1d5d 7769 f2bf
00000770: 3c04 0e54 6037 ed3f 6bf8 bef9 0a48 bebf
00000780: 5064 2d20 a9db ccbf 4eb8 23b6 cca6 a73f
00000790: cc27 ff1f 9cd9 c53f 5b38 65f3 e1b5 d4bf
000007a0: 5a6d dfbd 255d e3bf f753 e55e 2afd d73f
000007b0: 66f9 9269 bbc2 bdbf d0cb c0fe 79a4 e4bf
000007c0: 5f28 8633 47ac db3f 596a f25b e168 cbbf
000007d0: afa7 d066 7382 bb3f 5693 b888 dfd9 ebbf
000007e0: 4988 eeb5 02a9 d8bf a465 3f77 9ae7 d9bf
000007f0: c6a1 fafd b483 e9bf 05b5 b9fe f854 c6bf
1.4726708502918822 -0.841616212271329 1.5747111588887142 -1.3078047528200152 -0.1583939245828309 -0.527774026458078 1.0981643612723788 -1.3610688299024727
1.7436842759739386 0.49071149940211517 -0.02818107595676971 -0.09854066736504423 -0.8732810212551428 -1.002564382878547 -1.8177821167923414 -0.6895049565156097
1.538879524803435 0.9645646640213038 -0.2049911211511613 0.654974405523527 -3.5280679418619645 1.0904229662526566 -0.045305972129654044 -0.06717523571731315
1.4398171787625011 0.768442910424789 0.3821167567154343 2.0892304968640114 -0.7396021585165065 -0.09469624754348949 -0.34119789914021886 -0.15349130499234634
-1.635111230055805 1.0348284068378242 -0.804318929347392 0.6813037120920417 -0.12007673542711812 1.3107365406135127 0.9205573825401504 0.09673797650555295
-1.4653888783304585 -1.408234900536868 0.37282808380952137 -0.7298462800699433 0.14396876249697993 0.8759065448044815 1.6348942495736614 -1.6435811592560348
-2.254915388723959 -0.2326487856817233 1.1187345171792666 -1.160747016316488 -2.0902763998592153 0.2831356211803503 -0.7471520547088121 -0.7966183447599168
1.098329496333242 3.073782586821693 -0.1542467614418863 -1.9937021814681213 0.9647437913809677 -0.1597116224574839 -0.05480856581385998 1.3709881182614245
0.018388080678737147 0.6251544215172373 -0.20836477417666863 -0.29751444291658663 1.820439763978599 0.879013944378925 -0.8478955669416628 1.0534275364684287
0.39385029431686097 0.440237980168714 1.104226299625442 0.5405011426783964 1.0153483021683671 -0.8520878152883894 1.132800906935747 -0.17528655337700857
-0.6849818852948313 0.5593299738269555 -0.2816961471823955 -0.7894974168954271 -0.0010868444198055894 0.6403331954600884 1.5810204776491223 2.349029262555692
-0.49980692276526395 -1.1395474341146021 0.3146453850431566 -0.629055327124211 0.4725893911222456 0.2960771142922855 1.457559370839779 -0.2503480313601737
0.2537987731419786 0.5517533184032501 -0.19508574258033767 1.05934804440982 0.9061994848831508 -1.703851927087407 0.3836347195423463 -0.3835487424278901
0.582139737748464 -0.76149684410657 0.3140089281005144 0.8380551068233772 0.29796699041167884 -0.8128395048380537 1.74314407431624 0.6326037733272725
0.3783633624828445 1.1706399192085075 -0.1913462657219469 0.04254144311282913 0.03366063590702318 -0.5984156416244147 0.8811553611490343 0.20769824401943554
0.14131983505698525 0.42914816704040154 -0.36550798841322185 1.00808893678135 -0.4469242305339486 0.36524693433781613 -0.818149279238395 -0.9139953281492522
-0.21934703066346659 0.03227728182614418 0.9521255365706384 -0.3142232177429556 -0.5589251445073763 0.979524557450005 0.10750230046506161 -1.7058665856217619
0.7004678185096809 1.2370833653377815 -1.624733197925523 0.7814155150171559 -0.5792704000366637 -0.19699614680000915 -0.8926901317002566 -0.47782399281973126
0.5225038606480445 0.8340001254621064 -0.9807118861185896 -1.0882729192845708 0.718272712760287 -1.510317458361182 0.9302189999070263 -0.9016295620088939
-0.7287090051468144 -0.14724776488737912 -0.6142687706781002 -1.7386478492154724 0.061353091926166684 -2.332600397432153 0.734624667871943 0.9887846908146217
-0.41540248803826296 2.027971025713007 -0.49076931809914226 -0.8271980595358992 1.1616678467758068 2.1941131166999015 -0.8183873453641349 -0.09372267611127484
-0.4035011384524789 -1.212730631948605 1.1345948875008791 -1.4334344461676218 0.40071529783252874 -1.4916516345566548 -0.8201917630509447 1.125133013928491
-1.0278865175852436 -0.4773222397221756 -0.8922037740542 0.2380202386504765 -0.14467446850504714 0.4642644742861568 0.9240824279461525 -0.935088776528116
1.0512781937318905 0.04486211172898293 -1.970956381978485 0.6452261675333388 1.9381725107724648 -0.45207153223066343 -1.127534482538168 1.2021969093074028
-0.886805375688005 -1.2900162629161083 -1.0928400859641179 0.18451912458334646 -0.35340850452025185 -0.1360428248691339 1.2136030551786374 -0.6437072218219405
1.5361896873373357 0.5315277521095266 -0.8520985454122741 -0.4337279688357689 1.186601819922282 -2.898246801387871 1.2959956562832087 -0.8732591103272521
-1.0718510529873717 1.3166553348021388 -0.48901882601210417 -0.9319851124000931 0.4395467639888538 0.6216016345924209 0.5498116243496481 0.4454215194876242
0.41018159032760176 0.6457045191674855 0.3569172455218179 -1.9351067515532663 -0.9623537420041255 -1.0524022666845683 0.18813033911054813 -0.13095400847799135
-1.2807857388566188 0.6160218350206803 -0.2946097623592652 1.1248453473037274 1.7908278522443453 -1.726521909374989 -0.5379639831289662 -0.745269832835368
-1.400346825363451 1.2156966409208696 0.6938309885673686 -0.15748315648527567 0.7369794975352402 -1.1507485997458016 0.9130098001188638 -0.11828678700746457
-0.22545351096303756 0.04619445536978671 0.1707034260019199 -0.3236012341411702 -0.6051205357029332 0.37482699649018464 -0.11625262572758785 -0.645077703060787
0.4323900225796304 -0.21413819303127715 0.10745927105077045 -0.8703458471614833 -0.3853155876805699 -0.4047609486129551 -0.7973275146987866 -0.17446815908207483

lstm.bias_hh_l0 f8 [256]
00000000: 186b 3c13 fb57 f73f d3a3 6f27 3433 e6bf
00000010: 2c2c 0114 a2a0 f83f 2fa5 2ebd bfc1 f6bf
00000020: af70 f97d 051f 52bf 141a eaf2 84e8 e3bf
00000030: f3c2 14c7 4c2e f23f e493 00c4 997f f7bf
00000040: 57b8 bd93 6a93 f93f 5d01 6da4 c27f dd3f
00000050: 8425 33e0 5dce c23f 2256 d4c7 92f4 c4bf
00000060: 2744 50fa 48eb ebbf 0721 93ee 8581 eabf
00000070: 3607 6eff 3ca9 fabf 2243 d5aa 6074 e9bf
00000080: 843c f896 cb29 fa3f c628 dbce a250 ef3f
00000090: 9b22 5464 1d3a d8bf 5019 6ed2 61f9 e33f
000000a0: c4e7 6263 63bd 0bc0 aecc 2dba 3811 f13f
000000b0: 0380 38a9 9121 adbf 8cc7 8130 4052 b1bf
000000c0: 1410 f07c 01e5 f83f c6c2 2356 98a3 ec3f
000000d0: 162b 56e7 4b2e d63f aeb1 8e98 dc0f 0140
000000e0: 1824 5cc5 f919 edbf 1369 2013 b1bd c2bf
000000f0: 735a 9176 e36e d2bf 79cc 94a3 a705 c2bf
00000100: 9f97 a6f0 484c fbbf a071 450b 2fd5 f13f
00000110: 9d39 238d 90a7 e9bf dd84 42b1 b558 e63f
00000120: d9bf d589 20b1 c1bf 25b7 f9a4 fe7e f83f
00000130: e93d 8319 13d9 e83f 8160 5fed eeea bd3f
00000140: 849f c56f 80ce f6bf 4244 aea5 e0d9 f8bf
00000150: e280 bf62 aa5e d93f c63e 0066 0d37 ecbf
00000160: b6f9 4843 0c5d c53f 1334 8919 9dc4 ea3f
00000170: bd65 6513 058a fa3f 1439 f515 cf12 f9bf
00000180: 3f88 4e5e f41b 03c0 5641 7ddb cbbb dbbf
00000190: 900f 434a a773 f03f cc48 40f5 3f92 efbf
000001a0: b5f7 475b 9d17 02c0 0f58 533e 88b9 d43f
000001b0: 33a2 0375 347d ebbf 6066 4401 bbfb e8bf
000001c0: 2678 5f36 5ec1 ee3f c14e 2b4b c484 0740
000001d0: 8b12 f4bd abb6 cdbf 39e9 35de 06db ffbf
000001e0: 3b01 9083 5d4d f23f ad7c 9f51 cead c1bf
000001f0: 4e21 6c4b cd96 a2bf c932 b278 1565 f63f
00000200: d73e d932 40d5 babf 00b9 6bf0 293a e73f
00000210: 7a15 5d49 84b7 c2bf 0f0b 3569 f682 c3bf
00000220: 4404 2aaa 3558 fd3f fabb fa09 7df8 eb3f
00000230: a402 4eda 7dc9 edbf 6b67 1de5 8d91 f03f
00000240: de18 67cd 4155 d73f c007 d26b de73 d93f
00000250: d263 44aa 4e72 f13f 9323 686d 4fba e23f
00000260: d7cb 7d70 f7af f23f a47a 7fd2 358a eabf
00000270: d7b0 028c 128b f23f 92cd 4487 931b 973f
00000280: 0033 7621 c8f0 e0bf 464c 2899 fc73 e23f
00000290: 46be 8e9b f33e b7bf 6df4 3aee e418 e8bf
000002a0: d328 3db9 74e1 b2bf 856a a1a2 2b62 e53f
000002b0: d0f2 dc0c eb57 f83f 8730 a0e6 c61c 0340
000002c0: 52d6 e5ac 9814 dcbf f734 1cdb 8220 f3bf
000002d0: 7940 a645 8301 dc3f 2bf0 2bb3 099a e7bf
000002e0: 9fcf 6921 74cc e33f 3dbb fa32 6838 ba3f
000002f0: 53c3 5b86 0f5f f53f ddd5 d33f 43d1 d2bf
00000300: e438 9a25 2120 d33f 7517 8006 cfa8 de3f
00000310: 972d 6322 81b3 88bf 844b bace cff0 ee3f
00000320: ab34 e767 146c ee3f 6412 0121 c7d4 f8bf
00000330: 37d9 8213 09ad d43f f394 4906 fcb0 d8bf
00000340: 0b9d ea4b 4df6 e33f db3c 2e31 f031 e8bf
00000350: 2fff 6b8e 73fd c23f 8dab 81c9 599a eb3f
00000360: eac3 c663 33dc dd3f 0ba4 45d6 befd ebbf
00000370: 9b78 764e 6409 ff3f dd89 b83c 6f25 e23f
00000380: 0d94 f776 d3d6 da3f 2e48 86bc d4c0 f23f
00000390: 0166 bef0 9297 c7bf 41ed e47a 94b1 b23f
000003a0: e66c 8809 5c6e 953f 0845 8c9e 3e65 dabf
000003b0: c390 5aba 2a5a ec3f 4136 006c 7ef6 823f
000003c0: 4e45 ecd2 308c c33f ad75 d267 e3ae e03f
000003d0: 8f56 2a7e e98b d3bf 04f7 6e99 52bf f13f
000003e0: c9ba 7b16 5656 d3bf d57d 7cad 2a0f d13f
000003f0: 6765 b22d bc55 eabf 6421 63f1 2935 eabf
00000400: b827 cb00 28e4 d1bf 2dd9 d8ed 0296 bd3f
00000410: 293c 2821 bd9c ea3f 7c64 f642 55f9 ddbf
00000420: b847 127c 2df2 e7bf b906 3e49 e6a7 f03f
00000430: 8d00 5fe8 9e34 ce3f bc5a c99a d568 fcbf
00000440: 0dc9 8c3c dbbf e73f 7fd2 4835 f75c f33f
00000450: c50c ddc8 1f3c f9bf e7bd 3224 10f6 e93f
00000460: 8758 f643 5be0 e4bf 656b fcd9 6027 d7bf
00000470: 28d5 919a 77b7 f0bf a0e9 9925 ee76 d7bf
00000480: 068c 307c c4a4 e03f 5107 f7ff 2fc9 e73f
00000490: b1b0 b5ac 18c8 edbf e231 5735 4a80 f2bf
000004a0: ad44 5d3e 4402 e03f 6ed3 a373 1b17 f8bf
000004b0: fb7e 6bcd 74c5 f13f c8f5 9e5e fb5b f0bf
000004c0: 1700 2dcc 094d e2bf a2d9 4cc7 67b1 c6bf
000004d0: af87 20d3 7456 e6bf 5542 3aa0 91cf fdbf
000004e0: 942b abac 00d2 b2bf 90dc ac75 14c8 01c0
000004f0: 1109 6bff 1710 ec3f 2859 5dad c6c9 f03f
00000500: a649 33a1 9e0a dbbf 54c4 0a13 3a78 fe3f
00000510: 8ab6 632b 31fc e1bf e4ae a058 9fc5 ebbf
00000520: 2278 2b42 9731 f03f 0d9b 7fb5 612c 0140
00000530: 3093 7980 7a4e e9bf c885 2a53 451e 99bf
00000540: a956 6330 8ce5 dcbf 0c3a 31ac 2f91 f0bf
00000550: b366 008c 6da4 f13f 38ff 3315 e350 f6bf
00000560: a4a5 cce6 7f5d df3f e521 b74e 59c1 f7bf
00000570: 8f13 d81b 8315 e6bf 8390 a7f1 975f f03f
00000580: 7e72 10e6 6213 f1bf 62a7 50e4 078d d9bf
00000590: 23c7 dde5 c559 efbf df8d 32ed b13d da3f
000005a0: 7239 979d 5fa3 a1bf 3b3c 7037 6326 dd3f
000005b0: b7c8 da27 5d79 ee3f e56f 4184 b81d e9bf
000005c0: 0972 a242 e643 ec3f 46cb 96d2 bd83 a3bf
000005d0: 8e0a 27eb e1ed ffbf 0b88 02b1 b148 e43f
000005e0: 1362 bc01 4fdb fe3f 1444 cc57 b969 e1bf
000005f0: c6d1 f9a4 001e f2bf bb3d 8d43 94ab f23f
00000600: 38e7 cfd2 d563 ecbf 7486 c80b 471f f4bf
00000610: be28 9f9d 949c efbf 0d38 c93a 861e c43f
00000620: 6cbc 4254 800d d6bf 511b ab1b 175f bebf
00000630: 3d16 85dd f618 f43f 7993 3dcb dd38 e4bf
00000640: a90f 3987 61f2 f83f 0b42 079d 7a91 e13f
00000650: f779 308b a2dc e7bf 09a6 6084 dd49 debf
00000660: 640b 9ff0 bf4c f03f 8294 dd5c 55f5 06c0
00000670: 37e9 f788 c585 f53f 7044 f9de 392d ecbf
00000680: 1072 58dc e318 efbf 0d44 3153 013b f23f
00000690: 5b6b 362e f8e8 dbbf b9c0 4311 cbf4 efbf
000006a0: dca1 0c60 562b e43f efdd 767c 79d1 e93f
000006b0: 255b 3154 2eca e33f 8549 6421 58af e23f
000006c0: 6936 f8c8 0833 db3f 2b85 1646 4b2b ea3f
000006d0: 4c41 399e f5fb d83f 8d0a 437b 8542 ffbf
000006e0: 7a74 91ed 90ca f1bf 0158 5a32 092a f0bf
000006f0: b0be eeaa 4f10 c73f d4b6 d8d7 3bac c0bf
00000700: 7128 d9e7 9bb6 f4bf b224 61b4 37f1 e13f
00000710: 8a95 9a57 e423 d1bf e4a2 bb55 595c f03f
00000720: 747c 225b 3604 fb3f 267d 092c 1cfc fbbf
00000730: b5df 3e4e 205c e0bf 3325 d766 37da eabf
00000740: 25e5 9f4a 82a9 f7bf 86cb 298a aaf0 f63f
00000750: 7324 9b3b 5f3d e03f 816d c6ee e8b5 bebf
00000760: 5a90 f76e d27c e43f 5837 1d71 4484 f2bf
00000770: 3c04 0e74 354f ef3f 387c df7c e0fc cbbf
00000780: 5764 2d80 faac c6bf ec11 7732 9b53 c1bf
00000790: c627 ff1f a457 ce3f 6038 6513 bb95 dbbf
000007a0: 596d dff5 e103 e8bf f653 e5de a6f7 da3f
000007b0: b57c c914 115f c2bf cfcb c02e c4fa e7bf
000007c0: 5428 86f3 24ca d13f 656a f29b 4397 c6bf
000007d0: db9e 429b d4b8 943f aa49 5cc8 c516 f0bf
000007e0: 4d88 eea5 03c0 d1bf a665 3f77 b061 d7bf
000007f0: c6a1 fa8d 8a1a e4bf ffb4 b9fe bd01 cbbf
1.4589796782881361 -0.6937504549251748 1.5392170697621266 -1.4223019971780777 -0.0011060289033571304 -0.6221337074683242 1.1363036896329362 -1.4686525017107153
1.5984903117310034 0.460922871181557 0.1469228119588416 -0.16371378667160835 -0.8724713219581915 -0.828310934034591 -1.666317937634131 -0.7954562508185499
1.6352039239170901 0.9785932579191232 -0.3785470466396334 0.6241921529734018 -3.4674747242506516 1.0667044899571851 -0.0568967360561601 -0.06766129669429527
1.555909622228687 0.894970100633224 0.3465757140299258 2.1327449720904132 -0.9094208578764009 -0.1464139312163942 -0.28801809862981215 -0.1407975720154331
-1.7061242485446895 1.1145468178066054 -0.8017046696275433 0.6983288251978156 -0.1382179902097949 1.5310045666078136 0.7764983652395446 0.11686604781368894
-1.4254154554455178 -1.5531927558806875 0.39640292781224507 -0.881720256062146 0.1669020966091474 0.8365006922482529 1.6586962468776243 -1.567092023633056
-2.3886496894565705 -0.4333371776056273 1.0282357121331849 -0.9866027631817587 -2.261530602582719 0.32382398687821107 -0.8590338025506469 -0.7807288193464039
0.96110449428284 2.939827525385994 -0.23213717246121165 -1.9909733467198534 1.1438880099450006 -0.13811663613794192 -0.03630677743609799 1.399678679913608
-0.10481644860669391 0.7258500762671076 -0.1462254865856883 -0.15243415963239967 1.8340355536495432 0.8740830607329138 -0.9308461440815177 1.0355357122229758
0.3645786767850846 0.3976970723089117 1.0904070521412348 0.58524295204653 1.1679605859942421 -0.8293713675773984 1.158953234592493 0.022566132670545587
-0.529392304758943 0.5766585341792811 -0.09080431506912942 -0.7530388501105684 -0.07375268480714973 0.6682336975457736 1.5214643957580627 2.389051248324964
-0.4387571037726491 -1.1954372939101725 0.43759233285619065 -0.7375534533925977 0.618707719097518 0.1024232029401277 1.3357081650139733 -0.2940223811450247
0.2988360278331028 0.4790532649498041 -0.012061127530975919 0.9668959653521232 0.9506933240278576 -1.551947716639142 0.3230612459696149 -0.3858022748375582
0.6238161547416053 -0.7560959778365047 0.1483597226542712 0.8625916419672294 0.466564986646573 -0.874724787235324 1.9397929253532655 0.567069643588464
0.41936194055443893 1.1720778812637138 -0.18431317095819114 0.07302215576503547 0.020928800660937073 -0.4124294803924191 0.8860067023965928 0.00925921218006487
0.1527157812020427 0.5213486697936581 -0.30541455574835025 1.1092096322531129 -0.30214454837452515 0.2665507024957752 -0.8229657070652764 -0.8189897265047361
-0.2795505531072382 0.11557024294674952 0.8316331527329385 -0.4683430818491343 -0.7483127043981233 1.040991102316566 0.23598085733647559 -1.775594334254193
0.7421699698082037 1.2101966935562414 -1.5771787496785674 0.8112869936939519 -0.6523872687710232 -0.36177846229263927 -1.0447917974355025 -0.3666339270781922
0.520113222654232 0.7433090209308181 -0.9306758282887327 -1.156320770608652 0.500276681714373 -1.5056414143739079 1.1107070945944872 -1.0224565216188797
-0.5719040859039549 -0.17728898269133447 -0.698053753240165 -1.8631759890451083 -0.07351688590567412 -2.22269527372152 0.8769645680079369 1.0492617389732661
-0.4225231718275161 1.9043522590475463 -0.5620351645900012 -0.8678738337525513 1.0121071419484982 2.1466707400862846 -0.7908298978114541 -0.024529536438995497
-0.4515104744471992 -1.0354458547841459 1.1026435345469678 -1.3947478130575757 0.49008176363948963 -1.4847043108767306 -0.6901259940938064 1.0233382644301237
-1.0672329890141152 -0.3992328385962677 -0.9797086228920516 0.4100155655271162 -0.034449565875195 0.4554679910078822 0.9523149279032371 -0.7848780234448866
0.8832885076004128 -0.0381144828383158 -1.9955767808575362 0.6338737923836119 1.9285421436126213 -0.5441557612231258 -1.13232483333296 1.1668894423236071
-0.8871869199203735 -1.257636114147684 -0.9878638342427377 0.1571815287629196 -0.3445740530832555 -0.11863846230981535 1.2560948041076607 -0.631941697076953
1.559175041403231 0.549008661933898 -0.7456829756300171 -0.47325838019841676 1.0187377356785072 -2.869791722786034 1.3451590872123924 -0.8805207591013993
-0.9717883399603711 1.1394055604653233 -0.4360943270964321 -0.9986319863510494 0.6302902103389516 0.8068206244415118 0.6184302944555823 0.5839043285543971
0.4249898874848897 0.8177849167733816 0.3903783841278894 -1.9537405791203668 -1.1119546203620119 -1.0102626768980374 0.18018527838056775 -0.13025615729696105
-1.2945822769711663 0.5606955073391389 -0.26781567149222296 1.022546133894303 1.6885284004163426 -1.7490503044317136 -0.5112458732828516 -0.8391377457238945
-1.4788840212843948 1.4337563893320477 0.5074916996174025 -0.11996322469206257 0.6402370612454533 -1.1572918337364708 0.9784190432257058 -0.21865469071687627
-0.17715388544709995 -0.13536395992390682 0.23704959451998614 -0.4310138406189079 -0.7504739572718037 0.4213654686657827 -0.14352620615952608 -0.7493611252924611
0.27796291143079555 -0.17649121393772585 0.020236322380383292 -1.0055597139913552 -0.277344619791738 -0.36533748288419543 -0.6282398961093854 -0.21099066674961617
