AIModels/with_0.1_0.1_1_scheduler/model_92_50epoches.pth (torch, 388003 bytes, 10 tensors)

lstm.weight_ih_l0 f8 [256, 28]
0.39133613934073724 0.4352549022091018 0.4782341612816552 0.5003143887110805 0.482691520234141 0.5209712500381655 0.5651735495729574 0.5675593648436971
0.4847093527671717 0.618049097227401 0.7286365632290287 0.7977540773908417 0.9988472862228431 0.8457373136712538 0.8996950131955931 1.014739354423665
0.8754690899397968 0.771286567105527 0.9692734428427243 0.6605888388898082 0.7220538787677564 0.5810230983115504 0.37442306938289177 0.37904152366029475
0.256088567980067 0.050191791817873053 0.026162354180153405 0.027606899213522842 -1.7326223341425535 -1.624463737728244 -1.5769927581698497 -1.3576383013481668
-1.1999223415170344 -0.9015190748727074 -0.7049460546225607 -0.7185372602040148 -0.770557027156866 -0.6206717864487791 -0.7857105168938552 -0.44540552039962045
-0.1645733974636843 -0.21780140785783791 -0.15995623638923556 0.04279051867428361 0.04091914656590957 0.08590704023638221 0.04516765217036903 0.23972788239081044
0.15965218962265204 0.0563381149282404 0.5105597090971933 0.10435990841581623 0.3461328192609613 -0.026606729104538488 0.24045610642021534 0.46134299464646156
-0.9185360422160695 -0.7595917906643254 -0.7779891712606745 -0.6909827192641803 -0.7680059034913856 -0.6045076970548996 -0.7889937891815149 -0.695838907183577
-0.457814410615083 -0.7234398093916955 -0.8488068160222079 -0.9502043474813991 -1.0461731589181185 -0.9538206739836893 -1.24161322703533 -1.1825305603701683
-1.1898808845208906 -1.138263382156296 -1.345980799575678 -1.2372671483283004 -1.4757217119542099 -1.032423330395946 -0.8390053647986264 -0.5856243162656504
-0.6260882627981551 -0.2782781153233619 0.046226067084320116 0.15551087268652844 -0.3262245148798331 -0.49182332916292637 0.07828953204724208 0.1379959986732048
0.08431157538750546 -0.6945140866311876 -1.5066213000677546 -0.8043135955851795 -0.41851379610886563 -0.2894792414353634 -0.9069826564529533 -0.25885962980329374
-1.1558225395116344 -1.7197622378359918 -1.396387156023586 -1.4450393753273543 -0.8694596371756335 -0.8795899795937561 -0.7515647372400204 -0.3336477704917743
-0.6054857843344773 -0.34560109558175456 -1.2089629586682928 -0.6350107395286978 -1.1943172523478014 -1.7611469775989095 -2.1238929007648975 -2.627786814970044
3.352111376930105 2.906081900876727 2.2963026259362556 1.2069669946676571 -0.10681968219482078 0.25040696361452325 0.5750277053700233 0.5608679319309559
-0.16273504454410181 0.5511851334499207 0.6911189134577445 1.6203531356041063 1.5352737956329734 1.4245669596291255 1.1308664101140498 0.7036158890206584
0.6855554294892928 0.8683387143001133 1.5310105577037088 0.48043361152396735 0.7993666078860755 0.35253647892566226 0.7521217878684326 0.7381640757340644
1.1744351552179435 1.8783749929191975 1.7978424999853821 2.3445409800951573 0.41439442654005815 0.22742519351663412 0.08729596166702049 0.1805940856950963
0.18827072257372843 0.42363669601573406 0.22684059301070164 0.35421586360490437 0.569423577134531 0.41996972151026607 0.8691674533981708 0.5279124451552338
1.0781268419317134 0.7095882654291711 0.9525070621375903 0.8266182914809537 0.7997998189541216 0.9386487848774059 0.9975272530622077 0.8870354574833845
0.9178806718328062 0.8196842137128704 0.7811512281909836 0.8240896116722184 1.0842039470708071 1.2791114313531133 1.1396761422538 1.0196274714373892
-1.282536428092927 -1.4123397364363695 -1.34115162486762 -1.0582560521132789 -0.9649189406514529 -0.9102175749881896 -1.116732748328749 -1.1658444664726086
-0.8559637358903157 -0.5580569781907088 -0.5188816761699828 -0.2947754338628102 -0.24132013481779027 0.007544501885136343 -0.2597493324867887 -0.23331608878030516
-0.3245804479400138 -0.33802280304423843 -0.05840859314232437 -0.40729801259042675 -0.2600030795524409 -0.5974668738194003 -0.17617819165181917 -0.18138741848964493
-0.021985868167988414 0.13621748125457905 0.5534210235988409 0.42091420376918337 -0.4946392476803858 -0.7949201077391066 -0.5493460359731516 -0.7052649940650433
-0.45926558141168017 -0.3887733632978156 -0.3927080421169705 -0.7053566783434659 -0.4823511141785898 -0.3930403994949264 -0.4673736097126497 -0.48392612228107806
-0.38373408963885375 -0.37814155708242697 -0.1557651935870808 -0.3652183823835124 -0.568980500765269 -0.47882097762291265 -0.23749072303317942 -0.40457075360920086
-0.21831050230165375 -0.512169318541813 -0.5085910552018474 -0.4960986626232274 -0.1736345720706219 -0.2028670410217701 -0.1930560012575048 -0.20863947580354142
1.308411565304241 1.270359471809571 1.0354738008102642 1.090697439655174 1.0242739634129983 1.1099213878563157 1.1109124217786996 1.2804436327580846
1.086117564646315 0.952064621849985 0.7121559352962622 0.7532610272032115 0.5655454032678185 0.30410896529999326 0.6006580317197543 0.48447579066428265
0.5218214875710719 0.43467462194283046 0.07369382486054747 0.13579354905176522 -0.16127195342812897 -0.1453674048444704 -0.24714207444981823 -0.08712020867785773
0.14081795184856835 0.0649054548089896 0.1153040559527129 0.691903813288448 -0.1872987915643931 0.0016977975827752929 0.07999504037591866 -0.31296830158630856
00000000: 0387 0dbc a60b d93f 725a 9a60 37db db3f
00000010: 8038 a274 639b de3f 2f6f 2752 9302 e03f
00000020: ff93 5df9 6ae4 de3f bf3e 22e6 cbab e03f
00000030: df5c ffd6 e615 e23f cb59 d141 7229 e23f
00000040: 33d2 8c60 7a05 df3f 953f 7de6 0ec7 e33f
00000050: e9a1 37a0 fd50 e73f 419e 148f 3387 e93f
00000060: 97d0 8095 8ef6 ef3f 9e32 e7b2 4710 eb3f
00000070: 5d94 4132 4dca ec3f b36b 5355 5f3c f03f
00000080: f068 bec0 d703 ec3f c1fe b12a 61ae e83f
00000090: a681 3cbd 4904 ef3f 824c 6434 8b23 e53f
000000a0: 223d 68bc 101b e73f 9bff aec0 bd97 e23f
000000b0: 7384 772d 8cf6 d73f 429b fc60 3742 d83f
000000c0: a7a5 164e c163 d03f d353 c510 bdb2 a93f
000000d0: 744a 5cde 4dca 9a3f 146f 10a5 fb44 9c3f
000000e0: 1b62 5732 d2b8 fbbf ab4a 31b0 cdfd f9bf
000000f0: bae4 25c2 5c3b f9bf dd65 81f0 e2b8 f5bf
00000100: f1e2 e8c4 e132 f3bf ef8c e987 3ed9 ecbf
00000110: 438a 4107 eb8e e6bf f413 31da 41fe e6bf
00000120: 66ef ea35 67a8 e8bf eb1d 0b14 8bdc e3bf
00000130: ecd5 c561 8a24 e9bf 32c0 e427 8681 dcbf
00000140: 09f6 f2b7 bd10 c5bf 82d6 e2a1 eae0 cbbf
00000150: 22a0 0a2a 7279 c4bf bde1 918c a3e8 a53f
00000160: a2c6 8fb8 5af3 a43f 12b9 4ff8 00fe b53f
00000170: 4453 d1e9 3620 a73f 2068 673b 67af ce3f
00000180: 9c00 95a2 7b6f c43f 7529 4572 59d8 ac3f
00000190: 7949 a750 8156 e03f 11d4 a8b9 54b7 ba3f
000001a0: 3214 b344 0a27 d63f d11a 6e5d cb3e 9bbf
000001b0: 9162 9904 44c7 ce3f 44b2 8fc4 a486 dd3f
000001c0: 4a7d b0b2 a564 edbf cfd3 6671 934e e8bf
000001d0: 9d9d e68b 49e5 e8bf dde7 aaca 871c e6bf
000001e0: 832c d41d 8193 e8bf 85fe a086 2058 e3bf
000001f0: e403 29e7 6f3f e9bf 3569 b4f4 4f44 e6bf
00000200: ccac 4ed0 d44c ddbf 1dc7 3e3e 6b26 e7bf
00000210: 21fe 6de9 6c29 ebbf 5d63 9ef2 1268 eebf
00000220: ed19 f810 20bd f0bf a546 20ef b285 eebf
00000230: 3f5d c6d4 a5dd f3bf 82f7 342a a5eb f2bf
00000240: c771 d289 c009 f3bf bf87 09aa 5336 f2bf
00000250: 228b b329 2389 f5bf 82c3 27a3 d8cb f3bf
00000260: 8a72 ad5e 8e9c f7bf 0dd9 7a53 ce84 f0bf
00000270: 1a51 5fc7 21d9 eabf 794e c334 6fbd e2bf
00000280: b914 a440 ea08 e4bf 2268 2003 4fcf d1bf
00000290: 7420 b36c f1aa a73f 3137 2ec0 c7e7 c33f
000002a0: 85fd a3c9 dce0 d4bf 0089 8a8e 087a dfbf
000002b0: 9f15 c363 c80a b43f 05e0 a356 daa9 c13f
000002c0: d1ac f682 7195 b53f 0227 169b 7539 e6bf
000002d0: d8f7 b3ef 1e1b f8bf 4c87 98dd efbc e9bf
000002e0: cc97 cd16 eec8 dabf 527d b5f0 d386 d2bf
000002f0: fe25 f07d 0006 edbf c9a0 10fb 2791 d0bf
00000300: 09ea 72c6 3f7e f2bf f76b 8668 2584 fbbf
00000310: e1cf fa0e 9a57 f6bf 7f69 a79b e11e f7bf
00000320: 5b90 5b04 9dd2 ebbf dcd2 87e2 9925 ecbf
00000330: 21ba e87d d10c e8bf 9e4f a92d 7c5a d5bf
00000340: 891a 3db9 2360 e3bf e410 bf0e 541e d6bf
00000350: 38e4 188b e957 f3bf 154e dc0a 0252 e4bf
00000360: 411e 3e68 ec1b f3bf f4c8 0374 a82d fcbf
00000370: 39ef a78f bbfd 00c0 3040 f917 b505 05c0
00000380: f3b6 03c5 1fd1 0a40 bd1a 1ede a73f 0740
00000390: ceeb 40e9 d35e 0240 142f 979f bc4f f33f
000003a0: db8a 98e1 8858 bbbf 0190 daed aa06 d03f
000003b0: 2976 9b80 a066 e23f 7398 204e a1f2 e13f
000003c0: 5071 1d7f 80d4 c4bf 88ae 4601 4fa3 e13f
000003d0: 9056 5e69 a51d e63f 4440 d668 f7ec f93f
000003e0: fa63 6a41 7b90 f83f a21b 69b9 06cb f63f
000003f0: 355b 7960 0718 f23f 2b45 0978 0584 e63f
00000400: 4f0e a8f0 11f0 e53f 2ca1 7845 6ec9 eb3f
00000410: beb0 32ed 047f f83f 4441 599e 6cbf de3f
00000420: 2653 cc47 6994 e93f 5d7e e829 f58f d63f
00000430: 8120 30b6 6111 e83f 1684 8b44 0a9f e73f
00000440: a5f0 6e84 7cca f23f 1c65 c3ef d20d fe3f
00000450: d0bc 4c7f f6c3 fc3f b81f 8db3 9ec1 0240
00000460: 2197 6833 7085 da3f 835f 38cc 441c cd3f
00000470: e9c6 6e34 0759 b63f b9aa f4fd b41d c73f
00000480: 4bcd 1f4a 4119 c83f 007a b116 dd1c db3f
00000490: 526f 31d0 1c09 cd3f d713 7a03 79ab d63f
000004a0: 11a7 2bcb b738 e23f b598 ccae c8e0 da3f
000004b0: caf7 6243 38d0 eb3f ddfa e2a3 a8e4 e03f
000004c0: 6295 70ee 0140 f13f d798 3473 f2b4 e63f
000004d0: 33e1 2217 f07a ee3f 76f4 0534 a873 ea3f
000004e0: 4826 38ca f597 e93f ac50 2f2d 6909 ee3f
000004f0: 32ab 1846 beeb ef3f b812 092f 9862 ec3f
00000500: 8de0 6449 475f ed3f 5237 5e63 da3a ea3f
00000510: aeef 49dc 30ff e83f 6760 632d f15e ea3f
00000520: cccf ed3c e658 f13f 379f 598c 3d77 f43f
00000530: 2a2f f00c 1d3c f23f 03d4 3ee5 6450 f03f
00000540: 8967 e9ea 4485 f4bf 125e 2d8d f198 f6bf
00000550: fd89 fc67 5b75 f5bf ffed e9e5 9dee f0bf
00000560: 5272 acaf 9de0 eebf ce32 9a9b 8020 edbf
00000570: 581b 8728 23de f1bf 0b8f fb86 4ca7 f2bf
00000580: 97bf 860f 0e64 ebbf 1a47 d44e 9adb e1bf
00000590: 8299 b4be ad9a e0bf 01b8 06c8 99dd d2bf
000005a0: f150 7403 94e3 cebf 0ac4 c7cd fbe6 7e3f
000005b0: d311 0caa bb9f d0bf df94 7835 4ddd cdbf
000005c0: 6bb2 3412 edc5 d4bf eb24 1865 2aa2 d5bf
000005d0: de0b b42a bbe7 adbf b64e f3ae 2b11 dabf
000005e0: 895e e2f4 e3a3 d0bf 05ed 6fd9 721e e3bf
000005f0: a5dc b4c9 018d c6bf 69d1 28f3 b337 c7bf
00000600: 5ed0 05a3 7683 96bf 6ee2 900d 936f c13f
00000610: e5d3 a801 a0b5 e13f cd12 e720 42f0 da3f
00000620: 40bd 0660 2ba8 dfbf 2683 354b fc6f e9bf
00000630: 4124 5623 3e94 e1bf 60bc 90e4 8791 e6bf
00000640: a4dc 1577 9b64 ddbf 03e2 3aac a9e1 d8bf
00000650: 6630 71e9 2022 d9bf 1803 302b 4892 e6bf
00000660: 6284 2535 d7de debf 5699 75eb 9227 d9bf
00000670: d3ac 2e00 73e9 ddbf 2126 3845 a5f8 debf
00000680: 49fd 566d 198f d8bf d55c 3ba5 7833 d8bf
00000690: 32e3 2726 1df0 c3bf a70d 0fec bc5f d7bf
000006a0: 2f27 5b98 1635 e2bf b8dd e1bd 00a5 debf
000006b0: 84f4 4394 1866 cebf 97da eaba 7ce4 d9bf
000006c0: cd24 e139 99f1 cbbf acda 24e9 b063 e0bf
000006d0: 7f29 a4bf 6046 e0bf 2197 e39a 14c0 dfbf
000006e0: 83c7 3f5c a839 c6bf 38f9 4f15 8cf7 c9bf
000006f0: 4548 d91d 0fb6 c8bf a68a 9dc6 b2b4 cabf
00000700: c309 2bf7 40ef f43f 0460 1974 6453 f43f
00000710: b984 e5f9 4c91 f03f 0466 9228 7f73 f13f
00000720: d00c 7018 6d63 f03f b794 dfed 3cc2 f13f
00000730: 9f27 841a 4cc6 f13f 1a14 7176 b27c f43f
00000740: ff45 bccf bc60 f13f 01c7 d039 5077 ee3f
00000750: dbfd 773e fbc9 e63f 990d a6de b61a e83f
00000760: 7907 6eac f218 e23f 5391 1873 8576 d33f
00000770: 4a1d 4a31 9738 e33f 67d6 26bf a601 df3f
00000780: 6bf8 eef9 c2b2 e03f da51 6981 b5d1 db3f
00000790: c375 b137 99dd b23f 78b1 17da ae61 c13f
000007a0: 4d30 de32 8fa4 c4bf e70e db2c 669b c2bf
000007b0: e620 9dfb 59a2 cfbf 7f93 178f 824d b6bf
000007c0: 078d f098 5206 c23f e292 bcd5 a49d b03f
000007d0: 0abe 690d 9184 bd3f 7fa6 4177 1324 e63f
000007e0: c8b8 2c24 68f9 c7bf 5ac5 f745 14d1 5b3f
000007f0: b1bb 4112 8e7a b43f f1dc ff32 ac07 d4bf

lstm.weight_hh_l0 f8 [256, 64]
0.05671373616639063 0.010940614485506497 -2.062190384569851 -0.08684769255763433 1.6841492144965402 0.39431183025709704 -1.411490350103949 -0.19239922043514748
-1.7964215433436117 -0.29438525248807007 1.145020814633554 0.01695360850599736 0.8341417502856844 -2.7995287821828048 1.1225107960942546 0.9487652109807111
-0.05497850326106161 -1.0012541659279788 -1.0749872973869548 1.8481063960911948 0.8015158171042435 0.900960071944811 -1.2351751934801551 1.345746239402914
0.7420768943198647 0.18109665294994814 2.846879527624246 0.47297714493161425 -0.8411154720666172 2.758940393080806 0.05786640852143369 -1.635371396791134
1.6412446055383896 -0.2184624995487968 -0.29213130381753266 0.25200828366298245 -1.161038786169588 -1.063900789300093 -1.0123754987755404 -0.7394111647939384
-2.146873417828937 -0.0666502900920131 1.3349760267557453 0.5167090761692994 1.4964904419597571 -0.7778997783048146 2.024146298730688 -1.3095913867995082
-2.179595676072678 1.4686548918621558 -3.848721109541883 0.8941764399835417 -2.137428149523736 1.8756102810684752 -1.5392143334559514 -2.569007311211477
0.44054146880520695 -1.6225369070843572 -3.8933022326891797 1.7282356618676873 1.4364334321978227 -1.8018228027855996 -1.8000682790323987 -2.973222146306912
0.741645008023871 -0.5566656455886689 -1.530166498343799 -2.0998650092929525 -0.05100012569765887 0.267552379226531 0.15323477245024897 -2.7932304511773203
-0.6795139781406178 -2.2989249521000894 0.11393790922984103 -0.43310242124325116 -1.1613145929780602 -0.8376772183903152 1.6402596262742553 -0.10227066084644387
-0.615074081948061 -1.6899706383381619 4.082160247276973 2.1865312592713386 0.3308219254329875 2.6144495498037736 -1.8560638320028973 1.799866571918722
3.379451711024974 1.3702663407440179 2.355255843013947 -3.7962599401728356 0.6749797990200307 -3.9067549491324027 0.9773911016311126 1.518838457994632
0.18630264171358688 -0.3748868399326599 -1.33309308516313 -0.25215809763743163 0.3232234092398079 1.6255570397133634 -1.7323921825984574 -1.741217380989886
-1.7057846468046536 0.6299509533093413 2.9253579111377115 5.926283980493404 -2.0894559311424006 0.43703476673222175 -0.4032158574779167 0.7126500079051189
-2.9707999670698624 0.4288474142787778 -3.6866649996788254 1.6045826784825388 -1.4063697161382527 -0.8698086303095894 2.429503675903545 -3.2764465635867883
-1.761798688516417 1.0778556345516108 1.4377642021237573 0.9290425037845326 0.9815214255063109 1.4701671938893808 0.826439001472254 -2.359573924954068
-0.36122503243234105 -1.002682661588112 -1.4757158126083358 0.5268405790785246 -0.6455651711498526 -1.2413422362239692 1.613206482300755 -0.5781547023702021
0.5104008407718045 0.6412428330879993 -0.16479970667650173 -1.7410430453761419 -2.67531002509728 0.44206703956290955 0.6080672951119747 -1.221502804748387
0.6343568103175982 0.1765728481709987 1.5437407021599892 -0.834754845452154 -0.5188684683527716 -0.892620921536241 -0.4764833575182629 -0.8232740878083613
-0.3873107166542164 -0.05449536122174614 0.8879051433669357 -1.6022167055084322 -1.6684841560953478 -0.6264384303241448 2.8594947996789912 -1.8448726756968876
-1.6123131586144073 0.9205473077133153 1.4624306057027583 -1.24003161328063 -0.37710574523626333 2.384141374622767 1.3379717847662675 -3.9347630703890992
-0.19864866921442825 -0.9886090974456267 -3.04681163960732 0.029195571240175147 -1.4608983473310457 0.10250248766039982 0.43615371356332683 -0.3116285511770257
1.2034495002729682 -2.504378965324604 0.0414449463912607 1.2904805351965827 0.5684394917335628 1.307141521000368 4.780423715655339 1.01960004369909
-0.46863623731008885 0.03668641040394587 2.1785153901258556 -0.2481685763053782 0.3276603659789074 -1.0484225798533384 -1.8174311301529942 0.3049996212889663
-1.0618200832107882 -1.6157783888302153 -3.0376161901261214 0.49403467445866706 1.5189243168953572 -1.4742777912478153 2.617018137208741 -1.686741317644843
-0.9332959284767739 0.17283169272993215 0.5117035863120556 -1.0867646931510306 -0.3217573290543577 0.11536847554844246 -1.7486779386047964 -0.9945105349971624
-1.6994149847271005 0.22434352552028586 -1.9979889502433879 2.518160607322471 0.3047199680792587 -1.6548633100793755 -2.7584966724331843 -0.40780853143506485
0.500520747787625 -0.12646332950809436 2.1212333907814522 0.6813957440444911 1.0666719972687864 -2.9359375820828233 0.26008808756019086 1.5840311393724942
-2.471704557560983 0.773530595932571 0.021006700963322165 1.0302236349481815 -1.8893451582296281 2.5757723500504226 2.0820547935097298 -1.0492747015602895
0.8555248211895912 3.2490978302473987 2.328548348863547 -2.9405214113505966 3.6641278121287044 0.7442147053713102 0.10658326801633192 -1.914336506367549
-0.44373170598338935 1.818317082575629 1.2905329101462473 -1.1267342086968473 -0.6767199856654745 -0.5402084895483895 0.3358966383406941 -3.553016219847002
1.8838396899287853 -1.1779753504226804 -3.392241067756311 2.415631310793432 -0.7750853708468982 0.9658623155488045 0.9000169750757193 1.0523859963455637
00000000: 2f22 2334 9509 ad3f a8a1 4e6b 0868 863f
00000010: 4cd3 1eac 5d7f 00c0 56a2 447f a63b b6bf
00000020: 348c 5d72 46f2 fa3f 2254 d8af 673c d93f
00000030: 8c0e c5e7 7695 f6bf c1bd c5a3 89a0 c8bf
00000040: bdd9 2784 24be fcbf 071a f73d 35d7 d2bf
00000050: 4072 8158 0152 f23f bf6c 5468 495c 913f
00000060: 1b91 360a 4ab1 ea3f a17c 9d58 6f65 06c0
00000070: a41b 6ae1 cdf5 f13f 89d4 17dc 485c ee3f
00000080: 1584 fa72 2426 acbf 924f 9a16 2305 f0bf
00000090: 4247 5ee1 2533 f1bf 77d7 2b03 d891 fd3f
000000a0: eb0f b67f 04a6 e93f 1427 8037 aad4 ec3f
000000b0: 6b3e 4d10 47c3 f3bf 4235 6f35 2d88 f53f
000000c0: fb12 070b 18bf e73f 34e4 ead4 2c2e c73f
000000d0: 7062 16c6 68c6 0640 ac26 4fee 4145 de3f
000000e0: 70f1 95fe 6aea eabf e029 3f57 4f12 0640
000000f0: b5e7 4578 aaa0 ad3f 1782 a032 7b2a fabf
00000100: 8061 18b4 8942 fa3f a374 7b45 94f6 cbbf
00000110: 652f 027f 47b2 d2bf 98d4 295a e720 d03f
00000120: 52c6 ff67 9d93 f2bf 43b8 83d5 bc05 f1bf
00000130: c033 a8a6 b032 f0bf 9bca 629a 41a9 e7bf
00000140: f4d0 71f8 cb2c 01c0 dbcf 3650 fe0f b1bf
00000150: 58c2 7dd2 0f5c f53f 4431 f678 e188 e03f
00000160: 5fe6 2ff6 9ff1 f73f 8550 6c13 8ee4 e8bf
00000170: 28f1 5a9d 7331 0040 b4d5 1619 16f4 f4bf
00000180: 9ce1 99db cf6f 01c0 b588 9a45 9c7f f73f
00000190: fd41 074b 2eca 0ec0 16a8 d2e8 179d ec3f
000001a0: b108 feed 7319 01c0 00b0 13ed 7f02 fe3f
000001b0: dda4 7b35 9fa0 f8bf 9cb4 86b4 538d 04c0
000001c0: f435 43d8 d431 dc3f 54af 8742 e9f5 f9bf
000001d0: 1fc0 16a4 7b25 0fc0 c70a f86f daa6 fb3f
000001e0: 1dbb 629f a1fb f63f 596b b225 44d4 fcbf
000001f0: b12d 5065 14cd fcbf 860c 51b1 28c9 07c0
00000200: ac88 d64f 8ebb e73f 9c85 d378 34d0 e1bf
00000210: ae24 bddd 8f7b f8bf 7a6c a706 86cc 00c0
00000220: 1e3a ed3f b01c aabf 1bad af03 941f d13f
00000230: 4054 2470 329d c33f bbfb ef34 8958 06c0
00000240: f33d 2919 94be e5bf 75d3 e9c3 3264 02c0
00000250: 57b2 eae9 082b bd3f 36b9 c337 f3b7 dbbf
00000260: 4755 539c be94 f2bf a2e6 3274 40ce eabf
00000270: f5c0 bce0 803e fa3f 3000 adf7 682e babf
00000280: 53b1 52d7 afae e3bf 69cd eda6 1e0a fbbf
00000290: ef57 dcd0 2154 1040 4b04 d219 047e 0140
000002a0: 2234 a2b9 2f2c d53f d297 8b86 64ea 0440
000002b0: a7da 1bfd 6fb2 fdbf 68df f8e3 40cc fc3f
000002c0: a91b 8afa 1d09 0b40 e4e1 0466 9cec f53f
000002d0: 9aa9 1b60 90d7 0240 0a42 1188 bd5e 0ec0
000002e0: cd0d 483c 6f99 e53f 1914 20bd 0841 0fc0
000002f0: 7b06 1db4 c946 ef3f 7be7 0f8e 294d f83f
00000300: c7bc a8d4 c3d8 c73f 388a 4d5f 25fe d7bf
00000310: 49ca 346a 5954 f5bf d98e b1b7 5b23 d0bf
00000320: 7124 ff3c b1af d43f 9e9f 3519 4802 fa3f
00000330: f5b3 81dd e0b7 fbbf da40 a9c1 06dc fbbf
00000340: e7b7 80d7 e44a fbbf 4c86 d1e6 8e28 e43f
00000350: 6573 6b0c 2267 0740 8b1c acc9 83b4 1740
00000360: ca84 d5ab 34b7 00c0 c61c 95ab 60f8 db3f
00000370: f328 46e2 49ce d9bf c54a ae63 07ce e63f
00000380: f92e ecc5 32c4 07c0 024c d36c 3c72 db3f
00000390: 606d 2738 4a7e 0dc0 2af8 fce2 5eac f93f
000003a0: a960 0e88 7d80 f6bf e9a9 9ee8 78d5 ebbf
000003b0: dc23 8c9f 9f6f 0340 2193 ad9d 2936 0ac0
000003c0: ec04 55d2 5330 fcbf 0056 c38c e53e f13f
000003d0: 78b2 3709 1501 f73f 1b27 4b58 b7ba ed3f
000003e0: d8ee db9e 9f68 ef3f ff82 1609 ce85 f73f
000003f0: 90ca 6e34 3072 ea3f 6c60 414b 68e0 02c0
00000400: cac7 3299 4f1e d7bf 4698 7cf9 fc0a f0bf
00000410: 627c 152f 889c f7bf 8722 2bc6 e0db e03f
00000420: edce 304a 78a8 e4bf 769b 3bad 89dc f3bf
00000430: c5d4 b299 b1cf f93f 1cad 564a 3e80 e2bf
00000440: dde7 de24 3455 e03f f608 9db0 0f85 e43f
00000450: a271 4823 2818 c5bf b219 cdf3 4fdb fbbf
00000460: 4ba1 43f1 0867 05c0 a7fb 638d d34a dc3f
00000470: 55bd 488b 4975 e33f 93dd 6586 468b f3bf
00000480: ffe2 49a7 a64c e43f 07c5 2068 f099 c63f
00000490: eb7f 5473 29b3 f83f 09a0 2ccb 4fb6 eabf
000004a0: 4406 d00b 929a e0bf 3727 37c0 5990 ecbf
000004b0: 0e45 680d b47e debf 22ff 58e6 4258 eabf
000004c0: 43e4 5ae3 b2c9 d8bf 9053 76e4 d0e6 abbf
000004d0: fdc1 160c b869 ec3f 9f37 f4fb ada2 f9bf
000004e0: c92d 4571 1cb2 fabf 9264 669b c80b e4bf
000004f0: 70a0 3dcf 3ee0 0640 316f f635 9984 fdbf
00000500: a88c f2e1 08cc f9bf d095 a1a0 1f75 ed3f
00000510: e79a 82a2 1d66 f73f 28be 9063 2bd7 f3bf
00000520: f319 bb22 8022 d8bf b65c 88b6 b812 0340
00000530: 80ab 281a 5568 f53f 48a3 860f 657a 0fc0
00000540: 00bf d5d0 516d c9bf 4ed3 c18b afa2 efbf
00000550: 107c e9c7 de5f 08c0 648a a89e 71e5 9d3f
00000560: 9f13 09f2 d65f f7bf 5893 4260 9a3d ba3f
00000570: e323 f243 f1e9 db3f 3288 f3e0 b8f1 d3bf
00000580: 85f5 6043 5441 f33f 3de0 c6d6 f708 04c0
00000590: fc7c aba2 4538 a53f d0b3 ecea cea5 f43f
000005a0: 3704 5804 a830 e23f 610b 3f3a 0dea f43f
000005b0: c90c ff64 271f 1340 1301 ab22 4850 f03f
000005c0: aee8 3dd8 22fe ddbf 7700 c9a9 8fc8 a23f
000005d0: c762 137a 996d 0140 7e30 90e7 fcc3 cfbf
000005e0: 7fc9 042f 63f8 d43f 85ba 4dc1 56c6 f0bf
000005f0: b4d4 2baa 3214 fdbf ac9f ae21 1d85 d33f
00000600: 7705 3a0e 37fd f0bf e2bf 9970 3ada f9bf
00000610: 6d22 93b7 094d 08c0 75f5 789c 439e df3f
00000620: 9ca2 a295 834d f83f 430e 2a4f a496 f7bf
00000630: 96cd 8234 a7ef 0440 768b c176 e4fc fabf
00000640: c086 496c 8fdd edbf 7462 fe51 591f c63f
00000650: 2099 0e33 e05f e03f 997f f85f 6363 f1bf
00000660: 8e5a 620d ac97 d4bf ba4d 78d5 c988 bd3f
00000670: 70b5 d8b7 95fa fbbf 8ae3 eac1 07d3 efbf
00000680: 87c3 5bc4 cd30 fbbf 76e8 96e4 49b7 cc3f
00000690: 1a09 f142 c3f7 ffbf 3f34 7463 3125 0440
000006a0: 4cab 552e 8880 d33f 7542 42f3 517a fabf
000006b0: 85cd 11b4 6611 06c0 edc6 62f4 8819 dabf
000006c0: 3cf4 5616 4404 e03f 70b5 304c f32f c0bf
000006d0: 59b7 4436 49f8 0040 e8bf 8972 fecd e53f
000006e0: 4941 fda7 1611 f13f f324 d1d7 cc7c 07c0
000006f0: f29c 8981 48a5 d03f 2b35 3709 3158 f93f
00000700: e0c9 000a 0dc6 03c0 898b 7f3c c3c0 e83f
00000710: 498b 89d6 c782 953f ecb2 3ac7 cb7b f03f
00000720: 343c 17fd c13a febf d342 ab88 2e9b 0440
00000730: a7d5 f457 0ca8 0040 b08b fb44 d4c9 f0bf
00000740: 0a9e fd96 7560 eb3f 4c56 d300 27fe 0940
00000750: 9b30 ecf4 dda0 0240 3482 f716 3086 07c0
00000760: 90a7 0b3e 2250 0d40 a8b4 985b 9bd0 e73f
00000770: a252 6e82 0a49 bb3f 4733 0651 1fa1 febf
00000780: 8b67 59ab 1966 dcbf 32ba 36a7 d317 fd3f
00000790: 61d6 37d6 05a6 f43f c832 1a73 1a07 f2bf
000007a0: 1d73 dfab b0a7 e5bf 7338 7450 6349 e1bf
000007b0: a19d 209d 547f d53f 0f34 93c4 936c 0cc0
000007c0: 246a 3216 3524 fe3f edf3 58ae fcd8 f2bf
000007d0: b44a f148 4f23 0bc0 4669 3882 3653 0340
000007e0: 9ba7 ecd5 7fcd e8bf 0112 3716 58e8 ee3f
000007f0: 2571 3966 f0cc ec3f 4129 d1b2 92d6 f03f

lstm.bias_ih_l0 f8 [256]
1.4835671454154986 -0.8915770602184143 1.4622949888749794 -1.3365419999236374 -0.1866399428695906 -0.4628651882920185 1.1879550407068338 -1.3568390182393621
1.831758204803903 0.5536799916087418 0.032737132832171376 -0.18014260019159642 -0.7934002524971694 -0.940810106842748 -1.7820122125121036 -0.6318752906798928
1.5296789565454592 0.9625921774167425 -0.2643970992050984 0.6285541469927511 -3.502746941034084 1.1418383241905568 -0.10407825064509255 -0.16952055565743038
1.3556657699601964 0.6763622659513461 0.3526444846118396 2.084388513025542 -0.7445698515251227 -0.15507348158584697 -0.43372992372989794 -0.19600843428296125
-1.7436668015167827 0.9799900974668274 -0.8012602772535078 0.7180534566539394 -0.14577063081267874 1.3549100728432955 0.9415544409401431 0.05108332438981638
-1.4874015234193012 -1.4186651594855475 0.34793218760406047 -0.7032013475998984 0.21511665466091065 0.841509397501854 1.6153564612850955 -1.6802135097663102
-2.2275966374905054 -0.23412898800115944 1.1279248558952282 -1.1293919449585292 -2.1324752926847435 0.287331776837802 -0.7525821836674924 -0.7349385440678391
1.1079341071421036 3.0490976215262156 -0.28416209392185354 -2.0208107124114485 1.0111320805290367 -0.19860228483497772 -0.11233293262715811 1.3544665095760322
-0.027546183274929987 0.5891044813326145 -0.2266279642979936 -0.29677322108234166 1.8223700798485736 0.9028509983997922 -0.8072501981858863 1.0445956850482856
0.38688375829005284 0.4431800040656139 1.0982851837036975 0.5889308467310889 0.9735517649508757 -0.8563295783190147 1.1135875750231754 -0.18071036599128307
-0.703587125933963 0.5995266079882045 -0.2834493298266179 -0.7938203431981421 0.018025907503613617 0.6161138622077401 1.5390163468448865 2.374802900032018
-0.5292343235887738 -1.1203678004226243 0.2921287074096726 -0.650240873853664 0.4425231384346142 0.2940113949005552 1.4121165301447778 -0.2542394245451715
0.25030035101007503 0.5690692651016821 -0.193358915028979 1.049321012552969 0.9051754198484346 -1.751586313069441 0.3666295870682926 -0.4103789648664132
0.512052072027593 -0.7709169965482009 0.29274076780229685 0.8210416975939071 0.2682736334734275 -0.7752937184535699 1.717124664965312 0.6620470053038262
0.41381162131593047 1.224833016049666 -0.1931901983727612 0.035348846524901445 0.017927772030576692 -0.584231143420132 0.8760054626753199 0.19886268492374937
0.11204927424108117 0.4573531176232666 -0.37188527444712605 1.0030716475186705 -0.4346248847980262 0.36779216261518094 -0.8147444761646772 -0.9166206653619926
-0.1701177950733752 0.058629614999781046 0.8697315928955821 -0.29573709911654683 -0.57052203529114 0.9696912679217796 0.07247104858058855 -1.7068341521002173
0.6916078522705303 1.272808263149731 -1.57660216892812 0.7649647109285794 -0.5469892635106325 -0.210948511896136 -0.8899470228276513 -0.4687133934259921
0.530038625484647 0.8656366769128148 -0.9629087872874221 -1.0870781126431317 0.725918491271072 -1.424227570342514 0.939748049045237 -0.8794243727611927
-0.8060765438120427 -0.20194835649321066 -0.650230356822255 -1.741457618404968 -0.02150036090203254 -2.295924836674284 0.7271977518465074 0.9714652889240845
-0.33637645914706965 2.060368875314343 -0.4651106347119988 -0.7480800778150839 1.1645433848489275 2.2070699338701854 -0.8145641243185036 -0.09966240327781935
-0.4203799042114416 -1.201901938351718 1.1363858983211055 -1.4608930791890757 0.3360535135633065 -1.5110356880482119 -0.8266139928024967 1.1180902221748874
-0.9653083074100255 -0.4889993786387394 -0.9100487444145091 0.17439150971960565 -0.12374522403501476 0.5326706364453803 0.9354226504108846 -0.9196222502503011
1.0223002668254961 0.028001813010714954 -1.9017490859249504 0.6629279984673305 1.941617628862948 -0.5240036616421374 -1.1121681076053695 1.211651299026445
-0.9095094963950776 -1.2642998537973655 -1.0710793304233883 0.19964119286968696 -0.352441289640096 -0.11885661381188957 1.1961916810849058 -0.5938475754140576
1.5269280183088056 0.5636540401872131 -0.796200574873453 -0.402613918779218 1.2275843028318287 -2.88143592629591 1.3159888939018443 -0.9475242732104057
-1.1203434992121188 1.309176590218266 -0.45079731540012213 -0.945805141100483 0.4589138917662875 0.594852100027104 0.5789356746723359 0.4318047119577162
0.44133971239906394 0.5958107489061791 0.37411195394523505 -1.9323603945673573 -0.9439968168026083 -1.0269717153795732 0.16119795702369194 -0.13656440891532645
-1.3161225057935395 0.5250355356189791 -0.3210462633818788 1.0940017376520108 1.7545658998208107 -1.7481360941746658 -0.49651003946033373 -0.7169168395911546
-1.4151827426391639 1.2640502389693962 0.6559547278006417 -0.17007838408338719 0.6414122511905858 -1.1740603602382924 0.8753145249559662 -0.09417284245613446
-0.23026779014052118 0.05336907465530227 0.10837629245165148 -0.31724533801364313 -0.5792739325652432 0.35245296267425386 -0.07547099094789927 -0.623936281084354
0.3673059979311382 -0.2683580396633732 0.01811295479370004 -0.846494699790639 -0.42674235751001416 -0.36219406512053354 -0.8191465287645007 -0.16971919214105247
00000000: 9eac 2fe7 b0bc f73f aa0f 709d cc87 ecbf
00000010: dd29 256e 8f65 f73f 7770 36dd 7962 f5bf
00000020: 1748 6051 d1e3 c7bf 54f3 8a4f 959f ddbf
00000030: 6744 0f25 dd01 f33f 9d65 94d4 9cb5 f5bf
00000040: baff fcb0 e14e fd3f 5a17 0d1a bfb7 e13f
00000050: 2e0a c2e5 ebc2 a03f 4f3b 38a8 e90e c7bf
00000060: aba1 23ed 8863 e9bf 0959 14cc 1d1b eebf
00000070: 4ffe dc3c 1f83 fcbf 3adc 9387 5238 e4bf
00000080: dbdf 3ba4 9079 f83f a87d 2c1c 8ecd ee3f
00000090: 0590 8fcf e1eb d0bf 5c2b 2396 1d1d e43f
000000a0: 533e 2f30 a005 0cc0 777c 3b43 f844 f23f
000000b0: 3edd be4a dfa4 babf 5732 467d d9b2 c5bf
000000c0: 3d92 2497 ceb0 f53f b54d 907a c2a4 e53f
000000d0: b672 212c ba91 d63f 7bd2 7ce2 d3ac 0040
000000e0: 506a 3c27 84d3 e7bf 4fac f1a5 72d9 c3bf
000000f0: e8da 6d27 3bc2 dbbf 5524 7eeb cd16 c9bf
00000100: 072b fa28 0fe6 fbbf 98c3 6031 145c ef3f
00000110: 1c68 cc97 eca3 e9bf 3478 233e 4bfa e63f
00000120: 3164 07ae 9ca8 c2bf 7d20 3e2f b6ad f53f
00000130: 30ba 67c7 3621 ee3f e71c 40ef 9727 aa3f
00000140: 21b4 318a 65cc f7bf d970 ff3c dab2 f6bf
00000150: 210d bf5d 8544 d63f ea3a ce1c a080 e6bf
00000160: 07f9 4b4a f188 cb3f 1182 b11d a5ed ea3f
00000170: dfa0 4904 80d8 f93f 1ce6 ab8f 27e2 fabf
00000180: 3d9c 952f 1ed2 01c0 e859 414d f0f7 cdbf
00000190: f6a5 06ef fa0b f23f 4867 bf49 fd11 f2bf
000001a0: 3cdf cc34 4f0f 01c0 eeac 27d2 a463 d23f
000001b0: c2ee 4c3b 2715 e8bf 4eeb 6ad6 9d84 e7bf
000001c0: d1c5 441d 19ba f13f c121 364b 8d64 0840
000001d0: 3e10 0a35 b62f d2bf 85b5 89ce 9e2a 00c0
000001e0: 3cf0 1cd5 982d f03f 3678 23b7 cc6b c9bf
000001f0: 05bd e5df d9c1 bcbf 5380 2213 e5ab f53f
00000200: 8589 2e11 1135 9cbf 1805 28a4 f1d9 e23f
00000210: 906c 8227 2502 cdbf 9f24 b81b 55fe d2bf
00000220: 5989 6287 6d28 fd3f c137 e9c6 27e4 ec3f
00000230: 99bb 1c5e fed4 e9bf 9f33 0df7 a9b6 f03f
00000240: ec65 4d18 b4c2 d83f 47fd eca9 0f5d dc3f
00000250: 0d05 1b7c 9392 f13f 8519 ca80 85d8 e23f
00000260: b9aa ed07 5627 ef3f d148 af49 0d67 ebbf
00000270: c34d 7f34 41d1 f13f 4389 fd6b 8421 c7bf
00000280: 74bc f825 c983 e6bf 4e84 cc6c 522f e33f
00000290: 956b 6ba8 0824 d2bf c0ef 9deb f966 e9bf
000002a0: 54c0 d52c 6275 923f 7f6c 196b 34b7 e33f
000002b0: b554 db9a cf9f f83f f5aa b0a9 98ff 0240
000002c0: bc80 f7d1 7cef e0bf f1e7 64c9 06ed f1bf
000002d0: e906 239b 3cb2 d23f 962a f7f2 c5ce e4bf
000002e0: 5c32 d391 4c52 dc3f 51f3 6f2b 15d1 d23f
000002f0: 1bce b180 0798 f63f af9f 716f 7545 d0bf
00000300: 79ff 70c3 eb04 d03f c3a7 58bf d035 e23f
00000310: ca41 3824 fcbf c8bf cfba 7ed4 04ca f03f
00000320: 0d8c 2c71 32f7 ec3f 4b12 ac5e 7f06 fcbf
00000330: 4513 8df1 db76 d73f 3153 4422 a643 dabf
00000340: 3ca4 e606 bb62 e03f b75c 031f 5aab e8bf
00000350: c4ac fac5 43bc d23f 4f2e fa3c f945 ea3f
00000360: 0470 892c 652b d13f 8fac b1c5 34cf e8bf
00000370: 43e5 72b6 5779 fb3f c13a 8633 7d2f e53f
00000380: 156d 10bd e37b da3f e5e8 2f81 ea98 f33f
00000390: fc99 f5d7 74ba c8bf 6032 8d77 3e19 a23f
000003a0: 19f2 3e6a a85b 923f b369 c982 05b2 e2bf
000003b0: e3d9 a99b 3c08 ec3f 7035 121c 5574 c93f
000003c0: 3bee 67e0 42af bc3f b898 ba02 4645 dd3f
000003d0: 2e52 e7e4 f7cc d7bf 5233 1adb 940c f03f
000003e0: fe0e 8fe4 e4d0 dbbf 7711 8a23 e889 d73f
000003f0: 842a f701 6312 eabf 1c29 92dc f454 edbf
00000400: 3865 277f 6bc6 c5bf 3294 006e b304 ae3f
00000410: b71a 7959 d7d4 eb3f bfd8 3a4c 5bed d2bf
00000420: 3621 676d b741 e2bf 2d1b 5efb b507 ef3f
00000430: fb79 8f6f 768d b23f 0f76 ef53 314f fbbf
00000440: 4b14 65ca a621 e63f 11e8 8432 6c5d f43f
00000450: 4595 2532 c339 f9bf f308 0146 977a e83f
00000460: 4552 c1a0 ef80 e1bf 36ec dd5f 5c00 cbbf
00000470: 59f4 c62d 727a ecbf 6b8e fd75 66ff ddbf
00000480: e458 4290 13f6 e03f 86e0 31b0 4bb3 eb3f
00000490: a5c6 cd16 26d0 eebf 96fe df04 ac64 f1bf
000004a0: f144 726a b93a e73f 15ec 4ad9 a2c9 f6bf
000004b0: 9021 2480 6a12 ee3f 7f11 0a95 3e24 ecbf
000004c0: 9ada 3709 61cb e9bf dd44 4f99 71d9 c9bf
000004d0: 3960 ade4 afce e4bf cdb5 e6a9 02dd fbbf
000004e0: 3ba9 b4cb 3004 96bf b6b8 3cd7 0d5e 02c0
000004f0: a2f9 3c38 3445 e73f ac19 a45f 3e16 ef3f
00000500: 9794 cb20 3187 d5bf 0a5f 49ad a27b 0040
00000510: 9307 4765 5fc4 ddbf 4f28 a0a1 45f0 e7bf
00000520: 4630 8b3e f8a1 f23f 9ca8 0f48 14a8 0140
00000530: d62b 4ec8 e810 eabf 3510 b8aa 7983 b9bf
00000540: d5f5 1e1d 81e7 dabf a283 e386 fd3a f3bf
00000550: b1cb cefa a22e f23f fa1d e16b d15f f7bf
00000560: 7475 9d98 e681 d53f 4818 f4c1 332d f8bf
00000570: 2416 3030 9f73 eabf 0a7f a392 b2e3 f13f
00000580: f642 5c3f cee3 eebf 1b22 c10c c44b dfbf
00000590: 76d6 608b 1e1f edbf 120f 7903 7652 c63f
000005a0: b03e 445a c4ad bfbf 3751 624a a30b e13f
000005b0: fb79 6e7b fbee ed3f 92f7 2fa4 8b6d edbf
000005c0: 3f52 4b86 575b f03f 8b5c 70dc 81ac 9c3f
000005d0: cced 1373 906d febf 35a3 20c7 b436 e53f
000005e0: d7da 94a5 dd10 ff3f 6397 b753 a3c4 e0bf
000005f0: bc1b 1dc9 70cb f1bf 8b97 f778 ec62 f33f
00000600: 9e62 cda8 b31a edbf 345b c67b 923a f4bf
00000610: c470 7914 2423 f1bf 5ca5 27b5 d78d c93f
00000620: e6e9 30e9 658e d6bf 0d41 3c15 636d bebf
00000630: 651c 60e3 9923 f33f edca 66a1 cc00 e3bf
00000640: f3b7 df12 4c6e f83f 5f98 9b32 7409 e23f
00000650: 8369 c4a0 797a e9bf 958d 842b 6dc4 d9bf
00000660: 3eee 1b70 2fa4 f33f e6ae 6747 2e0d 07c0
00000670: 7952 d35e 4a0e f53f 065b b36c 1e52 eebf
00000680: a06f 164e edec f1bf e7d1 fa26 63f2 f43f
00000690: e828 b1fb dcd9 dcbf a549 ad24 0944 eebf
000006a0: 123e 345f d85e dd3f bd58 7245 0709 e33f
000006b0: 7592 a61b a486 e23f 6c7e 073b b0a2 db3f
000006c0: 8985 cbeb e83e dc3f a908 25b4 e110 e33f
000006d0: 4332 cf43 73f1 d73f 0f0a acbb f2ea febf
000006e0: f23f f6cf 3835 eebf 7d8e b7e4 796e f0bf
000006f0: 82a4 cc78 22a2 c43f 0261 0b4b f17a c1bf
00000700: ec9a fe78 d60e f5bf 5e15 d752 17cd e03f
00000710: 5e9a 6ea0 058c d4bf 8fb8 4ff7 0781 f13f
00000720: de83 66b1 b312 fc3f 73ff 968d 5df8 fbbf
00000730: 158a 670b d2c6 dfbf abdc 7f95 fbf0 e6bf
00000740: 0ffb d7a8 96a4 f6bf 1ffe 4dbe 8c39 f43f
00000750: 4aee f1c4 94fd e43f b584 b2e4 20c5 c5bf
00000760: f2c0 43fc 7286 e43f 1c0e 2c84 f3c8 f2bf
00000770: f0c9 4c9b 9302 ec3f b93c 851e b61b b8bf
00000780: b6e4 fc39 6a79 cdbf f04c 86fc 3053 ab3f
00000790: d8d7 bd77 8cbe bb3f 99ee e463 bf4d d4bf
000007a0: 7e60 797c 6989 e2bf 541c 04df 968e d63f
000007b0: 14fe ea1d 1152 b3bf fb71 4138 49f7 e3bf
000007c0: d949 2f04 f181 d73f 5143 fe32 c72c d1bf
000007d0: 8937 e4d1 338c 923f fbd1 7a0d 7c16 ebbf
000007e0: 6bb3 542d bf4f dbbf 00df 1f04 302e d7bf
000007f0: 519d f5c7 7236 eabf 0ceb dfc5 5bb9 c5bf

lstm.bias_hh_l0 f8 [256]
1.4698759734117526 -0.7437113028722602 1.4268008997483919 -1.4510392442817 -0.029352047190116796 -0.5572248693022651 1.226094369067391 -1.4644226900476047
1.6865642405609678 0.5238913633881837 0.2078410207477828 -0.24531571949816064 -0.7925905532002181 -0.7665566579987919 -1.6305480333538933 -0.7378265849828329
1.6260033556591142 0.9766207713145619 -0.4379530246935705 0.5977718944426259 -3.4421537234227713 1.1181198478950853 -0.1156690145715985 -0.1700066166344125
1.4717582134263822 0.8028894561597811 0.3171034419263311 2.127902988251944 -0.9143885508850171 -0.20679116525875177 -0.3805501232194912 -0.18331470130604802
-1.814679820005667 1.0597085084356082 -0.798646017533659 0.7350785697597133 -0.16391188559535547 1.5751780988375963 0.7974954236395373 0.07121139569795237
-1.4474281005343606 -1.563623014829367 0.37150703160678417 -0.855075323592101 0.23804998877307812 0.8021035449456254 1.6391584585890584 -1.6037243741433316
-2.361330938223117 -0.43481737992506336 1.0374260508491464 -0.9552476918237999 -2.303729495408247 0.32802014253566275 -0.8644639315093272 -0.7190490186543262
0.9707091050917025 2.9151425600905165 -0.3620525049411789 -2.01808187766318 1.1902762990930704 -0.17700729851543573 -0.09383114424939608 1.3831570712282157
-0.1507507125603609 0.6898001360824848 -0.16448867670701325 -0.15169293779815446 1.8359658695195178 0.897920114753781 -0.8902007753257412 1.0267038608028327
0.35761214075827646 0.4006390962058116 1.0844659362194904 0.6336726560992224 1.1261640487767515 -0.8336131306080237 1.1397399026799215 0.017142320056271067
-0.5479975453980748 0.6168551683405301 -0.09255749771335194 -0.7573617764132834 -0.05463993288373057 0.6440143642934253 1.4794602649538269 2.41482488580129
-0.4681845045961589 -1.1762576602181947 0.4150756552227067 -0.7587390001220508 0.5886414664098868 0.10035748354839782 1.2902653243189721 -0.2979137743300227
0.2953376057011993 0.49636921164823666 -0.010334299979617285 0.9568689334952732 0.9496692589931414 -1.5996821026211758 0.30605611349556117 -0.41263249727608126
0.5537284890207343 -0.7655161302781356 0.1270915623560535 0.8455782327377592 0.4368716297083216 -0.8371790008508402 1.9137735160023375 0.5965128755650178
0.45481019938752487 1.2262709781048724 -0.18615710360900542 0.06582955917710778 0.005195936784490583 -0.3982449821881364 0.8808568039228785 0.00042365308437860986
0.1234452203861388 0.5495536203765239 -0.31179184178225444 1.1041923429904337 -0.28984520263860275 0.26909593077314004 -0.8195609039915586 -0.8216150637174765
-0.23032131751714652 0.14192257612038658 0.7492392090578822 -0.44985696322272556 -0.7599095951818869 1.0311578127883403 0.20094960545200255 -1.7765619007326485
0.7333100035690532 1.245921591368191 -1.5290477206811643 0.7948361896053754 -0.6201061322449919 -0.37573082738876634 -1.042048688562897 -0.35752332768445305
0.5276479874908344 0.7749455723815264 -0.9128727294575653 -1.155125963967213 0.507922460225158 -1.4195515263552398 1.1202361437326978 -1.000251332371178
-0.6492716245691833 -0.23198957429716602 -0.73401533938432 -1.8659857582346038 -0.15637033873387324 -2.1860197129636507 0.8695376519825012 1.0319423370827296
-0.3434971429363228 1.9367501086488828 -0.5363764812028583 -0.788755852031736 1.0149826800216188 2.1596275572565684 -0.7870066767658227 -0.030469263605540045
-0.4683892402061619 -1.0246171611872588 1.1044345453671942 -1.4222064460790296 0.4254199793702674 -1.5040883643682876 -0.6965482238453584 1.01629547267652
-1.004654778838897 -0.4109099775128315 -0.9975535932523607 0.3463868365962457 -0.013520321405162508 0.5238741531671057 0.9636551503679692 -0.7694114971670717
0.8543105806940184 -0.05497478155658378 -1.9263694848040016 0.6515756233176035 1.9319872617031046 -0.6160878906345997 -1.1169584584001617 1.1763438320426494
-0.9098910406274461 -1.2319197050289412 -0.9661030787020055 0.1723035970492601 -0.3436068382030997 -0.10145225125257096 1.238683430013929 -0.5820820506690702
1.549913372374701 0.5811349500115844 -0.6897850050911959 -0.4421443301418658 1.0597202185880539 -2.852980847694073 1.365152324831028 -0.9547859219845528
-1.0202807861851186 1.1319268158814504 -0.39787281648445005 -1.0124520150514387 0.6496573381163858 0.7800710898761949 0.64755434477827 0.5702875210244888
0.4561480095563519 0.7678911465120752 0.4075730925513065 -1.9509942221344578 -1.0935976951604953 -0.9848321255930438 0.15325289629371155 -0.13586655773429618
-1.329919043908087 0.46970920793743764 -0.29425217251483654 0.991702524242586 1.652266447992808 -1.7706644892313903 -0.4697919296142185 -0.8107847524796812
-1.4937199385601077 1.4821099873805743 0.4696154388506757 -0.1325584522901741 0.5446698149007989 -1.1806035942289617 0.9407237680628082 -0.19454074616554626
-0.18196816462458357 -0.1281893406383912 0.17472246096971766 -0.42465794449138083 -0.7246273541341136 0.39899143484985194 -0.10274457137983746 -0.728219703316028
0.2128788867823035 -0.2307110605698217 -0.06910999387668708 -0.9817085666205109 -0.3187713896211823 -0.3227705993917739 -0.6500589101750994 -0.2062416998085938
00000000: 9eac 2fab 9c84 f73f a20f 70a5 7bcc e7bf
00000010: da29 252e 2dd4 f63f 7670 36ed 7437 f7bf
00000020: ce40 028b 760e 9ebf ad79 c53f c9d4 e1bf
00000030: 6644 0f21 159e f33f 9c65 947c 466e f7bf
00000040: baff fcc8 2afc fa3f 5a17 0dd2 b7c3 e03f
00000050: 9182 70d9 889a ca3f 4b3b 3868 8166 cfbf
00000060: aba1 23dd e65c e9bf 0859 14d4 a187 e8bf
00000070: 51fe dc88 b916 fabf 38dc 937f 469c e7bf
00000080: dbdf 3b18 1c04 fa3f a77d 2c34 7a40 ef3f
00000090: 0790 8f1f 6c07 dcbf 5b2b 2386 f220 e33f
000000a0: 533e 2fe4 8789 0bc0 767c 3ba3 d1e3 f13f
000000b0: 38dd be0a 7c9c bdbf 5732 46dd c6c2 c5bf
000000c0: 3a92 2457 528c f73f b54d 903a 45b1 e93f
000000d0: ba72 213c 6c4b d43f 7ad2 7c00 f205 0140
000000e0: 566a 3cc7 ab42 edbf 49ac f105 2278 cabf
000000f0: e4da 6de7 ee5a d8bf 5d24 7e2b db76 c7bf
00000100: 092b fab4 ed08 fdbf cd61 b0e8 90f4 f03f
00000110: 1b68 cc17 828e e9bf 3478 237e c385 e73f
00000120: 3264 078e 10fb c4bf 7d20 3ef3 ed33 f93f
00000130: 30ba 671f 1585 e93f 740e a0f7 e83a b23f
00000140: 23b4 315e aa28 f7bf dd70 ff90 9904 f9bf
00000150: 210d bf6d c5c6 d73f e93a ceec c65c ebbf
00000160: 0bf9 4b0a 6c78 ce3f 1182 b10d d5aa e93f
00000170: e0a0 4938 fe39 fa3f 1ae6 abe3 daa8 f9bf
00000180: 3b9c 9579 01e4 02c0 ebac a046 0cd4 dbbf
00000190: f5a5 060f 4c99 f03f 7fce 7e9b 6391 eebf
000001a0: 3ddf ccba 096e 02c0 efac 2732 48fe d43f
000001b0: c0ee 4c43 b0a9 ebbf 51eb 6a16 7302 e7bf
000001c0: 968b 898a 0c10 ef3f c221 3643 3652 0740
000001d0: 4010 0a45 de2b d7bf 84b5 891c 0825 00c0
000001e0: 3df0 1c29 5f0b f33f 3478 23d7 2ca8 c6bf
000001f0: f7bc e55f 5105 b8bf 5380 224f 6921 f63f
00000200: 31d1 25a2 cc4b c3bf 1805 28bc d712 e63f
00000210: 976c 8207 f70d c5bf 4249 7097 ac6a c3bf
00000220: 5989 62bf 1d60 fd3f c237 e9f6 c2bb ec3f
00000230: 9dbb 1c56 867c ecbf 9f33 0d07 616d f03f
00000240: ed65 4d08 1ee3 d63f 46fd ec29 12a4 d93f
00000250: 0d05 1bf4 f859 f13f 8519 cae0 0b47 e43f
00000260: 63d5 f697 c404 f23f d048 af71 f5ac eabf
00000270: c44d 7fe8 5f3c f23f 0ab6 13a0 c18d 913f
00000280: 78bc f825 3289 e1bf 5084 cc0c 47bd e33f
00000290: 55ae ad21 d9b1 b7bf c0ef 9dc3 4e3c e8bf
000002a0: bd1f 95e9 c3f9 abbf 7a6c 1903 c49b e43f
000002b0: b654 db86 deab f73f f5aa b0b5 8f51 0340
000002c0: 7601 ef23 bcf6 ddbf f1e7 648d f3d1 f2bf
000002d0: e906 237b 9990 da3f 952a f702 9747 e8bf
000002e0: 2999 e9a0 26d6 e23f 52cd bf2d 07b1 b93f
000002f0: 1bce b140 eda4 f43f b19f 71ef 0411 d3bf
00000300: 7fff 70b3 cfe6 d23f 864f b15e 83c4 df3f
00000310: aa1d 8443 262a 85bf 8975 fd98 ab9e ee3f
00000320: 0d8c 2cc9 b063 ee3f 4b12 ac42 4c98 f9bf
00000330: 3e13 8d61 6c96 d33f 3353 4422 9268 dabf
00000340: 3ea4 e6ce 24b8 e13f b75c 03af 1b7f e8bf
00000350: 8659 f54b 8944 c03f 4e2e fa14 fa0e eb3f
00000360: 0a70 896c b4f5 db3f 90ac b19d 2bca eabf
00000370: 43e5 72fa d09e fe3f ba3a 862b a216 e33f
00000380: 186d 103d 9c1b dd3f e5e8 2f51 ce9e f33f
00000390: fd99 f5f7 fed3 c7bf 2a99 c6bb 34da b03f
000003a0: 71c8 fba8 5548 753f 54d3 9285 d87c d9bf
000003b0: e3d9 a99b fa2f ec3f e6dd 6a24 b8c3 3b3f
000003c0: 37ee 6720 1b9a bf3f 584c 5d79 f195 e13f
000003d0: 2752 e7c4 65f4 d3bf 5033 1a97 c5aa f13f
000003e0: 050f 8fe4 d28c d2bf 7911 8a23 de38 d13f
000003f0: 842a f7c9 d739 eabf 1b29 92ac ab4a eabf
00000400: 3665 273f 2b7b cdbf 0f25 80db 842a c23f
00000410: b71a 7981 c4f9 e73f c7d8 3adc 74ca dcbf
00000420: 3521 67ed 2d51 e8bf 910d af55 9f7f f03f
00000430: f7bc c777 b7b8 c93f 1076 ef2b cc6c fcbf
00000440: 4a14 658a 4677 e73f 10e8 847a 4bef f33f
00000450: 4695 25be fa76 f8bf f308 014e 4c6f e93f
00000460: 4252 c1d0 e8d7 e3bf 21f6 ee4f f90b d8bf
00000470: 317a e33e 3bac f0bf 6a8e fd85 a9e1 d6bf
00000480: e458 4208 7ee2 e03f 84e0 31a8 5acc e83f
00000490: a5c6 cdde 4036 edbf 95fe df5c 657b f2bf
000004a0: ee44 729a e640 e03f 15ec 4aa9 7bb6 f6bf
000004b0: c310 12bc 7cec f13f bf08 858a 0701 f0bf
000004c0: 95da 3749 d5c6 e4bf e744 4f99 d5b1 cdbf
000004d0: 3760 adbc 0d7d e7bf ceb5 e6e1 13db fdbf
000004e0: 2e95 7679 f103 c4bf b4b8 3ce7 f77c 01c0
000004f0: a1f9 3ca0 40d3 eb3f d40c d2f7 d582 f03f
00000500: 9594 cb70 dbfb d5bf 0cbe 92ae edfc fe3f
00000510: c583 a302 ff29 e1bf 5128 a0e9 7c3d e9bf
00000520: 4630 8b7a 5e3d f03f 9ca8 0fd0 ea46 0140
00000530: d72b 4ea0 282f e9bf e440 e0aa 5533 9fbf
00000540: d2f5 1edd 16fa ddbf a283 e3f6 d464 f0bf
00000550: afcb ce8e c3ab f13f fb1d e18b 5bc1 f6bf
00000560: 7175 9db8 143a db3f 4718 f4f5 be10 f8bf
00000570: 2216 3080 1f4a e6bf 0a7f a30a bf42 f03f
00000580: 7d21 aee3 1013 f0bf 1b22 c15c 594c dabf
00000590: 6ed6 6083 f5eb efbf 8487 bcb1 332b d63f
000005a0: 9bf5 21d2 8ab0 8bbf 3751 62ba 93c3 e03f
000005b0: fb79 6e53 43d6 ee3f 8ff7 2fdc 049f e8bf
000005c0: 7ba4 9624 8356 eb3f a4d1 c791 a725 acbf
000005d0: cced 13cf 68d2 febf 34a3 201f b5d9 e43f
000005e0: d7da 9479 6be9 fe3f 6497 b7f3 fdb6 e3bf
000005f0: bc1b 1dd5 0fdf f1bf 8997 f7e8 4dd2 f23f
00000600: 9e62 cdd0 d31d edbf 375b c66f f1b5 f3bf
00000610: 82e1 f200 51ea eebf 5fa5 2755 0b0e c63f
00000620: e8e9 3089 a7fd d5bf 0841 3c55 c6f8 b9bf
00000630: 631c 60b7 a5d1 f33f edca 6689 6aa0 e2bf
00000640: f4b7 dff6 71cc f83f 5f98 9b52 a898 e23f
00000650: 8369 c400 b812 e6bf 928d 84bb 174c dcbf
00000660: 3cee 1b30 9df4 f03f e6ae 679f e7d2 06c0
00000670: 7852 d3f6 a9d7 f53f 075b b334 9b8d eebf
00000680: a16f 16f2 1153 f0bf e4d1 fa4a 5f1c f23f
00000690: ec28 b18b bf76 d9bf c7a4 56e2 0033 f0bf
000006a0: 0f1f 9a2f fec9 e43f c058 72a5 57f6 e83f
000006b0: 7592 a6e3 c3b8 e43f 37bf 839d cb3f e23f
000006c0: 8f85 cb6b 8731 dd3f aa08 2574 9092 e83f
000006d0: 4332 cf73 ad15 da3f 0f0a acb7 4537 ffbf
000006e0: f81f fb4b 607f f1bf fb1c 6fa9 be83 efbf
000006f0: 85a4 cc78 ca9d c33f 0261 0b4b 1364 c1bf
00000700: eb9a fe30 5947 f5bf bc2a ae35 b70f de3f
00000710: 639a 6e10 07d5 d2bf 1571 9fee 06bc ef3f
00000720: df83 66f1 ae6f fa3f 73ff 9649 a454 fcbf
00000730: 138a 672b 1211 debf a8dc 7fdd f2f1 e9bf
00000740: 0dfb d7e0 46e6 f7bf 1dfe 4df6 b8b6 f73f
00000750: 9cdc e3e9 2d0e de3f ae84 b2e4 acf7 c0bf
00000760: f6c0 4364 ef6d e13f 1c0e 2c98 c0e3 f2bf
00000770: f0c9 4cbb 681a ee3f 639e 420f b6e6 c8bf
00000780: bde4 fc99 bb4a c7bf c26c de20 8268 c0bf
00000790: e4eb de3b 4e5d c63f 9eee e483 982d dbbf
000007a0: 7d60 79b4 2530 e7bf 531c 045f 1389 d93f
000007b0: 15fe eadd 774d babf fa71 4168 934d e7bf
000007c0: a093 5e88 9d3f cb3f a886 fca5 f087 cdbf
000007d0: 13f2 864b 31b1 b1bf f9d1 7a15 286a efbf
000007e0: 6fb3 541d c066 d4bf 02df 1f04 46a8 d4bf
000007f0: 519d f557 48cd e4bf 06eb dfc5 2066 cabf
