AIModels/with_0.1_0.1_1_scheduler/model_9344_110epoches.pth (torch, 388003 bytes, 10 tensors)

lstm.weight_ih_l0 f8 [256, 28]
0	0x3fd0943ca419c8a5	0.25904766107044913
1	0x3fd3048a335325ed	0.2971520901888585
2	0x3fd7747c7b179ef4	0.36648475666741764
3	0x3fd84bc0cc06896e	0.3796236030995236
4	0x3fdc0e71353d9bd8	0.4383814830711663
5	0x3fe0257b9020e289	0.5045755209931296
6	0x3fe3592c976e0b0f	0.6046355207075481
7	0x3fe466ea7304a370	0.6375629660079607
8	0x3fddd950e6229148	0.46638891672252614
9	0x3fe28b1d3e28e988	0.5794817174967628
10	0x3fe5354fa08bf638	0.662757695739578
11	0x3fe779802a341594	0.7335816215788094
12	0x3feff1e978a75b08	0.9982802731054514
13	0x3feae18d804aa098	0.840033293313371
14	0x3fefe32f868f374b	0.996482622920419
15	0x3ff06352fe82a8e7	1.024249071294031
16	0x3fec311d75776dfd	0.8809954923885354
17	0x3fe80a0673efd0fc	0.7512237800970349
18	0x3ff1209f7f004575	1.0704646073321247
19	0x3fe78ec586f8deba	0.7361781727003838
20	0x3feaa4baec58eaf4	0.832608663192643
21	0x3fe535a5c6757007	0.6627987743518141
22	0x3fd809f1d63cd47f	0.3756069748081429
23	0x3fd2bf355051347d	0.29292042582967054
24	0x3fc91243d41e933e	0.1958699022044587
25	0xbfa87d94dadf376b	-0.04783311054016689
26	0xbfb0be12b197b869	-0.06540028415449374
27	0xbfaa7cfcdfd850f2	-0.05173483116610268
28	0xbffbf8762a24d192	-1.7481595655673101
29	0xbff8e2fddd1bafb8	-1.555417884544097
30	0xbff7e3aef6a51c72	-1.493086780030151
31	0xbff3a8bf4dcbda1b	-1.2286980666082232
32	0xbff1f9f63db6e0c6	-1.1235258494107696
33	0xbfea3d96c9ac9a1f	-0.8200181902837506
34	0xbfe576b38eb08f07	-0.6707399165065632
35	0xbfe7594b96a82784	-0.7296503012196216
36	0xbfe9845d212c2343	-0.7974076888941471
37	0xbfe6bcd49da0fd78	-0.7105506018341847
38	0xbfeb3cbf99c2cdf5	-0.8511655810493141
39	0xbfe00ac7f790a6fb	-0.501316054845318
40	0xbfc7bc75aa888603	-0.18543883158513105
41	0xbfd2588ce811b7f2	-0.2866546884823712
42	0xbfc6c8078aff49c9	-0.17797941481565108
43	0x3f910b67ef461870	0.016645072917093662
44	0x3fb0265a651aa858	0.06308522194254473
45	0x3faedd40e6453624	0.06028178034703682
46	0x3fa5aab6fe463a73	0.042318075694414946
47	0x3fd23291da62c0c1	0.2843365318940521
48	0x3fc7f6ddd7fff308	0.18722127005448663
49	0x3fb94d70d1c786fe	0.0988379013211009
50	0x3fe2317bb6bc4ee7	0.5685404366544987
51	0x3fc0a2c843a2a558	0.12996772100931753
52	0x3fd6de7cfbf1dc3e	0.35732960323315754
53	0xbfb3d76e54e9c36b	-0.07750596592974339
54	0x3fbec2895eb5ef81	0.12015589296600916
55	0x3fd571dfe51d5464	0.3350753533789599
56	0xbfec5d0ff5715b09	-0.8863601487927052
57	0xbfe598ef8f57b7bc	-0.6749189185772972
58	0xbfe6cb9234f75f4d	-0.7123499903200156
59	0xbfe192fa57ec2906	-0.5491916386829707
60	0xbfe6b496155d6835	-0.7095442216189044
61	0xbfdf18b823fa15bb	-0.4858837462746483
62	0xbfe884746efff618	-0.7661688011136816
63	0xbfe5814533b8a512	-0.6720300684147864
64	0xbfdc4d8fd1c838bd	-0.4422339962628817
65	0xbfe92c7053eddd62	-0.7866746558419602
66	0xbfebd0c2b9b95573	-0.8692334773465248
67	0xbff117c1f9d29567	-1.0683002241797455
68	0xbff2c465850f89d6	-1.1729483792956805
69	0xbff2a40a6fef8fd2	-1.1650490162364702
70	0xbff624be698920e4	-1.3839706537710805
71	0xbff5ce28a18e61d9	-1.3628317175663283
72	0xbff326beb06651e8	-1.196959199010161
73	0xbff34b08e6c996fd	-1.2058190360198175
74	0xbff4d72401d982ba	-1.3025245735408775
75	0xbff3265f2c3db8e2	-1.196868107621008
76	0xbff70e790698cc31	-1.441033387917525
77	0xbfef73c77548ead2	-0.9828831949920078
78	0xbfe96cd4d07d3316	-0.7945350715686768
79	0xbfe00c33db5f5777	-0.5014895710580579
80	0xbfe3dd40b6b2698a	-0.6207583969401622
81	0xbfd3384fca0ec74a	-0.30031199199867287
82	0xbfb360316598d0ca	-0.07568653803247397
83	0x3fad38dfb87cccb2	0.057074538488813956
84	0xbfc6ccbef23801c5	-0.17812334849442216
85	0xbfda79cf38446de3	-0.41368465895513234
86	0x3fd2e8b72a441b7d	0.2954538262132969
87	0x3fc9633a2b0f0bbd	0.19834067442397255
88	0x3fcc06b14cbfa862	0.21895424125188173
89	0xbfe3d6ae514c8287	-0.619956167971467
90	0xbff7db065ae28339	-1.4909728574932173
91	0xbfea22541c1996f1	-0.8166904972865422
92	0xbfe3416e9defc539	-0.60173731657975
93	0xbfd6b069a7929f15	-0.3545173775150812
94	0xbfee85e01684230d	-0.9538422050255534
95	0xbfd0aea9350d364a	-0.26066045933552984
96	0xbff21cf47d6e465a	-1.1320691012992001
97	0xbffbcf882b398d72	-1.7381669701070135
98	0xbff69c59a5547869	-1.4131714304162648
99	0xbff6db2d8958fb21	-1.4285102238788527
100	0xbfe995fe7d029932	-0.7995598260502332
101	0xbfee4578c9a297bd	-0.9459804475961772
102	0xbfe8ba02a5a09510	-0.7727063403041559
103	0xbfd744cb3ee53881	-0.36357384817245736
104	0xbfe3488aa0519604	-0.6026051646446722
105	0xbfdb17414d836d54	-0.4232943779913587
106	0xbff446db02deeb73	-1.2672987091197825
107	0xbfe927fd234cd2a4	-0.7861314477400652
108	0xbff3a919b676f5c7	-1.2287842872168413
109	0xbfff149e1693cbdf	-1.942533577149099
110	0xc001dc61a1762e69	-2.232608090800387
111	0xc0068a6e55041709	-2.8175932542679942
112	0x400eb83a6f4a7548	3.839955205402166
113	0x40086ce0f348a59f	3.05316343369914
114	0x400299d1f881cca5	2.3251075186359054
115	0x3ff19277c38d3373	1.0982587469800051
116	0xbfd8c089f25b2d2b	-0.3867516390570979
117	0x3fb67400c377a8ad	0.08770756504205464
118	0x3fd6b7e865454ad2	0.3549748410197654
119	0x3fdd2556b563a0de	0.4554039737108847
120	0xbfd8a39c13f24fe4	-0.38498594234374495
121	0x3fd0b8eb03a18586	0.26128650049766866
122	0x3fe0bd37e0a71662	0.5230979335544357
123	0x3ff9b91f548dc878	1.607695894516409
124	0x3ff7db99b4c81a57	1.4911133825095442
125	0x3ff92a59c842e998	1.5728395292959245
126	0x3ff565e94809912d	1.3373806776008437
127	0x3ff28aac2e05caf2	1.1588556096800713
128	0x3fefd4f8b6bdca09	0.9947475022475497
129	0x3ff34a137b83bc4c	1.2055849861897228
130	0x3ffc69dc7b2201bf	1.7758450326801805
131	0x3fe4cd5a669f4914	0.6500675205554978
132	0x3fef007229e23d6f	0.9688044374505987
133	0x3fceec3d3e0d72b0	0.24158444909962418
134	0x3fe4323e86230cdb	0.6311333293782825
135	0x3fe37ed59afc39a9	0.6092327143722304
136	0x3ff02545bfaba754	1.009099720681168
137	0x3ffc420dc3f7f726	1.7661264090560933
138	0x3ff980fd4d94c2a6	1.5939915686141517
139	0x4001970976f7415c	2.1987485212522824
140	0x3fcd8d19d4f573ac	0.23086855791453098
141	0x3fbb9cf3023ef959	0.10786360554536624
142	0xbfad8d3393d89bb1	-0.05771790675890232
143	0x3fbc97b914a87057	0.11169010881752804
144	0x3fbec07bfb6b58f0	0.12012457740943083
145	0x3fd8d462e788cfa8	0.3879630337789828
146	0x3fcc0020bedd5eb8	0.2187539035755799
147	0x3fd70d4bab0d6365	0.3601864977295491
148	0x3fe3008029af605d	0.5938111128007325
149	0x3fdc07ac359bed58	0.4379683040167115
150	0x3fedc273c65e1728	0.9299868463865311
151	0x3fe298e4555955a5	0.5811635653469024
152	0x3ff351f3a1d60109	1.2075077363697935
153	0x3fe80e7ed9730361	0.7517694708877621
154	0x3ff0fa1bae272256	1.0610615542265314
155	0x3fecbee3ba8bf513	0.8983019488802334
156	0x3fed132eaad7f738	0.90859158866781
157	0x3fef96898d9397c1	0.9871261372725187
158	0x3ff1a9d0cc2a859a	1.1039588904608082
159	0x3feb0000a9bf77e3	0.8437503161801455
160	0x3fef303d5446c8d0	0.9746386190438674
161	0x3fe8c085b7f1e387	0.7735012619660758
162	0x3fe938f6fab44043	0.7882037064137041
163	0x3fea2ec7c667f5b7	0.8182104945296292
164	0x3ff2c83d4e141bf8	1.1738865899985722
165	0x3ff5538c95d7cccb	1.3328977444878543
166	0x3ff2872f1bc5b854	1.1580039105279143
167	0x3ff05825a2b8c3c4	1.0215202671354158
168	0xbff3ea82819853ff	-1.244753366690247
169	0xbff65c21dc555076	-1.3974932295577935
170	0xbff4687ff8313478	-1.275512666226204
171	0xbff0221de1bd7ed8	-1.0083292787530151
172	0xbfecaec8d27a2790	-0.8963359938509132
173	0xbfec79d6733b9f1c	-0.8898727656023513
174	0xbff22bc9e265b097	-1.1356905788079865
175	0xbff32883f0a643af	-1.1973914528245861
176	0xbfed4a6f29b24113	-0.9153362097149816
177	0xbfe24c711ef4aa9e	-0.5718312840084143
178	0xbfe266a08735c83d	-0.5750277176687245
179	0xbfd2d0fa1ed2a4a1	-0.2940049458507677
180	0xbfcc9ded846b8657	-0.22356957403012487
181	0x3f83dbcf0c497837	0.009696595728367991
182	0xbfcf8c8c81a3be0b	-0.24647671060618878
183	0xbfcf3d2339e5debb	-0.24405327155158382
184	0xbfd5fd7777f67965	-0.34359537806621737
185	0xbfd5b004a002a1d5	-0.3388682901955041
186	0xbfb26b4b651adb9a	-0.07194968431836771
187	0xbfdc0613f2c0b833	-0.43787096697167555
188	0xbfd3421ff6a56a26	-0.30091094099558047
189	0xbfe4c02c3e41c478	-0.6484585967974814
190	0xbfcd86108a8ef392	-0.23065382733866763
191	0xbfcc1fd43df6aa0f	-0.21972134614527802
192	0xbfaf98de9eb0be20	-0.06171317755831418
193	0x3fb4d7f9e6265ca1	0.0814205347909245
194	0x3fe21828652b5bb0	0.5654489494289603
195	0x3fda0fae0784c766	0.4072070191788185
196	0xbfe006a16cd9b2eb	-0.5008093954071148
197	0xbfe8e1f1b9da5794	-0.7775810842456274
198	0xbfdfab99bc4f7105	-0.494848665139003
199	0xbfe44d70885cc768	-0.6344530738190146
200	0xbfda15db241a6e10	-0.40758398557383746
201	0xbfd30db93f82aed1	-0.2977126236171275
202	0xbfd68905e537759b	-0.3521132219737752
203	0xbfe51be2c8fbc11e	-0.6596540379960378
204	0xbfdeb1d7b7a8f647	-0.47960465369746824
205	0xbfd89257c6878b32	-0.38393206012385683
206	0xbfdbfa8ac71591bf	-0.4371668762380771
207	0xbfddf946b58e5f55	-0.46833961229412086
208	0xbfd4f3711ea66894	-0.32735851281325634
209	0xbfd8f7c0e216a402	-0.3901216705222056
210	0xbfbc7311199e89d6	-0.11113077998610463
211	0xbfd88d7095e40495	-0.3836327995086973
212	0xbfe1a6d08b2a6b3a	-0.5516131132202198
213	0xbfe1a41dc9e4330a	-0.5512837355796318
214	0xbfcc1b3ba66f9d1d	-0.21958108546025637
215	0xbfdde5dfd7d5966d	-0.46715541913577036
216	0xbfcda8fceb0f617b	-0.2317196033243468
217	0xbfe27e5319c6ca0b	-0.5779204848716416
218	0xbfe2a01f80c6375e	-0.5820462718126966
219	0xbfe2fa5e5371258e	-0.5930625562406691
220	0xbfc71b25019dacb9	-0.18051588610555827
221	0xbfc567d20f42307b	-0.16723085160299775
222	0xbfc51878cf88b6b6	-0.16480932363031336
223	0xbfc661b1b3a87cd8	-0.1748563887822232
224	0x3ff7e60e0daf7a25	1.4936657461727318
225	0x3ff7de8201fdc830	1.491823203829437
226	0x3ff2b3d907200ebc	1.168908145745191
227	0x3ff3aa7e4e02cda4	1.2291243598273036
228	0x3ff12d420006bda3	1.073549270727974
229	0x3ff31e119076bd05	1.1948409693830524
230	0x3ff1961e12c492b8	1.099149773895233
231	0x3ff34361d2a5b70c	1.203950713006125
232	0x3feff6cc76c41b9f	0.9988767928742738
233	0x3fe7f9dd4f6d0404	0.7492510367666232
234	0x3fe19bc311192aa3	0.5502639135314279
235	0x3fe170af011b887c	0.5450053235656607
236	0x3fdd44cd1af58327	0.45732429154127135
237	0x3fc0a9d099e17413	0.1301823378916259
238	0x3fe070ce26357257	0.513770174623981
239	0x3fde5694f85b1407	0.4740345406865462
240	0x3fe2fe210ac8c185	0.5935216150883639
241	0x3fe05500ccce4e63	0.5103763580431856
242	0x3fb96bffa2dc0ca5	0.09930417753280325
243	0x3fbd92883a9fba2c	0.11551715308426286
244	0xbfc7a35e3ca70fde	-0.18467309915115399
245	0xbfcb5fa80cdd53cf	-0.21385670307304713
246	0xbfd1a0771ff4d52e	-0.2754190265726092
247	0xbfc5329048b69867	-0.16560557890369695
248	0x3fcec8992d33e815	0.2404967756954767
249	0x3fc5c5c65da06129	0.17009810992818444
250	0x3fca83e4593eda2a	0.20715002401057464
251	0x3feb18c3cfae07de	0.8467730575796357
252	0xbfd1a3d3a3c3f434	-0.2756241893073963
253	0xbfa108390b6693ac	-0.033265860215841186
254	0x3fb7c6e662a3d128	0.09287872226906713
255	0xbfd4f0798f7e53fb	-0.3271774197867782

lstm.weight_hh_l0 f8 [256, 64]
0	0xbfe3e14d4945ea38	-0.6212526732554755
1	0x3fd114e12f070aa9	0.2668993911030762
2	0xbfffdba99f706d1a	-1.9911285617916463
3	0x3fab7301f6093623	0.0536118138157742
4	0x3ffbd9faa7d6c588	1.7407175594529196
5	0x3fb93b2dacf1e858	0.09855924103058677
6	0xbff74f040f7e22d6	-1.4567909817871416
7	0xbfc610c9d301ba8d	-0.17238734057487584
8	0xbff3fa93c8f3c3f6	-1.248676094979826
9	0xbfad7887b3cde608	-0.05756019658924677
10	0x3ff14ad38951bdd1	1.0807681430850276
11	0x3fb791c5afdd946e	0.09206805747597155
12	0x3fe7532540649d04	0.7288995988537015
13	0xc005b2ab1b1d55d0	-2.712240421135654
14	0x3ff6b28cc217549b	1.418591268700118
15	0x3feb63f60ed6dd0e	0.8559522905187877
16	0x3fc4b98b50732977	0.16191235950675395
17	0xbff35f7528354982	-1.2108050890570614
18	0xbff627b76c2cd011	-1.384696409758366
19	0x3ffe735dfe6ab4d4	1.9031658113629435
20	0x3fed589e2090e272	0.9170675884298147
21	0x3fe3f6a152b992c3	0.6238562217445963
22	0xbff8749d94d3186f	-1.528470593782483
23	0x3ff76b4abc773d40	1.4636943208641497
24	0x3fe0781c76870b40	0.5146620097151313
25	0x3fe1d0fc51fabe50	0.5567609406625227
26	0x4006bb7eda527ff9	2.8415505463053674
27	0x3fb778302443c464	0.09167767415398625
28	0xbff625f639088d09	-1.3842680194728152
29	0x400578591a9f85d4	2.6837637023861394
30	0x3fb281d0926e88ea	0.07229331564898059
31	0xc000dfee1113e7e6	-2.109340794963816
32	0x3ffad58600746b9a	1.677129747177537
33	0xbfd5a1882c4c6ae4	-0.3379841263392065
34	0xbfb3ee0c490183e2	-0.07785107405062733
35	0x3fc046e35c75064c	0.12716333403118296
36	0xbff94610713cf213	-1.5796055243837415
37	0xbff34e9f5d0a2ecc	-1.2066949495664856
38	0xbff2bca337310e8d	-1.1710540920184116
39	0xbfdbba5f4d81dd60	-0.4332502610117981
40	0xc0019eebca350a55	-2.202598170989669
41	0x3fcd93b4b174e9b0	0.23107012429120521
42	0x3ff3c49852116088	1.235496826722768
43	0x3fe4a17e87e34b86	0.6447136549053176
44	0x3ff01f7c0a0349c4	1.0076866522909862
45	0xbfe7b1ce751aaf28	-0.7404548918907254
46	0x40011674c879ce97	2.1359649336025757
47	0xbff494e41b913267	-1.2863503529398714
48	0xc0085d0173dcf871	-3.0454129268464887
49	0x3ff93508c09e3802	1.5754478000776548
50	0xc00fe6b2f3c70c37	-3.9876460118407766
51	0x3feb4cc78ad40f32	0.8531224929324479
52	0xbfff776c0a7d4d84	-1.9666557702774705
53	0x3ffbed57b733041d	1.7454449802610335
54	0xbff9bc083ab82ae8	-1.60840628564136
55	0xc004da44d10e1081	-2.606576569787706
56	0x3fd150b761253b28	0.2705515335737112
57	0xbffcfe7ab66f3384	-1.8121287466376268
58	0xc00d808f593dbf13	-3.6877734157532216
59	0x3ffb12d1f6a35409	1.6920947679802814
60	0x3ff97d8b754cd9ea	1.593150575832278
61	0xc0016f45a627c504	-2.1793320637594906
62	0xc00081d2e206fb16	-2.0633905084972737
63	0xc009a18844a39c96	-3.203873192065269
64	0x3ff0b7a8bf565ab1	1.0448386644472232
65	0xbfe7a1e01e68aefd	-0.738510188476965
66	0xbff8ed8e7354c5a6	-1.55799717951991
67	0xbffe81123121207d	-1.9065114897839799
68	0x3f81cc44a59ed82d	0.008690391830764888
69	0x3fda75f4120bb07f	0.41344930422088305
70	0x3fc6071b7f1462c2	0.17209190087375786
71	0xc002bc0aa0eafd59	-2.3418171474183223
72	0xbfd4ad9288ea23aa	-0.32309401865546283
73	0xc004f041369a3558	-2.6173118844805394
74	0xbfb45129fcd29877	-0.07936346456935604
75	0xbfe844216e3ec820	-0.7583167222239844
76	0xbff4b4e09d867ac9	-1.294159522374388
77	0xbfd4b5ce90ac3764	-0.32359661224551517
78	0x3ffa345d88428ec6	1.6377845118194485
79	0xbfdddcc3e4e19b84	-0.46659943916022706
80	0xbfe98737d5d96060	-0.7977561165562399
81	0xbffa29708de86243	-1.6351171057959994
82	0x4010ced064b00f9a	4.201966832395465
83	0x4002e28a6d08e6c6	2.3606155889836797
84	0x3fe828f57d638697	0.7549998711585485
85	0x40091a3442e94b7e	3.1377949931570006
86	0xc002a3d0cfda7905	-2.329988120894202
87	0x3ffc3d5aa9e99c55	1.7649790417870197
88	0x400b371ae7411f40	3.4019067827938727
89	0x3ff81a446f3a06b3	1.5064129204551306
90	0x40022d653b78f8ec	2.272165741566928
91	0xc012026fd332891f	-4.502379703483057
92	0x3fe489d1e52d4d70	0.6418237186539226
93	0xc0103858aa473439	-4.055025730701396
94	0x3ff4907e7655f40f	1.2852768537989083
95	0x3ff67573e49c1f58	1.4036749773094552
96	0x3fbf8639981014c5	0.12314186060401074
97	0xbfe68907c49965bb	-0.7042273368671695
98	0xbff6ea00f0adfdf0	-1.4321298028515876
99	0xbfd6b9f88dbb4deb	-0.3551007637117595
100	0x3fdc4114f80dc247	0.4414722845458851
101	0x400047a2da668399	2.0349785864386374
102	0xbffa0a981c5e5881	-1.627586470427133
103	0xc00043ac519bd8bf	-2.033043515747607
104	0xbff85b553a1edf12	-1.5222980757079694
105	0x3fee3a04dd44cbf3	0.9445823976187725
106	0x4007799537e1b5e6	2.934366642547263
107	0x40155168f31cbfcf	5.329501913671222
108	0xc0004f76414b470a	-2.038799772367274
109	0x3fe791f087168cc3	0.7365648878516357
110	0xbfe7c2ba24a95a9a	-0.742520400623863
111	0x3feddc92e86909c8	0.9331755198730258
112	0xc00ac9ed0422cac8	-3.3485966036908827
113	0x3fd34da21c55a7f2	0.3016133572297114
114	0xc00efffdfc4af6f9	-3.874996157682173
115	0x3ff70adb1dfb0639	1.440150372611596
116	0xbff89e856eea2b16	-1.5387014706236122
117	0xbfe26d4d36fd74ee	-0.5758424829506603
118	0x400524dbf61acffb	2.642997667973757
119	0xc009f1daadcca90d	-3.2430928781587967
120	0xbffd96d600a46ee5	-1.8493251824465287
121	0x3ff4698a52eaf334	1.2757666815734412
122	0x3ff8f61781f6d1a9	1.5600810124134148
123	0x3ff262b5f1ddeda1	1.1490992973257124
124	0x3fe74f03fbde6dc1	0.728395454341289
125	0x3ff9291729fbbdc1	1.5725318565344966
126	0x3feef2675fd31eb7	0.9670903083396841
127	0xc00500b375566910	-2.625342289638077
128	0xbfe4730f20bd1d63	-0.639045299475509
129	0xbff91443100a69dc	-1.5674467684353806
130	0xbffcf1324ef00d90	-1.8088858684066942
131	0x3fd297ff2a736375	0.29052714486674996
132	0xbfd29443ca6ca653	-0.2902993656922252
133	0xbff2e8049752fd5b	-1.1816450034237593
134	0x3ff9609e87ff53c4	1.5860886871716824
135	0xbfe15fb38e65d723	-0.5429322987754158
136	0x3fd496a1be857fca	0.3216938362656917
137	0xbf8ef174fbda4bd1	-0.0151089801177359
138	0xbfd84153436976a2	-0.3789871366806016
139	0xbff344c3b022ca3a	-1.2042881851490521
140	0xc005d7107abff206	-2.7300119008853043
141	0x3fd3341999b31072	0.30005493173326336
142	0x3fe4e8809084fd41	0.6533816168447758
143	0xbff62f0f6195494f	-1.3864892780153075
144	0x3fe829ce6f599ef1	0.755103318672779
145	0x3fb105aa65e1ed52	0.06649270045629876
146	0x4000b1c653872487	2.086804058610656
147	0xbff6f9f39f71dc68	-1.4360233524619392
148	0xbfe26277b96314f4	-0.5745199795570941
149	0xbff3e323f3571aff	-1.242954206989168
150	0xbfe8b07451b72b8f	-0.7715398403173469
151	0xbfe1a6f058b46e83	-0.5516282780185552
152	0xbfd1b95166c46931	-0.27693591152059854
153	0xbfc1865ca19add18	-0.13691289797655126
154	0x3fd30f6612bb79d2	0.2978148634846579
155	0xbffd79454b02088c	-1.842107098579194
156	0xbffd26b6aa36ec46	-1.8219515465741707
157	0xbfdf2ea68130d002	-0.48722231498982194
158	0x4006fcca2ac4025b	2.8734324780528318
159	0xbff96c401c0defe6	-1.58892832716719
160	0xbffa1583a79bb0a5	-1.630252508849517
161	0x3fed12440859f549	0.9084797061074507
162	0x3ff9a6ef9cb69622	1.6032558557138903
163	0xbfeb696eacb6444d	-0.8566201566010335
164	0xbfe183a0c24508f3	-0.5473178667382669
165	0x40036f9d6ae32f54	2.429499468858845
166	0x3ff2523d19d917e6	1.1450778016746823
167	0xc00f5a195b9fddda	-3.9189936788713853
168	0xbfd8f0045abba4eb	-0.3896494756759938
169	0xbfec14c7556434f2	-0.8775364558984207
170	0xc005c17268a2ce31	-2.7194564985927845
171	0x3fcc9181589a121e	0.22319046808492343
172	0xbffbf75ef6bdefa8	-1.7478932989460905
173	0x3fa1b785704a9a39	0.034603280980537617
174	0x3fca231c79a44f91	0.2041965097383778
175	0xbfeefd40ff3725ae	-0.9684147820163866
176	0x3ff3f2bc1e7466bf	1.246761435474056
177	0xc005fe8f3d48dded	-2.7492966449606144
178	0x3fc2abb0b292fff1	0.1458645698494361
179	0x3ff5ce5fd0ab3fcc	1.3628843451624446
180	0x3fe0f0099fd1d248	0.5293014642216542
181	0x3ff4b81c19a7108e	1.2949486734442277
182	0x4012020f45195723	4.502011375114111
183	0x3ff2f651b5ad6185	1.1851365181701976
184	0xbfdca2dcdda7596b	-0.4474403538310045
185	0xbfd6817ff911c048	-0.3516540462796951
186	0x4000d6b413cf7e9e	2.104835657853825
187	0xbfd8137abf95e59e	-0.37618893346333404
188	0x3fa51606b2eb7982	0.04118367132263058
189	0xbff83a14dcd99e4c	-1.5141800524669575
190	0xbffd7db61dd82ff0	-1.8431912580299432
191	0x3fe1ecdf61b801ba	0.560165110451684
192	0xbfee1643302c7c82	-0.9402175846952476
193	0xbffd1a1623757969	-1.8188687691795968
194	0xc009ea3618fdd472	-3.2393609955275275
195	0x3fe14e57d6bde559	0.5408133691955
196	0x3ffabeab6a0bde00	1.6715501921115674
197	0xbffab10a6e86c1c4	-1.6682228391110678
198	0x4007f020b88ecd66	2.992249910219175
199	0xbff8139c6941831e	-1.5047878371771684
200	0xbff138925b548c28	-1.0763114516819403
201	0x3fe2745417017a59	0.5767002534228808
202	0x3fd626755425cb13	0.3460973092798422
203	0xbfebadb717ec3745	-0.8649554698219865
204	0xbfd689305c310e0e	-0.35212334635818443
205	0x3fe41806c84e0649	0.6279329216196824
206	0xbffefdc71d769298	-1.9369574690728424
207	0xbff1da3db4a9a307	-1.1157815034040952
208	0xbffcb1e2fcd1d5c0	-1.7934293628471636
209	0x3fd4dae01a57962c	0.3258590943572439
210	0xbffd91e695c870f3	-1.8481202937028314
211	0x4005e8f2c869d51b	2.7387443215653895
212	0x3fce36471bcf409d	0.23603142602815277
213	0xbffb1ed0f70784cf	-1.695023503263929
214	0xc0071d3eea941689	-2.889280159611023
215	0xbfe088831b1fa28c	-0.5166640786893182
216	0x3fe9aed579262a62	0.8025920263474513
217	0x3fe1273e355d7ab8	0.5360404054916534
218	0x4009f97d3145eda9	3.246820816942734
219	0x3fefd362028f3f63	0.9945535707465577
220	0x3ff3a35541f3dd2b	1.2273762298844513
221	0xc008308c13b0e100	-3.023704675517479
222	0x3fd8b042f3181c0a	0.3857581495253163
223	0x3ffcc6c0ea3d0a30	1.7985238218249258
224	0xc0051083a1f27dce	-2.633063569271804
225	0x3ff0ceae249e2fd4	1.0504590444934268
226	0xbfa530679d47f591	-0.041384923886634735
227	0x3fedebc92fd9bd28	0.9350324568348798
228	0xc000e6ded8e6dff2	-2.112729734941234
229	0x400aa867d464186b	3.3322292893454253
230	0x4005b875991bce97	2.7150680505381604
231	0xbff19dc834442c4b	-1.1010210076954248
232	0x3ff4bf806ce62fb4	1.2967533353685043
233	0x4008e197a7b21b0e	3.110152540324072
234	0x4004f2798c9db217	2.6183958993554017
235	0xc009fbb499c3e202	-3.2479030621436786
236	0x400a8fa6104b59d3	3.3201409600253355
237	0x3fdebf56fc92cb76	0.4804284540688778
238	0x3fba856da24b62af	0.10359845363871999
239	0xbffc6bdaed0a9e65	-1.7763318309243001
240	0xbfd5d5985d6f77e3	-0.3411618149237922
241	0x3ffb09209674cd51	1.6897283436963628
242	0x3ff37f0f820a1925	1.2185206489244333
243	0xbfeee6237b487387	-0.9655930908080429
244	0xbfcd83a1672e3e16	-0.23057954347721993
245	0xbfd6d809eb42f61b	-0.3569359586216209
246	0x3fdfb55ae24b8309	0.49544403170698154
247	0xc00b7d6e20088e0a	-3.436245203267167
248	0x3fff590e55f8af64	1.9592421873339498
249	0xbff455d7b669d918	-1.2709576726461531
250	0xc004c439de93feca	-2.595813502208192
251	0x4006a36e6ebbf82e	2.829800477134106
252	0xbfe39875a32a09d3	-0.6123607813645385
253	0x3fef4bf7bd4b3934	0.978023404802832
254	0x3fec85c50814778e	0.8913293035327443
255	0x3ff01afced41c84f	1.0065888660287958

lstm.bias_ih_l0 f8 [256]
0	0x3ff718dc924b5eff	1.4435697283387865
1	0xbfe79102aa7ec8eb	-0.7364514665589729
2	0x3ffbc5ab47df519f	1.7357590491784334
3	0xbff5598ad3ab4f18	-1.3343609112097905
4	0xbfc545938aca59c1	-0.1661858012855202
5	0xbfe1e3a8982fe6e2	-0.5590403530506729
6	0x3fefd21f2a2ce269	0.9943996261345777
7	0xbff665a7d3c56716	-1.3998182556446799
8	0x3ffafd3551e459d4	1.6868184279352265
9	0x3fdee54da8afa73c	0.4827455661130562
10	0xbfc758ce7eb8932e	-0.1823976629977095
11	0x3fa20e7f3445787a	0.03526685250356905
12	0xbfef6fce826e986a	-0.9823982760906464
13	0xbff260182a5666cc	-1.1484605459030943
14	0xbffd324e1a8d5dee	-1.8247815167613868
15	0xbfe83647abdaf807	-0.7566259724187611
16	0x3ff98bddbaa792ce	1.596647004241436
17	0x3ff00efd55602587	1.0036595664008432
18	0xbfbcb6e8b4f6e275	-0.11216597002101898
19	0x3fe7576ddb2dc29e	0.7294225006899813
20	0xc00ca7842a3b5d14	-3.581795053421624
21	0x3ff0c2905e085b64	1.0475009606504608
22	0x3f73918f0ed8fd7c	0.004777487583452863
23	0xbf9e53e20c9722c8	-0.029616863268332932
24	0x3ff8a4f0b7d88e80	1.540268629215376
25	0x3fe983298f423f5f	0.797261028101257
26	0x3fe0d151b903b6a8	0.5255516637386863
27	0x4000492d6829f688	2.035731138020143
28	0xbfe7e50d960e658e	-0.7467105799470788
29	0xbfa786070b8fc330	-0.04594442382938835
30	0xbfd32065e0248c2a	-0.29885241402570506
31	0xbfc4d8872cf2ef29	-0.16285791106008077
32	0xbff84d6c5be7db10	-1.5189021673265337
33	0x3ff106f36c0762b9	1.064196989047714
34	0xbfe7be5c225aa92b	-0.741987292383134
35	0x3fe529665de3289a	0.6613036950814319
36	0xbfbf55861e8f7d48	-0.12239874120813454
37	0x3ff49b86254b0c30	1.287969728161226
38	0x3fee4dfb868b58be	0.9470193507975393
39	0x3fbf6555e6ead0e1	0.1226400078547303
40	0xbff70a061a7d2a09	-1.439947226974825
41	0xbff5ce193d3d90c2	-1.3628170387465137
42	0x3fd7fe1d8146c586	0.37488496422437156
43	0xbfe817999861f1ce	-0.7528808571074082
44	0x3fba45a72c9a4bad	0.10262532080586935
45	0x3fec3e18424f13e8	0.8825799269767431
46	0x3ffa615b8f91425d	1.6487689598181057
47	0xbff9ed8121e1c664	-1.6204844783318544
48	0xc00224e70e63c1e4	-2.26801882974563
49	0xbfd0ad5f6cbcdc06	-0.26058183306616944
50	0x3ff19d315b162f64	1.100877147490757
51	0xbff3dd025faa1e61	-1.2414573418517636
52	0xc000689b701949f2	-2.051077724239115
53	0x3fcddd70cb02c31e	0.23332033074032038
54	0xbfe6e2ed0e692650	-0.7152009278735907
55	0xbfeb8fa4700dcc8e	-0.8612844646981033
56	0x3ff1ea99e47b7bf8	1.1197756695835306
57	0x40090ab8202392ba	3.1302340041023315
58	0xbfb1e266d69ad088	-0.06986086596845287
59	0xbfff46671febd079	-1.9546881911201395
60	0x3fedcf8188c01aed	0.9315803213983976
61	0xbfbb0363f1539c6b	-0.10552048341524915
62	0xbfa0eb3552d49caf	-0.03304449688067145
63	0x3ff5ea3b8f8189b2	1.3696857076362048
64	0x3fb49ba35424172a	0.08049984745238406
65	0x3fe4a157de29396e	0.6446952189524333
66	0xbfca40eb749cb2d6	-0.20510619348478681
67	0xbfd2594928f52c69	-0.2866995716073633
68	0x3ffca588482761b1	1.7904131716260105
69	0x3feb4055dd62f6c3	0.8516034435230825
70	0xbfedb8ae8932243e	-0.9287941627127407
71	0x3ff0707957614497	1.0274594701079758
72	0x3fdaefd4fb87362a	0.4208881813363826
73	0x3fd85bb1883b446e	0.3805965261827343
74	0x3ff2106a49ca8e6f	1.1290076143713141
75	0x3fe1423ab5a6861b	0.5393346355305683
76	0x3ff11f406701d9bf	1.07012977826308
77	0xbfe9d1e0cc0282b7	-0.806869886833815
78	0x3ff28af10b621b9c	1.1589212841661043
79	0xbfc17d783e0a4547	-0.13664153127005305
80	0xbfe55c00de73909e	-0.6674808830980685
81	0x3fe05086d88a88ef	0.5098299245185255
82	0xbfd17c28d3e4b5e4	-0.2732030934592713
83	0xbfe8a6f01a1e5dde	-0.7703781614426892
84	0xbf90ef05be21a4aa	-0.0165367982193955
85	0x3fe55873d1c3061c	0.6670474144850149
86	0x3ffa8dd23f7b990b	1.6596243362233192
87	0x400271bc8f1ad906	2.3055354290073664
88	0xbfdbf306a33165d6	-0.4367081254655124
89	0xbff25c1e13b7f569	-1.1474896211869583
90	0x3fd7f6894d762cbf	0.37442238392459254
91	0xbfe414947ced7379	-0.6275122108450965
92	0x3fde110c7f643946	0.469790577321778
93	0x3fd2bda68c76705e	0.29282535283141964
94	0x3ff7cc2035ac51c8	1.487335405026089
95	0xbfcc1cde436771a0	-0.21963098803724979
96	0x3fd0168112e86306	0.25137354704342874
97	0x3fe07700b57814df	0.5145267051999801
98	0xbfb860e81633bc1a	-0.09522867719691455
99	0x3ff2282629279377	1.1348020179368328
100	0x3fecaec79a69a2d3	0.8963354125854387
101	0xbffabe325ca544bd	-1.671434747597501
102	0x3fdb6441908c9fea	0.4279941474546819
103	0xbfd8b21942be61c0	-0.38587028043687255
104	0x3fe4cffc87c3a3cf	0.6503889705319298
105	0xbfe8a6931b5ddbaf	-0.7703338179115827
106	0x3fd5345f9a71e9cf	0.33132162172810536
107	0x3feb0a400c9a3f51	0.8450012441771638
108	0x3fd4d6d7d6db1861	0.3256129835321016
109	0xbfeae82e4e418fcc	-0.8408423927726232
110	0x3ffcb20aaca9312e	1.7934672112051646
111	0x3fe3893aa4166914	0.6105015950045378
112	0x3fd67a3cee5909cc	0.3512108161559382
113	0x3ff1d5d1e12b2860	1.1147021098754735
114	0xbfc6720c04d81798	-0.1753554366734391
115	0x3fa7b824f4478135	0.04632678491521106
116	0x3fa694c140d3de58	0.044103659785773075
117	0xbfe4a67e80daebdc	-0.645323993368375
118	0x3fed2e3a48fb701d	0.9118930268700783
119	0x3fc7bf7efc6d18d9	0.1855314953374492
120	0x3fc3a9fce5b0663c	0.15362511840139514
121	0x3fd945b0d898fe66	0.394878589173436
122	0xbfd5267b8de38cb0	-0.330473793567033
123	0x3fef9b328f16705a	0.9876950068169308
124	0xbfe0a2a238732d4c	-0.5198527433907798
125	0x3fd5b2d533e44919	0.3390400892977979
126	0xbfea3e133bc431dc	-0.8200775306045744
127	0xbfed3fa00a005c52	-0.9140167422618879
128	0xbfd28be154ba30ad	-0.2897876098074999
129	0x3f95b7c948a81d8c	0.021208901462185945
130	0x3ff0e7df728ce47d	1.0566095804809088
131	0xbfd83240e7bc189a	-0.37806723242136686
132	0xbfe19cae6d2c1762	-0.5503761417646553
133	0x3fef0ec619e7a0a3	0.9705534463837647
134	0x3fbf460fcf0ec9fb	0.12216280751344037
135	0xbffc5fa62f1e123a	-1.773351844837761
136	0x3fe6831a190d5d7d	0.7035036553669866
137	0x3ff37af43a7bdc03	1.2175180706524322
138	0xbffb3ca529d3a5a7	-1.7023059495789796
139	0x3fe973776a39a2ec	0.7953450274190721
140	0xbfe3eebc8c853eb2	-0.6228926415005474
141	0xbfc65cc469ac4a61	-0.1747060314160818
142	0xbfec976d8aa7c3c7	-0.893484850703424
143	0xbfdce38f9493b910	-0.45138921269871535
144	0x3fdffd5a27f2c81f	0.4998383894081843
145	0x3fea5aa30d6da084	0.8235640775938156
146	0xbfeec59237583c3c	-0.9616175728750771
147	0xbff0d40653713aed	-1.0517638453927092
148	0x3fe72fc369a80c97	0.724580484733809
149	0xbff859b681a64ad5	-1.521902567332906
150	0x3fedcd1ff0105dae	0.931289643168318
151	0xbfeb3300ec0d04d0	-0.8499760256164794
152	0xbfe4b29606a034f2	-0.6468000535402594
153	0xbfc47e63e8e3d488	-0.1601071250112549
154	0xbfe19637b0e0f0e0	-0.549587102380908
155	0xbffc1b54802b28f2	-1.7566723829827962
156	0x3fc48b2bb0abead8	0.1604971516279281
157	0xc003303504a2c2a9	-2.3985386240168123
158	0x3fe700534f0fea2e	0.7187897247488928
159	0x3ff01f3d0b9d5b21	1.0076265767763248
160	0xbfdb4387f82a4c61	-0.42599677309880774
161	0x3fff66724fea5c59	1.9625113603304014
162	0xbfe3015d0bcec163	-0.5939164381616532
163	0xbfedede740d075cb	-0.9352909341720815
164	0x3ff3da4cb8d15a8d	1.2407958239979593
165	0x40015cb9213dbcc4	2.170274982163024
166	0xbfeb0611087f1c4e	-0.8444905439327017
167	0xbfbdb8cc342b9985	-0.11610103868188133
168	0xbfd871830b0dae79	-0.38192821578443376
169	0xbff369751d00a206	-1.2132464535626482
170	0x3ff2b192890829dc	1.168352637558761
171	0xbff6c2cfdc81b800	-1.422561513285018
172	0x3fda34ffe85c374d	0.40948484126498813
173	0xbff780acb19ef782	-1.4689146936720765
174	0xbfeaa27ce94995ae	-0.832334952964336
175	0x3ff23a0c83ffc829	1.1391720920769421
176	0xbff20659245f7cc0	-1.126549856264134
177	0xbfdf081d0a419233	-0.48487020494056593
178	0xbfebf9e358dd15ce	-0.8742539153687916
179	0x3fcd700259b77553	0.22998074894614237
180	0xbfcb45c1a9d679ef	-0.21306629937039598
181	0x3fda3a85ea9730c0	0.40982196721303055
182	0x3fede9d8fac8c136	0.9347958467606421
183	0xbfede254bee5495d	-0.9338783005171468
184	0x3ff0cae25741442c	1.0495322616955134
185	0x3fba6c24fd8c90e9	0.10321265401995884
186	0xbfffff1e099a4220	-1.9997845053768586
187	0x3fe4f78b6a1952b1	0.6552178451771252
188	0x3fff007033b4ab28	1.9376070041423166
189	0xbfd55a62002b3680	-0.33364152924045953
190	0xbff1a4b422a77219	-1.1027108529734788
191	0x3ff349e9d441a85c	1.2055452624577105
192	0xbfed790e8e5fe73d	-0.9210274487261142
193	0xbff459e09404ef49	-1.2719426900866486
194	0xbff1e1ebc583d764	-1.1176564898900887
195	0x3fca8766fc218e35	0.20725714980209067
196	0xbfd58316d2662659	-0.3361260466268497
197	0xbfc4dd5107bfe617	-0.1630040443267695
198	0x3ff39d371014f685	1.2258825901220984
199	0xbfe6782809cb7753	-0.7021675292305453
200	0x3ff817b9318db0b5	1.5057918487246245
201	0x3fe0ccfd58d79138	0.5250231490322568
202	0xbfed4e65ff7443b5	-0.915820120748427
203	0xbfdc952c1afa1342	-0.4466047538228858
204	0x3ff1dcadad10d2c9	1.1163765678767723
205	0xc00845f7ad96b725	-3.0341638146991436
206	0x3ff44aac752a6102	1.2682308747080815
207	0xbfe80cdad6840cd0	-0.7515691938173408
208	0xbff0564edcff50a4	-1.0210713036258676
209	0x3ff66c5bb8e1db22	1.401454660602845
210	0xbfe218396e7b0a3a	-0.5654570730042174
211	0xbfeeb167b55c49fd	-0.9591558973500579
212	0x3fdd11b8d1ab6402	0.45420666194473835
213	0x3fe5a4432c5043f3	0.676301561879994
214	0x3fe0b5898b8a1c8e	0.5221603131657433
215	0x3fd8e657bad3968d	0.3890590023496337
216	0x3fd9d5e2bc214a65	0.4036795460898815
217	0x3fe512e5a15ce1b2	0.6585567618959003
218	0x3fd69f7c2363822b	0.3534841867058584
219	0xbfff1f807a7d0329	-1.9451908859920854
220	0xbff04853f41b4e64	-1.0176581893364522
221	0xbff11a54df1421d1	-1.0689285959252752
222	0x3fca88460492e304	0.2072837374050992
223	0xbfc11667825d94ad	-0.1334962259817635
224	0xbff4869f07c24ff4	-1.282866506870957
225	0x3fe66ad71c71a220	0.7005420260948689
226	0xbfcb4dfb86af7f59	-0.21331733776514275
227	0x3ff2ed12c41623b7	1.182879224741766
228	0x3ffe47753ba8c454	1.8924457865180289
229	0xbffb49838f56207e	-1.7054477309302736
230	0xbfe36ed7f7e8e7d3	-0.6072807161319765
231	0xbfe78b9610a75373	-0.7357893300310095
232	0xbff5dd961baaefa5	-1.3665982323427468
233	0x3ff14acab2d0c0b7	1.0807597146013401
234	0x3fea4ea081b0386b	0.8220980198837088
235	0xbfbed86f634897db	-0.12049003766932691
236	0x3fe9e9f49078821a	0.8098090001768157
237	0xbff1b40a82f3b3be	-1.1064553370772354
238	0x3feebf179d27273c	0.9608266896623046
239	0xbfc711b551cba60d	-0.18022791379853267
240	0xbfd07d6ea20cefc3	-0.2576557714962712
241	0x3fa42f24fab9ec1b	0.03942218361495283
242	0x3fd10cae7157788c	0.26639901226543183
243	0xbfd4315202593167	-0.31551027516686364
244	0xbfe54b733bb70566	-0.6654602209384108
245	0x3fd6638b3a3d1be2	0.3498256748902674
246	0xbfc6c689fbc4da37	-0.177933929380474
247	0xbfe5ef8ec92a0a8d	-0.6854928902615299
248	0x3fe083104000a792	0.5159989595460834
249	0xbfc40588b0332886	-0.15641888240344687
250	0x3fadbf5f32e83864	0.05810067650246323
251	0xbfed1ead3f0d19f4	-0.9099947196453386
252	0xbfd589c5c2c961b9	-0.33653396627553495
253	0xbfdd7ebc0ada8def	-0.4608602624886932
254	0xbfeb8d44fd7e6eea	-0.8609948111584036
255	0xbfc727e5c29d920d	-0.18090507509909096

lstm.bias_hh_l0 f8 [256]
0	0x3ff6e0c8564b5eff	1.4298785563350405
1	0xbfe2d5b1b27ec8e3	-0.5885857092128187
2	0x3ffb344907df519c	1.7002649600518458
3	0xbff72e85e3ab4f17	-1.448858155567853
4	0xbf823910aca59c06	-0.008897905606046318
5	0xbfe4e8a7302fe6e1	-0.6534000340609191
6	0x3ff0854791167138	1.032538954495136
7	0xbff81e517bc56715	-1.5074019274529225
8	0x3ff8aa7e69e459d4	1.5416244636922913
9	0x3fdcfd3f18afa73c	0.452956937892498
10	0xbf7de013d71265b1	-0.0072937750820982064
11	0xbf9e9fbf97750edd	-0.02990626680299512
12	0xbfef692c726e986a	-0.9815885767936952
13	0xbfef2cb45caccd78	-0.9742070970591348
14	0xbffac5e8668d5df0	-1.6733173376031765
15	0xbfeb9a3ba3daf805	-0.8625772667217012
16	0x3ffb16692ea792ce	1.692971403355091
17	0x3ff048736160258a	1.0176881602986634
18	0xbfd249447d3db89e	-0.285721895509491
19	0x3fe65b42cb2dc29d	0.698640248139856
20	0xc00c2b6bde3b5d14	-3.521201835810311
21	0x3ff06169be085b63	1.0237824843549894
22	0xbf7be83cf127028d	-0.0068132763430531875
23	0xbf9ed34d0c9722d0	-0.030102924245315077
24	0x3ffa807477d88e7d	1.6563610726815619
25	0x3fed8fac4f423f5f	0.923788218309692
26	0x3fdf5c5582076d57	0.490010621053178
27	0x4000a24b8629f687	2.079245613246545
28	0xbfed5435360e6594	-0.9165292793069733
29	0xbfb9006245c7e18b	-0.09766210750229314
30	0xbfcf723340491845	-0.24567261351529815
31	0xbfc338946cf2ef32	-0.15016417808316757
32	0xbff9704ae7e7db12	-1.5899151858154181
33	0x3ff24d7a3c0762bc	1.1439154000164953
34	0xbfe7a8f1a25aa92a	-0.7393730326632852
35	0x3fe5b4de9de3289a	0.6783288081872059
36	0xbfc1fd36ef47bea7	-0.14053999599081132
37	0x3ff821bde94b0c30	1.5082377541555267
38	0x3fe9b1d9de8b58be	0.8029603334969335
39	0x3fc246397375686e	0.1427680791628662
40	0xbff6664aee7d2a0b	-1.3999738040898844
41	0xbff81fd8913d90c6	-1.5077748940903333
42	0x3fd9805d9146c586	0.39845980822709526
43	0xbfecf3c06861f1cd	-0.9047548330996108
44	0x3fc0124e564d25d9	0.12555865491803678
45	0x3feafb48324f13e8	0.8431740744205145
46	0x3ffac2d9c391425e	1.6725709571220686
47	0xbff8b43475e1c662	-1.5439953427088757
48	0xc00336ca5863c1e2	-2.401753130478242
49	0xbfdd85738cbcdc00	-0.46127022499007353
50	0x3ff02a827b162f63	1.0103783424446753
51	0xbff113b6e3aa1e59	-1.0673130887170343
52	0xc001c755f61949f3	-2.2223319269626187
53	0x3fd1895bc581618f	0.2740086964381811
54	0xbfea77761669264e	-0.8270826757154255
55	0xbfeb0d79b00dcc91	-0.8453949392845904
56	0x3fef710e18f6f7d1	0.9825506675331274
57	0x4007f861182392bb	2.9962789426666325
58	0xbfc2e9838b4d684b	-0.14775127698777832
59	0xbfff3b39bbebd078	-1.9519593563718711
60	0x3ff1c58718600d6d	1.110724539962429
61	0xbfb57c2431539c61	-0.08392549709570708
62	0xbf8dc8914b52727b	-0.014542708502909498
63	0x3ff65fbfcb8189b2	1.3983762692883883
64	0xbfa5dd6357b7d1ca	-0.042704681833047056
65	0x3fe7da3df629396e	0.7453908737023036
66	0xbfc24cbd549cb2dd	-0.14296690589380648
67	0xbfc22094b1ea58e1	-0.1416192883231764
68	0x3ffcdd38802761b1	1.8040089612969548
69	0x3feb17f10d62f6c4	0.8466725598770712
70	0xbff0301b4099121c	-1.0117447398525945
71	0x3ff0273067614497	1.009567645862523
72	0x3fd9103eeb87362b	0.39161656380460624
73	0x3fd5a2b4083b446d	0.338055618322932
74	0x3ff1d7cfc1ca8e6f	1.115188366887107
75	0x3fe2b0c115a6861b	0.5840764448987018
76	0x3ff39059fb01d9c2	1.222742062088955
77	0xbfe917c8f40282b6	-0.784153439122824
78	0x3ff2f60fbf621b9d	1.1850736118228504
79	0x3faf571187d6eb0a	0.061211154777501234
80	0xbfe06169de7390a2	-0.5118913025621803
81	0x3fe0de7b788a88f1	0.5271584848708512
82	0xbfb51259cf92d779	-0.08231126134600499
83	0xbfe77c44f21e5dde	-0.7339195946578305
84	0xbfb6d5fbef886921	-0.08920263860673973
85	0x3fe63d0369c30617	0.6949479165707001
86	0x3ff999e12b7b990c	1.6000682543322595
87	0x4002c3b39b1ad906	2.3455574147766383
88	0xbfd80ac9233165d1	-0.3756583064728974
89	0xbff3410ad7b7f569	-1.2033794809825287
90	0x3fdfd4e62d762cbf	0.4973693317376266
91	0xbfe78d658ced7378	-0.7360103371134832
92	0x3fe3b58697b21ca3	0.6159089052970511
93	0x3fb9634cb1d9c15c	0.09917144147926166
94	0x3ff5d905f5ac51c8	1.3654841992002833
95	0xbfd0d9fea1b3b8d2	-0.26330533782210097
96	0x3fd2f86502e862ff	0.2964108017345523
97	0x3fdc46e34af029ad	0.44182665174653374
98	0x3fb679cb69cc43d6	0.08779593785244741
99	0x3ff0ad7721279364	1.042349938879135
100	0x3fee1b45f269a2d3	0.9408292517301454
101	0xbff84fff40a544bd	-1.519530537149236
102	0x3fd783d2008c9fe3	0.3674206738819505
103	0xbfd8d70542be61c2	-0.38812381284654063
104	0x3fe625664fc3a3d1	0.6920653875250712
105	0xbfe87a54ab5ddbaf	-0.7649329516415174
106	0x3fc534c0f4e3d39f	0.1656724162818621
107	0x3febd340e49a3f50	0.869537779321016
108	0x3fdfa12716db1862	0.49421097976699546
109	0xbfece32526418fcd	-0.9027276751698935
110	0x3fffd783f0a9312e	1.99011606224219
111	0x3fe1705f9c16690d	0.5449674652657294
112	0x3fd919f56e5909cf	0.3922093942275326
113	0x3ff1dbb5b12b2860	1.1161400719306798
114	0xbfc58b9624d81799	-0.16832234190968334
115	0x3fb3a9a7fa23c08f	0.07680749756741732
116	0x3fa00ff7c0d3de58	0.031371824539686954
117	0xbfdd65ca81b5d7a2	-0.45933783213637913
118	0x3fed55f848fb701d	0.9167443681176369
119	0xbf8a6f44392e71c5	-0.012907536501921233
120	0x3fc51f6905b06634	0.1650210645464526
121	0x3fdf2c4dc898fe58	0.48707909192669296
122	0xbfd14de96de38ca9	-0.2703803609021614
123	0x3ff16bca038b381f	1.0888157022886913
124	0xbfd8013270e65aa3	-0.3750730612313566
125	0x3fcec39667c89235	0.24034385745575695
126	0xbfea658803c431dc	-0.8248939584314559
127	0xbfea3556da005c51	-0.8190111406173718
128	0xbfd6664134ba30b2	-0.34999113225127154
129	0x3fbac0a2522a0750	0.10450186258279115
130	0x3fedf4ac0d19c90a	0.9361171966432107
131	0xbfe107ad3bde0c5c	-0.5321870965275468
132	0xbfe7ac24ed2c1761	-0.7397637016554023
133	0x3ff0832764f3d04c	1.0320199912503254
134	0x3fd00a8213c3b27d	0.25064136438485446
135	0xbffd7d41071e123b	-1.8430795934701922
136	0x3fe7d8b9d90d5d7c	0.7452058066655094
137	0x3ff30cd3827bdc02	1.190631398870892
138	0xbffa79dcb5d3a5a8	-1.654751501332024
139	0x3fea682c7239a2ec	0.825216506095868
140	0xbfe645b5bc853eaf	-0.6960095102349068
141	0xbfd5ba2d54d6253c	-0.33948834690871244
142	0xbff0bab8ed53e1e9	-1.04558651643867
143	0xbfd5c5d2a493b90f	-0.3401991469571763
144	0x3fdfd62f17f2c825	0.4974477514143721
145	0x3fe773b2056da082	0.7328729730625272
146	0xbfed2bacff583c3c	-0.9115815150452202
147	0xbff1eabfab713aec	-1.1198116967167904
148	0x3fe035f099a80c93	0.5065844536878948
149	0xbff8468f51a64ad5	-1.517226523345632
150	0x3ff1c9d774082ed6	1.1117777378557796
151	0xbfef10d16c0d04ec	-0.9708029852264679
152	0xbfdf5c148d4069dd	-0.4899951342974001
153	0xbfc856c7e8e3d492	-0.19014834281521026
154	0xbfe4449588e0f0de	-0.6333720849429729
155	0xbffe1965b82b28f3	-1.881200522812432
156	0x3f9a3e02855f565d	0.025627173796087244
157	0xc0024f1f14a2c2a7	-2.288633500306179
158	0x3feb8e5fb70fea2d	0.8611296248848866
159	0x3ff116f3d39d5b1d	1.0681036249349696
160	0xbfdbb832482a4c5f	-0.43311745688806086
161	0x3ffd6c1aa3ea5c54	1.8388925936649416
162	0xbfe5492c5bcec15b	-0.6651822846525123
163	0xbfef3b1e88d075cd	-0.9759667083887337
164	0x3ff175b2f4d15a8d	1.0912351191706506
165	0x4000fb8fa93dbcc4	2.122832605549407
166	0xbfea2450e07f1c4f	-0.8169330963800209
167	0xbfa8044fe8573306	-0.04690789900960195
168	0xbfdb8418cb0dae76	-0.42993755177915405
169	0xbff0934c8d00a206	-1.035961676398189
170	0x3ff22eb31d0829da	1.1364012846048497
171	0xbff62459fc81b801	-1.3838748801749718
172	0x3fdfed2e085c3747	0.49885130707194886
173	0xbff76437e59ef781	-1.4619673699921523
174	0xbfe678fd394995ac	-0.7022691840071977
175	0x3ff09918fbffc829	1.0373773425785748
176	0xbff2a782e85f7cc2	-1.1658963276930057
177	0xbfda08b25a419233	-0.40678080381465803
178	0xbfeec6ba50dd15c6	-0.9617587642066432
179	0x3fd9b9f9dcdbbaa5	0.40197607582278244
180	0xbfba53d053acf3f8	-0.10284139674054404
181	0x3fd9aa66ca9730bf	0.40102548393475596
182	0x3feed120d2c8c136	0.9630283467177267
183	0xbfe913cdf6e5495a	-0.7836675474339174
184	0x3fec3598c682884a	0.8815425755640345
185	0x3f94b8c2f63243b1	0.020236059452659997
186	0xc00031fb32cd210f	-2.0244049042559094
187	0x3fe49a8bc21952b0	0.6438654700273982
188	0x3ffed8fe07b4ab28	1.9279766369824731
189	0xbfdb3f17402b367c	-0.42572575823292147
190	0xbff1b8532ea77219	-1.107501203768271
191	0x3ff2b94b4441a85a	1.170237795473915
192	0xbfed7c2eb65fe73d	-0.9214089929584827
193	0xbff3d53f8804ef4c	-1.2395625413182243
194	0xbff033f03183d76c	-1.0126802381687083
195	0x3fc7079a9c218e38	0.17991955398166382
196	0xbfd4f2587266265b	-0.32729159518985335
197	0xbfc2a302a7bfe617	-0.14559968176745094
198	0x3ff44b42e414f683	1.2683743390511217
199	0xbfe617c5f1cb7753	-0.6904020044855578
200	0x3ff875df158db0b6	1.5287772027905198
201	0x3fe15c3178d79138	0.5425040588566281
202	0xbfe9e6a45f7443b5	-0.8094045509661699
203	0xbfdf1cd6aafa133f	-0.4861351651855336
204	0x3fee5a36da21a596	0.9485124836329983
205	0xc0080bb10596b725	-3.0057087360973065
206	0x3ff5140c0d2a6101	1.3173943056372652
207	0xbfe848579e840cd1	-0.7588308425914879
208	0xbfed78e701fea14f	-0.921008590598868
209	0x3ff39657dce1db1f	1.2242048862660295
210	0xbfe066aab67b0a40	-0.5125325740885458
211	0xbff069b02aae24f0	-1.025802771301013
212	0x3fe4a36e68d5b1fc	0.6449501082948355
213	0x3feb91938c5043f6	0.8615205517290849
214	0x3fe2e7a9538a1c8e	0.5907789832716774
215	0x3fe0e19f5d69cb4c	0.5275418114164068
216	0x3fdac8813c214a6b	0.4184878432471694
217	0x3fea9494615ce1b3	0.8306371595017964
218	0x3fd8c3b65363822b	0.3869453253119299
219	0xbfff6bd3767d0329	-1.963824713559186
220	0xbff2ad17d81b4e62	-1.167259067694339
221	0xbff06dba4f1421cb	-1.0267890061387444
222	0x3fc983ee0492e307	0.19933867667511881
223	0xbfc0ff89825d94ac	-0.1327983748007332
224	0xbff4bf21bfc24ff3	-1.2966630449855046
225	0x3fe4a59b6471a220	0.6452156984133275
226	0xbfc7dffe66af7f5c	-0.1865232468981003
227	0x3ff14a0e441623b4	1.0805800113323416
228	0x3ffca4707ba8c455	1.7901463346900262
229	0xbffba5ca4b56207e	-1.7279761259869981
230	0xbfe293f807e8e7d8	-0.580562606285862
231	0xbfea8c8d58a75370	-0.8296572429195361
232	0xbff71f4653aaefa3	-1.4451354282636906
233	0x3ff4c7f6ead0c0b5	1.2988194630125183
234	0x3fe45822b1b0386e	0.6357587309337427
235	0xbfb53d87634897ce	-0.08297010587611384
236	0x3fe6d170f878821e	0.7130665638870288
237	0xbff1ced796f3b3be	-1.1129985710679047
238	0x3ff06b765e9393a0	1.026235932769147
239	0xbfd1f54828e5d309	-0.28059581750794443
240	0xbfcacc2ea419df8c	-0.20935614598033359
241	0xbfc23185215184fb	-0.14213623167874076
242	0x3fd54bb271577883	0.33274518078349774
243	0xbfdb112b2259316c	-0.42292288164460135
244	0xbfe9f22f73b70565	-0.8108136425072813
245	0x3fd95e07ba3d1be1	0.3963641470658655
246	0xbfca443d5bc4da3c	-0.20520750981241231
247	0xbfe945d8f92a0a8c	-0.789776312493204
248	0x3fd723fe40014f1d	0.3615718483972488
249	0xbfbe67d5e0665126	-0.1187719033098956
250	0xbf9dd23a9a2f8f23	-0.029122272167923968
251	0xbff0b92ca3868cf6	-1.0452085864752099
252	0xbfcd418d6592c377	-0.228562998386703
253	0xbfdaf8d20ada8df1	-0.42143679675993356
254	0xbfe6241a8d7e6eea	-0.6919071925690023
255	0xbfcbd4aac29d9207	-0.2174275827666323
