AIModels/trainedModels/monolithicModels/trainedModel_05_17_2023_14:57:38.pth (torch, 799773 bytes, 18 tensors)

lstm.weight_ih_l0 f8 [200, 112]
000000 47 f3 ba 3f bc e6 94 3f b0 f8 a2 9d d1 f9 a0 3f
       0.020411435498988408 0.033155966274976634
000010 c6 4c ae 8a 1e e2 bf 3f ea 03 16 78 2d bc c4 3f
       0.12454405675662192 0.16199272502492984
000020 07 9e 49 58 ec d0 a6 bf 79 f6 a2 4f d5 ef bf 3f
       -0.044562707688609086 0.1247533149171093
000030 40 ce ab e1 47 b3 bc 3f c2 d1 b7 36 67 53 d9 3f
       0.11211060771511772 0.39571552604254745
000040 89 a0 ca 67 d6 ba ba 3f 1a 80 fe 02 8a 15 b7 3f
       0.1044134143254515 0.09017241070841955
000050 d3 2f cb 3b 2d 4f cb 3f e7 c6 0a 0a c2 b3 cc 3f
       0.2133537809335154 0.2242357777627639
000060 f9 e4 da 9f 92 9c b5 3f a0 85 fa 3a bb d7 a4 bf
       0.08442036059104287 -0.04070839972451812
000070 c4 07 40 33 c1 b1 70 bf 93 96 c6 6e 4a 91 d5 3f
       -0.004075770080818889 0.3369928437990463
000080 b4 6d 00 8d 68 67 b9 bf a1 84 50 c0 85 4c b7 3f
       -0.09923413698600464 0.09101139016321948
000090 99 6e 79 25 67 a1 c8 3f a4 08 0c 9d 97 42 c4 3f
       0.19242562608529992 0.15828223388968354
0000a0 03 ad 96 5f 6f 55 9a 3f 97 7c d4 f2 20 89 bd 3f
       0.025716533860458145 0.11537366798846659
0000b0 15 8e 25 d8 a8 98 95 bf 5c a8 53 7b 1c 33 d7 3f
       -0.021090162460849344 0.3624945835459863
0000c0 b9 d6 41 13 77 47 99 bf 31 40 11 fb f2 23 b5 3f
       -0.024686680364957 0.08257979039740417
0000d0 6d 6c ef 7e 88 16 c5 3f d3 1b e8 4d d6 43 d5 3f
       0.16475015829095999 0.33226544960092247
0000e0 92 97 2c 04 ed 44 a8 3f 8a 73 cf 3f 01 53 9d bf
       0.0474008624644703 -0.028636950988459677
0000f0 2f 2f 18 78 0e 1e c6 3f 58 81 00 9f 08 69 b3 bf
       0.1727922521971492 -0.07582143670925257
000100 e9 95 2d 1f 15 6c bc 3f 93 7f 35 5c 0f 36 b4 3f
       0.11102420817550009 0.0789498901481223
000110 aa e5 d3 af 8e 21 cb 3f ad 9a f3 b0 d9 8a b3 3f
       0.21196158967340512 0.07633743829829127
000120 60 87 f6 a4 01 a0 bb bf 0f 1d cb c4 85 2e c7 3f
       -0.10791025426308698 0.1811072550683339
000130 64 c5 40 9e 4f 23 91 3f 62 64 35 68 83 9d d1 3f
       0.016736263307568847 0.27523884941689947
000140 e2 69 37 f0 05 c2 ba 3f ef 83 b7 b3 98 32 a2 bf
       0.10452305903110173 -0.03554227060136116
000150 40 09 3c 80 d2 ba c8 3f 0d 25 53 c5 ae ee d9 3f
       0.19320136319590553 0.40519303579328964
000160 6f 02 78 0c fe 92 c0 3f 78 3e 7a df 4e 80 bf 3f
       0.12948585137202737 0.1230515761947063
000170 62 d2 df c4 42 54 ce 3f f3 70 e9 82 98 e0 cc 3f
       0.23694643605235216 0.22560411827260615
000180 9c 0d f9 ae 07 e6 b8 3f 8e 5e f6 0a ba 43 98 bf
       0.09725997945593295 -0.023695856970873445
000190 e4 ed 98 ba 82 cd c8 3f 94 b0 f0 09 05 81 b8 bf
       0.19377168761444274 -0.09571868412666823
0001a0 eb 0f 94 ef 7a 8e c1 3f 4c 73 ae c7 b8 9f ab 3f
       0.1371606511894464 0.05395295560376798
0001b0 eb b8 90 ff c6 3b cc 3f 7b 8e c7 1a b5 24 b2 3f
       0.2205742595555827 0.07087261108204672
0001c0 55 99 fa f3 6f 88 82 3f 72 b1 66 47 06 c6 c5 3f
       0.009049296029229362 0.17010572897323645
0001d0 c2 16 e9 4b 03 2e b9 3f 00 a7 85 e8 87 10 ce 3f
       0.09835835078510072 0.2348794827806202
0001e0 71 08 25 2a 96 48 a9 3f 27 e9 bb d0 fb ac c2 3f
       0.04938191666089232 0.14590404216853267
0001f0 c1 50 3f 24 aa 85 9e 3f b8 e0 9e 2a d7 6e c0 bf
       0.029806765043603137 -0.12838258343777453
000200 60 e3 e9 6d a3 ff b6 3f 09 f1 c6 d9 c2 0c bf 3f
       0.08983823235929611 0.12128846947502238
000210 c8 19 b0 d5 61 bf b4 3f b7 44 e0 de b1 9a 7b bf
       0.08104526011457047 -0.0067393253393827545
000220 09 a4 e4 cd a5 9c 77 bf 97 70 6e d6 41 01 c2 3f
       -0.005764625237397966 0.14066336603435012
000230 54 f3 9c 0e 49 52 58 bf 81 c9 38 64 5c fa b6 3f
       -0.0014844621131963791 0.08975770422765629
000240 75 06 ee 61 65 de a0 3f 68 59 35 29 0e be a1 3f
       0.032946747021026214 0.03465313199073955
000250 1d db a1 ff 91 2e b5 3f 06 95 5a eb e8 19 81 bf
       0.08274185648938866 -0.008350200350216951
000260 47 bb d1 dc 2f af a7 bf da f2 0d 84 fc 5a a1 3f
       -0.04625844545886664 0.03389729606621979
000270 61 58 83 92 11 79 ca 3f 3a c7 8a d7 88 4a 85 bf
       0.2068197217365109 -0.010396069600890113
000280 9a f0 ae 87 48 0d a5 3f 2d 6d 56 5a 99 ce ad 3f
       0.041116968691740044 0.05821685054544399
000290 27 9d 2e b3 b3 ff b6 3f 3e 70 5d dc 30 26 b0 bf
       0.08983920216143258 -0.0630827463150476
0002a0 62 bc a7 f8 9d a8 ba bf f3 dd 4e 1a 08 7c a6 bf
       -0.10413539238628425 -0.04391503640311702
0002b0 3d 38 cd 4d d2 84 ce 3f cb 56 de 43 92 73 be 3f
       0.2384283904925172 0.118950978822194
0002c0 53 15 c3 dc 6d 81 bd bf bc 16 86 9a 04 e2 44 bf
       -0.11525618209551185 -0.0006372950056607522
0002d0 3c 53 5a fb 94 09 9e 3f 43 c4 c3 cc d1 cb c1 bf
       0.02933342727790776 -0.13903257845189118
0002e0 fc 11 a4 a0 c1 60 b7 bf e4 a0 10 fd ae 06 bb bf
       -0.09132013484856566 -0.10557073286384228
0002f0 a9 90 81 99 02 85 cc 3f 3f db b2 72 9e d2 cc bf
       0.22280914779105856 -0.22517757988472373
000300 37 cb 05 b1 37 87 84 bf c9 0b 17 94 f4 f8 b3 bf
       -0.010023531999399189 -0.0780175077007207
000310 0a f7 d3 ed 3f 44 cb 3f 01 81 0e b7 a4 dc bf bf
       0.21302031624502887 -0.12446050137669219
000320 e8 1c 37 d7 69 04 9f bf 3f 8f 35 9d 13 0a a0 bf
       -0.030290273438166176 -0.03132687849099946
000330 01 04 d7 74 36 95 a7 3f f1 8e 0e 38 41 46 c0 bf
       0.04606027771252031 -0.1271440051760844
000340 92 c6 2b 2a 9d 10 bd bf db 1f b6 09 cf 46 8c bf
       -0.1135347583729305 -0.013806931957120063
000350 44 ef d2 d7 89 b8 d2 3f 43 2e e6 35 9e 25 d3 3f
       0.2925133330970662 0.29917102111423705
000360 0b 8b 7f 31 c8 51 74 bf ad 67 02 1e 82 7c ad bf
       -0.004960805897982433 -0.057590547717338715
000370 5d 75 f3 34 d8 00 d0 3f 46 60 8b cb a8 01 ab 3f
       0.2500515477275565 0.05274703488038361
000380 27 be 61 43 6b 78 a9 3f 32 6a 04 b5 d2 91 9a bf
       0.04974684903652032 -0.025946895883956773
000390 cd e8 c9 96 d4 6b b9 3f 3d 5e 28 45 3a 24 93 3f
       0.09930161172261194 0.018692884894418994
0003a0 b2 8d b8 b1 2d 57 b5 bf e0 32 c1 4e 1b 2b ab bf
       -0.08336148823632675 -0.05306325279579993
0003b0 bb bb 82 40 bb a8 be 3f 8b 0b 2f bb 83 d6 b6 3f
       0.11976213765113546 0.0892107326499582
0003c0 64 d6 7e a6 bf b7 c4 3f 3e 16 09 23 c3 cc a2 3f
       0.1618575633016689 0.0367184620159091
0003d0 32 18 3f 4f 7c ae 9f bf 26 b3 f7 c4 59 40 bb bf
       -0.03093904718095803 -0.10645066317347282
0003e0 1e f3 c3 87 e4 0b ba 3f 35 c3 55 8a 20 8a c3 bf
       0.10174396814904837 -0.1526528048957744
0003f0 15 73 23 12 e3 96 b7 3f 85 de 80 46 d2 3f 10 bf
       0.09214610283693177 -6.198616904462037e-05
000400 1c b1 ba 39 6f e8 c9 3f 62 bb a3 38 ed 7a c5 bf
       0.20240583723842398 -0.16781392350773233
000410 e6 03 60 e2 9b 90 c9 3f 2d b2 fe 2e b4 2f b3 3f
       0.19972561410398199 0.07494665286385134
000420 48 ff e8 90 75 31 c7 3f 1d 02 37 ce 1a 74 7c 3f
       0.18119687629404724 0.006946663579072279
000430 31 d9 73 a0 a7 96 a4 bf e8 83 d8 86 f1 f3 be 3f
       -0.04021190484665949 0.1209097818578041
000440 60 a0 b9 a1 38 a6 a1 bf 93 ee 89 c0 4f fc ad bf
       -0.03447129224952117 -0.0585656092198096
000450 b5 2a e7 11 1e 75 96 bf 94 b2 8d 1d 19 4f bc 3f
       -0.021931142657005426 0.11058194133301874
000460 7d e4 cc e9 84 15 92 3f 5c c0 6a 44 44 80 c2 bf
       0.017660214204827874 -0.14453938809083666
000470 c5 81 68 fa 77 b5 a0 3f b5 2f 6a 0d b0 8e b4 bf
       0.032634496037875084 -0.08030224158772976
000480 4f b1 0f 39 1b 1b bf 3f 8a 35 83 e2 b6 56 97 bf
       0.12150735991571547 -0.0227917266609459
000490 58 17 c4 9c aa 32 57 bf af 4a 23 42 56 07 c4 3f
       -0.00141588841785408 0.15647390584361662
0004a0 0d 7a 82 bf a0 5b c5 3f fd ff 41 b1 12 ad ba bf
       0.16685876227434485 -0.10420338466246899
0004b0 99 29 ec 2c 68 c4 cc 3f ea f4 9f a9 8d e5 9c bf
       0.224743863997287 -0.028219426611021094
0004c0 78 6c 35 c3 a9 45 c7 3f c7 94 8c b1 eb 38 70 3f
       0.18181345016168726 0.003960533788618998
0004d0 30 0c 43 bf c6 0e b6 3f db 8d ba 70 6f 88 b1 3f
       0.08616296929817291 0.06848808767477214
0004e0 de 05 f0 01 c8 19 bc 3f a3 14 00 d4 7f e9 a0 bf
       0.1097683911066478 -0.03303145850080937
0004f0 81 de e3 2b 85 33 b0 3f 5e 03 77 86 46 a7 b9 bf
       0.0632861358789061 -0.10020867140611986
000500 2d 54 7b c3 63 75 b7 3f db a2 bb 3d 47 9d a3 3f
       0.09163497469428768 0.03830931309295745
000510 fb 9f ff 45 b4 91 a0 bf b7 21 42 66 2d fa a6 3f
       -0.032361634773963 0.04487745164175599
000520 be 86 48 65 fd 52 82 3f 50 6a d9 e1 ab 0a a3 3f
       0.008947353032513813 0.03719079143475723
000530 1b 38 05 37 c1 17 bf 3f 6c 83 ad 77 af c6 cb 3f
       0.12145621865531135 0.21700089782373355
000540 08 67 01 09 62 ac a6 bf a3 af df 12 14 a4 c9 bf
       -0.04428392753534466 -0.2003197757870768
000550 d5 f7 4b 8f fa f4 a4 bf 04 be d2 e4 cd 50 c0 3f
       -0.040931539528159235 0.12746595070846933
000560 f5 e1 22 08 d8 98 c9 3f f2 50 dd 93 9a 38 9d 3f
       0.19997692487028443 0.028536238932546483
000570 ac 7e b2 61 aa ba 99 3f b9 a1 7a 29 31 53 c2 bf
       0.025126135075537334 -0.14316381955474158
000580 af 9d 8b dc b9 dd b9 3f 4e 2a db e9 5a 61 a5 3f
       0.10103952059181752 0.041758385702980946
000590 a2 6c d4 61 1b 3a c3 3f e1 45 c6 74 9b c6 85 bf
       0.15021078373761038 -0.010632719517874758
0005a0 f8 7d 34 fa 31 e9 a0 3f e1 f4 c3 5d fd 54 9b 3f
       0.03302913836727933 0.02669139752196237
0005b0 1e c7 db fc 2c 33 c3 3f 39 cd 4d 74 3d 21 4a 3f
       0.14999925943953313 0.0007974195546992863
0005c0 40 aa 36 7f 43 12 ac 3f 73 03 15 0d 85 b3 c2 bf
       0.05482684066676713 -0.14610350741170527
0005d0 b1 e2 2b 81 9b a4 c7 3f ac 0e 31 30 bb 01 7c 3f
       0.18471092040251372 0.006837588504882735
0005e0 b5 74 78 5d dc c7 bd 3f 3b c5 4a 4a 11 78 cb bf
       0.11633088380809194 -0.21460167052786425
0005f0 68 40 f2 60 af e3 c5 3f d7 e9 a9 79 c2 13 af 3f
       0.17101089700418304 0.06069762931015859
000600 2b 1f 7a 7c 64 ee 84 bf e4 1f 05 7d c2 77 a1 bf
       -0.01022032265542768 -0.03411681915400758
000610 f7 01 8d 0c 29 33 a8 bf 1c 59 57 3b 53 5b 98 3f
       -0.047265322477418374 0.023785877701663613
000620 f5 89 10 bd 4c d6 cc 3f a3 5c 5a de f9 d4 c7 bf
       0.22528990966482323 -0.1861870132167712
000630 2b ad d3 ea 3d 1f c4 3f f8 ba 95 2c 67 0d 7e bf
       0.15720342603831602 -0.007337000869809478
000640 af 4a fb ae 2d 4a c2 3f 4b 43 d8 10 7b d0 a9 3f
       0.14288874668144078 0.0504187067091438
000650 c0 0a 07 1f ce b5 c6 3f 0c 07 fc d6 27 66 a3 3f
       0.17742325320258168 0.03788876056024834
000660 40 e9 17 25 17 46 c8 3f ce a9 48 c9 b6 ea ac 3f
       0.1896389895553714 0.05647822577551019
000670 5f cf 06 35 8b 5f b3 3f e2 ca 23 23 66 19 b3 3f
       0.07567663235277909 0.07460630758195522
000680 c0 7f 0d 48 e3 96 c4 3f bb d4 da 99 15 6e a1 bf
       0.1608547307796453 -0.03404300215826469
000690 1d d0 3d 08 77 50 cc 3f 6a 11 78 4a 2d ab bc 3f
       0.22120559599318393 0.11198695247737125
0006a0 a7 18 ba d8 33 2a ae 3f e6 48 7e 7b a8 f1 91 3f
       0.058915729719090586 0.017523415124352314
0006b0 69 f6 99 61 89 d2 c4 3f aa 76 7b 1f bc 7c a6 3f
       0.16267506852811955 0.04392040142350358
0006c0 b4 a2 85 21 6b 92 a6 3f 31 74 40 33 e7 5c 95 3f
       0.04408583435253402 0.0208622097999191
0006d0 38 9b dc b4 3a aa 68 3f af 90 66 f1 82 3f b4 3f
       0.003010859166255566 0.0790941085202259
0006e0 fd f8 45 e9 29 18 a2 3f fb d9 b9 27 05 57 c4 bf
       0.03534060452055774 -0.15890564384217484
0006f0 d1 78 ed d8 dd 7e c2 3f 47 6f c1 f1 35 0e a9 3f
       0.14449666111153772 0.048936544190580515
000700 2b 03 c9 2c 73 e4 a0 3f f3 93 60 7a a7 1d 67 3f
       0.03299293443388359 0.002821757417239551
000710 a7 5c 51 a4 c4 2c b8 3f e0 dd 82 a1 08 be cf 3f
       0.09443310748734977 0.2479868687275788
000720 24 1e 3e 09 f4 6e aa 3f bc a1 09 b3 3c c2 a5 bf
       0.05162775624108587 -0.04249753652112839
000730 6b a7 b8 e2 3b d5 d5 3f 7f b2 72 bf 9a 13 b9 3f
       0.3411397661280861 0.09795539068245239
000740 3e 91 ff ef 1c 6e bd 3f ae a2 eb 49 e6 c7 c6 bf
       0.1149614416058897 -0.17797545060536407
000750 92 9d 57 1d e4 fa d5 3f 0c 23 4b 9e 3c 59 ae 3f
       0.3434381758256332 0.05927457268041367
000760 0a b3 25 9d 3b 6e 76 3f b1 f6 e8 e6 e1 ca c3 bf
       0.005476220003725949 -0.1546289803972534
000770 85 65 a6 96 2c 02 d3 3f 87 1c 60 3f e5 d8 aa bf
       0.2970077010337138 -0.05243603132844848
000780 84 03 e5 a4 2f dd ba 3f c6 53 79 7a b4 d1 c0 bf
       0.10493753219362928 -0.13139968853161416
000790 99 57 31 27 47 83 c7 3f 6c 59 b2 a1 51 66 c6 3f
       0.1836937848444762 0.17499752421708636
0007a0 67 7e 2b b0 49 33 95 bf 4f 60 b0 53 11 cc cd bf
       -0.020703460099751683 -0.23279015146613566
0007b0 46 db 3d d6 7c 35 cc 3f 87 de e0 f7 13 ea 85 3f
       0.22038231335656117 0.010700374605320263
0007c0 2e cf d0 47 91 ac 60 3f 02 9c 81 bb 60 93 bb bf
       0.0020354115972852837 -0.10771755769529537
0007d0 39 3f f1 6b b8 79 ba 3f 96 74 6c ec 54 82 e1 3f
       0.10341980586349288 0.5471596353196613
0007e0 c7 59 57 db 47 ae b1 bf ad 8b ae fd 01 17 ce bf
       -0.06906556229601 -0.23507714163596685
0007f0 7c 7c 02 03 2b 4f d3 3f 95 1d 2d cc 1a ff c3 bf
       0.3017070321456641 -0.15622267694037065

lstm.weight_hh_l0 f8 [200, 50]
000000 da 48 6a 1c 28 89 cf bf 17 4a c8 b4 3e 90 a0 bf
       -0.2463731898065536 -0.032350501602327046
000010 31 19 77 04 8f f8 cb 3f 36 d0 ea 25 2e 30 b6 bf
       0.21852290838268965 -0.08667267251695496
000020 32 99 5c cb e8 d7 c5 3f c2 f3 f0 ff 0b c3 b7 bf
       0.17065153054972765 -0.09281992910923889
000030 64 4e da 8e ef e0 b3 bf ff eb 46 87 0a 99 c4 3f
       -0.07765099752060106 0.1609204445393004
000040 83 bd 32 9b ad f3 c9 3f ea bd 9a d3 85 3c bf 3f
       0.20274896696126285 0.12201725402950783
000050 92 dc 07 a1 b2 67 aa bf a9 9d ca 19 91 7f 82 3f
       -0.05157240119654562 0.00903237686118426
000060 ed e2 61 7d 98 2d cd 3f da d7 a8 ca 82 5a cf bf
       0.227953969213352 -0.24494967360959558
000070 80 e6 8e 46 e2 b7 bd 3f be 7d 2b e7 ff 0a aa 3f
       0.11608709547626894 0.0508651704492382
000080 6b 64 3e 78 0e bf a3 3f 61 7f ea b6 81 eb d5 bf
       0.03856702058619351 -0.3424991880692599
000090 93 9a 62 e6 fc 58 a9 bf 04 b8 ec ab 7a 4a d7 3f
       -0.04950704872435554 0.36392084874648867
0000a0 61 fd 6b 07 af 94 b0 bf ff 9c 3a aa da b9 b1 bf
       -0.06476873332211631 -0.06924215942364141
0000b0 4a 2b 36 3b e1 a1 c3 bf c8 f6 05 e8 0a 75 be bf
       -0.1533776797408229 -0.1189734283888938
0000c0 c5 41 8f 95 fc 8d b4 3f 13 69 6d 6d 47 ae d5 3f
       0.0802915444503532 0.33876214681880973
0000d0 2e bc be 58 dd b8 b1 3f ff 1b 5e 60 80 58 a1 bf
       0.06922706047656454 -0.0338783376346825
0000e0 58 6a a2 3e 7d f9 c3 bf c9 f1 04 1f 2b 5e 94 bf
       -0.15605130728075056 -0.019890474098461817
0000f0 fe 39 4b e2 81 15 a0 bf d4 92 75 ef e1 7d a1 3f
       -0.03141408812881606 0.03416353271567166
000100 3a 08 07 c8 cc 65 bb bf 5e 4d 0b 2c d3 de bd 3f
       -0.1070220936153711 0.11668128800675023
000110 b9 42 d2 8c 2d 8a b0 bf 22 6c cb c1 c2 34 bf bf
       -0.06460842788716094 -0.12189881545366224
000120 4d 74 50 3f 76 51 c8 bf f5 bc 76 33 50 33 bd bf
       -0.1899860200072986 -0.11406422859612404
000130 3c 53 6e 01 13 0c bf bf 73 a1 8a 3a cd d0 d0 3f
       -0.1212779882901715 0.26274424282976055
000140 e1 20 f6 bd ac f5 c4 3f 72 1a fa a9 ef 4f ac bf
       0.16374739909611605 -0.05529736471094261
000150 5a 5a 61 84 84 84 c6 bf cd a3 c1 ea 58 06 b5 3f
       -0.1759191175830946 0.08212810260160026
000160 b8 14 20 4f da 93 d4 bf 95 6c 40 f5 2f 67 b8 bf
       -0.3215242169101873 -0.09532451379384306
000170 1d 08 f8 9c b4 f1 b6 3f b5 5f b0 07 66 7c a7 3f
       0.08962563354728599 0.04587096065387134
000180 6d 01 e1 28 9a b4 d5 bf 56 ce 87 af b0 6b d2 bf
       -0.3391480826576501 -0.2878228868641818
000190 2c 2b 8c be 2f 5c b1 3f 88 07 ea cd 18 d8 cc 3f
       0.06781290437735937 0.22534475378421015
0001a0 b8 83 a7 5b ee d4 cc 3f f3 15 fc 9d 6c fe d3 bf
       0.22524814105329738 -0.31240382602876976
0001b0 87 ed 96 ef e9 5c c8 3f 8f 5b bf df ae 94 c6 bf
       0.19033550451954914 -0.17641244816942644
0001c0 8b 2e b1 34 71 92 b6 3f e2 99 02 00 c7 37 c8 3f
       0.088172030796324 0.189202189450227
0001d0 0a 16 03 1f 93 c7 bd 3f bc 3c 5a 2e 00 8e c5 3f
       0.11632651812677622 0.1683960176783098
0001e0 60 97 f9 60 b8 05 a7 3f 93 9a 8e c9 62 b7 c6 3f
       0.04496551688934747 0.17747149316456454
0001f0 0c 61 f0 c4 8d 82 d3 3f 16 2a 84 09 a1 2b c9 bf
       0.304843370745872 -0.1966439529863499
000200 7f 0b 25 5b c4 73 d0 3f 89 bf 5e 43 83 d8 c2 bf
       0.2570658578953768 -0.14723244466358335
000210 d8 e8 60 85 40 6a c7 bf 01 b9 fa bf 3b b2 c5 bf
       -0.1829300547850099 -0.16950175165170125
000220 ff 2c 25 22 b5 48 cb bf 0a d8 24 98 1c 46 ba 3f
       -0.21315635840651478 0.10263231958819588
000230 ae 5b 6c 08 79 8b c0 bf 00 47 dd 7e 42 b3 d3 3f
       -0.12925637160580322 0.3078161467466174
000240 a3 7f 56 72 23 df bc bf a1 74 3f 8f 41 a4 ba bf
       -0.11277982274486802 -0.10406884906065496
000250 44 bc cf 73 50 d7 a0 bf 9d 62 92 f2 c9 03 c8 3f
       -0.032892717492238904 0.18761562675787938
000260 f7 b1 65 9d ab 39 c5 3f f5 91 b3 49 37 5d bc 3f
       0.16582246003544274 0.11079736279823023
000270 4a 2c 7e 86 ef ee 94 bf 39 e1 ad 24 f0 43 b7 3f
       -0.02044271715525906 0.0908804025219795
000280 17 dc 11 8e 8b f4 d2 3f 6e 8f ef cd ee 52 c5 3f
       0.296175850620274 0.16659340911348458
000290 f5 ad 60 ed 52 4f 9f 3f 61 fc ca 82 9f 7e cd 3f
       0.030576034296400285 0.23042673002598504
0002a0 c7 58 f2 04 3d b1 a5 3f 3d cd e8 85 fd d2 b5 3f
       0.042367846349564746 0.0852507068564607
0002b0 22 a0 8a d4 4f da d3 bf f4 de 71 be be 55 d1 bf
       -0.31019969707495154 -0.27085846517682843
0002c0 ff fe 58 b8 55 5a a0 3f f7 00 7b e7 bd 49 c2 3f
       0.0319392001661054 0.14287542155035002
0002d0 aa cb 45 b4 73 4d ba 3f 7a 3a e4 a7 29 b0 8f bf
       0.10274432326495622 -0.015472722469465728
0002e0 ce 1b 18 6d f2 4c c3 bf d5 d8 ef 44 31 34 cf bf
       -0.15078573538650492 -0.24378028741893468
0002f0 1d 37 f9 9e 9f ac 8a bf 2d 72 b4 1c ba e2 c4 3f
       -0.01302456573389637 0.16316915895085185
000300 78 09 ca 40 77 75 c7 3f d7 58 b8 3b ed 2e bc 3f
       0.18327227271590707 0.11009104450235739
000310 c6 b8 32 51 0f 37 d1 bf 08 46 23 9b 01 67 cd bf
       -0.2689855854940898 -0.22970600199782631
000320 1e e8 72 da 63 f8 d8 bf b0 c2 c8 2f cf 20 c4 3f
       -0.3901605256356805 0.15725126107419873
000330 88 06 3d 9b e1 d2 c4 3f 26 a8 cb 92 52 3a b3 3f
       0.16268558578490322 0.07510868152499536
000340 ec b2 f4 96 dd 08 b4 3f fb e1 1d a1 e7 f3 c3 bf
       0.07826027808614427 -0.15588088385608487
000350 bb b0 a4 30 d9 c6 d9 3f 62 4a c8 b7 5a 88 90 3f
       0.40276174307178864 0.016145150630175194
000360 6d 4a 4e 3a 84 a7 c6 3f 32 83 99 95 86 ab c4 3f
       0.17698719832386037 0.1614845495669442
000370 02 ed c0 fb 5d fa ca 3f e3 53 14 2d 28 5b 94 3f
       0.21076559822709134 0.01987898612158635
000380 10 3e 7e 28 c0 1a d2 3f 94 5f fd 0f ac df b2 bf
       0.2828827281418578 -0.07372546568274024
000390 31 ff 35 a3 8b 8e d3 3f 85 c9 1b f7 4a d4 d7 bf
       0.30557528437201414 -0.37233232623761864
0003a0 04 48 d5 43 1d bf cf 3f 34 ec ef 99 79 ca 95 bf
       0.24801984607853467 -0.021280193348484924
0003b0 a0 8d 25 21 61 6e ce 3f 3b fb ff 0a e7 02 a4 3f
       0.23774351232996782 0.039084644406094125
0003c0 f5 8d b7 26 62 df c5 bf 58 0b 88 c4 18 f9 c8 bf
       -0.17087962046126362 -0.1951018294931497
0003d0 ad 24 24 17 dd 57 c2 bf d3 b5 d5 2e cc 20 da 3f
       -0.14330638532581955 0.4082518060084485
0003e0 29 e2 7c 69 e9 b0 ce 3f 9f 3e af 74 4b 88 cc 3f
       0.23977391863606215 0.22290938565719373
0003f0 32 78 45 ed dd 64 9c 3f 36 75 68 fa 60 dc a2 bf
       0.027728526694197515 -0.03683760697115661
000400 83 7f de 51 f1 03 b1 3f d5 4b 58 2a c9 2f b3 3f
       0.06646641014822134 0.07494790347872933
000410 b7 44 19 13 c1 48 d2 3f 13 0a cb ea 46 80 b0 3f
       0.2856905638228215 0.06445735199216811
000420 2f 1f 9b 45 15 dc af bf 1d a0 4a 97 4b 36 94 bf
       -0.06222597574884358 -0.019738370045757948
000430 26 1a 3b 46 83 99 86 bf 71 63 74 e8 fc c5 be 3f
       -0.011034989910865777 0.1202085559383599
000440 9d d5 9d 13 2b 9c bd bf ee 35 e5 4a 09 b8 a2 3f
       -0.11566418866080715 0.036560335533618246
000450 a9 16 66 59 8d 3c cb bf 6d ac 40 0f c7 9e bc 3f
       -0.21278540482687916 0.1117977535474652
000460 ff f4 8f fe 92 90 c0 3f 72 a9 1e d4 85 35 c4 3f
       0.12941205434609768 0.15788338525210183
000470 b0 23 2c 37 bf df d5 bf bf e1 cf fe 00 8b ba bf
       -0.3417814291756782 -0.1036835310077384
000480 d3 79 06 9b 66 84 d0 bf e8 ff 7e 2e e0 3b c2 3f
       -0.2580811036986265 0.14245226164166458
000490 f0 44 71 23 d3 83 99 3f 13 cd be 30 76 6e c1 3f
       0.024916934049831363 0.1361835229887239
0004a0 6b 9b 55 14 f3 0e ce bf a8 0d 3a 5e 85 07 d3 bf
       -0.234831223420055 -0.29733404352028936
0004b0 c3 af e2 be 6c c7 a3 bf dc 30 13 6d 97 ab cf 3f
       -0.038630865384532885 0.24742405725408545
0004c0 6c d9 40 90 70 2e cb bf c5 bc e9 db b9 03 c1 3f
       -0.21235472720736526 0.13292620885792963
0004d0 02 0e c9 18 3e 87 9a bf ef 3b 6f 82 62 ee 9f 3f
       -0.025906534445551806 0.031182803355303376
0004e0 84 3d 70 98 6f 2f c4 3f f6 27 e3 28 be b4 bc bf
       0.15769762938769472 -0.11213291643358034
0004f0 70 30 5a a1 19 4d ca 3f 1f 40 a7 b2 5c af ce bf
       0.20547790888338424 -0.23972662661844965
000500 4b d3 c1 41 6b b2 a7 3f db 3e 5d 6e 6d 7f ae bf
       0.04628310373019547 -0.05956594440669757
000510 e5 32 ca 8e 6b b9 d2 3f 30 ca 6f a3 f6 c6 bd bf
       0.29256714767761444 -0.11631719103005689
000520 10 4a a6 08 07 53 88 bf 2b 80 9a fe ac 25 d4 bf
       -0.011877112342323165 -0.31479954589485953
000530 0e d4 07 59 59 b5 b6 bf 96 5b 70 0e 9e f8 ba 3f
       -0.08870466636274463 0.10535610058319231
000540 21 92 9f 75 62 26 c5 3f 38 db b6 0f 11 75 c9 bf
       0.16523390525175422 -0.1988850905160804
000550 02 79 43 dc 27 bc db bf d9 c5 08 96 3d 7d d6 3f
       -0.4333591128360156 0.3513940777948768
000560 d5 a1 e0 28 27 24 ad 3f 18 94 cd c4 a3 ee a0 3f
       0.05691645025246187 0.03307067658787605
000570 d0 e3 11 50 a6 70 af bf 22 09 4f b6 0e 8a b0 3f
       -0.061406323694377485 0.06460658980271153
000580 ef aa d3 54 50 06 d0 bf 8c 65 48 83 76 35 a2 3f
       -0.25038536342496703 0.03556413986752735
000590 db 54 f0 23 31 00 c4 bf d4 4d 3d 9d 01 a2 a1 bf
       -0.15625585799049344 -0.03443913502146825
0005a0 ea e5 4e f4 db 4b 9c 3f 4a 72 83 04 71 ab b7 3f
       0.027633129869831942 0.09245973930541954
0005b0 3b 41 a2 3f 38 28 b9 bf e7 4a 64 1d e4 61 d1 3f
       -0.09826995423850786 0.2715997969655021
0005c0 36 60 a5 5b 0a 37 ca 3f c1 a4 61 80 82 5e d5 3f
       0.20480470156576452 0.333893418667298
0005d0 c2 12 9e ec 64 8e a6 bf d5 84 ee f3 1c c1 ad bf
       -0.04405513180157562 -0.058113961006947136
0005e0 96 b9 49 66 cd 2c b3 3f 92 73 7d ca 62 29 d4 3f
       0.07490237948670705 0.31502599501055173
0005f0 68 ec 19 31 33 f2 a4 bf 2f 59 24 f0 69 c9 d0 bf
       -0.04091033911114367 -0.2622933240067082
000600 f6 12 d8 19 32 c6 b8 bf b8 2d 44 72 0c 0d d5 bf
       -0.09677422648389808 -0.328921424473005
000610 24 9f 31 b4 2d cf c2 3f 67 22 23 a0 e7 bc 8e bf
       0.14694758699919774 -0.01500874478769383
000620 3c 31 fc 0a d6 df ab 3f b6 94 35 59 9b 84 99 bf
       0.054442108956296725 -0.024919917411712254
000630 3b 97 47 26 df d5 cc bf fd 2e 9f d0 fa 2d b5 bf
       -0.22527684563754655 -0.08273284524255682
000640 ba 83 0c 6e 5b 82 a7 bf d0 bd b4 61 99 4e 7f 3f
       -0.04591642111177614 0.0076433173629050916
000650 81 a6 d7 0e 48 30 d0 3f 5e 4a 37 51 cd 98 c3 bf
       0.25294686746074296 -0.153100647598495
000660 52 56 ed 70 38 7f bd 3f 63 8b 31 5d 87 44 a0 bf
       0.11522248036393393 -0.03177283299080249
000670 82 50 b6 73 4a ce a5 3f d4 80 35 be bf 7e b9 bf
       0.04258949911596323 -0.0995902861955103
000680 36 dc 08 7a ad 0c 9c 3f 16 cb 3c e7 ad 81 95 bf
       0.027392111371423243 -0.02100249980794463
000690 98 71 f7 7b 99 04 c8 3f bf dc d2 d7 ff 33 af bf
       0.18764036706023712 -0.06094359883848587
0006a0 fa 92 3c 30 05 78 c5 3f 65 6f 28 51 3f ea 9b 3f
       0.16772522788337324 0.02726077015732588
0006b0 37 2f 25 46 f9 bb b0 bf a6 54 88 ba ee 93 d1 bf
       -0.06536825144320067 -0.2746540853125431
0006c0 ee 90 1e c4 56 e5 d0 bf a4 2c 44 61 b2 de 9e bf
       -0.2639977374294763 -0.030146395861305422
0006d0 04 f5 d2 a5 9c fc b2 3f 28 af 4c a8 7c a2 c9 3f
       0.07416705177725552 0.20027120797873832
0006e0 10 84 87 1c fb 76 c3 3f e7 ec 20 44 bb e3 c5 3f
       0.15206850903544522 0.1710123140963795
0006f0 00 c6 2d 39 ac a2 d3 3f 1b f5 53 ea f8 41 c3 bf
       0.306803756560015 -0.15045081559939252
000700 90 a0 e1 5e 17 77 c2 bf 54 48 60 47 aa 8f 95 3f
       -0.14425937779310916 0.021055851561023367
000710 6a e7 1e ce c5 e0 8e 3f 4d d2 5c 71 a1 82 ce bf
       0.015077157357030042 -0.23836153064043444
000720 46 e4 10 2a 4a ee d3 bf 34 c0 4a 43 67 45 bb bf
       -0.31141904933935327 -0.10652776139136294
000730 7a 95 e9 20 0d 59 c9 3f 2b 24 8e d3 1e 83 d4 bf
       0.19803012949993698 -0.32050295505229326
000740 68 07 96 61 f1 1a d0 3f 37 6f d8 5a fa 09 b4 3f
       0.2516444638241553 0.07827725141436025
000750 8f ee 25 d8 f6 f9 c9 bf 0b 4c 6c 08 a2 a1 a0 bf
       -0.20294080309019022 -0.032483161476328425
000760 f9 67 7d 53 9e 59 b2 3f 67 fa 83 47 8e fa c9 3f
       0.07167996919943666 0.20295885555238444
000770 fb 8c 78 14 83 77 c4 3f 60 28 ee 5a 15 d4 b2 3f
       0.15989721774631235 0.07354863615015139
000780 f6 ad e5 67 10 b9 c3 3f 0c 28 8a ae 8c e1 70 bf
       0.15408520768265505 -0.004121350801719725
000790 dc 5c 2e 10 39 8f be bf 7e 74 90 0c 27 f6 37 bf
       -0.11937290806814665 -0.00036562398287449244
0007a0 fd cf 6e bf 4b e2 c8 3f b7 7c 13 05 58 b1 cc bf
       0.19440600249583886 -0.22416210410935886
0007b0 d7 bc b2 1b 31 58 a8 bf a5 98 52 d2 8a 08 b2 bf
       -0.04754785025704116 -0.07044284472303504
0007c0 58 ae b3 45 e7 2f 96 bf cb d7 36 44 13 ff bb 3f
       -0.021667111996903493 0.10936088958155137
0007d0 8e c6 c4 28 58 de cc bf 6f 7b 15 d0 86 85 d1 bf
       -0.2255354117456147 -0.2737748176640968
0007e0 42 3c 22 66 87 fd da 3f 95 73 d7 63 2b 3a ac bf
       0.4217241761588789 -0.05513129800576803
0007f0 0b 37 71 00 e6 4d c1 3f ba c4 20 2c fb c2 bf 3f
       0.13518977185815859 0.12406892611831469

lstm.bias_ih_l0 f8 [200]
000000 5c 6d bc e7 64 15 d4 3f c3 f5 79 88 19 34 c2 3f
       0.313805795960169 0.1422149578465178
000010 62 a3 87 1b 35 e1 c8 3f 2d 50 f7 8b d4 93 b9 3f
       0.19437278599005042 0.09991196076526938
000020 d1 1b 63 de aa 76 9c 3f 2f 1a bc 37 3d c8 c2 3f
       0.027796430419382127 0.14673581334518945
000030 7c 98 aa c4 0f 68 d0 3f 9f ae bc 31 24 86 b2 3f
       0.2563514156885345 0.07235933508189384
000040 30 99 d3 6e e8 1d c5 3f ee c1 00 d7 71 10 a5 3f
       0.1649752179284376 0.04114108800456849
000050 a8 04 e3 ef b1 e8 ad bf 9f d1 e4 ce 25 2d d4 3f
       -0.05841594746881046 0.3152555962035652
000060 29 57 ee 74 b4 17 de 3f 44 34 14 a1 f3 a1 98 3f
       0.4701968328384845 0.024055296617963032
000070 c5 35 2a 12 26 31 7f bf 65 8c 64 b5 c6 8c d7 3f
       -0.007615231241869085 0.3679672976888411
000080 ad d0 d3 23 df a8 cf 3f 57 77 4a 05 8c 59 cb 3f
       0.24734105348000437 0.21367025621742172
000090 0a d7 d1 8d 3a 4e a4 3f 79 d6 98 b0 23 e3 d0 3f
       0.039659337818120546 0.2638634895878123
0000a0 9c e7 70 c0 7d 65 c7 3f ca 91 d6 d1 24 1d c4 3f
       0.1827847661641585 0.1571393990135575
0000b0 d1 20 2b 5c 0e 35 c3 3f 03 6e b5 87 4e 16 a5 3f
       0.15005664348996686 0.04118581205940688
0000c0 00 57 d8 78 43 39 b8 bf 29 5c a8 94 2f fe d6 3f
       -0.09462377262419963 0.35926427380894893
0000d0 af 05 74 f1 ee a6 a5 bf af ed 9b 18 22 47 ae 3f
       -0.04228922555376912 0.059136453155555706
0000e0 50 20 47 08 f0 21 b2 3f b1 91 69 f2 f5 f3 7f bf
       0.07083034708114266 -0.007801018457574236
0000f0 ef 1d df ce e2 27 dc 3f af da d1 f9 a5 45 c5 3f
       0.439934446356772 0.16618799875478404
000100 ac b7 33 11 08 7e 8d bf 81 49 f6 f9 7a 9a bd 3f
       -0.014400542283023864 0.1156384334811147
000110 55 da e6 fe 4b cc d2 3f 10 c2 23 dc 5e 0d ba 3f
       0.2937192906642044 0.10176651834968475
000120 c6 e3 7f 84 ce 6c cd 3f 76 e9 98 63 ff b6 bd 3f
       0.22988301725106747 0.11607357198309906
000130 e1 57 27 38 0f 0d bc 3f e5 06 2f 9c 8d f5 d3 3f
       0.10957427140178268 0.31186237575830794
000140 71 b7 ec fe 6d 7e bd bf 34 b3 a3 3f 72 b2 82 bf
       -0.11521041368243147 -0.00912942177498053
000150 18 d9 2f 82 d4 1c a8 bf 25 62 37 5c 6b 99 ae 3f
       -0.04709495629497179 0.059764246947171785
000160 22 55 1b 2e 78 4e c3 3f 9a a3 36 3b 54 4f d2 3f
       0.15083219767863293 0.2860918596512022
000170 63 c7 86 99 8a d2 a6 3f a3 6e ec a5 05 b8 d2 3f
       0.04457505344488657 0.29248181537125556
000180 c9 e0 13 85 1a 7b d8 3f 56 83 f7 90 13 e2 b4 3f
       0.38251364704002505 0.08157465256910021
000190 67 bf 79 2d 27 57 b5 bf d7 ed 74 49 00 eb d0 3f
       -0.08336109981769156 0.2643433301306834
0001a0 a1 1a 99 d1 dd 6b ce 3f a3 0e 6a 45 7b 3c c4 3f
       0.23766682371406936 0.15809574975366045
0001b0 63 2b 88 2e 0b 47 92 3f 85 01 b0 54 e4 68 d3 3f
       0.017849135127146264 0.3032770945574373
0001c0 6b 04 70 ea 72 8d b9 3f 1f b0 d3 91 0e 5c a6 3f
       0.09981458877156661 0.04367108850587464
0001d0 ac fa 01 0f 13 06 92 bf 89 84 ea c6 3c 3e 7c bf
       -0.017601297179221362 -0.006895291719645099
0001e0 58 88 2e 6b 0c 70 2c bf cb 7c f7 04 76 3e 6c bf
       -0.00021696235270690883 -0.0034477524820740505
0001f0 fc 32 7c e4 0e e6 a6 bf 09 a1 f1 4a c7 98 9b 3f
       -0.04472395457387354 0.026949991177759567
000200 ab 11 2f 1c 36 7a a3 3f c3 88 6a 96 5f 2d a6 bf
       0.03804177373925496 -0.04331492148527751
000210 0a 1a 86 6b ec 0b af 3f b2 2f 19 22 2b 9c 8b bf
       0.06063784420534908 -0.013481461504078005
000220 9e 65 6b 6c d9 76 c6 3f 17 e4 cb e4 d2 01 a2 bf
       0.17550199312135545 -0.035170164517644924
000230 fd 6b 90 ec 91 f2 7b bf 04 03 9b be d9 61 cd 3f
       -0.006823129669125014 0.2295486622515669
000240 bf e3 dc 0c 82 2b cc 3f 45 31 31 e6 fd 39 d5 3f
       0.22007775905674795 0.331664538189916
000250 f4 40 2c bc c4 d9 c8 3f f2 23 5f b0 82 36 c1 3f
       0.19414576709869602 0.13447602855583757
000260 4e 25 10 14 78 8c 99 bf 07 ac a0 d4 82 68 8f bf
       -0.024949909424355092 -0.015336057771568446
000270 8f 36 6b 0b 28 77 76 bf 8b a3 0d 0f 8b 3b ad 3f
       -0.00548473017142971 0.05709490355258769
000280 c1 5e 2c bc 55 b3 c5 3f f0 d0 71 3e 70 e3 c4 3f
       0.16953536689901763 0.1631908707528349
000290 f5 95 4b d1 85 5c b9 3f a1 fb 2b 9c 34 3e b6 3f
       0.09906803474185451 0.08688668072498597
0002a0 7f 0d ed 5c 18 80 a1 3f 4f f9 82 44 05 83 b0 3f
       0.03418041357374601 0.06449921534201518
0002b0 80 f8 32 1f 77 cd a6 3f 55 3e a9 65 c7 a0 aa 3f
       0.044536325987324155 0.05200789562206568
0002c0 96 17 2c b5 51 08 c2 3f 8f b5 ae 00 fa ed 98 3f
       0.14087888094234974 0.024345308581975863
0002d0 82 23 4f 8c 7e 9f b5 3f 61 cc db ba ab 47 b5 bf
       0.08446494031444554 -0.08312485992409925
0002e0 f0 14 50 05 64 3d c8 3f 96 0f 6b 49 27 15 d1 3f
       0.18937349566855444 0.26691610498186813
0002f0 42 5e b4 e5 02 71 cd 3f 60 31 69 c7 8c 68 d0 3f
       0.23001133171122673 0.256381220566956
000300 f6 1e 09 aa f1 db cb 3f 0e 48 fd b2 98 a6 b2 3f
       0.21764965822716648 0.07285456056459358
000310 5a d8 8b 50 37 d1 a7 3f f9 bf 12 79 67 23 b1 3f
       0.04651806696158252 0.06694647508516018
000320 3b e6 e8 99 09 e9 97 bf 38 8a cb f4 e6 b0 b7 bf
       -0.023349905032068668 -0.09254306293909387
000330 23 90 a1 1c 39 c6 c1 3f 86 86 73 7a 07 a7 b2 3f
       0.13886178873065189 0.07286116351635927
000340 45 be db ba b2 b0 a0 3f 95 f4 50 73 61 2b 67 3f
       0.032598100004062526 0.0028283027009182262
000350 eb 26 83 ef 8b 98 95 3f 42 4b dd fc 3b e7 86 bf
       0.02108973168723242 -0.011183231977758393
000360 96 53 42 a1 85 69 6d bf c9 a7 d4 3c a1 3a b5 3f
       -0.0035903558692304645 0.08292587027668143
000370 fe 6e 8f 42 ce e7 cb 3f 60 3a c2 e9 f6 a8 a6 3f
       0.21801164865507155 0.04425784686565204
000380 97 9e 19 45 b0 2a 7a bf a3 b7 6e 81 4c 89 9a 3f
       -0.006388367227920042 0.02591437854760382
000390 56 76 83 36 b8 00 b6 3f 7e 24 ac 6f 0f 8a a8 3f
       0.08594847994705765 0.047928316480530406
0003a0 ce 47 77 99 c7 f8 cc 3f 09 2e 79 3b 08 90 ba bf
       0.2263421534867675 -0.10376025630937859
0003b0 3f 68 81 13 6d 8f b1 3f d3 b9 86 62 17 e0 a2 3f
       0.06859475828369542 0.03686593129838269
0003c0 22 68 8e 15 8a 57 a3 3f d2 05 bc 32 42 eb a4 bf
       0.03777724755418911 -0.04085738057439027
0003d0 57 50 ca 4e 50 46 a7 3f 3f a4 84 fc d3 bd b0 bf
       0.045458325975375295 -0.06539654650681913
0003e0 b1 1c 9e ae 3d b1 8f 3f 96 ff 8f 39 1a 55 c3 3f
       0.015474779025465986 0.15103462038677823
0003f0 7d f9 4f 0b 8f c4 af bf da c5 2b 23 2b ad c3 bf
       -0.0620464993771632 -0.1537221833928431
000400 19 f3 72 c2 70 3b ac bf 3b 21 a0 75 89 1c a2 bf
       -0.05514099477429663 -0.03537396965845337
000410 63 ec fd 52 31 16 b2 3f 0f 63 b6 c8 ee f0 a2 3f
       0.07065113331002375 0.03699442100623262
000420 85 1e 94 4a 45 0f c4 bf d0 f9 1d 42 23 4a c7 3f
       -0.15671602384121655 0.18195000389455496
000430 f8 9c d8 68 ba d2 c3 bf df 18 e5 ea aa 8d a3 bf
       -0.15486841315689737 -0.03819021336907879
000440 69 f7 d6 db ca d0 b4 3f 73 24 a4 10 28 88 a6 3f
       0.08131091944866643 0.04400754168643397
000450 96 64 dc db 5f 9f a4 3f a2 e3 da c8 4c bc be 3f
       0.040278430546274155 0.12006072906196022
000460 79 b3 c8 ee 81 bd a7 bf 82 05 92 9c db d0 b8 3f
       -0.046367702864109135 0.09693691799659201
000470 24 62 61 5b 24 3f b5 bf 21 a8 3a 01 c3 22 98 bf
       -0.08299472075430764 -0.023570105505008713
000480 ed c8 9f a7 a7 cb b6 3f cb 10 80 56 1c 05 d1 3f
       0.08904502718340597 0.2659369320611062
000490 62 fb ee 76 3d 66 86 bf 3c 20 64 7f c1 78 b4 bf
       -0.010937195007384385 -0.07996758804449738
0004a0 5a 79 32 78 81 d8 6b bf 5d c2 ab 9e f4 42 b8 3f
       -0.0033991364194455977 0.094771660554906
0004b0 cf 0b a7 be 8e b4 d0 3f 47 5d 39 69 38 42 ca 3f
       0.26102036112223187 0.20514588487524518
0004c0 33 b2 8d 36 03 27 ce 3f 55 04 a5 95 ac 68 d6 3f
       0.23556556857819685 0.35013880361299715
0004d0 2d 63 cb 64 71 9c bc 3f bb 08 48 7d 1b 48 c8 3f
       0.11176212988665375 0.18970054261450806
0004e0 a3 c4 ca 78 14 71 ca 3f 78 c7 3f ec ae 5a d5 3f
       0.20657592676210354 0.33365986891941857
0004f0 5f c6 18 da 83 50 a5 3f 03 56 a4 9c 30 b4 b1 3f
       0.04162990605653926 0.06915572952524233
000500 82 9d 47 ac 81 2c bc 3f 5e c1 78 26 ec 6c c3 3f
       0.11005411582993044 0.1517615497446156
000510 dd 8a 15 c2 f9 35 cc 3f b3 1d f5 ee 50 0f d1 3f
       0.22039720513119834 0.26655982337657774
000520 af 5c a7 34 da c6 bc 3f c2 51 1c 5b 67 e7 d0 3f
       0.1124092463063444 0.264123763060777
000530 95 d7 29 e9 3b df da 3f fb 22 69 22 71 fc b9 3f
       0.4198751236902976 0.10150820818047272
000540 17 3b 03 f6 09 a0 c0 3f bb 4e b0 30 26 4a ba 3f
       0.12988399994215946 0.10269392670334813
000550 24 e4 7e 12 27 e8 cb 3f e1 fa 25 44 0b 37 c4 3f
       0.21802223590000935 0.1579298098331128
000560 97 3c 81 49 c7 05 cf 3f df c8 b7 30 ad 42 c4 3f
       0.24236384476759973 0.1582848060493864
000570 0e f0 17 ea 47 1b c2 3f 00 c1 15 61 5d 09 c8 3f
       0.14145754747721678 0.18778578987576822
000580 f2 9f 16 ec d0 c5 c5 3f 5d af d6 c0 a6 0c d1 3f
       0.1700993683600696 0.2663971789540847
000590 8d f8 16 91 3e 9d a9 3f b9 19 0c e1 a4 94 c3 3f
       0.05002780457606191 0.15297375668178662
0005a0 b3 b9 30 00 08 a1 d5 3f 59 74 a6 c2 9a 98 c8 3f
       0.33795356768214474 0.1921571207466595
0005b0 46 ba 19 0b 0f 61 c0 3f a4 2f 51 a9 fa 22 d3 3f
       0.1279619983865407 0.2990099576461438
0005c0 d9 87 dd 4f 30 52 d0 3f 96 d2 f2 5d d2 75 ae 3f
       0.2550164012847041 0.05949265858490553
0005d0 e7 90 f6 ad 97 96 d0 3f ed 4a 3a 76 20 35 d1 3f
       0.2591914366587517 0.2688676027839126
0005e0 ae d5 bf c2 e5 bf bb 3f 65 6b f5 44 4e 41 cc 3f
       0.10839687351820856 0.22074297301409299
0005f0 37 eb e2 36 18 d8 b2 3f 3f 02 b6 a3 57 6f cd 3f
       0.07360984172821082 0.22996039861392778
000600 bd b0 3e e8 eb ed b2 3f 34 1f bc 4f 2a 7d b0 3f
       0.07394289417306062 0.06440987059260977
000610 e8 79 50 99 11 a4 b9 3f 14 a4 f0 fa a2 4d d5 3f
       0.10015974038149233 0.3328635645471547
000620 18 24 5f 33 1b 51 c7 3f aa f4 85 e4 74 ef d1 3f
       0.18216266640072898 0.28024027172780086
000630 62 63 3e 0f 24 2b d8 3f 00 39 a7 ba 82 e9 d5 3f
       0.3776331089844033 0.34237735965588456

lstm.bias_hh_l0 f8 [200]
000000 3c b5 f1 de bd 0e b8 3f e1 fa 3c a8 8e 68 d0 3f
       0.09397494023297254 0.2563816683722689
000010 b6 d1 c3 fd 4e 86 d0 3f b2 40 dd 66 4b ce 96 3f
       0.25819754392366734 0.022271326211296745
000020 79 63 cc bb 07 78 c6 3f 83 34 78 6f b1 81 b9 3f
       0.17553803129046822 0.09963520976471511
000030 84 98 aa 06 57 38 d6 3f a5 ae bc f1 24 24 b6 3f
       0.34718871737494106 0.0864890184572525
000040 7d cd 58 a2 84 10 b5 bf f3 60 80 cb 5c 15 b1 3f
       -0.0822832962374402 0.06673221557901225
000050 9a 7d 0e 66 19 8d b3 3f 17 a3 c9 2d 0f e6 cc 3f
       0.07637175313583669 0.22577085242962688
000060 47 ae dc 39 8d 7c cb 3f 21 0d 45 c8 56 8b ba 3f
       0.21473851514143602 0.10368864430806869
000070 58 ae 6e 3f d0 98 c7 3f 64 8c a4 ad 60 91 d7 3f
       0.18435099694521528 0.36824814755727275
000080 5e e8 e9 35 5c b5 d0 3f 56 77 ca 80 3f 9a cc 3f
       0.261069348001575 0.22345727718942027
000090 ce 75 74 f3 bf ff c7 3f e3 ac 31 f5 83 c3 c3 3f
       0.18749236476371184 0.15440415832868046
0000a0 9a e7 70 e8 e8 35 c8 3f d6 91 d6 e1 f9 80 cb 3f
       0.18914519643459188 0.21487353827718775
0000b0 ce 20 2b dc e6 c5 c0 3f 8f 5b ed 69 1c 64 c6 3f
       0.13103948355115452 0.17493014499879364
0000c0 09 ae b0 e1 f3 56 ac bf 27 5c a8 b4 bb 6e d3 3f
       -0.0553508961678198 0.3036336197123454
0000d0 24 fd 45 67 3c 1e be 3f d0 f6 4d 4c eb a7 b6 3f
       0.11764886399577229 0.08849974263099658
0000e0 b4 40 8e 90 5d 5c a6 3f db 66 d9 6a 3f a9 b0 3f
       0.04367344274135246 0.06508251532195734
0000f0 e2 1d df ca 9e 9a d3 3f 2a ab 1d 9d 9a 62 89 3f
       0.30631227313685205 0.012395103378101863
000100 10 89 59 f2 ef c0 b5 3f c4 24 fb 84 19 8f c1 3f
       0.08497523943654905 0.13717955582823127
000110 46 69 9b db f7 1c b4 3f 03 e1 11 c8 1d 1d c2 3f
       0.07856701957226617 0.14151355999980106
000120 c6 e3 7f cc a6 56 c3 3f 7a e9 98 43 a8 9c b0 3f
       0.15108189568834812 0.06489040041279806
000130 90 a0 62 1f ef 0a 96 bf e5 06 2f 50 b7 96 da 3f
       -0.021526085177044296 0.41544897871436454
000140 e0 6e d9 dd 3a b6 a2 bf c5 c4 05 ec 08 b7 ce 3f
       -0.03654655416604924 0.2399607803777483
000150 f7 b1 5f 04 16 ca 92 bf 44 c4 6e b8 17 84 9a 3f
       -0.018349021927791722 0.02589451850116499
000160 8e 54 6d f8 ff bb ad 3f 9b a3 36 b3 4c ec d4 3f
       0.058074950290270086 0.3269225835925284
000170 e6 b1 61 36 e2 50 c8 3f 43 dd d8 8b 82 d1 cf 3f
       0.189968372872854 0.2485812361571594
000180 c6 e0 13 cc d2 b6 d2 3f 4a 83 f7 70 76 56 bc 3f
       0.29240865640123237 0.11069431550960221
000190 9b 40 86 72 d1 c0 b9 3f b3 dd 4e 17 1e e4 9b 3f
       0.10059842153555325 0.02723738686810657
0001a0 a0 1a 99 40 54 9d c6 3f a1 0e 6a f7 39 82 cb 3f
       0.17667630342676421 0.21491169529700918
0001b0 a0 15 c4 af 1c a2 a9 3f 09 03 60 c1 76 69 c1 3f
       0.05006494184093957 0.136031002446565
0001c0 d6 08 e0 c4 d8 60 aa 3f 05 ec 74 34 40 04 cc 3f
       0.05152013209591792 0.21887972413409798
0001d0 aa c0 1f ae 5b d1 c8 3f df ab c8 49 d3 a5 c7 3f
       0.19388910295629574 0.1847480879090133
0001e0 75 34 e5 ac 15 ba c7 3f 11 22 ec 07 27 95 c8 3f
       0.1853663534369933 0.19205177199207005
0001f0 0c 9a 07 b7 82 3f 9e 3f 75 2f 87 82 86 cb a8 bf
       0.02953914873241996 -0.04842777579651073
000200 a0 11 2f 9c 3e 2a a0 3f 87 bb ca 64 ef 8c b6 3f
       0.031572300496495176 0.08808799944629984
000210 12 0d c3 15 6a 9b be 3f 16 b4 79 b7 d4 28 a1 3f
       0.11955893546387511 0.03351464023294441
000220 ba 65 6b 8c ec b7 cd 3f f9 de a0 d9 6c 5b 73 3f
       0.23217541557714388 0.004725861736055264
000230 a0 7c 9b 20 7d da c0 3f 0a 03 9b 9a 3d 44 c6 3f
       0.1316677483764339 0.1739575390729658
000240 e5 8e 73 73 6b 81 a5 3f 82 62 62 c8 94 00 c7 3f
       0.04200301918333852 0.17970523628607188
000250 3f e0 77 7a d2 96 7f bf 12 70 83 3e 57 28 a1 bf
       -0.007712194615571432 -0.03351090086081866
000260 91 4a 20 28 6c a0 8a bf 38 f5 b5 a2 cd 84 c0 3f
       -0.013001294111778779 0.12905283398496592
000270 1f 9b b5 05 1d ac 86 bf ea 68 c3 43 04 de c9 3f
       -0.011070467697846418 0.20208791073566285
000280 be 5e 2c 14 4b 97 cb 3f be 78 71 8c 8c 3e 97 bf
       0.21555460438752577 -0.022699543067908882
000290 41 a8 d1 3a 2c 24 9d bf a8 fb 2b 30 8f 16 bb 3f
       -0.0284583006763699 0.10581297803945111
0002a0 b5 a1 9d 23 c1 04 d1 3f ab 7c 41 48 43 3d c4 3f
       0.2659151885805174 0.15811959293475772
0002b0 40 7c 99 6f 3f ea b7 3f 95 4f 6a 61 b2 42 c5 3f
       0.09341808771704141 0.16609792477231325
0002c0 37 2f 58 ba 87 cf b7 3f f9 94 a2 fe ff 0d 8b bf
       0.09301040934968517 -0.013210296591135139
0002d0 fb b8 61 a7 62 85 ae bf aa 33 24 ad d0 89 b5 3f
       -0.059611399586048074 0.08413414218030249
0002e0 eb 14 50 ad 85 ef c5 3f 8f 3e ac 05 50 54 b4 3f
       0.17137213671245574 0.07941150797364059
0002f0 0b f2 a2 2d 99 99 90 3f 61 8b 49 bb d5 7a ac 3f
       0.016210931215697538 0.055624655830590404
000300 f5 1e 09 8a 9e 31 cd 3f f0 df 0a 34 a0 12 9d bf
       0.22807676067372254 -0.028391364265843266
000310 5b 4f e8 90 37 ad 9f bf 36 80 da 6d ce d1 ad bf
       -0.030934208125543133 -0.058241320524075865
000320 7f 39 7a d6 b0 3f b6 bf 3b 8a cb 14 a5 86 b4 bf
       -0.08690934406533833 -0.08017951734249433
000330 1f 90 a1 1c 80 3f cb 3f f4 f2 18 8b d4 e5 ad bf
       0.21287537954333488 -0.05839409063307768
000340 ed 20 92 d2 76 53 b5 bf 2b bc 32 2a 83 a8 c6 bf
       -0.08330481186760937 -0.1770175891919917
000350 14 d9 7c b6 09 76 95 bf a1 a5 6e 7e 7f 68 90 bf
       -0.02095809150997592 -0.016023628322420106
000360 56 ed f5 62 57 11 b2 3f 56 82 b5 b2 63 57 71 bf
       0.07057710805923043 -0.004233731694825401
000370 00 6f 8f 42 39 56 c6 3f 8f 8e 70 9a 2f b9 c1 3f
       0.17450633764280354 0.13846392670631189
000380 f2 99 51 2c 0f aa b4 bf aa b7 6e 01 46 9a 96 3f
       -0.08071989852906095 0.02207288154357171
000390 d4 44 be f4 0d b0 c2 bf ce ed 29 d8 39 5f bc bf
       -0.1459977574382153 -0.11082803275524286
0003a0 ce 47 77 e9 0d c4 c8 3f 1e 97 bc b5 6a 0b c4 bf
       0.19348310374931404 -0.15659841417180415
0003b0 40 68 81 b3 84 59 b1 3f 1e 8c f2 7a 7e 02 90 bf
       0.06777219183405325 -0.015634514097325185
0003c0 e7 cb 38 95 e7 5e b6 bf 84 01 af 5c 5f d2 c4 bf
       -0.08738562958824013 -0.16267005944792967
0003d0 ec d7 9a 28 a9 76 bf bf 3a a4 84 0c 17 52 b6 bf
       -0.12290436974839708 -0.08719009452455931
0003e0 67 3c 2c 4a a0 07 b6 bf ac f3 ff 31 9e c1 75 3f
       -0.08605386553630155 0.005311601591526587
0003f0 01 98 ff b4 5a d1 69 bf d1 c5 2b 03 0b 46 c9 bf
       -0.003151585733564666 -0.19745004324754103
000400 ac bc 9c 38 c4 e8 c0 bf 87 10 d0 fa f4 94 b6 bf
       -0.13210346950788698 -0.08821040271146972
000410 bb b1 f7 4b a5 bf 99 3f c8 98 ed 8d e1 bd c1 3f
       0.025145132791225083 0.1386072104462015
000420 47 e8 41 29 80 b6 8e bf 5a e7 77 d8 42 7e ad 3f
       -0.014996529826238126 0.0576039208644505
000430 f7 73 62 03 66 2b a9 bf 29 e7 1a dd c6 60 a9 3f
       -0.049159229195744496 0.04956647347485294
000440 8e 08 29 84 b0 b4 b1 bf 24 6e 6f bd 3f 31 8a bf
       -0.0691633532196951 -0.012789247482877526
000450 3c 32 ee 4d 03 0f b8 3f a2 e3 da c8 b9 f8 b7 3f
       0.0939790787944696 0.09363900331199074
000460 e8 2c b2 79 17 e4 c2 bf 7f 05 92 9c 17 98 bb 3f
       -0.14758580629527462 0.107789493298716
000470 3c c4 c2 46 6f bc ac bf f3 aa d8 ff 71 02 c6 3f
       -0.05612514246730213 0.17194962494371388
000480 c3 91 3f 4f 07 a0 a5 3f ce 10 80 96 e8 b8 d1 3f
       0.042236545966975146 0.27691092202463785
000490 62 df dd 62 70 09 b7 bf 49 20 64 3f 37 86 ba bf
       -0.08998777784097237 -0.10361047074923237
0004a0 dc c9 e0 4d 77 53 c1 bf a7 3d 54 c1 37 63 be bf
       -0.1353596811546386 -0.11870144338558096
0004b0 91 17 4e 95 57 97 cd 3f 3d 5d 39 4d 0b ab c1 3f
       0.23118109503064635 0.13803235312182408
0004c0 27 d9 46 fb bd 3b d3 3f 54 04 a5 25 b2 fa d5 3f
       0.30052136934991086 0.34342626262884335
0004d0 4f c6 96 e9 4f 4a a0 3f bf 08 48 9d be 5e cf 3f
       0.03181695677211548 0.24507887534861614
0004e0 43 62 65 84 dc 09 d8 3f f0 8e 7f 48 f2 37 c1 3f
       0.37560189179706444 0.13451984920458626
0004f0 b0 19 63 68 e2 48 8e 3f 08 2b 52 2e 0a e4 cf 3f
       0.014787453470842177 0.2491467214752776
000500 bd ce 23 16 b1 27 c3 3f 5d c1 78 32 1c 9b ce 3f
       0.1496487959008074 0.23910858597219944
000510 b0 15 2b 34 7a ff b3 3f 52 3b ea 6d 5a 07 c7 3f
       0.07811702512397889 0.1799119030660799
000520 b9 5c a7 f4 c5 30 b4 3f 95 a3 38 77 6e 70 ca 3f
       0.07886922095291284 0.2065561372885695
000530 91 d7 29 39 6c d1 d7 3f 76 91 34 a5 8f 32 c8 3f
       0.37215715010040024 0.18904300276438918
000540 c3 13 f3 f7 62 71 a0 bf a3 13 2c 2e ce 07 d0 3f
       -0.032115071074748446 0.2504764033222335
000550 21 e4 7e 50 12 9c c8 3f e4 fa 25 c4 32 19 c5 3f
       0.19226292543842852 0.16483149125630014
000560 96 3c 81 99 ce f2 ce 3f e5 91 6f c1 89 4a bf 3f
       0.24178488250115454 0.12223111126474569
000570 24 e0 2f 74 d0 8f b1 3f ff c0 15 3a 58 5e c8 3f
       0.068600681653948 0.19037916980915523
000580 fe 4f 0b 18 82 2d d2 3f 61 af d6 78 9d 5b d6 3f
       0.2840275988394295 0.34934174347539765
000590 38 be 45 64 0f a8 ce 3f b4 19 0c fd 5a 81 ca 3f
       0.23950378795733385 0.20707261424850076
0005a0 b3 b9 30 44 1c 19 d8 3f 24 3a 53 9b c2 a0 d1 3f
       0.37653261813366184 0.27543702286212324
0005b0 53 ba 19 39 7b 2f cc 3f 9a 2f 51 4d d9 9e d7 3f
       0.22019901550398177 0.369070363526356
0005c0 d2 87 dd 20 42 d4 d4 3f 53 5a be eb a3 28 d1 3f
       0.32545521935946653 0.26810548803169815
0005d0 e2 90 f6 81 fe 7e d3 3f d6 2b e9 d8 c5 1a b0 3f
       0.3046261090442056 0.06290852113413278
0005e0 91 ab 7f c5 fe e5 a8 3f ad b5 7a 28 22 e9 d0 3f
       0.0486297241294188 0.2642293353372576
0005f0 ab 75 71 a3 f4 d1 c0 3f 41 02 b6 7b 1d 57 cf 3f
       0.1314073370039471 0.2448460439736824
000600 c2 b0 3e a8 ae ee bc 3f ca 07 ef 43 38 40 d5 3f
       0.1130170021776307 0.3320446647086298
000610 03 3d a8 68 52 0c ca 3f 18 a4 b0 e4 0e 12 d2 3f
       0.20350103483404078 0.2823521836567706
000620 85 e2 db a0 54 a6 4e bf b8 d2 17 92 e6 85 b4 3f
       -0.0009353554939642439 0.08016816202855181
000630 d7 c6 7c 86 3a 0c cc 3f 01 39 a7 06 9c 73 d3 3f
       0.21912318770187397 0.3039312424633778
