AIModels/trainedModels/monolithicModels/trainedModel_05_20_2023_12:39:22.pth (torch, 798503 bytes, 18 tensors)

lstm.weight_ih_l0 f8 [200, 112]
000000 a6 cf 2d ec 0b 90 98 3f 90 f0 f6 10 4c 6c a6 bf
       0.023986994066447352 -0.04379499156081679
000010 be 7b 69 5d da 31 c0 3f 7f 44 04 b4 ed 27 b1 3f
       0.12652139245161992 0.06701551098764645
000020 20 9c 89 af ad 2a aa bf d6 cb 7c ff 36 dd ab 3f
       -0.05110686080734461 0.05442211025947301
000030 63 5f 3c 85 15 4e bc 3f 6d 40 eb 18 f7 5d 9d bf
       0.11056646826579945 -0.028678761382991903
000040 25 eb a5 d9 3e 16 b9 3f 6e 91 07 6c e3 7f 90 3f
       0.09799568952250277 0.01611285540447354
000050 e5 35 ff 6d d7 68 ca 3f 24 bd b4 a2 54 5a 99 bf
       0.20632450934355898 -0.024758646422182853
000060 56 53 64 16 8f cc b3 3f 49 a4 7f f6 95 4f be bf
       0.07734007164647258 -0.11840188282043686
000070 12 2d 1a 7d ba c3 91 bf 3b e9 ff 08 63 19 94 bf
       -0.01734820736468829 -0.01962809317044754
000080 82 48 a4 90 8c d4 b9 bf 65 54 d5 3b 34 c3 91 3f
       -0.10089949160854597 0.0173462068099365
000090 bf c2 08 e7 62 49 c6 3f cb c8 23 bb 83 43 d5 bf
       0.17411457329719401 -0.33224576259011646
0000a0 ae c8 6e 20 53 37 7f 3f 1b 67 eb a4 b3 9b a3 3f
       0.007621121133455739 0.03829728496721271
0000b0 3f 94 d2 9b 0f e0 a9 bf 0a 7d 0f 2e a6 21 d2 bf
       -0.05053757454997098 -0.2833037805375659
0000c0 b4 94 2a 5f 70 e5 a8 bf d0 98 92 47 f4 d5 66 3f
       -0.048625480286582784 0.0027875681958732038
0000d0 26 2a ae 00 5c 1e c0 3f 48 85 72 a1 24 a7 b1 bf
       0.1259264949151923 -0.06895665113053895
0000e0 8b 5c c5 b3 d2 6e 96 3f 39 3e 32 2b eb 55 bb bf
       0.02190713140711557 -0.10677976421924819
0000f0 91 ee 58 f6 95 7c bf 3f 3f 42 d2 e2 08 59 d5 bf
       0.12299477829304296 -0.33355924749870164
000100 59 bf 7c b4 50 30 b2 3f 2e 5d 36 99 2f 25 75 bf
       0.07104973226955504 -0.0051624163928843236
000110 c7 81 fd f7 a2 11 c3 3f ff c1 d0 d3 6e c8 b7 bf
       0.14897572621249663 -0.09290211364055521
000120 26 5a 21 91 3b da c2 bf eb 4a 89 67 7b ba ba 3f
       -0.14728493296088735 0.1044079902433556
000130 1d 20 18 7a 71 a3 ab bf 61 9d 0d e4 f5 8f b6 bf
       -0.053981348184663804 -0.08813416307167678
000140 0e db b4 fe 6c 07 b0 3f d4 29 d0 57 53 1f be bf
       0.06261330812854402 -0.11766549009204336
000150 81 cc a2 2d bf 09 bd 3f 6e d4 6f 9c 96 8c b5 bf
       0.11342997421415825 -0.08417645758875533
000160 14 b8 58 86 94 d8 b4 3f 14 1c 31 58 a9 bb 9f 3f
       0.08142975120492252 0.030989309318354044
000170 a4 25 ac 41 7f 07 c3 3f 7b 71 0e f0 6b 6b c2 bf
       0.14866629320776525 -0.14390324803833807
000180 46 8d 87 0c e9 49 ad 3f 1e db 77 cd eb db bc bf
       0.05720451620052329 -0.1127307297355
000190 86 5e ae 16 80 1b bb 3f 16 e5 30 65 11 a9 ba bf
       0.1058883719800808 -0.10414227219088831
0001a0 1b 4e e1 44 30 ff b6 3f f3 8b 36 bf ea 53 a1 bf
       0.08983136827128428 -0.033843360749663896
0001b0 89 7a 70 8a 8d 11 c1 3f f4 fc 48 c9 42 b8 c9 bf
       0.1333481718038068 -0.20093569591879368
0001c0 03 ab 37 93 ed 09 a8 bf 80 84 25 80 81 68 b6 3f
       -0.046950744839554324 0.08753213289812045
0001d0 e1 60 8a 24 d8 0c 77 3f 7a 08 ea f9 99 45 da bf
       0.005627483661236194 -0.4104981365745811
0001e0 7c 51 61 31 e8 10 81 bf d8 62 0c 02 2d f9 ad 3f
       -0.008333028799974988 0.05854168558125189
0001f0 c5 46 96 94 aa e1 b0 bf 35 90 89 e2 66 70 d0 bf
       -0.0659433949242852 -0.2568604671744226
000200 68 5c 87 35 a1 e2 a3 3f 20 33 6e 13 a5 3f a1 3f
       0.038838422569534015 0.03368869650066686
000210 17 86 da f8 e8 ca 87 bf 4e b8 76 7d dc b6 9a bf
       -0.011617488951119843 -0.0260881854607578
000220 b9 35 b8 6f eb fb b2 bf 18 a7 1c de 00 a8 a9 3f
       -0.07415648915794905 0.05010988913848119
000230 98 62 9e 21 e0 35 b9 bf 76 4a ad 4c d7 19 c7 bf
       -0.09847832508820387 -0.1804761051558505
000240 f4 c6 c8 0e 20 52 9f bf a6 db 80 77 27 52 ad bf
       -0.030586720373498147 -0.05726741155415675
000250 69 a3 13 ee 63 c5 90 bf ee 27 fd 77 10 0e c4 bf
       -0.01637798443417485 -0.15667920931656404
000260 1f 91 26 7a 87 c4 bd bf a7 c6 df 38 09 d2 aa bf
       -0.11628004772370958 -0.05238369769348355
000270 84 88 a9 db be 72 b9 3f 08 f3 fc 91 ac 8c d3 bf
       0.09940712797973289 -0.30546106583260313
000280 4b 42 98 c8 cd e5 94 bf 9f 7e c5 6a 56 68 99 bf
       -0.020407882088024725 -0.024812078730404804
000290 f0 9c 59 1a 99 99 9a bf 73 0b 12 36 14 31 c6 bf
       -0.025976555093078113 -0.1733727706924487
0002a0 46 3e 82 65 4c 0a c4 bf 2d 30 e0 32 10 c9 be bf
       -0.15656428295595698 -0.12025548212130906
0002b0 8d 59 c0 a4 88 df be 3f 5d 54 84 30 94 f4 ad bf
       0.12059835455179364 -0.058506613657450336
0002c0 1d b9 a4 5c 36 30 c5 bf 3e 6a e4 95 49 42 b1 bf
       -0.16553382419210375 -0.06741771611670175
0002d0 e6 c1 ca 31 e8 57 b6 bf 1f fc 79 27 82 fc d7 bf
       -0.08727885451913373 -0.3747868905556419
0002e0 30 93 d9 c3 e3 6c c2 bf a2 95 12 4c ca a6 c4 bf
       -0.14394805014594558 -0.1613400336693021
0002f0 dc e9 b4 0a 17 32 bc 3f 6d 87 4f 43 63 c7 a3 3f
       0.11013931285280115 0.0386305827776273
000300 13 aa b1 db 2c 8e a2 bf 54 56 7f 6b d4 37 bb bf
       -0.03624096090137043 -0.10632064461182128
000310 80 58 14 1c 14 04 c0 3f 3b 5d 1c a7 e8 49 96 bf
       0.12512446757381568 -0.02176631469691624
000320 16 83 f8 f9 49 14 ac bf 0f f6 bb bc 1b 42 a8 bf
       -0.054842292560584635 -0.047379366673322314
000330 28 2e 52 57 77 dd 9b bf 92 b3 6f 2e 85 42 c0 3f
       -0.02721201391663733 0.12703003661536322
000340 59 11 78 1d 88 c8 c7 bf 73 74 b1 a3 48 60 95 bf
       -0.18580724181095823 -0.020875105849303254
000350 af 30 97 cb 73 ff dc bf 6a 36 28 7e cd 0e d2 bf
       -0.45309157258885596 -0.28215348548915264
000360 70 1c 0a e2 9b ca bf bf 19 23 da 56 98 54 ba bf
       -0.12418531673948663 -0.10285331840908575
000370 64 7c 62 4d b0 d5 c8 bf 44 36 f5 b6 a6 d6 d2 bf
       -0.19402126101064987 -0.2943512713144154
000380 71 0e 92 5a 17 f5 84 bf 13 8a 9a d0 c3 35 64 bf
       -0.010233099414342224 -0.002467043352980322
000390 bf 97 90 9c f3 0b 98 bf 8c 7c 90 12 9f 70 ba bf
       -0.02348309176536367 -0.10328096583588059
0003a0 c6 78 15 16 2d f8 c2 bf 8b 5b e5 19 bb d0 a0 bf
       -0.14819873407663503 -0.0328424901114693
0003b0 5e c1 27 03 50 36 73 bf d1 8c 3d 26 e3 15 9e 3f
       -0.00469046835722539 0.029380368432055107
0003c0 11 60 9b fd 6b c7 b3 3f 1e f3 bb 5d e6 c8 aa 3f
       0.07726168576789429 0.05231399435249372
0003d0 04 af aa 58 0f f9 c3 bf 0f 2d 2d a6 26 d5 c6 bf
       -0.1560382063811333 -0.1783798514755763
0003e0 7f 09 b7 30 e5 03 6f bf 1a c9 9b dd 34 64 c1 bf
       -0.003786037099161976 -0.1358705598900734
0003f0 3b 87 c3 9f c9 4c 9f bf f1 a3 03 c9 4b 55 c5 3f
       -0.030566358925063524 0.1666655284418819
000400 d3 be 76 20 b8 c1 b8 3f 28 e3 7d 00 80 e9 c3 bf
       0.09670592110228009 -0.15556335472117522
000410 36 55 0c b7 e0 88 b3 3f b1 7c 71 87 e7 62 a3 3f
       0.07630733937215414 0.03786395576821045
000420 68 77 c1 98 dc 1b b5 3f 71 29 96 1b f8 61 90 3f
       0.08245638589275261 0.015998722728491403
000430 c8 8e 87 6e f6 34 c5 bf 0a 66 9f e4 01 87 9a bf
       -0.1656787910170492 -0.0259056373396103
000440 d6 6c 08 63 1a d0 c3 bf fd 3a d5 ec 19 f5 a9 bf
       -0.154788301807321 -0.050698099289197864
000450 10 fa 73 e1 69 12 c3 bf 45 f3 74 6f 5c 9d 89 3f
       -0.14899943836640306 0.012507173682587367
000460 cd 97 3c e0 e9 f8 bb bf e5 33 0d ad c2 6f c0 bf
       -0.10926686977890583 -0.12841065835746615
000470 e6 72 33 54 78 ad b7 bf 04 84 17 3d 44 cd ca bf
       -0.09249069266975204 -0.20938923819542776
000480 41 35 f9 e8 ce 89 81 3f 9e 3c 86 65 be 6f 50 bf
       0.008563629612718617 -0.0010032042829129294
000490 06 e4 60 8d 3d 42 c0 bf 8b 49 f1 5f 63 b5 ae bf
       -0.1270214977573973 -0.059977632009252956
0004a0 46 a2 34 e7 c7 ff b2 3f d1 88 2b 18 5d c5 b2 bf
       0.07421540636699672 -0.0733240303048064
0004b0 f9 35 5f e7 a8 7d b9 3f d8 f4 eb 83 26 ed 97 bf
       0.0995736660836072 -0.02336559467493235
0004c0 0a e4 50 0b 11 00 bb 3f 67 86 85 aa 4a f6 a5 3f
       0.105469765913668 0.042894681277869044
0004d0 b2 09 64 67 f7 26 a2 bf 20 cb 86 3a 21 ad c2 3f
       -0.035453540202087366 0.1459085021757227
0004e0 e9 be bf fe a6 45 72 3f f9 9b 2e a4 e0 91 72 3f
       0.0044609568831075275 0.004533650880069289
0004f0 27 ff 6a 47 7f cf ac bf 31 50 73 91 1b a8 9c bf
       -0.0562705778770563 -0.027985029938307263
000500 43 0d b0 bf 18 23 66 3f 84 f4 ef a2 42 0d b5 3f
       0.0027022822737322884 0.08223358610116988
000510 de f7 03 55 f2 47 c3 bf c0 d4 6c 95 f6 c2 cb 3f
       -0.15063313628337388 0.21688730522297384
000520 1a b6 31 cf 0f 9c b5 bf d9 e3 97 c8 d3 c8 b6 3f
       -0.08441256340457706 0.08900188109681952
000530 44 54 11 7e 0a 4e 73 3f 45 45 01 3b d2 66 b9 3f
       0.00471309755910904 0.0992251771979414
000540 2d f7 ea f4 c5 d9 bc bf 05 a0 be 9c e8 b6 c2 bf
       -0.11269795636596021 -0.1462069287638316
000550 fb 12 fe 41 d3 15 c4 bf 74 71 ec 84 7e 5c b0 3f
       -0.15691605303086206 0.06391134972768048
000560 e8 d2 0a dc ee 83 c0 3f c6 27 75 ed 92 e3 b8 3f
       0.12902627701045977 0.09722250268273944
000570 ea 85 02 0b a9 e9 b5 bf c8 56 52 17 71 d5 9e 3f
       -0.08559662359996137 0.03011109070629095
000580 3e 22 10 3e f9 f5 96 3f 81 b4 09 fc 53 79 bf 3f
       0.02242268983175876 0.12294506934422779
000590 b3 f3 99 df 72 1e a6 3f f3 0f c2 77 de 95 cb 3f
       0.043201055331315706 0.21551113936959573
0005a0 ff 7e 6a 01 e6 ff 69 bf 2f 23 4b cd 2d b9 bf 3f
       -0.003173779706528878 0.12391935598419644
0005b0 dc 8d 76 cd 0d 97 aa 3f 3e 9a b9 1d 0a 36 d1 3f
       0.051933699923462945 0.26892331030686367
0005c0 8b b1 8a 04 0d 24 8c 3f 5b ba a4 fe e3 7c a3 bf
       0.01374063654051196 -0.03806221469345835
0005d0 c2 d8 ea f7 b9 d8 b6 3f ea 94 48 79 dd f6 b6 3f
       0.08924448301954427 0.08970436297439091
0005e0 01 21 55 8b 15 2a b1 3f 7d a4 b7 08 92 15 b9 bf
       0.06704840327904905 -0.09798538887811677
0005f0 21 47 53 0c 50 84 b4 3f 0a 8e 7d a7 58 fe c2 3f
       0.08014393139754052 0.14838703325504837
000600 b4 10 b6 91 c9 3a b3 bf 03 84 ce 0a bb 0e b9 3f
       -0.07511577422525556 0.09788102163157934
000610 80 50 fc cf 0c d7 c0 bf f1 d5 ff f1 7a 11 bb 3f
       -0.1315628066591934 0.10573547752559144
000620 0e 52 a1 c9 a9 13 c5 3f 45 02 88 0a 73 95 a4 bf
       0.16466257424566816 -0.040202708278233724
000630 14 2a 6a 3a 7e 5a b4 3f c2 3c 43 8f db 6e c1 3f
       0.07950581480159996 0.1361956071400297
000640 71 80 db 55 82 1e b4 3f 67 33 4d a3 56 20 ca 3f
       0.07859053226593617 0.20411189054211862
000650 16 e9 8c 66 c8 b3 ba 3f a4 bc e6 4a d4 cc aa 3f
       0.10430576804802558 0.05234397329638199
000660 40 8e 35 55 99 16 c0 3f f9 d6 e4 be 79 ec cb 3f
       0.12568966541867788 0.2181541616534373
000670 c2 38 73 ff 50 b9 85 3f 3d 47 7e 58 9d c2 cc 3f
       0.010607369228094025 0.2246891672226016
000680 8d 17 3c bf 5d 7f bd 3f 50 43 9a e2 b6 35 c1 3f
       0.1152247039682079 0.13445173325137683
000690 a1 c2 94 51 44 d1 c4 3f b0 b2 ca e5 2e ed c9 3f
       0.16263631804897208 0.20255075664808464
0006a0 cf c9 4e fd e7 3d a9 3f 8a 50 49 33 46 58 c9 3f
       0.04930043189178301 0.1980064154073527
0006b0 a0 73 fe e9 b3 f2 bc 3f 45 d1 dc a3 0e ca a6 3f
       0.1130783506655022 0.04451032400393954
0006c0 29 f2 19 87 ef 0a b0 3f e8 22 a4 a5 58 f0 cb 3f
       0.0626668648564609 0.21827228630015516
0006d0 05 66 a9 27 0c af c0 bf 7a 7a b7 25 e7 90 99 3f
       -0.13034202515227392 0.024966823269887396
0006e0 15 55 62 25 4a f2 a9 3f ab 57 4d 66 05 4a ae 3f
       0.050676648200502473 0.05915848611645854
0006f0 c3 1e 46 c1 51 3f 81 3f 90 47 3a da b2 d7 a0 3f
       0.008421553335906556 0.032895650042646385
000700 23 25 f0 3d 25 d9 73 3f 17 33 d4 6b 03 63 c3 bf
       0.004845757938718695 -0.15145914807399016
000710 a9 be 76 54 f5 9b ba bf 89 53 d6 d5 f0 67 c9 3f
       -0.10394223510842927 0.19848452035207867
000720 74 05 68 c6 af 8e 9b 3f cd 64 96 71 16 f3 cb bf
       0.02691149376369624 -0.21835594698203523
000730 50 43 cf aa c8 e0 c2 3f 91 b1 e3 f9 cc dc bc bf
       0.1474848588973381 -0.11274415112320059
000740 73 00 08 01 8f 84 b5 3f ac 66 39 73 25 35 d6 bf
       0.08405393386056108 -0.3469937920795967
000750 15 44 2a a4 41 50 c4 3f 93 09 19 85 a7 31 b5 3f
       0.15869923129915323 0.08278891562898698
000760 d6 ee 2c f5 da 38 97 bf 20 45 fe 7d 4d 57 d2 bf
       -0.022677823271108753 -0.2865785341646916
000770 df 94 44 d0 96 72 be 3f 40 d2 7a 5a d6 86 ab bf
       0.11893599114098972 -0.05376310209741009
000780 11 b1 70 f1 92 bc b3 3f 33 6c 13 a1 8b eb cf bf
       0.0770961608365648 -0.24937577595741942
000790 ed 0a 2a d3 8c 5c 44 bf 14 f6 f2 ef 55 27 c8 bf
       -0.0006213843938243903 -0.1887004300714784
0007a0 1e d1 e5 95 ee d8 a7 bf 89 15 a8 04 79 3b d6 bf
       -0.046576934621869834 -0.34737992720359806
0007b0 83 c5 1e cb 84 60 9e 3f f7 b2 97 19 78 4b d1 bf
       0.02966506471392939 -0.2702312707831846
0007c0 df 0c 51 9f 2f bb 9a bf 9b a0 65 3b 0a 35 ca bf
       -0.02610468301669477 -0.20474365139239556
0007d0 25 c8 3f 8d 71 b0 b6 bf 32 7d 16 56 f4 f1 93 bf
       -0.0886298150869896 -0.01947767043531918
0007e0 b1 70 f1 d0 32 01 ba bf 6b 91 d5 30 d8 97 d4 bf
       -0.10158078766966373 -0.3217678524872755
0007f0 24 31 ce aa 46 c3 bd 3f b9 f7 0f 76 44 23 b9 bf
       0.11626092596106169 -0.09819438822157069

lstm.weight_hh_l0 f8 [200, 50]
000000 33 5b fb 20 02 e1 63 3f 7a 49 14 f6 d1 9b d3 3f
       0.0024266282633606195 0.3063855078809393
000010 ef 25 3c f3 f3 5c 6d bf e9 24 fb fe bd c3 d1 3f
       -0.003584362473593165 0.27757215404979135
000020 83 ac 13 df 95 25 c4 3f 3e 0c 0e 88 e5 a2 ba bf
       0.1573970164530217 -0.10404810496952252
000030 e0 bd 0e 02 53 84 c8 bf c8 44 59 0e 44 07 d2 bf
       -0.19153821564167028 -0.2816934719204025
000040 80 19 f2 b6 ff 1e c1 3f 06 b1 28 b1 2e cb 93 3f
       0.13375851090331636 0.01932976681034495
000050 4c 7c c7 95 37 2f b4 3f 52 4a a0 7d 43 95 b5 bf
       0.07884547621459709 -0.0843088323311261
000060 f0 80 63 f6 97 7d c2 bf a5 8c 76 e7 b7 54 a1 bf
       -0.14445781260201995 -0.03384947491147131
000070 5e ee 85 3d aa 8e ac 3f e7 14 b9 3a de 7c be 3f
       0.05577594758048286 0.11909283574739825
000080 03 8c 8c 14 75 01 c0 3f 87 cc cf c3 34 d9 ca bf
       0.12504447463388155 -0.20975360451811673
000090 f0 d3 ef 00 52 c1 64 bf e4 f3 86 30 79 9d b8 bf
       -0.0025335885652517584 -0.09615285334343998
0000a0 56 30 8b 35 53 4a c7 3f ba 88 21 7e b4 1d b0 3f
       0.18195572008551392 0.06295326308603225
0000b0 4d 34 3b 44 4c b9 8b 3f 28 4d fd 0d a7 89 a6 bf
       0.0135370214769869 -0.044018955667207316
0000c0 85 f2 b1 ab 45 36 c4 bf 48 e5 ba e7 62 12 b1 bf
       -0.15790625461149346 -0.06668680341217226
0000d0 fb a0 6e 33 09 db ce bf 2a cb 0d 0d c9 c0 bd bf
       -0.24105944644293928 -0.11622292107294344
0000e0 2e 5c d2 00 83 91 cb bf 62 f0 3c 2e ea 06 c1 3f
       -0.2153781656276989 0.13302352197377149
0000f0 16 41 e7 9b 9f 4c a2 bf e2 ea cd cf ef 80 b4 bf
       -0.03574084070317178 -0.08009241889332544
000100 e6 0a 9f a3 e6 11 94 bf 9c 57 5b 24 86 6f cf 3f
       -0.019599536644601033 0.24559094214663169
000110 64 73 40 b3 68 61 c8 3f 7f 1e ac d1 7f 4a be 3f
       0.19047268631484393 0.11832426899865743
000120 d5 43 ea 2b 40 2e b1 3f 93 b4 b7 40 8f f0 af bf
       0.06711197921892105 -0.06238219895372157
000130 dd 31 af 2b 3a 57 b9 3f 00 e0 78 6b 0a 43 b7 3f
       0.09898723188889087 0.0908667099364493
000140 42 e8 00 ed 07 96 ac 3f 34 ba e1 1d a3 7c b9 bf
       0.05583214538678806 -0.09955806235823489
000150 45 f7 79 e9 f5 6a bd bf 51 4f 49 9e 58 e1 ad 3f
       -0.11491333913906228 0.05835987980085967
000160 91 b9 17 68 de e7 c6 bf 40 22 02 0a 24 1d d2 bf
       -0.17895107348108444 -0.2830286119210861
000170 c9 2f 0b 5d 01 bb b4 bf ee 8f ba ce 52 09 c5 3f
       -0.08097847482275634 0.16434702963044806
000180 9d b0 80 5f ee 74 ab 3f 98 64 6f fc 96 72 d5 bf
       0.053626488836330234 -0.3351190056978992
000190 3a 2e 8b fb 22 2e ba 3f e8 2d ea c8 03 ea cd 3f
       0.10226648942187291 0.23370406446734582
0001a0 08 e8 02 01 a0 df a9 bf 02 7c b3 7d 85 3e c2 bf
       -0.05053424846978777 -0.1425330032134014
0001b0 81 96 a1 bb 5b e2 71 bf aa a8 4e 81 cb ff b1 3f
       -0.004366262752318329 0.07030937106051974
0001c0 d9 6c bf 69 11 05 b0 3f ce 1c b1 14 94 8a c4 bf
       0.06257733184559146 -0.16047907839149506
0001d0 61 ec 01 61 c2 1a 7e bf 96 39 9b b7 6d 35 b0 bf
       -0.007349738400189571 -0.06331525547577707
0001e0 bb e0 8c 29 75 a4 d0 3f 80 ad ce 00 7b 37 c9 3f
       0.2600376992954911 0.19700562991543435
0001f0 50 5a 02 49 97 5c d2 3f 84 9f ed 06 6e 53 89 3f
       0.28690130357555166 0.012366160952026702
000200 fc 21 1a 26 00 97 c4 3f f3 4d e3 b7 95 c2 c0 bf
       0.16085817203953912 -0.1309382579698731
000210 3e 97 df fb fc c0 c3 3f 53 fd 3f 68 af 58 a1 3f
       0.1543270330286592 0.033879739261460394
000220 26 b4 f9 8c 81 4b d2 3f cd a0 c1 77 20 48 b4 bf
       0.28585852400903133 -0.07922556804408316
000230 b1 6f f6 fd 91 c8 b3 3f 4b 31 6a d3 5b a5 d0 3f
       0.07727920961627778 0.26009269376733773
000240 13 59 b7 26 fd fd a0 3f 92 b9 c4 5d e4 65 c6 bf
       0.03318778131112956 -0.17498449877298278
000250 93 5e f6 20 25 79 d7 bf 8e 90 31 11 b0 fa b9 3f
       -0.3667691060922859 0.10148144168630521
000260 5b e8 72 37 55 ca c5 bf 84 4e e7 d8 e3 9a 99 bf
       -0.1702372093912484 -0.025004921067945066
000270 63 ab 46 67 d5 79 5a bf c3 ff 68 03 cd 3c ca bf
       -0.001615961457995773 -0.20498049417983397
000280 9d f6 00 be c7 65 c0 bf ba c7 14 f6 67 75 a3 3f
       -0.1281060865166425 0.038005112446981085
000290 2a 82 e2 79 59 f1 d2 3f 3d 92 d1 81 8b a3 cf 3f
       0.2959808054238545 0.2471784957771365
0002a0 3e 1c ab b6 8f e9 d1 3f b6 9c 23 ad 6d 13 c2 bf
       0.2798804553862658 -0.14121790842111687
0002b0 8c 24 48 14 48 41 8e bf 13 64 aa ca a8 6c a1 3f
       -0.014772952193214083 0.03403212999291596
0002c0 95 a6 34 e4 cc 12 ba 3f e1 a7 b2 12 d5 e5 d0 3f
       0.10184937068393148 0.2640278513523509
0002d0 65 cb 52 da e7 ff b2 3f ff 97 84 f0 e6 f8 ac bf
       0.0742173107162621 -0.05658647237787306
0002e0 05 5a 47 fd 06 72 a8 bf fc ae da 33 5b 6d a1 3f
       -0.04774495927602022 0.0340374470518707
0002f0 88 59 03 65 69 25 d6 3f 53 38 45 71 97 9f b6 bf
       0.34603342880782195 -0.08837267413511656
000300 e3 70 c1 19 be 34 b0 bf a9 e3 9b 56 3f 21 b3 bf
       -0.06330478791045695 -0.0747260652968992
000310 c7 3c 48 56 dc b6 89 bf ca 8b e2 9f 42 2a b6 bf
       -0.01255581034004506 -0.08658234027329495
000320 62 9c 97 e7 6c 0b c2 bf dd d9 c5 8b 5a 7e b3 3f
       -0.14097367580618242 0.07614675438330872
000330 a4 38 90 17 ff 8c cc 3f 5b 0c 5d eb 08 1f b9 3f
       0.223052870278882 0.09812980409792386
000340 89 4d c0 c4 49 37 82 3f 81 09 7d c9 09 1e aa 3f
       0.008894516293401338 0.05101042351317898
000350 ed 1a 38 bd 6a 68 95 3f be 0a ac 3a 52 da d8 bf
       0.0209061315527163 -0.38832526902858067
000360 e0 c2 d0 2c 3c a0 c8 bf c9 38 b6 18 7b 4e c1 3f
       -0.19238998592620415 0.1352075453436952
000370 cf 3a 42 a2 95 d0 c2 3f 77 fa 16 35 83 cd bf 3f
       0.14699049399174277 0.1242296223272009
000380 46 bd 77 8a 9d 95 cb 3f f4 ea ac 30 44 73 b1 3f
       0.21550339947814673 0.06816507519117093
000390 73 b0 d7 9b 65 33 c2 3f 06 99 63 70 57 2d bd bf
       0.14219350919245563 -0.11397310727952367
0003a0 02 fa b9 a0 90 0c c1 bf 79 e1 0c fb ce 20 98 bf
       -0.13319595191929073 -0.023562654564757566
0003b0 cc e6 e3 32 83 9d c4 bf 13 cf 9f 2c c5 78 a6 3f
       -0.16105689988017102 0.0438901535962072
0003c0 5a 28 85 4d 0e 89 73 3f 4d 25 de de e2 df 85 3f
       0.004769378538478442 0.010680935312637497
0003d0 4d 5a b9 7d 4b f9 c3 bf fb 46 b9 0f 6b 40 b1 3f
       -0.1560453761946569 0.06738919385795931
0003e0 c1 ee b5 1d 26 e1 a7 3f ae 27 f6 16 1b 5b a7 3f
       0.0466396247165597 0.04561695723812363
0003f0 b2 9d a7 01 c7 f2 98 3f ab 1f c2 e5 d4 0c cc 3f
       0.024363622165677952 0.21914159029642852
000400 3a 57 22 10 98 65 96 3f e2 6a b6 a2 91 6b 82 3f
       0.021871925339460342 0.008994233873456495
000410 0b 7c a6 e9 d2 2c d0 3f 7f 15 15 76 d4 35 ca bf
       0.25273583238043845 -0.20476775899639318
000420 7c 46 93 46 e5 5c 91 3f 17 98 b3 c2 30 84 bf 3f
       0.016955931122373688 0.12311081651168397
000430 90 80 14 5e e8 d2 b3 3f ec 10 df a8 5e b3 b7 bf
       0.07743694588544003 -0.09258071539722196
000440 00 4a 0e 3d 54 85 a0 3f 86 e5 3f d4 3f 98 d2 3f
       0.03226721997556936 0.2905425617933236
000450 fd 55 81 9e 93 d1 9d bf 9c c1 63 b3 d8 18 55 bf
       -0.029119783925429122 -0.001287662145440383
000460 02 00 f2 62 9e 7a b7 bf 90 06 fc 72 2d e0 c4 bf
       -0.09171476283700034 -0.1630913554618485
000470 9e 40 76 1c 43 db 8e bf a6 82 99 63 02 80 d1 bf
       -0.015066646867836927 -0.2734380695965605
000480 9c 19 56 75 c2 21 d1 bf 72 88 0d 77 44 50 c4 bf
       -0.26768552263856704 -0.158699567919999
000490 f2 92 ec 50 53 bd be bf ea 49 b9 65 11 1d c7 3f
       -0.12007637715994315 0.1805745836923756
0004a0 f6 38 8c 2d cb c4 b7 bf 3e da 77 55 f3 0b b3 bf
       -0.09284658300404999 -0.07440110050797785
0004b0 93 c2 51 f1 ea 48 ca bf 91 1b 11 3f c5 9d ca 3f
       -0.2053502729718458 0.2079397733634463
0004c0 bf ef ae bd 4a 73 bf 3f 1a 05 77 3f 6f c3 97 bf
       0.12285296564999636 -0.023206461189834028
0004d0 84 74 e3 a4 73 cb a7 bf ba bd cd 12 bb e9 d1 3f
       -0.04647408855246574 0.27989079319283017
0004e0 50 32 03 f1 26 6e bf 3f 86 33 8d 1d 88 7c bc bf
       0.12277453788846882 -0.11127520295594992
0004f0 0c ac 0b b8 29 05 b2 3f e9 99 9d 82 77 2f d1 bf
       0.0703912805872024 -0.26852214579994765
000500 b7 65 8d d7 8c 9c c6 3f 34 6d 3c 5f c3 99 a1 bf
       0.1766525318624141 -0.03437624490308125
000510 fa 28 0a 53 c1 dd dd 3f 21 ed 01 c9 b0 ee bd 3f
       0.4666598616537524 0.11692337901506679
000520 c2 31 bc 24 02 3c c7 3f ed 3d 19 dd f5 e5 d4 bf
       0.181518810212209 -0.32653566924724836
000530 25 53 b4 87 ba 86 ab 3f a7 03 66 bd b4 8d af 3f
       0.053762272897222275 0.06162800609582258
000540 ae fb c9 ea d4 b1 bc 3f ad 2b 12 62 a6 25 b6 3f
       0.11208849651482808 0.08651199240027437
000550 17 8b de 52 e8 2a 25 3f d4 7d 82 e7 ae 9b cc 3f
       0.00016149602873579617 0.2235010748308769
000560 2e 0c 1e 7e d4 d1 ad 3f cc 66 af d3 0b c8 3e bf
       0.05824150123137205 -0.0004696873544936919
000570 bf 05 d9 9f 9a 81 d9 bf c2 64 9c ef 1e 0f bc 3f
       -0.39853540048724406 0.10960572576404373
000580 b3 17 2e 19 14 83 d5 bf 6c 10 b5 30 33 5c 75 bf
       -0.3361253972910802 -0.005214881860698833
000590 eb 79 a1 65 55 0b c5 bf 23 b3 3a 5b 52 f1 c7 bf
       -0.1644083734745004 -0.18705205397181954
0005a0 cc b4 60 cd d1 88 cd bf 7f fd 60 f8 de 7d c4 bf
       -0.23073790100298763 -0.1600912773883287
0005b0 39 f2 42 84 7c 59 c9 3f cc 55 f1 b9 a3 b7 c8 3f
       0.19804340799409362 0.193104234497396
0005c0 f5 ce 0d 58 d2 9e b5 3f 69 c0 f9 c2 49 26 b7 bf
       0.08445467614893316 -0.09042798051973623
0005d0 f0 23 bf 1b 47 c3 cf 3f 62 2d 2c f2 5e 69 d6 3f
       0.2481469045144702 0.3501813282934646
0005e0 fe 96 90 1a e9 8b d7 3f 81 1d 61 8a 51 50 dc 3f
       0.3679144629880823 0.44240225328072574
0005f0 2f d9 cc 0c 29 45 b7 bf 1a 54 19 3c 6f 01 cc bf
       -0.09089905321602453 -0.2187937777950147
000600 53 68 84 86 e9 51 b5 3f b8 1b 48 38 3a 9f 8a 3f
       0.08328113111602535 0.012999014704304077
000610 6e a6 ed b2 e0 95 d1 3f 2c b8 d2 c1 2a 7c ad 3f
       0.2747728106829531 0.057587944183396494
000620 d2 e4 4a 27 15 8a b4 bf f9 c2 4f 84 02 bd b7 bf
       -0.08023197373667593 -0.09272781114828978
000630 d4 06 17 9e df 3a ac 3f c5 3d 20 1c 81 de b6 3f
       0.05513666920479712 0.08933264671963233
000640 dd 77 1c c6 24 3e b6 bf d9 73 33 d6 2b 94 c3 3f
       -0.08688573681544605 0.15295932730705777
000650 73 53 94 c1 d5 d6 9e bf e9 23 0a 54 a4 69 cf bf
       -0.030116405429982018 -0.2454114351606045
000660 95 00 ea 68 b1 ad ba 3f 54 05 95 8d b7 c3 a0 bf
       0.10421284495714851 -0.032743202240917896
000670 5b 8d a7 d3 e8 25 3e bf a9 20 7b 71 d3 70 95 3f
       -0.0004600232529396641 0.020938209344223555
000680 1c 9e bb 5e 1a 55 b4 bf ff 4c 8f 84 67 5c a7 3f
       -0.07942356884779439 0.04562686436806906
000690 75 ad f0 24 a8 ca be 3f b4 59 2c 41 43 5d b4 3f
       0.12027979757174541 0.07954807606834075
0006a0 68 81 ea 3c 4e c4 ca 3f 3a 20 04 1e 94 49 6b bf
       0.2091157720033252 -0.0033309834399269074
0006b0 95 00 ec 60 6c f6 98 3f 9f 4a 89 64 33 d9 c6 bf
       0.024377530494348838 -0.17850344094275258
0006c0 60 45 23 39 a7 94 a0 3f c5 d6 6c bc 36 fe c8 bf
       0.03238413403017648 -0.19525798988768464
0006d0 e2 96 1d d1 d1 ed cd 3f da c9 d6 97 99 b9 ad 3f
       0.23382017813417294 0.05805664041999466
0006e0 a2 87 51 52 e6 80 b5 3f 37 bc 06 c8 f7 e2 c3 3f
       0.08399810323456205 0.1553640104952778
0006f0 ff 46 fd a8 4e 67 90 3f 05 8d 81 a8 99 d3 c8 bf
       0.016019085945408126 -0.19395752647242417
000700 c4 50 2c 15 d6 60 a6 bf b5 7f 2c a4 47 04 9a 3f
       -0.04370755203686508 0.02540695132768152
000710 1e 07 b3 af c9 8b b4 bf 64 67 36 02 0e ad b7 bf
       -0.08025799312147483 -0.09248435548798067
000720 02 ba 5a 04 be 1b b9 bf 2f df bf 2c d2 ac c2 bf
       -0.09807956320103275 -0.1458990782264151
000730 83 66 43 12 de 26 72 bf b6 1e 84 23 19 48 cd bf
       -0.004431598154235441 -0.22876276239570864
000740 2a 5f c6 bd 23 ac c9 3f 36 12 dc 4d 3b c5 c7 3f
       0.20056578413345366 0.18570653249493468
000750 47 e6 56 97 89 bf ca 3f b6 3e 81 a8 33 b4 8b 3f
       0.20897025956746715 0.013527301387653661
000760 0c e1 ca 72 a8 6b c7 3f 19 c2 a0 e4 3d 7b c6 3f
       0.1829729614744412 0.17563604033922856
000770 88 cd a9 3c 06 81 bb 3f e2 72 c2 03 af be c5 3f
       0.10743750554120457 0.16988170322010548
000780 d4 b7 8e b7 d9 f8 a7 3f be dd 2a c9 40 9d c7 bf
       0.04682045331661269 -0.18448648283604813
000790 cd 46 03 3b fb 1e b4 bf 2d ef 7c cb ef fd 9e 3f
       -0.07859773817770162 0.030265566630290387
0007a0 90 06 cc dd 44 df d1 3f 56 42 45 ba ec d8 af bf
       0.27925225887165883 -0.06220187925157876
0007b0 f1 d7 f0 6b 85 20 c2 bf 5e d2 fa 98 df be c4 bf
       -0.1416174675993598 -0.1620749947520776
0007c0 e0 93 56 44 2a 9a b1 3f a3 49 98 58 38 a5 ab 3f
       0.06875862282193124 0.053994904341510684
0007d0 7a 67 75 26 fb 84 bd bf 28 8f 0a 32 01 76 9b 3f
       -0.11531037987643158 0.026817339591288875
0007e0 9c fd 05 dd f3 fe c8 bf 77 3c ac 7b 2a ac c0 3f
       -0.19528053562315228 0.13025408781729528
0007f0 74 bf ff b5 e7 f3 c3 3f 78 e1 f9 c1 7b cd b0 3f
       0.1558808935801569 0.0656354282926993

lstm.bias_ih_l0 f8 [200]
000000 dd 58 20 5d f1 67 d0 3f 4e 83 00 51 6c a2 ca 3f
       0.25634416670199106 0.20808175997901873
000010 78 1d 86 37 0a 71 97 3f 6e c1 00 80 32 9a b1 3f
       0.02289215053454316 0.06875911355087336
000020 22 60 63 84 bc 12 bf 3f 22 3b 6c f7 66 1e ce 3f
       0.12137964470036924 0.23530280190649316
000030 0c 69 23 fb 34 ad bf 3f 02 d4 8a 04 42 e5 74 3f
       0.1237366784220379 0.005101449853715858
000040 4e 2a cc 37 e3 92 ce 3f ae 39 86 5d fc 9a ae 3f
       0.23885765289772326 0.059776197830717734
000050 80 95 ab 6b 70 30 b2 bf f9 cf 18 6e dd ef c3 3f
       -0.07105162266414844 0.1557575976927408
000060 32 e5 00 47 47 fb d1 3f e3 d6 93 37 21 4b 76 bf
       0.28096181806502607 -0.0054427430670693526
000070 1e 2c 33 44 1d 0e af 3f b8 25 1a 47 26 f7 b1 3f
       0.06065455873029911 0.07017745242969553
000080 98 7a 70 17 15 20 ca 3f 2c 65 a2 2e 4e 47 c1 3f
       0.20410407680988807 0.13498856808727433
000090 a3 d7 7e c2 2b b4 a4 3f 56 c5 8a d7 59 5e ca 3f
       0.04043709515774132 0.20600436234011948
0000a0 5e 23 5b ed ab 52 b0 3f fe df 61 61 0b 40 d0 3f
       0.0637614683611338 0.2539089632987269
0000b0 af 30 31 a7 2b 68 d3 3f 02 a8 bc 06 35 7e af 3f
       0.3032330639587241 0.06150975901830692
0000c0 8f da 3d 1c 14 2c b3 3f c3 bd 15 4d 04 e6 d1 3f
       0.07489133538715918 0.2796641114027489
0000d0 55 f3 2b ac 97 31 8e bf 80 5b 34 f8 26 49 ba bf
       -0.014743027631533382 -0.10267871436768239
0000e0 8c 00 e1 91 be 4e c4 3f 3a 65 9e b7 a9 1b 82 3f
       0.1586530887889278 0.008841825405215265
0000f0 24 98 b3 f2 f3 cd c4 3f cb 04 7c 7f 1d 9e cb 3f
       0.1625351843896975 0.2157627937777192
000100 c3 8b 4f 5f f9 a9 a4 bf 4f 97 7a 52 9b 6a c2 3f
       -0.04035929954968467 0.14387837912834775
000110 35 54 3c 70 9f 34 dc 3f 34 ef 37 b5 58 da bb 3f
       0.4407118412066809 0.10880045341758376
000120 9f 92 ca 69 dd a6 cc 3f 7b ab 10 4f 85 c6 a9 3f
       0.22384231248465356 0.050342718030456056
000130 a1 62 85 a2 5b c5 d0 3f d7 c9 27 e7 c4 ca bc 3f
       0.2620457732314581 0.11246901172106703
000140 b2 e8 42 0a 1e 2e ad bf 01 5d 18 db db 17 a7 3f
       -0.056992472412689024 0.04510390328885628
000150 ea f3 7d e9 d8 84 15 bf 74 19 73 d3 fa be c3 3f
       -8.208822180040513e-05 0.15426574063003395
000160 c4 37 61 bd 02 9a c5 3f 6a 1e ff cd 97 42 d0 3f
       0.1687625336366506 0.25406451336718894
000170 e1 42 a0 44 ab 5b b6 3f 2d 88 b8 7c a9 b4 c9 3f
       0.08733625817718461 0.20082586851009535
000180 b9 04 58 3e d9 de d3 3f 79 6f 75 7f a3 eb c8 bf
       0.3104765995813739 -0.1946911213261691
000190 5d 35 bb 23 c0 60 a0 3f 9a d8 ec e4 55 37 ca 3f
       0.03198814808056725 0.20481370618808087
0001a0 d4 2f de 68 07 75 c3 3f 4c da 98 30 ee 3a a9 3f
       0.15200893993858122 0.04927772849298559
0001b0 76 55 48 78 00 05 64 bf cd 9c aa 0b 3f fb cd 3f
       -0.0024437913109617805 0.2342299277272332
0001c0 4c 4b 9a e6 6b 34 b6 3f 3e 46 d5 98 05 1e b4 bf
       0.0867373884196187 -0.07858309727932863
0001d0 5b 0a 3a 38 bf 60 a6 3f 4a 87 fa 7c 26 a1 b9 bf
       0.043706870664227813 -0.1001152091144181
0001e0 d8 af 3c c1 5d aa 8c bf 9c b3 e4 c7 d5 e2 b1 3f
       -0.013996822795512218 0.06986747865876314
0001f0 8e c2 c6 45 9b 06 91 3f 76 68 9f e1 a0 80 b4 3f
       0.016626764425100186 0.08008771427503966
000200 e0 01 40 46 f8 61 c3 3f d2 f5 25 72 63 d9 88 bf
       0.15142730169465235 -0.01213338558295166
000210 f5 64 55 ad b0 3d ae 3f 5e 76 cf 66 0d 1c 98 3f
       0.05906440845383002 0.023544511222885915
000220 03 20 e2 eb 6d 67 c2 3f f6 4c cd 8f ee 29 65 bf
       0.14378141420115761 -0.0025834712418287787
000230 e1 e4 3c e5 f8 b2 cb 3f ef 56 9e 16 cf b1 c0 3f
       0.21639929955725903 0.13042629818362836
000240 ee 8b 63 e6 49 1c d0 3f d0 51 44 12 1d 97 d2 3f
       0.251726603497615 0.2904732397448955
000250 6e 5f 71 2e 4a 1b c5 3f f6 4a eb b8 e0 70 bb 3f
       0.16489531772344485 0.10719112887026569
000260 f4 0f 24 ad 5e b9 92 3f f1 ce 65 8c ff 7b 97 3f
       0.018285254781417806 0.022933953231997376
000270 ae 91 f2 44 06 bd ae bf e1 19 69 9c c4 ef b4 3f
       -0.0600358924068901 0.08178356951348277
000280 92 d1 da e2 18 48 b4 3f 4b 0d 5e dc 1b 9f c7 3f
       0.07922511614271446 0.18454311618925553
000290 6f b6 28 3a 32 e6 b8 3f ea dd f4 d4 d9 ca 9d 3f
       0.09726251525781902 0.029094127295335705
0002a0 41 57 04 a7 e1 bb b6 bf cc 9a b7 90 35 e7 92 bf
       -0.08880434348642742 -0.01846011825355269
0002b0 c1 ba 8e 8b 6f 82 c4 3f 87 93 a3 39 28 4a 96 3f
       0.16023058237393253 0.021767261999133616
0002c0 29 00 4f 16 06 36 c3 3f d2 80 63 ed ba a0 b4 3f
       0.15008617486273693 0.0805775479852884
0002d0 f4 d5 bd 66 8b d3 b1 3f f4 a9 61 fa 0e 2f a2 bf
       0.06963416345919154 -0.035515277923725025
0002e0 8e 95 e4 ab 09 b1 d1 3f a9 7f 3e 3b fc 47 c3 3f
       0.27643052851120664 0.15063431637554217
0002f0 8b 1e 74 f6 8a fb c7 3f 6a b8 6c 51 00 8f cc 3f
       0.18736397775522948 0.22311405158820047
000300 a3 d3 4f 6b 7f 96 c0 3f 86 c0 78 37 34 9d c1 3f
       0.12959282626948462 0.13760998447969913
000310 29 7a 03 53 c7 8e b8 3f dc c9 24 3e 61 55 b3 3f
       0.09592862869929121 0.07552154318981458
000320 0b 9a 3e bd 80 99 b4 bf 02 0f db 08 69 17 a5 bf
       -0.08046726818302134 -0.04119423134900836
000330 74 27 e2 19 72 0f b4 3f e6 45 72 f6 58 48 92 bf
       0.07836068279189395 -0.017854108850377325
000340 1b 81 86 ac 4d 18 b5 3f b1 73 a4 ba 85 b3 b8 3f
       0.08240209066434938 0.0964892941160105
000350 4d 06 fa 52 de 0a b4 3f 52 90 ec b0 c5 a6 a8 3f
       0.07829083944127398 0.04814737114637126
000360 25 cf 81 e3 b1 cc a0 bf fb 41 03 b8 2e 9b bc 3f
       -0.03281169798074605 0.1117428969621485
000370 d7 df 36 cf 38 71 b9 3f 97 5e 11 66 e7 c1 a9 3f
       0.09938387927002111 0.050307494363264364
000380 8a 4f 4a 77 0a 90 41 bf 67 07 b5 f7 66 82 b1 bf
       -0.0005359698394209339 -0.06839602992570591
000390 b8 63 46 b9 0c 6f ba 3f 37 0a 79 c2 cd 7a b5 3f
       0.10325698397936278 0.08390508649703397
0003a0 28 1e 97 9d 84 d9 c7 3f 3d 33 3b 16 45 24 ac bf
       0.18632562346304948 -0.05496421715142794
0003b0 cc 98 44 98 d2 4f b7 3f 7c d6 4f 98 ae ac cb 3f
       0.09106174676398665 0.21620733677962167
0003c0 b7 6c e2 86 23 5a 77 3f 20 f0 6f d0 db 1e 9a bf
       0.0057011974114644015 -0.025508341404915424
0003d0 7a 42 72 c6 c2 df 76 bf ca 4f 65 c7 1c 55 4f 3f
       -0.005584488716650621 0.0009561911127016151
0003e0 b5 e6 50 7b 46 a1 a8 3f 73 84 ea 80 f2 dd b6 3f
       0.04810543303797258 0.08932414672246285
0003f0 60 ff cf b8 34 f5 c0 bf f4 f1 c9 80 b5 20 be bf
       -0.13248309158370386 -0.11768659967669476
000400 24 f0 12 7b e4 60 b6 bf 05 54 c9 f1 70 36 c0 bf
       -0.08741596226440201 -0.1266614132497638
000410 91 5d 71 6c 8c d1 b3 3f 1f e0 97 44 7f 02 b0 bf
       0.07741620681314589 -0.06253810333862518
000420 b0 af 5f ff df 34 b4 bf ae 82 a4 3e 70 13 c3 3f
       -0.07893180832587521 0.1490307145950473
000430 dc fc e6 6c 1a 12 c2 bf 00 f3 7a 1e 8b 98 b6 bf
       -0.1411774665593616 -0.08826512807986475
000440 3a bc 63 50 fd af c1 3f 63 2d ff 1b 02 9f c8 3f
       0.1381832735564517 0.19235254637747365
000450 09 a5 fb ac b6 be bd 3f 4b 03 67 2c 6d 5d c3 3f
       0.11619130824296432 0.15128864925466198
000460 70 90 f8 ff 22 99 a8 bf 5e 4f 3e 39 a5 60 bf 3f
       -0.04804334044118341 0.12256844184440527
000470 d4 6a 5c a8 d9 5d a6 3f 91 73 04 a8 ca 8b b8 bf
       0.04368477039516497 -0.09588305093752882
000480 6f 66 69 9d ee 9e bc 3f 62 4a 82 9e c6 0e b6 3f
       0.11180011122760346 0.0861629616722808
000490 86 04 12 8e ed fc aa bf 49 a4 1f cc 69 54 b4 bf
       -0.05271093711145007 -0.07941304429518072
0004a0 41 65 9d ff 1c c7 84 3f f4 37 e2 36 17 7f 5f 3f
       0.010145403433556967 0.0019223906233807294
0004b0 a5 e3 87 c8 49 a0 d4 3f 57 9c 65 10 d2 b2 c1 3f
       0.3222832163151515 0.13826967049246505
0004c0 5a 2d b6 f0 b3 15 c1 3f f8 29 f3 ba 57 cf d7 3f
       0.13347481969354186 0.372030193870756
0004d0 6d d0 91 5f ce 1c b1 3f f2 7b ab 8a 40 15 cb 3f
       0.06684579690210209 0.21158606310834177
0004e0 f9 73 b0 a8 4e 50 b5 3f e6 c6 29 e0 de 4b d6 3f
       0.0832566415633237 0.3483807744115509
0004f0 56 cf f9 29 ad aa b1 3f 63 ab 31 66 ff bf 90 bf
       0.06901056551742832 -0.01635741292231375
000500 33 a7 9b de 9d 4f 99 bf 1c f4 c7 f4 6a 8f c6 3f
       -0.024717776023783954 0.17625176384163488
000510 b8 47 1d 33 8e 1f cd 3f 84 1e 39 15 db 6e c0 3f
       0.22752549644297715 0.12838305031094788
000520 27 3e 5f 59 9f 96 b9 3f c0 5a c0 b8 31 20 c1 3f
       0.09995456630644438 0.13379498978675564
000530 d5 35 20 20 c7 ca d3 3f 7f cc 29 4b 53 f8 c0 3f
       0.3092515767792439 0.13257828874666086
000540 19 48 2a 0f f9 e4 c3 3f 3d 90 7f ee 6a 69 c8 3f
       0.1554251979874273 0.1907170929472403
000550 7f f2 f4 7d 87 2a a9 3f 1f 3b 0c 20 d2 00 97 bf
       0.04915259754713918 -0.02246406860927685
000560 d7 30 ca 5c 5e eb c3 3f f6 7a 08 aa 7e a2 c0 3f
       0.1556203797412141 0.12995894720457785
000570 00 c7 10 b3 13 be c5 3f 0f 4c f7 9e 53 cd c2 3f
       0.1698631882041397 0.14689107191097192
000580 c9 b2 fb 4f 28 3a bf 3f e8 2b 17 61 06 98 c0 3f
       0.1219811625739552 0.1296394323420309
000590 e2 72 15 0f d8 53 ba 3f 6b 89 8b 37 d8 5b c9 3f
       0.10284185760742617 0.1981153746811047
0005a0 b6 3f 8b 0a 04 9f cc 3f 40 87 b8 2f 5a 50 bb 3f
       0.2236027766689383 0.10669482865389757
0005b0 f5 1c 2b 1f 61 cf c4 3f 9e 41 fc 77 d7 e1 d0 3f
       0.16257871648688363 0.26378428189584635
0005c0 a9 c6 21 b8 34 b2 c2 3f 8a af 7f 1c dd 0c 90 3f
       0.14606341353242172 0.015674071182658213
0005d0 7f 4c 7b 8f 4e 2f c7 3f a9 e7 69 9a b6 af d3 3f
       0.18113119131030328 0.30759968833410284
0005e0 b1 0f 60 57 2a a6 cb 3f d3 d5 f0 6d c5 a7 d0 3f
       0.2160084654461776 0.2602399419441472
0005f0 fb 69 a9 22 aa 08 5d 3f 49 88 7a 27 3b 12 c9 3f
       0.0017720853308192941 0.19586886813800877
000600 7c 8c b2 7c 1b 17 ad 3f dc e8 cd 28 62 17 83 bf
       0.0568169202536177 -0.009321944113015616
000610 8f 4f b2 50 8f 18 c3 3f 26 fd 35 89 45 ca d0 3f
       0.14918700638065416 0.26234568023206106
000620 47 0c 14 65 d4 4f c4 3f ce 03 55 60 ef 9c c8 3f
       0.1586862081095168 0.19228927806582735
000630 1c 21 0e ff 2a 2e cd 3f eb cf ca 46 f5 09 c6 3f
       0.2279714341532405 0.17217889744426826

lstm.bias_hh_l0 f8 [200]
000000 a4 c6 02 69 df b1 a2 3f af 41 80 0c b8 9f d4 3f
       0.03651331097479485 0.3222484705047703
000010 6b 87 e1 4d 14 33 b6 3f 72 f4 f9 91 79 30 82 bf
       0.08671690846815998 -0.008881521003099222
000020 07 d8 18 51 48 39 d1 3f 21 3b 6c 77 02 17 c8 3f
       0.2691212455714553 0.18820219832601828
000030 83 b4 91 01 29 77 cb 3f 1b b5 22 81 53 b1 93 3f
       0.21457398010844395 0.01923113322907453
000040 5a 5a 3d 83 78 34 81 bf d5 1c c3 0e a2 da b5 3f
       -0.008400861268154692 0.08536732540516152
000050 8c 6a 54 f2 01 51 b0 3f e8 9f 31 fc 41 f7 b0 3f
       0.06373607794049913 0.06627285391880344
000060 f1 52 0e f0 96 1d 9a 3f 93 c2 86 cc 27 fe b2 3f
       0.02550350036797772 0.0741906046230361
000070 8c 65 86 60 f0 2a d0 3f b6 25 1a 28 8e 09 b2 3f
       0.25262078691738377 0.07045830229812719
000080 96 7a 70 5f ee e1 cb 3f 2c 65 22 aa 01 88 c2 3f
       0.21783237133145822 0.1447755890592729
000090 e8 b5 9f 40 3c 19 c8 3f ad 8a 15 d7 2c b7 b8 3f
       0.18827012210333227 0.09654503108098807
0000a0 5d 23 5b 3d 82 f3 b1 3f fe df 61 e9 f5 f1 d3 3f
       0.07012189863156722 0.31164310256235683
0000b0 b4 30 31 e7 97 30 d2 3f 01 2a af 09 16 fe c8 3f
       0.28421590401991215 0.1952540919576933
0000c0 86 da 3d a4 dd 39 bd 3f 94 7b 2b da 20 ad cc 3f
       0.11416421184353895 0.22403345730614588
0000d0 d6 40 3d 75 c0 95 c2 3f 75 5b 34 b8 cc c4 b2 bf
       0.1451950619180084 -0.07331542489224126
0000e0 8f 00 e1 f1 dd d4 c0 3f ab cc f3 00 f4 eb b4 3f
       0.13149618444913755 0.08172535918474703
0000f0 07 c1 9c 55 5f 9b 9d 3f 48 13 f0 bd 84 ba af 3f
       0.028913011169778204 0.061969898401037116
000100 28 74 b0 89 68 37 ae 3f 50 97 7a 5a 77 2c c5 3f
       0.05901648216988803 0.16541950147546425
000110 96 a8 78 d0 22 df cc 3f 88 f7 9b b4 9a 03 c3 3f
       0.2255595701147441 0.1485474950676997
000120 91 92 ca b1 b5 90 c2 3f c0 26 d5 3b 3c 8a 4b bf
       0.14504119092193382 -0.0008404535398451526
000130 39 c5 0a c5 d1 c2 c0 3f d3 e4 93 db b5 a7 cb 3f
       0.13094541665263096 0.21605561467712295
000140 55 2e 7a 2b 06 31 96 3f 9f 0b 63 83 13 d4 d2 3f
       0.021671387103692947 0.29419410544158525
000150 02 82 16 27 0e 5a 9d 3f 03 33 e6 e6 45 d2 be 3f
       0.02866384614537943 0.12039601218402755
000160 7d 6f c2 1a 15 75 b3 3f 6c 1e ff 45 90 df d2 3f
       0.07600528624828758 0.2948952373085152
000170 6d 21 50 32 15 ca cd 3f 26 88 b8 bc 20 16 c4 3f
       0.2327295776051516 0.15692528929599908
000180 9d 09 b0 0a 23 35 cc 3f 6f 6f 75 0f 72 31 c5 bf
       0.2203716089425826 -0.16557145838566664
000190 60 cd ee 58 2c a4 cb 3f ca 9d 4c ac 9b 88 a0 bf
       0.21594766943381227 -0.032292237074496535
0001a0 c0 5f bc af fb 4c b7 3f 1c 6d 4c 7c f4 28 bb 3f
       0.09101841965127644 0.10609367403633424
0001b0 15 f5 f6 21 8e 7c 9e 3f 75 39 55 47 da 25 b1 3f
       0.029772015402831437 0.06698383561636041
0001c0 8b 96 34 bd ca ae a3 3f bf b9 2a 87 73 bc b8 3f
       0.03844293174396992 0.09662553834889474
0001d0 51 41 07 ef 26 55 d0 3f ac 78 05 e3 63 6e b7 3f
       0.25519727079974525 0.09152817051424006
0001e0 0c 35 ec d3 8b f6 c5 3f e9 2c f9 e1 c5 fb d0 3f
       0.1715864929941876 0.26536700313290723
0001f0 a1 b0 71 f1 8e 44 b7 3f aa 88 f6 d9 bc 4a 73 3f
       0.09088986773139364 0.0047099473007696045
000200 dd 01 40 66 fa 8d c2 3f 46 41 bb c1 72 88 be 3f
       0.14495782845189256 0.11926953534862603
000210 84 b2 aa 36 4c 34 be 3f 83 dd b3 19 f3 0e b2 3f
       0.117985499712356 0.07054061295990803
000220 04 20 e2 0b 81 a8 c9 3f 2b 2b 03 97 a1 1a a3 3f
       0.2004548366569453 0.03731255501187144
000230 66 72 9e 4a 85 b6 d6 3f d8 ad 3c e5 65 28 b3 3f
       0.3548901776028174 0.07483517500502701
000240 e4 2f 8e 39 d9 da b2 3f 8a a3 88 20 d3 ba c1 3f
       0.07365186362420634 0.13851393784105098
000250 19 82 3a 86 c4 ec a2 bf fe 69 29 8e a0 20 af bf
       -0.03696264399082256 -0.06079580054639065
000260 0e 10 24 ad a0 f5 9e 3f d4 b9 8c c1 d5 6a c5 3f
       0.03023387009399419 0.16732284498853167
000270 d4 48 79 42 94 cc b0 bf e9 8c 34 ce 03 07 cd 3f
       -0.06562162993330684 0.2267765766965575
000280 c3 68 6d c9 01 08 c0 3f 23 59 f9 d0 f9 12 56 bf
       0.12524435363122252 -0.0013472976314879502
000290 42 26 5d 97 7a fd 9e bf eb 6e 7a 12 22 96 a8 3f
       -0.030263820160405304 0.04802042460980068
0002a0 71 d4 7d 5c 8b 4b c2 3f 55 19 d2 e7 b3 3d b3 3f
       0.14293043152034415 0.07516025933918986
0002b0 c5 ba 8e 7b 31 c4 ca 3f 72 72 34 8f c5 63 c1 3f
       0.2091123441036499 0.13585729114938122
0002c0 5d 00 9e 7c f0 2a ba 3f ac 01 c7 da f8 06 a6 3f
       0.10221770327007236 0.0430219428121775
0002d0 05 2a 42 79 a4 0e b3 bf 80 95 67 75 fa dc c0 3f
       -0.07444217644130198 0.13174372418067648
0002e0 8f 95 e4 7f 1a 8a d0 3f 34 01 06 53 a9 e0 a2 bf
       0.25842916955510814 -0.03687028063268585
0002f0 1d 0c 5f 4c 26 12 9b bf 2e c3 65 8b e1 e4 96 3f
       -0.026436422740300104 0.02235748685183408
000300 a0 d3 4f 4b 2c ec c1 3f 43 02 e3 5d 4f 9e a2 3f
       0.14001992871604063 0.036364059649262724
000310 d7 e8 0d 1a 77 eb 92 3f 3f 6c b6 e3 da 6d a9 bf
       0.018476353612165788 -0.049666252419421124
000320 0e 4d 9f 96 77 6f c2 bf 06 1e b6 91 ca 85 9d bf
       -0.14402670721629146 -0.02883068575240879
000330 d2 13 f1 0c 00 81 c3 3f c7 48 ce fe 03 16 c3 bf
       0.15237427360457773 -0.14910936299981456
000340 c7 fd f2 06 05 27 a1 bf 48 8c 5b a5 db 56 b5 bf
       -0.03350082120732228 -0.08335659777689941
000350 a7 0c f4 d2 71 8e a2 3f 60 90 ec f0 54 2c a6 3f
       0.03624301624406572 0.04330697480170964
000360 e0 30 7e 3c 95 2c a5 3f 3e 08 0d 00 5d 2c 99 3f
       0.04135576594771506 0.024583294990641706
000370 ba bf 6d 9e 1d 9c ac 3f ad 57 84 b9 6b 7f c2 3f
       0.05587856825775313 0.14451357420392466
000380 94 94 ee 3c 84 2a b3 bf 69 07 b5 97 28 7e b2 bf
       -0.07486750114056157 -0.07223752692973807
000390 1f ce 5c b3 e3 78 c0 bf c8 f5 86 cd 73 29 b3 bf
       -0.12868925340591006 -0.0748512627387391
0003a0 2a 1e 97 ed ca a4 c3 3f 9a 99 1d bb ef 98 bb bf
       0.15346657372559608 -0.10780237501385273
0003b0 cc 98 44 38 ea 19 b7 3f 7e d6 4f f0 58 f4 c4 3f
       0.09023918031434447 0.16370689138391364
0003c0 3e d9 91 67 0a 95 be bf fe fd 0d 4a 6a db c2 bf
       -0.11946167973096508 -0.14732102027845423
0003d0 16 92 33 be e6 43 c6 bf 84 d5 c4 59 63 56 95 bf
       -0.17394718444042273 -0.020837356905038643
0003e0 4c 19 af 84 49 5a ab bf 2a f7 2a 1e 50 e0 ac bf
       -0.053423211523795006 -0.05639887207278911
0003f0 c6 fe 9f c1 ac d6 b2 bf fb f8 64 a0 3a a9 c4 bf
       -0.07358817794010539 -0.16141445953139297
000400 06 78 89 45 5a 0a c5 bf 04 54 c9 11 c9 f9 c6 bf
       -0.16437843699799276 -0.17949784630278043
000410 44 bb e2 d8 88 56 a0 3f ce 3f d0 e5 98 01 a4 3f
       0.03191020629434729 0.03907468610134367
000420 73 50 a0 90 da 12 b0 3f b3 15 24 95 ed 46 99 3f
       0.06278768568910369 0.024684631564942893
000430 7c f3 9b 13 e6 28 a2 bf 4d 83 79 3d 1d a9 40 bf
       -0.03546828259820864 -0.0005084412359331686
000440 9a 3b c4 f9 05 2c 89 bf 70 2d ff 1b e4 59 c1 3f
       -0.012290999111909607 0.1355557572081625
000450 77 d2 7d 06 05 bf c5 3f 97 06 ce 58 47 f7 bf 3f
       0.1698919564911596 0.12486692350469251
000460 23 24 fe bd ff 1a c3 bf 93 27 9f 9c f0 13 c1 3f
       -0.14926144387234883 0.13342101714652851
000470 6f 35 2e 8c d9 0f b2 3f 6d 8c fb 17 ca 81 b9 3f
       0.07055434868217046 0.099636679511194
000480 66 66 69 9d 4a a3 b0 3f 63 4a 82 9e f7 dd b8 3f
       0.06499163001117267 0.0971369516358123
000490 27 81 84 bd 8f dd c0 bf 52 a4 1f 8c df 61 ba bf
       -0.13176151994503835 -0.10305592699991564
0004a0 67 53 0c f0 46 2f bf bf 96 3b 92 01 18 14 cb bf
       -0.1218151413016365 -0.21155071331710634
0004b0 a3 e3 87 d4 66 b7 d2 3f ac 38 cb e8 49 37 b2 3f
       0.29244395022356623 0.0711561387390442
0004c0 52 2d b6 b0 2c 66 c9 3f f8 29 f3 4a 5d 61 d7 3f
       0.1984306204652549 0.36531765288660223
0004d0 f7 7c 71 83 d8 d3 8a bf 00 be 55 d5 f1 15 d1 3f
       -0.013099376212436271 0.26696439584245013
0004e0 ff 1c 2c f2 65 25 d0 3f ef 8d 53 30 52 1a c3 3f
       0.25228260659828544 0.14924075469671957
0004f0 bb 9e f3 13 0f 97 a5 3f 88 ca 39 f3 f1 f1 c4 3f
       0.04216811293173125 0.16363357902772102
000500 94 b1 c8 42 c8 77 8e 3f 17 fa 63 80 cd de d0 3f
       0.01487690404709311 0.26359880006921926
000510 6e 8f 3a 16 a3 d2 b5 3f 4e 7a e4 94 4e 5e a5 3f
       0.0852453164357578 0.04173513000045102
000520 1a 3e 5f 19 8b 00 b1 3f 88 b5 80 f3 a2 83 b3 3f
       0.0664145409530125 0.07622736401454777
000530 e9 35 20 70 f7 bc d0 3f 71 cc 29 5f aa 2c cc 3f
       0.2615336031893479 0.22011308333057714
000540 ba fc b6 9a 34 ed 7a bf 2f c8 3f 19 fa a9 d5 3f
       -0.006573873029480365 0.3384995695661272
000550 27 e5 e9 eb 68 f4 97 3f 37 76 18 40 2c df 8f bf
       0.02339328708555857 -0.015562387186089583
000560 da 30 ca ac 65 d8 c3 3f f7 f5 10 b4 2c 0a b8 3f
       0.15504141747476902 0.09390525241993673
000570 ec 8d 21 06 68 d5 b8 3f 10 4c f7 77 4e 22 c3 3f
       0.09700632238087054 0.149484451844359
000580 68 d9 fd 6b 47 32 ce 3f e8 2b 17 d1 f3 35 cb 3f
       0.23590939305331493 0.21258399686334362
000590 b1 5c c5 e3 55 b5 d2 3f b7 c4 c5 29 47 24 d0 3f
       0.2923178409886971 0.2522142322478191
0005a0 e3 9f 45 49 96 c7 d0 3f a0 43 dc 8b 17 51 c8 3f
       0.26218182712045585 0.18997473076936178
0005b0 82 8e 95 a6 e6 4e d0 3f a4 41 fc 1b b6 5d d5 3f
       0.25481573360432475 0.33384468777605947
0005c0 a6 c6 21 5a 58 b6 cb 3f e3 f5 8f e3 6e b5 cc 3f
       0.21650223160718446 0.22428690062945042
0005d0 81 4c 7b 37 1c 00 cd 3f dc 9e a7 69 1e 05 ba 3f
       0.2265658636957575 0.10164060668432334
0005e0 ae 0f 60 27 b7 ff c3 3f cf d5 f0 73 40 70 d3 3f
       0.1562413160573874 0.3037263042673119
0005f0 74 4b 15 71 e7 7f ae 3f 47 88 7a ff 00 fa ca 3f
       0.0595695806065554 0.21075451349776328
000600 4b 46 59 7e 50 8c b8 3f b8 90 b9 9e 32 88 d0 3f
       0.09589102825818789 0.2583128500030045
000610 cb 27 59 76 6c 29 d0 3f 51 fa eb e5 62 1d cb 3f
       0.2525283008332024 0.21183429934167688
000620 d3 9d 5f 17 69 ff 98 bf a1 86 5f f5 e3 e0 7f bf
       -0.024411813785176605 -0.007782831633422
000630 21 42 1c ce 3a c8 b1 3f e8 cf ca de 27 1e c1 3f
       0.06946151287071035 0.13373278025176139
