AIModels/trainedModels/collisionDetection/trainedModel_01_24_2024_11:12:30.pth (torch, 794735 bytes, 18 tensors)

lstm.weight_ih_l0 f8 [200, 112]
000000 4a cf 51 7a 13 7f 93 bf fe 99 b2 23 74 f1 cb bf
       -0.019039444294733067 -0.21830608122873224
000010 16 16 4d 16 13 04 b3 3f 15 f9 0c b3 18 86 bd 3f
       0.07428092283688445 0.11532739993433368
000020 a6 30 bd 27 11 e4 b7 bf a8 8d 63 f7 23 3f be bf
       -0.09332377643767362 -0.11815094747321686
000030 4a de 76 a3 69 32 ae 3f 3c ce 93 cf d0 35 c1 3f
       0.05897836800016572 0.13445482383359486
000040 9d e7 76 ff 38 59 af 3f 96 38 74 b6 43 bb c3 bf
       0.06122758978331364 -0.15415235909353403
000050 74 78 80 b0 e8 52 c3 3f 61 00 07 ac a9 11 c1 bf
       0.15096768015149886 -0.13335152530453612
000060 d5 86 41 be 91 a4 a5 3f 33 1d 69 5c 07 10 d2 bf
       0.04227118918858045 -0.2822283174941333
000070 5f fa 8d 15 35 69 b2 bf 8b e7 bb e2 bd b1 c2 bf
       -0.07191783691630736 -0.14604924746509726
000080 ff fb 0a 2a e0 61 c2 bf c5 b9 42 e2 a8 f6 c1 bf
       -0.14361192753673888 -0.14033995674021874
000090 1a 94 fa 7f 51 da bf 3f 3c 88 ed ca 06 48 b6 bf
       0.12442502378924339 -0.08703653768819292
0000a0 3d d0 18 47 f2 b3 95 bf 25 9d 78 89 bb 73 bc bf
       -0.021194253529941632 -0.11114093881825633
0000b0 33 5a c3 af 7c ce b5 bf 5b 85 0e 3c e9 ba aa bf
       -0.0851819924458617 -0.05220726831545149
0000c0 b9 71 45 3c b1 5c b2 bf 32 59 d5 69 a8 0b c2 bf
       -0.07172687264887302 -0.1409807698025332
0000d0 d5 85 0f a7 3d 24 ba 3f c8 2e a9 d9 51 be 97 3f
       0.10211549118641668 0.02318694964405557
0000e0 d9 87 2a 7e 88 f7 73 3f c5 06 aa 5c 6a 75 cd bf
       0.004874737906591841 -0.23014573597543211
0000f0 3e 48 b8 0e 25 c0 ba 3f 22 c9 a9 54 13 7a d5 bf
       0.10449439629908938 -0.3355758978642759
000100 7b 18 5e e3 f1 9a b0 3f 35 dc d2 a6 46 fb bb bf
       0.06486427117315145 -0.10930291722148484
000110 2e eb 49 49 59 e5 c1 3f 52 4e 3c 3f 83 fa c4 3f
       0.13981166914512627 0.16389504039453812
000120 95 30 98 06 e4 42 c3 bf b2 ba 79 a7 56 53 62 3f
       -0.1504788429450669 0.002237004515158369
000130 01 11 11 a2 a0 be ad bf 06 bc a0 d9 23 9a be 3f
       -0.05809499719956258 0.11953949034862896
000140 57 f3 07 e6 bf 82 ae 3f 0d ef 74 ba 52 9b cb bf
       0.05959129031177806 -0.21567758659681893
000150 23 fc 81 87 fb f2 bc 3f 58 e2 af 1f 45 24 d2 bf
       0.1130826192693211 -0.28346374601782065
000160 06 06 16 89 85 ea b8 3f 8f 96 34 ea 8b 98 ad bf
       0.09732851597620859 -0.057804462756661505
000170 5b af ec b6 bd 8d c4 3f bb 68 0c 42 19 61 c3 3f
       0.16057559425223186 0.15140071606658076
000180 61 b3 bf 0e 70 aa b1 3f 3f 85 85 a1 a6 3d c6 bf
       0.06900692329481962 -0.17375643622203005
000190 c5 af f5 3f 0a 9d be 3f 0a a4 b2 62 56 c5 5f 3f
       0.11958374082104146 0.001939138756634986
0001a0 b3 90 51 55 c7 20 bd 3f 09 ff 22 e7 19 7c b0 bf
       0.11378141243909816 -0.06439363377557696
0001b0 3e 01 d8 3c 80 14 c4 3f 64 a2 89 59 af 82 d2 3f
       0.15687563868415028 0.2892263769522627
0001c0 80 01 b4 c7 e9 b1 90 bf 99 68 55 0e b6 1c b4 3f
       -0.016303685010826907 0.07856309747640679
0001d0 7d 2e f8 f5 c6 bc a4 3f 87 63 96 f6 70 5d ca 3f
       0.040502755666321534 0.20597660103228696
0001e0 4e ca dd 20 01 f7 9b 3f c3 df 4c f2 a3 1a af 3f
       0.027309434538844983 0.060750125243827856
0001f0 24 bc 60 d2 f6 5d 99 bf 10 9d 7b 0d c2 f3 8b bf
       -0.02477250727696058 -0.013648525272812267
000200 b8 22 fc ad 82 16 b1 3f e3 1f 30 ef 24 ce a8 3f
       0.06674973247221316 0.04844775600218989
000210 b9 9e 26 90 5c db 9c 3f 99 d8 e0 40 cd 31 c1 bf
       0.028180547998686054 -0.13433232944379794
000220 e9 4e 9c b3 63 a9 a8 bf 2c 93 d9 a2 a6 02 ae 3f
       -0.048167339015121 0.0586139749328026
000230 34 57 fb 18 8b 05 af bf a4 06 5b 1d aa a0 d4 bf
       -0.06058916740373235 -0.32230618349795237
000240 cd 14 ee 01 5b 9f 64 bf b8 1e a0 69 fe d3 a4 bf
       -0.0025173928729055107 -0.04067988433240316
000250 6c d6 e4 95 5b c2 9a 3f bf e7 d5 5a c1 4e ae 3f
       0.02613204100017301 0.05919460519631014
000260 8e 55 b4 ca c4 03 b2 bf 90 85 fa 3c 9a cb 9d bf
       -0.07037000607336649 -0.02909699437316743
000270 f4 ed 2e ac cf 9e c3 3f 53 c9 3d e1 d0 6a a4 3f
       0.1532840338457927 0.039877440924913764
000280 37 50 c3 c9 57 9c 9c 3f 1a fb 5e c4 d7 87 86 3f
       0.02794015091861032 0.01100128715540687
000290 a7 7b 5c b4 25 9f a2 3f 8e fc 2b ea da 4b d4 3f
       0.03637044741321143 0.3171298300584987
0002a0 9d 00 93 fe 28 4e ba bf 5c a3 d4 5c ba 97 b2 bf
       -0.1027551290053474 -0.07262768522617818
0002b0 1e bf c0 20 29 c6 c8 3f 63 f9 18 e7 f4 4b d9 3f
       0.1935473833013867 0.395261026078421
0002c0 f3 99 44 c8 3b c7 b9 bf fd eb 73 8a cd 24 7c bf
       -0.10069631232600056 -0.006871035474655504
0002d0 0a 70 3c b8 a9 b0 6d bf 00 5a 89 7d 10 c6 d3 3f
       -0.0036242785298679124 0.3089638925497695
0002e0 30 77 d6 c5 d8 f3 b1 bf 6a 78 72 4a 87 fe b6 bf
       -0.07012705640815109 -0.0898212963824975
0002f0 79 e2 39 4b f8 96 ca 3f 57 16 9d b5 da 4e e0 3f
       0.20773223565244672 0.5096257731572206
000300 59 e2 a2 66 62 b0 98 3f 8d b9 00 19 b1 32 9b bf
       0.024110353006763983 -0.026560561324168886
000310 f6 47 61 ca da 44 cc 3f 40 03 d2 57 c7 c4 e2 3f
       0.2208512771781554 0.5865208354226539
000320 8f 90 13 5e 55 06 2f 3f 45 f6 54 a4 82 62 a6 3f
       0.0002366999824864363 0.04372032409672192
000330 82 48 dc ec 10 38 b3 3f 2f a5 9e 9f 2a 5c d9 3f
       0.07507425101019474 0.3962503966127597
000340 9a f7 93 ef c0 24 ba bf 40 64 69 a2 80 9d b3 3f
       -0.10212331627914609 0.07662204709176113
000350 f9 a5 d3 55 9f 1e 80 3f e2 3a 72 d5 f9 96 74 3f
       0.007870907599186504 0.0050267943507964225
000360 2b ef f2 99 ab 33 94 3f 5f fa c7 b6 1a 99 a8 3f
       0.019728356620119996 0.048043093502191374
000370 3c f6 0f 38 55 05 b3 3f 8c a3 ec 81 05 02 ae bf
       0.07430012339315167 -0.05860917292586185
000380 69 b8 42 f1 59 22 c1 3f d1 54 ad 35 5a d4 b1 3f
       0.13386081962875387 0.06964649019694781
000390 a5 43 52 d9 4f 7b b8 3f 17 16 d5 16 0a a2 ce 3f
       0.09563159042069332 0.23932005038129553
0003a0 36 62 96 5c ad 43 97 bf 85 4f b8 ec e6 58 a8 3f
       -0.022719105506981495 0.04755326881072989
0003b0 ed 53 a8 1b 5e f1 bc 3f d4 c8 9d a7 4a 98 b2 bf
       0.11305797744019204 -0.07263628570743502
0003c0 4e 0c eb 16 d3 ed c7 3f 23 58 b4 54 f5 03 c2 3f
       0.18694532984781848 0.14074579845390742
0003d0 12 42 5d 5e cc 1b a5 bf 02 59 7a 03 2d a9 d4 bf
       -0.04122770931155996 -0.3228256734813756
0003e0 f7 04 ad 36 26 53 c2 3f 94 d9 c8 cb f8 8b a7 bf
       0.1431625143978079 -0.045989775539442196
0003f0 89 af 40 69 e6 46 b5 3f fc 70 9f 27 d5 67 9f 3f
       0.08311309880872221 0.030669527572045205
000400 af 1c 16 3a 74 cc cc 3f 10 58 47 12 fa 7b b1 bf
       0.22498944126366413 -0.06829798647171992
000410 d1 bf 24 66 69 24 c7 3f 67 13 11 f1 5e f3 df bf
       0.1807986973522007 -0.4992291788260474
000420 bc 97 1f 7d 9d a7 c9 3f cb 85 4d 00 76 8f ba 3f
       0.2004277096704622 0.10375154025452742
000430 46 ec 90 04 15 b4 b0 bf da c3 b2 19 47 a9 aa 3f
       -0.0652478347919195 0.05207273663234675
000440 6e 00 aa 70 89 0e 9d bf 39 f0 eb 2a 0b 7b a1 3f
       -0.028375766278714236 0.03414187334962588
000450 66 ea c7 58 3a f1 a8 bf 51 0c 51 38 fc 1e ad bf
       -0.048715422952189155 -0.056877023577293635
000460 6e 46 ad f8 4a 42 98 3f fe a7 ba 85 17 b2 a5 bf
       0.0236903871803577 -0.04237435824809664
000470 fd 25 5f 45 49 e6 7f 3f b1 0a 89 0e 9b 29 b8 bf
       0.007787977423455936 -0.09438485245577045
000480 50 2e 3c c3 33 42 c8 3f 78 fc e9 0a 61 76 b5 3f
       0.18952033074343655 0.08383757130103386
000490 27 95 5b ca 8f bd 95 bf bc 5e 83 1c 3f 87 d1 3f
       -0.021230932928024828 0.27387979301918697
0004a0 56 f1 66 0f 7d 45 ca 3f 52 6e 2a ea a9 36 83 3f
       0.20524562122398987 0.009381606539412921
0004b0 ec 06 be 79 23 c4 cb 3f 2a 8b 02 19 09 bf d2 3f
       0.2169231743283072 0.2929098839032799
0004c0 ce 4a 5b 0b 24 5a d4 3f db fc 17 3d fd bf bf 3f
       0.3180017577080151 0.12402327291055164
0004d0 94 8f 65 dd 1f 1e b7 3f a6 52 d8 68 f3 5e e0 3f
       0.09030341296380434 0.5115906760934947
0004e0 dd 2a 53 29 e3 e6 c5 3f 2a 6c 45 46 65 b6 b7 3f
       0.1711086227208715 0.09262688603978178
0004f0 6e 5c 4d 8d 68 bf b2 3f 71 50 37 c8 b4 52 c9 3f
       0.07323316049347436 0.1978364923112426
000500 bf f4 6c c9 e2 01 c5 3f f4 b1 b3 be a7 46 c6 3f
       0.1641200526736721 0.1740312272226131
000510 06 0a bb 6b ba ca 93 bf 33 6f a2 cc cc fb c2 3f
       -0.019328034234385803 0.14830932609481237
000520 06 8f e1 9b 59 b0 b9 3f 65 e2 7b dc 93 d3 c6 3f
       0.1003471379822792 0.1783318354207665
000530 27 d6 95 24 ab 04 c2 3f 36 f4 96 ae 91 a2 e0 3f
       0.1407674721373706 0.51984485721153
000540 42 a1 db 59 00 df 9e 3f d6 b8 0a ad 47 8b aa bf
       0.030147557720654257 -0.05184387194945976
000550 aa eb 57 e2 ac 6c 96 bf 3f 2a 82 31 4f d4 c0 bf
       -0.02189893847933503 -0.1314791671505464
000560 76 a5 aa 34 ca 3d d6 3f 0d f6 48 64 35 ba c8 3f
       0.34752135413381013 0.19318263432244046
000570 96 d0 90 09 85 5b a7 3f 30 0f 5c ec 93 33 97 3f
       0.04562011472481335 0.022657691289182214
000580 11 35 37 31 24 54 d0 3f 37 0b 85 c3 22 7e cc 3f
       0.25513558202949677 0.22259935900555103
000590 42 13 06 18 62 05 c7 3f 2a 8b fe 22 be db e1 3f
       0.17985178158792264 0.5580740626795422
0005a0 27 08 96 7c f1 f8 d0 3f d7 2e 72 a4 d2 d5 cc 3f
       0.2651942936573754 0.2252753546675794
0005b0 f6 6e f5 bd b5 dd c8 3f 5d c1 80 c8 df 33 e5 3f
       0.19426605010345782 0.6625822940896274
0005c0 c0 99 c4 ad f8 69 cd 3f 56 42 2b 06 c5 2f b1 3f
       0.22979649052395068 0.06713515663728606
0005d0 b9 ce 59 75 2b e3 cd 3f c3 d5 a3 f8 25 98 da 3f
       0.2334951708795552 0.41553639680145354
0005e0 54 dc 92 17 6a 43 d3 3f 56 e8 66 ad 98 3a 8c 3f
       0.30098964979282994 0.013783638755615762
0005f0 c6 03 d5 7b 3c 4c cd 3f fd da d3 2f 43 0e e2 3f
       0.22888904615868294 0.5642410215503727
000600 bd 83 78 04 64 7a c5 3f 67 70 b4 8d b5 d3 ca 3f
       0.167797567542065 0.20958585185224196
000610 3d a9 3d ee f3 b4 9b 3f c1 11 1b 3b bf e3 dd 3f
       0.02705746785742601 0.467025573463868
000620 6f f6 f1 67 f6 93 dd 3f 7a d7 5b 5c fc 6c b1 3f
       0.4621559157456891 0.06806924109318216
000630 25 73 26 49 57 36 cf 3f 6f cc 92 4e 56 a4 da 3f
       0.24384585449015464 0.41628034280001364
000640 6c 11 64 f7 50 25 d9 3f dd 90 24 0a e7 16 d4 3f
       0.3929026046682995 0.3138978575755241
000650 8b 2b 80 f1 e0 a5 d1 3f 92 e9 42 03 e5 4b d3 3f
       0.2757494314579893 0.3015072376107578
000660 48 79 e7 6c cc 7e db 3f a4 24 b5 39 b4 2a d5 3f
       0.4296141685025714 0.3307314456511199
000670 53 1c 00 32 7f 2a c7 3f b4 92 9c ad 98 75 d3 3f
       0.18098440114428857 0.3040525145936883
000680 aa 25 18 78 7c e5 d9 3f d4 e2 06 f5 ba f2 cf 3f
       0.4046317265316143 0.24959504093364748
000690 c4 c4 fd b4 47 e6 d4 3f 2b ca 68 6d e7 2a c3 bf
       0.3265551822178845 -0.14974682657482793
0006a0 85 50 bb 20 e3 ee d3 3f d9 07 8e 9a 56 58 d4 3f
       0.31145551868872473 0.31789174168818374
0006b0 36 06 27 e2 65 38 d1 3f 94 ff c0 02 63 4d d2 bf
       0.26906725964736056 -0.2859733130353501
0006c0 08 18 e8 b3 70 26 d6 3f e1 82 2a c7 01 48 d5 3f
       0.3460962063694528 0.33251995515642646
0006d0 ff 2e a5 f3 18 e2 d1 bf ff 6d af 36 ec 4c be bf
       -0.2794248942707184 -0.1183612473973241
0006e0 03 d4 7c e3 64 53 d9 3f 93 c4 fa f2 ac 9c c4 3f
       0.39571497169100683 0.16103135933147836
0006f0 a9 a0 27 ba ab 2e bb bf b5 3b 65 f5 6d c8 b2 bf
       -0.10618089003367238 -0.0733708118543593
000700 27 7a 05 b5 8a d6 91 3f c8 f7 c9 2a 20 9b b5 3f
       0.017419974611920488 0.08439827961589608
000710 2b 12 a5 6c 87 84 b7 bf 62 ad 8e a4 b0 90 6c 3f
       -0.09186598207913536 0.0034869623236396955
000720 43 41 bb 13 4b 76 a0 3f 3f 6c 91 7e a7 4e 73 3f
       0.032152506025911375 0.004713682436967181
000730 b5 22 24 dc 0e 1c c4 3f 6e d2 ed ef 51 55 cc bf
       0.15710626362876715 -0.22135376181872196
000740 6a b5 42 77 03 b6 b8 3f 8f dc 41 67 a3 dd c1 bf
       0.09652730619082708 -0.13957636396273584
000750 a1 9d 32 ba de 50 c4 3f ba 32 5a b6 d1 7b b8 bf
       0.1587179574173492 -0.09563933088265744
000760 52 ad 39 cd 6f 33 74 bf 5d f4 63 fc 78 73 b4 bf
       -0.0049318663837810296 -0.07988697206379088
000770 b3 24 43 ca f1 1e bd 3f b0 f1 ef 73 37 25 c9 bf
       0.11375342548412241 -0.1964482608890541
000780 7f 77 0d e4 e0 d9 b7 3f f6 61 a6 03 ac 08 a7 bf
       0.09316831176462691 -0.04498803658060872
000790 06 c1 5a f6 7b 70 82 bf c3 fc 1f 3f a3 93 a9 bf
       -0.009003609138148249 -0.04995451112335438
0007a0 b5 f9 d5 43 de 13 a6 bf 53 15 56 fc 3b 45 c2 bf
       -0.043120332508795135 -0.1427378637419375
0007b0 84 44 67 a5 dc a4 99 3f 32 5e 86 ce 65 50 c0 bf
       0.02504296073476954 -0.1274535425588837
0007c0 cf b7 c6 ce f6 90 9a bf 30 da c6 46 84 da 84 bf
       -0.025943619127865077 -0.01018241253846694
0007d0 4e 96 b6 02 34 5e b7 bf 36 f1 26 b0 bf 12 d5 3f
       -0.09128117624512663 0.32926933481555254
0007e0 e5 11 90 39 71 e6 b8 bf 39 65 a9 37 05 20 c3 bf
       -0.09726627021161212 -0.149414684465947
0007f0 62 9a 6e 91 c1 73 bb 3f e5 82 a0 85 23 2c c5 bf
       0.10723504829966538 -0.16540950798755386

lstm.weight_hh_l0 f8 [200, 50]
000000 3e 6d 9e 1b 6b d3 bf bf 46 3e 00 d8 85 aa c4 3f
       -0.12431973861969411 0.1614539437000408
000010 d0 52 a2 4b 1a c7 b2 bf 0c e1 3c 62 f8 ee d5 bf
       -0.07335056635413228 -0.34271058648620634
000020 db ea 29 fc 44 e8 c2 3f 61 e1 d6 e3 2e d0 b0 bf
       0.14771330177958117 -0.06567662298664835
000030 67 46 05 64 a1 34 be bf 71 aa 4c 04 c5 6f c5 bf
       -0.1179905766669208 -0.1674734374040159
000040 48 13 51 42 de 64 c1 3f b4 8d f3 9d 5d 54 9e 3f
       0.13589075315590038 0.029618704572283952
000050 bd e5 c3 8a 0b f8 b3 3f 51 f2 c7 48 e8 98 b4 bf
       0.07800361764738901 -0.08045818116074456
000060 09 c5 5e 16 0b c8 bb bf c6 19 9b 2f bd 82 ba 3f
       -0.1085211686720592 0.10355741894009104
000070 e7 fe a6 1d 29 7c bb bf e4 f5 2b 9f 91 9e ce bf
       -0.10736329053815617 -0.23921413681084325
000080 19 2a f1 8d b1 20 a0 3f 6d 4e 4c 20 04 af d3 bf
       0.03149943216029189 -0.3075571360979897
000090 c3 3f c5 b7 88 2f 97 3f db 11 fc 83 bf ea b0 3f
       0.02264226552625793 0.06608197185784752
0000a0 c6 2e ca 30 d7 44 cc 3f 40 f5 78 c3 bb 8f a9 3f
       0.2208508480292634 0.04992472420824834
0000b0 fe b3 92 31 05 a0 cd 3f 17 1c 4b 99 7d 9b 8b 3f
       0.2314459316307022 0.0134801685720856
0000c0 cb 3c 94 dc f9 da aa bf 38 11 4a 33 d9 c2 d6 3f
       -0.052451904464868436 0.35564260491107147
0000d0 a2 7a ef 28 d2 83 d4 bf 46 c7 ba ad 61 62 c2 bf
       -0.32054571149448396 -0.14362736685648708
0000e0 1d 23 68 63 5e b0 bc bf ef fe 32 7c 67 71 c2 3f
       -0.1120661728565548 0.14408582271970924
0000f0 01 9e ad 52 86 e4 c2 3f ae b5 c0 b9 7b 26 a7 bf
       0.14759902035733322 -0.045215479302309944
000100 40 5c b0 52 37 4e d1 3f f4 cc 4a 65 03 bd cf 3f
       0.2703989322193969 0.24795572706134517
000110 c3 e9 d8 eb 08 1d a4 bf 3c d6 e0 b8 30 fa a3 3f
       -0.03928401831622665 0.03901817566695029
000120 54 69 9a 14 24 11 8a bf c8 ca a0 09 78 fd af bf
       -0.012728006247290459 -0.06248068921595046
000130 bc 5c f3 1c 1f c0 bb 3f e5 72 4f b2 67 82 81 3f
       0.10840029198458273 0.008549509171581213
000140 24 f8 87 04 71 36 a5 3f 3a 9d 38 ac 58 a4 c4 bf
       0.041430980494610276 -0.16126545342670245
000150 b6 f2 e6 39 aa bd d3 bf 50 71 ef 12 40 4f cb 3f
       -0.3084512296152683 0.21335602688385302
000160 f6 94 76 c9 0b 74 99 3f b9 cb bc 43 de 7a 99 3f
       0.024856743022287874 0.02488276756703176
000170 76 ec bf 62 bb f2 9b 3f 3e 8a 9d 4e fa 51 90 bf
       0.02729313650341366 -0.01593772034483209
000180 2e 85 1f d7 f1 0f bb 3f a6 9c 42 fd bc 74 cb bf
       0.10571204664258424 -0.2145000683424076
000190 c0 ea b7 1e 91 b6 b2 3f 32 b8 ba e5 da f2 aa 3f
       0.07309824943505827 0.05263408712686192
0001a0 7c c9 6d 3e 59 df d1 3f 43 9f a4 48 ff c9 7b bf
       0.2792571172386926 -0.006784436418719344
0001b0 da b5 a3 35 c3 81 a5 bf e8 2f 84 06 1c ad 8a 3f
       -0.04200563459185576 0.013025492619384196
0001c0 c1 be 69 55 32 a1 8a 3f 50 bf 5a 57 41 08 9c 3f
       0.013002770644760077 0.02737524123830265
0001d0 a4 3d cc 5d a7 58 91 3f b9 f6 33 ce 92 f1 ae bf
       0.016939749813045815 -0.06043680922628653
0001e0 e8 e7 4e 14 cf b7 bc 3f c8 36 06 92 ad 61 ca bf
       0.11217970128828336 -0.2061058962830684
0001f0 21 d2 a9 69 a2 74 c2 bf 53 1c a0 7d 54 48 cc 3f
       -0.14418440017074466 0.22095733770422274
000200 84 8f 97 3c 2e f6 ab bf a9 f3 45 6a ba 3e b2 bf
       -0.05461258401535843 -0.07126965612947224
000210 4b 1d b4 6f ac b6 a9 bf a5 c8 53 d5 5d 47 94 3f
       -0.050221813808145464 0.0198034917311324
000220 0a fc 42 d0 64 03 af bf d8 b4 88 9c 1b ab a6 bf
       -0.060572767660680496 -0.044274199350505306
000230 1f fb 18 01 38 af b9 bf 1e da 5f a6 09 97 c5 3f
       -0.1003298762015956 0.16867180465460846
000240 c1 a9 a9 c3 be 12 bc 3f 99 3f a1 fa 55 cb 88 bf
       0.10966102864191553 -0.012106582366101114
000250 34 df 04 64 51 b1 e2 bf b5 dc 12 06 cc c4 91 3f
       -0.584145255422277 0.017352283354480764
000260 43 3a 7a 7f fb 8a 96 bf 44 d5 43 6f 1c b5 a4 bf
       -0.022014550834280177 -0.04044426782813074
000270 16 e0 f0 45 66 e6 c8 3f 6f 0e c5 f4 a0 23 d2 bf
       0.1945312348850627 -0.2834246054010014
000280 1f 67 9b 6b ba b6 cd 3f 88 a2 39 5e e7 5c b4 3f
       0.23213892225504026 0.07954259920519224
000290 9c 15 0b 37 9f e7 c7 3f 54 51 e2 20 88 3f be 3f
       0.1867560404554468 0.11815691759904229
0002a0 89 6c 7f ba 73 e7 94 bf 53 07 17 f0 8f 76 78 bf
       -0.020414169557494453 -0.005972444779617297
0002b0 4f 6b cf 72 ab 42 66 3f 74 76 52 1f 43 16 cb 3f
       0.0027173374751163003 0.2116168883266486
0002c0 0f 72 55 e0 16 59 bf 3f a5 b5 b0 fc aa 69 a9 bf
       0.122453145760524 -0.04963430723760646
0002d0 0b 86 d3 22 e8 22 9b 3f be a8 b5 48 d7 e5 a6 3f
       0.026500346303583593 0.04472229731148179
0002e0 df fe 3a f0 10 00 b1 bf fa ad 88 13 fb f9 91 bf
       -0.06640725960732706 -0.01755516344762318
0002f0 19 e9 27 78 2f ad be 3f 24 73 83 94 a8 c5 b6 bf
       0.1198300999020926 -0.0889535296041229
000300 f8 6c c0 48 14 ee b4 bf 59 96 4d d6 cb ea 8d 3f
       -0.08175780082858697 0.014607994534979673
000310 b4 8f b5 92 3c f7 9c 3f 13 ba 2b c3 36 45 c8 bf
       0.02828688283388177 -0.18961224107575045
000320 d1 db 07 d4 66 a5 ce bf d9 a0 7a 76 d4 8a 8d 3f
       -0.2394226584726469 0.014424953332607892
000330 b1 2e 5e 4f cd f5 ab 3f 8a fa 17 56 fb 1c ad 3f
       0.05460969537588534 0.056861738452416224
000340 84 ac 24 26 3c 86 c2 3f 52 f3 5f 3c 85 a1 b5 bf
       0.14472152578796138 -0.08449585651392269
000350 a6 70 47 e0 f5 87 a4 bf bd 53 86 68 d6 f0 db bf
       -0.04009979594022299 -0.43657455642215465
000360 3d 53 21 c2 fd 88 b8 bf a0 2f 45 25 c6 cb c4 3f
       -0.09584032048708209 0.16246868915402235
000370 b1 23 e9 e9 ef 24 b9 3f 60 9a 8c 9d bc c2 b0 bf
       0.09821986637793036 -0.06547144743363154
000380 71 f6 f3 91 4e 5e a2 3f e8 93 25 4e c9 64 bc 3f
       0.03587575465824678 0.11091287763481683
000390 2c fa 5b 34 34 3a b7 3f 38 ab ea d7 d8 03 ca bf
       0.0907318713979996 -0.20324240248495484
0003a0 93 3e ea 27 a9 1c b4 bf e2 72 2b 84 27 3a ce 3f
       -0.07856232857215621 0.23614973023986524
0003b0 a8 f1 14 6b 37 53 c8 bf 95 74 47 63 69 6f c5 bf
       -0.1900395653591549 -0.1674625143777219
0003c0 a2 2b 9d 4b 62 ac d5 3f cc 86 4f 8d f0 69 be 3f
       0.3386464823167278 0.11880401086775833
0003d0 91 a9 7c 81 c3 84 c9 3f 21 e6 9e 2a dd b2 df 3f
       0.199364126421028 0.49529198801210056
0003e0 53 2b ce 93 b1 fe d7 3f 92 4e 30 c4 bc 5b ce 3f
       0.37492026743045875 0.23717460231329263
0003f0 87 16 84 1e c7 ae 8b bf 5b 3b a4 bc c3 1b b5 bf
       -0.013516955965779743 -0.08245490413194771
000400 db 50 d0 c3 03 b0 c1 3f d2 bf 38 35 24 f1 b4 bf
       0.13818404256074399 -0.08180452632291171
000410 bd 18 bc 47 f8 05 da 3f 1e 58 06 27 c8 9e d6 bf
       0.40661437039706155 -0.3534412747479808
000420 d5 d8 fb 4f 39 02 48 bf 11 ec 45 be cd 4a b0 3f
       -0.0007326869817621215 0.06364141364422006
000430 3f 47 2c 33 1b 55 d0 3f 1c 4f 2c 09 4d f5 c6 bf
       0.2551944732414206 -0.17936099002746964
000440 3c 7f cc 17 28 69 93 3f 91 34 72 1d b9 4b b3 bf
       0.018955828144611817 -0.07537419289492876
000450 c3 7f 03 2a 8c b2 b9 3f c0 0e 92 d3 36 d2 94 3f
       0.10038066888546297 0.020333153403511828
000460 9f f8 0e be 35 70 75 3f d4 21 4a 84 90 6d bb bf
       0.005233964854538225 -0.10714057187772791
000470 0a 4c 7b eb 3e 57 b4 bf 1b 02 49 d2 4e a2 b2 bf
       -0.07945626496375283 -0.07278912195125324
000480 7e 3b 6f ea 51 f9 bd bf ce 3e 47 8b eb 10 ae bf
       -0.11708557103632519 -0.05872284007238947
000490 bc 57 c7 85 3f a6 b6 bf 5b df 4a 3d 6d b7 af 3f
       -0.0884742452247726 0.0619463097877417
0004a0 b9 1c a7 f0 16 44 b6 3f 5e 70 51 23 36 af cf bf
       0.0869764649897772 -0.24753452991979236
0004b0 15 77 ed bf 8d 13 af bf 4f 9d ea e7 65 74 d3 3f
       -0.06069605796686354 0.3039793743905265
0004c0 ee c0 de 9f d7 1d a6 3f 46 1a f9 f9 01 e1 77 3f
       0.0431964285520524 0.005829818459068442
0004d0 f9 fd 40 12 ee c3 d1 3f 69 0e 53 53 1b 95 c0 bf
       0.2775836160908223 -0.12955037659240823
0004e0 47 a9 20 9b ef 12 cf bf 5c 95 b0 45 04 22 cf bf
       -0.24276537966336262 -0.24322560694524042
0004f0 77 45 a8 ca 79 03 d0 3f 41 40 b1 08 49 8c ba bf
       0.25021214285614896 -0.10370308363167259
000500 11 a9 d4 ac cb ad d2 3f 2e e0 6d c7 08 4f db bf
       0.29185764196394454 -0.42669887042530064
000510 e8 c1 be 75 a1 11 c6 bf 15 e8 dd ca 3a af c7 bf
       -0.17241304635309906 -0.18503508477789468
000520 cd 00 a4 14 65 bc c8 3f c8 2d 3c b7 37 46 d2 bf
       0.19324935443729033 -0.28553574461031106
000530 1b 32 61 1f 9f db cc 3f 57 4b 8d 4a 6f bf c9 3f
       0.22545231849871147 0.20115462436896323
000540 d9 ba ad 16 ad bc ce 3f e9 b6 12 41 63 99 b4 3f
       0.2401329384551534 0.08046551073740783
000550 2a e5 d3 02 59 13 b6 bf c5 e5 00 bf 67 cb cb 3f
       -0.08623272246395133 0.21714493585913722
000560 41 74 ef 9f 69 61 c0 3f bd ac aa 61 71 0d a3 3f
       0.12797279652923702 0.03721193616123617
000570 4e 7c 81 55 e4 a3 90 3f a9 95 fd 98 58 7b b9 3f
       0.01625019809614186 0.09953836188431943
000580 53 55 81 a8 7a e0 cd bf 12 1a e2 87 29 14 cb bf
       -0.23341305949967736 -0.21155280241892221
000590 06 e2 d3 77 21 55 d7 bf 47 c3 39 81 82 a9 c3 3f
       -0.36457096769257225 0.1536105280861426
0005a0 a1 db 45 97 be 17 b2 3f f3 c2 85 b9 6c fc d6 bf
       0.07067481225190743 -0.35915678136284085
0005b0 35 5b 7d dc 20 25 c0 3f 44 2e 60 fc c2 bf d3 3f
       0.12613306776139557 0.30857920309128795
0005c0 93 b3 35 ad 2a a4 c7 3f ce 86 31 88 b1 c5 c8 3f
       0.18469747025974623 0.1935331263548989
0005d0 1d bd a3 72 c5 96 be 3f b5 46 ec db a6 61 b7 3f
       0.11948808716600863 0.09133379811489813
0005e0 a6 dc 17 0b ca 6a c2 3f 01 af 24 c1 60 9d b3 3f
       0.14388394872341798 0.07662014689838871
0005f0 a8 2a 5c 46 dc 2d cc 3f c6 33 12 38 44 d2 d7 bf
       0.2201495498232664 -0.37220864749616245
000600 31 34 ff 96 d4 14 c8 bf 3a 42 f2 8c fe 3f cb 3f
       -0.188135694245291 0.21289045221466713
000610 8f ee 5a e0 e5 b4 d9 3f df 8a 91 8c 8b b6 d5 bf
       0.4016661349266792 -0.33926666953463597
000620 00 4c 9e fb 6e ed c7 3f 4d c2 cd c3 f8 32 ca bf
       0.18693339620639904 -0.20468053398828304
000630 39 18 2d 27 94 53 cd 3f 87 00 71 e9 02 1d c3 bf
       0.22911312020204536 -0.1493228568888336
000640 1a 0a 93 a3 95 2e c9 bf 23 8e 09 33 c1 88 83 bf
       -0.19673414694814612 -0.009538182611499363
000650 cb 33 61 54 20 5d c0 3f 07 84 c8 60 8f 1b ce bf
       0.12784198875524874 -0.23521606660600033
000660 a0 69 b0 c0 74 8e b0 3f fb f8 2a 98 bc 0d bc bf
       0.06467370704959885 -0.10958460536037144
000670 cc e6 cc 3d d7 af c3 bf 88 a7 26 01 22 c2 b0 bf
       -0.1538037349471807 -0.065462231904034
000680 e8 08 aa 40 c2 61 86 bf de 4a 48 9d b8 67 c6 3f
       -0.010928647611994483 0.17504031829647365
000690 d3 23 6e 0b d7 9f be 3f cd 2d 2b c6 bd 86 bf bf
       0.11962646512087298 -0.12314973915197598
0006a0 94 df 79 ee 23 98 ad bf b2 db 19 25 95 7f c0 3f
       -0.05780136381230175 0.12889351188252146
0006b0 81 a3 9a a0 a4 9f 8e bf d4 fc 92 98 1a e7 d1 bf
       -0.01495293250202834 -0.2797304620725758
0006c0 69 5f a3 b1 a3 15 b4 bf 42 9c e9 0c 59 65 d5 bf
       -0.07845519148702142 -0.33431078206053055
0006d0 61 ce c7 05 2d 1f 5c bf d1 c9 b4 fc 97 26 a0 3f
       -0.0017164172814973166 0.031544446561742163
0006e0 74 60 c7 c6 b0 31 b7 3f 18 87 06 64 14 05 a2 bf
       0.09060196736334253 -0.035195004663604645
0006f0 6f f8 b5 78 42 ca c4 3f be ed 28 b2 0f 30 b2 bf
       0.16242247480471714 -0.07104585742575062
000700 00 4d af 6c 60 f1 c7 bf 96 1d c0 00 ac 16 c8 3f
       -0.18705373103021117 0.18819189106600892
000710 3a f7 ad b2 2c e9 a4 3f 93 4d bf fd c0 c9 c4 bf
       0.04084148102900405 -0.1624070395470026
000720 a9 40 9e 8d f7 3c a6 3f 6a 60 c2 95 82 c4 b0 bf
       0.04343389133203008 -0.06549850612862121
000730 11 36 c8 50 7c 40 d1 3f 17 e9 ad d0 e9 88 c4 bf
       0.26956088913797865 -0.16042826356335446
000740 84 c7 af 9b a8 bf d1 3f 8c d6 7f 44 1f 20 b5 3f
       0.2773229141595197 0.08252139494273986
000750 0e 89 3f 37 6c 53 bb bf 6e 6c 04 a7 78 ab a4 3f
       -0.10674167965729373 0.04037072218690062
000760 7d 4a 71 7a 29 4a c3 3f 14 5d 72 60 fd 85 9f 3f
       0.1507007453788737 0.030784567844048885
000770 13 43 00 31 07 3a b8 bf 74 ba bf 24 8f 38 99 3f
       -0.09463543840707826 0.02462981855199549
000780 cc f7 42 81 ef 3e 87 3f f1 a5 a1 8f 89 89 cb bf
       0.011350508816004544 -0.21513480675939392
000790 fa d8 a3 92 30 eb ce bf 51 0e 7a 5d fc 33 a6 bf
       -0.24155242118985837 -0.04336537018846499
0007a0 78 27 26 84 95 46 cb 3f 40 d7 ce cb a0 c2 c4 3f
       0.21309155418958503 0.1621895785480607
0007b0 29 2d d4 c2 11 9b d0 bf 21 4d 9d 88 d6 27 c3 bf
       -0.2594646837830675 -0.1496532599509033
0007c0 85 5b 59 ac af 9b b6 3f 26 5e 68 97 bc b2 b5 bf
       0.08831308324566407 -0.0847585553786919
0007d0 65 12 35 cb ec db b9 3f b6 a3 a2 31 86 4a a9 bf
       0.10101203881374372 -0.0493966994848231
0007e0 35 d7 c4 e0 76 b9 ce bf 72 11 ef fe f5 25 c7 bf
       -0.2400349233154714 -0.18084597537939434
0007f0 ad a7 f3 95 e4 fe b8 3f 6d fa f3 a7 9c 5f ad 3f
       0.09763935719425261 0.05737008619506843

lstm.bias_ih_l0 f8 [200]
000000 7d 47 23 fc 17 91 d7 3f c2 f2 32 cc 28 f5 9f bf
       0.3682308161052033 -0.031208646262473
000010 65 f4 49 47 a7 66 c6 3f 13 ec 7b f7 b7 75 cd 3f
       0.17500773411657913 0.23015498718436386
000020 eb e4 ec a5 30 13 b4 3f 5b b3 e7 54 ee 56 c1 3f
       0.07841781664764695 0.13546542306667217
000030 f2 4f 6a c6 e0 25 b7 3f 1f b4 13 a0 86 db b9 3f
       0.09042172283290009 0.1010059490979107
000040 0f 89 fc 71 71 2a cc 3f d3 50 f2 83 68 73 81 bf
       0.2200452620100539 -0.008520905043305415
000050 ff d3 21 29 14 8f c2 3f c1 b0 a4 86 47 66 ca 3f
       0.14499141701131177 0.20624631952649078
000060 72 ed 67 c5 df 43 cc 3f 1c 05 8d fa 87 dd ab bf
       0.22082135333026148 -0.0544245236728875
000070 18 e2 78 1f a2 cf b3 bf 6d f8 dc 15 a8 c8 cb 3f
       -0.07738698261608368 0.2170610529664744
000080 dd d6 06 7a dd c3 c8 3f 4b a5 4e 9b 8a d3 c9 3f
       0.1934773298104834 0.2017682321868882
000090 8c ac 83 19 55 89 c8 3f a9 08 25 49 49 14 d5 3f
       0.19169105287378263 0.32936317580255065
0000a0 a5 7e 38 8b 95 29 c6 3f 71 da 96 e0 7d d2 d0 3f
       0.17314404771695027 0.26284739429994547
0000b0 8f 3b a9 4b 63 6a d7 3f 22 b9 6e e2 e7 15 c3 3f
       0.36586840046668895 0.14910601192736644
0000c0 a8 51 32 28 27 93 b4 3f 8d 7f e6 d2 60 e9 d8 3f
       0.08037037593232432 0.38924427600613215
0000d0 9b a5 0b b8 58 d0 a8 bf d4 ce f1 e1 6c e2 9c 3f
       -0.04846455809258573 0.028207494059144647
0000e0 15 30 b5 53 73 67 6e bf 15 4d 8a 51 85 38 bc 3f
       -0.003711438415541233 0.11023743859032138
0000f0 ea 3d a2 2d b8 3f d9 3f ea ad 35 7f 79 49 ca 3f
       0.39451412636205296 0.2053672667637863
000100 2b e2 87 02 5c 12 ab 3f 88 ab 54 ef 14 75 b0 3f
       0.05287444620984546 0.0642865261367388
000110 09 a4 3f 43 90 93 ce 3f 0a 08 97 66 6a 7d c9 3f
       0.23887828143713843 0.1991398812224932
000120 48 92 51 4c bb 7f d3 3f 0c 52 05 9c 14 71 9f 3f
       0.30467112019531273 0.030704805395844345
000130 be f8 c3 e0 4d 15 d0 3f 6e 61 80 69 ea 33 c2 3f
       0.25130030584103824 0.14220934058608797
000140 2c f6 c0 c1 cf e8 80 bf c5 65 68 90 50 2e c6 3f
       -0.008256552791972536 0.17328841258203745
000150 ec 51 67 31 41 12 b1 3f dd b0 f8 bc 85 3f af 3f
       0.06668479400770594 0.06103151256351833
000160 d1 cb 9b 5b 6f 2d b8 3f ab 88 9a 66 e9 d0 c3 3f
       0.09444328295266692 0.1548129797930121
000170 21 c3 87 97 fa d0 aa bf 5c 1d 62 25 d4 5c cd 3f
       -0.05237563228354803 0.22939540696482197
000180 7b b4 c1 97 e8 15 cf 3f 2c 74 1c 0c 2e 8c 91 bf
       0.2428560963630025 -0.017136306275563992
000190 bc 73 3a e8 83 67 c2 bf bc f2 b9 35 eb 68 c5 3f
       -0.14378403510354854 0.16726436732633043
0001a0 6f fc 62 83 9a de ca 3f a7 b2 d9 9a 16 60 b1 3f
       0.20991832175602407 0.06787244110609923
0001b0 6a 4f d1 2f 93 d3 84 3f 64 02 1a 7b cb 97 c7 3f
       0.010169172188547033 0.18431991110630286
0001c0 2e 80 e0 69 76 e9 77 bf 44 42 0d 5d 33 bf c3 bf
       -0.005837881615690361 -0.15427248042625952
0001d0 67 f0 90 ee 3f d9 aa bf cf 18 d8 17 ee 36 b1 bf
       -0.05243873393234893 -0.06724441606647534
0001e0 dd 93 e0 22 10 23 c1 bf 28 7e 14 f1 10 73 98 3f
       -0.13388253882399584 0.02387644263683178
0001f0 37 67 42 ed 14 30 a2 bf 5e de 57 3f 13 38 aa 3f
       -0.0355230846045757 0.051209069711998664
000200 8c e1 1b 0a ac dd a6 3f 17 53 05 cf dd 91 92 bf
       0.04465997336768898 -0.01813456131033594
000210 37 a2 0c 7e 71 68 b4 bf 9e d5 9e 9d d1 09 c1 bf
       -0.07971867873551096 -0.1331121463423814
000220 b1 4d 2f 95 e0 aa c1 3f 2d aa 24 92 c7 f8 b4 bf
       0.13802726063168572 -0.08192107503843067
000230 82 63 80 de 33 65 b3 3f 4b 71 d4 64 b4 04 b2 3f
       0.07576297933736778 0.07038428746858931
000240 5d df 6f 8d 66 6a c0 3f 82 75 ef c1 82 5c ca 3f
       0.1282470884905206 0.20594820470334346
000250 0d 0c 95 bc c7 4d c4 3f 26 34 d5 bd 5a cc c9 3f
       0.15862366397968267 0.20154890317135815
000260 89 75 34 7f 9e 2c b1 3f f9 30 76 ce 1d 13 84 3f
       0.06708708386982755 0.009802086699686617
000270 a8 67 3a ce cc 51 af bf ec 32 2c e0 cf 19 bb bf
       -0.06117095963891411 -0.10586261008229386
000280 9e 02 37 95 ba f9 ae 3f 75 1d 04 26 a6 6d c7 3f
       0.06049902984114407 0.1830337224603046
000290 d0 99 9b 97 d3 76 ba 3f 64 e1 08 0c 45 76 90 bf
       0.10337564898836793 -0.016076163157977233
0002a0 12 a4 a6 86 9a ac c4 bf bd d3 b8 37 3f c2 a2 3f
       -0.16151744436982135 0.03663823657226526
0002b0 0b af 1e 68 cb 4d a6 3f 22 ab 59 8a b9 26 a2 bf
       0.04356227537149778 -0.03545169652792014
0002c0 7e 1a 3d 3e 91 da b5 3f de 0e da 6c 79 ba b8 3f
       0.08536632318019063 0.096595372271675
0002d0 fd b6 5d d3 e5 d0 9b 3f 5c c3 f1 c4 76 c1 ab bf
       0.027164069200288122 -0.054210387745917216
0002e0 bc 99 0a e0 62 4f ae 3f 8b 94 50 19 bc cc c1 3f
       0.059199418877415394 0.13906050907204234
0002f0 b3 88 cf 1a e2 1d b4 3f 7f 3b 6c 2a 60 a9 d5 3f
       0.07858098177487953 0.3384628690991391
000300 47 fa 3d 3d 5f 8f d4 3f 93 17 cd d1 c6 d5 ac 3f
       0.32125073414491506 0.05631848631905636
000310 36 ed d4 ea f4 e0 c5 3f 18 55 c9 55 80 fd d1 3f
       0.17092763391870286 0.28109749200423684
000320 68 e6 28 2c b7 05 b3 3f b0 2d 00 1d 2f a6 c5 bf
       0.07430596187705307 -0.16913403430986085
000330 57 65 ff 4a 4d 2e b5 3f 34 a6 96 5c c6 b8 8a 3f
       0.08273776131627152 0.013047742558074928
000340 9c 35 24 e0 db d5 57 3f e3 44 e2 72 0e af a2 3f
       0.001454796526164293 0.036491824649724135
000350 3e 18 6c db 60 a7 a9 3f 2a 00 ab c9 7c 71 b2 3f
       0.050105120453779226 0.0720441810944982
000360 32 dd ae 5f 16 d2 7e bf d4 6e 5d 4a ae 3c bd 3f
       -0.0075245737052036955 0.1142071658663853
000370 d8 68 a8 b2 f3 ec bb 3f 66 e3 15 78 e8 f0 8d 3f
       0.10908434974445258 0.01461965195152155
000380 32 73 c5 c1 f7 2f a0 bf 96 d6 40 be 31 d2 b3 3f
       -0.03161596527454548 0.07742606062751131
000390 45 16 b7 12 93 4e bd 3f 21 ec a0 30 a8 77 a3 3f
       0.11448020178712522 0.038022285400494356
0003a0 c5 b3 a1 2f 82 dd c6 3f 6d 30 7d 3b 74 f2 b1 bf
       0.17863490415348174 -0.0701058049427858
0003b0 5b f5 22 34 b4 df bb 3f 2f c4 91 b1 b1 2c af 3f
       0.10888220093598504 0.06088786404223644
0003c0 a1 66 7d b7 d4 9c a1 3f 37 6a 14 7d 4f 10 b0 bf
       0.03439965000025081 -0.06274887851433496
0003d0 ce d5 9f b0 05 c6 af 3f ef 11 f6 01 a9 f9 b3 bf
       0.0620576646905807 -0.0780282621181596
0003e0 6d c6 a1 b9 8a fc b0 3f e3 2d 1f 0d 8c 8d c1 3f
       0.06635348350553168 0.13713217392647356
0003f0 ae 6d a5 c2 30 19 c4 bf 8a 8a cd 3d 90 e6 ba bf
       -0.15701875213822575 -0.10508061894283052
000400 3b 77 0c f3 da b3 94 bf e0 91 d6 38 a7 f1 93 bf
       -0.020217343410983118 -0.01947652134335154
000410 6e e3 89 ce 78 ba c4 3f e0 a8 2e 33 b8 44 9e bf
       0.1619406708230388 -0.029559019206922055
000420 f2 f2 70 ce 7e 41 bc bf dc dd 50 74 90 87 c2 3f
       -0.11037437954014331 0.1447620933483752
000430 98 7e 55 ba 34 0b c8 bf 78 c8 91 34 a9 ce bc bf
       -0.18784197901094468 -0.11252839597162445
000440 b5 6c 21 ae 67 d1 c0 3f 7d 73 f3 eb 0d e4 af 3f
       0.13139053347081178 0.062286791851625424
000450 f0 02 ed 84 ce 07 b3 3f 9d 15 a9 38 a2 33 b7 3f
       0.07433787102946687 0.09063161738693855
000460 c5 46 5d 8c 82 f6 8e bf c6 49 89 12 cf 77 b2 3f
       -0.015118617924290043 0.07214063837572046
000470 ae 40 d2 51 b8 94 b9 bf 8d 38 ce 34 f6 65 b1 bf
       -0.09992553708639448 -0.06796206273267753
000480 81 c4 28 9c b0 46 c0 3f a1 39 08 a4 ee 01 ae 3f
       0.12715728402102758 0.05860849144311265
000490 0f 3a 0d 06 cc 40 a6 bf 0a ba fd 59 4b df b2 bf
       -0.04346311162827387 -0.07371970126198604
0004a0 b4 25 dd 0d 51 e5 9f 3f f1 53 0d b7 86 9d 97 3f
       0.031148210974867488 0.02306185238133546
0004b0 21 e8 fc 7d 03 e1 d1 3f 27 8c 1f 82 b4 6d d0 3f
       0.27935874274737854 0.256695868562192
0004c0 bb 85 9f 0e ae 3b d0 3f 5f e5 e3 90 8e ca d0 3f
       0.25364257267036877 0.2623630919402639
0004d0 38 ca 78 23 5a 34 a6 3f d3 eb c3 e1 6d f0 c0 3f
       0.04336816485410505 0.13233731769272924
0004e0 7d b6 8b bd 12 ba b1 3f 72 59 b5 45 7c 27 d5 3f
       0.0692455017812907 0.3305349999185615
0004f0 bf 8c ac c7 74 99 76 3f fa 21 9f c3 cd 7a a7 3f
       0.005517440959724228 0.04585879338225492
000500 36 c7 16 b0 cf 6c 84 3f 59 01 ba cd 98 76 c1 3f
       0.009973166047391051 0.13643178982966722
000510 a8 de 1f 02 a9 59 c9 3f 80 58 d1 8e d2 13 c4 3f
       0.1980487118123524 0.15685493443988108
000520 9e 4b 27 69 2c fa c2 3f dc 47 95 24 c5 29 d1 3f
       0.14825968870590328 0.2681744439370257
000530 30 60 d3 f9 ab 0d c0 3f 21 fd f3 81 21 72 c5 3f
       0.12541722963828894 0.16754549832692425
000540 ec eb 2b 1f 11 aa c2 3f f9 e5 42 e5 aa 6a 94 3f
       0.14581502935456514 0.019938154452324473
000550 17 b2 52 59 ec 56 b9 3f eb 7d 03 21 90 1d c0 3f
       0.09898259335268055 0.12590219127649446
000560 4a f0 97 d2 55 d7 b4 3f a6 85 8f c0 fa c0 81 3f
       0.08141075507586595 0.008668860436901248
000570 75 9b d4 92 b1 71 ca 3f 5f fa b2 34 9a a6 c7 3f
       0.20659465474565378 0.18477180073928687
000580 b2 14 87 7c ef d0 d5 3f a7 5b 46 09 35 e0 c1 3f
       0.34087741051582576 0.13965475991127826
000590 93 81 ed c1 5c 8b b1 3f 19 8b c1 3a 54 44 c2 3f
       0.06853275045933165 0.14271023625323023
0005a0 f3 a4 a5 24 df 10 c7 3f 5f 2a 83 eb 6c f1 c1 3f
       0.18020238198668145 0.14018022060038768
0005b0 a4 d2 ae d1 a9 7a ab 3f f0 4e a9 0f 2f 14 d3 3f
       0.053670222135598494 0.2981069233839966
0005c0 2a d5 b5 f2 04 b3 ab 3f 9c 85 58 3a b6 11 73 3f
       0.05410018408557911 0.004655563190256198
0005d0 93 5f 54 5b 5f 40 cf 3f c3 ce 66 e3 f4 92 d1 3f
       0.24415199241115867 0.2745945187300373
0005e0 f3 13 ad ac cd 36 c1 3f eb 51 31 96 51 26 b0 3f
       0.13448496753167624 0.06308469693005463
0005f0 7a 3d c1 fa 4f e7 8a bf b0 ef dc ae bd c8 cc 3f
       -0.01313650592797332 0.22487612760766984
000600 f3 e3 13 ec ee e6 89 bf 37 88 17 05 40 3c a6 bf
       -0.01264750154449421 -0.04342842161328558
000610 01 88 ed 5a 90 1f a7 3f 01 b0 62 e6 1d f7 c1 3f
       0.045162688350288256 0.1403539061478796
000620 45 6d e7 ad 53 10 d0 3f 66 e0 0a c5 17 d5 cb 3f
       0.25099651320279676 0.2174405777093426
000630 a9 ac 02 91 bd 83 ce 3f d8 b2 1a 45 6f dd c5 3f
       0.23839540081585156 0.17082014917595845

lstm.bias_hh_l0 f8 [200]
000000 fc 8e 46 18 c5 fe c2 3f 50 43 f3 5c bd 3c b5 3f
       0.14839996037800762 0.08295806426327812
000010 6a f4 49 27 10 92 ce 3f 18 ec 5b 1e 97 85 c3 3f
       0.2388324920501959 0.15251435263039137
000020 8b 72 f6 b2 ca f2 cc 3f ae 66 cf a9 13 9f b6 3f
       0.22615941751873367 0.0883648194861972
000030 e5 27 35 e7 7e 33 c7 3f 17 b4 13 60 87 79 bd 3f
       0.18125902451930567 0.11513563247326918
000040 83 b7 1b 70 ca dd 9b bf 76 d7 06 3e db 7a 91 3f
       -0.027213252155824385 0.01707022253113829
000050 08 ea 10 ac e6 e7 d1 3f 95 61 49 2d 16 e4 bd 3f
       0.27977911761595964 0.11676157575255382
000060 84 4a 60 aa ef bb a1 bf c3 f5 e5 8a 57 d0 99 3f
       -0.03463696436678723 0.025208824017217923
000070 d6 1d 87 c0 10 55 bd 3f 6d f8 5c 06 dc d1 cb 3f
       0.11457924557100027 0.2173419028349061
000080 db d6 06 c2 b6 85 ca 3f 48 a5 ce 16 3e 14 cb 3f
       0.20720562433205356 0.21155525315888668
000090 44 d6 c1 34 c3 ba d5 3f 3c 11 4a 26 cf 25 cc 3f
       0.3395240798193735 0.2199038445434186
0000a0 aa 7e 38 b3 00 fa c6 3f 76 da 96 68 68 84 d4 3f
       0.17950447798738384 0.32058153356357566
0000b0 93 3b a9 8b cf 32 d6 3f 8f 5c 37 55 38 1a d2 3f
       0.3468512405278769 0.2828503448667527
0000c0 a8 51 32 b0 f0 a0 be 3f 8b 7f e6 f2 ec 59 d5 3f
       0.11964325238870421 0.33361362190952865
0000d0 2e 2d fa 83 87 89 bc 3f 67 e7 f8 f0 ea 79 ad 3f
       0.11147353145695568 0.057570783534585605
0000e0 f0 a5 76 6a f3 9b 9f bf 90 26 c5 0d 82 70 c7 3f
       -0.030868342755331513 0.18312097236985325
0000f0 e3 3d a2 29 74 b2 d0 3f 6d b7 d6 bc f4 67 aa 3f
       0.26089195314213337 0.051574371387103614
000100 91 f8 e1 7a ef 7c c3 3f 7f ab 54 ff cc f8 b5 3f
       0.15225022792941847 0.08582764848385514
000110 d6 20 fd 99 a1 4b 98 3f 0b 08 97 c0 d8 93 ce 3f
       0.02372601034520091 0.23888692287260968
000120 a7 24 a3 e0 4e e9 cc 3f fc ad fa e3 47 f8 94 bf
       0.22586999863259402 -0.02047836617445674
000130 ed e2 0f 83 6c c5 be 3f 75 61 80 d1 3d 76 cf 3f
       0.12019994926221118 0.24579594354214476
000140 3b e1 c7 97 36 06 b2 3f ec 32 34 50 40 08 db 3f
       0.07040730672440969 0.422378614734767
000150 f8 51 67 f1 25 6e b8 3f 9f 61 f1 79 4c d0 9b 3f
       0.09543072837488598 0.027161784117511464
000160 d9 f3 f2 e6 be 9f 5b 3f b1 88 9a 56 da 0a c9 3f
       0.0016860355643040141 0.1956437037343384
000170 6e 1e 3c d4 01 d0 b7 3f 5a 1d 62 65 4b be c7 3f
       0.09301768714441902 0.18549482775072584
000180 95 b4 c1 25 59 8d c3 3f 95 17 c7 e7 ba 8a 88 3f
       0.15275110572421072 0.011983356664938142
000190 e8 30 16 9f e1 91 a4 3f 7f 1a 8c 34 23 e1 b1 bf
       0.04017548624969597 -0.0698415759362465
0001a0 76 fc 62 f2 10 10 c3 3f 9d b2 d9 fe 93 eb bf 3f
       0.14892780146871915 0.12468838664944788
0001b0 d5 53 74 e4 7b b3 a5 3f 67 13 d0 98 cc 7b 91 3f
       0.04238497890234042 0.017073818995430836
0001c0 ff 0f 3c dd 3b b7 ab bf 66 ee 95 97 49 70 95 3f
       -0.054132338291339004 0.020936155201964367
0001d0 e4 c3 5b 14 ce 5b c4 3f 2e e7 27 48 9c d8 bf 3f
       0.15905166620316813 0.12439896356218291
0001e0 9e b0 7d 34 86 78 aa 3f b4 8f 22 fe 82 14 cc 3f
       0.05170077696570384 0.2193759671109753
0001f0 d2 98 bd 52 bb d5 a3 3f 4e 43 50 d1 ad bf 98 bf
       0.03874001870171785 -0.024168697262271714
000200 8a e1 1b 8a b4 8d a3 3f 34 ab 3e bc 27 ff bc 3f
       0.038190500124929264 0.11326835962124165
000210 e6 88 32 78 f6 4b 95 bf 5b ab 3d 7b b3 0b b6 bf
       -0.020797587476985145 -0.08611604460535942
000220 af 4d 2f b5 f3 eb c8 3f 38 54 49 a4 4e 84 a5 bf
       0.19470068308747332 -0.04202504878473018
000230 c5 31 40 9f ab 6c cb 3f b3 8a a3 e6 e0 4b 8e 3f
       0.21425385738292682 0.014793164289988203
000240 af 82 40 8a 02 83 a9 bf af d5 bd f7 6e a4 ab 3f
       -0.04982765138288891 0.053988902799498965
000250 9f cf ab 4d ce 22 a6 bf 9a d0 54 f7 08 2f a1 3f
       -0.04323429773458475 0.03356197375470167
000260 8c 75 34 ff ae 3b b4 3f 0f 63 e7 ac 87 bc c3 3f
       0.07903569918240388 0.15419097845622118
000270 da 33 1d 87 f7 16 b1 bf 23 9a a7 3f e6 08 a4 3f
       -0.06675669716533097 0.039130397100781054
000280 55 81 9b fa c7 44 bb 3f 9a a2 f8 7e ea 66 67 bf
       0.10651826732965237 -0.0028566913604389345
000290 9e 98 91 21 f5 ba 98 bf 78 f5 b8 1f 2a 59 67 3f
       -0.024150686429856287 0.002850134156487879
0002a0 d9 b7 b2 52 c3 f9 b1 3f fc 34 ee 73 50 ac c0 3f
       0.0702173306369497 0.13025861416500806
0002b0 89 57 0f 94 69 aa b7 3f 7b 2a d3 4a a4 21 b4 3f
       0.09244403710121508 0.0786383326223276
0002c0 0e 35 7a 1c eb 32 a3 3f ad 1d b4 d9 75 3a ae 3f
       0.03749785158752604 0.059039767098563935
0002d0 21 92 28 6b f6 ed bd bf 51 1e 87 05 c1 f0 bc 3f
       -0.11691227070020506 0.11304861435848436
0002e0 b2 99 0a 80 e9 17 a5 3f e9 ad bd da a9 cd a8 bf
       0.04119805992131677 -0.048444087936186105
0002f0 ae 3b 98 b2 de 4e c1 bf 13 77 d8 34 5c a0 c1 3f
       -0.13521941872064985 0.1377063043627734
000300 49 fa 3d ad 35 3a d5 3f 61 e8 32 ae ba 00 a7 bf
       0.33167783659147126 -0.044927438511380265
000310 64 da 29 49 00 ee b7 3f 01 aa 92 53 d9 f4 c3 3f
       0.09347535883157715 0.15590969639499977
000320 48 33 47 e1 45 02 86 3f b0 2d 00 2d 0e 11 c4 bf
       0.010746522843783204 -0.15677048871326127
000330 a5 b2 7f a5 6d 10 c4 3f 3b 2b 6d f4 d8 42 be bf
       0.15675135212895444 -0.11820751159136204
000340 3a 6f 7f c0 78 4c bd bf b7 6e 47 13 6d 59 c2 bf
       -0.11444811534550761 -0.14335406724318542
000350 eb 60 b0 21 58 80 80 3f 2f 00 ab 69 44 34 b1 3f
       0.008057297256570858 0.06720378474983656
000360 38 12 05 2a 82 0f b1 3f 9d bb 75 49 5b b2 9b 3f
       0.06664289022325753 0.02704756389487849
000370 e2 68 a8 b2 c9 c9 b0 3f 64 bc 02 cf 00 dc bb 3f
       0.06557903873218465 0.10882573179218152
000380 7b b9 e2 08 60 1f bb bf 95 d6 40 1e 70 d6 b2 3f
       -0.10594749657568585 0.07358456362347916
000390 b7 e9 48 0d 41 12 be bf e4 89 af 77 6d e8 be bf
       -0.11746603559814771 -0.12073406383527857
0003a0 c4 b3 a1 7f c8 a8 c2 3f 73 30 7d 6b 41 79 bf bf
       0.14577585441602825 -0.12294396280521074
0003b0 5e f5 22 d4 cb a9 bb 3f 9f 10 47 46 6c 2d 81 3f
       0.1080596344863429 0.008387418646528309
0003c0 a1 4c 41 44 42 3c b7 bf 1f 35 8a 8e b6 9f c7 bf
       -0.09076322714217834 -0.18456155738787403
0003d0 12 15 b0 77 ce 36 bb bf f3 11 f6 11 ec 8d b9 bf
       -0.10630503103319125 -0.0998218101358999
0003e0 2c 73 bc 8c 7a 02 a2 bf c2 21 0d ae 13 98 81 bf
       -0.03517516105623594 -0.008590844868778261
0003f0 41 db 4a d5 a4 1e b9 bf 38 c5 e6 fe 27 0c c3 bf
       -0.09812383849462682 -0.14880847879752834
000400 d6 1d c3 cc c6 e0 b8 bf 78 a4 35 0e 1a 83 b2 bf
       -0.0971798181445743 -0.0723129543963682
000410 e9 c6 13 9d a9 ce bd 3f c1 55 b4 aa 1d 72 b2 3f
       0.11643467030424016 0.07205377023304661
000420 0c 1a 1e 83 77 0c a0 3f 31 ef 86 42 ef e7 94 3f
       0.031345114474834984 0.020416010318270842
000430 4b fd aa a4 a7 06 b5 bf 98 21 47 42 c1 5d 99 bf
       -0.08213279504979203 -0.024771709127692526
000440 64 9a f4 0e b0 8a 93 bf 15 9c 9b 5f af 7c 76 3f
       -0.019083739197549923 0.00549000268231394
000450 63 81 76 f2 90 63 c0 3f 9a 15 a9 38 0f 70 b0 3f
       0.12803851927766194 0.06420989163696902
000460 d6 a8 8b 4d 3e c8 bd bf c7 49 89 12 0b 3f b5 3f
       -0.11633672135545522 0.0829932136778445
000470 af 40 d2 99 cb b3 b2 bf c1 e3 98 45 cf 53 c0 3f
       -0.07305595879938907 0.12755766771604551
000480 00 89 51 38 bd 91 b4 3f dc 1c 04 52 28 d0 b1 3f
       0.08034880280459689 0.0695824814066443
000490 13 9d 06 b7 0e 5d bf bf 09 ba fd 19 c1 ec b8 bf
       -0.12251369446186215 -0.09736258396672083
0004a0 8b b6 88 4c d6 ce b9 bf 8d 55 1e 59 65 5f c8 bf
       -0.10081233376032565 -0.19041125155915176
0004b0 26 d0 f9 13 41 f0 cf 3f 5c 18 3f e8 3b 44 c8 3f
       0.2495194766557926 0.18958233680877157
0004c0 bf 85 9f 6e ea 63 d4 3f 60 e5 e3 20 94 5c d0 3f
       0.31859837344208225 0.2556505509561102
0004d0 c2 35 87 bc 38 ba a2 bf df eb c3 01 11 07 c8 3f
       -0.0365770082604331 0.18771565042683755
0004e0 40 db c5 ee ad 7f ce 3f ed b2 6a fb 8c d1 c0 3f
       0.23827146681625244 0.13139498020372944
0004f0 e8 dc 14 4e 39 d6 95 bf 7d c8 e7 50 a5 e8 cc 3f
       -0.021325011625973028 0.22584978533228997
000500 bb b1 05 ec f4 60 a9 3f 58 01 ba d9 c8 a4 cc 3f
       0.049567846118268 0.22377882605725108
000510 de 7a 7f 68 b1 8d ac 3f f8 b0 a2 3d 16 f9 b1 3f
       0.05576853180513351 0.07020701412938368
000520 2d 97 4e 92 44 5e bd 3f b6 8f 2a 0a 2a f5 ca 3f
       0.11471966335247137 0.2106068181648177
000530 88 c0 a6 33 19 e4 b3 3f 85 fe f9 4a 3c 53 d0 3f
       0.07769925604839234 0.2550802929108403
000540 29 a1 a0 a6 8c 92 90 bf bc 5c a8 a0 de 77 c5 3f
       -0.016184041662343027 0.16772063107121038
000550 1c b2 52 d5 c2 be b2 3f ee 7d 03 a1 b7 ff c0 3f
       0.07322328289109986 0.1328038726996818
000560 48 f0 97 72 64 b1 b4 3f 42 3d b8 1f c5 0a 9c bf
       0.08083179280942077 -0.02738483434774009
000570 6d 9b d4 e2 51 1e c1 3f 5f fa b2 0d 95 fb c7 3f
       0.13373778892238466 0.1873651806726739
000580 a2 14 87 1e 89 1b dd 3f 97 5b 46 79 22 7e cc 3f
       0.4548056409951845 0.22259932443259053
000590 65 60 7b 10 37 83 d0 3f 25 8b c1 56 0a 31 c9 3f
       0.258008733840603 0.19680909381994485
0005a0 eb a4 a5 ac 07 01 cc 3f 69 2a 83 5f 57 9a cc 3f
       0.21878143243819834 0.22346012271585217
0005b0 9e b4 6b a2 16 ad c2 3f ef 4e a9 b3 0d 90 d7 3f
       0.1459072392530389 0.3681673292642093
0005c0 a5 ea 5a bd c9 e1 bf 3f 2a c4 d2 f1 60 4c cb 3f
       0.12453900216034215 0.21326839263704872
0005d0 c9 2f aa 81 96 88 d2 3f 20 3b 9b 8d 17 92 b1 3f
       0.2895866647966128 0.06863543708025732
0005e0 e2 27 5a f9 b4 20 b3 3f d7 51 31 ae 3d 48 bb 3f
       0.07471781814288606 0.10657105925321929
0005f0 a8 b0 4f 21 ce dd a6 3f b2 ef dc 86 83 b0 ce 3f
       0.04466098934776258 0.23976177296742446
000600 fb 0d f6 89 93 0f 9b 3f f4 1d ba 5e cb b2 cc 3f
       0.026426606460075757 0.22420637250273467
000610 fa 61 bb b2 2d 02 c3 3f 20 60 c5 73 eb ff b6 3f
       0.1485039828028361 0.0898425252574957
000620 1d b5 9d a7 cb 61 b1 3f 32 03 57 28 0a c9 91 3f
       0.0678984913081035 0.017368468010093348
000630 4c 59 05 f2 5f 73 b4 3f e1 b2 1a dd a1 f1 c0 3f
       0.07988547953332165 0.1323740319834519
