AIModels/trainedModels/collisionDetection/trainedModel_06_30_2023_09:07:24.pth (torch, 794735 bytes, 18 tensors)

lstm.weight_ih_l0 f8 [200, 112]
0.3344299381763204 0.07238213981183206 0.2549900383870901 0.8144937969074092 0.157540478857962 0.15031422500109903 0.23291116123063732 0.23655292058233884
0.3866844256344972 0.16070374425244918 0.2972935258954241 -0.03860930171131965 0.2903135497385907 0.034282935518942514 0.03672942020654193 -1.166440618791916
-0.009866381834943639 0.11197023613873715 0.23247356240668227 -0.46500830960173806 0.15007476096767966 0.144306010496391 0.0449717970136979 0.3617124570390605
0.11564477562339363 0.031248405452221944 0.22558357839311916 0.33290014529958706 0.1296429429734042 -0.0968701056345324 0.18230542120107882 -0.4459960173133269
0.3491339730875716 0.04867499187547822 0.18565824596858205 -0.6651054000097963 -0.005357655250000738 0.09232099560874461 -0.09041990938904895 -2.0864527113487967
0.15515999925971924 -0.1436834939273894 0.04618691479764999 -1.5200179127347349 0.34110713123554043 0.01615855847995292 0.09836898088736912 -1.003321452974393
0.21279034471818828 -0.26702981207747695 0.051827725986741145 0.00448842709664202 0.39358705705122016 -0.16260218459768314 0.12165586011774186 -0.5376589027299821
0.12864146190484224 0.06823913002042974 0.010492852652283198 -0.038456203328037813 0.232077738692688 0.023028089000464998 -0.07377009582370207 -1.5456019731060715
0.26171853490150865 -0.006639283838631042 -0.08735154127352 -2.5729344104753635 -0.035855443559084765 -0.13604500841289677 -0.2876954143176211 -2.653428344765931
-0.012662196650378496 -0.3303694350334445 -0.24054452971513215 -0.4791216404172244 -0.16101265712711588 -0.34132386884006316 -0.08463920451191438 0.569944139742026
0.08823461508605299 -0.28595333028465714 -0.18565576104196485 0.177211128060224 -0.02408491733458884 -0.44102204478274376 -0.05780244943000076 -1.2117391902692518
0.19348315219577966 -0.3871293330405936 -0.25857396644862524 -0.05962353445640377 0.19039303541138816 -0.4893035524243762 -0.07375864181059748 0.22934995633490793
0.2294692760362169 -0.4024584606697465 -0.0991599516869289 -0.4055609654332182 0.1707528111928805 -0.31182932112018924 -0.22560965990530388 -0.00781641857364607
0.09970878155096262 -0.35501013203626836 0.34109827317641855 0.4468800318828448 0.29786939313167354 -0.4174621075836748 0.1371734998198133 -0.032435040322343595
-0.10927206307277611 -0.015154702687101753 1.0814388797345726 0.42084395362046084 -0.22408623840840886 -0.0226299145733641 1.0565377926999258 -1.0335138623554516
-0.00853874601380921 0.09450365847401151 0.8932508976985573 -0.7239087525184107 -0.10120627675365663 -0.1442791640928286 1.0211948357636123 0.3977020804014618
-0.07767267700263394 -0.15947420736436946 1.1388016531220684 -1.377815459525584 0.05215644766018605 -0.03204363467461613 0.9372696317915514 0.13135893649173763
-0.17692636229857442 -0.09751197424952102 0.9669869770582974 -0.66451153281114 -0.1229238331793597 -0.18358863926430904 1.023422540661517 -0.4196405921544581
-0.03367698646478995 -0.07476056965955312 0.9650660979664122 -1.9868091515436543 -0.030654885926773033 -0.15444728914114714 1.1483291167784873 -1.4367680639288392
0.01042818744367191 -0.04500592814011003 0.9848190756777199 -1.9740334281358227 -0.0994660417615226 -0.11533817953237847 0.9504956926629795 -1.3159611212819142
-0.17523289984373197 -0.05626169011360924 0.8336200468083058 0.5798455967079531 -0.27533326651533985 -0.061828367011177277 0.9716208908270626 0.0745073437127009
-0.2889205075084913 -0.34102883432650455 0.7876404616439392 -1.5730310717697316 -0.0004881129942138205 -0.12461531689848235 0.8698366877370988 0.9756250827588339
-0.27823946406225725 -0.13514423324395838 0.9659931335433279 -0.07878107489247806 -0.14164346101692768 -0.10892425224897181 0.9736287456714264 -0.47867938156703393
-0.12411260398904915 -0.24588580922447975 0.971168614627895 -1.2351467942945518 -0.06646135798504611 -0.2933089478395075 0.9484402099930705 -1.1838198827947874
-0.19201451012198595 -0.10532962910555461 0.7459451321545796 0.0770573814791693 0.04631140130226877 -0.2084002238089603 0.9648218469490424 1.137536164350258
-0.11858093293087 0.048374328920937765 0.9547394545534699 -0.32041280914643305 -0.10085614484260144 0.07084394635705332 0.8295695568874104 0.9551817111088189
-0.15495178916654406 -0.054030848174089076 0.9433951108576403 -1.9458652058551251 -0.2245423199737356 -0.05886298032392761 0.8921124745590484 0.09395900190799633
-0.21769657365912357 -0.08226454806538253 0.5575428314642266 -0.41233244065595065 -0.33459922546016724 -0.31112567044487377 -1.384592984307959 -1.8537731956100805
-0.013412487885559522 -0.3490919357188692 -0.12371479077044789 0.5505313300593723 0.007839926334160197 -0.5218144994206684 0.11316847807941514 -0.3348981875510849
0.05550557745366423 -0.741624613011944 0.12337517086445866 -0.1579260930562843 -0.07622254234950221 -0.6982887806322338 0.05497515079294074 -0.5736933934167376
0.07251136186408187 -0.654419811972237 -0.0347633086729009 0.4947114890004769 -0.05721654943733881 -0.7909874959069214 0.006691533318515417 0.8643627927964028
-0.024848567360883554 -0.6189301554851802 -0.1233189132413966 -0.3637860845047029 -0.14123502557256734 -0.8504161457576338 -0.013148301997300793 -1.7801802730707066
00000000: 7a51 d1d3 4c67 d53f e06a 4ecb a287 b23f
00000010: de69 ebbc c151 d03f d963 904b 5510 ea3f
00000020: 39dd 3e52 492a c43f 546c 401c 7f3d c33f
00000030: bef2 2d6e 08d0 cd3f be53 d6b8 5d47 ce3f
00000040: df40 7e08 70bf d83f ad5a f4b6 f091 c43f
00000050: d422 c26c db06 d33f c7d0 5730 99c4 a3bf
00000060: 6ca0 6d48 7f94 d23f 88be ba6d 888d a13f
00000070: 9320 2dd5 32ce a23f 1cff 66a3 bda9 f2bf
00000080: 9ac9 7c5a d334 84bf b15d 57d6 14aa bc3f
00000090: 1054 dc95 b1c1 cd3f afe4 8636 b2c2 ddbf
000000a0: 73d5 2757 a635 c33f ab5f d98d 9e78 c23f
000000b0: ee15 d51a 8b06 a73f ee77 6201 4c26 d73f
000000c0: c377 4161 e59a bd3f 3bb5 e0fd 94ff 9f3f
000000d0: d446 db35 ecdf cc3f d14d 3969 3c4e d53f
000000e0: ed2d 1dd4 2398 c03f cb0e a9af 7acc b8bf
000000f0: ff97 f8b6 c855 c73f 8172 20e1 328b dcbf
00000100: c15a 1505 3658 d63f 34fb 79b4 edeb a83f
00000110: f079 553f a6c3 c73f 1fec ad1e 8b48 e5bf
00000120: e8da 4fa1 e8f1 75bf f7ab df48 59a2 b73f
00000130: 2eb6 bb59 c225 b7bf 1d26 7f1e 0eb1 00c0
00000140: 70e3 3b69 48dc c33f cf52 b281 3864 c2bf
00000150: 2b3b 1eb1 cfa5 a73f 577a 884d fe51 f8bf
00000160: 9bb2 4501 b3d4 d53f 163a e380 de8b 903f
00000170: 3023 daa3 b52e b93f 4d67 becb 9a0d f0bf
00000180: 410e bcc9 b63c cb3f ab81 7b35 0417 d1bf
00000190: 7338 47e8 2989 aa3f a3ec 72f9 7462 723f
000001a0: f57c 8ac4 8730 d93f 5377 8dfc 25d0 c4bf
000001b0: 378c 92a4 d624 bf3f d21c 7471 8034 e1bf
000001c0: 1b3d e5cb 5277 c03f e3c7 be9f 1e78 b13f
000001d0: 11ce ddd7 467d 853f 6497 3e0f 88b0 a3bf
000001e0: 0849 e82c b9b4 cd3f 32e3 95e4 ac94 973f
000001f0: 674f fcd4 98e2 b2bf 77fa 7122 c9ba f8bf
00000200: 4a2d 0a19 ffbf d03f b8e1 4a2f cb31 7bbf
00000210: f363 06ad ab5c b6bf 33f5 dda2 5e95 04c0
00000220: 408f f00a a55b a2bf 8f6e f53e ec69 c1bf
00000230: bb03 ed06 9a69 d2bf 8764 d8a3 383a 05c0
00000240: 4538 1244 a3ee 89bf d843 c4d7 c524 d5bf
00000250: 43d9 2dc4 29ca cebf 6276 19d0 eda9 debf
00000260: e42f 4d10 109c c4bf f2c8 8011 40d8 d5bf
00000270: 8d8f 5637 eaaa b5bf b4a4 177e fb3c e23f
00000280: 7674 2b32 8b96 b63f 1950 7032 0f4d d2bf
00000290: 169f fe66 91c3 c7bf 50c2 c0af daae c63f
000002a0: e09d 1d71 b7a9 98bf 2c0b ca86 b439 dcbf
000002b0: ac70 dc5b 4898 adbf adce 17a2 4863 f3bf
000002c0: b201 8151 0ec4 c83f 38d3 2e1c bac6 d8bf
000002d0: 2f9b 5fd2 798c d0bf 7ed6 1fd5 f986 aebf
000002e0: cb31 3d8a cc5e c83f 22ad ded8 bf50 dfbf
000002f0: 8bb7 5faa d8e1 b2bf 1713 e6e0 565b cd3f
00000300: 9f94 01ce 3f5f cd3f d7cd a421 e1c1 d9bf
00000310: 167c 91ed 8b62 b9bf 9078 c4fa b5f4 d9bf
00000320: 8a01 e365 3adb c53f 3c49 09f8 02f5 d3bf
00000330: 373c 7aff c6e0 ccbf 224e 2af1 0d02 80bf
00000340: 17a9 e2c3 8386 b93f e30a b66a 7cb8 d6bf
00000350: 59f2 00da 8dd4 d53f 3d06 8bb4 ae99 dc3f
00000360: c3b6 7ec9 4a10 d33f 0f08 d9fc b2b7 dabf
00000370: 904e cdb7 e68e c13f b499 db5a 539b a0bf
00000380: fd96 4301 41f9 bbbf 0ea7 5fc3 6d09 8fbf
00000390: 6c53 d1da 924d f13f e73a 617a 1bef da3f
000003a0: b250 b99c dbae ccbf 2ef7 03dc 4b2c 97bf
000003b0: b825 2a2c 94e7 f03f 0e78 ecd4 4589 f0bf
000003c0: 3c79 0617 c37c 81bf 2e8c 7f4a 6431 b83f
000003d0: 3f9d 17e8 8295 ec3f f659 2bb0 422a e7bf
000003e0: b58f ce90 a7e8 b9bf ecee a259 bd77 c2bf
000003f0: 4f2e 6765 d056 f03f 3a07 386d f373 d93f
00000400: b2e2 8447 5be2 b3bf 1cbe 979c a669 c4bf
00000410: eca3 0c15 8838 f23f 995e 2939 880b f6bf
00000420: d6ba f3f9 3fb4 aa3f b0e4 f1f5 0568 a0bf
00000430: 8284 02e2 1cfe ed3f 327a 22a0 5ed0 c03f
00000440: 29b2 efe5 85a5 c6bf 04be 5e74 8bf6 b8bf
00000450: fdf1 43ac 8ef1 ee3f 3ea3 a7b0 ad43 e5bf
00000460: d680 67b3 ef77 bfbf 3557 c720 d57f c7bf
00000470: 4e16 6250 f05f f03f 7f28 d836 64db dabf
00000480: a8fb fc26 1c3e a1bf 17d6 b739 8223 b3bf
00000490: 71cf 274c d2e1 ee3f 4560 9464 f8c9 ffbf
000004a0: 0689 1292 fe63 9fbf 2c96 e8c3 edc4 c3bf
000004b0: 0ebb 195a 8e5f f23f 852f 6882 00fd f6bf
000004c0: 408f 37a0 5f5b 853f dbcd f95a 040b a7bf
000004d0: 7f68 504b a383 ef3f b2dd 7013 a495 ffbf
000004e0: b6a5 6d44 9b76 b9bf b15d 128d cd86 bdbf
000004f0: 603e 5ff1 756a ee3f b969 ab3f 2d0e f5bf
00000500: 968b 011b 086e c6bf 9d7c 1c0e 55ce acbf
00000510: fb9c caf2 03ad ea3f 71e3 525a 188e e23f
00000520: 88ca cb6b 0f9f d1bf 0862 8ebc f7a7 afbf
00000530: c9cd c6b1 8417 ef3f 54d1 8ecc e912 b33f
00000540: e021 b970 ac7d d2bf c238 9b9a 6ad3 d5bf
00000550: c48b f8c4 5934 e93f 377c 0da1 222b f9bf
00000560: f280 ce58 2dfd 3fbf 56df a816 cae6 bfbf
00000570: 4123 d6bf b3d5 eb3f 5368 f317 5238 ef3f
00000580: 51a7 a6e5 acce d1bf 534d 03ff 674c c1bf
00000590: 3b55 976e 6ae9 ee3f b5f8 341c ff2a b4bf
000005a0: 3746 6178 5f21 c2bf f68c 26b5 75e2 bbbf
000005b0: 3f56 a378 f727 ef3f 0665 46d8 aea2 debf
000005c0: 7b84 27f7 d7c5 bfbf 9fb6 95aa 2f79 cfbf
000005d0: 5a4f d733 d013 ef3f c611 f448 29c3 f3bf
000005e0: 6d57 fe8e 9c03 b1bf 1912 a6e4 92c5 d2bf
000005f0: 2736 8448 9f59 ee3f a554 0f1e edf0 f2bf
00000600: 026b aa74 ee93 c8bf 05e4 4ef0 e1f6 babf
00000610: b0db 6653 c8de e73f 5051 5e55 08ba b33f
00000620: e4e3 0cc4 20b6 a73f 4d89 dec8 dbac cabf
00000630: 3a99 e310 d2df ee3f 1d6d fe1e 5933 f23f
00000640: 7f04 deec 515b bebf 24dd 5c21 85c4 a83f
00000650: cb41 b0c1 398d ee3f 0738 20ba a481 d4bf
00000660: ca19 b353 b5d1 b9bf 8c1e b930 d422 b23f
00000670: 22d6 9274 d58b ea3f eb63 5e3c d990 ee3f
00000680: bca7 76d1 75d5 c3bf 6d05 c46b eea9 abbf
00000690: 21e0 8af1 4a30 ee3f 3327 d98d 4322 ffbf
000006a0: f375 6d80 cdbd ccbf a76a dfde 4923 aebf
000006b0: 3bb6 d275 2f8c ec3f c011 5c78 b20d b83f
000006c0: b599 2838 7bdd cbbf 30a0 8f17 4a0f b5bf
000006d0: 4c42 6810 64d7 e13f 6a9e ec9a a763 dabf
000006e0: 0793 a7de 126a d5bf 856f e0a4 7be9 d3bf
000006f0: c7fa 1df9 4a27 f6bf 1c8c 1515 0ea9 fdbf
00000700: 949e 9ca6 0178 8bbf a26e cdb3 8557 d6bf
00000710: 80fb 63c4 c5ab bfbf 89e8 40e1 f39d e13f
00000720: 0088 aa19 610e 803f 68e4 3252 b4b2 e0bf
00000730: c307 4a00 9cf8 bc3f a261 c1ce f86e d5bf
00000740: 4e73 d11f 3a6b ac3f 4770 598a 63bb e7bf
00000750: b552 00e4 8395 bf3f 424f 6e16 ec36 c4bf
00000760: 20ed 9b0e 5283 b3bf 4c55 7fb6 6158 e6bf
00000770: 9827 7ff5 b325 ac3f 2eff 543f b25b e2bf
00000780: 656e cbc7 1a90 b23f a9ce 48d1 01f1 e4bf
00000790: 41a4 b313 7fcc a1bf cc99 8d60 5aa9 df3f
000007a0: 1426 3fd1 7c4b adbf 9ae2 4e02 c54f e9bf
000007b0: 4abb 35cc 9468 7b3f a212 de28 dca8 eb3f
000007c0: 7677 ab20 e771 99bf 3925 0a9d 46ce e3bf
000007d0: 849d 590b d491 bfbf 7f01 ec6d 4548 d7bf
000007e0: a623 f143 fd13 c2bf fa9e c0eb 9b36 ebbf
000007f0: 4d57 9c38 7fed 8abf 262b 5d4f 9e7b fcbf

lstm.weight_hh_l0 f8 [200, 50]
0.3295130079806026 -0.5522945881707174 0.6135764553536225 -0.8852399744236754 -0.015480080496268369 -0.093426779885756 -0.3649841524914988 0.3049656357134426
0.4643325926226774 0.33660015392153286 -0.888266623822435 0.06873118910483533 -0.4946230146995405 0.1555533503203347 -0.04206564933491751 0.25498896146563343
0.3673410612426421 0.037789438414257255 0.5220507316365548 -0.30064227500516194 0.6815038233392641 -0.1003236109621303 -0.3997833020867395 -0.45172321365775875
-0.0714368436639194 0.25296478997306604 -0.37336573667410783 -0.5873495122871001 0.10203287478033424 -0.11822472351058429 0.053427521166737615 0.6272875944759643
0.3348962159710556 -0.09661549217319304 -0.35471186385196807 0.12044230910743114 0.19615898287710712 0.29323267363513145 0.0873909476214648 -0.4497240062950134
-0.12656957777329483 0.08818298460977764 0.06937105764954095 0.990541906359826 -0.07027266716594575 -1.475232493880429 0.9997012383348683 -0.03594881610470109
-0.11114151798184956 -0.2765948540378201 -0.031724304108848765 0.1364816178541314 0.39279608810072114 -0.06905259174890957 0.16029775413772523 0.8154500833261485
-1.0264040171035722 -0.33804115962292686 -0.6188152936013631 0.18046920319688647 0.40125178329991484 -0.5252034759087245 0.6725809970905821 1.2805839366724714
-0.8476491031202299 0.03760502271966635 0.012372754047514617 -1.033365834096957 -0.36651220931883294 -0.3607766708227205 -0.41114339057711996 0.04541593336048692
0.26679562159779674 -0.4236360581610821 0.09093888425081584 0.12552957042059334 -0.8100281992558082 0.01703137919803418 0.5470078825967298 -0.0002184576828143429
0.2891670124796702 -1.869430815728183 0.4104976095434612 0.24038600263785206 0.16410429397223708 -0.4447108516934293 0.3955053216934704 0.5619632971420381
0.28513141443558776 -1.1371193455622437 1.0344596745778796 -1.1134451126485803 -0.22485494267896577 0.8232295716443262 0.8523106712684287 -1.7773106831293464
1.0276012580108091 -0.19937247778428502 -0.03984397733593414 -1.7348888634864166 -0.7392387247056964 0.049154057221581345 1.2042071066134676 -0.29282139614768504
-0.7095609311780894 0.518376460085932 -0.9925374732266831 1.0126603740770042 0.20040778337855314 -0.537797448187064 -1.0689395872011882 0.027380911074827135
-0.19732135192353858 0.45368399542029014 0.35535751890580597 0.7663900800528972 0.12171667617925705 2.2553901873265514 -0.17555539955511298 0.22490216234213042
0.04236520718327015 1.0171703433503554 0.665577311614912 -0.7780808102476937 -0.9226246210525568 0.6697623415785079 0.7454990852558648 -0.6426013416825457
0.5048790051002858 -0.36234261601204354 0.7937241032786364 -0.7225747270685444 -0.2512927432241451 0.030597808893227597 -0.4192158898227957 0.1368359040155812
-0.03025808158112832 1.037155893521369 -1.1620412050606401 0.13833228118079935 0.8666670173583328 0.062002328602821524 0.8385669177684242 0.801306768477233
-0.3340688543479393 -0.32479471971354557 -0.23726032199133434 -0.5088101285999368 -0.19709421225008994 -1.484151779914965 -0.018758584081508066 -0.12925699771480903
0.5958186376517589 -0.19626875379154016 0.150257210938476 0.333316512642304 -0.40669310574879664 -0.8069245011019258 0.0341225872296731 -0.19061212908712236
-0.3694449299477506 -0.8925693996023406 0.19245893319861587 0.3487095553492985 0.2034910667948136 -0.7311416532528108 0.12337284510393537 0.7214423655423555
0.03816228814385266 0.03691489198870452 -0.17823193640582582 0.13341672833581728 -0.14652766086986407 0.09441665782599924 0.07385169692485305 -0.05837364968144261
-1.2258725794168384 -0.13576641852260107 0.03970369666452882 0.11220319916966276 0.24794217043938765 0.6535854761455513 0.21395921872172494 -0.27468980028254486
-0.0020001906225824003 -0.5455465212380427 0.11266098761906192 -0.1212370165895093 -0.6533099595828007 -0.8934052879854316 -0.19673295444440733 -0.21680685122370089
-0.18387201898879216 0.5517013051641226 0.644542113506392 -0.7459498261713075 0.5550866503519901 0.05131859702402538 0.24427261175397658 0.6597835790205083
0.20289733099097002 -0.21969608188337142 0.7622734014897585 -0.9959056388113658 0.03134170926860667 0.40153104627602954 -1.0751800299802965 0.27588410623290066
-0.5206652568976535 -0.23848517710736536 -1.5305629334975774 0.1559832561812686 -0.46392036649824137 -0.34649575880615513 0.4804817288136645 0.0996489604345363
0.15313399143689244 0.40943026988448306 -0.8913373590551852 0.16010345052101618 -0.03023879848890449 0.23768817322050104 0.183961219732395 -1.2281584967969201
0.2580324376923925 -0.32728283354514665 0.02724770354624252 -0.8390223569091061 1.2703640061754065 0.1322011136074326 0.3550108556604365 1.9213793540971196
0.7192961394636229 -0.8839381245649436 0.03625409853936832 0.4017934259506248 0.11344759615383053 0.25500562857275005 -0.8386992474191095 0.8205928391219489
0.6869886545217716 -0.5462863905414735 1.185713692200278 -0.19081886022448336 0.7453356376596562 0.20521085685563878 -1.395445187133239 -0.6808861861031306
-1.0911472965314133 -0.9433196598029926 0.004627339350441762 0.3651059271562539 0.19239019210499145 -1.171007722334135 -0.09547315851799819 -0.5996974622393314
00000000: 9587 38ba bd16 d53f c16e 3eb3 65ac e1bf
00000010: 78dc 2a17 6ba2 e33f b85e 68c8 e253 ecbf
00000020: c171 c43b 05b4 8fbf c10e 2e44 d1ea b7bf
00000030: c997 a07d e65b d7bf eac1 f295 8e84 d33f
00000040: a900 f20c a0b7 dd3f acfa 3a5f db8a d53f
00000050: 1e43 6e20 ae6c ecbf 38a3 6b01 5e98 b13f
00000060: e8f0 fe49 e7a7 dfbf 5d5c 3414 2ce9 c33f
00000070: 0e61 5bf8 a089 a5bf 627f 9538 bd51 d03f
00000080: 16f7 2015 8482 d73f a933 3f24 2359 a33f
00000090: 866b 67bc a3b4 e03f 264d bc18 b93d d3bf
000000a0: 4cea 2a1b e1ce e53f 8a56 19e4 ceae b9bf
000000b0: 8ac3 fcb3 0c96 d9bf 1543 607b 08e9 dcbf
000000c0: 7d18 445b af49 b2bf 3053 fe3a 9330 d03f
000000d0: 5b95 1d67 39e5 d7bf 5507 5334 91cb e2bf
000000e0: dc63 4c94 d31e ba3f 757d 0eb9 f943 bebf
000000f0: 1a27 3c20 da5a ab3f afbe ee6e bd12 e43f
00000100: ed96 c989 f06e d53f 14ba 2bfb cabb b8bf
00000110: 86d5 af63 99b3 d6bf d0cf aba2 4ed5 be3f
00000120: d90b 23d0 bc1b c93f 016b d8f9 52c4 d23f
00000130: f729 00ce 405f b63f f4d7 d032 47c8 dcbf
00000140: dd37 9a92 6e33 c0bf 4c71 f6fa 2893 b63f
00000150: 1dca e437 4dc2 b13f 1a41 a4f0 84b2 ef3f
00000160: 43ca 47b7 63fd b1bf 4c68 3363 8d9a f7bf
00000170: 2168 8d73 8dfd ef3f cacc ff1a e267 a2bf
00000180: 0fb8 f540 c573 bcbf ad65 15e7 bab3 d1bf
00000190: f38f 4501 2b3e a0bf 2526 98ca 3a78 c13f
000001a0: d1ea 1834 9223 d93f c2fe 433f 6ead b1bf
000001b0: 5667 d205 a384 c43f 4500 edc5 2a18 ea3f
000001c0: fc15 5f9e 266c f0bf 9f12 5263 77a2 d5bf
000001d0: 2e0a 09bb 55cd e3bf 2239 d566 9d19 c73f
000001e0: 2e07 aff5 1bae d93f 7ac0 1885 77ce e0bf
000001f0: ac48 4d95 c885 e53f c1a8 fc94 457d f43f
00000200: e552 0c03 f11f ebbf 8d1b 7e2d f740 a33f
00000210: d0d6 f6ef e256 893f c900 e49c aa88 f0bf
00000220: 65fb 26a0 ef74 d7bf 51f9 9508 f716 d7bf
00000230: bfb2 1f5e 2c50 dabf 854f 00d9 c140 a73f
00000240: 35a0 5ef1 2d13 d13f 2c53 cd69 da1c dbbf
00000250: 6ebf ca4d c547 b73f 9595 d15b 5a11 c03f
00000260: e786 1442 c0eb e9bf 1634 a582 ac70 913f
00000270: 7907 cdac 1681 e13f b2dc dc34 39a2 2cbf
00000280: 49a9 6b5b b681 d23f 8ffe 7a49 30e9 fdbf
00000290: 6dd2 04c4 9745 da3f 8d74 dff1 f7c4 ce3f
000002a0: 0a39 df97 5e01 c53f 00c6 0c81 2476 dcbf
000002b0: 8650 848d f54f d93f 54e0 d873 9afb e13f
000002c0: 5e09 04d5 973f d23f 8f6b 0d0e a431 f2bf
000002d0: 177c 7596 258d f03f 8e77 8bd2 abd0 f1bf
000002e0: e436 93f8 0bc8 ccbf c1ff e98a e557 ea3f
000002f0: 9226 6407 2146 eb3f 8ef3 ad53 dd6f fcbf
00000300: 15c2 4704 0e71 f03f b42a e78f 0985 c9bf
00000310: ef67 3307 6e66 a4bf 79e6 2dd3 1ac2 fbbf
00000320: de86 51f8 d7a7 e7bf b9fd 7678 b82a a93f
00000330: 0440 c8ab 6e44 f33f db7e 01f4 95bd d2bf
00000340: 03bc 3d20 b9b4 e6bf 00bb e23a 8a96 e03f
00000350: bf04 72f2 ddc2 efbf 8fda 495d db33 f03f
00000360: 38c4 bc55 f6a6 c93f 02be 7afe a235 e1bf
00000370: 8bdc 8665 601a f1bf 0b7e 67d6 bd09 9c3f
00000380: 9734 a878 d341 c9bf e21e c398 2809 dd3f
00000390: 0fa4 8576 2dbe d63f e1ca 397d 4486 e83f
000003a0: d656 91f7 d228 bf3f 794b b202 0a0b 0240
000003b0: abda dc6d 9978 c6bf ab91 0714 98c9 cc3f
000003c0: 2a4a ae76 e4b0 a53f f469 f268 5446 f03f
000003d0: 8c0f 4bca 684c e53f be16 35ba 09e6 e8bf
000003e0: c8f6 bc11 2486 edbf 9e81 256f b16e e53f
000003f0: 3de6 cbe5 20db e73f 5b8d 5cb0 3090 e4bf
00000400: c4f7 ea03 f827 e03f 0801 6e15 9f30 d7bf
00000410: 101e 3417 3066 e93f e59d b508 551f e7bf
00000420: 46ab 7728 2e15 d0bf 5d49 1a32 0855 9f3f
00000430: 1628 30e2 6ed4 dabf a42f 55c2 d683 c13f
00000440: e594 527b f9fb 9ebf 6f72 38c7 3098 f03f
00000450: 2570 c584 b897 f2bf b588 d347 dfb4 c13f
00000460: ce6d 0278 bcbb eb3f 42fb 3feb c4be af3f
00000470: 3955 ea49 8ad5 ea3f 868a 9517 4ea4 e93f
00000480: 7057 0255 6261 d5bf 9252 c5ca 6fc9 d4bf
00000490: caac cbd5 8b5e cebf a3ba c62d 2c48 e0bf
000004a0: 9429 ec15 623a c9bf 378f d0ef 15bf f7bf
000004b0: 76ed 9844 7335 93bf 986c fb48 7e8b c0bf
000004c0: 74f8 613f f210 e33f 9f73 61a3 551f c9bf
000004d0: d405 7cd7 a03b c33f 66fd 40c8 0e55 d53f
000004e0: b9c8 2c85 4207 dabf 495d d254 53d2 e9bf
000004f0: 21a7 6908 8478 a13f 2937 536e fa65 c8bf
00000500: 421c f358 fca4 d7bf 217a 96b3 ed8f ecbf
00000510: 0d9f f48b 7ea2 c83f c0c9 01e2 4151 d63f
00000520: 5ab8 74ca fe0b ca3f aeda 2e2e 8365 e7bf
00000530: 9495 efde 5c95 bf3f 6381 be4c 0e16 e73f
00000540: 8b68 09e7 018a a33f f959 a73b 82e6 a23f
00000550: 799e fbd8 4dd0 c6bf 0b88 78a2 cc13 c13f
00000560: f29d b21b 6bc1 c2bf 1d6f 8fa9 b02b b83f
00000570: 70dd 0bdf f1e7 b23f 1af0 a8a8 26e3 adbf
00000580: 2689 da90 2c9d f3bf 288d b943 cb60 c1bf
00000590: 66ae 68fd 0a54 a43f ecb5 f04e 59b9 bc3f
000005a0: 1210 abac 91bc cf3f 82f1 a516 2cea e43f
000005b0: d733 8b03 0463 cb3f 0488 3087 8494 d1bf
000005c0: 1e88 e929 b462 60bf 2f3f 65fa 1d75 e1bf
000005d0: f5e2 5bb9 59d7 bc3f 8c09 519d 6309 bfbf
000005e0: 0ee5 d149 eae7 e4bf 8911 bfaf c696 ecbf
000005f0: 0d2d b1a2 8b2e c9bf effa c6af 53c0 cbbf
00000600: c969 1a4a 1e89 c7bf bee4 da7e 89a7 e13f
00000610: 16f3 4cc8 16a0 e43f d59a 7b2b d2de e7bf
00000620: cfa7 3614 45c3 e13f 2b22 ca5f 6e46 aa3f
00000630: d65a 652f 5344 cf3f db96 ca73 f21c e53f
00000640: c6a4 862c 8af8 c93f 2ccc 5f4f 001f ccbf
00000650: 4a4b 4030 8b64 e83f 0619 9380 75de efbf
00000660: 6d6a 9e40 050c a03f b063 0546 afb2 d93f
00000670: 263e a1f9 ef33 f1bf 776a 70cf 15a8 d13f
00000680: 583e 512f 4aa9 e0bf 2be2 20aa ae86 cebf
00000690: 7f78 fd8e 2f7d f8bf 6fd5 0264 42f7 c33f
000006a0: dfba 830c dfb0 ddbf e69b 118c fc2c d6bf
000006b0: 7d22 e56f 36c0 de3f 3090 2522 9882 b93f
000006c0: 8c4e 9006 e599 c33f 1e5d c904 1b34 da3f
000006d0: 7c0a dbec d585 ecbf 5975 fb15 457e c43f
000006e0: 721a 526a ebf6 9ebf 7363 50e9 906c ce3f
000006f0: e0cf 3d8f 0a8c c73f b6c1 2086 89a6 f3bf
00000700: fe8a 4c7c 9a83 d03f 6a97 a7b2 33f2 d4bf
00000710: e425 7d6e d2e6 9b3f cb32 f169 45d9 eabf
00000720: 639f 4835 6953 f43f 7127 b851 f7eb c03f
00000730: db56 b273 7fb8 d63f 60e8 1047 f8bd fe3f
00000740: 8154 6456 7904 e73f 4e35 169b 3849 ecbf
00000750: 0d25 25af e58f a23f b32a 0dc6 fbb6 d93f
00000760: 5b5f 4ad3 e60a bd3f 4104 c120 0352 d03f
00000770: 5209 dbcd 9fd6 eabf b589 ebe9 4b42 ea3f
00000780: 129c 7ca1 cffb e53f 3304 b498 2d7b e1bf
00000790: b3b6 a6eb aef8 f23f 30e4 0f9e c06c c8bf
000007a0: 3554 891f cad9 e73f 5853 7d6f 5944 ca3f
000007b0: d790 2155 be53 f6bf 428e b3d3 d1c9 e5bf
000007c0: 2d8a 1bde 5675 f1bf e9e2 10b6 ac2f eebf
000007d0: 5a9e d7f2 1df4 723f 428f 2d40 e55d d73f
000007e0: 8dbf 94e7 3da0 c83f f09d ec97 72bc f2bf
000007f0: 4f0a 7bcd ed70 b8bf eafc 79bb b830 e3bf

lstm.bias_ih_l0 f8 [200]
0.5489632056780499 0.4430775895487667 0.609760888826874 0.7196783119709296 0.1735065334621964 0.5400752495682535 0.3310424943835065 0.17095655294662448
0.360041252633241 0.4938808577486156 0.06612101259078541 0.5170128395579556 0.4432499746500263 0.2715303619196453 0.831134164504545 0.7544926836764814
0.4787705444400963 0.7370230464996586 0.3229387306021029 0.9526965833974345 -0.15533562109839788 0.41092726148841324 0.5401719427742436 0.365799977769118
0.2483927595861812 0.33827439680350924 0.30295833679667367 0.5225698622092904 -0.13561218695441027 0.20737550791913534 0.18593451624248755 -0.35875950434531123
0.1191304248439641 0.35882774676434265 0.3301923308640002 0.4511838564478916 0.5177086017885014 0.35252949505769704 0.8542638950824908 0.411174424793991
0.27280513185431143 0.8852487942932292 0.3257841845569677 0.23998187040173224 0.5437015095269229 0.3325995966702303 -0.05819359834210146 0.431226471251043
0.9835561851377482 0.16497183591913323 -0.03948184656584175 0.1964761980948619 0.09965175499081826 0.405303579036887 0.006040526563450945 0.11737026799590884
-0.12857072517461923 -0.18448936764728016 0.164471594404526 -0.3788846209454365 -0.005170139782202729 -0.07754723801239756 -0.35272555357490176 0.22480387696615725
-0.0026710849097898635 -0.10952743592203816 -0.15521287652281424 0.14934411396488503 -0.2337513088331107 -0.1368085629388371 -0.3032466809413639 -0.356007961118333
0.08170486044090088 0.05134451699270371 0.2606779477655504 -0.19110140086795402 -0.4168373366731889 0.09405006131358255 0.39600900549299106 -0.009210656472101697
0.014487775376484905 0.31633200303915826 0.12535808048885813 -0.05534267245117838 -0.24032876456914273 -0.07695603497691547 0.6778026539858982 -0.13217782525356753
0.4299930705585192 0.27525883675615415 -0.07596814376843984 -0.14279145909679467 -0.4953839626339906 0.2657325138845956 -0.2401949469260717 1.1150270970884706
-0.015117774691215518 0.10361059756437464 -0.4036591557223324 -0.19293927738395864 0.15076940595924143 -0.02790119441180677 -0.015569762929106985 -0.08734868526267381
-0.04261453577808331 0.337722610860303 -0.09321062900409091 0.32535513185119513 0.13279845364245887 -0.08283224778046976 0.16684344109653143 0.17913330267735755
0.1468393747236526 0.2023992912455842 0.034962486112553495 0.1878071302192192 0.25862630882087695 -0.05544646855533904 0.17847915272511708 0.25132672879889373
0.27051938747880444 -0.03868705748152212 0.2667747177973525 -0.9560020605324955 0.007217797767940316 0.1011976642345659 -0.0035880168549691045 0.0545686968687079
-0.7168515322222293 -0.3006638833331577 0.3761338799211804 -0.5473200454966799 -0.37277756531978884 0.27338307709831666 -0.21427580985228287 -0.012745233817333477
-0.5233662599710247 0.21596305409214347 0.06916331978214778 0.13389014090245424 -0.5453282037699203 -0.022362120450024683 0.32096297943123225 0.01552785169333407
-0.05020055927096674 -0.3706275454051404 -0.33746965447763005 -0.012614056308815538 -0.08407533411126453 -0.1867094874018295 0.07473317768291166 0.018971727186974836
0.6055605377114835 0.3362337239071419 0.5001236396048936 0.19454431678862386 0.34417485450909036 0.44584135996339164 0.6784801302923691 -0.31355008379108457
0.29524239472251124 0.43167467611487387 0.21170968285846392 0.34912131705414035 0.07502822336842362 0.19285814546040278 0.1163066933189921 0.22115236984139133
-0.22253098230499832 0.6351273888134366 -0.13471899311477503 0.22403569727318504 -0.001833594367875693 0.4470931416962483 0.5277874218210823 -0.03410843556728619
0.3572264803579281 0.6862417196597804 -0.5514154151965959 0.250501525405555 0.29865008248535363 -0.5209424129654264 0.32644487677832446 0.28109361044368314
0.07782151383388416 0.018977903886349883 0.6432502946585045 0.30409868111170607 0.20602127102459947 0.5409063754532152 0.04700020537239457 0.2756121734283188
0.8050578984263145 0.17666238412693486 0.45073795339125944 0.5801393140824179 -0.08221785581275094 0.21228706576134954 -0.09278627333863108 0.3177381877963641
00000000: 8506 e348 1b91 e13f 2df5 2c1b 625b dc3f
00000010: a885 7c44 2983 e33f b4c7 b1cf 9a07 e73f
00000020: 3265 6e4b 7635 c63f 3cca c8e3 4b48 e13f
00000030: bea8 bddb cc2f d53f 94a8 f881 e7e1 c53f
00000040: 3b52 5177 ea0a d73f 99a5 0975 be9b df3f
00000050: 51e4 a782 4eed b03f b66e b082 5e8b e03f
00000060: c1c7 4424 355e dc3f 0a38 14e2 c060 d13f
00000070: 6b54 e4ac a698 ea3f bec6 2ed7 cd24 e83f
00000080: 0d22 aa35 2da4 de3f 84a8 235b b195 e73f
00000090: ee0e a335 07ab d43f 4d7e 968b 7d7c ee3f
000000a0: 6abf 42a2 09e2 c3bf 312a 48db a14c da3f
000000b0: 41d4 8dab 1649 e13f 3e56 594f 4469 d73f
000000c0: f72f 7e7d 55cb cf3f be17 d6a7 49a6 d53f
000000d0: b3e7 255d ab63 d33f 570d 826e e4b8 e03f
000000e0: e140 f479 bd5b c1bf 8a85 40d8 478b ca3f
000000f0: a3c2 3ac5 b3cc c73f beb4 926c eaf5 d6bf
00000100: 5ad5 a9de 547f be3f a103 50a7 08f7 d63f
00000110: 6bdb 9c03 df21 d53f 9051 fb40 32e0 dc3f
00000120: 9743 31a1 1191 e03f 267c 09df d78f d63f
00000130: 4c0d 713c 2156 eb3f 8046 dc88 ae50 da3f
00000140: f0b1 dfa7 a375 d13f e002 8a47 f553 ec3f
00000150: 237a 8ee8 a5d9 d43f a011 81d6 b9b7 ce3f
00000160: e486 46b5 0066 e13f aa21 97d1 4f49 d53f
00000170: 8e88 6e23 8dcb adbf 6d55 cce9 3699 db3f
00000180: ab3e 1ed2 4a79 ef3f 1852 0410 cc1d c53f
00000190: 006c 92ef f636 a4bf be42 a1ce 2126 c93f
000001a0: 91b0 ac04 c782 b93f 5392 3a6c 7ef0 d93f
000001b0: 4277 a680 f3bd 783f e5af 9056 fa0b be3f
000001c0: 0d8b ec69 0175 c0bf eb9c 40fc 589d c7bf
000001d0: 3551 8bbb 670d c53f 9ec0 fa47 a53f d8bf
000001e0: 9625 7cd4 482d 75bf 4d8b 28c3 22da b3bf
000001f0: 2e55 4433 0e93 d6bf 25b5 ca99 5fc6 cc3f
00000200: 2be9 a2ca abe1 65bf 8fc5 4c73 fd09 bcbf
00000210: 88b2 4afa 03de c3bf c925 aa3a b51d c33f
00000220: 99ee 6a19 90eb cdbf bf49 d167 f182 c1bf
00000230: 89e0 50c4 6468 d3bf ba9b 879d d5c8 d6bf
00000240: f995 8417 9cea b43f 510a a01a d449 aa3f
00000250: 7a40 1c8f f2ae d03f 8c4c 79bd 0276 c8bf
00000260: 6ed6 3082 76ad dabf 6b54 8731 aa13 b83f
00000270: 6de3 e027 3658 d93f 6d35 9462 09dd 82bf
00000280: 6f6a 784b c4ab 8d3f 8fce ee95 c83e d43f
00000290: f196 fecb bb0b c03f cc89 80f0 df55 acbf
000002a0: 1768 0ecc 17c3 cebf b6a7 7405 64b3 b3bf
000002b0: b15d 0031 8fb0 e53f 8a38 5cf6 33eb c0bf
000002c0: aa8c e3a7 0185 db3f 305f 733d d79d d13f
000002d0: 5ff5 05f5 a572 b3bf 6f03 7c93 fd46 c2bf
000002e0: bf74 9eef 5eb4 dfbf a890 27f2 c201 d13f
000002f0: a520 db40 b5be cebf 7a61 42a7 26d7 f13f
00000300: a9b6 185f 11f6 8ebf 81d9 0e60 3986 ba3f
00000310: a5bc 2336 8dd5 d9bf 472e 3df7 3bb2 c8bf
00000320: 7688 ea71 694c c33f 2f7b 1276 2192 9cbf
00000330: 9726 b234 0ae3 8fbf 8841 8dc2 7b5c b6bf
00000340: d58e 008b 92d1 a5bf 6ef1 304c 3f9d d53f
00000350: 1650 36db a6dc b7bf e4be b854 9ed2 d43f
00000360: 1f47 ad2b 8aff c03f 0373 4583 7e34 b5bf
00000370: f2e5 8739 205b c53f 0ed6 4f0e d7ed c63f
00000380: b401 1af4 a1cb c23f 0c12 5150 38e8 c93f
00000390: 426b e15c 9ae6 a13f eea2 1f65 100a c83f
000003a0: d155 915c 558d d03f 5a6c 3fc2 7a63 acbf
000003b0: f96f fca5 67d8 c63f 7e52 33b4 bc15 d03f
000003c0: 5af2 898c 3050 d13f 7fbe 523d cace a3bf
000003d0: 68b6 1544 d612 d13f 6aa9 1ca2 9197 eebf
000003e0: 9b93 ccd5 6890 7d3f 39ad 5112 17e8 b93f
000003f0: d63b 96e1 9d64 6dbf ce74 dfa0 6df0 ab3f
00000400: 426c df9f 72f0 e6bf fd45 80ba 133e d3bf
00000410: bc75 4bd6 9312 d83f a54f fb53 a583 e1bf
00000420: a7c8 ee6e 96db d7bf 0ab2 dabb 1b7f d13f
00000430: 23da d1c5 636d cbbf 720e 6753 2c1a 8abf
00000440: eaf8 4c99 6abf e0bf 1d2a 3c67 ada4 cb3f
00000450: b30f 8cf4 afb4 b13f 6168 37e8 4f23 c13f
00000460: 46e7 1822 5473 e1bf 541e 0280 18e6 96bf
00000470: 3791 f84e a88a d43f d29d 99f9 10cd 8f3f
00000480: 8a92 9e40 e3b3 a9bf e0c1 a098 5cb8 d7bf
00000490: 03ed 5752 1a99 d5bf 0eb6 87fa 65d5 89bf
000004a0: ce7c 680a f685 b5bf 3d34 1fb3 18e6 c7bf
000004b0: e002 13aa b621 b33f a54a 440f 536d 933f
000004c0: 0502 277e c060 e33f fa94 ff73 da84 d53f
000004d0: 7ee7 814a 0301 e03f 316a 1d03 d4e6 c83f
000004e0: e836 0ef8 f506 d63f b7cd 0f33 aa88 dc3f
000004f0: eeed 52f6 1bb6 e53f f19b e25e 3411 d4bf
00000500: 4a75 6e5b 40e5 d23f 862f 1bd2 8ea0 db3f
00000510: 40d3 0f8a 4d19 cb3f ed5f c5ef 0058 d63f
00000520: eff4 a4b5 0c35 b33f 9783 c261 93af c83f
00000530: b668 1c84 46c6 bd3f 016a f389 b84e cc3f
00000540: 6761 ac2d e57b ccbf 3aec 77ac f652 e43f
00000550: 2afc c9d2 783e c1bf ab62 76a4 33ad cc3f
00000560: 72a6 06f6 a60a 5ebf 617b 768d 2c9d dc3f
00000570: 4ac6 7e72 a2e3 e03f 95f5 8e2e a976 a1bf
00000580: 5bc2 9974 ccdc d63f a7dd e231 b1f5 e53f
00000590: d1f2 d8f0 31a5 e1bf 19c2 cd8c 3708 d03f
000005a0: 1a3a 4e3c 151d d33f 8b25 596c 8fab e0bf
000005b0: f66a 6d0d 79e4 d43f 7b17 fe0d 70fd d13f
000005c0: 8a7c d758 1cec b33f 9b6d 2792 f16e 933f
000005d0: a56b 56a4 8195 e43f ab6a 8850 5a76 d33f
000005e0: 715e aaae e75e ca3f 639f 18e3 1a4f e13f
000005f0: 9f9d f531 6910 a83f 5443 d03d a1a3 d13f
00000600: 9114 24c8 08c3 e93f fa18 217d df9c c63f
00000610: 6069 3800 e4d8 dc3f 9173 a352 8090 e23f
00000620: 25ee dcb9 3a0c b5bf ae86 67fa 382c cb3f
00000630: bfd3 8159 d7c0 b7bf e8a4 518d d255 d43f

lstm.bias_hh_l0 f8 [200]
0.3291323499508543 0.557244300074517 0.67358564676049 0.6420376774169567 0.3212481343332831 0.4929746459877772 0.42187979606991266 0.1850862363219832
0.11278273846736267 0.5194719853230589 0.20090871319543288 0.4275280957840182 0.18779165695297742 0.35116370960975096 1.0231003926916264 0.7547735335449132
0.49249883896166713 0.7468100674716576 0.4707717575476943 0.8432372521383033 -0.14897519082796448 0.4686614007520434 0.5211547828354313 0.499544310708504
0.2876656360425605 0.2826437427069061 0.46289642634621564 0.5519331516847314 -0.1627690912942 0.2802590416986668 0.052312343022568264 -0.512552399721993
0.21850620656353714 0.380368869111459 0.11504005977206236 0.4909308980980081 0.43890748022578313 0.30134632348739604 0.7231635385036641 0.5147610277500466
0.35146899137069376 1.1343389964459571 0.3545301189241477 0.20611214195572558 0.45094426213855887 0.37343032061155607 0.08719972108586595 0.38732589203694695
0.8934511944989558 0.19409149885963523 0.14447767478740356 -0.04062974516771539 0.038661234703513125 0.46211952458023603 0.038256333277244176 -0.04987582411496317
-0.17686518185026803 -0.009280732019056721 0.375961994540043 -0.1872412413167784 0.18041317600749665 0.11795228646174626 -0.2784624502686075 0.1494261099918868
-0.00914055815254963 0.02187548500953959 -0.09629178526428833 0.1963402157019073 -0.17707788637732313 -0.09691253668513684 -0.16475580289580488 -0.41159908429693376
-0.0963698794325085 -0.10061478491114034 0.058819986051282316 -0.3590883302846103 -0.4048887213606123 0.23843895307011806 0.3904232679665745 0.13578235071097292
0.06050701286499331 0.13044158921841548 -0.002168254929366299 -0.03641637513671339 -0.00859398956237166 0.01666434261582704 0.7266844157156159 -0.01808779610331995
0.3821245989658545 0.23770323158304313 -0.22004448366893328 0.02446754300760678 -0.5133853215900899 0.0782279168763669 -0.45399534742160036 0.9142705323521031
-0.00469067224465959 0.00236467273393798 -0.4811114308094578 -0.318127072993194 0.08720996692597117 -0.015537648815207236 0.05844382788357603 -0.21860393941211143
-0.15851744764975514 0.15787671896739286 -0.13525845220129906 0.3205147355065334 0.20696591757091976 -0.16999184975197698 0.12333813008426311 0.27333938251801737
0.0725078434225114 0.19855779424155218 -0.19698375127271978 0.029050780983446316 0.22576725908342302 -0.10828462641776332 0.1776565862754748 0.19882628340318553
0.14535651033637545 -0.16049973635506076 0.09841202207357999 -0.977795608550236 -0.09431084679382756 -0.04452535456068623 0.055306896788629344 0.010840837014009471
-0.7938140069558206 -0.3535003163861745 0.3306278794023813 -0.44570725605671224 -0.2310580713048102 0.14903699406821214 -0.10856662589112949 0.07501145302659798
-0.6738405326393864 0.15916626492283184 0.12286396803034405 0.1074684151524844 -0.6465463072010863 -0.01150954514790077 0.34783255771823757 0.21104758214205618
-0.0970090404873976 -0.3596535554416091 -0.41652023731121796 -0.03625693901355025 -0.2160358788464582 -0.4001825913423168 0.04489391159132648 -0.0481418045664459
0.6705163384831966 0.3295211829229881 0.4201784664903563 0.24992264952273208 0.5132008195440513 0.24670134024856102 0.6516376777066718 -0.1335590918410501
0.3348370747933885 0.5190217123424568 0.06942950285124393 0.26247339674364223 0.0414881980149919 0.13529051968819478 0.06858871972909532 0.3086871644253081
-0.3845300533219066 0.7829098654323225 -0.16047830357635562 0.2309373786963723 -0.0024125566343208356 0.411039446911607 0.4549305559978155 -0.03151505563389906
0.471154710837287 0.7691862841810936 -0.36193943181532345 0.30460038297227016 0.3372291329368708 -0.4376625108499609 0.41868189389576493 0.3511540163238967
0.14826033190864657 0.22759073333314275 0.6886849670439591 0.09813959946192569 0.14625412163580986 0.5843927377763809 0.10479770064813017 0.2904978187880738
0.8441320064308847 0.44429717824295534 0.5540792478438096 0.5296279331920345 -0.2653158777074451 0.012214956062100171 -0.2512961946211606 0.2792920706038572
00000000: 0c0d c621 8110 d53f 8f7a 96ff f1d4 e13f
00000010: a385 7c7c 038e e53f b2c7 6999 928b e43f
00000020: a332 b755 548f d43f 5e94 9187 e58c df3f
00000030: bea8 bd1d 1400 db3f 99a8 f8e1 e7b0 c73f
00000040: ea48 455d 54df bc3f c8d2 84b6 839f e03f
00000050: 2bf2 5370 60b7 c93f 68dd 60cd 9e5c db3f
00000060: 698f 8998 8e09 c83f 0e38 145a 7779 d63f
00000070: 292a 7284 9e5e f03f bfc6 4ed3 1a27 e83f
00000080: 1822 aad9 1985 df3f 88a8 033a dee5 e73f
00000090: f60e a3dd 1f21 de3f 4f7e 96b0 ccfb ea3f
000000a0: 6bbf 427a 9e11 c3bf 352a 4863 8cfe dd3f
000000b0: 40d4 8dcb 4cad e03f 3856 59b3 88f8 df3f
000000c0: f117 bf20 1d69 d23f c317 d6c7 d516 d23f
000000d0: bce7 2555 18a0 dd3f 580d 82b6 6fa9 e13f
000000e0: cb40 f419 9ed5 c4bf c042 a09e c3ef d13f
000000f0: 800a ebf4 aec8 aa3f 5a5a 494a d466 e0bf
00000100: b4ea 94e9 02f8 cb3f 9f03 50ab f657 d83f
00000110: ba6d 73ee 4373 bd3f 9151 fb6d 696b df3f
00000120: 4187 6266 0f17 dc3f 277c 0917 4249 d33f
00000130: 4e0d 71dc 2724 e73f 3723 6e1e ec78 e03f
00000140: f2b1 dfcb 777e d63f 6b01 c5a5 4026 f23f
00000150: 257a 8e18 9fb0 d63f a411 81f6 e161 ca3f
00000160: b40d 8d52 45dc dc3f a321 9749 48e6 d73f
00000170: d1bb 488e b852 b63f 6d55 cc89 f2c9 d83f
00000180: ac3e 9ef5 2697 ec3f 1252 0480 fdd7 c83f
00000190: 1365 1b94 3e7e c23f 28f5 7a05 6ccd a4bf
000001a0: 2061 59c5 67cb a33f 5792 3ac5 5d93 dd3f
000001b0: ccce 9488 5596 a33f 11a0 def2 5289 a9bf
000001c0: 118b ecad 84a3 c6bf a4ce 09c4 c601 83bf
000001d0: 98a8 c5e5 c20f d83f 4381 f55f 85f7 c7bf
000001e0: cd1e 5c69 c717 c73f a774 d7fc 1e32 be3f
000001f0: 2055 442b 54d2 d1bf 21b5 ca0f 6520 c33f
00000200: 6eba a8f2 48b8 82bf d8e9 ccf2 8666 963f
00000210: 0c65 9514 94a6 b8bf c425 aa1a ad21 c93f
00000220: 9cee 6af9 7caa c6bf 7d93 a28f 42cf b8bf
00000230: 0ec1 a1d8 b716 c5bf b19b 87af a357 dabf
00000240: 0f6a 7b48 b2ab b8bf e4fa affa e3c1 b9bf
00000250: 9a03 e238 a71d ae3f 42a6 bc9e 4dfb d6bf
00000260: 69d6 3062 b2e9 d9bf 57aa c3e8 2a85 ce3f
00000270: 71e3 e0df b1fc d83f 9dbc d6e9 5061 c13f
00000280: b61a de72 c6fa ae3f 3a9d dd5b 4fb2 c03f
00000290: 9c44 5a00 29c3 61bf d489 80c8 2aa5 a2bf
000002a0: 7881 e6c0 b999 81bf 3c61 2d1a 7510 913f
000002b0: b55d 00ad ff40 e73f 4fc4 e172 9b85 92bf
000002c0: aa8c e3bb ba74 d83f 5ebe e63a 0f6d ce3f
000002d0: a9fa 82ea 6a2a ccbf 5fe4 1f04 050e 993f
000002e0: 663a cf0d a76d e0bf 8242 9ea8 be06 b43f
000002f0: 4990 6d80 420e ddbf e9c2 8446 b441 ed3f
00000300: 0f6e 31be 8636 73bf 8430 db01 145f 633f
00000310: a1bc 4399 87ca debf 1c97 9ea7 315c d4bf
00000320: d110 d573 6453 b63f 78f6 24ec 33d2 8fbf
00000330: 4d76 d372 59ec ad3f dca0 46c1 36fb cbbf
00000340: bb23 c0ba 4c4a c4bf d8e2 61e8 4d35 c43f
00000350: 0428 5b22 2650 c1bf e4be b83c 5083 d43f
00000360: 1847 adf3 db7d ca3f 87b9 a2fd 4ac2 c5bf
00000370: d2cb 0f73 1693 bf3f 02eb 2777 647e d13f
00000380: 4a03 34c0 df8f b23f 1012 5180 576a c93f
00000390: 3aa5 c778 c336 c9bf ae17 fde8 7cbf 9d3f
000003a0: 91ab 2209 f1e5 cc3f 04b6 1f91 8ab8 bbbf
000003b0: f56f fc75 73bd c63f f8a4 66c0 2373 c93f
000003c0: c1e4 13c9 0a9b c23f 94af 545f 418b c4bf
000003d0: 7ed9 56c0 8731 b93f 6ca9 1c04 1a4a efbf
000003e0: dc36 a372 c124 b8bf b7a5 5cfb 06cc a6bf
000003f0: 339c e681 2f51 ac3f abd2 7d83 b833 863f
00000400: 446c dfa1 ec66 e9bf 0046 80ca bf9f d6bf
00000410: b775 4bd6 0129 d53f 5e9f 16ba 7786 dcbf
00000420: 4691 dd95 4f93 cdbf 1864 b5eb a413 c33f
00000430: 2db4 a3bb 05cb bbbf 221e 9359 f333 b33f
00000440: eaf8 4c05 1a90 e5bf 192a 3c67 8f5f c43f
00000450: e00f 8c54 0374 bf3f a8d0 6ed0 0c83 bb3f
00000460: 4de7 98e1 81b0 e4bf e73c 0400 5192 87bf
00000470: 3591 f87c e342 d63f c399 996f 9b03 cb3f
00000480: 5349 4fa0 95d5 b8bf e3c1 a058 9004 d7bf
00000490: ffec 577f 44a8 dabf 77ed a1fe 4490 a2bf
000004a0: 763e 344d 10a7 cbbf 269a 8f71 979c d9bf
000004b0: be05 26b4 55fc a63f a0da 5de8 0aa6 a8bf
000004c0: 0302 27ae de74 e53f f994 ff03 e016 d53f
000004d0: 0ccf 0339 34e4 da3f 3a6a 1d23 77fd cf3f
000004e0: 6d1b 0720 246c e03f ab9b 1fd6 e893 cf3f
000004f0: eded 5242 37da e43f f937 c5dd 7618 c1bf
00000500: 4d75 6e7b f86d d53f ba97 0d6c d39b e03f
00000510: 4fa6 1fc4 21c6 b13f de5f c537 5dcc d03f
00000520: dce9 49eb f03d a53f 9683 c222 3351 c13f
00000530: d168 1cc4 078f b13f 02b5 f9ce 87c1 d33f
00000540: be30 d6f0 239c d8bf 3aec 77fd 980d e93f
00000550: 24fc c994 8d8a c4bf ab62 7624 5b8f cd3f
00000560: 1153 037b 7fc3 63bf 607b 7665 784e da3f
00000570: ba8c fd0c 951d dd3f 88f5 8eca bd22 a0bf
00000580: 4ec2 9916 6627 de3f abdd e28d 2c9d e83f
00000590: 8fe5 b101 042a d7bf 29c2 cd9a 927e d33f
000005a0: 1b3a 4e80 2995 d53f fe4a b29e a902 dcbf
000005b0: f26a 6d24 afcb da3f 8917 feb1 4e79 d63f
000005c0: 36be 6bce 31fa c23f bded 4472 b121 cd3f
000005d0: a96b 560e b509 e63f a4aa 2142 ad1f b93f
000005e0: 845e aa7e 74b8 c23f 6a9f 1866 58b3 e23f
000005f0: bdce faa8 05d4 ba3f 5c43 d029 8497 d23f
00000600: 9314 2420 2103 eb3f 828c 906e 5d6f dc3f
00000610: c334 1c67 04bb e13f 9973 8347 b6f2 e03f
00000620: 973b 7772 effa d0bf a86a 78a6 2704 893f
00000630: ea74 60a2 3c15 d0bf e6a4 51d9 ebdf d13f

linear.weight f8 [2, 50]
-0.5138322980866895 -0.45307093508728447 0.788120279232199 0.8565108713164439 -0.40821444362270365 0.2000150063804899 -0.21582222153073954 -0.34900808516911197
1.205633050853431 0.48406703639722737 0.8417687585911995 -0.7719511876372995 -0.17502862973183478 0.4298050918303647 0.43261932923578733 -0.4890599045257483
0.6156679176933515 2.4952399566329904 0.7647930413980427 -0.5445957868818155 -0.2432280270741792 -0.688950204951552 0.2348043049731204 -0.3276421857263327
-0.9946192978617113 0.29308270578521634 -0.6475830024530338 0.5055180894381798 0.011773711210861605 0.05141899405398151 -0.3220734775507208 0.34980686873406214
0.46581856048332687 0.6241083904254499 -0.3096181916925474 -0.4314802374524294 -0.7326179650655134 0.583001430986355 1.2673748689342754 -0.7988141642980742
0.19248621993954124 -0.47844963128453594 -0.5705934494195029 0.39776231895337316 0.4367019814286995 -0.8833922479155362 0.8536971459061923 -0.05485965970562175
-0.2940127139782592 -0.21567704731345552 0.31762359009842656 0.5417201372254695 -0.5822333490049204 -0.669095733429443 0.3732498747097208 0.0030557533927642747
0.27992326375669596 0.31647338155678423 -1.0341687417570957 -0.6878972860047908 -0.8327413929960968 0.759685676780194 0.3656318487045182 -0.47959260993304015
-0.40680748566174024 0.5922337900202206 -0.5110596538729422 -2.4383742942966413 -0.7546010941762867 0.5319237460374789 -0.0037321434928560037 0.7489988617225112
-0.26951697348141174 0.11575964663283843 0.7649041070338655 -0.0634183055652985 0.602536937450354 -0.73077963610957 -0.18434263221062683 -0.2788892280904264
0.28402186487553127 -0.3662220028063664 -0.278569782885184 -0.561623525814271 0.39208622918607405 0.42436256369773695 0.6902312823614218 -0.4954621716420172
-1.1074740546394604 0.8987860193573408 -0.1818134047954792 0.5876361707109806 0.6861089292374897 -0.3569701517666361 -0.5742532332275675 0.8259917102607764
-0.7978323759407818 0.17283709296149544 0.10814208144900012 0.23735686431385938
00000000: b925 7d6e 5071 e0bf 22f4 3d3c 1dff dcbf
00000010: ddbb 1305 4838 e93f 771f 9f7c 8968 eb3f
00000020: 7a51 4779 2f20 dabf 0e85 8e7b 179a c93f
00000030: 7abf 9c03 10a0 cbbf 9cd1 f501 2656 d6bf
00000040: 6a46 c6e1 454a f33f 7674 994e f4fa de3f
00000050: f632 1e09 c5ef ea3f 8456 20fa d2b3 e8bf
00000060: 1ded 4790 5667 c6bf 5134 4437 ed81 db3f
00000070: b7d9 abfb 08b0 db3f 2a45 eee9 c14c dfbf
00000080: 460f 7634 8db3 e33f 0a4a cb5d 40f6 0340
00000090: 3b6a a041 2f79 e83f 0d4c c624 546d e1bf
000000a0: b389 e092 1822 cfbf 79dc da4c e10b e6bf
000000b0: 6be7 6845 110e ce3f fb02 1fee 16f8 d4bf
000000c0: 472b 89d9 ebd3 efbf 74b9 17f7 ddc1 d23f
000000d0: 8c66 1ffd ffb8 e4bf 5f8c b545 342d e03f
000000e0: 145a d3c4 d01c 883f 9ccb b523 9753 aa3f
000000f0: 4851 3f13 da9c d4bf e940 4859 3c63 d63f
00000100: ef52 c9a6 f8cf dd3f 102b c128 b2f8 e33f
00000110: cd3b e4d1 c8d0 d3bf b99f 2e49 5f9d dbbf
00000120: f263 0d3b 9b71 e7bf 6d71 f39d f2a7 e23f
00000130: 1e85 ddde 2a47 f43f d2bc e7b8 e28f e9bf
00000140: 4a16 c971 63a3 c83f 2d9f c933 eb9e debf
00000150: ee31 9231 4d42 e2bf 4f18 df15 f074 d93f
00000160: 216b 15de ecf2 db3f f3c9 cad1 bf44 ecbf
00000170: 5f61 4bad 7c51 eb3f ca54 9cb8 9016 acbf
00000180: d144 c9b3 1ad1 d2bf f9c4 5a34 4e9b cbbf
00000190: 644b fae4 f153 d43f 0dfa 1e78 c555 e13f
000001a0: e7bb 13d5 a7a1 e2bf 781f 9f74 3b69 e5bf
000001b0: 7c51 4771 53e3 d73f a2ba 5e1c 6108 693f
000001c0: b45f ce43 43ea d13f 99d1 f591 1941 d43f
000001d0: 6f46 c685 f48b f0bf 3fba 4c2b 4103 e6bf
000001e0: f332 1e47 d1a5 eabf 8256 2056 584f e83f
000001f0: 97f6 2320 8366 d73f 4d34 c433 a5b1 debf
00000200: b7d9 ab43 2209 dabf a422 f746 94f3 e23f
00000210: 4a0f 76c6 995a e0bf 0b4a cb61 ca81 03c0
00000220: 3b6a a031 b125 e8bf 094c a6f2 8405 e13f
00000230: 0a8f dd47 df92 6ebf 76dc fa75 ccf7 e73f
00000240: b773 b41e c43f d1bf f70b 7c98 6ca2 bd3f
00000250: 4d2b 892d 187a e83f a9e5 5e9c 2e3c b0bf
00000260: 8c66 1f8b fb47 e33f 5c8c b5f9 8b62 e7bf
00000270: 9b35 4d14 8a98 c7bf 66b9 7634 52d9 d1bf
00000280: 5051 3f0b 6a2d d23f f240 4869 2e70 d7bf
00000290: eb52 c95a 16d4 d1bf 0e2b 81e6 d1f8 e1bf
000002a0: c83b e4d6 f017 d93f b29f 2e99 c128 db3f
000002b0: ee63 0dea 5f16 e63f f6e2 e6f7 a6b5 dfbf
000002c0: 1e85 ddb6 36b8 f1bf d7bc e7e5 dac2 ec3f
000002d0: 4a16 c961 a945 c7bf 8bcf e45e eacd e23f
000002e0: f131 92b6 9af4 e53f 4f18 df55 99d8 d6bf
000002f0: 8fb5 0a51 4860 e2bf dfc9 ca2a 866e ea3f
00000300: 5d61 4bc3 d787 e9bf 3515 e79e 861f c63f
00000310: 2c13 250f 33af bb3f f4c4 dab0 b561 ce3f

linear.bias f8 [2]
0.022444503850408706 -0.030499406627484318
00000000: 14c0 0c28 b1fb 963f e7bf 0c88 3c3b 9fbf
