AIModels/with_0.1_0.5_2_scheduler/model_94_90epoches.pth (torch, 388003 bytes, 10 tensors)

lstm.weight_ih_l0 f8 [256, 28]
0	0x3fcce71fce9f42bf	0.22580335225076983
1	0x3fd3f172d58d226a	0.31161185125942004
2	0x3fdbd6fd83d39313	0.43499696611097355
3	0x3fdd80696178d028	0.46096262472861094
4	0x3fe1d81b0423e3b4	0.5576300698149823
5	0x3fe226674f3b213c	0.5671879336814878
6	0x3fe4db7827614267	0.6517906922473004
7	0x3fe563386d82dcf9	0.6683618677988356
8	0x3fe2384af26c7834	0.569371674999053
9	0x3fe458e72c31750f	0.6358524191997804
10	0x3fec3abbbe7b5bed	0.8821696014737178
11	0x3fed1f5ce6fbd7a0	0.9100784789468328
12	0x3ff3a6058c764e25	1.2280326353837918
13	0x3fed0c04d2ab2782	0.9077171434994258
14	0x3ff29ec738e4a07e	1.1637642118821812
15	0x3ff19e678dc5104b	1.1011729753381754
16	0x3ff11c686432d4d4	1.0694354928976297
17	0x3fe89b02fd7f99df	0.7689223242894591
18	0x3ff17b272522cbd0	1.0925666285154314
19	0x3fe7c096c4510bb2	0.7422593912418647
20	0x3fee65505744be3c	0.9498674110854561
21	0x3fe2bca0b5f77e25	0.5855258516348313
22	0x3fe5252df5c5f117	0.6607885170228965
23	0x3fd3eb6c294d6eaf	0.3112440493912158
24	0x3fda0cfbec757325	0.4070424851577619
25	0x3f36e4ca163d9d0e	0.0003493302704015857
26	0x3fbda3df695c621c	0.11578174898421206
27	0x3fc15fbfd9df62f6	0.13573454035101634
28	0xbffe0dc0044ba999	-1.8783569495959453
29	0xbff9bd53bfd88404	-1.6087224477744266
30	0xbff9008fe99e6f30	-1.5626372457254085
31	0xbff3fe70624bfd03	-1.2496188964576624
32	0xbff319c5cc242862	-1.1937921499507174
33	0xbfe96273c61adeca	-0.7932680958974399
34	0xbfe7194074f25246	-0.7218324932205824
35	0xbfe829b70d743f5e	-0.7550921690726502
36	0xbfeb1cbe7c1c3b67	-0.8472587989834722
37	0xbfe80dce0b95d73e	-0.7516851640964217
38	0xbfeca6a0cfd78805	-0.8953403529560552
39	0xbfe0a8c0710acc6f	-0.5205995757918468
40	0xbfc66ed44fb1e2fd	-0.17525724307395044
41	0xbfd5fc2052fcb480	-0.3435135660573181
42	0xbfc0c871f681c4e8	-0.13111710106344465
43	0xbfac01b9549b98c4	-0.05470065267381721
44	0x3fbe5ed58db0f5fb	0.11863455495127788
45	0xbf58a86ce66e3511	-0.0015049994924283864
46	0x3fb2590d2f573518	0.0716713181092995
47	0x3fd102a00311190a	0.26578522014132544
48	0x3fc989dc803949b8	0.19951969395567715
49	0x3fac39c43888fe0c	0.05512822332502418
50	0x3fe54e541423f597	0.6658115762108306
51	0x3fc431c69aad2770	0.1577690367942597
52	0x3fd23a47233ef744	0.28480699960697486
53	0xbfbb8f3bab14e761	-0.10765431334303123
54	0x3fb1052ba28b65bc	0.06648514479038331
55	0x3fdbf30b2e79f9e7	0.4367092088577053
56	0xbfeffb623412f862	-0.9994364754745784
57	0xbfe90c379239636d	-0.7827413421574484
58	0xbfeeba027d2d399c	-0.9602062649590155
59	0xbfe5decdf36ffeb3	-0.6834478144300732
60	0xbff1b30c8cea7b7a	-1.1062131409196057
61	0xbfe6a754eb5e4b5b	-0.7079262349164809
62	0xbff2fd5ef29b045e	-1.1868581272867895
63	0xbfeb1fff5207e594	-0.8476559259572007
64	0xbfe6df4ff68bb60e	-0.7147598090502372
65	0xbfed578f622be2ac	-0.9169384877596563
66	0xbfeb391a298e98dc	-0.8507204829845949
67	0xbff05a4e6c5d1b4c	-1.0220474465329117
68	0xbff2a94674f48a43	-1.1663269585193496
69	0xbff4461cb0c09249	-1.267117205084235
70	0xbff49fe8c69186e5	-1.289040351541581
71	0xbff5157637e60ca1	-1.3177396949329607
72	0xbfec19f228337a0e	-0.878167227285134
73	0xbff2675f3d575a2f	-1.1502373119489098
74	0xbff2f2e6e958fadc	-1.1843022456302412
75	0xbff2d9716a39bfc1	-1.1780866765438847
76	0xbff70b2f688f9bfb	-1.4402307590878525
77	0xbfeeb23fa6e03143	-0.9592588671962762
78	0xbfe88a639b473373	-0.7668931992317155
79	0xbfd467fcb1cf8f9a	-0.3188468681748816
80	0xbfe17d68eb9382f0	-0.5465588189218504
81	0x3fa9365c5cd77f84	0.04924286492655397
82	0xbf9533a6f3cee7ff	-0.020704849844811687
83	0x3fd424d418dac0bd	0.3147478335113297
84	0xbfc53d0a2f249c30	-0.1659252863111944
85	0xbfe05bb1508f132d	-0.5111929486671208
86	0x3fdb8fb57f3a7b1f	0.4306462995972868
87	0x3fd1492d7d64dcf7	0.2700914120245694
88	0x3fd4a3c270f90df7	0.32249508888727924
89	0xbfe13f8ec7b44c1f	-0.5390085125421854
90	0xbff7a91b4d5e55d4	-1.4787858030516547
91	0xbfeb515825b82d0c	-0.8536797272403489
92	0xbfe759ea553ece06	-0.7297259964893221
93	0xbfe37c8b1f6dc9e8	-0.6089530576558078
94	0xbff2e8844509f97b	-1.1817667671999448
95	0xbfdb50e3c374f47a	-0.42681211555083787
96	0xbff51996166ac91e	-1.3187466502827827
97	0xbfff1eaf2338a191	-1.9449912429646228
98	0xbff9ae37b92581bd	-1.6050336105619032
99	0xbff9f1fa8d3bc09e	-1.6215768353395457
100	0xbfec3b0c6087a247	-0.8822080502841992
101	0xbfef7737b5cb7950	-0.9833029318504405
102	0xbff131e8d0df724c	-1.0746849211783625
103	0xbfd339c3f6685f74	-0.3004007250142344
104	0xbfe9dd7a19f9d649	-0.8082857615797333
105	0xbfdb2f52a620ef26	-0.42476335738659754
106	0xbff5b6465bf958f3	-1.3570006935820487
107	0xbfe71c99be4253a3	-0.7222412792203737
108	0xbff3f305fa933716	-1.2468318737114195
109	0xbffccb2be30f7061	-1.79960240073617
110	0xc0024af8d5405485	-2.2866074238068586
111	0xc0075505f3f59f0f	-2.9165152606327704
112	0x400f52d10633de3b	3.9154377445773014
113	0x4007f409d7343393	2.994159394531786
114	0x4004b171347d95b7	2.5866417027306983
115	0x3ff4bd142b52e195	1.2961618130048909
116	0xbfc6e0de779406b9	-0.17873745764523166
117	0x3fe0572f6d613498	0.5106427322695195
118	0x3fea5795e8a8a272	0.8231915992847247
119	0x3ff081bb43e3871c	1.0316727306275828
120	0xbfe1c8ea06a84c6d	-0.5557756547954235
121	0x3fbefe8f1fda706c	0.12107176330249708
122	0x3fae45fa2332f416	0.05912763290096039
123	0x3ffae0d9ac665b3b	1.6798950895660727
124	0x3ff19eca8d1006c0	1.1012673864610605
125	0x3ffc97cca4493d56	1.7870603959489322
126	0x3ff2c1840873570b	1.172245057115506
127	0x3ff78ff48fe35499	1.4726453419328094
128	0x3ff51cd68bcbb8b4	1.3195405445836004
129	0x3ff54fc553c07336	1.3319752952149435
130	0x40009a0a89f9387d	2.0752154139691457
131	0x3fe2f6f673f9cbb2	0.592646814837613
132	0x3ff4e71fb598a8a5	1.30642672477783
133	0x3fd0796957242c1b	0.25741036901371367
134	0x3fe87e79721c8897	0.7654387692202985
135	0x3ff178b45c778b4c	1.0919688808432566
136	0x3ff3c6a6913ee2f7	1.235998694768737
137	0x4002dfb5f72d8ecc	2.359233790471853
138	0x4001c2b5ddbb5730	2.2200734446331793
139	0x400906b92c8cf742	3.128282878925263
140	0x3fc7e9135506252b	0.18680040027201392
141	0x3fc00b6b9e9418a3	0.12534852259722581
142	0xbfc2dcbe2ae470fe	-0.14736153692582116
143	0xbf7ec7a1723c042e	-0.007514601373032765
144	0xbfbe639654dc42a5	-0.11870708057200348
145	0x3fc0546587867994	0.12757557980962686
146	0xbfafb82dc9475f10	-0.06195204813019306
147	0x3fc7ac302bd2da7e	0.18494226589037405
148	0x3fdc944da350cf1a	0.4465517134551519
149	0x3fd1e49d8d96745e	0.27957857920575246
150	0x3feb4e4d2925f035	0.8533082774806703
151	0x3fe1ff2d6e8f9472	0.5623995932952666
152	0x3ff5710f5b2ec16d	1.3401025354215463
153	0x3fe999a288d3abe9	0.8000042602919822
154	0x3ff1cca12eee2183	1.1124584038935559
155	0x3ff0ac3b1fecb21e	1.042048573213044
156	0x3ff02cb73cf60272	1.0109169369972304
157	0x3ff147489695cec5	1.0799032098993149
158	0x3ff38d1c7a68862f	1.2219509870123024
159	0x3fec8f4f34fe43fe	0.8924938235305715
160	0x3ff12ef4706947fc	1.0739635840477595
161	0x3fe72826112e88cc	0.7236509643155613
162	0x3fe9c2c71edc2fce	0.8050265887009063
163	0x3fe5b9b5c7a6044c	0.6789196872124506
164	0x3ff31bcf90004dae	1.1942897439047147
165	0x3ff326fd1d4068a7	1.1970187323227408
166	0x3ff15448e0d07883	1.0830773145494568
167	0x3fec5770e9ca6e9f	0.885673958418426
168	0xbff52c802b0f08ab	-1.3233644182187543
169	0xbff8b5dcaed540da	-1.5443999127783656
170	0xbff6244ab4eb13a9	-1.3838603083724854
171	0xbff24aeee386d6b5	-1.1432942283403638
172	0xbff0624d64f3176d	-1.0239995902388401
173	0xbff0ae4da9dfe658	-1.0425545345045943
174	0xbff558ea654a8b98	-1.334207912129136
175	0xbff6aa9f2051ab79	-1.4166556608640504
176	0xbff15f8c1a542e02	-1.0858269718618208
177	0xbfe4e9b1b32c44f7	-0.6535271167250859
178	0xbfe2d59ddae3316e	-0.5885762477060277
179	0xbfd1a076b5deea86	-0.27541892777268406
180	0xbfb815f8193ed98e	-0.09408522240014447
181	0x3fc2e68ea017d1b9	0.1476610452369991
182	0xbfba6ac60dfb8009	-0.10319173661582694
183	0xbfc064d842ec4a30	-0.12807753818249656
184	0xbfd11b89946c9f9c	-0.26730575079499785
185	0xbfcb922cfce22f1c	-0.21539842937306097
186	0x3f9abd8adc63d6f4	0.026113671971834188
187	0xbfd7faebd5338eb1	-0.37469001598786195
188	0xbfd6532e7d49cf2c	-0.34882700190722704
189	0xbfe6b7efdfb222ba	-0.7099532479342863
190	0xbfd30e97572176e0	-0.29776557453975094
191	0xbfd1ea8ba4a2f699	-0.2799405200747543
192	0xbfb216224a738cdb	-0.0706502372518573
193	0xbf988f4f2cf061d7	-0.02398418151651235
194	0x3fe4e9036b34766f	0.6534440130087215
195	0x3fd554e840c18033	0.33330732654394807
196	0xbfe03695eb27a6bb	-0.5066632836216834
197	0xbfe9d708c792ffe9	-0.8074993036207135
198	0xbfe063be504afd95	-0.5121757095547986
199	0xbfe3932efa93b7b2	-0.6117167371828514
200	0xbfdbe12b4854b831	-0.4356182295185845
201	0xbfcf590e7ee21b98	-0.24490529246778858
202	0xbfd7a5dff8cfdeed	-0.36949919984861773
203	0xbfe46ca6a3950c3a	-0.6382630534138862
204	0xbfe2ada026da05e9	-0.5836945303746549
205	0xbfd7f687e62cddd6	-0.3744220493130944
206	0xbfe0ae399818a6cf	-0.5212676973944442
207	0xbfde2a6a09d8de6b	-0.4713387581027521
208	0xbfd6628696894ba4	-0.3497635335999638
209	0xbfdc12382c625811	-0.4386120255888964
210	0xbfbe353000c0b0da	-0.117999077018513
211	0xbfe2e1006cdd27c4	-0.589966023087293
212	0xbfe3fc6822c3ac5e	-0.6245613745680989
213	0xbfe74dac99d9f0fa	-0.7282317166241505
214	0xbfcfb3961b6546bd	-0.24766804063488293
215	0xbfe1477ea4def3a2	-0.5399773807654251
216	0xbfd2a50b76f5437d	-0.2913235341739478
217	0xbfea1d6640f14263	-0.8160887974173189
218	0xbfe31d9e45b40143	-0.5973655091657196
219	0xbfe8a9fd2ecfc1d4	-0.7707506098068344
220	0xbfbbe0159aa8d3f4	-0.10888800645700752
221	0xbfc2742477f946fa	-0.1441693864640497
222	0x3f9a0bd85dd08555	0.025435810781464358
223	0xbfa966df2a0f5b36	-0.049612974056506706
224	0x3ffb80ce53332d2d	1.71894676685299
225	0x3ffb6c1efa1f1d3d	1.7138967295048382
226	0x3ff4341783f70d52	1.2627177386173867
227	0x3ff644efad426745	1.3918301361031393
228	0x3fef8c89f8cd7648	0.9859056338716039
229	0x3ff4370765260af7	1.263434786903131
230	0x3fed3fbb92fccd68	0.9140298720216551
231	0x3ff3211672b5bf96	1.195578048787842
232	0x3fed8b6628b304cb	0.9232664866359753
233	0x3fe8fed99ec71b65	0.7811096287849578
234	0x3fe1263db14e4c99	0.5359180891995435
235	0x3fe653b19963dbcc	0.6977165218257766
236	0x3fe00fd0eb925110	0.5019306756026101
237	0x3fcf764ca12159f9	0.24579770915688906
238	0x3fe390b0ad188a69	0.6114123707560114
239	0x3fe3008a18729779	0.5938158490650799
240	0x3fe9acc6defcd673	0.8023409228541837
241	0x3fe3e1df5c0d3409	0.6213223264581994
242	0x3fc2583364796011	0.14331667333567613
243	0x3fae97f22ff0b757	0.05975300631722174
244	0xbfd521ecdcc51524	-0.33019563254886664
245	0xbfd172c8fee247fb	-0.2726309289074604
246	0xbfd8e8747497d139	-0.38918792139090247
247	0xbfd06a1f58d2c8f3	-0.2564772002616699
248	0x3fc2449670ee98e5	0.14271812929400265
249	0x3fd0c477d1f35144	0.2619914579675149
250	0x3fa367b0a10ed9b5	0.03790046659507899
251	0x3ff176bc6795f268	1.0914882704083997
252	0xbfe0683c0b84fed7	-0.5127239441862582
253	0xbfc8a8a252881e32	-0.1926463034617299
254	0x3fb8108c45268010	0.09400250137559873
255	0xbfdbb8c722121dbb	-0.43315294577811486

lstm.weight_hh_l0 f8 [256, 64]
0	0xbfe06dcc34b66aca	-0.5134030370275806
1	0xbfd12a3384205485	-0.26820075896223045
2	0xc0061d309d5c3470	-2.7642528814090426
3	0x3fe4a1a756c3f577	0.644733113731191
4	0x4000da5ab3b33deb	2.106618312747505
5	0xbfa463a9c98475c3	-0.039822870110792795
6	0xc00270e37b9694c8	-2.305121388943551
7	0x3fe43629d5731849	0.6316117447793285
8	0xbfecba3711d46b59	-0.8977313373792227
9	0xbfb165f85ac3d022	-0.06796219078006563
10	0x3fe8fd0292734d30	0.7808850155219371
11	0x3fd294b5dc6d2c53	0.2903265621759534
12	0x3fe0f7b87f7e2864	0.530239342698462
13	0xc00aba2a396eeda7	-3.3409008490541114
14	0x3ff490156949edc5	1.2851766693919313
15	0x3ff2e1fbead6c777	1.180171887721796
16	0x3fc9e573b1194636	0.2023148169269448
17	0xc000a5edf296f87c	-2.081020255310305
18	0x3ff20e124cfd6837	1.1284354216973165
19	0x4002a7d4bd46a429	2.33194873687582
20	0x3ff1a3468c758031	1.1023622023276511
21	0x3ff463b598b8b6a5	1.2743431058583294
22	0xbff6faa7c2345ad1	-1.4361951433290197
23	0x3ffb82860bc810c6	1.7193661174979282
24	0x3ff133a7bd8fd463	1.075111141658703
25	0x3fedafbba47c37b0	0.9277017796136899
26	0x4009dff08d081a26	3.2343455331895425
27	0xbfd085dc1e0f4ed2	-0.25817015586401937
28	0xbff12657c2b155c8	-1.0718610387024103
29	0x400c7d6d797c1f83	3.5612439623836862
30	0xbfdac2f4ddb1ae67	-0.4181492009144904
31	0xbffb21c75dd26274	-1.6957467713274612
32	0x3ffee4bd358f0aca	1.9308445064677238
33	0xbfe453eb527f5b7e	-0.635244046333227
34	0xbfcbc9ee3ea16fbf	-0.2170999341786892
35	0xbfaa28a2faed81e5	-0.051091282969313125
36	0xbffd7e38db59715e	-1.8433159416518587
37	0xbff57a0f98bfa1d2	-1.3423000303974857
38	0xbffe12929cb1e9e5	-1.8795343514344662
39	0xbfdeebbd15baf843	-0.48313834306816633
40	0xc005e3d9b1938e9e	-2.7362550614505627
41	0x3fddd023720dc347	0.46582876337111084
42	0x3ff35eda3f383412	1.2106573552621325
43	0xbfd54ec3d565e4a8	-0.33293243255281846
44	0x3ffa569d8659048d	1.646146321101955
45	0xbff86df30ca57642	-1.5268431180951585
46	0x4008e08834df8ab8	3.1096347933501782
47	0xbff1693baf74c4d8	-1.0881916860346816
48	0xc0132e3a9812b06d	-4.79514539350576
49	0x3fff3d8dcad4d06b	1.9525278018091068
50	0xc0105484d230ae99	-4.08253792211658
51	0x3fe964831c9fb20f	0.7935195502337268
52	0xc00120eb222a911a	-2.1410734814873082
53	0x3ffca7dcf315f20e	1.7909821982895013
54	0xbffe2b0d2fb1c2f0	-1.8855106223165272
55	0xc00472b7b07d5bf9	-2.5560144222504246
56	0xbff70e7520638780	-1.441029669302651
57	0xbfff41e67dd0d9f2	-1.9535889544182479
58	0xc00856de9b532c65	-3.042416776157142
59	0x3ffd6a3cdfdc705a	1.8384369606565287
60	0x3ffa81c2eb931d1a	1.6566800310263887
61	0xc00231f64c9f1baf	-2.2743955598884535
62	0xc00050fc36b3d9de	-2.0395435594211753
63	0xc00cb3a93acf0aff	-3.587725123828363
64	0x3fe5ee7f337a534a	0.6853633885790285
65	0xbfebd8ec5dcc23bb	-0.8702298957806457
66	0xbffb2a6f4619aa5b	-1.6978600252429235
67	0xbff5f036ba4b09bb	-1.3711459424090282
68	0xbfa941bb067535f8	-0.04932960943061099
69	0x3fd67bfae9d079cf	0.35131714662011587
70	0x3fd41e66ea98ca31	0.3143555918678969
71	0xbffcaf3152a1c267	-1.7927716472442172
72	0xbfea47600a80e3c4	-0.821212788118935
73	0xc00a4b9097106a7a	-3.2868968774685614
74	0xbfd8dd3f1819017e	-0.38850381234444586
75	0xbfe68088b5c4216b	-0.7031901884193251
76	0xbff9197180f646e6	-1.5687117612437134
77	0x3fe2c1878f9e7784	0.5861242108401119
78	0x3ffb8e44f1bb816a	1.722233719127042
79	0xbfe16254787a1593	-0.543253169351987
80	0xbfed612cccf4c377	-0.9181121829079605
81	0xc00304a98259bcee	-2.3772764381061426
82	0x400eaa45feafb5b8	3.833141317116965
83	0x4005c5ba02be3f7f	2.7215461935338108
84	0x3ff3baa7b77c498b	1.2330701033975824
85	0x4009420c24b37e96	3.157249724128472
86	0xc0053da86bf0f46b	-2.655106395045143
87	0x4001d0cdb6ae04a4	2.2269548675399893
88	0x4011d9c8b12ccdec	4.462679642066615
89	0x3febd00fb5da04cc	0.8691481162824402
90	0x40049c59a9800469	2.576342891902233
91	0xc0134e80fc474651	-4.826663915491353
92	0x3ff61d970958bc01	1.3822241177656454
93	0xc00f88a1e8eef5ec	-3.941715068619251
94	0x3ffdde7ecdbdd2f0	1.8668201481606808
95	0x3fecf966a858f04f	0.905444458774136
96	0xbfc568b30ddcd9c3	-0.16725767304315128
97	0xbfe5ba1b966fc73e	-0.678968232938338
98	0xbff74abb46097c74	-1.4557450042555304
99	0xbfd58f4025c04466	-0.3368683212912117
100	0x3fe8ed1331e25fe1	0.7789398168852096
101	0x4005afa4d003bc5e	2.7107635737552718
102	0xc001846e53195c22	-2.189663552485869
103	0xc00420e86c2e28ee	-2.5160683108889463
104	0xbffe55e1877568ac	-1.8959670344689057
105	0x3fef9c9194005695	0.9878623858118823
106	0x40084eb81c9d602f	3.0384371028449304
107	0x4014e6a9154b086f	5.225254376129768
108	0xc001e6f561507c1c	-2.237772712963773
109	0x3ff051455e787497	1.0198415460829773
110	0xbffd3112b98d87a2	-1.8244807480009304
111	0x3fe71a13e0b8bf29	0.7219333066077286
112	0xc00bd56db6d4157c	-3.4792131694290998
113	0x3fe8c7462fcd4b77	0.7743254598266124
114	0xc0124225a4d29e2e	-4.564596724848839
115	0x3ff84b26afbd0074	1.5183474411751634
116	0xbffc77a4a5fcc8cf	-1.7792097553142872
117	0xbfd751942465eeed	-0.3643541675044009
118	0x400420444388afb3	2.515755202874027
119	0xc00a7ceebda7b03d	-3.311002237014718
120	0xbffb48293c76688b	-1.7051174508874591
121	0x3ff5ec0fd0964797	1.3701322696619849
122	0x3ffbc5be97ab2230	1.735777466254273
123	0x3ff9586035817ac2	1.5840761270589359
124	0x3ff34bdcd18a9e2f	1.2060211358274378
125	0x3fef787c6b9552dd	0.983457765697121
126	0x3fecbca31d92f87a	0.8980269982928484
127	0xc00456d2845c1b4b	-2.5423937168701847
128	0xbff1fd6f6d566577	-1.124373843287996
129	0xc004ba97a9894cee	-2.5911095852876462
130	0xc000d69b186d209e	-2.104788008528046
131	0x3fd7fe54a41f66c9	0.3748981096992848
132	0xbfa0230fbc84499e	-0.03151749778966749
133	0xbff2c7f396a2bc61	-1.1738162883955499
134	0x3ffe073549f01bf0	1.876759804554009
135	0xbff999850e051ac0	-1.5999804065374263
136	0x3fddafa5f1ba08ab	0.4638457165348295
137	0xbfc50d77b19c6ab0	-0.1644734971276498
138	0xbfe982a8dd6b8921	-0.797199661694581
139	0xbffbff3c99666c70	-1.7498136512938594
140	0xc0056a46c2e42c0e	-2.6768927789576145
141	0x3fb06be1f6d032b6	0.06414615894045536
142	0x3fdaf7cb6ffffc51	0.4213741868733836
143	0xbff3ebc3823f88c1	-1.2450594985789822
144	0x3fdfabb24cd98629	0.4948545217976937
145	0xbfacac1a46983da0	-0.05600053893806067
146	0x3ffc1df316047f00	1.7573119030057
147	0xc001682d6325f9b9	-2.1758678194011876
148	0xbfe5e5f13dc6a329	-0.684319134384258
149	0xbfdc9d5c3b7e3447	-0.4471045094476875
150	0xbfe25c602d7b05f0	-0.5737763298313308
151	0xbfe29217c3c82f32	-0.5803335975519757
152	0xbfaea2d0b2a8e6a6	-0.059835931595853695
153	0xbff2d7e4c57de22d	-1.1777084078331754
154	0x3fd9c23f05706301	0.40248084574845683
155	0xc000dc43babdbf5d	-2.107551058688769
156	0xbffebdcfd0985dd1	-1.9213407657861021
157	0x3fc1c1e0d7a018ec	0.13872919586737653
158	0x4008a7a6fd9ba728	3.081861478150035
159	0xbff98a155fd43805	-1.5962117904014133
160	0xbffbf9b8ff45a28f	-1.7484674426615674
161	0x3ff0a8ed0621228c	1.041241668646907
162	0x400014b72993ab55	2.0101149795713504
163	0xbfebebe24b0da573	-0.8725444284329299
164	0xbfe24ae98e42d4ad	-0.5716445711647303
165	0x4006ef9d1086718a	2.8669987956074623
166	0x3ff698d76d23510d	1.4123148215485941
167	0xc01181640418c17d	-4.376358093272185
168	0xbfc170abd2de5a67	-0.1362509517318415
169	0xbfe792b273474d47	-0.7366573573621417
170	0xc0089f3393b2cc11	-3.0777350939693027
171	0x3fdbcdeebb688f2c	0.434444125190782
172	0xbffeb6b74fc2bd71	-1.919608413281676
173	0xbfdaa2c166fb4fab	-0.41618380600743404
174	0xbfb3d2da21f3af1b	-0.07743609742072659
175	0xbfe3788f8b18a1dd	-0.6084668843005222
176	0x3fea35596c092016	0.8190123663016518
177	0xc00528e4983e1892	-2.644967259783763
178	0x3fc5a0083fc1bb9a	0.16894629586337545
179	0x3ffb5688bd2738cf	1.7086264981076515
180	0x3fdb9212d9973684	0.43079062699403203
181	0x40010969848a12c9	2.1295957903515483
182	0x40112a02af2f05de	4.291025864834834
183	0x3ff449538c56f561	1.2679019433993164
184	0xbfee0b8dbf071e98	-0.9389103632938314
185	0xbfe581ab66408509	-0.6720787999258003
186	0x40028cb76b3924ee	2.3187092186750453
187	0xbfc361754a66bba7	-0.15141168721080797
188	0x3fc6bc7389f31f67	0.17762607799363225
189	0xbffc08196d45d7b3	-1.751977373930896
190	0xbffba23b763e403c	-1.7271074885247932
191	0x3fa9b7969c5f19dc	0.05022879275161404
192	0xbff09003c33720e8	-1.0351598382567833
193	0xc00210cfb9624f57	-2.258208702385598
194	0xc0099e0ae90fd7c8	-3.202169247432696
195	0x3fda7eec8f69ee2e	0.41399683003666865
196	0x3ffb1aaf0ae9209e	1.6940145899007244
197	0xbfff2ebbd4226bd9	-1.9489095961096068
198	0x400cb2d0e83933af	3.5873125212151176
199	0xbff560bda268b0c0	-1.3361183494662754
200	0xbff16459412f2ea3	-1.0869991823446206
201	0x3fe7d60c833cc4a3	0.7448790133695592
202	0x3fe6888bc9ea5bf8	0.7041682189618532
203	0xbfe8ac0f0e08e01b	-0.7710032724489823
204	0xbfb8f7194e2ac8f0	-0.09752042921425974
205	0x400268a6af726247	2.301099177053661
206	0xc00322884d60bf8b	-2.391861538424512
207	0xbff759eb441b224b	-1.4594528828039468
208	0xc000d26d48059e76	-2.1027475001063136
209	0x3fe56d5a01917bbc	0.669598582327914
210	0xc0013b5c0d80b968	-2.153984170428135
211	0x4007637824123252	2.9235689943364287
212	0x3ff39872962ed51c	1.224718653347117
213	0xbffc5ab0cc7ea808	-1.7721412647320012
214	0xc00bc29312a2863d	-3.470007081589556
215	0xbfe5f3060095a91a	-0.6859159480493731
216	0xbfe537ddfbe34454	-0.6630697173769797
217	0x3ff618a62d3dfe29	1.381017853476701
218	0x4011ed1970e33b94	4.48154236208838
219	0x4001491cee254066	2.160699711334064
220	0x3ff95db0211fc8f5	1.5853730482017998
221	0xc008f590ebbadab6	-3.1199053207777423
222	0x3fe8ade61d24347b	0.7712278908890221
223	0x3ff3eb22d32b5fb3	1.244906258469183
224	0xc006d78df1b49a61	-2.8552512057533908
225	0x3ff594f706ad777d	1.3488683949321676
226	0xbfd4a794c2e04731	-0.32272833853595545
227	0x3fef67ccabd633c3	0.98142083703862
228	0xc0032e8ed9ad4e65	-2.397733402825724
229	0x400712f2974eb8b6	2.8842517681979087
230	0x4006eda5a7d6a17d	2.8660386192679526
231	0xbff6cd6a66f26d06	-1.4251503011099103
232	0x3ff12c112b8af82c	1.073258562173133
233	0x4009737e66f2bf34	3.1813934367018195
234	0x40055f63ad9261d0	2.671576839475371
235	0xc00cfa9899647263	-3.622361372354406
236	0x4006cd58fc1b5367	2.850267381271283
237	0x3fef0a464678315a	0.9700042129857522
238	0x3fc1c659da2acdb7	0.1388656916875399
239	0xbffbd592d029428c	-1.7396419650359887
240	0xbfe01572effcf5ad	-0.5026182830112497
241	0x3ff97ef5fd003cba	1.593496311459417
242	0x3ff12543b2123513	1.0715977626708237
243	0xbfe503fa012cddb3	-0.6567354224161391
244	0x3fecb0d98fbc2e92	0.8965881163907901
245	0x3fc28fc956a9f36b	0.1450130150950842
246	0x3fe0760984296f12	0.5144088345800546
247	0xc00aa4c63d310fee	-3.330456235942612
248	0x40007cdbab2c1c6e	2.0609658596836686
249	0xbff9196bfedd510a	-1.568706508221171
250	0xbff8e98716a2745c	-1.557013595978126
251	0x400b27f25c461872	3.394505234612603
252	0xbfde78cde71578c3	-0.47612330977234424
253	0x3ff2a8ff3f8f5b51	1.166259048730087
254	0x3fee44c795204b16	0.9458959496135744
255	0x3ff2991975aa9abe	1.1623777958244967

lstm.bias_ih_l0 f8 [256]
0	0x3ffff86cc4f4c673	1.9981506055450182
1	0xbfdd410c746b4819	-0.4570952546029062
2	0x3ffe315cd65319d7	1.887051427083511
3	0xbff74e67c89068e5	-1.456641944364088
4	0xbfd55622b896d8e5	-0.33338230158132226
5	0xbfe1fd337697a0b4	-0.562158328652933
6	0x3feefc4f4079f99d	0.9682995089822729
7	0xbffba892f98347d9	-1.7286557909578646
8	0x3fffe0aa0009e551	1.9923496247777914
9	0x3fdc95eb541a7a65	0.4466503449747619
10	0xbfd6fd4a247e61cd	-0.35920957149349136
11	0x3fc14fdda7d9c0df	0.13524981208639184
12	0xbfe9bf27ed310821	-0.8045844681403233
13	0xbff09b38d419291d	-1.037895992764397
14	0xc0002f6bca793128	-2.0231548135981434
15	0xbfe60cfe84aa55fa	-0.6890862074966997
16	0x3ffcadab0a28ccf7	1.792399444279736
17	0x3ff32154097a7e6d	1.195636784577711
18	0xbfc2d7d8051daf64	-0.14721203088572132
19	0x3fe71d6bc11a3694	0.7223414203196676
20	0xc00e480d3e5950cd	-3.7851815100676505
21	0x3ff4ca67618822d4	1.299414998038789
22	0x3fc92a771714653c	0.19660843493401525
23	0x3fa9de945cfc1735	0.05052627215449804
24	0x3ffd91ceb6a39b49	1.8480975279178031
25	0x3ff16d0a0bff95e5	1.0891209095656162
26	0x3fdabe7eac0a4c6c	0.41787688065341544
27	0x400283db6b2fab16	2.31438335170004
28	0xbfe70ff664cc13ab	-0.7206985443777872
29	0x3fbb2c1740c46ca0	0.1061415227053879
30	0xbfd50ed6a92e6695	-0.32903067132574765
31	0xbfd0170b22ceaa0a	-0.2514064636149277
32	0xbff468e7da3b8823	-1.2756117367466764
33	0x3feee5b485581a48	0.9655401806238126
34	0xbfe9c14bce357499	-0.8048457171932056
35	0x3feb9f55dc0e33fc	0.863200120731221
36	0xbfd708bd9ccfe711	-0.3599084884041171
37	0x3ff3760c281ef402	1.2163201873038365
38	0x3ff136747c5c5c8a	1.0757946832507366
39	0x3fc815cd86bb4314	0.18816536978422305
40	0xbffdbab5a2f9aa3f	-1.8580833784314021
41	0xbff92f287f782b10	-1.5740132312082018
42	0x3fdc56c8cf698f38	0.4427969003211163
43	0xbfe8bf25e572c762	-0.7733335000432187
44	0x3fd911e462d3f654	0.39171704913301153
45	0x3fee2c51c4af63a0	0.9429100839143878
46	0x3ff7d04457babc7f	1.4883464266711426
47	0xbffbc4f9b58d00d8	-1.7355897037341972
48	0xc00655c20e72c17a	-2.7918740395327264
49	0xbfde6d47285385be	-0.475419797307122
50	0x3fe8c8c53d7a2d62	0.7745081139304768
51	0xbff5e5cea16b0c4c	-1.3686052613636717
52	0xc0007e0943a2dee9	-2.061541107566758
53	0x3fca5f852fda8687	0.20604004704096132
54	0xbfe5ce431db5439c	-0.6814284878001788
55	0xbff004db793becc2	-1.0011858688074402
56	0x3ff3d26354b04ac0	1.2388642604970954
57	0x400a5ac3f966310a	3.294319103652133
58	0xbfab77f295db117a	-0.05364950255674024
59	0xc001783b3687a6b5	-2.1837066898486577
60	0x3ff1f62fa0a47bd6	1.1226040148828722
61	0xbfb362edd5023133	-0.07572828722385765
62	0xbfc39c7390c4f6f1	-0.15321201866930026
63	0x3ff7d678230c6226	1.4898606652333313
64	0x3fb53ce8b3f6f361	0.08296064752262346
65	0x3fe6f73976ca4722	0.7176787681694103
66	0xbfbf9334d74924a4	-0.12333994155882749
67	0xbfd195dc557544c3	-0.27477176995769187
68	0x4000c1551536dc50	2.094400563942635
69	0x3feee1c05fbcf872	0.9650575513731054
70	0xbff05ee067f62229	-1.0231632290834887
71	0x3ff2c5faf45a4bf8	1.173335031988925
72	0x3fddab7694b4dd08	0.46359028360480226
73	0x3fd135ae6c448e96	0.26890144894626056
74	0x3ff632dac9f8bbe0	1.387415684653881
75	0x3fe6867c5027bc67	0.7039166989833462
76	0x3ff35e1f4066e375	1.2104790225696125
77	0xbfee7bad5ad7708f	-0.9525973104714626
78	0x3ff37af8f41e36d0	1.2175225768909748
79	0xbfb7088d306666a9	-0.08997423583641741
80	0xbfea3adc5dd67a98	-0.8196851570863428
81	0x3fe42acbac77bdc2	0.6302240723143131
82	0xbfd207c538392b44	-0.2817242669158768
83	0xbfe7c2c7a09ea06e	-0.7425268303968673
84	0x3fa26acfea40f444	0.035971162171769794
85	0x3fe6e13872f1677b	0.7149927372913533
86	0x3ffdafdb72886a0e	1.855433890718476
87	0x4000fec39af1120c	2.124396524888885
88	0xbfe1a12c5b35993b	-0.5509244710381503
89	0xbff6512b31a94c55	-1.3948165836234427
90	0x3fd0ebf2886ed442	0.26440108607795676
91	0xbfe8f5e915ce5d90	-0.7800183702374159
92	0x3fdce3e955bcecfe	0.4514106118474074
93	0x3fdedaafed59abfc	0.4820976083635171
94	0x3ffd191a9cc2f4fc	1.8186288951395104
95	0xbfd005f915ee0f10	-0.25036456243127336
96	0x3fdc911e987a58bd	0.44635739221974885
97	0x3fdfb13d65ecdc4e	0.49519286111484895
98	0xbfbc33770f37b60b	-0.11016029473804438
99	0x3ff2c8dbfa205b19	1.1740379114687072
100	0x3fefa86727ea2d1b	0.9893070010743118
101	0xbffdfeb185ab5a9a	-1.8746810170611412
102	0x3fe2815a15c40280	0.5782900261984452
103	0xbfdbe9bb43d416ae	-0.4361408388507283
104	0x3fec8d24495320d8	0.8922292167781292
105	0xbfea3ce02dd83811	-0.8199311156656696
106	0x3fd69a5469679524	0.3531695393888461
107	0x3ff0b0e396fc2711	1.0431857965326723
108	0x3fd1c39fd6c3ba49	0.27756496403791125
109	0xbfe7f2e7dd7687a5	-0.7484015775155411
110	0x3ffc9bedb96664af	1.788068508356712
111	0x3fe3f6539f4db0a7	0.6238191710849791
112	0x3fe17ee6724a0d75	0.5467407448017371
113	0x3ff40c1d998d0acb	1.252957916077025
114	0xbfc698f6d3bf9bc9	-0.176543095963295
115	0x3fb84fc16dd4621a	0.09496697360408071
116	0xbfc5e24e5f3693d6	-0.17096881531793312
117	0xbfe358722565006b	-0.6045466165887893
118	0x3fed2148b41569a8	0.9103129880198155
119	0x3fc725bd2116116e	0.1808391963533142
120	0x3fc1929f0703cfce	0.1372870239498511
121	0x3fd52fa3b8fe05d8	0.33103268685962695
122	0xbfd651fbc3ddc234	-0.34875387313425965
123	0x3ff18ede09bf89c2	1.0973797207631013
124	0xbfe4c92c75c0da0c	-0.6495573329801245
125	0x3fcdfab82dfd7a8d	0.23421385045636037
126	0xbfeb001ea193ec9f	-0.8437646060769061
127	0xbfed9cbcf8185e85	-0.9253830762490486
128	0xbfd240e4bd8fee83	-0.2852107859796222
129	0xbfaa8b5d81a8eea3	-0.05184452255022378
130	0x3fefaf306c3c5db8	0.990135394475991
131	0xbfe0267b93bde4cc	-0.5046975980359547
132	0xbfd66e5ba50a2d86	-0.35048571698344977
133	0x3ff0bd391fda3415	1.0461970562203124
134	0x3f8cd1fb255406e9	0.01407238204638213
135	0xbffd04ecd1f55abc	-1.8137024117947211
136	0x3fe9904a0b0bf3c0	0.798863431525767
137	0x3ff49771def5036c	1.286973830152614
138	0xbff622d1d6f8c5d9	-1.383500900014374
139	0x3fece06b8a8cf259	0.9023950296464803
140	0xbfdf15461294379a	-0.48567344488480446
141	0x3fc206440b63918a	0.14081621700382768
142	0xbfed3e6a8bc74808	-0.9138691644714081
143	0xbfd8ad6c32611dd6	-0.38558487815722964
144	0x3fd46e28f6e7d027	0.31922363387934855
145	0x3fea0d94ddd70d33	0.8141578991711981
146	0xbff01c6d8b81916e	-1.0069404077013036
147	0xbff010df46120644	-1.0041191804051701
148	0x3fe7771c63220ef3	0.7332899032776069
149	0xbff4d3e47c43a775	-1.3017315725396348
150	0x3ff09409f9b5f741	1.0361423258140834
151	0xbfecd73858e002ff	-0.9012719856110322
152	0xbfd923da19882d64	-0.39281322949746866
153	0xbfc09fcf66d202ae	-0.12987701912427013
154	0xbfe684a8a4239bff	-0.7036936956254748
155	0xc000d0e6335e5634	-2.1020015729107175
156	0x3fc78acd8e5a3fbb	0.1839234299736726
157	0xc00607bdf7f58347	-2.753780305080372
158	0x3fea67fe014de5dd	0.8251943612551106
159	0x3ff166b606f4cf48	1.0875759383897776
160	0xbfc61711f5b6c85c	-0.17257904527429246
161	0x4001f9dfd50dcf38	2.247008957370692
162	0xbfed36205a61832d	-0.9128572240116221
163	0xbfe67f0b155a1e18	-0.7030082146674799
164	0x3ff1ed123bc6c416	1.1203787169472483
165	0x400290c59d778037	2.32068942089975
166	0xbfeeb057f7a8050e	-0.9590263211286201
167	0xbfc4d9aa97feae06	-0.16289265081046284
168	0xbfd7c98306d55203	-0.3716743056041027
169	0xbff5a15235b33d7f	-1.3518850419676196
170	0x3ff15015bf0bb80c	1.0820519888616245
171	0xbffcc6f51ea90aef	-1.7985736081761237
172	0x3fda230705501003	0.40838790434668243
173	0xbff96ac3389cf836	-1.5885650836421639
174	0xbfec746891d62274	-0.8892100189560339
175	0x3fef2456dca317af	0.9731859502141925
176	0xbff10208fb0735b1	-1.0629968457973116
177	0xbfe04a549b4d7abc	-0.5090735467200243
178	0xbfec8f6813b7229c	-0.8925056824746949
179	0x3f9fc49b28171967	0.03102343017760614
180	0xbfcc026d6e349c3c	-0.2188240802872502
181	0x3fe39e73e7722b72	0.6130923767499168
182	0x3feeb7d3500528f9	0.9599396288770371
183	0xbff079c6232868da	-1.0297299741128456
184	0x3ff2b0daf5d7e94e	1.1681775668390233
185	0x3fc22aa5e3e87b42	0.14192651394201944
186	0xc00190faa32d3e79	-2.195790552919615
187	0x3fe255d702314c04	0.5729785006354864
188	0x4000d3bb22da171b	2.103384277611338
189	0xbfd3f40f3160c986	-0.31177120039060247
190	0xbff50eb1c4973bbc	-1.316087501461637
191	0x3ff3d104a13e0e19	1.2385298059970238
192	0xbff0103b30f4f2b4	-1.0039626991630657
193	0xbff5ba8739c58c99	-1.3580391174989812
194	0xbff3bf5133b77c13	-1.2342082996544874
195	0xbf9dab0daf4ba361	-0.02897282965105619
196	0xbfd8fde6396d3635	-0.39049678428714013
197	0xbfd159609bf1a644	-0.2710801623239585
198	0x3ff4d75dec226194	1.302579805755248
199	0xbfe8d8e4c7098a2f	-0.776476277107866
200	0x3ff89e2006f796f9	1.5386047622827717
201	0x3fe018fa51eaa12b	0.5030490493709626
202	0xbff10b9a706a9b50	-1.0653328315035715
203	0xbfe288cd4a1a71bc	-0.5791994521455801
204	0x3ff3e9645cd5c07e	1.244480478893848
205	0xc00b3a074de44783	-3.403334244278939
206	0x3ff35a874555fe96	1.2096016605791298
207	0xbfe857aeeada3f2b	-0.7607035242999464
208	0xbfeefa74bdae6238	-0.9680732445440929
209	0x3ff9843214081d6c	1.594774320839714
210	0xbfe04632175aca29	-0.5085688072343305
211	0xbff2efe08bfdec27	-1.1835637539322847
212	0x3fd65facc96e1cd7	0.3495895354357805
213	0x3fea9d059869b4d7	0.831667707139469
214	0x3fd8fad200e97b54	0.390308857813513
215	0x3fd911c9afb8b174	0.39171068344400983
216	0x3fe2bf0c2c8ed9cb	0.585821234729161
217	0x3fe27571b7f309d4	0.5768364517937763
218	0x3fe3c0122c4332ae	0.6171961655141638
219	0xc0014ead13d20a92	-2.163416056487514
220	0xbff6072391aa0bad	-1.3767429056176568
221	0xbff04f65bc698f34	-1.0193841323716244
222	0x3fd2009a3afc3496	0.2812867713954089
223	0xbfc82fe214b7ad1c	-0.1889612771186443
224	0xbff7569f95f6183a	-1.4586482866157113
225	0x3fe7af34fa467814	0.7401375663937437
226	0xbfc2e11239b9d90c	-0.14749362772608554
227	0x3ff6cebc770a9329	1.4254727029849141
228	0x400035849c285751	2.0261318397341843
229	0xbffce8b638573cd7	-1.8068144036113176
230	0xbfecf9bc818d3211	-0.9054853945067994
231	0xbfe45009ed6c76d0	-0.6347703587705045
232	0xbff8aac9b5e6880f	-1.5416962724198162
233	0x3fee30f4b25247b9	0.9434760554161051
234	0x3fedaa965a784f53	0.9270736472121633
235	0xbfc0ff9b9d20997c	-0.1328005330298757
236	0x3fe7080b4abebc78	0.7197319469322698
237	0xbff6b0d0a8f303f4	-1.4181677436429228
238	0x3fee6ed66e9d291d	0.9510299835613157
239	0xbfd68d25530d5fb0	-0.352364855867104
240	0xbfd3256a01e8abf4	-0.299158574928412
241	0x3f751da7c64a01cf	0.005155234689141654
242	0x3fd332bb013c51ba	0.2999713432375547
243	0xbfb52a0e0c00be81	-0.08267295640029639
244	0xbfe624117fb6e782	-0.6919028753684275
245	0x3fd72dad11d8d900	0.3621628450668055
246	0xbfbcaf6d08e3f9b3	-0.11205178706220557
247	0xbfe6f66c7a2867bb	-0.7175810228247806
248	0x3feb236fc955c4ae	0.8480757648777819
249	0xbfba038dbdd71854	-0.10161672482272027
250	0x3fa42d2bbd9edf80	0.03940712632851184
251	0xbfed3bf842d76802	-0.9135705285546012
252	0xbfe755e0d44db966	-0.7292331835322272
253	0xbfde6e5a6c7a1fbb	-0.47548542588674153
254	0xbff19aca5cf01c28	-1.1002906446826817
255	0x3fb4cd78ebe2f2cc	0.0812602592367952

lstm.bias_hh_l0 f8 [256]
0	0x3fffc05888f4c675	1.9844594335412726
1	0xbfd3ca6a846b480c	-0.3092294972567522
2	0x3ffd9ffa965319d4	1.8515573379569235
3	0xbff92362d89068e4	-1.5711391887221504
4	0xbfc68a42f12db1cb	-0.1760944059018484
5	0xbfe502320e97a0b0	-0.6565180096631789
6	0x3ff01a5f9c3cfcc9	1.0064388373428292
7	0xbffd613ca18347d8	-1.8362394627661072
8	0x3ffd8df31809e553	1.8471556605348567
9	0x3fdaaddcc41a7a62	0.4168617167542036
10	0xbfc790c668fcc38d	-0.18410568357787974
11	0x3fb1f08bcfb381d7	0.07007669277982785
12	0xbfe9b885dd310821	-0.803774768843372
13	0xbfeba2f5b0325235	-0.8636425439204404
14	0xbffdf271e0f26246	-1.8716906344399304
15	0xbfe970f27caa55f7	-0.7950375017996397
16	0x3ffe38367e28ccf7	1.888723843393391
17	0x3ff35aca157a7e6c	1.2096653784755302
18	0xbfd48776528ed7b8	-0.32076795637419364
19	0x3fe62140b11a3694	0.6915591677695425
20	0xc00dcbf4f25950cd	-3.7245882924563376
21	0x3ff46940c18822d3	1.2756965217433176
22	0x3fc7aea8b714653c	0.1850176710075092
23	0x3fa99ededcfc1731	0.0500402111775159
24	0x3fff6d5276a39b46	1.964189971383989
25	0x3ff3734b6bff95dc	1.2156480997740493
26	0x3fd87830bc0a4c6d	0.38233583796790677
27	0x4002dcf9892fab15	2.357897826926442
28	0xbfec7f1e04cc13b7	-0.8905172437376824
29	0x3fabdd710188d970	0.05442383903248327
30	0xbfd1a78a692e6694	-0.2758508708153411
31	0xbfce8e23859d5417	-0.23871273063801432
32	0xbff58bc6663b8822	-1.3466247552355601
33	0x3ff0b96112ac0d21	1.0452585915925925
34	0xbfe9abe14e357498	-0.8022314574733569
35	0x3fec2ace1c0e33fc	0.8802252338369949
36	0xbfd831f78ccfe711	-0.3780497431867938
37	0x3ff6fc43ec1ef402	1.4365882132981374
38	0x3fedd0c750b8b92a	0.9317356659501332
39	0x3fcaa95c06bb4313	0.208293441092359
40	0xbffd16fa76f9aa41	-1.8181099555464615
41	0xbffb80e7d3782b14	-1.7189710865520214
42	0x3fddd908df698f36	0.4663717443238399
43	0xbfed9b4cb572c761	-0.9252074760354213
44	0x3fda89a1c2d3f653	0.41465038324517883
45	0x3fece981b4af63a0	0.9035042313581592
46	0x3ff831c28bbabc80	1.5121484239751055
47	0xbffa8bad098d00d6	-1.6591005681112185
48	0xc00767a55872c178	-2.925608340265338
49	0xbfe5a2ada429c2d8	-0.6761081892310257
50	0x3fe5e3677d7a2d68	0.6840093088843959
51	0xbff31c83256b0c45	-1.1944610082289426
52	0xc001dcc3c9a2deea	-2.2327953102902613
53	0x3fcf94cbefda867e	0.2467284127388218
54	0xbfe962cc25b5439a	-0.7933102356420136
55	0xbfef878c3277d987	-0.9852963433939274
56	0x3ff1a0507cb04abe	1.1016392584466952
57	0x4009486cf166310b	3.160364042216434
58	0xbfc0d64cc576c468	-0.13153991357606576
59	0xc00172a48487a6b5	-2.1809778551003896
60	0x3ff4d3f5f4a47bd9	1.3017482334469064
61	0xbfabb75c2a04626e	-0.05413330090431577
62	0xbfc13e2f50c4f6ea	-0.13471023029153822
63	0x3ff84bfc5f0c6226	1.5185512268855148
64	0xbfa49ad89812193c	-0.04024388176280744
65	0x3fea301f8eca471f	0.8183744229192803
66	0xbfaf55b12e924989	-0.061200653967847414
67	0xbfc099bb0aea8982	-0.12969148667350444
68	0x4000dd2d3136dc4f	2.107996353613579
69	0x3feeb95b8fbcf878	0.9601266677270948
70	0xbff1b2a463f62232	-1.106113806223345
71	0x3ff27cb2045a4bf9	1.1554432077434724
72	0x3fdbcbe084b4dd09	0.4343186660730259
73	0x3fccf961d8891d16	0.2263605410864577
74	0x3ff5fa4041f8bbe0	1.3735964371696738
75	0x3fe7f502b027bc67	0.7486585083514797
76	0x3ff5cf38d466e37a	1.363091306395488
77	0xbfedc19582d7708b	-0.9298808627604712
78	0x3ff3e617a81e36d1	1.243674904547721
79	0x3fbb9dec0f999952	0.10787845021113654
80	0xbfe540455dd67a9c	-0.6640955765504546
81	0x3fe4b8c04c77bdc4	0.6475526326666388
82	0xbfb740cb60e4acee	-0.09083243480261036
83	0xbfe6981c789ea06e	-0.7060682636120086
84	0xbfa2c9a515bf0ba9	-0.036694678215574435
85	0x3fe7c5c80af16776	0.7428932393770384
86	0x3ffcbbea5e886a0f	1.7958778088274163
87	0x400150baa6f1120c	2.164418510658157
88	0xbfdf5a1b366b327e	-0.48987465204553604
89	0xbff73617f5a94c55	-1.4507064434190131
90	0x3fd8ca4f686ed449	0.3873480338909912
91	0xbfec6eba25ce5d8f	-0.8885164965058027
92	0x3fe31ef502de766e	0.5975289398226786
93	0x3fd275dc8d59abf6	0.2884436970113592
94	0x3ffb26005cc2f4fc	1.6967776893137048
95	0xbfd2d18895ee0f11	-0.2940389122161245
96	0x3fdf7302887a58c0	0.491394646910873
97	0x3fdb0a1f45ecdc47	0.4224928076614031
98	0x3fb2a73c70c849e2	0.07286432031131754
99	0x3ff14e2cf2205b15	1.0815858324110128
100	0x3ff08a72bff51698	1.0338008402190209
101	0xbffb907e69ab5a9a	-1.7227768066128761
102	0x3fe091224dc40282	0.5177165526257144
103	0xbfdc0ea743d416b3	-0.43839437126039654
104	0x3fede28e115320d9	0.9339056337712704
105	0xbfea10a1bdd83811	-0.8145302493956043
106	0x3fc800aa92cf2a3e	0.18752033394260254
107	0x3ff1156402fc2714	1.0677223316765252
108	0x3fdc8def16c3ba4d	0.4461629602728053
109	0xbfe9eddeb57687a6	-0.8102868599128115
110	0x3fffc166fd6664ae	1.9847173593937373
111	0x3fe1dd78974db0a0	0.5582850413461706
112	0x3fe2cec2b24a0d77	0.5877393228733315
113	0x3ff41201698d0acb	1.2543958781322313
114	0xbfc5b280f3bf9bc9	-0.1695100011995392
115	0x3fc00eab76ea3104	0.12544768625628688
116	0xbfc78380bf3693d8	-0.1837006505640193
117	0xbfdac9b1caca00dc	-0.418560455356795
118	0x3fed4906b41569a8	0.9151643292673741
119	0xbf9205b0f74f74ae	-0.01759983548605664
120	0x3fc3080b2703cfd0	0.14868297009490883
121	0x3fdb1640a8fe05e1	0.4232331896128852
122	0xbfd27969a3ddc229	-0.2886604404693878
123	0x3ff32d0ec5bf89c1	1.1985004162348647
124	0xbfe0272375c0da10	-0.5047776508207011
125	0x3fc158a42dfd7a9b	0.13551761861431974
126	0xbfeb27936993ec9f	-0.8485810339037875
127	0xbfea9273c8185e84	-0.8303774746045325
128	0xbfd61b449d8fee84	-0.3454143084233936
129	0x3fa01a027e571167	0.03144843857038176
130	0x3febd41d943c5db9	0.8696430106382912
131	0xbfe515085bbde4cc	-0.658817462142133
132	0xbfe146a4528516c4	-0.539873276874197
133	0x3ff1b8fd77da3412	1.1076636010868737
134	0x3fc23f1bf2554071	0.14255093891779638
135	0xbffe2287a9f55abd	-1.8834301604271524
136	0x3feae5e9cb0bf3bf	0.8405655828242898
137	0x3ff4295126f5036b	1.2600871583710738
138	0xbff5600962f8c5da	-1.3359464517674184
139	0x3fedd520928cf259	0.9322665083232763
140	0xbfe1e19c394a1bc6	-0.5587903136191634
141	0xbf988a91a4e3741d	-0.0239660984888027
142	0xbff10e376de3a409	-1.065970830206654
143	0xbfd18faf42611dda	-0.27439481241569086
144	0x3fd446fde6e7d027	0.316832995885536
145	0x3fe726a3d5d70d34	0.72346679463991
146	0xbfee9ef5df0322dc	-0.9569043498714467
147	0xbff127989e120646	-1.072167031729252
148	0x3fe07d4993220ef2	0.5152938722316931
149	0xbff4c0bd4c43a775	-1.2970555285523606
150	0x3ff3775175b5f741	1.2166304205015452
151	0xbff05a846c700181	-1.0220989452210179
152	0xbfce358533105ac4	-0.23600831025460967
153	0xbfc4783366d202b6	-0.15991823692822543
154	0xbfe933067c239bfd	-0.7874786781875397
155	0xc001cfeecf5e563a	-2.226529712740356
156	0x3fa91d88b968ff0c	0.04905345214183229
157	0xc00526a807f58345	-2.6438751813697388
158	0x3feef60a694de5d8	0.967534261391104
159	0x3ff25e6ccef4cf47	1.148052986548423
160	0xbfc7006695b6c859	-0.17969972906354562
161	0x4000fcb3ff0dcf36	2.1233901907052326
162	0xbfef7defaa618330	-0.9841230705024824
163	0xbfe7cc425d5a1e1a	-0.743683988884132
164	0x3fef10f0ef8d880e	0.9708180121199363
165	0x40022f9c25778037	2.273247044286133
166	0xbfedce97cfa80511	-0.9314688735759394
167	0xbfb7fcb0effd5c1a	-0.09369951113818367
168	0xbfdadc18c6d55200	-0.419683641598823
169	0xbff2cb29a5b33d80	-1.1746002648031606
170	0x3ff0cd36530bb80a	1.0501006359077132
171	0xbffc287f3ea90af0	-1.7598869750660775
172	0x3fdfdb3525500ffe	0.4977543701536432
173	0xbff94e4e6c9cf835	-1.5816177599622396
174	0xbfe84ae8e1d62272	-0.7591442499988956
175	0x3febe26fcca317b8	0.8713912007158262
176	0xbff1a332bf0735b5	-1.1023433172261836
177	0xbfdb953e869af57a	-0.43098414559411646
178	0xbfef5c3f0bb72293	-0.9800105313125463
179	0x3fc9fc84c502e31b	0.20301875705424596
180	0xbfbbcd27dc693887	-0.10859917765739811
181	0x3fe3566457722b71	0.6042958934716421
182	0x3fef9f1b280528f6	0.9881721288341214
183	0xbfec25057e50d1b0	-0.8795192210296161
184	0x3ff000c501d7e94d	1.0001878807075457
185	0x3fae2eaf0fa1ed22	0.05894991937472073
186	0xc001c366d12d3e7a	-2.2204109517986668
187	0x3fe1f8d75a314c03	0.5616261254857594
188	0x4000c0020cda171c	2.093753910451495
189	0xbfd9d8c47160c97f	-0.40385542938306423
190	0xbff52250d0973bbc	-1.3208778522564293
191	0x3ff34066113e0e17	1.2032223390132282
192	0xbff011cb44f4f2b3	-1.004344243395434
193	0xbff535e62dc58c9c	-1.3256589687305569
194	0xbff211559fb77c15	-1.1292320479331057
195	0xbfacd4b857a5d1bc	-0.05631042547148321
196	0xbfd86d27d96d3637	-0.3816623328501438
197	0xbfd03c396bf1a648	-0.25367579976464016
198	0x3ff58569c0226192	1.3450715546842713
199	0xbfe87882af098a2f	-0.7647107523628786
200	0x3ff8fc45eaf796fa	1.561590116348667
201	0x3fe0a82e71eaa12f	0.5205299591953344
202	0xbfeeaf7340d536a1	-0.9589172617213145
203	0xbfe3cca2921a71b8	-0.6187298635082277
204	0x3ff139d21cd5c07c	1.076616394650073
205	0xc00affc0a5e44783	-3.3748791656771018
206	0x3ff423e6dd55fe95	1.2587650915083135
207	0xbfe8932bb2da3f2e	-0.7679651730740937
208	0xbfebc6be05ae6233	-0.868010531517092
209	0x3ff6ae2e38081d69	1.4175245465028985
210	0xbfdd2946beb5946e	-0.45564430831865976
211	0xbff400dcdbfdec23	-1.250210627883242
212	0x3fe14a6864b70e7a	0.5403329817858797
213	0x3ff0452afc34da75	1.0168866969885617
214	0x3fdd5f1190e97b5c	0.4589275279194476
215	0x3fe0f75857dc58b9	0.5301934925107822
216	0x3fe3385b6c8ed9c8	0.6006295318864483
217	0x3fe7f72077f309d5	0.7489168493996724
218	0x3fe4d22f444332ae	0.6506573041202353
219	0xc00174d691d20a90	-2.1820498840546136
220	0xbff86be775aa0bad	-1.526343783975544
221	0xbfef459658d31e60	-0.977244542585094
222	0x3fd17e6e3afc349a	0.27334171066542867
223	0xbfc8190414b7ad1c	-0.18826342593761403
224	0xbff78f224df61839	-1.4724448247302588
225	0x3fe5e9f942467816	0.6848112387122025
226	0xbfbee62a3373b232	-0.12069953685904336
227	0x3ff52bb7f70a9328	1.32317348957549
228	0x3ffec8047850ae9b	1.9238323879061798
229	0xbffd44fcf4573cd7	-1.8293427986680422
230	0xbfec1edc918d3211	-0.8787672846606843
231	0xbfe75101356c76cd	-0.7286382716590311
232	0xbff9ec79ede6880d	-1.62023346834076
233	0x3ff295a6912923da	1.1615358038272832
234	0x3fe7b4188a784f5a	0.7407343582621977
235	0xbfb8644f3a4132f1	-0.09528060123666272
236	0x3fe3ef87b2bebc7b	0.6229895106424829
237	0xbff6cb9dbcf303f4	-1.424710977633592
238	0x3ff04355c74e948f	1.016439226668158
239	0xbfdcf992d30d5fb5	-0.4527327595765159
240	0xbfd00e12b1e8abf7	-0.2508589494124744
241	0xbfc6946121cdaff2	-0.1764031806045519
242	0x3fd771bf013c51b6	0.3663175117556209
243	0xbfc854b946005f45	-0.19008556287803394
244	0xbfeacacdb7b6e780	-0.8372562969372979
245	0x3fda282991d8d8ff	0.4087013172424036
246	0xbfc1d569e471fcd6	-0.13932536749414365
247	0xbfea4cb6aa2867ba	-0.8218644450564547
248	0x3fe6325ea955c4a9	0.6936486537289471
249	0xbfb060523dd7184f	-0.06396974572916857
250	0xbfa87b50c2612065	-0.04781582234187524
251	0xbff0c7d2256bb403	-1.0487843953844738
252	0xbfe3e1614c4db96b	-0.6212622156433957
253	0xbfdbe8706c7a1fbe	-0.43606196015798193
254	0xbfedcc6a49e03858	-0.9312030260932813
255	0x3fa6e7ddd7c5e5a2	0.04473775156925376
