AIModels/with_0.1_0.5_2_scheduler/model_93_70epoches.pth (torch, 388003 bytes, 10 tensors)

lstm.weight_ih_l0 f8 [256, 28]
0.2799014482174003 0.34663941290363065 0.4417671221549048 0.46420938211705504 0.5253294083278424 0.5348110687373319 0.6069852156074853 0.6302121585273467
0.5280235260232659 0.6248942045445988 0.8492382977440937 0.8923018441495717 1.1763394861032943 0.8637977634389312 1.1053944561065425 1.062777080248974
1.0316110295003929 0.7650599406102728 1.0610840349853865 0.7433019455841057 0.9249581386052759 0.6060155320407261 0.6408999396793509 0.33852224299265876
0.4100106494066564 0.027571852638896825 0.1159183813147379 0.12738123361823422 -1.8900930470735227 -1.646820442450566 -1.6022807010050484 -1.3008222286718263
-1.2235868645754724 -0.8240536322531898 -0.7204101141735783 -0.7407404814429656 -0.8278625452150384 -0.7247989560309666 -0.882799488122177 -0.5000022043805435
-0.15970479593268272 -0.31968787501722956 -0.13061457841922858 -0.056016227000659155 0.09863488848315306 -0.019089591792351635 0.04616828560235694 0.24884377646732517
0.18465050344746814 0.04840309631910688 0.6551744812256574 0.16079611186442058 0.29386397929867525 -0.11010980538318008 0.0458330824209583 0.38727622844438436
-1.0440551199457646 -0.8157795308823804 -0.9864611221517525 -0.6846211685052982 -1.0819400788330267 -0.6709831144808688 -1.115606382957061 -0.7937947579092364
-0.6613365012967521 -0.8555694591813867 -0.8192924183924255 -0.9665937845512201 -1.1030765957540138 -1.1628935488830112 -1.2304099054376405 -1.24847874372952
-0.901855808086387 -1.1404782336399764 -1.2159899289021994 -1.2130928057938628 -1.4797054296852148 -1.0006271163376885 -0.7829323995996479 -0.36449311171520254
-0.5552295648651615 0.0006070308063016349 0.016090221852386847 0.28644318028269145 -0.1597351650979951 -0.4661231616247322 0.4013884951897815 0.2879208010493528
0.29246976755820375 -0.5711214173641197 -1.4935080274955082 -0.8842779555868953 -0.6930781529185978 -0.611940817129635 -1.1782004328445932 -0.4442668176560804
-1.3255993800424457 -1.9586311754919932 -1.6043569131098199 -1.6003092113416577 -0.8592173478498947 -0.9019685868126639 -0.9633896688201204 -0.15799512598406423
-0.6735059080440738 -0.2769579618251744 -1.2580844219636669 -0.6501522546033408 -1.2491236133090644 -1.8269472229341512 -2.359065400051426 -2.9338763158003336
3.7790929247079643 2.8967436184262843 2.468730919779989 1.2099838954491005 -0.2048209190089751 0.43806939146965185 0.7965022028393307 0.9817615418506682
-0.49169812635382965 0.1996231271000385 0.11888677120430163 1.6771684410464 1.1833197379646052 1.7459491206764755 1.1685847780797474 1.3914894000217815
1.3362433669869886 1.3819520081465912 2.060899660204097 0.606158040153495 1.2149033238362936 0.2727046977621997 0.7247103080319635 1.0546969475717851
1.2277870131508593 2.329664470252261 2.2070831933361537 3.075590817136346 0.26793388091029735 0.17943096780500478 -0.07083234416829595 0.05760421258502003
-0.038905497082991625 0.18796767437267253 -0.00923434778547236 0.21833815697755327 0.48058219012043485 0.31697836742864594 0.8858547590045918 0.5966541287836513
1.36257283421125 0.8508032043968892 1.1446974464221897 1.0840648988615715 1.050614450591856 1.1246052756745561 1.2462437701186184 0.9135908344553341
1.0622200321719837 0.7129247561967331 0.7792310845929279 0.6547296586557956 1.1523068347338246 1.1651819965153323 1.0861151878431232 0.8961612040956419
-1.3310368581985188 -1.5368069064145076 -1.3922497243736622 -1.1512447222737248 -1.0419379326917269 -1.0420598091890145 -1.316235166433645 -1.395811766652529
-1.0761096988373111 -0.6718099245269409 -0.6085429272958365 -0.31430721387354355 -0.14657500274086643 0.11538466356235817 -0.135173520029762 -0.13875456827775273
-0.2596087591421138 -0.20249697202138492 0.05849690579060467 -0.3387436002981208 -0.3040184325549584 -0.6619582014052359 -0.27654504797275575 -0.25897216942836676
-0.08405777596200226 -9.196598110284205e-05 0.6356881086272028 0.36582876931970754 -0.529858047252678 -0.8306866396499634 -0.5473319295036774 -0.665829268955514
-0.4626830076313716 -0.2928252240092625 -0.37702736061659564 -0.6779049407323792 -0.5813063872812041 -0.39013147807061244 -0.5161337417399292 -0.47273820114407206
-0.3350075173869186 -0.4112461087733695 -0.08705148905641209 -0.5485899536258476 -0.5853827443429891 -0.6821409958087916 -0.2253048553766567 -0.48598790578809126
-0.2408626853530974 -0.7400317490839528 -0.565962906242441 -0.7042844726596623 -0.14969608256957304 -0.18091966965935674 -0.07833688572054719 -0.15070501457472615
1.6289148385118997 1.6253469670313463 1.208070812703265 1.3182642127598272 0.9712456817255385 1.2181772998895455 0.9042875754962715 1.2160408250621038
0.9587631699984569 0.8511285235214474 0.5954961475913921 0.7614187612179889 0.5729909015519226 0.3120552851787577 0.651429564778057 0.6248628231478889
0.7942395929802142 0.6095525561447664 0.13239222529041586 0.04428017921816369 -0.3622926423589611 -0.31839268705919194 -0.3948089952805598 -0.24971145819562102
0.16279373939710218 0.23049054316173695 0.14848207397650665 1.1046337167738978 -0.37796002487672864 -0.085925885926088 0.12804831422585672 -0.422306575166757
00000000: e997 8cc3 e7e9 d13f 3a3f 7b13 572f d63f
00000010: 579d 869b e945 dc3f 851a ac44 9bb5 dd3f
00000020: c4a4 8c9e 7fcf e03f 3180 381a 2c1d e13f
00000030: ae11 4642 6c6c e33f 2554 4db0 b22a e43f
00000040: a73b f997 91e5 e03f db53 7f21 22ff e33f
00000050: 7d4a 6acb f52c eb3f 830d d998 bc8d ec3f
00000060: dde9 5c5a 49d2 f23f 3d80 0a35 3ba4 eb3f
00000070: 5584 e218 b2af f13f 2fb9 298a 2201 f13f
00000080: 6f5a 1e91 7a81 f03f 8dd3 0cfc 5e7b e83f
00000090: 891e c940 33fa f03f eec7 6a29 21c9 e73f
000000a0: 7851 6fcf 4199 ed3f 6674 5faf 7a64 e33f
000000b0: 44cc 1d97 4082 e43f 6acf a732 59aa d53f
000000c0: e3a6 8d4e 9d3d da3f 7e2c 7fb5 cb3b 9c3f
000000d0: cb86 c0b8 d3ac bd3f 8ed9 413c 074e c03f
000000e0: 8a3e f934 d23d febf d459 6b64 6059 fabf
000000f0: 1942 9d16 f1a2 f9bf 9fe2 20f8 2ad0 f4bf
00000100: 5bab f2d1 cf93 f3bf c3ad 15b9 a55e eabf
00000110: 1fa9 0283 990d e7bf dbdd d361 25b4 e7bf
00000120: 6b05 a997 d97d eabf 837e 8a94 8d31 e7bf
00000130: 1a21 4db6 e43f ecbf 45c1 779f 0400 e0bf
00000140: f8c9 c5ed 3471 c4bf 731c 0822 c475 d4bf
00000150: 4280 587f fab7 c0bf b6ba 06ae 28ae acbf
00000160: a99d 47d4 2240 b93f 6dc0 c4d1 388c 93bf
00000170: ab8c 8c99 5ea3 a73f 05c2 dee4 1cda cf3f
00000180: 8097 bfb0 a0a2 c73f 7f70 6e67 4ac8 a83f
00000190: 0137 4179 30f7 e43f e90c e48c f794 c43f
000001a0: d4da 23dd aace d23f 7af5 16fd 2730 bcbf
000001b0: a151 250c 6f77 a73f 72f5 eb3b 22c9 d83f
000001c0: f436 3624 73b4 f0bf 7d5a bcac dd1a eabf
000001d0: 045a 4dea 1691 efbf 5d25 1ca7 6ae8 e5bf
000001e0: b81c 6d66 a04f f1bf 3fa2 9b94 b178 e5bf
000001f0: 9f26 2014 86d9 f1bf e49a 9e43 c466 e9bf
00000200: 410f 972a ab29 e5bf ac7e d433 d360 ebbf
00000210: 2066 dbbb a437 eabf 7142 a516 56ee eebf
00000220: acf1 fba4 33a6 f1bf 1be9 1244 369b f2bf
00000230: 4577 084c c2af f3bf 7b1c e1d8 c4f9 f3bf
00000240: b409 2eb6 00dc ecbf 6789 b41a 663f f2bf
00000250: ad67 0edb b174 f3bf 3e5c 7e00 d468 f3bf
00000260: d162 c399 dfac f7bf 1c94 4294 9102 f0bf
00000270: 1d4c 683f c80d e9bf cbc7 9bea da53 d7bf
00000280: 20c8 dbca 70c4 e1bf a333 f9ba 24e4 433f
00000290: 81c7 9082 f479 903f 347d dec6 1555 d23f
000002a0: 7bfb 0eaf 3372 c4bf b686 c53d f6d4 ddbf
000002b0: 402b f55e 59b0 d93f 0016 165e 4b6d d23f
000002c0: 18cc ae1d d3b7 d23f 4ef8 336c a046 e2bf
000002d0: bf81 66ac 68e5 f7bf fb38 7a48 014c ecbf
000002e0: 5970 0b3c b22d e6bf fa18 95e8 0495 e3bf
000002f0: 8b35 73b2 e8d9 f2bf 9ff9 2117 de6e dcbf
00000300: 3715 0eb2 a735 f5bf 59a0 baa4 8d56 ffbf
00000310: e8b0 8e27 72ab f9bf 1633 e3d4 dd9a f9bf
00000320: 177a 2561 b57e ebbf bc26 cc39 eddc ecbf
00000330: c05f 1c92 16d4 eebf d2b4 832d 2f39 c4bf
00000340: 5dc9 1643 5c8d e5bf eefa 19e3 adb9 d1bf
00000350: 640e 7f21 1d21 f4bf fb24 de19 0cce e4bf
00000360: 362e bd0a 69fc f3bf be52 e002 2d3b fdbf
00000370: acc4 32ae 5ddf 02c0 a1f8 5625 9478 07c0
00000380: 5953 4112 953b 0e40 fe4c 10eb 872c 0740
00000390: e6a1 18ff f5bf 0340 c63f ba12 185c f33f
000003a0: 3611 5766 9237 cabf e068 6f33 5409 dc3f
000003b0: 5a61 0c30 f27c e93f 5203 572e 976a ef3f
000003c0: 596d 0c6b fb77 dfbf d4bf 3529 408d c93f
000003d0: e4df 3f0a 5d6f be3f 6bd7 4293 aed5 fa3f
000003e0: ed4e 74ad e0ee f23f 1491 5c58 68ef fb3f
000003f0: 804b c7f3 85b2 f23f fa2f 9d63 8a43 f63f
00000400: f34b 8bb9 4061 f53f 2119 7ab5 791c f63f
00000410: 1950 07f6 b87c 0040 bc55 d58b a565 e33f
00000420: 75db ba77 3e70 f33f 69ab 9667 fe73 d13f
00000430: a848 02ac d330 e73f 8330 10e8 09e0 f03f
00000440: c0fb befe 03a5 f33f cf17 3320 27a3 0240
00000450: b170 b73b 1ba8 0140 04d4 bb5b cf9a 0840
00000460: 6801 0026 d425 d13f 185a 4e0d 98f7 c63f
00000470: 46ac b389 1122 b2bf 6138 54a2 4c7e ad3f
00000480: 204f 36db 6beb a3bf 1662 1123 530f c83f
00000490: 716f e82d 75e9 82bf 2e00 d835 81f2 cb3f
000004a0: 5dde 66cd dbc1 de3f f84f 69a2 5f49 d43f
000004b0: 28c8 5d14 ec58 ec3f e0c5 4466 ca17 e33f
000004c0: 82af 152c 19cd f53f bcee 46a4 c739 eb3f
000004d0: 142b 0345 ae50 f23f c8a1 756f 5458 f13f
000004e0: d5f3 1f19 51cf f03f 89e6 fe19 62fe f13f
000004f0: 240d b84e 9df0 f33f fe26 7dd8 223c ed3f
00000500: 165b b56e dafe f03f b2f5 0b94 47d0 e63f
00000510: b34d 0b07 76ef e83f 7abb f49c 8bf3 e43f
00000520: 9039 a24a d96f f23f cdbd 8ee0 95a4 f23f
00000530: 0e9a b751 ba60 f13f c81c f142 5aad ec3f
00000540: 4dbb fb4d ed4b f5bf 6d13 b5d6 c296 f8bf
00000550: 5dcc a0a5 a746 f6bf 65bb fd95 7f6b f2bf
00000560: 0ef7 151c c7ab f0bf c815 0fe8 46ac f0bf
00000570: 8ad7 1a9b 4c0f f5bf 4350 12b8 3e55 f6bf
00000580: 73a2 b6cd be37 f1bf 0816 df86 777f e5bf
00000590: c053 5e04 2f79 e3bf b6f5 1e01 9c1d d4bf
000005a0: dc70 973d f8c2 c2bf a5d5 756c d989 bd3f
000005b0: 5311 e8ab 5d4d c1bf ca36 76ae b5c2 c1bf
000005c0: 3250 910e 6e9d d0bf d778 2fb8 6beb c9bf
000005d0: c65f 9372 4ef3 ad3f 549f 40a3 f9ad d5bf
000005e0: 441a 4dba 0975 d3bf d057 4bf7 c22e e5bf
000005f0: ab7a 3a00 eab2 d1bf 6637 9101 0093 d0bf
00000600: 2036 bb76 cf84 b5bf 6161 5486 bb1b 18bf
00000610: 5c51 a096 8e57 e43f 2880 0a12 bd69 d73f
00000620: 2720 0fdd 98f4 e0bf d1a9 d025 fc94 eabf
00000630: c0cb 2840 be83 e1bf cd45 dc2e 794e e5bf
00000640: 2644 8c30 999c ddbf f212 2402 a6bd d2bf
00000650: 17e9 e25d 3721 d8bf a2c1 c7b3 65b1 e5bf
00000660: 9084 4ada 0f9a e2bf dc04 dd04 eaf7 d8bf
00000670: ca52 a4e8 2a84 e0bf 46f4 5eba 5741 debf
00000680: 66d2 c55e c370 d5bf 057d f232 db51 dabf
00000690: 85bd 90a2 0149 b6bf ea96 b784 0c8e e1bf
000006a0: 5811 d397 74bb e2bf ea4e 885a 19d4 e5bf
000006b0: 1583 bc1c cad6 ccbf de20 6704 6d1a dfbf
000006c0: 948a 35a6 96d4 cebf f426 0a10 57ae e7bf
000006d0: c9ee a13d 5e1c e2bf 63ec 2497 7f89 e6bf
000006e0: 81e1 7cc1 3d29 c3bf 82ed 3130 6028 c7bf
000006f0: 5780 3dda e20d b4bf 0f88 784a 4d4a c3bf
00000700: 2f0b 7601 0910 fa3f b9d6 40d2 6b01 fa3f
00000710: ad00 7d0f 4254 f33f 7aa6 1437 9c17 f53f
00000720: a58e ecd2 7114 ef3f 3a15 fc7a a77d f33f
00000730: 93f0 5d7f ecef ec3f a9e1 6339 e774 f33f
00000740: cc15 7819 30ae ee3f cef4 a6e2 713c eb3f
00000750: 8f91 d9ef 4d0e e33f 3fbf bfe0 8a5d e83f
00000760: 2646 e203 f155 e23f fcbf 18bb b6f8 d33f
00000770: 0cd1 8bd0 82d8 e43f 5901 bd51 e0fe e33f
00000780: 563a a126 696a e93f 1fb8 ba5c 7481 e33f
00000790: ddf9 ee7a 3af2 c03f 99c0 3443 e4ab a63f
000007a0: a6d7 a07a cd2f d7bf 4f1b 8db8 8b60 d4bf
000007b0: 4462 b9f2 8c44 d9bf 307e 3189 8bf6 cfbf
000007c0: f81f 5add 6cd6 c43f 2e5e 75d0 b680 cd3f
000007d0: 8ebb e2e9 7501 c33f 24a5 7967 94ac f13f
000007e0: 0a9e 823e 7f30 d8bf 1bb0 ee25 3dff b5bf
000007f0: e438 f41c e363 c03f f586 4e28 1207 dbbf

lstm.weight_hh_l0 f8 [256, 64]
-0.5056914593283006 -0.20427625033561486 -2.74533690053123 0.3848213558204478 2.061426351435871 -0.04426093625231829 -2.2736991216851488 0.5981597338821013
-1.1238176589780295 -0.049657903471264316 0.8418290883617576 0.32059139664203085 0.603270226991245 -3.251668352420396 1.3310863921311842 1.2083867178894534
0.12523225087127215 -1.935366840381516 0.7777510391120247 1.9486218953281755 1.0925547724551647 1.2548683447404536 -1.329985215275518 1.715101711670976
0.9899277135403834 0.865894923989717 3.2046510875439638 -0.08415062069437394 -1.0359618103878383 3.619511735061438 -0.2692602947495068 -1.496765080693633
1.713769661950395 -0.504149128555595 -0.3181108069878649 -0.056983971839977075 -1.8356000442759726 -1.39360387288172 -1.6466773542044875 -0.5189918386071948
-2.727294240541644 0.38814869323615986 1.258943129440564 -0.12833943192939495 1.5096959903343043 -1.410449462780443 2.710360786934299 -1.0853257639431044
-4.247535094379254 1.9207663021418917 -4.164438395354798 0.8120921991354314 -2.161621925099006 1.8679651147754566 -1.8506696923950754 -2.6445011216105208
-1.070450677724384 -1.8474438574772205 -3.1411938468669853 1.8448141420155832 1.6696627570479212 -2.3154199344875597 -2.0414285645954338 -3.5470868763181302
0.8724762248375283 -0.7486951005249458 -1.5981129753089 -1.5731816468890782 -0.13902329765735805 0.29206574892943504 0.12522123149581843 -1.8561490383884245
-0.6663118190120059 -3.0933539735701774 -0.37638564685754056 -0.7809855614624337 -1.424383997681566 0.4108484706063295 1.6862259417847416 -0.410721083052431
-0.8817243539927614 -2.1875879560865106 3.8119309936330743 2.7472374174372445 1.0951166352974357 3.166038523799129 -2.4877635326637075 2.0262485796656873
4.245593268945777 0.9659342396726283 2.5286133267134336 -4.682967526647591 1.2724756254945468 -3.9428794656300217 1.8553474447490543 0.835617462598979
-0.10630262899334054 -0.5802235344866096 -1.4547700687907763 -0.3499963577887767 0.6980770753418866 2.451913630037197 -2.0416656319879167 -2.4621365194457088
-2.0789919937419326 1.0070624479000656 3.0885233811575277 5.243706211519796 -2.269848322793514 0.7924106642160982 -1.5905702677476963 0.732101909016285
-3.6510513626294316 0.7416799963059036 -4.380056867585188 1.4774664317308281 -1.6866086831941185 -0.4709891458502292 2.605447895073072 -3.469633234810113
-1.745060064182679 1.5778105871740271 1.5241212499096093 1.3420499333203233 1.1253786172416507 1.1082892178810815 0.8293386255237932 -2.7543792937401737
-1.0499542314123385 -2.2516756666219457 -2.0494379451409728 0.43069601194328866 -0.14820103803074328 -1.186243047268374 1.9723040600417108 -1.2284931864830864
0.39862682171620656 -0.11612959604556418 -0.8672746609602882 -1.6143698262107309 -2.5333627851917124 -0.022180704789201804 0.48138304094338585 -1.2559608039046857
0.6334459258433935 -0.023215704536992194 1.703641483881983 -1.7508399209784002 -0.5427405010235661 -0.6783831503130581 -0.6847514981372693 -0.634379439569979
-0.23189290186706613 -0.9037366229294062 0.4891687841797012 -2.2358885836018003 -1.9674709734837317 -0.06253870129364252 2.9690965074615785 -1.6359220537190573
-1.7583230068213531 1.0357933112554472 1.9342463456750272 -0.845489275687196 -0.555403072040467 2.948903119334287 1.373015445325125 -4.349963075136599
-0.2627622747054528 -0.8860382697111292 -3.1535475108071935 0.43781158348330845 -1.7481088187000253 -0.219953078634199 -0.11971527316371773 -0.4037115474732735
0.8045060387235187 -2.6297097284318403 0.20409150247644328 1.6934138642139551 0.5219202471317401 1.860695966661571 4.261902789862261 1.2530582883402965
-0.7692743710428782 -0.6658736092673181 2.2230548076519074 -0.15861205225969055 0.41012143849904265 -1.7490269467450799 -1.8047373189412164 0.011514104361865469
-1.0395377411360585 -2.229300501624188 -3.225381585692777 0.5456897482676263 1.7500145475073017 -1.8572229083733593 3.426197836720205 -1.3825376686617246
-1.019425917254451 0.5776909777858703 0.785096271993939 -0.865856818337551 -0.0940680375116459 1.9855012007390374 -2.316586918082403 -1.4691397013301002
-2.049133438876575 0.6739683726249052 -2.1152989871264505 2.7515451822577592 1.3668976649882305 -1.6925931831754508 -3.3846455394881527 -0.700869026520193
-0.356742178846298 1.37423810442423 4.457530013769575 1.9575004790803796 1.4106795784120136 -2.9596962847350268 0.8964538910036692 1.282181595117926
-2.8506981252373214 1.3138552219154842 -0.2540118982452036 1.0278666872241815 -2.337781690236736 2.6473910669231806 2.764741242124756 -1.4780341627208844
1.0197458122905727 3.178594608329845 2.63478583994458 -3.6368119673175485 2.954651619896326 0.9964872586605812 0.08248302699905134 -1.8529624428473286
-0.5171585025193878 1.6296433888851594 1.0443291152228775 -0.7033983048611646 0.6033403954661407 0.007819868408572943 0.432727447185193 -3.2799547715609645
2.0077084249079578 -1.5562820936340371 -1.9635365967227556 3.2631736726917535 -0.4713804772066604 1.1939830940969265 0.916448408636854 1.3564396455487715
00000000: 62cf f5da 9f2e e0bf aa3e 4563 b925 cabf
00000010: e444 6231 73f6 05c0 e746 83c0 e9a0 d83f
00000020: c33c 5419 cd7d 0040 3e5a 6393 5ea9 a6bf
00000030: 32a7 442a 8930 02c0 95d8 d9e1 1f24 e33f
00000040: 8da5 bf39 28fb f1bf 4144 cbbe c26c a9bf
00000050: 50ba 6a8e 43f0 ea3f 1437 fdc6 9184 d43f
00000060: 1b7e f25c fd4d e33f a1ab 78b2 6a03 0ac0
00000070: 43aa a53e 214c f53f 7f18 a44f 8d55 f33f
00000080: 2ec3 f242 9c07 c03f 3239 5338 43f7 febf
00000090: 3551 ad25 56e3 e83f c943 0b27 8e2d ff3f
000000a0: d989 8cb6 1a7b f13f 6a22 57d4 f013 f43f
000000b0: 9459 bc93 9e47 f5bf 230c 0f7e 0e71 fb3f
000000c0: 8ceb 61e2 7cad ef3f 1bdd 8945 69b5 eb3f
000000d0: bdbc 001c 20a3 0940 2708 d223 e58a b5bf
000000e0: dd54 f8b0 4c93 f0bf e39d 8c91 c2f4 0c40
000000f0: 73de 0388 8f3b d1bf b8fb f5f0 bff2 f7bf
00000100: 4443 afbc 996b fb3f 7480 6e5a fd21 e0bf
00000110: 5117 216e ed5b d4bf 73d4 e5ce 002d adbf
00000120: 2839 eb26 9e5e fdbf e2b1 1993 334c f6bf
00000130: 0cf4 755a ca58 fabf 96ae b6c5 949b e0bf
00000140: 6c90 8da4 7fd1 05c0 eacd db9d 6dd7 d83f
00000150: b289 078d a124 f43f a244 762f 6d6d c0bf
00000160: f135 96fb b627 f83f 27d8 b474 3391 f6bf
00000170: f9f2 e1a2 d1ae 0540 0445 5a8c 7e5d f1bf
00000180: 7ae2 fbd6 79fd 10c0 1d55 2f72 75bb fe3f
00000190: b605 e989 62a8 10c0 dff2 93c7 a8fc e93f
000001a0: 31ef 946f 004b 01c0 b878 6063 2fe3 fd3f
000001b0: 4c90 c8d2 579c fdbf 886b 3c34 f027 05c0
000001c0: 8fea cce3 9020 f1bf d2f8 504a 218f fdbf
000001d0: 6585 553d 2a21 09c0 d27b 72d5 5b84 fd3f
000001e0: 95eb 8d4b f0b6 fa3f 540b f9e2 fa85 02c0
000001f0: fd75 d07f d854 00c0 7adb 8e15 6f60 0cc0
00000200: 0bdf 8642 53eb eb3f 2cc3 6d6d 4ff5 e7bf
00000210: 5d3d 44e9 de91 f9bf 6ce5 c084 c02b f9bf
00000220: ba03 69f2 83cb c1bf 42c1 fb89 34b1 d23f
00000230: 940a 05d3 3f07 c03f 0515 8655 c9b2 fdbf
00000240: e608 f329 6d52 e5bf 077c 3b5e 30bf 08c0
00000250: dbf6 fbd2 b316 d8bf a423 a46e d5fd e8bf
00000260: 1ecf efdf 46ca f6bf 4f69 3762 574b da3f
00000270: c21d 9a0d c8fa fa3f 9b39 df14 4149 dabf
00000280: 578a 0ffe 1537 ecbf d11e 441d 2e80 01c0
00000290: 4b1a 42ad d57e 0e40 79ec 719c 57fa 0540
000002a0: 5b87 5e05 9985 f13f 3cbf 6c01 0c54 0940
000002b0: c3c6 2791 f0e6 03c0 39d8 b9d0 c135 0040
000002c0: 9af5 48cd 7cfb 1040 c860 2fec eee8 ee3f
000002d0: 31b6 b39f 993a 0440 c4b9 dcd6 5bbb 12c0
000002e0: b04c c766 0f5c f43f 719b a763 048b 0fc0
000002f0: 33a1 5ecd 80af fd3f 2288 3ad5 60bd ea3f
00000300: 0956 012b a636 bbbf 1eaa 1ff2 3091 e2bf
00000310: 337f cafa bc46 f7bf 9600 9b1f 5766 d6bf
00000320: 8cc8 15bc a556 e63f e002 ade4 849d 0340
00000330: cd0a 76ca 5455 00c0 e473 aaa1 74b2 03c0
00000340: b623 ee8d c6a1 00c0 f32a 6c83 ed1c f03f
00000350: fd05 18bf 4bb5 0840 033d 011f 8ef9 1440
00000360: 8f3a ca3c a628 02c0 b6e9 f99b 6d5b e93f
00000370: 0b76 1fcf f972 f9bf 340d 92fb 606d e73f
00000380: c113 b46a 5a35 0dc0 7566 07b0 d7bb e73f
00000390: 2798 a3a0 2d85 11c0 2e8c 53d7 b3a3 f73f
000003a0: 6b7e f762 59fc fabf 42a7 8ca8 af24 debf
000003b0: c52a e610 f5d7 0440 35fe c411 cfc1 0bc0
000003c0: 3786 131a c4eb fbbf bc1e 7350 b63e f93f
000003d0: b301 b8f6 cc62 f83f 375b d359 0979 f53f
000003e0: beba 4a02 8d01 f23f 49f0 9479 8dbb f13f
000003f0: a5e5 3d28 f189 ea3f 2426 db02 f808 06c0
00000400: ab67 e3ce 9ccc f0bf d8b8 2a88 6e03 02c0
00000410: d07e acb8 3f65 00c0 6619 7401 8690 db3f
00000420: 41a3 c969 40f8 c2bf 3300 52fd d9fa f2bf
00000430: cd5a bab3 8e8e ff3f e5db b478 e8a7 f3bf
00000440: 0417 a512 1a83 d93f 1107 1d51 abba bdbf
00000450: 662a 2fca b6c0 ebbf b496 7374 75d4 f9bf
00000460: 3f6a 3ab5 5344 04c0 0efa afe6 89b6 96bf
00000470: 13db 6cd0 face de3f 8341 1d5b 6a18 f4bf
00000480: a404 e963 3045 e43f 65bd f58e dbc5 97bf
00000490: ca1c 9692 1d42 fb3f a022 92b8 7003 fcbf
000004a0: 418c c353 215e e1bf af10 9894 50b5 e5bf
000004b0: d65e 4cf9 7be9 e5bf dba6 461c d64c e4bf
000004c0: 70c7 d8a6 aaae cdbf b0bc f510 69eb ecbf
000004d0: 54a8 9196 8a4e df3f 538e c08d 19e3 01c0
000004e0: 1112 efd7 c27a ffbf b35e ca4c 8902 b0bf
000004f0: efb8 71ab b5c0 0740 c374 789a bc2c fabf
00000500: 30a2 214e 1722 fcbf 841f d401 9c92 f03f
00000510: dc4e d14b acf2 fe3f 5d3f 8686 3f0e ebbf
00000520: 2860 d0a9 dcc5 e1bf bae7 c484 5a97 0740
00000530: 4930 290b dff7 f53f bf13 6ab8 5c66 11c0
00000540: 15e1 1edc 18d1 d0bf 413d eded 6c5a ecbf
00000550: 9064 0a1e 773a 09c0 ebba 37e0 1a05 dc3f
00000560: 20a7 e2f3 40f8 fbbf 20b7 b127 6c27 ccbf
00000570: 45e3 11ff a8a5 bebf a393 5af5 68d6 d9bf
00000580: 9110 b872 83be e93f ceb3 0c41 a509 05c0
00000590: d58f 439c ab1f ca3f 5045 d622 3918 fb3f
000005a0: 4ca2 1117 92b3 e03f d4c4 4922 69c5 fd3f
000005b0: 1fc2 b43e 300c 1140 f773 06d9 860c f43f
000005c0: d6f6 2849 e59d e8bf da52 e22b d64e e5bf
000005d0: e4a4 80f5 d0c8 0140 e078 9a54 664d c4bf
000005e0: b17a 6ffd 6d3f da3f 527c 01ae 03fc fbbf
000005f0: 6a92 2b3d 34e0 fcbf 2a61 6aed b494 873f
00000600: 8031 9253 f2a1 f0bf 5075 5b80 9bd5 01c0
00000610: 695e 5ddc 94cd 09c0 3b4d d258 4a76 e13f
00000620: ef16 1141 0f00 fc3f 8287 4d5e 2fb7 fdbf
00000630: bdb6 5269 da68 0b40 393e 86d1 df1e f6bf
00000640: bcd7 f48c 914f f0bf 3e1b 19ca 717c e23f
00000650: 9b9d 8d37 821f e93f 9ce8 b85b 19b5 ebbf
00000660: a51f b6c8 d714 b8bf 817c 35e8 9cc4 ff3f
00000670: f60a dcb8 5e88 02c0 e17c a7a1 9881 f7bf
00000680: 53eb 8812 a064 00c0 3dcb de1e 2691 e53f
00000690: 9fc2 17e0 21ec 00c0 841b da1e 2a03 0640
000006a0: c4a6 0116 d0de f53f d2bc f296 dc14 fbbf
000006b0: 2c3b 650a c113 0bc0 efdf 75e1 846d e6bf
000006c0: 9ae9 cf25 ddd4 d6bf a3b4 3618 e1fc f53f
000006d0: a550 78bf 82d4 1140 7ddf b805 ec51 ff3f
000006e0: 79a2 e6bf 2492 f63f b63c e83e 75ad 07c0
000006f0: 5872 0712 c0af ec3f a008 29d9 d083 f43f
00000700: 6e4d 95d1 3ace 06c0 abe4 9c0d 8d05 f53f
00000710: 8d83 f01e bb41 d0bf 5a69 e456 2472 f03f
00000720: fa08 06e3 c6b3 02c0 c842 215e db2d 0540
00000730: 3fa0 06a8 301e 0640 6e1c 7426 07a6 f7bf
00000740: df55 20fc e050 f03f 1f26 9002 c36d 0940
00000750: f734 3499 0a14 0540 70a4 6adf 3018 0dc0
00000760: a339 7463 20a3 0740 117e 5a3f 39e3 ef3f
00000770: 639e 6f8f 9b1d b53f c1ed 4bf2 bba5 fdbf
00000780: 4d69 e5fc 8f8c e0bf 4c78 36f2 0413 fa3f
00000790: 3749 4272 92b5 f03f e718 6e29 3d82 e6bf
000007a0: be3f 5c84 904e e33f b63b 97f8 dc03 803f
000007b0: 757c 6f76 ceb1 db3f 3cb5 61ed 583d 0ac0
000007c0: 1a11 476f c90f 0040 3923 780d 88e6 f8bf
000007d0: 26c6 b659 a56a ffbf c908 6bcc fa1a 0a40
000007e0: a9d4 6405 192b debf 96f8 5104 8e1a f33f
000007f0: 0721 f29c 8b53 ed3f af13 ca0e fab3 f53f

lstm.bias_ih_l0 f8 [256]
1.959217369405224 -0.5217116602104283 1.8736761251943312 -1.3981197862152848 -0.3196242783903796 -0.6017674473461085 1.0229560114870881 -1.6468622837737323
1.887917928951603 0.4813972081816388 -0.22661072808758306 0.03658358816092013 -0.714176100660819 -0.9578578513650329 -2.0362362952423214 -0.7154056280999825
1.76074065119801 1.2124534620598855 -0.18449169259600914 0.7615866325157403 -3.7702874920319975 1.3414029310082498 0.15257609744347891 0.029978099468096417
1.7838586850517566 1.0738051029828826 0.522881408891326 2.3043971660549976 -0.7242125364427211 0.08674787555259456 -0.40534649966396663 -0.221446754851613
-1.3877773984623767 0.9851000882195415 -0.7572211333857416 0.8163469341946147 -0.27779209186380643 1.2318399666505917 1.035696112871057 0.1854670225319162
-1.8238442017520298 -1.5345593835446274 0.43549651289152125 -0.7426696256479842 0.3760840974016646 0.9035570653032384 1.5963281393663578 -1.7731910411100988
-2.7859166268088984 -0.3645562813308105 0.7959079493421131 -1.3763770990043915 -2.131041531788033 0.21663014361374433 -0.6615063746617152 -0.9372237771158126
1.2274510607034086 3.3989361479382163 -0.05477024221646294 -2.1577536418298817 1.1027191134800027 -0.1019535551744146 -0.1914827326531889 1.4702355052451466
0.1274857118087079 0.7103059193474953 -0.10255572714533445 -0.2894875589136839 2.0825459503957884 0.9848797853605593 -1.0002547652494134 1.169568726941762
0.45196561497052173 0.2802824313522591 1.3464371407162397 0.681441462359938 1.201843118856502 -0.9832929941602397 1.2150032946445026 -0.12335397013381558
-0.834209171997309 0.6557333255278078 -0.2894529297578174 -0.7485448846953193 -0.0025239758944434585 0.7062459457565138 1.8154829741911258 2.2020767834874437
-0.5328019159709468 -1.3238555921279498 0.19903992922879543 -0.7722343189167258 0.45139282942003994 0.49235365191794195 1.7369572131824527 -0.2679499855914822
0.42731461443681407 0.5026761962258476 -0.0735507234643079 1.1847444096017277 0.9783758395881359 -1.8506446912656385 0.5380074610835411 -0.4742260042275256
0.7967682669614347 -0.8063470999605366 0.3495404892395888 1.0016039810904238 0.2701735435448199 -0.6971118450590741 1.7692704144618832 0.5888740371496824
0.5309469363261868 1.2239758629767512 -0.18733078447514437 0.0715145310080849 -0.10485614406011878 -0.5990826047609694 0.9178503244791919 0.16628001704506903
0.11677018355532884 0.36454658027806264 -0.385674150933156 1.116499379309693 -0.6363636243528641 0.271752903106166 -0.8671440110990155 -0.938303533203156
-0.26707132326231153 -0.08350776907143023 0.8689865493811036 -0.486439047805356 -0.41724100995395147 1.0651721576965876 0.051027415656392926 -1.8569696184086564
0.7877590604549691 1.3478088960513772 -1.4081702662675182 0.8917303384719493 -0.5336828714138813 0.12403145188328767 -0.9138291925066581 -0.4455866600748161
0.26527819626806154 0.8625421111589456 -1.0115089930426224 -1.046029356121799 0.7097248371877347 -1.3678777252336185 1.0090709752971414 -0.8878816229318244
-0.4442154516077557 -0.1606371684868273 -0.7342982769042105 -2.0499289278105906 0.1360660318155644 -2.6516719236998703 0.8080951038784469 1.0830454004659718
-0.2133006051685061 2.1767529132118977 -0.8930050949843937 -0.7416099311020852 1.1128603280012457 2.323540195568694 -0.9636614989181831 -0.13545532027122267
-0.3447430424149299 -1.3314178447769178 1.0957330270108612 -1.790904091671055 0.5141785073568185 -1.6412459247129023 -0.9044438767612015 0.9686921567151718
-1.0842153146212368 -0.4856456338984927 -0.9021770188800634 0.02744521161882591 -0.19625579495671705 0.5694987659809629 0.9538278764299207 -1.041002603130864
1.0995824855421463 0.12178078481423839 -2.2113466164119884 0.6329321490715192 2.092049600230846 -0.363570411424311 -1.240002958162232 1.2470824360492545
-0.97944931031459 -1.38223194760231 -1.2161233174800172 -0.06374918513695649 -0.40425120725777763 -0.2437393763328487 1.2979329767274321 -0.7370537371847993
1.464938934196951 0.48498687871793583 -1.0194638275693324 -0.5023492448929626 1.263465493751154 -3.3576310116879418 1.2155182971315848 -0.7405144385876471
-1.0212136765628295 1.49589207031789 -0.5246677968514125 -1.163201247716243 0.3183770288374676 0.8260297894915836 0.3703712666329246 0.45358264218991673
0.578433758450098 0.5273729046972927 0.5928401397778886 -2.1351452442121643 -1.3214114319317853 -1.02847329972281 0.2684869707563761 -0.16316145330997048
-1.4524840277526385 0.7020860555276793 -0.20802977281652188 1.3696908433243105 1.9827343140003302 -1.7696747123961067 -0.9504772678110833 -0.6781021063498676
-1.5573922048636948 0.9786506955983798 0.9204852578608993 -0.15751694732517182 0.6663754792038106 -1.4018627818258418 0.8900772595489469 -0.29065112852215214
-0.28020901500927586 -0.027246532362958226 0.2711780906651517 -0.13083041291775524 -0.7087809290734688 0.3535345190502847 -0.06869529640571088 -0.7461467183650053
0.7748346447385402 -0.1304177920351776 0.024981359908668385 -0.9167458348584016 -0.7256043543531417 -0.4633599165885834 -1.0920039265610189 0.06684677009166128
00000000: 029c f54f f458 ff3f ff75 d1a6 dcb1 e0bf
00000010: 2917 10d1 93fa fd3f 6af6 5ada b25e f6bf
00000020: 156f ac63 b974 d4bf 1ac4 44ce ad41 e3bf
00000030: 9b56 691f 075e f03f 512f 1d44 8c59 fabf
00000040: 2611 266e e934 fe3f 66a7 613c 36cf de3f
00000050: 9f8a 0791 9401 cdbf 7366 7185 15bb a23f
00000060: 6589 7dd6 87da e6bf 748c 3a82 c5a6 eebf
00000070: a7f3 3741 364a 00c0 5a0a 0258 9ae4 e6bf
00000080: 9221 9a63 fe2b fc3f c881 f799 3566 f33f
00000090: 97b1 0a7d 6c9d c7bf 5e3a f7ed ea5e e83f
000000a0: c15c 167d 8c29 0ec0 0d06 77eb 6276 f53f
000000b0: 01e5 5512 9d87 c33f ac30 3f33 94b2 9e3f
000000c0: cab9 8f67 af8a fc3f 276e 7942 4e2e f13f
000000d0: 1ffd dbca 71bb e03f 419c 09c8 676f 0240
000000e0: 81fd ebc4 bf2c e7bf 70f1 7ed8 1b35 b63f
000000f0: 3cb5 e671 32f1 d9bf 0f4e f204 5e58 ccbf
00000100: c461 c812 5634 f6bf 9411 c69e f085 ef3f
00000110: 056b 77d0 273b e8bf 93c8 119b 831f ea3f
00000120: 551e 697b 58c7 d1bf 69b8 2ad3 9db5 f33f
00000130: 1b02 5616 3692 f03f e96a 2126 62bd c73f
00000140: 1963 f841 772e fdbf 6a81 e123 8e8d f8bf
00000150: 3608 19c4 2cdf db3f 3f80 3c17 f3c3 e7bf
00000160: 68b1 b808 c311 d83f 3782 b181 f0e9 ec3f
00000170: 6635 0460 8f8a f93f 8f0c b291 fd5e fcbf
00000180: 0037 0ca8 8e49 06c0 5080 77de e354 d7bf
00000190: 28a0 a1f2 1378 e93f d6fe 32fe a305 f6bf
000001a0: 2a94 ab80 5f0c 01c0 600c 135b 89ba cb3f
000001b0: 1990 a86a 0f2b e5bf 4ddf f7b7 bcfd edbf
000001c0: 1f96 32b9 a3a3 f33f e2b1 646f 0531 0b40
000001d0: ca37 3a5e d80a acbf b9df 6357 1443 01c0
000001e0: b021 11cc bca4 f13f ee5e 2fd1 a019 babf
000001f0: 8f40 3f95 8182 c8bf 9322 47aa 1586 f73f
00000200: bb7c 76a9 7351 c03f 2b16 b87a d3ba e63f
00000210: 6851 1b96 1741 babf 7585 88d3 f686 d2bf
00000220: ecef ead9 0da9 0040 eaae 939c 2284 ef3f
00000230: 55a1 0624 0b01 f0bf 413a 8ab2 8db6 f23f
00000240: 3bc1 cd2f 01ed dc3f cb48 13b9 25f0 d13f
00000250: 9def d7ab 018b f53f dd2d 5f53 5ece e53f
00000260: c194 a6d9 bf3a f33f 96bb 89de 2277 efbf
00000270: 7b7c 704b a770 f33f b276 8e33 2094 bfbf
00000280: c60d f86e d7b1 eabf 9741 8174 c4fb e43f
00000290: 33a3 c294 6586 d2bf f657 eb66 14f4 e7bf
000002a0: 5957 853d 29ad 64bf 3e9e fe18 9199 e63f
000002b0: fa87 09e0 370c fd3f 24e0 c26e da9d 0140
000002c0: 65ec 8a9a b60c e1bf 660f 8d33 832e f5bf
000002d0: e862 51f1 237a c93f d613 13bf 24b6 e8bf
000002e0: b782 00c0 9ee3 dc3f 4970 43e4 b882 df3f
000002f0: 0db8 92a5 93ca fb3f c40f 45b2 1726 d1bf
00000300: 4cf9 8665 1f59 db3f f390 e863 ec15 e03f
00000310: f757 e05f 38d4 b2bf 63bb d58d b6f4 f23f
00000320: 6248 47d9 da4e ef3f ec07 989b 3d9c fdbf
00000330: 1d73 4b6c 5b37 e13f 8e7a c406 b859 debf
00000340: f2e0 222a 207f e93f 21c2 f16e 98cd e9bf
00000350: 245c 7a12 df5e d63f 763a 65e5 9106 f03f
00000360: 663e 71f9 854a d13f aada 0580 bd4e e6bf
00000370: 744e 7e7e ee4e fc3f 1baf 605d 0ed8 e23f
00000380: f3d5 ed6d 84fd e03f a241 e9b6 6795 f33f
00000390: 1769 6d84 74fa c7bf 2f56 debb c64e b23f
000003a0: 20db 852d dad7 babf a0a0 6148 af2b e3bf
000003b0: 135b c8a4 075f ed3f 25ec 97e1 a948 c53f
000003c0: 369f 8497 a6e4 bd3f 3e6d 0a2e bb54 d73f
000003d0: 07e9 4aa2 e2ae d8bf 1b3b 0274 2edd f13f
000003e0: e2b4 5e3f 175d e4bf 4fc7 db49 6664 d13f
000003f0: 07f6 12cc a4bf ebbf 9285 9a21 9506 eebf
00000400: ce1b c751 b217 d1bf aaab 1fe1 c360 b5bf
00000410: ef2e 48e1 bcce eb3f 9191 743e d121 dfbf
00000420: c557 13a3 13b4 dabf 63aa def5 f10a f13f
00000430: 5320 e3f2 4320 aa3f 45b1 4bc6 25b6 fdbf
00000440: 5604 397d 5235 e93f c6c6 9c0f a090 f53f
00000450: ff18 8d8b dd87 f6bf 2ad1 1210 0e89 ec3f
00000460: 480e e519 ee13 e1bf 3f9d 8375 86c0 bf3f
00000470: 2547 feb7 163e edbf 7788 23e9 7d84 dcbf
00000480: 5d0b 5466 51fa d03f 0937 dbe9 f199 eb3f
00000490: b4a5 cb0d 242f f0bf 5e2f 3347 89bc f0bf
000004a0: f82a 9cdc 10b6 e63f 5ee2 ecc0 d3e2 f5bf
000004b0: 9de7 639b 2725 f03f 57c5 a6b8 8669 ecbf
000004c0: a51f 42a5 066e dcbf b823 963c c28f c4bf
000004d0: ef01 9a19 5f7f e7bf 1091 4023 4166 00c0
000004e0: af46 5f9a 9c6a c13f 4b19 00c5 9f36 05c0
000004f0: 9fe6 6643 eadb e93f 685a f169 2754 f13f
00000500: 0b37 b529 6f4d cbbf 1cbe 6d6e fd69 0140
00000510: acd1 c36b 7f93 ecbf d41c 0fc0 44bb e7bf
00000520: ba7f 9ca1 46ce f13f 9a45 f73d 9c96 0240
00000530: ee92 c8a3 50d6 eebf 6d2a 5195 9956 c1bf
00000540: c685 2c1f 4510 d6bf ec0a 4acc 7c4d f5bf
00000550: 2c8a c25a 1f88 f13f 0cff 7f0c 8ba7 fcbf
00000560: 8bea 2c7c 2674 e03f f45c 3516 8b42 fabf
00000570: d437 f848 34f1 ecbf c477 9fb1 86ff ee3f
00000580: d3ed 6128 f258 f1bf 8082 c26c d114 dfbf
00000590: 5d5d e956 a2de ecbf 32b0 56f9 981a 9c3f
000005a0: 9baa 7eee e81e c9bf dc04 e079 5539 e23f
000005b0: cdf2 e809 c285 ee3f 83f7 7758 f2a7 f0bf
000005c0: ce86 eacd e397 f13f 29f1 0e88 062d bf3f
000005d0: c3e0 ac7e d6b0 01c0 6a2c 1bec fa40 e43f
000005e0: 95cf 3480 84bc 0040 6415 b7d4 bc44 d7bf
000005f0: 2d00 8457 0dd7 f3bf 01f6 63b6 0cf4 f33f
00000600: 6a82 7c14 a657 efbf 4e03 273f 9f1d f6bf
00000610: d9ac 47b9 3d75 f3bf 2054 4fd9 dd51 b0bf
00000620: 629a a274 40df d9bf 346b 0c15 da32 cfbf
00000630: a61b 775e 55c4 f43f 2b4e 13b8 f195 e7bf
00000640: 4035 d0ce 6370 f73f 2f4a c567 060a df3f
00000650: 21d8 6d4d b94f f0bf c989 3fb9 3e13 e0bf
00000660: 3992 f497 2737 f43f 7ee1 d9a5 6ddc 0ac0
00000670: 91ea 5d50 c372 f33f 4f64 fe55 4bb2 e7bf
00000680: 5d0b f126 e456 f0bf f1c6 0586 2cef f73f
00000690: d1b7 971e 14ca e0bf f8b8 59e9 789c f2bf
000006a0: 83e4 a90b 4a60 d43f 726b 6c06 d66e ea3f
000006b0: a741 64af 29b4 d73f 284b 8f7d 7f07 dd3f
000006c0: d241 6e83 8782 e23f af15 4f24 3de0 e03f
000006d0: 6844 83e2 8bf8 e23f 37cf a007 c714 01c0
000006e0: 1e52 4b50 8024 f5bf 18e6 316b a074 f0bf
000006f0: 633f b3f9 e32e d13f 5d92 f778 79e2 c4bf
00000700: 1c8f 52e4 5f3d f7bf 3c02 ef2c 7d77 e63f
00000710: c7ae 6b37 b8a0 cabf 5156 1bf2 40ea f53f
00000720: 579d b49d 47b9 ff3f b0ca 646e 9650 fcbf
00000730: 94e1 9a4d 4f6a eebf 78e2 4330 03b3 e5bf
00000740: 5bf5 ae16 14eb f8bf a8af 7943 1b51 ef3f
00000750: 5ace de7f 9d74 ed3f 2fe7 a9ec 8329 c4bf
00000760: 9a2c 41ab f252 e53f c4be 16ab 076e f6bf
00000770: 0ba2 154e 837b ec3f aa14 e330 079a d2bf
00000780: f296 e0ca f1ee d1bf 3597 b6d5 83e6 9bbf
00000790: 6f1b b359 fb5a d13f 55e7 660c 0dbf c0bf
000007a0: f8c4 cc57 55ae e6bf f7fe 543f 4fa0 d63f
000007b0: 1599 73d3 0396 b1bf 49a7 2c15 6fe0 e7bf
000007c0: c1b6 5e06 72cb e83f 65c6 cdbb 87b1 c0bf
000007d0: ccf3 44af b694 993f efc0 6e5c fb55 edbf
000007e0: a505 799f 2638 e7bf c19d 015a b0a7 ddbf
000007f0: 3bee fa1b d978 f1bf ef0c 63b3 de1c b13f

lstm.bias_hh_l0 f8 [256]
1.945526197401478 -0.37384590286427427 1.8381820360677437 -1.5126170305733473 -0.16233638271090556 -0.6961271283563544 1.0610953398476455 -1.754445955581975
1.7427239647086683 0.45160857996108045 -0.05150684017197129 -0.02858953114564376 -0.7133664013638678 -0.7836044025210768 -1.8847721160841109 -0.8213569224029226
1.857065050311665 1.2264820559577048 -0.35804761808448127 0.7308043799656152 -3.7096942744206847 1.3176844547127784 0.14098533351697287 0.0294920384911143
1.8999511285179425 1.2003322931913156 0.4873403662058175 2.3479116412813994 -0.8940312358026162 0.03503019187968993 -0.3521666991535601 -0.20875302187469968
-1.4587904169512604 1.0648184991883227 -0.7546068736658929 0.8333720473003886 -0.29593334664648313 1.4521079926448925 0.8916370955704528 0.20559509384005215
-1.7838707788670891 -1.679517238888447 0.45907135689424483 -0.8945436016401869 0.3990174315138319 0.8641512127470098 1.6201301366703207 -1.6967019054871202
-2.91965092754151 -0.5652446732547145 0.7054091442960322 -1.2022328458696625 -2.3022957345115365 0.25731850931160494 -0.77338812250355 -0.9213342517022998
1.0902260586530084 3.2649810865025173 -0.13266065323578846 -2.1550248070816136 1.281863332044037 -0.08035856885487273 -0.17298094427542687 1.49892606689733
0.0042811825232769865 0.8110015740973653 -0.04041643955435425 -0.14440727562949648 2.096141740066732 0.9799489017145486 -1.083205342389268 1.1516769026963094
0.42269399743874536 0.23774152349245647 1.3326178932320325 0.7261832717280715 1.3544554026823774 -0.9605765464492484 1.2411556223012488 0.07449871591373838
-0.6786195914614208 0.6730618858801335 -0.09856109764455107 -0.7120863179104606 -0.07518981628178768 0.734146447842199 1.7559268923000662 2.2420987692567156
-0.47175209697833226 -1.3797454519235202 0.32198687704182954 -0.8807324451851125 0.5975111573953112 0.29869974056578413 1.615106007356647 -0.3116243353763335
0.4723518691279382 0.42997614277240226 0.10947389158505402 1.0922923305440333 1.0228696787328417 -1.6987404808173734 0.47743398751081 -0.47647953663719383
0.8384446839545759 -0.8009462336904712 0.18389128379334538 1.0261405162342767 0.43877153977971395 -0.7589971274563444 1.9659192654989086 0.523339907410874
0.5719455143977813 1.2254138250319575 -0.18029768971138857 0.101995243660291 -0.11758797930620492 -0.4130964435289744 0.9227016657267505 -0.03215901479430195
0.1281661297003866 0.4567470830313209 -0.32558071826828416 1.2176200747814563 -0.4915839421934407 0.17305667126412538 -0.8719604389258969 -0.8432979315586399
-0.32727484570608306 -0.00021480795082474304 0.7484941655434038 -0.6405589119115342 -0.6066285698446984 1.1266387025631488 0.17950597252780706 -1.9266973670410876
0.829461211753492 1.320922224269837 -1.3606158180205625 0.9216018171487452 -0.6067997401482406 -0.04075086360934278 -1.0659308582419043 -0.33439659433327734
0.262887558274249 0.7718510066276576 -0.9614729352127643 -1.1140772074458807 0.4917288061418208 -1.3632016812463443 1.1895590699846033 -1.0087085825418094
-0.28741053236489694 -0.1906783862907826 -0.8180832594662754 -2.174457067640229 0.001196053983724029 -2.541766799989237 0.9504350040144403 1.1435224486246172
-0.22042128895775925 2.053134146546438 -0.9642709414752539 -0.7822857053187373 0.9632996231739354 2.276097818955077 -0.9361040513655025 -0.06626218059894332
-0.3927523784096502 -1.1541330676124588 1.06378167405695 -1.7522174585610089 0.6035449731637792 -1.634298601032978 -0.7743781078040632 0.8668974072168055
-1.1235617860501088 -0.40755623277258507 -0.9896818677179151 0.1994405384954658 -0.086030892326865 0.5607022827026883 0.982060376387005 -0.890791850047635
0.9315927994106691 0.038804190246939665 -2.23596701529104 0.6215797739217922 2.082419233071003 -0.4556546404167728 -1.2447933089570242 1.211774969065459
-0.9798308545469585 -1.3498517988338856 -1.1111470657586355 -0.0910867809573834 -0.3954167558207813 -0.2263350137735302 1.3404247256564554 -0.7252882124398118
1.4879242882628463 0.5024677885423076 -0.9130482577870755 -0.5418796562556102 1.0956014095073792 -3.3291759330861046 1.2646817280607685 -0.7477760873617945
-0.9211509635358294 1.3186422959810744 -0.47174329793574077 -1.2298481216672004 0.5091204751875664 1.0112487793406744 0.43898993673885917 0.5920654512566896
0.5932420556073853 0.6994533023031888 0.6263012783839601 -2.153779071779264 -1.4710123102896726 -0.9863337099362802 0.2605419100263958 -0.1624636021289402
-1.466280565867186 0.6467597278461381 -0.18123568194947964 1.2673916299148864 1.8804348621723275 -1.7922031074528313 -0.9237591579649682 -0.7719700192383941
-1.6359294007846386 1.1967104440095575 0.7341459689109336 -0.11999701553195888 0.5696330429140236 -1.408406015816511 0.9554865026557889 -0.39101903223156403
-0.23190938949333836 -0.2088049476566519 0.3375242591832179 -0.2382430193954928 -0.8541343506423391 0.4000729912258828 -0.095968876837649 -0.8504301405966794
0.6204075335897055 -0.09277081294162606 -0.06224158876171869 -1.0519597016882734 -0.6176333864643102 -0.4239364508598238 -0.9229163079716182 0.030324262424119907
00000000: 029c f513 e020 ff3f f1eb a25d 17ed d7bf
00000010: 2617 1091 3169 fd3f 69f6 5aea ad33 f8bf
00000020: 24de 5847 70c7 c4bf 16c4 4466 ac46 e6bf
00000030: 9a56 691b 3ffa f03f 502f 1dec 3512 fcbf
00000040: 2811 2686 32e2 fb3f 63a7 61ac 27e7 dc3f
00000050: 332a 1ec4 1a5f aabf 9b32 1df5 9246 9dbf
00000060: 6589 7dc6 e5d3 e6bf 738c 3a8a 4913 e9bf
00000070: 4fe7 6fce 0628 febf 570a 0250 8e48 eabf
00000080: 9221 9ad7 89b6 fd3f c781 f7a5 ab9f f33f
00000090: ce58 858e 40ea d6bf 5e3a f7dd bf62 e73f
000000a0: c15c 1631 74ad 0dc0 0c06 774b 3c15 f53f
000000b0: 01e5 55b2 ce0b c23f ac30 3f33 2933 9e3f
000000c0: c7b9 8f27 3366 fe3f 1e6e 79a2 8f34 f33f
000000d0: 43fa b7a5 9530 df3f 409c 09e6 85c8 0240
000000e0: 8dfd eb64 e79b ecbf 11e3 fd30 7aef a13f
000000f0: 3bb5 e631 e689 d6bf 144e f244 6bb8 cabf
00000100: c361 c89e 3457 f7bf cd08 631f 7f09 f13f
00000110: 046b 7750 bd25 e8bf 93c8 11db fbaa ea3f
00000120: 551e 696b 92f0 d2bf 69b8 2a97 d53b f73f
00000130: 4504 ac84 4a88 ec3f e86a 21a6 f050 ca3f
00000140: 1b63 f815 bc8a fcbf 6e81 e177 4ddf fabf
00000150: 3408 19d4 6c61 dd3f 3e80 3ce7 19a0 ecbf
00000160: 67b1 b868 8089 d93f 3782 b171 20a7 eb3f
00000170: 6735 0494 0dec f93f 8d0c b2e5 b025 fbbf
00000180: fe36 0cf2 715b 07c0 24c0 3bff 7b16 e2bf
00000190: 2ea0 a132 b692 e63f cffe 3282 583c f3bf
000001a0: 2b94 ab06 1a6b 02c0 2e86 890d e877 d03f
000001b0: 1790 a872 98bf e8bf 50df f7f7 917b edbf
000001c0: 1d96 32e1 9071 f13f e3b1 6467 ae1e 0a40
000001d0: fc8d 8e37 06fb c0bf b9df 63a5 7d3d 01c0
000001e0: b321 1120 8382 f43f f35e 2f11 6192 b4bf
000001f0: 8840 3f55 3d24 c6bf 9322 47e6 99fb f73f
00000200: 5197 cf2e 2589 713f 2816 b892 b9f3 e93f
00000210: ffa2 36ac 76b1 a4bf e70a 1107 f07b c2bf
00000220: ebef eaf5 e5c4 0040 f0ae 93cc bd5b ef3f
00000230: 56a1 0620 cf54 f1bf 423a 8ac2 446d f23f
00000240: 3cc1 cd1f 6b0d db3f 8891 2672 506e ce3f
00000250: 9def d723 6752 f53f dd2d 5fb3 e43c e73f
00000260: c694 a66d d9ab f53f 92bb 8906 0bbd eebf
00000270: 7c7c 70ff c5db f33f 4a89 710c 5912 b33f
00000280: ca0d f86e 40b7 e5bf 9941 8114 b989 e53f
00000290: b48c 0ad3 4c3b b9bf f657 eb3e 69c9 e6bf
000002a0: b12a ecc9 a33f b3bf 399e feb0 207e e73f
000002b0: fb87 09cc 4618 fc3f 24e0 c27a d1ef 0140
000002c0: cdd8 15b5 2f31 debf 660f 8df7 6f13 f6bf
000002d0: 75b1 a8d8 6e9b d43f d513 13cf f52e ecbf
000002e0: 4b41 00b8 cf1e e33f 4570 4384 e51d d33f
000002f0: 0db8 9265 79d7 f93f c80f 4532 a7f1 d3bf
00000300: 4ff9 8655 033b de3f e821 d1a7 ba84 db3f
00000310: f6a7 1f20 7b06 bc3f 5fbb d585 077a f13f
00000320: 2da4 a398 ac5d f03f ec07 987f 0a2e fbbf
00000330: 38e6 9648 478e de3f 937a c406 a47e debf
00000340: f3e0 22f2 89d4 ea3f 21c2 f1fe 59a1 e9bf
00000350: 43b8 f4e4 bf89 c73f 793a 6551 126b f03f
00000360: 6a3e 7139 d514 dc3f abda 0558 b449 e8bf
00000370: 744e 7ec2 6774 ff3f 14af 6055 33bf e03f
00000380: f5d5 edad 604d e23f a241 e986 4b9b f33f
00000390: 1769 6da4 fe13 c7bf 1856 de3b 5c1c ba3f
000003a0: 21db 85ed 3e1a bebf 3941 c310 2c70 dabf
000003b0: 135b c8a4 c586 ed3f 914f a079 2577 a0bf
000003c0: 9e4f c26b bf67 c03f 476d 0a1e 583b dd3f
000003d0: fce8 4a82 50d6 d4bf 1a3b 0230 5f7b f33f
000003e0: cc69 bd7e 1c76 dfbf ac8e b793 b826 c63f
000003f0: 07f6 1294 19e7 ebbf 9185 9af1 4bfc eabf
00000400: d11b c731 12f2 d4bf 0b51 573f c227 2cbf
00000410: ef2e 4809 aaf3 e73f c848 3a67 757f e4bf
00000420: e1ab 8951 8069 e3bf 60aa de4d b606 f23f
00000430: 13c8 b83c 0dfa c63f 46b1 4b9e c0d3 febf
00000440: 5504 393d f28a ea3f c5c6 9c57 7f22 f53f
00000450: 0019 8d17 15c5 f5bf 2ad1 1218 c37d ed3f
00000460: 440e e549 e76a e3bf c2c5 f814 4cdd a4bf
00000470: 9923 ff83 0d0e f1bf 7b88 23f9 c066 d5bf
00000480: 5d0b 5456 26d3 d03f 0a37 dbe1 00b3 e83f
00000490: 5d4b 97e3 62c4 eebf 5f2f 339f 42d3 f1bf
000004a0: ec55 3819 7c78 df3f 5ee2 ec90 accf f5bf
000004b0: 9de7 6317 6f08 f33f aa62 539c ab23 f0bf
000004c0: a71f 4225 ef64 d2bf c023 963c 2668 c8bf
000004d0: ed01 9af1 bc2d eabf 1691 40bf 4965 01c0
000004e0: 235a a32f 9d98 533f 4919 00d5 8955 04c0
000004f0: 9ae6 66ab f669 ee3f 675a f131 de4b f23f
00000500: 0837 b5c9 c336 ccbf 1abe 6d98 d16c 0040
00000510: aed1 c3bb 4edb eebf d61c 0f08 7c08 e9bf
00000520: 65ff 38bb 59d3 ee3f 9a45 f7c5 7235 0240
00000530: f192 c87b 90f4 edbf da54 a2ea 8ef6 b0bf
00000540: c385 2cdf da22 d9bf ed0a 4a3c 5477 f2bf
00000550: 2a8a c2ee 3f05 f13f 0dff 7f2c 1509 fcbf
00000560: 88ea 2c8c 3d50 e33f f35c 354a 1626 fabf
00000570: d237 f898 b4c7 e8bf cd77 9fa1 9fbd eb3f
00000580: d7ed 61ec 1bfa f1bf 8582 c2bc 6615 dabf
00000590: 565d e94e 79ab efbf f7d5 2a7f 4487 c93f
000005a0: 4855 fddc 1e06 b6bf db04 e0e9 45f1 e13f
000005b0: caf2 e8e1 096d ef3f 07ef efe8 5d81 ecbf
000005c0: 9d0d d5b3 9bcf ed3f 6ae2 1d90 24de a33f
000005d0: c4e0 acac 42e3 01c0 692c 1b44 fbe3 e33f
000005e0: 96cf 346a cba8 0040 5d15 b714 7229 ddbf
000005f0: 2d00 8463 acea f3bf fff5 6326 6e63 f33f
00000600: 6a82 7c3c c65a efbf 5103 2733 fe98 f5bf
00000610: dbac 4725 42c7 f1bf 1e54 4f99 7651 b7bf
00000620: 649a a214 824e d9bf 366b 0cb5 8bf8 ccbf
00000630: a41b 7732 6172 f53f 2b4e 13a0 8f35 e7bf
00000640: 4135 d0b2 89ce f73f 1ba5 e253 3714 e03f
00000650: 44b0 dbfa b037 edbf c589 3f01 1457 e1bf
00000660: 3792 f457 9587 f13f 7ee1 d9fd 26a2 0ac0
00000670: 90ea 5de8 223c f43f 5264 fe1d c8ed e7bf
00000680: bd16 e295 117a edbf eec6 05aa 2819 f53f
00000690: ac6f 2fcd 0a31 debf f4b8 5939 75ad f3bf
000006a0: 4cf2 d405 b74a e03f ba35 3633 132e f03f
000006b0: af41 643f 6918 dc3f 98a5 c73e 33f2 e23f
000006c0: cf41 6ec3 d6fb e23f b015 4fe4 eb61 e63f
000006d0: 6844 83fa a80a e43f 35cf a085 f03a 01c0
000006e0: 1e52 4b34 4489 f7bf 2dcc 63b6 0b90 efbf
000006f0: 663f b3f9 b7ac d03f 5d92 f778 9bcb c4bf
00000700: 1b8f 529c e275 f7bf 3e02 ef74 41b2 e43f
00000710: d2ae 6b17 bb32 c7bf 5056 1b72 3c47 f43f
00000720: 589d b4dd 4216 fe3f b0ca 642a ddac fcbf
00000730: 94e1 9a5d 6f8f edbf 75e2 4378 fab3 e8bf
00000740: 59f5 ae4e c42c fabf d0d7 bcd9 b925 f33f
00000750: 61ce deaf 1f7e e73f 5ace 53d9 1fb8 bebf
00000760: 9d2c 4113 6f3a e23f c4be 16bf d488 f6bf
00000770: 0ba2 156e 5893 ee3f af14 e3b0 7406 d9bf
00000780: ef2d c1f5 34af cdbf ebd2 b6da 1eba cabf
00000790: 6b1b b359 ff99 d53f 5ae7 664c bf7e cebf
000007a0: f6c4 cc8f 1155 ebbf f6fe 54bf cb9a d93f
000007b0: 1199 7393 6a91 b8bf 48a7 2c45 b936 ebbf
000007c0: bcb6 5ee6 60da e33f d28c 9bf7 d3bf b7bf
000007d0: fe85 5d28 21de afbf 7660 37b2 d3d4 f0bf
000007e0: aa05 7917 a7c3 e3bf c49d 015a c621 dbbf
000007f0: 7bdc f5c7 8788 edbf e333 8ccd 520d 9f3f
