AIModels/with_0.1_0.5_2_scheduler/model_92_50epoches.pth (torch, 388003 bytes, 10 tensors)

lstm.weight_ih_l0 f8 [256, 28]
00000000: 8775 e051 cbbe da3f a6a0 715e a264 dd3f
00000010: ac35 bafb cfdb df3f 91de 9f47 2246 e03f
00000020: 998d 59cf 6f55 e03f 1963 0dc3 56ab e03f
00000030: 9b36 d1b2 b8e8 e23f afac 055f 4df3 e23f
00000040: 4acb 002d 3264 e03f d46c 7f5a 6f74 e33f
00000050: 0631 2c2f 3e88 e83f d075 c3e9 66be e93f
00000060: 83ca b786 aaac f03f 3037 7b7a a6b0 e93f
00000070: 9f2d f334 4bb1 ee3f b09a 1e28 5720 f03f
00000080: 2d50 15dc 9291 ed3f 4dc6 bb7c ae67 e83f
00000090: 9976 a0dd 691b f03f bde2 16d0 d3b2 e63f
000000a0: 298f 77bb 1073 e93f b20a 19e4 1bdb e23f
000000b0: 7494 5364 d57d df3f 4233 8ecb 82d3 d83f
000000c0: 35ff cbb6 9953 d63f d4f7 3fa2 5f5d b73f
000000d0: b7af dfa0 e3e6 b93f 90fe b5bd b692 c13f
000000e0: a755 260e 355b fdbf 67e4 7176 072d fabf
000000f0: 6db5 7585 4874 f9bf 1727 4fe0 e1db f4bf
00000100: 1fed 1fa9 5e1f f3bf 9434 41d5 d047 ebbf
00000110: b7ad 25a5 5e20 e6bf 8d1a 3577 584c e6bf
00000120: 3562 8ffb b1e7 e8bf 6638 3035 d9bb e4bf
00000130: 29f2 22a3 1fd3 e9bf 7666 e6f4 08e0 dcbf
00000140: 2fa1 9272 4db0 c0bf 3ab5 cda7 a7c2 cebf
00000150: 4a77 9330 9b5d c0bf 0517 8ba1 b423 5a3f
00000160: 3651 3a02 453a b73f ace2 7a8d 090d 9c3f
00000170: 880b 9f64 4799 9f3f 07fc a69b e7e8 cd3f
00000180: 912a cf61 dde6 c33f 66ad 3866 3c8c ae3f
00000190: f0e5 3ecf 42b7 e33f 27b4 19c3 f077 c83f
000001a0: 0b3b 369c 1f06 d53f f09d 2bda afef b0bf
000001b0: 4f66 10b1 1f86 b73f a38e 7005 3f4b d83f
000001c0: b13f e750 397e f0bf c1c0 2937 1ca0 e9bf
000001d0: d8f6 5e1d 9213 edbf 197e 73b6 d81d e6bf
000001e0: eb32 76f5 1e86 eebf d991 fbf3 78c5 e4bf
000001f0: 8944 3851 c629 efbf f205 d4de c459 e8bf
00000200: c137 6470 36b8 e3bf 0f51 2b3a 4e80 eabf
00000210: e0ef 97db bc70 ebbf 9867 18d0 dfb3 edbf
00000220: 4269 4f7f 9c84 f0bf fc7b 7425 20bd efbf
00000230: c449 b2d0 6982 f2bf d65c 475a 0f5a f2bf
00000240: 2886 c198 d43b efbf 862f 7985 948d f1bf
00000250: bd3f 9dbe 21e8 f3bf 37ab 391c 0dc3 f3bf
00000260: cf40 77f5 5e73 f7bf d662 39b1 6e0c f1bf
00000270: f933 3404 761f eabf 0d1a 5a21 ee5a e0bf
00000280: b521 5722 6d90 e2bf 7ce7 ab69 1345 c3bf
00000290: 7f88 a79f 0ed4 b83f 7957 ad88 4f9c d03f
000002a0: 6253 dd93 b8dc c9bf c14d df33 c961 dcbf
000002b0: f81b 43b5 2965 d03f 3813 d96c 2271 cd3f
000002c0: 03d6 22cf 6910 c83f 2813 efd4 12cb e4bf
000002d0: 2d5a aa6d 90ec f7bf 498b 256e ac2a eabf
000002e0: 6fc3 cf02 a994 dfbf 3324 a4ac 9644 dbbf
000002f0: 3dbc b36f 8f14 f0bf ba46 978f 49be d5bf
00000300: 28dd 8075 5d51 f4bf 6196 9c6e 00f0 fdbf
00000310: 296f 7066 9976 f8bf 12f1 560c 91c9 f8bf
00000320: 7ffd 7c1f fb87 ebbf 0882 6c99 8be7 ebbf
00000330: 2b12 93e4 a1ce eabf 88e1 76fd b221 bdbf
00000340: 90d3 a1d5 31d5 dfbf 2677 6914 18d9 c4bf
00000350: 20c4 226c 1cfb f1bf 0735 ffb6 86d3 e3bf
00000360: 3227 ba16 1cbb f2bf 43e9 79fb 7fc2 fcbf
00000370: 38cc 3f42 a5bf 02c0 6eb0 41e1 8c14 07c0
00000380: 2aa6 5728 b598 0c40 d413 9f3c 305f 0740
00000390: 4476 0e9d 84fd 0240 4619 6b20 c7f3 f33f
000003a0: 38f5 a8b9 15b8 c1bf e187 d085 7fe3 d53f
000003b0: 6d79 b816 a4a2 e73f d460 adc3 01d1 e93f
000003c0: 1070 e3f4 51dd d2bf e5e7 ec56 2bc3 d93f
000003d0: 5309 e8dc 05ea d83f b6b6 8f2f 070f fa3f
000003e0: 6252 b47b 329d f53f c139 0845 f0e5 f83f
000003f0: b93a df09 7ca3 f23f 8d81 4bb2 b4be f03f
00000400: c8a7 c86a e255 f23f 02c5 a827 4b11 f43f
00000410: 94ac 842e db6d fd3f a1a7 ac6f 16a2 df3f
00000420: 9770 22af ce2e ef3f 84f7 f6ac 9a3a d13f
00000430: 003d 6fba 7475 e53f efcc 7036 140a eb3f
00000440: d150 1f9c 80c9 f23f a1fe 255e da22 0140
00000450: 142c ff23 7012 0140 38d2 dd85 361d 0740
00000460: 2339 fc1a 9e06 d03f 23cb 0008 0775 c03f
00000470: 8fb6 ec36 f67e b0bf 2fc9 e19b ee51 943f
00000480: 3345 3d10 be1a 8ebf 1105 5030 74eb cb3f
00000490: 29da c595 7cc0 903f 2ec2 f9d8 b657 c63f
000004a0: f8ca 7b4b 2815 db3f c371 32df cd4b d33f
000004b0: 3b5b 4d69 9eac ea3f 4760 56cc 4918 e13f
000004c0: afdf ac9f d7bf f23f 8c3f cfb8 5789 e73f
000004d0: 5b36 e2e1 0b57 f03f edab 2b07 0af3 ed3f
000004e0: c118 727d f79c ed3f 5225 543b b5f7 f03f
000004f0: 41ec aff8 670b f23f fdaf fea6 d2de eb3f
00000500: 98eb 95d4 0a37 ed3f 32fb 60d2 9dfe e43f
00000510: d131 fa48 7c24 e63f b509 1afd aa10 e53f
00000520: 69f2 e9f8 ca1e f13f 42b3 333b ae3c f23f
00000530: beba b5e5 0d59 f13f 1488 ee90 e930 ec3f
00000540: 9389 d8cf 41c8 f4bf 6dbc 04e7 c642 f7bf
00000550: 68c8 fd7a 36ae f5bf aefc abd7 21a4 f1bf
00000560: 145f 3997 f11d f0bf cc55 4886 fbeb eebf
00000570: f3f3 4876 7d28 f3bf 6b02 7742 ba43 f4bf
00000580: f621 a651 4403 eebf 6b21 7416 9d71 e3bf
00000590: c119 297e 8da0 e1bf f8b7 d08f 5514 d4bf
000005a0: 7665 cd1f b932 c8bf 456c dab5 ebf2 b23f
000005b0: 80e7 b2d9 5207 c6bf 398b 4d1f 3f35 c5bf
000005c0: 9456 1d0f 9d7f d0bf 68ee 8a87 7f45 cdbf
000005d0: 405d 49c6 d935 a93f 3bc8 29b6 ee1a d5bf
000005e0: 0a29 4624 9bd3 cfbf 307a bcef f5d0 e2bf
000005f0: f6fa 2f4f 76c2 ccbf 2493 f7d1 fcf5 cabf
00000600: 76d5 027d 2294 b4bf ada2 0e6d fbad ab3f
00000610: 3f1c 1dc0 e9cb e23f 237c a061 80a3 d83f
00000620: 1260 0750 8ac6 ddbf b455 8ec7 2c03 e9bf
00000630: 42b2 b45a 99f0 e0bf 431f 50fb 16e0 e4bf
00000640: 0df9 537d 8369 dcbf a7fc 6cbf b859 d5bf
00000650: 7255 59e4 211b d7bf 2b13 9344 f7fa e5bf
00000660: 0a09 5cdb 03c7 e0bf 097f 5bb6 9086 d8bf
00000670: 5def 61af a10b dfbf 7a69 c1ed bc6b dfbf
00000680: b9be 5fbb fbf3 d5bf 4a8f d2b9 7808 dabf
00000690: 3c50 dc6e 20cf bbbf de2d 818f 2a0b dfbf
000006a0: 2161 f052 582f e1bf 3a82 cf89 37d1 e2bf
000006b0: 1e86 1219 cf5c cabf 534a 5678 cd54 dabf
000006c0: 6b48 1bd5 c738 c9bf 9eed 7dc9 a5c0 e3bf
000006d0: deac 92b6 ab3f e1bf 2ba4 69fc 8d62 e3bf
000006e0: 50c2 c9bf 2c4f cabf e88c 9298 2149 d1bf
000006f0: be4f 16ab 7df8 cebf f855 3ace 0526 d4bf
00000700: d4aa 924c f6ce f73f e319 1171 5085 f63f
00000710: 935d 6ed1 64a7 f13f 5145 bab7 00ca f23f
00000720: e832 701b 67eb ee3f 9dfb f400 f0dd f13f
00000730: 878f 6b9d 2e42 ef3f 54a4 61a3 a3c4 f43f
00000740: 57a5 8dd7 d7b4 f03f 7e53 af94 f221 ed3f
00000750: 767c a307 ca6b e43f 08c8 312f 444d e93f
00000760: dca6 3626 42af e33f 24cf b34a 4fae d43f
00000770: b408 ef9f 637c e53f 172d 209e f43b e33f
00000780: bf1f 68aa a9c7 e63f eef7 899e f5ec e23f
00000790: 7055 c70b 3baa c43f c76d 0367 893c c43f
000007a0: 8d11 f147 357f cabf 21d3 8c25 8628 ccbf
000007b0: a7fb cfda 80db d1bf 27a7 7114 20e9 c9bf
000007c0: 046d e31a 8e7e c03f 5f85 eaaf 332f b33f
000007d0: c427 f9c1 9b8a c13f 55c2 05a6 d4b1 ec3f
000007e0: 86b3 c068 5881 c0bf e5d4 7965 87c8 c63f
000007f0: 2781 7cc5 503a d03f d393 a392 af27 d1bf
0.4178951549127636 0.459267227392511 0.49779128630401703 0.5085612677493875 0.5104292917061911 0.5209153947463135 0.5909083836101731 0.5921999793912586
0.5122309569327197 0.6079632537397637 0.7666312142696661 0.8044924321836167 1.042154813997201 0.8028137581074812 0.9591423067262673 1.0078956191224897
0.9240202234746043 0.762656444187266 1.0066927583024265 0.7093295158620873 0.795296064516582 0.5892466979060684 0.492055271124918 0.38790960195983726
0.3488525662541975 0.09126851760080906 0.10117933919508358 0.1372898508379774 -1.8347673943256753 -1.6359934450868197 -1.5908894742272779 -1.3036822092130416
-1.1951586347993908 -0.8525165715342546 -0.6914513803034684 -0.696819527461075 -0.7782831109316876 -0.6479307211718719 -0.8070219217548288 -0.4511740104295322
-0.1303803262173999 -0.24031539624722048 -0.1278566348254862 0.00159542693852316 0.090732873004815 0.027393483410124972 0.030858150021014136 0.23367018795212877
0.15548293376771885 0.05966366527385496 0.6161207244651319 0.191160292877073 0.3284987473970637 -0.06615733219552289 0.09189031670430235 0.3795926621553269
-1.0308163795743719 -0.8007947041897056 -0.9086390088702627 -0.6911433757304081 -0.9538721841978178 -0.6491055264746662 -0.9738494478534828 -0.7609581329454029
-0.6162368960519801 -0.8281623016469285 -0.8575119294105171 -0.9282073082315376 -1.0323758099608118 -0.991836617616968 -1.1568391945080387 -1.146987297679336
-0.9760535224451745 -1.097065469150921 -1.244172806345872 -1.2351199247884332 -1.4656667316922272 -1.0655352518862649 -0.8163404543025755 -0.5110998774915189
-0.5801301642141455 -0.15054552707425362 0.09698573491871974 0.25954044673323257 -0.2020483705515757 -0.44346838060047494 0.2561744947565212 0.230015090130246
0.1880008946806556 -0.6497892531266176 -1.4952549251371565 -0.8177091742803465 -0.4934484984833522 -0.426061314196491 -1.0050196040499622 -0.33973921797324247
-1.2698645200706071 -1.8710941620605797 -1.5289548875361538 -1.5492105943695305 -0.8603492369656321 -0.8720148083266972 -0.8377236809106469 -0.11379545868010699
-0.49738736975205544 -0.16287518498114045 -1.1238064025931251 -0.6195710729749927 -1.1706810844211302 -1.7974853347100896 -2.3435769248694918 -2.8850343321010348
3.574564280676687 2.921478723148974 2.373788096431584 1.247016073831746 -0.13843032422475132 0.34201038425282887 0.7386036342393659 0.806763536626955
-0.2947583095062791 0.4025371884232512 0.3892836243905055 1.6286689622751687 1.3508782226755547 1.5561373421256663 1.1649132142662622 1.046559044327384
1.1459678813211998 1.2542220639409725 1.8393203560943094 0.4942680445261605 0.9744637890430735 0.26920191660962467 0.6705878869342143 0.8449803412717339
1.1741949175384898 2.142018065962319 2.1340029537436838 2.889264150459237 0.2504039062049676 0.12857139483238553 -0.06443728295263383 0.019843796028404966
-0.014699444647393456 0.21812298163425983 0.016359278336915892 0.1745518264247194 0.4231663453239629 0.30150172039591555 0.8335716301615784 0.534214877220628
1.1718364941898292 0.7355154618799005 1.0212515662746202 0.9359178676653507 0.9254109811888825 1.0604755704428794 1.1277847017615985 0.8709500562304126
0.9129690315306673 0.6560811146699506 0.6919537949884732 0.6582846587555681 1.0700177882382838 1.1398145973755196 1.0842417691271033 0.8809707480143083
-1.298890888116692 -1.4538029693756258 -1.3550324253415287 -1.1025713371925963 -1.0073104769889527 -0.9663064596849664 -1.1973852749354108 -1.2665350528988266
-0.9378987879472891 -0.607618850569492 -0.5508487190316417 -0.31374110264266575 -0.18904794743393055 0.07401917638564821 -0.17209849958254253 -0.16568745640241803
-0.2577889106372393 -0.22868341558738625 0.049238973097710304 -0.32976882733703733 -0.24864520331568257 -0.5880078966473032 -0.22468451372693438 -0.21063194515513672
-0.08038535644558018 0.054061753332751074 0.5873917343350356 0.38497933896900544 -0.4652429372340531 -0.7816375634744674 -0.5293700000380073 -0.652354708524378
-0.4439400409609256 -0.33360117620390856 -0.36103102969840173 -0.6868854846330569 -0.5242938312879073 -0.38321321304646055 -0.4850849354477214 -0.4909508058387001
-0.34301656053774426 -0.4067670645401803 -0.108629252496315 -0.4850565339481515 -0.5370294208433145 -0.5880391780484111 -0.20595730518566396 -0.41142594100634716
-0.19704530625910208 -0.6172665534390267 -0.5390223089101729 -0.6057805948195257 -0.20554122318891865 -0.270088576313539 -0.24195834020485835 -0.31482072009507034
1.4880278578881887 1.4075474182769703 1.1033676319983428 1.174317090688721 0.966235688772568 1.1166839635259074 0.9768288683521725 1.2980076200567696
1.04415115547666 0.9103939918519328 0.6381578587714916 0.790681926895787 0.6151438471181012 0.3231390218272614 0.6714342235284421 0.6010687912361473
0.7118728950745136 0.5914257141555461 0.16144502711419362 0.15809743432951803 -0.20700708401467374 -0.2199866946554261 -0.2790224205818341 -0.20242691992034986
0.12886215508374488 0.07493899388147927 0.13704249354696973 0.8967078440310369 -0.1289473067749009 0.1779946561324898 0.25355929647232006 -0.2680472309132799

lstm.weight_hh_l0 f8 [256, 64]
00000000: eb58 533a 1d13 cbbf 3743 c6b8 a532 d1bf
00000010: 1abb 3ea2 3621 02c0 85f3 fe49 1279 973f
00000020: aa77 5758 3682 fd3f 567c d903 f95e 783f
00000030: 7f7f 8bd6 afb8 ffbf 8ae8 2b18 ce0f d63f
00000040: d5a4 73d6 c988 f7bf 6cc9 c070 30ae acbf
00000050: bb2b 5140 7c03 ee3f 7b69 69ce 14a2 cd3f
00000060: 610f 71e2 0d69 e83f 4468 8fa7 aa91 08c0
00000070: 51d7 af26 75ec f23f 7d99 48b6 4fb3 f33f
00000080: 0e75 38c1 e593 b23f 19c4 95ab 8655 fabf
00000090: 54d5 091f cfa7 e2bf 09a0 388e 74d6 f93f
000000a0: 9d96 84a3 6a17 ee3f f20a f94f 73d2 f23f
000000b0: ba89 a782 174f f2bf f8cb 9292 0822 f63f
000000c0: 5313 de13 5797 eb3f 6216 091a 0902 e53f
000000d0: 6312 769c 0a71 0840 8563 156e ac83 d33f
000000e0: 49c6 eee2 6a07 f0bf dcda 95c6 6a40 0c40
000000f0: 5121 effd 52c3 ccbf 8993 a50e 4d89 f5bf
00000100: ca60 39a4 4ab9 f73f d802 eb0e 550f d7bf
00000110: 96fa 663b 285d debf 5b02 912d 24ea 84bf
00000120: 1734 0027 9609 fbbf c80a 3a0c ce2f f4bf
00000130: f735 c56d c1c9 f3bf 18e5 52b9 1496 e5bf
00000140: b9a2 096a 2a7a 03c0 d7a1 440d 3046 d83f
00000150: 51b7 a155 b8db f43f 4b42 32cb eea5 c63f
00000160: 1489 a135 ae87 f43f d653 ba5a ff8e f2bf
00000170: b83c 857c 96d8 0040 c905 b750 c2c6 f2bf
00000180: e5c9 60b1 14ef 07c0 31ff 0109 a06c fd3f
00000190: df5e f7b0 8e79 10c0 c611 27c9 21fb e23f
000001a0: 0418 daf2 c473 01c0 2de9 445d b7ba f93f
000001b0: 9424 2c2e d529 fbbf 0634 1a02 fe4a 05c0
000001c0: d028 6885 00e7 c3bf 7f8e 1d4a d8df f9bf
000001d0: f3a1 d194 66d5 0ac0 4c3b e782 5747 fb3f
000001e0: 0cd6 9570 76ac f63f 3a44 b240 6286 ffbf
000001f0: c151 2644 b0f6 fcbf 16c8 3ca1 916e 0ac0
00000200: 4a76 62ca f8a2 ee3f 7c50 068d a344 e5bf
00000210: 52d2 d07d 85c9 f7bf 5002 9e2f 053b febf
00000220: b8ed e9b3 0173 c1bf 9082 00a7 9e98 cf3f
00000230: c38d be5e 523d 94bf 05a8 5f17 9199 02c0
00000240: 6ba3 f4df 049d e7bf da15 cc5c f408 05c0
00000250: 2faa 7954 f97a 953f 0e03 6290 7e16 e4bf
00000260: aca7 5923 581e f2bf 6803 d736 3965 a53f
00000270: 0b92 4e3d d1e1 fc3f 09b1 286e 6906 dcbf
00000280: 28f3 f87a 6802 edbf 868d e2f2 e042 00c0
00000290: ef1f 58fb 6aca 0e40 01de f027 6427 0440
000002a0: 9128 d177 ed41 ea3f a913 51ba 7b9c 0640
000002b0: b659 913c abc9 01c0 0ec1 f941 4d09 0040
000002c0: 0620 82ed ec97 0d40 26f6 3b2f 2e42 f53f
000002d0: 84ae dead 6ad2 0240 b0fc 6d26 cede 11c0
000002e0: 9e81 699f 4f54 ea3f 39fb 62e5 dc93 10c0
000002f0: 1ee8 5cd4 c4f3 f53f e583 318c 0334 f23f
00000300: c1f8 4787 246f c2bf 9fa8 3522 d088 e0bf
00000310: 1d82 3e30 5f1e f7bf 78c1 0409 726f d7bf
00000320: b73e feba 1940 e33f b151 4922 af32 0240
00000330: 74f4 f1bd 3354 fbbf 9d0e c3a8 1986 00c0
00000340: 1725 e904 4569 00c0 1a71 b51d b3de ea3f
00000350: ab06 513a 1dc8 0840 f75d 4e05 8784 1640
00000360: 0b73 59fd 7f0d 01c0 95aa 94b6 208e e13f
00000370: 5f1d 073e 21a5 eebf ba25 44f9 0899 e83f
00000380: 70e5 5b50 f0e6 0bc0 d1be a5bc 5380 e53f
00000390: 4dbe ad81 b831 0fc0 f040 348b 614d f73f
000003a0: e092 b956 6032 fabf 25da 6bb3 dc27 e1bf
000003b0: 263a d23b 5747 0540 f6d3 d10b 75bd 0bc0
000003c0: b7a9 384f d9d1 f6bf 5476 3677 0c72 f73f
000003d0: f50c a2ef acf7 f43f d1f2 d72b 7a62 f63f
000003e0: eccb e6fd 3403 ee3f 9ce2 f218 0159 f33f
000003f0: a449 6d06 d93a ee3f 94de f170 7d75 03c0
00000400: 5d88 a4df eb0e e8bf 39eb 81ac dd6d f7bf
00000410: fab5 2a98 e567 fcbf 990b a554 6f92 dd3f
00000420: deba da06 ba00 c6bf ad02 4987 5761 f3bf
00000430: ef37 edda 2157 fb3f c51e 62f7 7a14 e4bf
00000440: b92f 8271 0a11 d63f ce0c 1d2c 162d dc3f
00000450: 1b43 54e0 fc84 d7bf 46be ddff e197 fcbf
00000460: c0df 64a3 df8e 03c0 bd1e c592 ffb1 c33f
00000470: e225 0455 165a ea3f 1623 e6cf 92e3 f2bf
00000480: 58c3 342a b25b e83f b489 7b16 10fb 953f
00000490: abf7 d919 7f40 f83f 357f 2e1b c317 eabf
000004a0: ded7 cf14 f063 d9bf cc10 c71f 4302 eabf
000004b0: ff49 743d 8173 e7bf 08e2 96c5 5dc5 e6bf
000004c0: bb6f e204 793c d9bf 52a2 90ac 6b41 c9bf
000004d0: 3482 5c0b 351a e33f 192d bd55 158c 01c0
000004e0: 2e89 d1b3 c964 ffbf fa1e 830f 2a08 d5bf
000004f0: ae36 bf27 005b 0640 1958 b0a3 cc51 fcbf
00000500: a64c 8cd0 df31 fbbf 082f 7a01 3070 f13f
00000510: deed 55ff e69b f93f 4b37 e7cb c83f f1bf
00000520: fad9 d915 3aa4 debf 44f1 6a32 aa09 0440
00000530: a1f4 cc67 6663 f73f 656a 3366 945d 11c0
00000540: b653 05bc 1930 d2bf 136d cf17 24c4 efbf
00000550: 318f 71ed 2934 0ac0 2d51 4fa6 df24 d13f
00000560: eb43 d730 45ed fabf 96ae 802c 44cc 9c3f
00000570: c81f db6f ab8b 8cbf 1ce6 0fc9 cd49 e1bf
00000580: 8e8f 87b7 37e4 f13f 6d62 dacd 1e7b 04c0
00000590: 178d beae b355 bd3f e7a1 9620 40fd f73f
000005a0: db2e 9143 27bc dd3f c8d7 21ed 5dc0 f53f
000005b0: c1e7 d25d fd28 1240 bcad 88d3 df93 ec3f
000005c0: 969d 946a df8e eabf bd74 b3e4 22fc dbbf
000005d0: 9700 e442 1b6c 0140 1c87 3857 0cfc aebf
000005e0: c111 4a88 9b8e d93f eeb9 0ce9 22a1 f6bf
000005f0: 96c9 9ae8 bbc6 fdbf 9580 ba83 0e1d b2bf
00000600: 406c 4a0e 1a92 f1bf 8146 4746 2080 fdbf
00000610: f449 a596 97c4 07c0 2152 e160 6c37 e53f
00000620: 638e c22a 5e16 fc3f 4ff3 2088 6167 fabf
00000630: d3c5 326c 9d8d 0a40 eb3a 3796 8a82 f8bf
00000640: 5e17 c836 bb81 f1bf 2405 041e 71e8 d43f
00000650: ae80 032d ee9f e43f 368f f7b1 ea4f f0bf
00000660: 96aa bf70 db85 c0bf 1ccb b7cf 8584 f83f
00000670: b134 1850 effb 00c0 29c6 4b3d d124 fabf
00000680: 53af de13 3eaa fbbf 971b 03ce 843d d53f
00000690: b3b8 cfdd 94d8 00c0 374a 926d 6558 0540
000006a0: 3cf2 65a6 a3a2 ed3f 73c2 0c75 a190 fabf
000006b0: f662 18b7 d7cc 09c0 e829 bb0a f9f5 e2bf
000006c0: 591f dcfc 9b8d b83f ad2c b049 c26d eb3f
000006d0: 1d7d 2b91 f775 0b40 d5a3 768c bf9d f93f
000006e0: ec56 94dc 109d f23f 8e83 23c9 9b16 07c0
000006f0: 1c58 e848 c140 e53f ef57 5e8b 7df3 f73f
00000700: 1c00 e406 bd28 03c0 119e 986b afc0 f03f
00000710: 9cf3 b6eb 4f68 c3bf 07c3 186d 7f5b f03f
00000720: aefb d30a fc3a 01c0 1921 e5c8 6a18 0340
00000730: c0b4 3337 b09e 0440 3af6 b88c f8ab f4bf
00000740: 53d0 fddf 7f0d f13f e8ae 63ab ae5e 0940
00000750: 6bf1 0d6b b09e 0340 2455 4cfb 57d2 0ac0
00000760: aafe f255 f38d 0940 95ac 0b95 f447 e83f
00000770: 9206 b747 d325 d03f bfec 76c4 9b4e ffbf
00000780: b6f4 20c3 3657 ddbf 6785 2110 9873 fc3f
00000790: 8be9 184a 5809 f13f c902 fb57 c709 edbf
000007a0: fcc7 8a10 551f d1bf 45ea 0652 17dc d1bf
000007b0: 5533 448d 86a6 d53f 3c5f 56e4 fd46 0bc0
000007c0: c2d2 23de db3a fd3f 3336 2e6a 19fd f6bf
000007d0: f573 7783 1149 05c0 e45e 1178 94bd 0640
000007e0: a11e 7609 9975 e3bf 7408 e2f1 0cca f23f
000007f0: 7219 9097 4c16 eb3f 7661 3af5 f766 fa3f
-0.21152081821373456 -0.26871626896268047 -2.266217486895937 0.022922788397170563 1.844290108761451 0.00594994803904488 -1.9825895672474585 0.3447146640825244
-1.4708956124325614 -0.05601645828609744 0.9379254585450022 0.23150882796000957 0.7628240034759807 -3.071126278938239 1.1827289115148754 1.231277191205293
0.07256923644350285 -1.6458803846874217 -0.5829845052927944 1.6148572497859297 0.940358466502136 1.1763795017183694 -1.1443095306100148 1.3833089566730887
0.8622241390263333 0.6564984806543175 3.0551960204632436 0.3049117159876505 -1.0018109192427735 3.5314536585313885 -0.22471082114339905 -1.3460207531108799
1.482737199306984 -0.3603108068164551 -0.47443586159708084 -0.010212214127137622 -1.6898404620617435 -1.2616711118322872 -1.2367567336945038 -0.6745704288106564
-2.4346512111845553 0.3792839173861728 1.3036425919521728 0.17693886682219992 1.2831251234970908 -1.1599114936882322 2.1057557800446283 -1.173525157253936
-2.9917386872923424 1.8390198089472956 -4.118708386514952 0.5931557587396632 -2.181527993469901 1.6080850261046848 -1.6977130702601118 -2.6616172947165095
-0.1554871226692911 -1.6171496291289313 -3.3541995645975873 1.7049174416931292 1.417105140482252 -1.970308544845706 -1.8102266943070477 -3.303988704364211
0.9573940232109603 -0.6646287683856964 -1.486699573009123 -1.8894092426345601 -0.1363222244725486 0.2468450847091117 -0.019765173943268054 -2.324983770949077
-0.7379173635609794 -2.629372334459487 0.020976920872650403 -0.6277458972909657 -1.1324082737796557 0.04178789896423646 1.805131186943188 -0.43789134748182384
-0.9065439607435097 -2.0326556182278095 3.8488368641155755 2.5192340011960828 0.820547803895595 2.8264078670494723 -2.223471139131301 2.004541888651267
3.699182372602084 1.3286573262297536 2.352742536886412 -4.467583275282934 0.8227918733137363 -4.144397339025823 1.3720138831545294 1.1376986957841322
-0.14401680570148837 -0.5167008083492596 -1.4449149975336077 -0.366177090460972 0.6015747692308285 2.2747481039643493 -1.7080571574909102 -2.065478628590269
-2.0514011748933956 0.8396850185631906 3.0977119976021945 5.629421313198228 -2.131591777126578 0.5485995832471696 -0.9576574527244864 0.7686810368042452
-3.4877630498928553 0.6719149288673752 -3.899277699579932 1.4563918531094338 -1.6372989070597939 -0.5361159805605139 2.659834353783725 -3.4675084041032234
-1.4262326330741482 1.465343919443872 1.31046765905995 1.3990422928465487 0.9378914793982154 1.2092295622407283 0.9446835637593733 -2.4323681663334558
-0.7518214576741787 -1.464322732789425 -1.775365442659107 0.46206267610630786 -0.17189717611969163 -1.2112651142671595 1.7087725211927098 -0.627500041170571
0.34479008755510737 0.44025186832386687 -0.36749193102973415 -1.7870807642720066 -2.444762493625575 0.15386957804206772 0.8234969768974987 -1.180559932809222
0.7611933540666582 0.021465541240908784 1.515746212942285 -0.8154006510630781 -0.39672472031031514 -0.8127761479049922 -0.7328497123983765 -0.7115925654571251
-0.3943159625721326 -0.19730897832893618 0.5969491216565701 -2.1934000681263908 -1.9621064209137091 -0.3286233092771763 2.7944338898876913 -1.7699705499740104
-1.6996763368995658 1.0898895318704849 1.6005620931672335 -1.0780723538368473 -0.478773614252901 2.5047191561590427 1.4617675833426704 -4.341386410606536
-0.28418582307250106 -0.992692991737757 -3.2754705953865586 0.26787558785624094 -1.6829273135992888 0.028122964111544656 -0.013938273764679723 -0.5402592589372861
1.1182171982881957 -2.5601173479338315 0.11458895698756454 1.49932873468253 0.46460897062637024 1.3594645750977055 4.540029016492498 0.8930510646363738
-0.8299405175829857 -0.4372641786010936 2.1777863717871457 -0.060516725203582505 0.3993290739965936 -1.4143399337295892 -1.861019047366971 -0.0707558700182765
-1.0981693800192858 -1.8437807793856396 -2.9709922570411837 0.663015546053945 1.7554608984291 -1.6502394979026638 3.3191479161257376 -1.5318704479029133
-1.0941726817995554 0.3266871255037407 0.6445227507756692 -1.0195109321438856 -0.12908499722773986 1.5323541749937197 -2.123015046824172 -1.6339886087774949
-1.729063108078624 0.3318798076474478 -2.105752690221459 2.6681622085827956 0.9261034250226383 -1.6603102276095825 -3.2250208191220464 -0.5925259790031392
0.09591078685127509 0.8571483077261256 3.4326011029621797 1.6010127531865141 1.1633461586365526 -2.886039325138376 0.6641546653725103 1.4969459003527807
-2.394891790230771 1.0470422938323092 -0.15162085542206405 1.0223383199301581 -2.1538010450307956 2.3869224257397375 2.577484542146152 -1.2919850823376593
1.0657957791963966 3.171231593112555 2.4524849284772947 -3.352706874148355 3.194311782339203 0.7587836180731694 0.2523086738911867 -1.956691520156525
-0.4584481149248164 1.7782211904635348 1.0647814649988472 -0.9074436872834549 -0.26753737082901785 -0.2790582943959275 0.33828891559169466 -3.409663947950234
1.8268698384610365 -1.4367918155361508 -2.6606779356793546 2.842568338422881 -0.608105200270945 1.1743287514259722 0.8464720688069021 1.6501388148518266

lstm.bias_ih_l0 f8 [256]
00000000: d2a9 3b45 ecd1 fd3f 8989 c753 a5ab e8bf
00000010: fdd9 7f47 3e2e fc3f 971b 89df 0f76 f6bf
00000020: 03d6 5b4e e1d3 d1bf 0a3a e7ea e6de e3bf
00000030: 6998 4e6d dd99 f13f 401b 8652 f50c f8bf
00000040: d9ca 074f 990d fc3f 4f9c cb43 3ef3 e13f
00000050: 513a 1abe 2aba d4bf 4331 8974 1543 acbf
00000060: 7035 acd7 3ff1 e8bf 8317 38d3 f7e6 e9bf
00000070: 2345 9aca 789c febf c70d 4e58 f3f4 e6bf
00000080: cbed 4444 8ecf fa3f e0ab a335 7296 f23f
00000090: 8a97 f839 24f6 cebf 3bf1 f0ae 17a6 dc3f
000000a0: 8bc0 cca3 b688 0dc0 35f6 27fa 4154 f43f
000000b0: ffe5 bbe4 c30e a7bf 203d 79b6 9765 76bf
000000c0: 925e fe46 20fd f83f 18ab 09a3 2064 ec3f
000000d0: 30df 933f 25ca e03f f114 8d63 62ac 0240
000000e0: b3e5 ec3b 02ab e6bf 288a 4aab b525 bfbf
000000f0: a863 9ea5 d0dd e2bf 3d58 c1fd 9c1c d1bf
00000100: f2eb ae2b ae96 f8bf 221a fe83 8316 ec3f
00000110: 8ee2 4a80 09db e9bf 98d9 a0f9 fe33 e93f
00000120: 7841 9788 5776 cfbf 1647 d850 5857 f33f
00000130: eeff 7532 b430 ed3f 4c8c 20c7 98ca cb3f
00000140: 6803 c7ed d0b2 fbbf 93ae 40fe f7fa f6bf
00000150: 07a0 759b 48f0 d53f 33ae 8080 00c8 e8bf
00000160: 9cc0 a193 5f39 db3f faf5 9cae 0dce ea3f
00000170: 5943 289e 29ce f93f 5007 77bb b4a9 fcbf
00000180: 0803 f58c c817 05c0 7d89 449b f7fe d2bf
00000190: 91e8 7617 0e1f ee3f 50f9 f799 6162 f5bf
000001a0: cef5 5b95 8625 01c0 9c55 e55a bf8c cf3f
000001b0: 93c7 1986 1551 e5bf f7fe a76c 96f9 eabf
000001c0: 4b7b 1b26 5fc5 f23f 0e12 efd8 d7f4 0a40
000001d0: c0b7 a5cb 44c1 cbbf 2823 b2e8 c69a 00c0
000001e0: 6330 d652 950a f23f 7847 d108 dd83 c1bf
000001f0: 0a57 40cd 8062 a3bf 1426 30ef e851 f73f
00000200: 9af8 2b69 82b3 a83f ebf7 8820 d6b3 e53f
00000210: 20b8 781a 3e2d c1bf b960 b25b c98e d3bf
00000220: 061f 9991 154e fe3f e1da bf85 018b ed3f
00000230: 3e32 4a45 2986 eabf 0dcf dfa0 6a9d f13f
00000240: 0457 8bc8 0c1a da3f 207c b9fe 2544 d43f
00000250: e1ad 2808 e6f4 f33f e1ff 221e 0e75 e43f
00000260: 3bb1 bf6b 7762 f23f e3eb 9522 76e7 eabf
00000270: 4aa9 dfd1 e02a f33f 0f4a 4d4f 7401 c5bf
00000280: 4b36 f67b 0798 e9bf ab9e df6e dff9 e23f
00000290: 9064 38b9 d5d0 d0bf 428a 4d4c e054 e9bf
000002a0: bf50 8c8c ef75 7fbf 6395 0351 99e1 e33f
000002b0: 7a86 67fb fbd6 fa3f 76c5 09b7 6fc9 0140
000002c0: bb09 8e19 c9e2 e0bf 0e27 4c71 a1d7 f2bf
000002d0: e601 3d30 ef05 c73f 5339 9f7d 5a81 e7bf
000002e0: 61fc 9fcc 0222 dc3f c8a1 60ed c9f7 da3f
000002f0: 85bb 3386 c8c0 f83f 8c88 74e8 645b cfbf
00000300: 3c60 426b 19a3 d43f d2d1 672a d235 e13f
00000310: 962a 629e 0045 a9bf 4ce0 88d1 fcfb f13f
00000320: 3c41 02a1 d8a7 ed3f eb84 8a6c 0fc7 fcbf
00000330: 9ad9 24f4 75a9 df3f 38c0 69e4 ea8d e0bf
00000340: 3c02 f6ad 67d1 e73f c587 a7cc 13b8 e8bf
00000350: 7b0a 72fa 414e d53f d9ab 5df5 601c ee3f
00000360: f2c7 dcbf 462a cc3f ba5c 0e93 0591 e5bf
00000370: 5506 cbb8 81d2 fb3f d7be 8d1b 7d6d e33f
00000380: 9330 8309 393b e03f 5829 4610 336b f23f
00000390: 4bcb 110d 212b c4bf 283a d606 a083 be3f
000003a0: fe7c 0f8a 7bb6 b1bf cfec 6c6c 154f e2bf
000003b0: dee9 16db 2300 ee3f ba5f 3e1a 25a5 cd3f
000003c0: 186d da2f f208 b53f a6d4 9267 d772 d83f
000003d0: cf72 f156 ca82 dfbf 931a 08be 86e1 f03f
000003e0: d76f 50cb 3dad e2bf d670 a620 4d2c d33f
000003f0: e4ce a485 3b58 eabf d424 93f3 58f7 edbf
00000400: d7ad 09eb 0a48 d1bf b85c 7bbf 942f 98bf
00000410: 02e0 6cc7 bfd3 ec3f ebef 3aa5 ab54 dfbf
00000420: 9896 fd0f 8830 d1bf c845 da4f 93e1 ef3f
00000430: c40d fdaf 482f a53f 3449 f030 b4f8 fcbf
00000440: 2221 a8b9 8229 ea3f b4ee 5fe2 2353 f43f
00000450: 5b9e dc08 52d9 f7bf 68a8 1277 dc97 ed3f
00000460: 829b b340 047c e0bf 589f 3f62 63b1 b5bf
00000470: 3ce2 1d4b ed2b edbf 67a7 5b2b 484a e3bf
00000480: 3e6e fb4e 3b94 d43f a19b a5e8 c451 e83f
00000490: d91c 920f 2507 f1bf cea9 585a f01d efbf
000004a0: 4c9e d0b3 c8e8 e93f 8aef 7ca8 30e7 f4bf
000004b0: ab5f cc20 133a ee3f 5aef fb02 3c3c e8bf
000004c0: 8eec b523 a62d e1bf 77de 31ac 406c a7bf
000004d0: daf1 0816 ec1e e7bf b433 d001 80af febf
000004e0: 493e ec16 467e 8abf c493 13e5 b5c9 03c0
000004f0: ff25 de8d 8527 e93f fa52 131f 454e ed3f
00000500: 3e7a 0393 6a0a d5bf e85e 6ab6 fdad 0040
00000510: 0707 876f d3ad eabf cf6e eb8a fe59 e8bf
00000520: bfdc 8243 1fb8 f13f b0d4 ae73 956b 0240
00000530: d2da 12d7 0c7b ecbf bd8a 1525 e6e7 7dbf
00000540: aa5f 5541 b4ef dabf 0c9c 4f76 8cac f4bf
00000550: 6aad 509d 31bb f13f 3f0f 1ae9 cb7b fbbf
00000560: 9c2f 3726 a00c e23f 98e6 630e 79f2 fbbf
00000570: 3f82 fc00 bb48 ecbf 5b1a 69cb 2278 ef3f
00000580: 181f 8bfe 836c f1bf 97ea 5ed2 be6e dbbf
00000590: 86e6 c0f0 c99b ecbf 0c7e 2857 05c9 b03f
000005a0: 3c43 a01f 737a c6bf 608f f3c3 1659 e43f
000005b0: 15dd cff5 05a4 ee3f 67d3 86e4 fb9c f0bf
000005c0: a9c6 2d63 5f91 f03f 4160 7166 8186 bd3f
000005d0: 8bf7 dfca c18c 01c0 7dee 8e5c ade1 e63f
000005e0: 7970 565c 4857 0040 af0e e5d8 add1 ddbf
000005f0: 8940 5bb7 a65e f4bf 89f1 3c0c 3990 f33f
00000600: cf99 c427 0beb f0bf e76a 9c8e b53b f6bf
00000610: 4952 baa1 c9d6 f0bf 919c 1241 46a6 b0bf
00000620: 7c5a 0297 d302 dbbf ef7a 4d8f 7258 cebf
00000630: 9f33 41e5 5a30 f43f fa51 1ad8 c39e e6bf
00000640: 6bb3 e6ae 382b f83f b2d2 8d64 4f45 e13f
00000650: bcda 08b0 1363 eebf bb51 364f a736 e2bf
00000660: 6b4d b708 0cf7 f53f 3f14 4e76 a065 09c0
00000670: 1e7a af12 81fe f33f 1daa c7a7 8c97 e8bf
00000680: 56b2 5dbc 154e f0bf aff2 df92 8e1c f63f
00000690: a510 d086 a8af e0bf a0e9 3c1d 640f f1bf
000006a0: 2d34 4a24 96d2 cf3f 7dfe 9ac3 39d6 e63f
000006b0: 92c1 472a 9802 dc3f 71e1 b98f 64f6 dc3f
000006c0: a359 7c89 3705 e13f bcc4 5abe 0a0d e33f
000006d0: b553 cddb 4ae9 da3f 04db 5bec f68a 00c0
000006e0: be0b 6038 8486 f3bf 7c8f dca6 7ef0 f0bf
000006f0: 38d8 4ebb 1426 cd3f 7787 aade 35f4 c1bf
00000700: 9b5d af39 1c72 f4bf d4e3 f357 dc9c e53f
00000710: 60f9 a0c3 c5da d5bf cf49 f07a e30c f43f
00000720: b35a 3684 416d fe3f 619e 09bd 04f2 fbbf
00000730: 6e7c 8076 5cf6 e7bf f291 7aef 1adc e3bf
00000740: c783 e779 2c91 f8bf 708d ed66 a664 f13f
00000750: 000e cfba 112d e93f 8b75 96be d67c bbbf
00000760: e7ce 4654 23f0 e63f 7fe6 0562 5dfc f4bf
00000770: 1a44 65e2 5f12 eb3f d8a3 b621 5046 cebf
00000780: 2794 0a5b 2ac3 d4bf 7955 4c82 54fc 7d3f
00000790: 6f7d 9982 95dc cb3f 9071 4560 4a14 d4bf
000007a0: 32e7 9ae3 f7c1 e4bf 3e1a 1c62 d8b0 d83f
000007b0: 1014 1c92 0662 98bf e098 8a3f fd23 e9bf
000007c0: 637f 6c24 197d e33f f35a 0624 1ca5 c3bf
000007d0: 69c4 7f54 5109 b2bf 37c5 4194 fbb7 ebbf
000007e0: aed2 4cf6 9f2d e5bf 2fae a2d3 032d ddbf
000007f0: 9ece a603 3a30 f1bf abc7 c20b b9c4 a6bf
1.8637507156769186 -0.7709528576199755 1.7612898629137128 -1.4038237315996633 -0.27855713512630603 -0.6209597194627474 1.1000646848492812 -1.5031636451328296
1.7533200347067377 0.5609427761199955 -0.3238627296895276 -0.05519930884892912 -0.7794493877751574 -0.8094443440793245 -1.913201133171534 -0.7174011921601328
1.6756727854507172 1.1617300124441883 -0.24188664274805333 0.4476374824914903 -3.69175460785488 1.270570733234661 -0.04503452460444279 -0.005467980030132297
1.561798360175008 0.8872225937205682 0.5246759645224071 2.3341720368795156 -0.7083750887315347 -0.12166915351785035 -0.5895770296802896 -0.2673714140013351
-1.5367871958139827 0.8777482583980751 -0.8079879289353629 0.7875971675446634 -0.24579900903200858 1.208824458885322 0.912195299679295 0.21712026331906242
-1.731156281297638 -1.4362716609711341 0.342790748420612 -0.7744143018548527 0.42537679116413485 0.8376530085003531 1.6128326585787447 -1.7914321253633325
-2.636612988688629 -0.29681196368087354 0.9412908991137262 -1.336518861236602 -2.143323103779699 0.24648277223847692 -0.6661479586748434 -0.842967235774238
1.173186444146 3.3695523212393317 -0.21683559364049465 -2.075574701248474 1.1275838123138093 -0.13683665209333262 -0.03786089425572754 1.457497534111444
0.04824454816660868 0.6782026896905767 -0.13419319431835763 -0.30558999972118844 1.8940635383059443 0.9232184994023919 -0.8288771012608505 1.1009317669058334
0.40783996185687976 0.3166594493431507 1.2472896879870563 0.6392889584167244 1.1490396698892045 -0.840754573392925 1.1979683111372474 -0.164106882783543
-0.7998082562568894 0.5930020490167939 -0.26274626815718083 -0.7916108598986471 -0.0076808316596450035 0.6212889272980359 1.6774864025577743 2.2233576106888746
-0.5276837824933901 -1.1776441980059107 0.17986860137354127 -0.7345402196458884 0.4395758627214886 0.4213738268031446 1.5470662348049882 -0.24497662878372173
0.3224547908262172 0.537819941352206 -0.04935457166091799 1.124020403380217 0.9267390389159469 -1.7985986938368181 0.49471806375677263 -0.5173239194100523
0.7443121335673548 -0.77247037860456 0.3329014726406638 0.9409642021467973 0.2200401722744228 -0.6739528534116268 1.73889324364463 0.6071153200300284
0.5072293458738549 1.1511717448907657 -0.15756619585189421 0.1191959397021739 -0.06919071312539768 -0.5721537702260323 0.9375170973865428 0.23160232335498937
0.08216775577823332 0.38200936426739884 -0.49235781183760435 1.055060140906481 -0.583647629831371 0.2995789355134212 -0.8232705698232761 -0.9364437825508056
-0.2700221343318083 -0.023619007289053612 0.9008482832932716 -0.4895428765846634 -0.26858712731914514 0.9962860641118647 0.041376372797937516 -1.8107187186875082
0.8175672174557216 1.2702978937876823 -1.4905567499316905 0.9247877431528311 -0.5151387466147386 -0.08473797939916261 -0.9116121737598131 -0.602817616161002
0.32154734337902713 0.7599815887341387 -1.064244328330281 -0.9724046482636426 0.8096660148630206 -1.3064428884090113 0.944589199122665 -0.7573528345378506
-0.5368223855470136 -0.045747777004120964 -0.7225246839876107 -1.9178466864425276 -0.012936160635518184 -2.4734914681052675 0.7860744257788496 0.9158044440215172
-0.32876076084895434 2.084956574555566 -0.8337189844389464 -0.7609856332087136 1.1074516904025555 2.302531150601304 -0.890020771089292 -0.007301234248503871
-0.4208803785345433 -1.2921261426470236 1.1082016129610914 -1.7177237611330864 0.564041208877359 -1.7466974794500967 -0.8838782328858271 0.9834150288450688
-1.0889930670836687 -0.4286343626405737 -0.8940171911446704 0.06556733491787997 -0.17561186832656428 0.6358751132179172 0.9575223732962593 -1.0383261610815795
1.0354913591549268 0.11533364058539154 -2.19372900482171 0.7150484855441871 2.0426184858206935 -0.4659227960694165 -1.2731082117425407 1.2227106550263633
-1.0573836854397205 -1.3895774431936674 -1.0524383847706693 -0.06503714646042826 -0.422047517270961 -0.23707420346450855 1.2618054347287637 -0.7068804951437067
1.51055210419437 0.5397107089944113 -0.9495943487334766 -0.5691715762246113 1.3728142109365205 -3.174622463472161 1.2496348123455685 -0.7684996869041388
-1.019063697628686 1.3819719064041853 -0.5214426644384004 -1.0662575857264542 0.2486140896984649 0.7136505909365521 0.43765834931311887 0.4525386241507681
0.531886833693353 0.5953420369970881 0.42048903908772256 -2.0678537812740405 -1.2203409387736737 -1.0587145345716342 0.22772463937661924 -0.1402652108418427
-1.2778589490243124 0.6753980367494656 -0.3414778147161055 1.2531466295518958 1.9016738094848449 -1.746586550167102 -0.7488233866205414 -0.6206183125801188
-1.535442806424031 1.0870727558729776 0.7867516182527083 -0.10737363961239603 0.7168137212779272 -1.3116124943757368 0.8459929868496403 -0.2365207829109568
-0.3244119538379117 0.007320718873207504 0.21766919018680705 -0.31373843575945504 -0.6486777730380935 0.3857937772849346 -0.02381143824370119 -0.7856432190935969
0.6090207778361044 -0.15347625502609893 -0.07045467675176699 -0.8662088294642335 -0.6618194399403217 -0.4558724943878784 -1.0742740767135852 -0.04446962612691093

lstm.bias_hh_l0 f8 [256]
00000000: d2a9 3b09 d899 fd3f 8189 c75b 54f0 e3bf
00000010: fad9 7f07 dc9c fb3f 961b 89ef 0a4b f8bf
00000020: fb57 6f39 800b bfbf 063a e782 e5e3 e6bf
00000030: 6898 4e69 1536 f23f 3f1b 86fa 9ec5 f9bf
00000040: dbca 0767 e2ba f93f 4f9c cbfb 36ff e03f
00000050: 9574 349c 870a c3bf 7e98 443a bad0 bebf
00000060: 7035 acc7 9dea e8bf 8217 38db 7b53 e4bf
00000070: 2545 9a16 1330 fcbf c40d 4e50 e758 eabf
00000080: cbed 44b8 195a fc3f dfab a341 e8cf f23f
00000090: c94b fc6c 9c96 dabf 38f1 f08e c1ad da3f
000000a0: 8bc0 cc57 9e0c 0dc0 34f6 275a 1bf3 f33f
000000b0: f7e5 bb64 fdfd acbf 203d 79b6 4363 78bf
000000c0: 8f5e fe06 a4d8 fa3f 89d5 84b1 5138 f03f
000000d0: 64be 278f fc4d df3f f014 8d81 8005 0340
000000e0: bfe5 ecdb 291a ecbf 0645 a535 8a31 c6bf
000000f0: a763 9e85 2a2a e1bf 4058 c19d a34c d0bf
00000100: f1eb aeb7 8cb9 f9bf 2c1a fe23 91a3 ee3f
00000110: 8de2 4a00 9fc5 e9bf 98d9 a039 77bf e93f
00000120: bca0 4bb4 65e4 d0bf 1647 d814 90dd f63f
00000130: eeff 758a 9294 e83f 478c 2047 275e ce3f
00000140: 6a03 c7c1 150f fbbf 97ae 4052 b74c f9bf
00000150: 05a0 75ab 8872 d73f 32ae 8050 27a4 edbf
00000160: 9bc0 a1f3 1cb1 dc3f faf5 9c9e 3d8b e93f
00000170: 5a43 28d2 a72f fa3f 4e07 770f 6870 fbbf
00000180: 0603 f5d6 ab29 06c0 8189 44bb 0bd7 dfbf
00000190: 97e8 7657 b039 eb3f 49f9 f71d 1699 f2bf
000001a0: cff5 5b1b 4184 02c0 ceaa 720d 0361 d23f
000001b0: 91c7 198e 9ee5 e8bf fafe a7ac 6b77 eabf
000001c0: 497b 1b4e 4c93 f03f 0f12 efd0 80e2 0940
000001d0: e4db d275 cadc d2bf 2823 b236 3095 00c0
000001e0: 6630 d6a6 5be8 f43f f48e a251 7a80 bdbf
000001f0: d9ad 809a dfd2 93bf 1426 302b 6dc7 f73f
00000200: bc03 6acb 9330 b3bf e8f7 8838 bcec e83f
00000210: 5e70 f1f4 1f72 b2bf 7fc1 6417 958b c4bf
00000220: 061f 99c9 c585 fe3f e2da bfb5 9c62 ed3f
00000230: 4232 4a3d b12d edbf 0ecf dfb0 2154 f13f
00000240: 0557 8bb8 763a d83f 1f7c b97e 288b d13f
00000250: e1ad 2880 4bbc f33f e1ff 227e 94e3 e53f
00000260: 40b1 bfff 90d3 f43f e2eb 954a 5e2d eabf
00000270: 4ba9 df85 ff95 f33f bfd7 ca42 2147 a13f
00000280: 4f36 f67b 709d e4bf ad9e df0e d487 e33f
00000290: 3a92 e164 0d65 b2bf 428a 4d24 352a e8bf
000002a0: 05c5 c878 9991 b4bf 5e95 03e9 28c6 e43f
000002b0: 7b86 67e7 0ae3 f93f 76c5 09c3 661b 0240
000002c0: 7513 1cb3 54dd ddbf 0e27 4c35 8ebc f3bf
000002d0: f680 1e78 5461 d33f 5239 9f8d 2bfa eabf
000002e0: 24fe 4fbe 01be e23f 9343 c11a ed25 cd3f
000002f0: 85bb 3346 aecd f63f 4a44 3af4 4179 d2bf
00000300: 3f60 425b fd84 d73f a4a3 cf34 86c4 dd3f
00000310: 4f75 6798 191c c13f 47e0 88c9 4d81 f03f
00000320: 3a41 02f9 5614 ef3f eb84 8a50 dc58 fabf
00000330: 92d9 2464 06c9 db3f 39c0 69e4 60a0 e0bf
00000340: 3d02 f675 d126 e93f c587 a75c d58b e8bf
00000350: f014 e4b4 8568 c53f d9ab 5dcd 61e5 ee3f
00000360: fc63 ee9f 72df d83f bb5c 0e6b fc8b e7bf
00000370: 5506 cbfc faf7 fe3f d0be 8d13 a254 e13f
00000380: 9230 8349 158b e13f 5829 46e0 1671 f23f
00000390: 4acb 112d ab44 c3bf 0c1d 6bc3 9a28 c33f
000003a0: fc7c 0f4a e0f8 b4bf 94d9 d958 f8b6 d8bf
000003b0: dee9 16db e127 ee3f c87e f968 c7fa a03f
000003c0: 196d da6f caf3 b73f aed4 9257 7459 de3f
000003d0: c772 f136 38aa dbbf 921a 087a b77f f23f
000003e0: b8df a096 6916 dcbf abe1 4c41 86b6 c93f
000003f0: e4ce a44d b07f eabf d324 93c3 0fed eabf
00000400: d8ad 09cb 6a22 d5bf a551 42a0 958d ae3f
00000410: 02e0 6cef acf8 e83f f377 9d9a e298 e4bf
00000420: 9496 fd0f 754f ddbf e122 edff 8dec f03f
00000430: 6f43 ff6b cebd c53f 3549 f008 4f16 febf
00000440: 2121 a879 227f eb3f b3ee 5f2a 03e5 f33f
00000450: 5c9e dc94 8916 f7bf 68a8 127f 918c ee3f
00000460: 7f9b b370 fdd2 e2bf b5cf 1ff1 47f0 cfbf
00000470: 25f1 8ecd f804 f1bf c94e b766 d376 dfbf
00000480: 3e6e fb3e 106d d43f a29b a5e0 d36a e53f
00000490: d81c 9273 323a f0bf e554 2c85 b1a5 f0bf
000004a0: 499e d0e3 f5ee e23f 8aef 7c78 09d4 f4bf
000004b0: d52f 660c 5100 f23f 57ef fb82 0c1a ecbf
000004c0: 19d9 6bc7 3452 d8bf 4aef 1856 e866 b3bf
000004d0: d8f1 08ee 49cd e9bf de19 e89c c856 00c0
000004e0: e0c3 6ec1 4feb c2bf c293 13f5 9fe8 02c0
000004f0: fe25 def5 91b5 ed3f f952 13af b23d ef3f
00000500: 3c7a 03e3 147f d5bf ccbd d4c0 a361 ff3f
00000510: 0707 87bf a2f5 ecbf d16e ebd2 35a7 e9bf
00000520: 80b9 05ff 0aa7 ee3f b0d4 aefb 6b0a 0240
00000530: d4da 12af 4c99 ebbf aa4e 5dbb 4bb0 af3f
00000540: a75f 5501 4a02 debf 0d9c 4fe6 63d6 f1bf
00000550: 68ad 5031 5238 f13f 400f 1a09 56dd fabf
00000560: 9b2f 3736 b7e8 e43f 97e6 6342 04d6 fbbf
00000570: 3d82 fc50 3b1f e8bf 681a 69bb 3b36 ec3f
00000580: 1c1f 8bc2 ad0d f2bf 9dea 5e22 546f d6bf
00000590: 82e6 c0e8 a068 efbf fa3e 940b 7468 ce3f
000005a0: 8086 403f 33bd b0bf 5f8f f333 0711 e43f
000005b0: 15dd cfcd 4d8b ef3f d5a6 0d01 716b ecbf
000005c0: 518d 5bde 92c2 eb3f 97c0 e24c 1a91 a03f
000005d0: 8bf7 dff8 2dbf 01c0 7cee 8eb4 ad84 e63f
000005e0: 7a70 5646 8f43 0040 5687 728c 31db e1bf
000005f0: 8940 5bc3 4572 f4bf 87f1 3c7c 9aff f23f
00000600: cf99 c43b 9bec f0bf ea6a 9c82 14b7 f5bf
00000610: 94a4 741b 9c51 eebf 909c 1201 dfa5 b7bf
00000620: 7e5a 0237 1572 dabf ee7a 4d2f 241e ccbf
00000630: 9d33 41b9 66de f43f fa51 1ac0 613e e6bf
00000640: 6cb3 e692 5e89 f83f b6d2 8d84 83d4 e13f
00000650: bcda 0810 52fb eabf b651 3697 7c7a e3bf
00000660: 694d b7c8 7947 f33f 3f14 4ece 592b 09c0
00000670: 1d7a afaa e0c7 f43f 20aa c76f 09d3 e8bf
00000680: a264 bbc0 7468 edbf acf2 dfb6 8a46 f33f
00000690: 5321 a09d 33fc ddbf 9ce9 3c6d 6020 f2bf
000006a0: 261a 2512 6f1e dc3f 80fe 9a23 8ac3 ec3f
000006b0: cbe0 23dd 6b33 e03f bdf0 dcc7 a5e9 e23f
000006c0: a259 7cc9 867e e13f bec4 5a7e b98e e83f
000006d0: b553 cd0b 850d dd3f 02db 5b6a 20b1 00c0
000006e0: be0b 601c 48eb f5bf 7f8f dc16 e443 f0bf
000006f0: 3cd8 4ebb bc21 cc3f 7887 aade 57dd c1bf
00000700: 9a5d aff1 9eaa f4bf d6e3 f39f a0d7 e33f
00000710: 65f9 a033 c723 d4bf ce49 f0fa de69 f23f
00000720: b45a 36c4 3cca fc3f 619e 0979 4b4e fcbf
00000730: 6e7c 8086 7c1b e7bf ef91 7a37 12dd e6bf
00000740: c583 e7b1 dcd2 f9bf 6e8d ed9e d2e1 f43f
00000750: 070e cfea 9336 e33f 8275 96be eee1 b1bf
00000760: eace 46bc 9fd7 e33f 7fe6 0576 2a17 f5bf
00000770: 1a44 6502 352a ed3f f351 db90 958f d5bf
00000780: 2d94 0a0b d3ab d1bf 579d edbb 6b4d c6bf
00000790: b4be 4cc1 4e2d d23f 9471 4580 23f4 dabf
000007a0: 30e7 9a1b b468 e9bf 3d1a 1ce2 54ab db3f
000007b0: 0a0a 0ec9 d027 aabf df98 8a6f 477a ecbf
000007c0: bbfe d808 1018 dd3f f5b5 0cc8 fca6 bdbf
000007d0: 2ee2 3fca c72e c4bf 9ae2 20ce d305 f0bf
000007e0: b3d2 4c6e 20b9 e1bf 31ae a2d3 19a7 dabf
000007f0: 409d 4d97 49f7 ecbf cd63 e185 e6bb b4bf
1.8500595436731726 -0.6230871002738213 1.7257957737871252 -1.5183209759577259 -0.12126923944683192 -0.7153194004729932 1.1382040132098385 -1.6107473169410722
1.608126070463803 0.5311541478994374 -0.148758841773916 -0.12037242815549296 -0.7786396884782061 -0.6351908952353684 -1.7617369540133236 -0.8233524864630728
1.7719971845643723 1.1757586063420076 -0.41544256823652553 0.41685522994136504 -3.6311613902435673 1.2468522569391896 -0.056625288530948774 -0.005954041007114413
1.677890803641194 1.0137497839290026 0.48913492183689855 2.3776865121059174 -0.8781937880914298 -0.17338683719075493 -0.536397229169883 -0.2546776810244218
-1.6078002143028665 0.9574666693668568 -0.8053736692155141 0.8046222806504373 -0.26394026381468527 1.429092484879623 0.7681362823786893 0.23724833462719827
-1.6911828584126973 -1.5812295163149537 0.3663655924233356 -0.9262882778470554 0.44831012527630215 0.7982471559441244 1.6366346558827076 -1.7149429897403539
-2.770347289421241 -0.4975003556047782 0.8507920940676453 -1.1623746081018729 -2.3145773065032027 0.28717113793633764 -0.7780297065166782 -0.8270777103607252
1.0359614420955998 3.2355972598036327 -0.29472600465982013 -2.072845866500206 1.3067280308778435 -0.11524166577379075 -0.019359105877965497 1.4861880957636275
-0.07495998111882235 0.7788983444404467 -0.07205390672737752 -0.1605097164370015 1.9076593279768885 0.9182876157563806 -0.9118276784007053 1.0830399426603807
0.3785683443251034 0.2741185414833484 1.2334704405028492 0.6840307677848579 1.30165195371508 -0.818038125681934 1.2241206387939936 0.03374580326401099
-0.6442186757210012 0.6103306093691195 -0.07185443604391475 -0.7551522931137884 -0.08034667204698927 0.649189429383721 1.6179303206667146 2.2633795964581465
-0.4666339635007753 -1.233534057801481 0.3028155491865755 -0.8430383459142752 0.5856941906967603 0.2277199154509871 1.4252150289791825 -0.288650978568573
0.3674920455173413 0.4651198878987606 0.13367004338844388 1.0315683243225224 0.9712328780606534 -1.646694483388553 0.43414459018404117 -0.5195774518197204
0.7859885505604961 -0.7670695123344947 0.16725226719442032 0.9655007372906496 0.38863816850931676 -0.7358381358088971 1.9355420946816555 0.54158119029122
0.5482279239454491 1.152609706945972 -0.1505331010881384 0.1496766523543801 -0.08192254837148377 -0.3861676089940371 0.9423684386341014 0.03316329151561842
0.09356370192329101 0.47420986702065704 -0.4322643791727327 1.1561808363782444 -0.4388679476719477 0.20088270367138014 -0.8280869976501575 -0.8414381809062895
-0.3302256567755797 0.059673953831551864 0.7803558994555717 -0.6436627406908414 -0.457974687209892 1.057752608978426 0.16985492966935165 -1.8804464673199395
0.8592693687542444 1.2434112220061422 -1.4430023016847349 0.954659221829627 -0.588255615349098 -0.24952029489179287 -1.0637138394950594 -0.49162755041946277
0.31915670538521457 0.6692904842028506 -1.0142082705004238 -1.0404524995877236 0.5916699838171066 -1.3017668444217372 1.1250772938101268 -0.8781797941478356
-0.3800174663041545 -0.07578899480807624 -0.8063096665496756 -2.042374826272165 -0.14780613846735857 -2.3635863443946343 0.9284143259148434 0.9762814921801627
-0.33588144463820746 1.9613378078901063 -0.9049848309298064 -0.8016614074253657 0.9578909855752471 2.255088773987687 -0.8624633235366113 0.0618919054237755
-0.4688897145292636 -1.1148413654825646 1.0762502600071802 -1.6790371280230403 0.6534076746843199 -1.7397501557701724 -0.7538124639286888 0.881620279346703
-1.1283395385125408 -0.35054496151466613 -0.9815220399825224 0.23756266179451996 -0.0653869656967121 0.6270786299396426 0.985754873253344 -0.8881154079983512
0.8675016730234494 0.0323570460180928 -2.218349403700761 0.7036961103944601 2.0329881186608505 -0.5580070250618785 -1.277898562537333 1.1874031880425677
-1.057765229672089 -1.357197294425243 -0.9474621330492874 -0.09237474228085518 -0.41321306583396467 -0.21966984090518998 1.304297183657787 -0.6951149703987192
1.5335374582602652 0.5571916188187831 -0.8431787789512195 -0.6087019875872588 1.2049501266927456 -3.1461673848703238 1.2987982432747522 -0.7757613356782862
-0.9190009846016844 1.2047221320673698 -0.46851816552272857 -1.1329044596774116 0.4393575360485634 0.898869580785643 0.5062770194190532 0.5910214332175411
0.5466951308506405 0.7674224346029843 0.45395017769379403 -2.08648760884114 -1.369941817131561 -1.0165749447851053 0.21977957864663888 -0.13956735966081246
-1.29165548713886 0.6200717090679244 -0.31468372384906323 1.1508474161424718 1.7993743576568422 -1.7691149452238266 -0.7221052767744263 -0.7144862254686454
-1.6139800023449749 1.3051325042841557 0.6004123293027427 -0.06985370781918301 0.6200712849881402 -1.318155728366406 0.9114022299564823 -0.3368886866203688
-0.27611232832197424 -0.17423769642048612 0.28401535870487327 -0.4211510422371927 -0.7940311946069638 0.43233224946053267 -0.051085018675639374 -0.889926641325271
0.4545936666872696 -0.1158292759325475 -0.15767762542215408 -1.0014226962941053 -0.5538484720514901 -0.41644902865911876 -0.9051864581241844 -0.08099213379445232
