AIModels/model.pth (torch, 388003 bytes, 10 tensors)

lstm.weight_ih_l0 f8 [256, 28]
00000000: 7b28 781d b768 b13f b856 be6c 09e0 ba3f
00000010: 45fc daaf da8b cf3f 607f 17b4 df2c d93f
00000020: 1853 b42b 23b3 d43f 7955 debf 4bcf d83f
00000030: 7d49 4a00 3b91 d33f 3eae f3bd f2c9 d03f
00000040: 50e8 ee51 65db d53f c1f9 65be 7d5f a13f
00000050: 51a7 504b 6a72 df3f 0c68 bd70 efb9 c33f
00000060: 772d 28a6 f98c dd3f b408 0b05 9e90 c83f
00000070: d84a 7d9a dcc5 d93f e44b d2c8 8ccf e23f
00000080: 39f5 f8b0 2ccd d43f 7aa0 5615 34b2 e03f
00000090: 14fa 21e7 8698 e23f f6fa f1bf d970 dd3f
000000a0: 3de1 c619 eb48 e43f 1608 fd52 2fba df3f
000000b0: 26e8 1fb3 db26 d63f f271 a12a 519c e53f
000000c0: fcac b31a b11f e93f bb77 1663 acbc f23f
000000d0: 8474 84ae 448b f33f 8ed2 067a d045 fb3f
000000e0: 2eab 2ce9 e455 f4bf 368e d862 01f6 fabf
000000f0: a89b 8959 ea2c f6bf d63a b105 a2b5 f8bf
00000100: 4c11 3e78 9bab eabf 8e65 444e 5e93 f0bf
00000110: 2d00 7d00 1396 e9bf 9ee1 687c 28b0 f9bf
00000120: 4719 34ac 04ce f5bf 41cd a8ef 7847 f8bf
00000130: a5e0 30c0 cf43 f6bf a799 d36c 9e6e fbbf
00000140: 8240 9cd9 4bfe e9bf f37e ae95 4c28 fbbf
00000150: dc78 28b7 c89b eebf 9ff5 6346 954f fbbf
00000160: 1286 e1e9 8168 f3bf b3c1 e6cd 0f49 f9bf
00000170: 2a04 de18 aa64 f0bf 2196 5326 6f6a f9bf
00000180: f290 dfc7 5adf f9bf dc64 a1ef a888 fdbf
00000190: f85a 6f16 fd18 fabf 0054 c02c d42c e1bf
000001a0: 26d9 0dbc 6417 e5bf ecf4 f0ac ef76 e0bf
000001b0: 2704 12c1 8732 d8bf 892f afd1 6c98 debf
000001c0: 58be fbf8 dfc0 e0bf 988c 5915 5e45 d2bf
000001d0: fec5 0478 d891 dbbf ff39 560b 93da d9bf
000001e0: d63d 1304 a4f8 c7bf 5234 fcee a705 d1bf
000001f0: d3bc 78e1 9114 e1bf c307 26df da31 e2bf
00000200: bd0d fdec 3356 e6bf c053 acae 7744 debf
00000210: ea17 456f 9514 e5bf 9162 c81b 8871 e1bf
00000220: 03ce 964e 215c dfbf 35f4 8a01 0e6b e5bf
00000230: 9288 a06f aca0 e7bf 4a91 a2ab 0bde f1bf
00000240: 9ea8 c54d 68dd e6bf c8a3 7b67 bde1 e6bf
00000250: 3f01 24e3 3f08 ebbf 2ebf a3e4 7205 e4bf
00000260: 08af 9929 d382 f3bf 19e3 8053 4f9e ebbf
00000270: 45cb 323a a7b8 f3bf 964a 0af4 bed2 f2bf
00000280: e29c d912 af01 f7bf 3d71 5e95 7585 fbbf
00000290: 0dea 1df2 9e74 fdbf 5fe4 2ab5 7075 03c0
000002a0: e1ea 1ce7 cd7e f2bf 60ef 8a4d 4d1d eebf
000002b0: b3fd ebc3 55f0 c8bf a319 67e1 40cb d53f
000002c0: 362b a176 fc87 ae3f 0eaa c9be e34c d73f
000002d0: d29f ee62 fc7d bd3f 8550 cbb4 b493 e2bf
000002e0: 863a cf71 ad95 eabf c1ef e065 4f2e ddbf
000002f0: 709d 3740 7cc9 cabf 557f 4584 2cdc aabf
00000300: c21f 214a 9b99 783f 3362 c64c cee1 d8bf
00000310: 6174 86eb b590 e2bf d4bd 1142 5fad f7bf
00000320: 7d99 1753 9336 f2bf 1e12 ffc0 3c92 e2bf
00000330: 82de 2c3b 59b5 ae3f c972 126b 6ac8 e4bf
00000340: 3964 c74e fcf1 f9bf 6a67 b8c3 8fb1 fcbf
00000350: ce1b 8774 4ad1 f4bf 3d6f 55ac 097e 00c0
00000360: 635e 3b45 94e0 f2bf 5588 004a d31b f3bf
00000370: d142 cb28 ac2c e7bf 010b 85f4 9a6d dbbf
00000380: 82de 5487 77c7 bd3f 4aea 9ef1 a1d5 d53f
00000390: 9439 39df 06d2 dc3f e093 0532 bd84 e43f
000003a0: 7e40 272d b315 e23f b849 8aab 6f8e e53f
000003b0: 1bc0 d433 9c46 ed3f 934e 4dc9 9bb6 f03f
000003c0: 7b9d 80ae 1cfb f33f cd6d c5bd ee93 f33f
000003d0: 8be4 b13a ece2 eb3f 676c aaf1 0889 e03f
000003e0: 9ab5 63c2 f325 c33f b5b9 02ab 3973 97bf
000003f0: 5466 de24 4ffa 843f 8a0d ef36 8143 aebf
00000400: 5faa 4795 7023 c3bf b1e6 a353 00ee e0bf
00000410: 798a 0919 ded0 e13f 80ee 1f94 f6ed db3f
00000420: 92e6 0243 7111 e03f 4ffc ef5b b5e8 cd3f
00000430: e949 9fda 72ae d5bf 3640 e756 f211 c83f
00000440: 29ba 0fa2 9455 963f 83ec 337f 28aa d93f
00000450: 67b2 398b 1c07 cb3f 36e0 5553 9ee5 853f
00000460: 8820 2609 75af d83f e432 d373 0ddf e33f
00000470: 06bd 1c48 b406 e53f 06d3 b085 6d12 e93f
00000480: 6529 3d16 d10e ea3f e98b 281e 5f0a e73f
00000490: 0e38 4e18 c61d e83f d3ae 4e05 a03f e83f
000004a0: 44f2 e39a 3cce ed3f ca61 eddc 9c4e e33f
000004b0: 1cbb 5b74 2f4c ea3f f090 1701 6523 e03f
000004c0: afae d5e9 5117 e93f 4eac 85f7 86a9 e13f
000004d0: a870 d250 cd45 e13f aed7 3a26 313b e03f
000004e0: eb32 4330 fe53 db3f abc8 bec8 1107 ce3f
000004f0: d90a a43e 55f3 ce3f 5d0e a3d2 d4c6 c53f
00000500: 7494 7431 51f0 d73f ac61 b6c8 8f1d e53f
00000510: 012b b434 f5b6 e13f 6726 b08b 42da eb3f
00000520: 0c4a 8119 55ae e43f 0e1c 0ce7 75a5 f23f
00000530: ad66 985f c7be f13f 68c6 eec8 41a0 fb3f
00000540: edef c38a 8819 f3bf f84b 2082 4389 eebf
00000550: 7626 5555 2496 ecbf 404e 2800 ded9 e1bf
00000560: 268f f46b 4ba4 d2bf 9149 3b16 ced7 d9bf
00000570: 59c1 7c78 efc5 d6bf 9fca c59a 755e e4bf
00000580: a2ca 5a00 365d ccbf c2b2 e8dc cc20 d7bf
00000590: c195 e915 41c3 e3bf ceaf 2e99 f1ff e8bf
000005a0: 90b0 9c62 36a2 ecbf b7f1 6ac6 6676 e1bf
000005b0: 6bd3 2858 36cd e0bf b9df 8495 98e5 d8bf
000005c0: f00b 7d1a 778a d5bf 8d19 78f2 f435 d6bf
000005d0: 69c3 ad62 c8b5 c1bf b2ea cf85 5bc7 91bf
000005e0: 5026 b81f afb3 87bf dfa3 0e71 0ca5 b7bf
000005f0: c0d3 6428 7f79 cb3f b4cc 8f34 af48 d13f
00000600: a301 8657 7201 b73f 609f 0173 bbbc b83f
00000610: 8be0 c100 48ad c8bf 61b3 2a54 7245 d2bf
00000620: 02bc 8b6d 4978 e4bf 68e3 cf66 7688 f0bf
00000630: 9c31 9328 9998 ecbf cba8 61b1 7f2f efbf
00000640: 87e5 405e df21 eabf 7b16 3e79 0901 e9bf
00000650: 092d fbac 6541 e9bf ebab d1da 1cc8 f0bf
00000660: 521b f229 2095 ebbf f252 b359 a3e2 e1bf
00000670: c67a f13e 5376 edbf abf1 5934 7bbf e5bf
00000680: ef2f e780 5494 d8bf d808 f289 c53d d0bf
00000690: 2840 80d7 a2a1 bcbf 256d 7b10 d77e cf3f
000006a0: aa1d 22ac 3922 be3f adf2 44ca 0e60 d63f
000006b0: 35e5 f668 88da c73f bd42 db9f 3123 c83f
000006c0: 511a 34ab 02da c23f ee77 70d9 e341 b3bf
000006d0: cd8d ddc4 853c cebf 87ad 006e 98f1 c0bf
000006e0: 36ae 34e3 2bd2 c5bf 7ddc 2ce8 9a65 e0bf
000006f0: eb3d b2ed f992 dabf 444b 70b1 7721 e0bf
00000700: 8ad2 52c9 05a1 f13f 27e9 ff15 c3c1 f43f
00000710: 10a1 b803 e92c f13f 69ae f3f9 e0b9 f23f
00000720: af13 da5c 0237 f33f 672a 0255 d291 f03f
00000730: af51 796c 315a f13f 6870 98b4 f48f f03f
00000740: 77db 214c d71e f23f bbb6 502e e58f ec3f
00000750: e663 cc0e a009 f13f 266f 51fd 0776 e93f
00000760: fbbb 8fd1 2a43 e33f 4c52 7bc8 b747 e13f
00000770: 8ca4 8b94 bb45 e33f 330c 9bf3 460d e13f
00000780: 4fdb c55b 618f e13f 663d 8caf 3f76 e13f
00000790: 76ac a898 732c d93f 8433 2fa2 c871 dd3f
000007a0: 1353 41f9 faf8 dc3f db4c 9395 56d1 de3f
000007b0: 5c88 7dac 52a9 e33f d6a7 d14c 7649 e13f
000007c0: fcf2 03dc e9c2 df3f 40a8 e746 56e1 e43f
000007d0: 419b 4a79 9fea d73f f1b1 7c2d 7a84 e33f
000007e0: 5c43 c628 835d ec3f 2e18 3ae8 e7c4 ed3f
000007f0: 7263 10e8 6f4b eb3f 6fd7 fc68 3fe4 e13f
0.06800407857386574 0.10498103051062457 0.24645551287355452 0.3933638819416867 0.3234336783219063 0.3876523374286403 0.30573916462267176 0.26232594060886416
0.3415158558015081 0.033931664936051494 0.4913583503244939 0.1541117954719201 0.4617294428469089 0.19191336866612618 0.4027015217481398 0.5878356859487863
0.32502286226720717 0.5217533509030681 0.5811190141974429 0.46001285309459605 0.6339011672453477 0.49573882202469244 0.34612171642914047 0.6753316719655784
0.7851186296005888 1.1710628386131094 1.2215010468565035 1.704544521967509 -1.2709702595117949 -1.685059915654063 -1.385965680843336 -1.5443439695697427
-0.8334481571660404 -1.0359786088286884 -0.7995696076905056 -1.6055073604348773 -1.3627974249553334 -1.5174493180937392 -1.391555548425495 -1.7145065547025327
-0.8122920274927454 -1.6973386618555508 -0.9565166070276763 -1.706929469073067 -1.213014520261258 -1.5803373377822083 -1.024576279771518 -1.5884849068764952
-1.6170299346495622 -1.8458642349781291 -1.631100738178871 -0.5367222665832969 -0.6591056511813675 -0.5145185830839671 -0.37808412413147824 -0.47805328824028287
-0.5235442984539516 -0.2854838570112377 -0.43077670784541044 -0.4039657221518666 -0.18727541159613165 -0.2659702142562469 -0.5337609676115797 -0.5685858114595636
-0.6980228069955313 -0.4729289251129636 -0.6587626622429046 -0.5451088469154276 -0.4899981753798956 -0.6693182020313829 -0.7383634739128573 -1.1167103485577905
-0.7145272749887857 -0.7150561352874485 -0.8447570263233856 -0.6256651368730439 -1.2194396615040564 -0.8630749350478225 -1.2325813554168275 -1.1764516384907089
-1.4379111038522798 -1.7200828394625909 -1.8409718949975542 -2.4323438791002867 -1.1559580829477272 -0.9410768999582437 -0.194834442772828 0.3405306054304679
0.059631242257259506 0.3640679705773956 0.11520364203772651 -0.5805305033814113 -0.8307711813775576 -0.4559515471371434 -0.20927384505851476 -0.052461043497486294
0.006005865669131029 -0.3887820958857759 -0.5801648712255308 -1.4798271733123913 -1.1383240934170253 -0.580351235338245 0.05997732970575688 -0.6494648066760301
-1.6215785100269058 -1.793349995167285 -1.3010963966241778 -2.06154188762403 -1.179828901707787 -1.1942932978349934 -0.7242031857259353 -0.4285647762191474
0.11632487348549073 0.34116409869935593 0.4503190212170918 0.6412034966457405 0.5651489145184454 0.6736372328180584 0.9148694050145453 1.0445821631773569
1.2488066498279682 1.2236163533151398 0.8714505335220947 0.5167278976472404 0.14959570876764589 -0.02290048700586463 0.0102430518270921 -0.05910877032831781
-0.1495190361886953 -0.5290528901670851 0.5567465294846691 0.43639912095361666 0.5021292027297071 0.23366419781811706 -0.3387725005133278 0.1880476879437098
0.02181083907265183 0.401010631772529 0.21115452573885138 0.010691868704029255 0.38570905583811355 0.6209780943114223 0.6570683868830265 0.7834994898936152
0.8143086847642677 0.7200160588293986 0.7536344980924257 0.7577667335185317 0.9314253831103732 0.6033462824807938 0.821799971830703 0.5043206235245901
0.784096676548378 0.5519442400376506 0.5397707537226966 0.5072255846669032 0.42700152123579355 0.23459074308408864 0.24180093344337797 0.17013035092360243
0.37404279546382857 0.6598586006321532 0.5535837201472021 0.8703930595667771 0.6462808130402791 1.1653956437382962 1.1090768560592708 1.72662523736326
-1.193733732273354 -0.9542558232809588 -0.8933278719570825 -0.5578451159548834 -0.2912777475596492 -0.40379669352582775 -0.35583102003422123 -0.6365306876089852
-0.22159457223240958 -0.3613769681276545 -0.6175847461678857 -0.7812431327670255 -0.8948013235108352 -0.5457033038469977 -0.5250503274788633 -0.38901342965572955
-0.336576248042717 -0.3470432632315344 -0.13836006944941495 -0.01736205105042172 -0.011573188930032036 -0.09236219177422765 0.21464528534275296 0.27006130345325663
0.089865824096711 0.09662982518932273 -0.19278812443713308 -0.2854886838857081 -0.6396834506575717 -1.0333160415741194 -0.8936277191619868 -0.9745481934053485
-0.8166348305596082 -0.7813765876787352 -0.7892330530679895 -1.0488556430452671 -0.8619538134815719 -0.5589157821619593 -0.9206939916001253 -0.6796241781699356
-0.38405335033598836 -0.2537702414630423 -0.11184137116674775 0.24605835251609523 0.11770973637077611 0.3496129012380987 0.1863565933725028 0.18857403092854055
0.14727815017268367 -0.07522415216996567 -0.23622200119562678 -0.1323729073641113 -0.1704764232066382 -0.5124029669449467 -0.4152207204105866 -0.504085394439564
1.1018121589851568 1.297305189071787 1.0734644074783013 1.1703805698151888 1.2009299876237767 1.0356009789126348 1.084519790388281 1.0351454786787375
1.1325295423427784 0.8925653366656755 1.0648499086439585 0.7956581065768418 0.6019491284367854 0.5400046268137628 0.6022622967986009 0.5328707464144656
0.5487524788321511 0.545684664599247 0.3933381071862593 0.4600698074180445 0.45269655553174565 0.4815269909569914 0.6144193047478086 0.5402175426836446
0.49627157674676403 0.6525069603787941 0.3736952480780254 0.6099215401096086 0.8864150806785847 0.9302863631899123 0.8529586346149769 0.5591122675457266

lstm.weight_hh_l0 f8 [256, 64]
00000000: 862a 0cd1 4f5c 0440 4fed b619 a698 cb3f
00000010: 7bbd 71f5 2b41 e6bf 90d7 f3eb 3b3a d9bf
00000020: 5f04 a52e fa14 f4bf 6c4b 97ed 6095 c73f
00000030: 6af0 b281 9070 f6bf fde0 0c86 d244 0240
00000040: 7334 ce95 82f6 dc3f 8629 d144 9183 ea3f
00000050: 96b9 772e 2e52 e6bf ae17 46ac 4a4b d53f
00000060: 1a0e f0d6 77ce e03f 30c3 7839 14f9 d7bf
00000070: d6ff 297d f9a3 e7bf b273 8a73 8f5b 0540
00000080: db5d a044 2f91 f83f 21f0 02c0 63f4 e7bf
00000090: 1ac5 7e4d 6d4d 1140 8e00 62e0 6d99 c73f
000000a0: 4d29 91de 293e f0bf 744a 7f17 679a ef3f
000000b0: b98f 7265 1a48 f1bf 7ba0 b8b6 06fb ce3f
000000c0: 77c7 40e1 a78d e63f 3834 1d0e e1bf f4bf
000000d0: 42c4 4a87 bfb8 ef3f e098 921b 9c62 c7bf
000000e0: ae41 9d4d d9ef e0bf 2baf b53f ee32 13c0
000000f0: 928b 6bf2 7382 c0bf c47e f067 1767 fe3f
00000100: b037 393d ee01 edbf 82a8 1f35 c17c 08c0
00000110: e5ff e9b7 6c32 c53f ed94 3cbe cddc c73f
00000120: 64be 566e 6fdb 09c0 7bf7 4311 3b38 0540
00000130: 74d5 ed90 b531 ac3f 6666 7d36 4b4f 06c0
00000140: 38fd b2ee c57e c8bf f0a5 fbce 7265 c53f
00000150: 3ca3 2025 078b b83f 21e1 0378 704b 1740
00000160: d35e d40e 0694 c93f 2881 e269 d957 f8bf
00000170: 6223 acb4 04c3 d33f 4e47 41dd 4235 f23f
00000180: 570f 6791 77d6 01c0 1c22 c8b3 6528 ed3f
00000190: 139b 5615 b1d4 debf a94f 2041 3b16 f13f
000001a0: 1433 c0f9 abd3 edbf e082 692f 2f7d f33f
000001b0: 5397 d74f cbc5 0540 c3a7 57e0 c87a eebf
000001c0: cb9c d849 86b4 eb3f ee55 b4a9 a547 e1bf
000001d0: 4c10 2c0d a719 1040 0056 7219 d44b f53f
000001e0: f53c 89cb 8802 e9bf 48aa 8d9b cffe d73f
000001f0: 9a06 035c 7ed3 eabf e6e7 8a59 f1a0 08c0
00000200: 621c c88d 045b 0540 4a1b 113b 2815 af3f
00000210: ae0f 7a13 0af3 0740 8d35 adb8 35bd fd3f
00000220: ffed 6cfb b83c ef3f 951c 66f8 c42a eebf
00000230: 2a34 db24 6d38 e9bf 2657 a9a9 2ac7 f1bf
00000240: a1df 8636 c9bc f2bf 2f22 8da7 e8d3 f03f
00000250: c18b e3bc 3b45 d6bf d271 4ae0 5dc8 f7bf
00000260: 63bd 2e59 f7c3 c5bf 9a0e f0b4 5e37 0140
00000270: ac22 0065 e3e4 e1bf 30a5 058b ab36 c43f
00000280: 2d6f 8add 5ba4 f63f 0243 ec63 04ea edbf
00000290: e000 6bb3 c42f dd3f 369c 3cb6 1612 da3f
000002a0: c070 e022 458c eabf febe 1308 c9fa e13f
000002b0: 6f3e 68e5 7c5f ed3f de3c 06a4 ee8e f5bf
000002c0: 05f1 25ff 2c24 02c0 8117 e7df 0d96 613f
000002d0: a143 2777 688d cb3f cca3 2ca3 4f78 ed3f
000002e0: 6e16 f098 e026 f73f 1efd 5108 4d29 f63f
000002f0: 0127 aa5d 7908 b83f 5c7b ce15 d742 e63f
00000300: 9282 c537 40a9 e13f 265f 4ad2 741e fabf
00000310: 28aa c07e 0e41 f63f 6fa8 b535 1b4e ddbf
00000320: 4f48 09e8 597b efbf ab55 541a 6bda ed3f
00000330: 4560 eeeb b574 f13f a8bd 6635 3fe7 0740
00000340: f7c2 3f28 173d f5bf 14cc 803c 4253 e63f
00000350: 2981 0630 c0f6 f5bf a222 cc81 7797 e93f
00000360: 8d39 f3d8 4bad f8bf c057 6536 2541 e3bf
00000370: cb27 35a1 71c8 f2bf e8db a979 d61d f43f
00000380: eb60 ea11 2241 b7bf af7e f2f0 477a ebbf
00000390: 330d b9d7 015f e6bf 1bcf 2275 7f30 febf
000003a0: 801c e8ab a0a6 0140 e2ae 64ef 5d9a 09c0
000003b0: debe c6d9 3494 f83f 2c12 bf4d 5c45 f0bf
000003c0: a51b c3be 6f62 fbbf c798 ceb7 3694 e0bf
000003d0: 0df8 2d00 70e6 e9bf 8af0 2b40 b351 be3f
000003e0: 5251 3c14 b946 d5bf 5bed a45b a8cf 0340
000003f0: a542 7343 d06e 0040 3328 95e3 51d3 c0bf
00000400: 45bd a5d3 412c f9bf 002d 6dc2 26ae d13f
00000410: 0521 989a c24f c53f 45f3 016d ff51 01c0
00000420: 2e0a 325b 4052 de3f f794 fdce d4f3 b1bf
00000430: bbb2 70a5 6f98 b5bf 4273 dcc5 5883 f1bf
00000440: 30f0 0ac0 dd23 f23f afc0 3c5e 1806 02c0
00000450: 6580 ed3d 7c8f e2bf 4a48 88a0 5a81 d1bf
00000460: 4ef4 a795 443c dd3f d292 4561 5e71 f6bf
00000470: 47ea 12b0 7c70 a9bf 6f91 7353 28d7 f2bf
00000480: 3cfb 6146 5b0b 0340 42c8 6a7c 29ac f6bf
00000490: 54fe 3712 3447 05c0 1c01 0103 37fd e9bf
000004a0: c19b f53a 52c7 0ec0 35ec 6813 9309 f93f
000004b0: f95b 0f9e 9432 c7bf 4d1e b7e3 ce45 f3bf
000004c0: 5e00 d3d5 0690 00c0 9147 baee 88ed f43f
000004d0: ef14 522a 8a68 fa3f 9d1e 2479 6496 efbf
000004e0: b720 2cc4 a278 edbf fa41 5085 abaa 10c0
000004f0: fb8e 9534 a0ee d2bf 3ec7 931b 5557 08c0
00000500: 1c2c 0aa4 de9e 0bc0 75c4 69b9 81ba 0040
00000510: d4b0 1ac7 82a3 c1bf e169 3702 862e f4bf
00000520: 4fb2 264d 9bf8 f13f 9d19 28c8 f0d6 00c0
00000530: 8478 1d48 8aa3 0340 f358 8f3f 5564 eb3f
00000540: 4f15 0b0a 0c34 d13f 6382 53a9 c705 f3bf
00000550: 5a6f c9a7 e695 f73f a9e4 4a60 5b71 0ac0
00000560: 171c e9df 7ab1 d93f aef6 8017 efa9 0cc0
00000570: 4428 6a23 a355 f2bf 5a40 986d e9b6 e43f
00000580: 193f 7cee 3889 fc3f 3fe6 1663 2df8 d8bf
00000590: 586e 4f54 bc7b ef3f 3ed5 290f 7731 f4bf
000005a0: a5b0 f425 a13e e7bf 29a8 0400 4386 f0bf
000005b0: 785f 5cde 2fcb 0040 12f1 5812 3bfc fa3f
000005c0: 98ba 6d50 0c1b eb3f 364b 018f 7f5c f2bf
000005d0: 7465 6138 c2b4 d1bf ee01 a29f a8cc eb3f
000005e0: 5fd7 9411 0795 07c0 4418 4095 0b4b 0740
000005f0: c7d3 7373 7f20 eebf 6577 2bc4 7cdd e63f
00000600: d087 5d10 2265 0640 e5f0 925d 7f24 f4bf
00000610: 7648 9ddf a385 f83f ed2c 42fd 8ca3 debf
00000620: 7d00 53be ab85 f93f a383 c9e1 0b49 e63f
00000630: 5f3b 7a1c 0b28 f6bf b857 d6d3 b9f5 f1bf
00000640: 63ae 43d0 c26b 00c0 bbbe acbe 0c7d eabf
00000650: 2578 5f12 11cd e4bf 6aa4 230b 821a b53f
00000660: 0481 44f8 9cad cabf 1ba9 3591 9584 d4bf
00000670: d109 d051 642f e4bf 8eed 6ce7 d607 0ac0
00000680: 1ee9 40fe d52f 1740 91d1 5e1e 2006 ddbf
00000690: 24b5 7d65 9bf9 01c0 941b 8b5d 0b1d eebf
000006a0: 5d07 9d12 93b4 febf a9ed 5bd9 b3f0 f3bf
000006b0: 088e 23b5 f592 06c0 8077 6d94 08bf cdbf
000006c0: 372e 81e2 0234 de3f 60a9 f1e3 c845 0c40
000006d0: a15e 22c9 284e 0ac0 2e7a 9cc4 e378 e53f
000006e0: 719f b29d 3369 0140 a49c 7a9b 6884 fabf
000006f0: d51a 88be 49f0 eabf bf90 d9a6 3564 ed3f
00000700: fcb5 1b6b 058e 0640 f8a7 b89f 7e4d fc3f
00000710: e8ee c803 5998 0240 b5c4 fa1d d027 e83f
00000720: 98bc e41a 752c 00c0 460e 9ba8 9725 f5bf
00000730: c022 66c3 23be c83f 4af8 a9a8 9752 1040
00000740: 8faf 29f6 f794 f83f 7b84 c8b0 67dd 0b40
00000750: dc44 c682 3ec3 fc3f 7b69 19d7 7ac0 00c0
00000760: 37f9 8dde 55c4 f0bf 21b3 e00e 5c58 03c0
00000770: 08b5 f79b 1c69 e8bf e1ba cfc1 0585 873f
00000780: d917 e109 02c7 ebbf 92af a655 80aa e0bf
00000790: c598 5c6c 43c2 c9bf 9d35 d779 c901 cfbf
000007a0: a751 d558 7b1c 0440 61b7 d015 7f51 e7bf
000007b0: 5afc 24c8 a457 d6bf bd3f 8017 6bd8 d13f
000007c0: eea2 76fc e1cf dabf 9a9f dad1 38ec f13f
000007d0: 79ff 9ea0 4af3 0540 8967 cdd5 de66 fbbf
000007e0: 48dc d0cb 6cec f33f 276e f6c0 6906 dcbf
000007f0: 5550 29fe f23e 0a40 2753 6b1b 77aa fcbf
2.5450741130674173 0.21559597259133986 -0.6954555314859329 -0.3941793255065642 -1.2551214048437698 0.18424617386935027 -1.4024815622679179 2.283604666965515
0.4525457823700158 0.8285604805071649 -0.6975317866870678 0.3327204401360814 0.5252036283495187 -0.37457757580255 -0.7387664265261218 2.6697072054507425
1.535445468971253 -0.7485827207779076 4.325612269270346 0.1843697877520793 -1.0151766485237943 0.9875979861192961 -1.0801032984536347 0.24203571245130093
0.7047919654344089 -1.2968454886752294 0.9913022653983108 -0.18269683214493337 -0.5292784229186986 -4.799736972297789 -0.12898110711020344 1.9001688060888435
-0.9064856715938188 -3.0609153890882803 0.16560133915117983 0.18642589367770004 -3.232146131536682 2.652456412207298 0.05506675142434406 -2.7887176758784333
-0.19136881022675722 0.16715846163360437 0.0958713975566185 5.823671221958905 0.19982982372379485 -1.521447576153216 0.308777977407365 1.1380032198689665
-2.2297202453209297 0.9111813079226212 -0.48173167308634496 1.0679276031487268 -0.9320888402886305 1.2180625774419056 2.721579192892855 -0.9524883634269304
0.8657866899783583 -0.5399959864177484 4.0250513132232975 1.3310128206261425 -0.7815593695940196 0.37492742720374794 -0.8383170888048028 -3.0785853381648733
2.6694422795003883 0.060708291254334926 2.9936715623498094 1.8586938108377098 0.9761624251036095 -0.9427208758869648 -0.7881379814003868 -1.111124670734577
-1.1710903291659422 1.0517355484936493 -0.34797566839386823 -1.4864176522597643 -0.1700429139577678 2.152036107612571 -0.5591904614130576 0.1579183987444508
1.4151266721664328 -0.9348165465945331 0.45604054948127093 0.40735404774244743 -0.8296228104768701 0.5618634374386315 0.9179062347993304 -1.347395554275685
-2.2676639493421384 0.002146746729723981 0.2152529317668526 0.9209364115714549 1.446991536534735 1.3850832295427788 0.09387930428252035 0.6956592012319152
0.5519105042731829 -1.632435628363916 1.3908829642556473 -0.45789222951009995 -0.9838075191457935 0.9329123987433169 1.0909938064633178 2.987913529584791
-1.3274146625737424 0.6976634198857732 -1.3727418781273377 0.7997396025758301 -1.5423086619008217 -0.6017023146075573 -1.1739364907430054 1.257284617660611
-0.09083760201827189 -0.8586768823624505 -0.6990975583397926 -1.8868403030036862 2.206361144085861 -3.200374479541879 1.5361832148445766 -1.0169337307899111
-1.7115323497434727 -0.5180924978237947 -0.8093795779711869 0.11843414608660133 -0.33244158722051964 2.476395336123159 2.054108168559042 -0.13144897091325589
-1.5733049647786441 0.2762543581672645 0.1664965872626071 -2.1650379673214126 0.4737702265339604 -0.07012682012062386 -0.08435724057262466 -1.0945670823050055
1.1337563993138353 -2.252976165989899 -0.5800152978445224 -0.2735201423357735 0.45680346121645676 -1.402677898376329 -0.04968633317317433 -1.1775286922284882
2.3805451868678613 -1.417031751636856 -2.6597672866189814 -0.8121600207014441 -3.847324810619711 1.5648375280568534 -0.18123109548352526 -1.2045430083398003
-2.070325537206414 1.3079919171618466 1.6505223897123036 -0.9871084562336879 -0.9209760505191501 -4.166669924758475 -0.29581456313302085 -3.0426427988503795
-3.4525730910877552 2.09106774190928 -0.13780245515716294 -1.261358269365353 1.1231949819295044 -2.1049514424550595 2.4548535951608432 0.8559976807980817
0.26880169850149555 -1.1889111151032459 1.4740969232725178 -3.3053500674110023 0.4014575182558828 -3.5829755626899304 -1.1459075339685265 0.6473281040689571
1.783501559813834 -0.390147539870302 0.9838544508633715 -1.2620764343567568 -0.7263952008556954 -1.0327787399969657 2.0992123958530406 1.6865797726341651
0.8470517702933931 -1.1475825868735234 -0.27665763383773556 0.8687327497319168 -2.9477673886821516 2.9116431865868737 -0.9414670233660382 0.714537032264826
2.7993813780349015 -1.2589105277284542 1.5326269850670804 -0.47873234493518063 1.595134490446099 0.6964167985826076 -1.3847762215043173 -1.1224916720288842
-2.052617671075312 -0.8277648662678624 -0.6500325545164328 0.08243572971299931 -0.20842325327340216 -0.32059230023027546 -0.6307851407912556 -3.2538278656117603
5.796714756690816 -0.4534988686166566 -2.2468784264552983 -0.941045458509381 -1.9190855719648063 -1.2462652674283652 -2.8217577125049083 -0.23239238021318087
0.4719245159110161 3.534074574291637 -3.288163730012301 0.6710070457518833 2.1763679809700354 -1.6573263238331402 -0.84183203900542 0.9184826144014763
2.8193462722617806 1.768919586097125 2.3243885322279887 0.7548599801576957 -2.0217077351622486 -1.3216778360519057 0.19330260315861914 4.080656657575739
1.5363692870841736 3.483107930297192 1.7976670368555494 -2.093984299147619 -1.047933453897327 -2.4181443369219697 -0.7628310247652346 0.011484189011722492
-0.868042964263391 -0.5208131478188867 -0.20124094763850145 -0.24224203538180414 2.513907140741327 -0.7286982942657511 -0.34909934563979095 0.27883412642495015
-0.4189381566489335 1.120171375028781 2.7437946842691727 -1.7126148559241037 1.2452209435994224 -0.43789142459874814 3.280736909519002 -1.791617495638272

lstm.bias_ih_l0 f8 [256]
00000000: 9767 10ce 060d 0ac0 16f3 7ece 84bb ddbf
00000010: 744d 05ff 5823 eb3f 3f38 979c e9ec f8bf
00000020: ea30 3532 23e6 f03f fa37 add7 529a f5bf
00000030: 91af 8398 e3c2 02c0 f3b2 bd3e 2cef eebf
00000040: b85d 42ea 7c88 ab3f 4f08 5a48 0b91 f83f
00000050: f427 9ce0 514c f83f 2705 275e a118 f23f
00000060: 37e4 3cc8 ab53 c53f b35b a690 069d dc3f
00000070: 483e 1016 14d0 f4bf fc43 83cf ced1 f03f
00000080: a4d0 09b8 7a2c d33f 39f9 8ca8 1085 eb3f
00000090: a188 fee3 2abd 00c0 209d 3b8a ad72 e4bf
000000a0: 65a5 387f ec51 f2bf 2a8f 70f2 dadd d1bf
000000b0: 8519 17ae ea1a ed3f e5fa 955c 6805 f23f
000000c0: f4e6 45dd bf3c 00c0 4abc 291a 9a0e f13f
000000d0: 5949 2809 1a28 00c0 5c4b 1c68 e32f f63f
000000e0: 9489 3bd9 d2d5 f3bf b5d5 6b91 e4c9 b5bf
000000f0: ef3e 5ce5 a806 c6bf 0912 7827 f3dd fb3f
00000100: 1814 7531 1f38 dbbf 45d7 8fcc 822b f73f
00000110: 7149 7e65 4e30 f2bf b218 2a70 e8cb d4bf
00000120: 3004 97c3 464a e6bf bbe0 6027 ef27 f3bf
00000130: f890 19f4 2cb2 91bf 8e7a e063 4165 e33f
00000140: b3e4 a770 babc f33f 28ad d7d4 2409 efbf
00000150: 8e96 76ec 7241 dcbf 49d5 19fb 28b4 ecbf
00000160: d3c1 71b3 6120 d1bf 6760 c72d 2bd0 0140
00000170: 8f56 d21e 5598 0140 d91d 6f8b 1bae ea3f
00000180: 5bd0 3ba8 8618 febf 6c7f 6014 2a34 e3bf
00000190: eddd 4f64 cd9e fcbf a935 cc87 cf36 01c0
000001a0: 8100 5dde 2df3 03c0 be9d 342c afcb e13f
000001b0: 2f96 2b23 a868 efbf 520c e8dc 4c09 e6bf
000001c0: 9a78 d3a2 0df7 ea3f 68b8 b1b4 b01c d1bf
000001d0: 5759 896f b48c ffbf 2e62 bfce 665b f23f
000001e0: 86d1 636a aeb2 e0bf ac57 0b2a 0137 d5bf
000001f0: 983a 323a 0684 01c0 5bf7 eda9 bba6 d33f
00000200: 6a1a 2e94 dd6a ca3f f8f3 76f4 5332 d83f
00000210: 84e5 0759 1e31 fc3f 63e9 26a4 fc7b e53f
00000220: 560a e30e 90c6 f33f 5efd 9adc 6f44 e33f
00000230: 6846 23c2 4e23 b2bf b015 9d0d e179 b4bf
00000240: eca7 7189 4376 e53f ef62 a3de dde0 f33f
00000250: d495 0f62 c7ab e03f 8dff f59c 4dc0 f03f
00000260: 0ed9 8b4a fabf fb3f 1d8a 89a4 1c80 d8bf
00000270: 17cf dbfb f730 e93f 1245 c65a 3ca8 f0bf
00000280: b648 96a7 6f3e c6bf ea20 943f b770 b03f
00000290: ac2e a18a c7e5 d83f 0571 bf4c 4431 3e3f
000002a0: 86d0 bd58 5512 d33f f1ea 61c3 1c2c f33f
000002b0: 4c49 76cf 0580 f13f 207b 56fd 1be4 0240
000002c0: 570f 2c6e 09c1 d7bf 5b33 c7e5 2c74 ecbf
000002d0: 6136 f4bb 4619 cabf b45c f408 b308 e3bf
000002e0: 5104 f6c2 14d7 c53f f6de 8ad9 2d39 e63f
000002f0: 6c5f a683 9946 f33f 9e53 7dab a16d d5bf
00000300: 9958 73de 75be d8bf 2391 d51c 89cf ef3f
00000310: 638e 95e1 a64e c7bf 2815 e4d8 7a2c e23f
00000320: 1068 7dd5 54d5 b03f a29e 2dbc 3da3 c1bf
00000330: 2dc8 1e73 24cf a9bf df90 dc9f 66d6 e73f
00000340: 7cda 6ebc af2e ec3f 655e c6da a7c5 edbf
00000350: f14c 49d1 8eb2 e7bf 5219 c491 a81a ec3f
00000360: 6df0 2e42 ff18 e83f e44d 4a3a f6cc e6bf
00000370: a015 abc7 e70d c1bf 9324 43e3 575a e93f
00000380: 0bff 5cdd f030 d43f c31a b40e 847a fc3f
00000390: 96bf afe0 1313 dc3f 8b7b 11ce 3316 dabf
000003a0: eb0f 672a 064d e63f bb92 16ca 0c7a e6bf
000003b0: ce39 8b03 1a73 f13f e0c8 afa1 93b0 d63f
000003c0: d79f 30fe b70f b8bf 6d11 7aaa e262 eb3f
000003d0: e6b4 3a08 fb87 b3bf e703 62e4 2d8b a13f
000003e0: a53b 7ad0 e083 dcbf 3a7d 18e5 aad5 e5bf
000003f0: 9c9e 7a92 89f7 ebbf af3e 6b0c 5cd6 e1bf
00000400: d2cf 46b2 1301 b3bf eb28 3ffe 952a e1bf
00000410: dd1f 3bf0 7df4 f63f 238a 8ada 1830 e5bf
00000420: 8936 6f04 ec4c d9bf bfed b478 1987 ed3f
00000430: 32e3 0cc7 7df3 e23f 1d24 a80d a33e e5bf
00000440: 2c7f 152c c674 de3f 5284 9828 a8a0 a43f
00000450: b5fa 3039 96ac dcbf 6063 9d0a b29c e83f
00000460: b1f3 ff09 4b8f e63f 3abb 2397 00de e3bf
00000470: dc16 0d7c 168b dbbf cb03 8168 6029 e3bf
00000480: 7e1d 1d84 630a eb3f 3f43 dbc1 ebd8 e43f
00000490: 95b2 4c2d 230c dfbf 5bc6 3aeb abdf edbf
000004a0: 8b78 8ff7 2957 ea3f a335 568c 0d5b f0bf
000004b0: 3ea8 267c 7735 e63f 6d9f e13c 878b dcbf
000004c0: 0bf2 b6b8 f744 ba3f cd96 5936 d3dd e7bf
000004d0: 5eb2 4705 120e dabf fc75 0191 4e92 febf
000004e0: a09f 3801 941d a43f 5c20 0033 8043 fcbf
000004f0: 225c eb2d 9828 e63f c997 ee0a 91cf f1bf
00000500: c608 1e16 ae59 fabf d77b a345 d23d 0140
00000510: ca3c 1dfa 9cf8 debf 7576 c27d 85ac dfbf
00000520: a7fa 9f67 8b6d ee3f c9c2 e6e5 7e69 f13f
00000530: 1f2e 6c05 4e53 e5bf 38e7 2d18 b279 e03f
00000540: 81e5 d5e0 1870 ecbf 00ef a6cd 33c1 e2bf
00000550: 93e3 95fb ae65 f53f fa07 e350 3ce5 f3bf
00000560: cb1f e232 98d3 e93f c9f1 ddfb 9568 dabf
00000570: b8fd c189 51ab ebbf 2541 265b 5389 d6bf
00000580: 0c7a 4441 7c15 e93f d034 e345 91d4 b0bf
00000590: a51b 9a9b 22b8 d2bf b99b 9e57 bc2e f63f
000005a0: 5d4f 429a 6f79 b93f b113 5692 3b45 e9bf
000005b0: ed29 9a7d 2fd8 f03f 2521 4ec5 999c eebf
000005c0: 2fa6 2d05 5a67 e43f 238b 9d6c 5981 c0bf
000005d0: ca0b 4a49 9191 ecbf c2c6 5798 fe70 0340
000005e0: 30c8 fa87 6864 ea3f b878 cb1f 1db7 d13f
000005f0: 1d09 1eea 5ebf e0bf 68a2 1ea2 dc4f fc3f
00000600: f21f ab52 26b0 e5bf 7b25 faba 2e81 fbbf
00000610: d0dd a103 31ff c53f 7a8e 8205 d329 e33f
00000620: 7ca2 90c6 f573 d4bf 8724 60c3 84e4 dabf
00000630: ef30 d2e9 f0ee d2bf 0283 1bc8 ff6b febf
00000640: b696 62db 3cbb a43f b289 8a58 0f80 ca3f
00000650: 2b5d 660d 402c f43f d60c 9ed2 db28 cc3f
00000660: 1bad 3cf6 13fc f13f 4eef 0fc6 9eea f2bf
00000670: af68 8c19 8f26 f33f e8ba 1e1d 44ac f0bf
00000680: 7411 82cb ea35 bdbf 062b 126d 8b4d e83f
00000690: fc9f f025 6e3a e03f 908f 12ae e2a6 d13f
000006a0: 4934 8523 d87d f5bf 9f27 f8f5 99c9 ec3f
000006b0: aeea dd6b b4d0 e53f bbde a443 7f51 e23f
000006c0: 51b3 047e fedf f5bf 74e3 4c62 3dca bebf
000006d0: 9642 0be5 e741 fdbf 2ad4 3c2c 53ee f6bf
000006e0: 3599 eee8 54c3 e5bf 4f89 47b8 9ca7 e0bf
000006f0: a439 af39 dcb8 d33f 2ddd c977 8170 efbf
00000700: 1c30 57f3 ea30 f4bf d321 1e2e df0e f03f
00000710: 0303 89c4 00b9 e2bf 122a 9c8c 47f5 e53f
00000720: 65d7 5e58 83cb d83f cce4 612c 17a5 f4bf
00000730: 73a0 9f15 5227 f8bf 9572 0e2f 9ee1 f3bf
00000740: 787a 7c3b e24d f7bf 7096 ada6 c17d efbf
00000750: c0b9 3f0e b9ac e6bf d1bb 5a0b ce57 c7bf
00000760: 5509 423b 61f0 d73f f823 f313 b036 c7bf
00000770: bbf7 01ee 5f22 db3f c320 9c47 b54a e43f
00000780: 72e3 1952 2b8e ecbf ffc5 7cac 4401 cd3f
00000790: 8dd1 99b5 c6ce d9bf ff00 a13c 406d e8bf
000007a0: 5455 8d0a 2611 f5bf 6574 304a 0c33 f6bf
000007b0: 1e6c eb62 a796 f03f 6671 7305 180d d2bf
000007c0: 76d8 dbed e6c6 b63f 7424 700f 3be8 fa3f
000007d0: b7dc 291c ecf7 c3bf 90a7 9cca 7550 f5bf
000007e0: 223d d56d 997b 06c0 c100 d77b 8d16 e9bf
000007f0: 6b28 5b02 23b7 c3bf 8360 dfc5 5fd3 df3f
-3.256360635638838 -0.46457023778548157 0.8480648976205161 -1.5578399769615456 1.056185909389621 -1.3501766610020227 -2.3451606669604605 -0.9666959023867022
0.053775695415591185 1.5354111505735266 1.5186327718570256 1.131013267310047 0.16661593701590657 0.44708408475838296 -1.3008004056790856 1.0512226205794368
0.2995898053407109 0.8599932949071337 -2.0923669635822795 -0.638998765932147 -1.1450009316998486 -0.2791659705710453 0.9095357322883478 1.1263202301631108
-2.0296628272015997 1.0660649320596058 -2.0195809092921704 1.3866914812867526 -1.2397030339858235 -0.08511189031908979 -0.17207823943362352 1.7416869680174634
-0.4253004057866874 1.4481227865885142 -1.1367935146887158 -0.32494555429037597 -0.6965669460406669 -1.197249559232701 -0.017281248472856142 0.6061102820129507
1.2335762405985349 -0.9698661954002192 -0.4414946850978162 -0.8969921974482215 -0.2676014187227597 2.2266448570699597 2.199381104272852 0.8337533686944268
-1.8809877940775752 -0.600117721365661 -1.7887700956761095 -2.1517630204386546 -2.4937398311740826 0.5561138022794052 -0.981525486652293 -0.6886352839068286
0.8426578693577256 -0.2673761143295281 -1.971851764382867 1.1473148418500716 -0.521811683457188 -0.3314822111691409 -2.1894650026873244 0.3070515784710232
0.20638627753597244 0.37807177423002214 1.7619918325202386 0.6713851171582913 1.235977228309499 0.602104121084192 -0.0708512519807073 -0.07998472769130305
0.6706865009739409 1.242399091415958 0.5209690966846048 1.0469490176473955 1.734369555660638 -0.3828193289574829 0.7872276229013292 -1.0410731836203166
-0.17378040011369017 0.0642199068280466 0.38902462518738434 0.0004607002017544967 0.2979939810386515 1.1982696182373582 1.0937555412279663 2.361381510926904
-0.3711570335292342 -0.8891815650800753 -0.20389637162627408 -0.594811933030448 0.17062625426845782 0.6944798706890356 1.2047362463544813 -0.33481637713458123
-0.38662478183449306 0.994083935086142 -0.1820877648816462 0.5679296718741726 0.06575517856745727 -0.1377942246283413 -0.05040849595333472 0.7449219820305436
0.8806990318615386 -0.9303778908678849 -0.7405466163276327 0.8782542082779321 0.753051404251449 -0.7125197542649713 -0.13323685883930825 0.7922782362667412
0.3154871141195918 1.7799110960346958 0.43866440717737853 -0.40760512470108584 0.6969023540664215 -0.70239867658946 1.0906009806090995 0.35452738561356334
-0.0939898486691385 0.8558209733605914 -0.07629364920531465 0.034264978531616745 -0.4455492053902453 -0.6823324656033158 -0.8739669667165404 -0.5574169390256055
-0.07423518278557076 -0.5364484754329885 1.4346904167195966 -0.6621212261564476 -0.3953199427895489 0.9227416379503025 0.5922230613424289 -0.6638961092695613
0.47587732606006017 0.04028821464113065 -0.44803386292543773 0.7691278655357614 0.7049918361004669 -0.6208498908943973 -0.43036424745910806 -0.5988008538334894
0.8450181560846628 0.6514796053180375 -0.4851158087138086 -0.933553656990806 0.8231401286282262 -1.0222297174362687 0.6940267014335928 -0.446016129927094
0.1026148630107359 -0.7458282529375652 -0.40710878863936795 -1.9107194580350315 0.03928816332728435 -1.7664796821791446 0.6924553772795472 -1.1131754328757657
-1.6468945373494974 2.155186218310955 -0.48392414498534875 -0.4949048736687936 0.9508721374439418 1.0882557850383583 -0.6664190393361799 0.5148554298641335
-0.8886837378806122 -0.5860842720644257 1.337325079685091 -1.2434657249109464 0.8070794099630744 -0.41263341518768165 -0.8646629038411708 -0.3521316900378387
0.7838727259402858 -0.06574352222669977 -0.2924887198973301 1.3864100859297948 0.0995092155083603 -0.7897012575273178 1.0527796655975366 -0.9566162923447662
0.6376161671771053 -0.128947427782884 -0.8927694732122913 2.4301731015956145 0.8247568755962273 0.276801377343769 -0.5233606884578738 1.769497521667427
-0.6777526487940106 -1.7190387061876595 0.17185032536848022 0.5988555057160305 -0.31957764044867765 -0.4201976688351085 -0.2958338054093152 -1.901366979284092
0.04049101045647545 0.20703307936953547 1.2608032725746152 0.2199969080357735 1.12404247461638 -1.182280324631353 1.1969138143527223 -1.0420571458341161
-0.11410396069010692 0.7594658975880015 0.5071326008810497 0.2758108806540287 -1.343223704100881 0.8996095470513302 0.6817266566061642 0.5724483796284042
-1.3671860621063454 -0.12027343416128905 -1.8285902926474242 -1.43318478851621 -0.680094199128496 -0.5204604720313827 0.3081579745602545 -0.9824836101169346
-1.261942816304333 1.0036308099243925 -0.585083373887841 0.6861913439072984 0.3874214518540298 -1.2903053029715918 -1.5095997662229166 -1.2425824964658763
-1.4565145801240345 -0.9841011290961443 -0.7085843351649643 -0.18236709169784018 0.37404661929044397 -0.1813564393435454 0.42397306673944585 0.6341196440344209
-0.8923546412980683 0.2266012041305174 -0.40324561819513677 -0.7633362945707914 -1.3166866695585968 -1.3874628923433872 1.036780725865135 -0.28204918415374036
0.08897250468348425 1.681696949295909 -0.15600348830387187 -1.3321435846832834 -2.8103512364101713 -0.7840030115840123 -0.15402639021914707 0.49727625201695264

lstm.bias_hh_l0 f8 [256]
00000000: 9667 10ec 1029 0ac0 1bf3 7ede e244 d4bf
00000010: 744d 057f 9400 ea3f 4038 97ac e4c1 fabf
00000020: eb30 3582 636a f33f f537 ad23 d21c f7bf
00000030: 91af 839a c774 02c0 7ed9 5ec7 3f30 f1bf
00000040: 2dd1 de0a 3067 b7bf 4e08 5aa4 0717 f83f
00000050: f527 9c9c 8b19 fb3f 2c05 2766 ae0d f13f
00000060: 36e4 3c08 346e c53f d72d 5340 ffe1 e33f
00000070: 4b3e 1062 ae63 f2bf 0788 06a7 a93f ee3f
00000080: a7d0 0988 a856 d93f 3af9 8cc0 fcf7 eb3f
00000090: 9c88 fe2d 9c20 02c0 209d 3b9a d86e e5bf
000000a0: 65a5 38e7 bb59 f1bf 2a8f 7072 7562 d3bf
000000b0: 8519 1716 f7bb ec3f e5fa 95b0 6a03 f23f
000000c0: e3cd 8bfa fb9d febf 44bc 297a db14 f33f
000000d0: 5949 28c7 e370 00c0 5d4b 1ca4 1fe2 f63f
000000e0: 9389 3ba9 668d f6bf d5ea b5a8 a183 c1bf
000000f0: ef7d b8ca 2070 bebf 0912 787f f111 fc3f
00000100: 1e14 7561 99c3 dfbf 43d7 8f9c 0972 f83f
00000110: 7049 7e25 9925 f2bf b218 2af0 f7b4 d3bf
00000120: 3204 97bb e3de e6bf 72c1 c1c6 6e43 efbf
00000130: 2c32 833e cca6 c4bf 8b7a e003 250a e43f
00000140: b0e4 a79c 7560 f43f 93d6 6bbe 51d6 f1bf
00000150: 9196 76dc 32bf dabf 9aea 8ce5 27c8 f0bf
00000160: a983 e3a6 4851 cfbf 6860 c729 777f 0140
00000170: 9056 d238 14c9 0140 d81d 6fe3 b420 ed3f
00000180: 31e8 1d9e 261e 00c0 667f 6024 34a0 e9bf
00000190: eddd 4f44 7c11 febf 5a6b 9893 53a4 ffbf
000001a0: 8300 5d64 e851 05c0 c09d 34dc 0019 e33f
000001b0: 14cb 9595 987e f1bf 520c e81c 2287 e5bf
000001c0: a178 d3f2 e792 e63f 73b8 b1f4 68af d9bf
000001d0: a7ac c439 df65 00c0 2f62 bf32 9466 f23f
000001e0: 0ea3 c784 43ee d5bf ab57 0b3a 31d5 d3bf
000001f0: 973a 32f6 215e 01c0 61f7 ed99 cc7c d53f
00000200: d534 5c28 664b b53f f8f3 7624 20a4 de3f
00000210: 84e5 071d a42f fd3f 60e9 260c 7c20 ea3f
00000220: 550a e346 40fe f33f 5dfd 9a0c 0b1c e33f
00000230: 39a3 1141 c7af c3bf b415 9d0d 700e b9bf
00000240: eea7 7181 7886 e43f ef62 a37e 9e32 f33f
00000250: d495 0f52 923a e03f 8bff f5cc 9077 f13f
00000260: 14d9 8bde 1331 fe3f 1c8a 89f4 ec0b d7bf
00000270: 17cf db63 3507 ea3f 1f8a 8c8d a9fb eabf
00000280: 6045 b23c 9da0 92bf ed20 943f 5ce0 b43f
00000290: 6197 50f5 ac8e e23f e17e 9908 15e7 a23f
000002a0: 10a1 7b71 8dd7 cc3f efea 618f 649e f33f
000002b0: 4c49 76bb 148c f03f 207b 5609 1336 0340
000002c0: 580f 2cee cbd8 d3bf 5c33 c76d 063e eebf
000002d0: cf6c e8f7 19b9 b4bf b55c f418 8481 e6bf
000002e0: 2502 7b11 8b45 d43f f6de 8a29 c406 e03f
000002f0: 6e5f a643 7f53 f13f 9d53 7d2b 3139 d8bf
00000300: 9458 73ee 91dc d5bf 2491 d50c fa7b ed3f
00000310: 4d8e 716a deb2 4e3f 3b2a c891 396e de3f
00000320: 2468 7d95 4739 bc3f 7b15 263d b2e5 8c3f
00000330: 1264 8f79 5069 bcbf df90 dc9f f0c3 e73f
00000340: 7eda 6e84 1984 ed3f 655e c66a 6999 edbf
00000350: f34c 4961 8eff ecbf 5219 c469 a9e3 ec3f
00000360: 6bf0 2ee2 267e ed3f e74d 4a12 edc7 e8bf
00000370: a5d4 a9b0 c43b b03f 9324 43db 7c41 e73f
00000380: 0cff 5c5d a9d0 d63f c31a b4de 6780 fc3f
00000390: 9abf afd0 4e86 dc3f 8b7b 116e ce22 d8bf
000003a0: eb0f 6792 b9e4 e53f bb92 168a 7386 e0bf
000003b0: ce39 8b03 f986 f13f a491 5f03 b4fa c33f
000003c0: dd9f 30be df24 b5bf 7311 7a22 3156 ee3f
000003d0: 7bd3 ea20 ca96 90bf 0081 1859 5154 c13f
000003e0: a13b 7ad0 ce3f d3bf 3c7d 18e5 2ffe e8bf
000003f0: 9c9e 7a5a fe1e ecbf 557d d6b8 2598 ddbf
00000400: e667 2399 4935 c1bf c951 7efc 7f00 ddbf
00000410: de1f 3b84 f406 f53f 208a 8aa2 a51e eabf
00000420: 449b 3782 ecb5 e2bf beed b428 a27e ef3f
00000430: 37e3 0cd7 fc0f e73f 2324 a8bd d879 e7bf
00000440: 96bf 0ad6 0290 e03f 4011 62a2 4472 8b3f
00000450: b1fa 3069 74a1 d9bf 6063 9d12 6791 e93f
00000460: b1f3 ffd9 5138 e43f 3bbb 2327 e623 e9bf
00000470: 668b 068e 8fa3 e2bf 9807 02e1 0335 dfbf
00000480: 7e1d 1dfc cdf6 ea3f 3c43 dbb9 faf1 e13f
00000490: 9cb2 4cbd 58d8 dbbf 2b63 9d4d 8f06 f0bf
000004a0: 8d78 8f27 575d e33f a335 565c e647 f0bf
000004b0: 3ca8 2674 06fc eb3f c0cf 701e 9423 e2bf
000004c0: 84bc 2d6e 559a d03f d196 5936 ecd3 e8bf
000004d0: 57b2 47b5 cd6a dfbf feba 80e4 2f48 00c0
000004e0: 2cb0 63bf 0c78 b8bf 5e20 0053 5481 fabf
000004f0: 1e5c eb95 a4b6 ea3f c897 ee42 dad7 f0bf
00000500: c608 1eaa d876 fabf d57b a36f a640 0040
00000510: 689e 0ecd 1dc4 e1bf 373b e106 7a23 e1bf
00000520: a6fa 9fdf 57a4 e93f c8c2 e6f5 2ba7 f03f
00000530: 1d2e 6cdd 8d71 e4bf 34e7 2da0 86b0 e23f
00000540: 80e5 d5c0 63f9 edbf fadd 4d5b c529 dabf
00000550: 91e3 958f cfe2 f43f f807 e370 c646 f3bf
00000560: cc1f e242 afaf ec3f c9f1 ddcb c2f6 d9bf
00000570: bafd c1d9 d181 e7bf 2441 267b 210d ddbf
00000580: 0a7a 44b9 28d3 e73f 225a e6d0 cb48 893f
00000590: a51b 9a8b d051 d8bf b99b 9e83 3aef f83f
000005a0: b127 214d 91d8 ca3f b213 5622 4b8d e9bf
000005b0: ee29 9a69 d34b f13f 2821 4efd 12ce e9bf
000005c0: 554c 5b3a 5c0e de3f 238b 9d8c 5320 cbbf
000005d0: ca0b 4a01 425b edbf c2c6 57ae be59 0340
000005e0: 30c8 fa2f 8415 ea3f 70f1 96bf cfa4 c73f
000005f0: 1d09 1e02 9de6 e0bf 68a2 1e12 3ebf fb3f
00000600: f21f ab7a 46b3 e5bf 7b25 faae 8dfc fabf
00000610: eaee d0d1 86b7 d13f 7b8e 82ed df49 e23f
00000620: 7fa2 9066 37e3 d3bf 8824 6093 5dc7 d9bf
00000630: ed30 d299 c136 d0bf 0383 1bbc ce3b febf
00000640: 614b b1ad fc3f b03f ba89 8ad8 dfbc cc3f
00000650: 2f5d 66dd 20e0 f53f d40c 9eb2 8619 c73f
00000660: 345a 796c 0399 ee3f 4eef 0f76 1176 f2bf
00000670: af68 8cb1 eeef f33f e9ba 1e81 02ca f0bf
00000680: 9b8c 105c a8c1 8cbf 062b 12b5 83a1 e23f
00000690: f59f f0dd fceb e13f 271f 25dc e2c5 ca3f
000006a0: 4834 8523 8f70 f2bf cc13 fc2a 755b f13f
000006b0: aeea dd33 d402 e83f c1de a4c3 f2bf e63f
000006c0: 50b3 04de 56a3 f5bf 4039 663b 7186 aa3f
000006d0: 9442 0b59 d9b8 fcbf 2ad4 3c28 a63a f7bf
000006e0: 3a99 eeb0 dc8c eabf a612 8f30 cf9c debf
000006f0: a339 af39 b036 d33f 2ddd c9f7 c96a efbf
00000700: 1c30 57ab 6d69 f4bf a443 3ca4 8258 ee3f
00000710: 0403 897c 81dd e1bf 112a 9c8c 3eaf e23f
00000720: 6cd7 5e58 703f d23f cbe4 61e8 5d01 f5bf
00000730: 74a0 9f1d e2b9 f7bf 9672 0ed3 1962 f5bf
00000740: 777a 7c73 928f f8bf 7496 ad36 6983 e8bf
00000750: bdb9 3fde 36a3 ecbf d1bb 5a0b 5a8a c2bf
00000760: 5709 420b 5abf d13f ff23 f3b3 180d c8bf
00000770: bef7 012e 0a52 df3f c320 9c87 7e14 e13f
00000780: 71e3 19aa 7f02 ebbf fd17 f331 d90f a73f
00000790: 8ad1 99b5 c28f d5bf fc00 a1cc 2cdd ebbf
000007a0: 5455 8d26 8464 f7bf 6474 302a 6d74 f5bf
000007b0: 1e6c ebf6 f026 f03f 5f71 7365 acb9 d8bf
000007c0: 7b27 2412 a2c1 b0bf 7324 70c7 6e82 fb3f
000007d0: c6dc 293c 0b22 cfbf 90a7 9cce 4b7a f7bf
000007e0: 213d d58b 799e 05c0 c100 d77b 98d3 e7bf
000007f0: f579 4dda 6bd8 8e3f 8560 df45 fd7c dd3f
-3.2700518076425835 -0.3167044804393286 0.8125708084939292 -1.6723372213196086 1.2134738050690952 -1.4445363420122679 -2.307021338599903 -1.074279574194946
-0.09141826882734412 1.5056225223529682 1.693736659772637 1.0658401480034838 0.16742563631285784 0.6213375336023387 -1.1493362265208755 0.9452713262764981
0.39591420445436615 0.8740218888049534 -2.2659228890707492 -0.6697810184822721 -1.0844077140885358 -0.3028844468665165 0.8979449683618418 1.1258341691861287
-1.913570383735412 1.1925921222680396 -2.055121951977679 1.430205956513155 -1.409521733345717 -0.1368295739919946 -0.11889843892321726 1.7543807009943768
-0.4963134242755717 1.5278411975572943 -1.134179254968867 -0.30792044118460205 -0.7147082008233439 -0.9769815332383998 -0.16134026577346228 0.6262383533210863
1.2735496634834753 -1.1148240507440377 -0.41791984109509267 -1.0488661734404219 -0.24466808461059245 2.1872390045137315 2.223183101576815 0.9102425043174049
-2.0147220948101894 -0.8008061132895647 -1.879268900722191 -1.977618767303929 -2.6649940338975866 0.5968021679772662 -1.0934072344941272 -0.6727457584933154
0.7054328673073266 -0.4013311757652282 -2.0497421754021903 1.15004367659834 -0.3426674648931546 -0.3098872248495989 -2.170963214309562 0.3357421401232071
0.08318174825054155 0.47876742897989244 1.8241311201112191 0.8164654004424783 1.249573017980443 0.5971732374381805 -0.15380182912056187 -0.09787655193675598
0.6414148834421647 1.1998581835561557 0.5071498492003976 1.0916908270155286 1.8869818394865137 -0.3601028812464919 0.8133799505580751 -0.8432204975727621
-0.01819081957780122 0.08154846718037208 0.5799164573006516 0.03691926698661319 0.22532814065130724 1.2261701203230435 1.0341994593369064 2.401403496696176
-0.3101072145366195 -0.9450714248756458 -0.0809494238132402 -0.7033100592988349 0.31674458224373075 0.500825959336878 1.082885040528676 -0.37849072691943225
-0.3415875271433688 0.9213838816326967 0.0009368501677155611 0.475477592816478 0.11024901771216428 0.014109985819923612 -0.11098196952606568 0.7426684496208756
0.92237544885468 -0.9249770245978196 -0.9061958217738763 0.9027907434217843 0.9216494004863426 -0.7744050366622418 0.06341199219771683 0.7267441065279335
0.3564856921911861 1.781349058089902 0.44569750194113456 -0.3771244120488794 0.6841705188203354 -0.5164125153574654 1.095452321856658 0.15608835377419183
-0.0825939025240809 0.9480214761138498 -0.01620021654044333 0.13538567400338053 -0.30076952323082123 -0.7810286974453571 -0.8787833945434218 -0.462411337381089
-0.13443870522934204 -0.45315551431238227 1.314198032881897 -0.8162410902626256 -0.5847075026802959 0.9842081828168643 0.7207016182138436 -0.733623857901993
0.5175794773585831 0.01340154285959072 -0.40047941467848164 0.7989993442125574 0.6318749673661072 -0.7856322063870275 -0.5824659131943519 -0.48761078809195046
0.8426275180908502 0.560788500786749 -0.4350797508839521 -1.0016015083148868 0.6051440975823127 -1.0175536734489945 0.8745147961210544 -0.5668430895370804
0.25941978225359485 -0.7758694707415207 -0.4908937712014327 -2.035247597864667 -0.0955818145045561 -1.6565745584685128 0.8347952774155407 -1.0526983847171199
-1.6540152211387507 2.0315674516454956 -0.5551899914762091 -0.5355806478854451 0.8013114326166331 1.0408134084247411 -0.6388615917834987 0.5840485695364124
-0.9366930738753325 -0.40879949489996614 1.3053737267311798 -1.2047790918008996 0.8964458757700355 -0.40568609150775764 -0.734597134884033 -0.45392643953620593
0.7445262545114144 0.01234587889920841 -0.3799935687351826 1.558405412806435 0.20973411813821266 -0.7984977408055924 1.0810121655546214 -0.8064055392615375
0.4696264810456275 -0.2119240223501829 -0.9173898720913425 2.4188207264458876 0.8151265084363839 0.18471714835130681 -0.5281510392526659 1.7341900546836317
-0.6781341930263791 -1.6866585574192345 0.27682657708986247 0.5715179098956037 -0.31074318901168135 -0.40279330627579 -0.25334205648029134 -1.8896014545391047
0.06347636452237061 0.22451398919390703 1.3672188423568732 0.18046649667312542 0.9561783903726053 -1.1538252460295157 1.2460772452819062 -1.0493187946082634
-0.014041247663106928 0.5822161232511867 0.5600570997967212 0.20916400670307064 -1.152480257750783 1.08482853690042 0.7503453267120983 0.7109311886951774
-1.3523777649490576 0.051806963444607224 -1.7951291540413523 -1.4518186160833104 -0.8296950774863838 -0.4783208822448536 0.300212913830274 -0.9817857589359044
-1.2757393544188806 0.9483044822428508 -0.5582892830207986 0.5838921304978745 0.2851220000260273 -1.3128336980283162 -1.4828816563768017 -1.3364504093544034
-1.5350517760449784 -0.7660413806849662 -0.8949236241149304 -0.1448471599046273 0.2773041830006568 -0.18789967333421484 0.48938230984628805 0.5337517403250093
-0.8440550157821304 0.04504278883682387 -0.3368994496770702 -0.8707489010485285 -1.4620400911274674 -1.3409244201677888 1.0095071454331968 -0.38633260638541417
-0.06545460646534977 1.7193439283894605 -0.24322643697425955 -1.4673574515131556 -2.7023802685213387 -0.7445795458552525 0.015061228370254457 0.46075374434941124
